generate_forecasts/output/Local_Forecasts/Other food products and non-alcoholic beverages/2022/models/DeepAR/W0/gluon_ts/prediction-net-state.pt (torch, 97628 bytes, 11 tensors)

model.param_proj.proj.0.weight f4 [1, 40]
0.036666382 0.18610054 0.22226828 -0.07654983 0.47325212 -0.13764183 -0.070123054 0.06397386
-0.12039551 0.071226746 0.016553173 -0.0011062737 -0.027072594 -0.0019198671 0.021342596 0.21670182
0.123581715 -0.015188152 0.071533866 -0.26591843 0.03679317 -0.012300413 -0.05359994 0.14355728
0.20980346 -0.05419171 -0.18685707 0.12009085 -0.15902032 -0.070717454 0.17368706 0.14437687
0.20317875 -0.14452012 -0.013869179 -0.12561871 -0.02094224 -0.05192203 0.019891331 0.07569952
00000000: 7d2f 163d 2491 3e3e 4c9a 633e 28c6 9cbd
00000010: 1a4e f23e fbf1 0cbe ad9c 8fbd ba04 833d
00000020: ec91 f6bd 54df 913d 859a 873c 6300 91ba
00000030: 58c7 ddbc 0da4 fbba abd6 ae3c 15e7 5d3e
00000040: 6918 fd3d bad7 78bc 5980 923d 7626 88be
00000050: 6fb4 163d ac87 49bc 9c8b 5bbd ae00 133e
00000060: b8d6 563e 20f8 5dbd 7657 3fbe 31f2 f53d
00000070: 39d6 22be 50d4 90bd 05db 313e 88d7 133e
00000080: 170e 503e 15fd 13be 8e3b 63bc 31a2 00be
00000090: 0f8f abbc 32ac 54bd 25f3 a23c 5a08 9b3d

model.param_proj.proj.1.weight f4 [1, 40]
-0.15889588 0.13948482 0.14859055 -0.12208707 -0.019541904 -0.16108412 0.040699903 0.051392194
-0.16987956 0.021328557 0.1579116 0.022117276 0.051357236 0.10679453 -0.10245125 0.098551705
0.1522831 0.021217715 -0.08979162 -0.1629406 0.09009962 0.120830804 0.020242004 0.049919453
0.12223458 0.0430529 -0.07441003 0.011189279 -0.090106316 -0.021905543 0.056151 0.11591347
0.022781318 -0.024220569 -0.0017298294 0.002905391 -0.12548327 0.0017459978 0.07242946 -0.029360067
00000000: 9ab5 22be 1cd5 0e3e 1f28 183e c908 fabd
00000010: 5816 a0bc 3cf3 24be f1b4 263d 9f80 523d
00000020: e8f4 2dbe 3ab9 ae3c 94b3 213e 4a2f b53c
00000030: f75b 523d 17b7 da3d f6d1 d1bd 7ad5 c93d
00000040: 1af0 1b3e c6d0 ad3c abe4 b7bd e7d9 26be
00000050: 2686 b83d 2476 f73d 8fd2 a53c 5778 4c3d
00000060: 2056 fa3d 3d58 303d 4964 98bd 3d53 373c
00000070: a989 b8bd 4173 b3bc 97fe 653d 0b64 ed3d
00000080: e39f ba3c 376a c6bc 71bb e2ba 5f68 3e3b
00000090: b07e 00be f7d9 e43a e655 943d 8684 f0bc

model.param_proj.proj.2.weight f4 [1, 40]
0.22235537 -0.16055048 -0.0065280423 0.12606396 -0.19505474 0.26465952 0.1366002 -0.19256379
0.030160254 0.15656346 0.00049618905 0.14053333 0.14272988 -0.13828115 -0.062297575 -0.036956694
-0.055781137 -0.17220554 -0.17972761 -0.061625227 0.13186927 -0.025510468 0.20519602 -0.19512977
-0.27623394 0.22875956 -0.24683571 -0.0976146 0.14105043 0.25246456 -0.22396614 -0.179866
-0.13381891 -0.2705626 -0.100737765 0.15280423 0.30784595 0.12382592 -0.26170367 -0.23091288
00000000: 20b1 633e 5867 24be 30e9 d5bb e916 013e
00000010: 6ebc 47be 7481 873e ece0 0b3e 712f 45be
00000020: a312 f73c 2c52 203e af12 023a f8e7 0f3e
00000030: c827 123e 9399 0dbe be2b 7fbd e75f 17bd
00000040: c37a 64bd a656 30be 840a 38be bc6a 7cbd
00000050: bd08 073e 54fb d0bc e81e 523e 19d0 47be
00000060: 896e 8dbe f23f 6a3e 80c2 7cbe 2aea c7bd
00000070: 866f 103e 0943 813e 6157 65be cb2e 38be
00000080: d307 09be 2e87 8abe 9a4f cebd b678 1c3e
00000090: fc9d 9d3e 7298 fd3d 06fe 85be 6d74 6cbe

model.rnn.weight_ih_l0 f4 [160, 21]
0.13162687 -0.0038080642 0.115167 0.067833744 -0.08409905 -0.08484775 0.15864798 0.027563667
0.027383981 0.1678172 0.20503034 0.27671716 0.24299444 0.48320827 0.32993382 0.48997122
-0.10691546 0.0040150722 -0.04831832 0.06637741 0.058775812 0.06404676 0.13536169 0.20510694
0.102964856 0.028825747 -0.004828716 0.09898188 0.14274676 0.17622373 -0.043361317 0.17580512
-0.07647014 -0.015423019 -0.00015877727 -0.084387295 -0.0014982305 0.08805228 -0.0014138505 0.11079591
-0.48641986 0.15649456 0.14440098 0.06999244 -0.01364395 0.18246222 0.1326273 0.17725556
0.026953002 -0.019197268 0.16088882 0.13937116 0.059564285 0.21791352 -0.02350936 -0.0684541
0.12083336 0.2280639 0.1573526 -0.002210233 0.055447046 -0.24709955 0.13370144 0.29732835
0.1048017 0.3435336 0.08360096 0.3397419 0.059470717 0.11043435 0.27000663 0.2533486
0.10044067 0.075538866 0.16195731 0.088006355 0.27056497 0.016694104 0.0040816558 0.20421349
0.0056843525 0.27341437 0.038671 0.09595328 0.23672445 0.29631472 0.17735413 0.25173885
0.2840891 0.2604861 0.2724931 0.30632383 0.036426023 0.27708006 0.23408009 0.047084764
0.22796348 0.2172359 0.20263569 0.30846033 0.18917347 0.0010866973 0.05962615 0.35677764
0.1688569 0.18983282 0.043061342 0.1828832 0.010945572 0.13308036 0.11007046 0.08096649
0.00023516802 0.021109363 0.20905793 0.029657455 0.10317181 0.2656121 0.14587724 -0.03381806
0.12636155 0.1822786 0.0012568235 0.009482067 -0.29798397 0.20544979 0.11741891 0.15121104
0.32224512 0.3290928 0.38012844 0.15012284 0.12259557 0.26610252 0.15722533 0.3293555
0.2687029 0.08960452 0.1549915 0.107410036 0.29023927 0.095268264 0.42365113 0.0009399434
0.14293833 0.06658262 0.19869149 0.26027584 0.1374365 0.10953523 0.078774445 0.11187245
0.03722604 0.07249036 0.062089846 0.25829795 0.25575504 0.20395765 0.104346685 0.090518214
0.24226272 0.27860346 0.12979001 0.15239187 0.0029698533 0.2353322 4.82388e-05 0.066023596
0.12860987 0.30588782 0.17743514 0.2872803 0.1850302 0.19562271 0.15787253 0.15577492
0.37414375 0.23578864 0.27080923 0.0674816 0.12178387 0.120405585 0.26949868 0.053103868
0.39232284 0.0044662734 0.08180483 -0.03864226 0.23295224 0.006272776 -0.023423666 0.25797182
-0.014634839 0.2421251 0.008333506 0.046571877 -0.005405467 0.22477166 -0.043872226 0.16054827
-0.023865586 -0.051576573 0.019043162 0.17950451 0.18973662 0.11829746 0.0044574114 0.120488375
-0.22950524 -0.030522311 0.28047317 0.23359698 0.2624881 0.270084 0.1529994 0.02761351
0.16137159 0.14616476 0.108590476 0.024155013 0.08830863 0.038992267 0.1480245 0.15260048
0.18576199 0.17692082 0.031943977 -0.004736855 0.14889966 -0.009049232 0.061400514 0.0741196
0.25632173 0.24316464 0.2767813 0.33512232 0.10101659 0.19645874 0.18092094 0.12506105
0.10328848 0.32881418 0.1598841 0.30140346 0.23889785 0.19810688 0.09508782 0.15628655
0.0014784886 0.25584614 -0.06338003 0.13125853 0.15295638 0.1622007 0.22451401 0.27803066
00000000: 32c9 063e b790 79bb addc eb3d 6bec 8a3d
00000010: 1f3c acbd a8c4 adbd 9e74 223e 33cd e13c
00000020: 5f54 e03c 46d8 2b3e 79f3 513e dfad 8d3e
00000030: 89d3 783e 1367 f73e 16ed a83e 82dd fa3e
00000040: 7ef6 dabd de90 833b 6ee9 45bd e1f0 873d
00000050: e8be 703d f32a 833d 419c 0a3e 8e07 523e
00000060: 3ddf d23d f923 ec3c 353a 9ebb 03b7 ca3d
00000070: 352c 123e fe73 343e a39b 31bd 4206 343e
00000080: 609c 9cbd d5b0 7cbc 737d 26b9 3fd3 acbd
00000090: 4660 c4ba c154 b43d f350 b9ba f7e8 e23d
000000a0: 060c f9be 1c40 203e dadd 133e 3258 8f3d
000000b0: e08a 5fbc 60d7 3a3e 73cf 073e 7b82 353e
000000c0: 8bcc dc3c 9743 9dbc 0ac0 243e 50b7 0e3e
000000d0: aef9 733d b924 5f3e b496 c0bc aa31 8cbd
000000e0: 7b77 f73d 9589 693e 0a21 213e 8ed9 10bb
000000f0: 711c 633d aa07 7dbe 08e9 083e 6c3b 983e
00000100: 46a2 d63d a3e3 af3e fb36 ab3d a6f2 ad3e
00000110: 9197 733d 682b e23d 4f3e 8a3e e8b6 813e
00000120: d7b3 cd3d 1fb4 9a3d 23d8 253e ad3c b43d
00000130: 7e87 8a3e 13c2 883c 69bf 853b 571d 513e
00000140: ce43 ba3b f8fc 8b3e 7c65 1e3d 2783 c43d
00000150: e567 723e 90b6 973e 529c 353e eae3 803e
00000160: 2074 913e 6f5e 853e 3784 8b3e 7ad6 9c3e
00000170: 7433 153d 70dd 8d3e b1b2 6f3e f4db 403d
00000180: 426f 693e 1673 5e3e bb7f 4f3e 83ee 9d3e
00000190: b1b6 413e 836f 8e3a 8d3a 743d 8fab b63e
000001a0: d3e8 2c3e 8963 423e 1761 303d bc45 3b3e
000001b0: 0e55 333c 3846 083e 9f6c e13d c2d1 a53d
000001c0: 6f97 7639 8bed ac3c 4813 563e 31f4 f23c
000001d0: be4b d33d 4ffe 873e d860 153e ce84 0abd
000001e0: ec64 013e 3ea7 3a3e 00bc a43a ac5a 1b3c
000001f0: 5b91 98be 6e61 523e 5379 f03d 11d7 1a3e
00000200: 50fd a43e da7e a83e 32a0 c23e cdb9 193e
00000210: 6313 fb3d 973e 883e adff 203e 49a1 a83e
00000220: 6d93 893e 9382 b73d 17b6 1e3e cbf9 db3d
00000230: 3e9a 943e 021c c33d cde8 d83e 8966 763a
00000240: 6d5e 123e 785c 883d c875 4b3e e042 853e
00000250: 27bc 0c3e 0254 e03d 7f54 a13d 621d e53d
00000260: 557a 183d d375 943d ec51 7e3d a13f 843e
00000270: 53f2 823e 46da 503e b7b3 d53d 9d61 b93d
00000280: b813 783e 1da5 8e3e ace7 043e 9d0c 1c3e
00000290: dfa1 423b edfa 703e 0454 4a38 6137 873d
000002a0: 4eb2 033e 549d 9c3e 8fb1 353e 6716 933e
000002b0: 8f78 3d3e 5251 483e 56a9 213e 7683 1f3e
000002c0: c58f bf3e 9472 713e 82a7 8a3e cb33 8a3d
000002d0: d269 f93d 3497 f63d bbfb 893e 7183 593d
000002e0: 8ade c83e d159 923b 4a89 a73d 5947 1ebd
000002f0: 088b 6e3e dc8b cd3b fde2 bfbc e214 843e
00000300: f7c6 6fbc a4ef 773e 4289 083c 27c2 3e3d
00000310: 5820 b1bb 8b2a 663e 5db3 33bd c466 243e
00000320: c381 c3bc f541 53bd 6800 9c3c 08d0 373e
00000330: 514a 423e f045 f23d 7a0f 923b 9cc2 f63d
00000340: 6c03 6bbe ed09 fabc 2e9a 8f3e 0c34 6f3e
00000350: d764 863e 7348 8a3e e0ab 1c3e ba35 e23c
00000360: 983e 253e 37ac 153e af64 de3d bce0 c53c
00000370: 28db b43d 5bb6 1f3d bc93 173e 4d43 1c3e
00000380: 6438 3e3e bb2a 353e b0d7 023d 9f37 9bbb
00000390: 2779 183e 3b43 14bc 1b7f 7b3d 04cc 973d
000003a0: 9a3c 833e 2700 793e 47b6 8d3e 2795 ab3e
000003b0: c9e1 ce3d 7b2c 493e 5743 393e 0110 003e
000003c0: e988 d33d 555a a83e a8b8 233e 8e51 9a3e
000003d0: a3a1 743e 88dc 4a3e 67bd c23d 9509 203e
000003e0: d8c9 c13a 44fe 823e 64cd 81bd a368 063e
000003f0: 99a0 1c3e f117 263e 00e7 653e 095a 8e3e

model.rnn.weight_hh_l0 f4 [160, 40]
-0.065169685 -0.53375906 0.017551117 -0.08558315 -0.06943964 0.09186923 0.24292165 -0.057242014
0.022791065 -0.060705602 -0.18216775 -0.038193416 -0.14330667 0.18235978 -0.18438908 -0.057035975
0.28835973 0.03848496 0.21473402 0.013941551 -0.027896378 -0.017826483 0.20720033 0.16235384
-0.02598238 0.17393245 0.10648778 -0.46989352 0.009406387 0.022103963 -0.06268466 -0.030149186
0.040034384 0.36423978 0.20311303 -0.023429679 -0.2054846 0.10513759 0.21537174 0.15857688
0.012185888 -0.078195766 0.06325081 0.06631001 0.15869714 -0.15243463 0.07330426 -0.026834361
0.042286966 0.03834987 0.0013219804 0.047160726 -0.09725451 -0.04876897 -0.05063771 0.0069923555
0.09044071 -0.3785109 -0.18860033 0.12612204 0.046477046 0.091846846 0.08223395 -0.03626886
-0.054191425 -0.108029686 -0.056792796 0.03734998 0.12087201 0.13944161 0.16385598 0.094725445
0.15052012 -0.16555038 0.0167668 0.088621125 -0.0508724 0.13553049 0.11232142 -0.036940947
0.011055322 0.10599424 -0.041606057 0.065781824 -0.028798372 -0.12503405 0.07327567 -0.03907594
-0.082192734 0.10701104 0.16022514 -0.033985954 -0.090403534 -0.020295301 -0.10238588 0.04314725
-0.10781818 0.25689644 0.12370601 0.0043793004 0.06238801 0.104655005 -0.015671378 -0.14420106
-0.11394828 -0.058844782 0.066630065 0.025174037 -0.04935891 0.10021954 -0.06921233 0.16058657
0.04083322 0.10746639 -0.08220774 0.0057212254 0.11616887 -0.020084579 -0.0065140263 -0.054852318
-0.17544234 0.10720618 0.12636131 -0.08559045 -0.20674448 -0.010493254 0.028242694 0.08628184
-0.033447027 0.07808252 0.17556174 0.10754814 0.034859646 0.01752557 0.055361923 -0.1998073
-0.025938597 0.17202128 0.008972966 -0.108836174 -0.13959321 -0.104202904 0.038210794 0.11685099
-0.061808158 0.114859134 0.18399826 0.00038470345 0.18246242 -0.12016461 0.113283515 0.07376987
-0.23881038 0.10184961 -0.17721197 0.012458662 -0.11364126 -0.057777938 -0.016039785 0.07843898
-0.18883267 -0.22613567 -0.04336052 0.10695913 0.011071598 -0.07494626 0.0382912 -0.060021788
-0.020589989 0.16374525 0.0021084838 -0.03160834 0.09624161 -0.16356643 0.032804664 -0.18102622
0.07199728 -0.11361183 0.042015888 -0.1516496 -0.0391949 0.030998694 -0.0047433698 -0.084410414
-0.16015005 0.022310518 -0.051381487 -0.056008786 0.12568653 -0.14947604 -0.088622555 0.17189144
-0.13817123 -0.059513442 -0.2580171 -0.06004246 -0.04558542 -0.13086872 -0.16522655 -0.0747399
-0.04569561 0.008478767 0.04902256 0.06165858 -0.038789116 -0.057568334 -0.1615674 0.049057387
0.067644715 0.022197098 0.036847085 0.055898048 0.07168801 -0.012132997 -0.11501964 -0.12693362
-0.046771448 0.13665543 -0.09741722 -0.016545461 0.10530926 0.18541154 -0.0536062 -0.011706015
-0.09305193 -0.16569887 -0.0055168234 0.15191983 -0.045529906 0.1314442 -0.13516042 0.07626082
-0.17804693 0.07134333 -0.041012116 -0.15597774 -0.0170347 -0.023656877 -0.06842258 -0.12072311
0.05061116 -0.10371292 0.10358941 0.0017359469 -0.004185705 0.009573653 -0.08051957 -0.051404644
-0.18369436 -0.064149864 -0.048883118 -0.14404963 0.030727724 -0.19592813 0.024326686 -0.17788002
00000000: af77 85bd 6fa4 08bf 5cc7 8f3c 3846 afbd
00000010: 5f36 8ebd ef25 bc3d 74c0 783e 9a76 6abd
00000020: 54b4 ba3c 70a6 78bd 2f8a 3abe b370 1cbd
00000030: fcbe 12be 86bc 3a3e 7ed0 3cbe 8e9e 69bd
00000040: e3a3 933e 68a2 1d3d 3ce3 5b3e 1a6b 643c
00000050: f286 e4bc d808 92bc 532c 543e 1640 263e
00000060: 00d9 d4bc 591b 323e 4416 da3d e295 f0be
00000070: 3f1d 1a3c 5f13 b53c d160 80bd 6dfb f6bc
00000080: 18fb 233d a37d ba3e ddfc 4f3e 99ef bfbc
00000090: 8e6a 52be 6052 d73d 698a 5c3e fa61 223e
000000a0: 52a7 473c 1a25 a0bd a489 813d 8bcd 873d
000000b0: 8181 223e d317 1cbe 8b20 963d bcd3 dbbc
000000c0: 1935 2d3d c114 1d3d 4d46 ad3a 9b2b 413d
000000d0: 5f2d c7bd f9c1 47bd 7d69 4fbd 2120 e53b
000000e0: fb38 b93d 2ecc c1be 7220 41be 2326 013e
000000f0: b75e 3e3d 331a bc3d 466a a83d a88e 14bd
00000100: d4f7 5dbd ab3e ddbd 909f 68bd 4bfc 183d
00000110: bf8b f73d c8c9 0e3e ddc9 273e 6aff c13d
00000120: f221 1a3e 0a86 29be 875a 893c fe7e b53d
00000130: 945f 50bd 81c8 0a3e c608 e63d 644f 17bd
00000140: 6221 353c 8213 d93d 1d6b 2abd 9fb8 863d
00000150: 90ea ebbc ed08 00be 8e11 963d 180e 20bd
00000160: aa54 a8bd 9b28 db3d 0f12 243e db34 0bbd
00000170: 7d25 b9bd 5542 a6bc b0af d1bd 2cbb 303d
00000180: c7cf dcbd ee87 833e 9459 fd3d 3c80 8f3b
00000190: 928a 7f3d 5d55 d63d 4361 80bc 71a9 13be
000001a0: b75d e9bd 3a07 71bd 5875 883d c839 ce3c
000001b0: 922c 4abd e73f cd3d 32bf 8dbd ce70 243e
000001c0: bc40 273d 5717 dc3d 885c a8bd 1e79 bb3b
000001d0: f2e9 ed3d 6a88 a4bc 9d73 d5bb d3ac 60bd
000001e0: 28a7 33be ea8e db3d dc64 013e 0c4a afbd
000001f0: d3b4 53be e6eb 2bbc 395d e73c 89b4 b03d
00000200: c0ff 08bd bae9 9f3d 75c6 333e 3342 dc3d
00000210: fdc8 0e3d c991 8f3c 2fc3 623d 499a 4cbe
00000220: 2e7d d4bc 5926 303e 5903 133c 80e5 debd
00000230: 86f1 0ebe 5568 d5bd ec82 1c3d 924f ef3d
00000240: 8d2a 7dbd 443b eb3d 0a6a 3c3e 06b2 c939
00000250: 6ed7 3a3e dd18 f6bd 3001 e83d a814 973d
00000260: b58a 74be 8796 d03d 0e77 35be 6a1f 4c3c
00000270: c0bc e8bd 8fa8 6cbd de65 83bc 9ea4 a03d
00000280: 5a5d 41be 1c90 67be cd9a 31bd 630d db3d
00000290: a665 353c 6d7d 99bd 3cd7 1c3d 68d9 75bd
000002a0: 56ac a8bc d6ac 273e 7d2e 0a3b bf77 01bd
000002b0: 521a c53d f57d 27be 2f5e 063d f05e 39be
000002c0: 4f73 933d 52ad e8bd da18 2c3d 084a 1bbe
000002d0: d58a 20bd f9f0 fd3c 456e 9bbb 5edf acbd
000002e0: 60fe 23be 8cc4 b63c 6575 52bd 7869 65bd
000002f0: f8b3 003e 3f10 19be be7f b5bd 4f04 303e
00000300: c27c 0dbe 5ec4 73bd d11a 84be 15ef 75bd
00000310: c7b7 3abd 7302 06be 2631 29be 3c11 99bd
00000320: 522b 3bbd 87ea 0a3c e1cb 483d b58d 7c3d
00000330: 56e1 1ebd c6cc 6bbd ed71 25be 66f0 483d
00000340: 5089 8a3d b0d6 b53c f8ec 163d 5af5 643d
00000350: 2ad1 923d 7ac9 46bc 6b8f ebbd e3fa 01be
00000360: 6b93 3fbd 67ef 0b3e ae82 c7bd 598a 87bc
00000370: 62ac d73d 86dc 3d3e 2d92 5bbd 96ca 3fbc
00000380: 0392 bebd f7ac 29be 78c6 b4bb df90 1b3e
00000390: 917d 3abd 4f99 063e 7e67 0abe a22e 9c3d
000003a0: ef51 36be 741c 923d 52fc 27bd a1b8 1fbe
000003b0: 5b8c 8bbc 11cc c1bc 2321 8cbd ae3d f7bd
000003c0: a64d 4f3d 7067 d4bd af26 d43d b688 e33a
000003d0: 3d28 89bb d0da 1c3c 72e7 a4bd ad8d 52bd
000003e0: 601a 3cbe 0161 83bd aa39 48bd bf81 13be
000003f0: b5b8 fb3c 62a1 48be c248 c73c 2e26 36be

model.rnn.bias_ih_l0 f4 [160]
0.060440123 0.08842812 -0.027587231 0.09205637 0.010663944 0.29697356 0.14237975 0.15577345
0.15925756 -0.019401006 0.08970228 0.3201079 0.11579208 0.2055007 -0.014153163 0.1337762
-0.19453186 -0.105827406 -0.09881868 0.32795668 0.0020986272 0.1564961 -0.122115105 -0.035065006
0.32275376 0.17614476 0.23269692 -0.11935488 0.27219394 0.3969062 0.17831795 0.020418065
0.25041416 0.23049442 0.17108521 0.08639032 0.12701909 0.13021316 -0.0071867425 0.064673185
0.051681608 0.1162772 0.040853936 -0.08639115 0.20946494 0.13769262 0.06197962 0.12937637
0.00011978229 0.13073009 0.063937485 0.068982355 -0.045164213 0.12687086 -0.046521414 -0.101798214
-0.118639976 -0.062408026 -0.15902129 0.16963169 0.0029100506 -0.085834354 0.16126128 0.1543496
0.19012849 0.16269924 0.02702293 0.1759903 0.12996083 0.018837033 -0.14466421 -0.07205655
-0.09227187 0.1092159 0.15535313 -0.07886965 0.0022314643 -0.28706935 0.073710315 0.009844001
-0.03674867 -0.016830724 0.019668775 0.11787183 0.039110776 0.17544036 -0.17589748 -0.22616747
-0.078038976 0.030037373 0.1544768 0.009403257 -0.019429013 0.067132615 0.13638972 0.09067069
0.034602936 -0.08988323 0.072826825 -0.026153969 -0.088263184 0.15682851 -0.015269106 0.13602498
0.060658198 -0.052604485 -0.06243465 -0.16512519 -0.018371504 0.13073692 -0.04349443 0.05508254
0.0018995765 0.0025837102 -0.18501227 0.04499006 0.013873721 0.027332643 0.055522554 0.0036806501
0.06698314 -0.009770771 0.025064446 0.06423182 0.2557037 0.17295337 0.31374982 0.026163733
0.22880746 -0.013352531 0.096482664 0.12567496 0.14807914 0.1046341 0.08327533 0.14382386
-0.054762453 -0.21465808 0.13042833 0.022380061 0.13563919 0.08604216 0.100865796 -0.022206245
0.016342787 0.34377247 -0.093173176 -0.012518507 0.23907158 0.23768394 -0.025601285 -0.090741396
0.37586987 0.14249875 0.32165042 0.011005954 0.04474902 -0.03204216 0.11727833 0.021412129
00000000: 1090 773d cd19 b53d 9efe e1bc 0d88 bc3d
00000010: d3b7 2e3c eb0c 983e ffcb 113e 1383 1f3e
00000020: 6a14 233e dcee 9ebc d4b5 b73d 2fe5 a33e
00000030: 6624 ed3d c76e 523e abe2 67bc a1fc 083e
00000040: 5c33 47be 0abc d8bd 7361 cabd f0e9 a73e
00000050: 1f89 093b 8340 203e 7c17 fabd 53a0 0fbd
00000060: fb3f a53e 4b5f 343e 1a48 6e3e 5570 f4bd
00000070: 015d 8b3e 4a37 cb3e fb98 363e c943 a73c
00000080: 4936 803e bb06 6c3e f630 2f3e 68ed b03d
00000090: 4b11 023e 9956 053e c47e ebbb 6073 843d
000000a0: 18b0 533d be22 ee3d 7556 273d d8ed b0bd
000000b0: fa7d 563e 4bff 0c3e 58de 7d3d 3d7b 043e
000000c0: a133 fb38 1cde 053e a8f1 823d 9f46 8d3d
000000d0: 1cfe 38bd 6fea 013e 3d8d 3ebd 957b d0bd
000000e0: 84f9 f2bd 8f9f 7fbd 7ad6 22be eeb3 2d3e
000000f0: 8cb6 3e3b ecc9 afbd ad21 253e d20d 1e3e
00000100: 0bb1 423e a19a 263e 315f dd3c cd36 343e
00000110: 7414 053e 1f50 9a3c db22 14be 6292 93bd
00000120: 09f9 bcbd 96ac df3d e414 1f3e 6986 a1bd
00000130: c23d 123b c1fa 92be 6ff5 963d bc48 213c
00000140: c685 16bd 96e0 89bc 6920 a13c c966 f13d
00000150: 9f32 203d a3a6 333e 781e 34be 7298 67be
00000160: e6d2 9fbd f010 f63c 2b2f 1e3e 1e10 1a3c
00000170: 9829 9fbc d37c 893d bfa9 0b3e 8eb1 b93d
00000180: cfbb 0d3d b314 b8bd 3b26 953d d940 d6bc
00000190: 54c3 b4bd a797 203e 462b 7abc 224a 0b3e
000001a0: bb74 783d cd77 57bd 7abb 7fbd 9416 29be
000001b0: d67f 96bc e6df 053e 3727 32bd 3b9e 613d
000001c0: 36fb f83a 7753 293b db73 3dbe 7f47 383d
000001d0: 9a4e 633c b5e8 df3c 9e6b 633d 1037 713b
000001e0: 752e 893d 9515 20bc f453 cd3c f98b 833d
000001f0: 98eb 823e b01a 313e d1a3 a03e 5355 d63c
00000200: 814c 6a3e 93c4 5abc b498 c53d f0b0 003e
00000210: 0fa2 173e 674a d63d 428c aa3d 9046 133e
00000220: 984e 60bd 54cf 5bbe 018f 053e 6456 b73c
00000230: 00e5 0a3e df36 b03d ba92 ce3d dfe9 b5bc
00000240: 4fe1 853c f202 b03e 94d1 bebd 6d1a 4dbc
00000250: 2ecf 743e 6b63 733e c9b9 d1bc a0d6 b9bd
00000260: 0472 c03e 31eb 113e 5daf a43e 5152 343c
00000270: c04a 373d a43e 03bd 9f2f f03d 7d68 af3c

model.rnn.bias_hh_l0 f4 [160]
0.067522764 0.073036544 0.14859746 0.3052293 0.042231023 0.2455647 0.40469244 0.07308017
0.39044386 -0.02557905 0.22717564 0.123787016 0.11173659 0.26854202 0.09481753 0.26599228
-0.048934475 -0.15735921 -0.0672554 0.25634596 0.0636108 -0.03778032 -0.1364126 -0.006769691
0.10265478 0.18377632 0.18493769 -0.0078005064 0.20883949 0.2466484 0.083614446 -0.040326457
0.36646646 0.18232293 0.21412879 0.12435049 -0.030663257 0.09205396 0.045166574 0.17033932
-0.109869786 -0.025079915 0.04862363 0.07490015 0.18978012 -0.11572915 0.12195874 0.18226112
0.14526801 -0.047475178 0.14984709 -0.056993365 -0.032970194 0.18419707 0.012207582 -0.055333067
-0.16207843 0.045815405 -0.052008122 -0.02372989 0.14853305 0.03508592 -0.03070122 0.08771372
-0.05784094 0.009727471 0.10499424 0.11317028 0.099964835 0.026539767 -0.07262915 -0.04629731
0.044734962 -0.15840678 -0.019311199 -0.13073717 -0.00019170216 -0.2990986 0.16331857 0.16919161
0.039428968 0.16820145 0.19586526 0.11351973 -0.034584407 0.035113275 -0.24926975 -0.09798243
-0.28765804 0.121612936 0.007127071 -0.06259313 0.0012991371 -0.16753991 -0.015233653 -0.026091853
-0.061329026 -0.08425144 0.0052662487 0.009923722 0.014402717 0.008602994 0.06608146 0.08250396
-0.15508516 -0.25896162 0.053810686 0.062128823 0.065270774 0.13176426 -0.037247285 0.18053491
0.15673362 -0.037246145 -0.09967917 -0.037428748 -0.0021969245 0.051721886 0.0594851 -0.10724906
0.12544659 0.23383322 0.1535602 0.23525316 0.076309755 0.23576453 0.32938486 0.041206364
0.119616166 -0.100874014 0.16518964 0.21715769 -0.042407695 -0.07231714 0.07625864 0.34346795
-0.059132066 -0.24580395 0.040250093 -0.057237808 0.009990939 0.21712945 -0.016329765 0.093094386
0.045362584 0.18319719 -0.087988645 -0.11566604 0.13420789 0.15619205 0.07977448 -0.014845887
0.27329507 0.28419137 0.15776551 0.19650812 0.23814827 0.24094032 0.11582853 -0.036003225
00000000: 6049 8a3d 2f94 953d ef29 183e 0447 9c3e
00000010: 70fa 2c3d 5075 7b3e d933 cf3e 0eab 953d
00000020: 42e8 c73e 288b d1bc bba0 683e 0c84 fd3d
00000030: 27d6 e43d 577e 893e b12f c23d 2430 883e
00000040: 846f 48bd c622 21be 33bd 89bd c73f 833e
00000050: 6146 823d 89bf 1abd bfaf 0bbe 49d4 ddbb
00000060: ab3c d23d dc2f 3c3e 4e60 3d3e 649b ffbb
00000070: 05da 553e 6691 7c3e 0d3e ab3d 5b2d 25bd
00000080: 7ea1 bb3e ddb2 3a3e 9444 5b3e 78ab fe3d
00000090: 8331 fbbc c986 bc3d 9600 393d 6e6d 2e3e
000000a0: 6903 e1bd 6574 cdbc 9229 473d 4065 993d
000000b0: b855 423e 6803 edbd 81c5 f93d a9a2 3a3e
000000c0: 23c1 143e 5575 42bd 8471 193e e071 69bd
000000d0: c10b 07bd 289e 3c3e 4f02 483c eda4 62bd
000000e0: e3f7 25be efa8 3b3d 7806 55bd 3065 c2bc
000000f0: 0c19 183e 41b6 0f3d 2081 fbbc 40a3 b33d
00000100: 9fea 6cbd f85f 1f3c 3807 d73d d2c5 e73d
00000110: 5dba cc3d ed69 d93c 97be 94bd 40a2 3dbd
00000120: 023c 373d 6335 22be 8532 9ebc f7df 05be
00000130: a803 49b9 7423 99be fc3c 273e 9140 2d3e
00000140: 4580 213d 003d 2c3e e790 483e 087d e83d
00000150: 61a8 0dbd f0d2 0f3d 9240 7fbe 03ab c8bd
00000160: ea47 93be 3410 f93d 348a e93b d430 80bd
00000170: cf47 aa3a 958f 2bbe 9296 79bc 95be d5bc
00000180: 2534 7bbd 058c acbd 7f90 ac3b 1b97 223c
00000190: 60f9 6b3c 92f3 0c3c b755 873d d6f7 a83d
000001a0: a5ce 1ebe 9e96 84be 9868 5c3d cb7a 7e3d
000001b0: afac 853d 36ed 063e 9c90 18bd 25de 383e
000001c0: c77e 203e 6a8f 18bd 9824 ccbd e34e 19bd
000001d0: 47fa 0fbb 54da 533d a6a6 733d 65a5 dbbd
000001e0: 1275 003e fa71 6f3e e33e 1d3e 34e6 703e
000001f0: 4a48 9c3d 426c 713e 22a5 a83e 01c8 283d
00000200: 52f9 f43d 0997 cebd 7927 293e 965e 5e3e
00000210: b1b3 2dbd 021b 94bd 7d2d 9c3d 08db af3e
00000220: 7734 72bd 08b4 7bbe 48dd 243d 3172 6abd
00000230: 09b1 233c 2f57 5e3e 00c6 85bc 45a8 be3d
00000240: 1ece 393d 0b98 3b3e 6433 b4bd 51e2 ecbd
00000250: cb6d 093e cff0 1f3e cd60 a33d 2a3c 73bc
00000260: 55ed 8b3e 8881 913e 488d 213e 6d39 493e
00000270: 24dd 733e 0fb9 763e 8237 ed3d 1e78 13bd

model.rnn.weight_ih_l1 f4 [160, 40]
-0.095657766 -0.06633557 0.030519182 0.27813932 -0.11779215 0.27778456 -0.38734353 -0.30206028
-0.36797285 0.10981955 0.21037751 -0.120671846 -0.275586 -0.07538843 0.12549384 -0.2362758
-0.2098734 -0.035533287 -0.08335722 -0.24276353 -0.0036051683 0.16171631 -0.04279107 -0.021102374
-0.07801027 -0.18991143 0.013300152 0.1468694 0.020080462 -0.036249302 -0.04654164 0.13806872
-0.23979759 0.0057364325 -0.13327375 -0.019558206 0.08751961 -0.26073304 -0.17497854 0.0129285585
-0.16372202 -0.23544243 0.14040093 0.3864267 -0.16382526 0.019501844 -0.5069958 -0.033713806
-0.43719828 0.13633217 0.12907612 -0.03418873 -0.3170647 -0.22648309 0.20249677 -0.4757532
-0.20513697 -0.02555847 -0.22241034 -0.2870213 -0.19538657 0.013626977 -0.16241153 0.08199827
-0.09341894 -0.022722173 0.03256391 -0.117695674 0.18798445 -0.0027064576 -0.299668 0.13851416
-0.14533155 0.26846817 -0.42020014 -0.071275026 0.08790985 -0.35738498 -0.2961128 -0.013304885
-0.024428625 0.0024943645 0.029056704 0.08582527 -0.10111077 -0.093705274 -0.117673084 -0.17085232
-0.111443445 -0.14898358 -0.11228844 -0.15438865 0.020321745 -0.021984005 -0.051084783 0.055056907
-0.38692322 0.6782131 0.017618528 -0.07194036 0.116642974 0.0059711817 0.03901617 -0.02130784
0.056690786 -0.12003342 0.055906948 -0.043544084 0.08412593 0.09697226 -0.06926433 -0.15018056
0.05435559 0.41910335 0.11785226 -0.06592316 0.13739334 -0.629068 0.09203414 -0.15713456
-0.07566486 0.004831942 -0.06291417 -0.029026603 0.026578648 0.19060668 0.09555635 0.07012369
-0.054336708 0.009119439 0.14788342 -0.1829576 -0.1311402 -0.12275739 -0.035619326 -0.13990286
-0.0035564653 -0.23171636 0.08734194 -0.19277948 -0.05898715 0.10885965 -0.112692036 0.18987383
0.038554985 -0.05514485 0.07334585 0.15846124 0.15004449 -0.048720554 0.07949368 0.13345933
-0.05224788 0.042719025 -0.15802313 -0.18580125 0.09706697 -0.16009092 0.006856819 -0.14568043
-0.058771797 -0.079308406 -0.18081845 -0.14472096 0.13000083 0.04738623 0.089285485 0.07061598
0.17028646 -0.20466909 0.02057804 0.20221712 0.006459328 -0.044639573 -0.06728484 0.114512414
0.133148 -0.35572943 0.1547864 0.124197245 0.08868766 -0.2143803 0.21278138 -0.06933569
0.18139932 0.16028534 0.06662004 0.13682805 -0.16342254 -0.0984618 0.64174503 -0.09354671
0.13489212 -0.5167957 0.039489057 0.10880936 -0.20991668 0.43232018 0.09931347 0.07988745
-0.3483205 -0.24909976 0.31205365 0.37370452 -0.27035862 0.047485527 -0.41105488 -0.030314177
-0.36911967 0.033873364 0.04830298 -0.193495 -0.15000479 -0.16301577 0.2595179 -0.36509714
-0.32110897 0.14994228 -0.094190836 -0.06977697 -0.18858397 0.16303392 0.030573344 0.1228338
-0.100385256 -0.24872085 0.26644483 -0.030992784 0.29907605 -0.009985971 -0.11418347 -0.0022199648
-0.13278711 0.27013156 -0.23141438 -0.28269547 0.271536 -0.28297436 -0.3847505 -0.14252979
-0.049853455 -0.11142721 0.13346654 0.17052843 -0.08196067 0.085103184 -0.11000503 0.08088298
-0.08484749 0.22038656 0.12556224 -0.06695406 -0.19061007 -0.0360384 -0.027943533 -0.12316445
00000000: 38e8 c3bd f1da 87bd 5d03 fa3c 4768 8e3e
00000010: 033d f1bd c739 8e3e e451 c6be a5a7 9abe
00000020: f066 bcbe 12e9 e03d 346d 573e cd22 f7bd
00000030: 9c19 8dbe 4065 9abd 7581 003e 49f2 71be
00000040: 0de9 56be 5a8b 11bd 31b7 aabd 0197 78be
00000050: b044 6cbb f698 253e b045 2fbd e3de acbc
00000060: d9c3 9fbd 2478 42be e1e8 593c ef64 163e
00000070: c87f a43c 267a 14bd 72a2 3ebd e361 0d3e
00000080: 808d 75be aff8 bb3b ea78 08be 8838 a0bc
00000090: 7b3d b33d cd7e 85be 932d 33be 4ed2 533c
000000a0: bfa6 27be d217 71be 43c5 0f3e b8d9 c53e
000000b0: cfc1 27be 55c2 9f3c 7aca 01bf 7d17 0abd
000000c0: 74d8 dfbe a99a 0b3e 882c 043e 7b09 0cbd
000000d0: 4e56 a2be 2feb 67be 505b 4f3e ec95 f3be
000000e0: 6d0f 52be ff5f d1bc 89bf 63be 75f4 92be
000000f0: 6b13 48be af43 5f3c 354f 26be b5ee a73d
00000100: 6e52 bfbd da23 babc bc61 053d 6e0a f1bd
00000110: ff7e 403e d35e 31bb 166e 99be a8d6 0d3e
00000120: cbd1 14be a974 893e 7924 d7be a4f8 91bd
00000130: 140a b43d 2afb b6be 199c 97be bbfc 59bc
00000140: 8a1e c8bc 7e78 233b 5308 ee3c 29c5 af3d
00000150: 2a13 cfbd 8de8 bfbd 96fe f0bd e9f3 2ebe
00000160: 763c e4bd 278f 18be 7bf7 e5bd 0f18 1ebe
00000170: ca79 a63c cd17 b4bc 473e 51bd 5a83 613d
00000180: cd1a c6be 609f 2d3f bb54 903c 7855 93bd
00000190: 83e2 ee3d e7a9 c33b 6bcf 1f3d c78d aebc
000001a0: 9934 683d 15d4 f5bd affe 643d 485b 32bd
000001b0: 374a ac3d 6499 c63d 75da 8dbd efc8 19be
000001c0: f8a3 5e3d b794 d63e 875c f13d b902 87bd
000001d0: d7b0 0c3e 9a0a 21bf 657c bc3d e2e7 20be
000001e0: 2ef6 9abd 4455 9e3b 25d9 80bd 33c9 edbc
000001f0: 77bb d93c 662e 433e 0cb3 c33d 029d 8f3d
00000200: 2b90 5ebd b369 153c c06e 173e 3d59 3bbe
00000210: 9e49 06be 3a68 fbbd 92e5 11bd b242 0fbe
00000220: 9613 69bb 0e47 6dbe 55e0 b23d fc67 45be
00000230: 839c 71bd cff1 de3d 15cb e6bd 496e 423e
00000240: d5eb 1d3d 91df 61bd 5936 963d aa43 223e
00000250: 43a5 193e 348f 47bd 95cd a23d 90a9 083e
00000260: df01 56bd 25fa 2e3d d1d0 21be af42 3ebe
00000270: 0ccb c63d e0ee 23be 2baf e03b 402d 15be
00000280: b2ba 70bd 726c a2bd 7928 39be bb31 14be
00000290: f01e 053e 1018 423d 4fdb b63d 1c9f 903d
000002a0: 935f 2e3e c694 51be 4793 a83c 0112 4f3e
000002b0: c5a8 d33b fcd7 36bd a2cc 89bd 7c85 ea3d
000002c0: f357 083e 2b22 b6be 5380 1e3e 205b fe3d
000002d0: e0a1 b53d 8286 5bbe 5de3 593e dfff 8dbd
000002e0: bec0 393e d721 243e 1670 883d a71c 0c3e
000002f0: 3d58 27be 57a6 c9bd 6749 243f 6b95 bfbd
00000300: 2921 0a3e b94c 04bf 47bf 213d 71d7 de3d
00000310: 66f4 56be 1259 dd3e dc64 cb3d 089c a33d
00000320: 1157 b2be 0214 7fbe 7fc5 9f3e 3356 bf3e
00000330: 726c 8abe 2f80 423d c975 d2be 7055 f8bc
00000340: 41fd bcbe ccbe 0a3d 58d9 453d 8e23 46be
00000350: db9a 19be 9bed 26be 88df 843e 03ee babe
00000360: 6568 a4be 788a 193e 20e7 c0bd 3ae7 8ebd
00000370: 281c 41be 5df2 263e f374 fa3c 4a90 fb3d
00000380: c996 cdbd aeb0 7ebe 756b 883e 94e4 fdbc
00000390: 7f20 993e 339c 23bc 06d9 e9bd d47c 11bb
000003a0: 58f9 07be af4e 8a3e e4f7 6cbe 76bd 90be
000003b0: c406 8b3e 04e2 90be 04fe c4be 54f3 11be
000003c0: 2333 4cbd f333 e4bd 74ab 083e 019f 2e3e
000003d0: ffda a7bd 944a ae3d 514a e1bd faa5 a53d
000003e0: 85c4 adbd 04ad 613e 6393 003e 361f 89bd
000003f0: 492f 43be 009d 13bd d6e9 e4bc a53d fcbd

model.rnn.weight_hh_l1 f4 [160, 40]
0.0031792358 0.076239854 0.1334784 -0.16448775 0.01321205 -0.063016586 0.038123157 0.058729295
0.06671487 -0.10914472 0.064700395 0.007166212 0.109013855 0.16991824 -0.14789669 0.15760393
0.09560796 0.086027384 0.19768691 -0.07582923 0.11058819 -0.0026268896 0.07485919 -0.04124126
-0.04218984 0.07398448 -0.11771676 0.07823805 0.022553662 0.105646275 -0.015724976 0.15755011
0.1622128 0.086702265 0.10321863 0.10309209 -0.048862536 -0.043177277 0.026663005 -0.06542452
0.09923524 0.057500694 -0.042288966 0.0073583294 0.08952971 -0.14165403 0.049187776 0.06108029
0.09650376 -0.13184002 -0.0623755 0.074591614 -0.15106955 0.1367264 0.12007514 -0.024672057
-0.085217364 0.12676972 0.012460593 -0.045846995 0.0732532 0.0031667333 0.05493072 0.015069177
-0.033163317 -0.061410476 0.13026068 -0.0924245 0.10757327 -0.12831628 0.16378033 0.110583626
0.00039516756 -0.038365204 0.050614033 -0.13710698 -0.15831888 -0.13697164 0.1628231 0.19449334
0.0320979 -0.14351067 0.17293246 -0.12818137 -0.22075775 -0.09251842 0.013872546 0.020850103
0.026899735 0.06900516 -0.10603818 0.13979645 -0.105696484 -0.06805837 -0.0039781583 -0.18177933
-0.14121151 -0.15991628 0.12756729 0.00081052235 0.19931537 0.012829516 -0.07920418 -0.05970764
0.073415816 -0.05038047 -0.15210229 -0.113205455 0.004456716 0.07636706 -0.09802933 0.093662016
-0.19973342 -0.041554227 -0.019420892 -0.025733562 0.15370573 -0.11387018 0.060777474 -0.05301406
-0.10191753 0.104595676 -0.13195415 0.033685714 -0.2008903 0.11361869 -0.11415474 -0.04098538
0.026691917 0.04442753 0.0018325044 0.046657007 -0.023269972 0.17124481 -0.122748226 -0.06964226
0.16304895 0.09042667 -0.09527179 -0.11768556 -0.18473077 -0.03254778 0.1586044 -0.15459454
-0.048438713 0.15992609 0.13478354 0.13727804 -0.11975889 0.11426749 0.0320472 0.09160587
-0.09026925 0.056326658 0.10153085 0.11079005 -0.08315462 -0.056290653 -0.14428937 0.02207911
0.11933144 -0.19730115 -0.41591653 -0.04943193 -0.018138811 0.09594827 0.13780932 -0.04803143
0.29425055 -0.1828267 -0.40219614 -0.033954024 -0.043009825 0.006480583 0.1640459 -0.22683221
0.019225812 -0.0035661913 0.10272654 0.22248273 -0.2821066 -0.21919389 -0.14788894 -0.11568477
-0.08791547 -0.07884196 0.08120979 0.15144801 0.07577627 0.09424021 0.07179499 -0.046900466
-0.0030912969 0.10569106 -0.07763256 0.21474965 0.06498608 -0.027430668 -0.1448236 0.046517882
-0.08310757 0.0110939825 -0.0095570255 0.009546263 0.0843787 -0.06705909 -0.21936843 -0.08926855
-0.03351845 -0.06746974 -0.026329631 -0.07744668 0.062879026 0.136016 -0.04205136 0.17528845
0.15218203 0.23459187 0.22046992 -0.099191874 -0.04125173 0.18728366 0.10607183 0.19131164
0.20842732 -0.09459532 -0.0472989 -0.106295876 -0.09786884 0.020417271 0.07904876 -0.00865281
-0.006889085 -0.070397 0.13878375 0.02630636 -0.027922427 -0.16375402 -0.020920545 -0.041290026
-0.18997212 0.0031968893 0.13829105 0.047379263 0.01948562 -0.14081943 0.059243444 0.090168715
-0.1670841 0.08182844 0.08599118 0.027882813 -0.03581257 0.20519158 0.15744683 0.1824357
00000000: ba5a 503b a423 9c3d 90ae 083e 7a6f 28be
00000010: 5b77 583c d70e 81bd 0727 1c3d 218e 703d
00000020: cea1 883d 4487 dfbd a481 843d 8bd2 ea3b
00000030: a842 df3d 0cff 2d3e 3b72 17be ed62 213e
00000040: 1bce c33d 202f b03d 706e 4a3e 5b4c 9bbd
00000050: 107c e23d e527 2cbb c64f 993d 98ec 28bd
00000060: 41cf 2cbd 2d85 973d 7c15 f1bd 453b a03d
00000070: 75c2 b83c 135d d83d aad1 80bc d154 213e
00000080: 1d1b 263e f590 b13d 4a64 d33d f221 d33d
00000090: 1524 48bd a8da 30bd 606c da3c 4afd 85bd
000000a0: d83b cb3d d985 6b3d 3237 2dbd 241e f13b
000000b0: 5a5b b73d c10d 11be 1f79 493d 532f 7a3d
000000c0: c3a3 c53d 1201 07be 747d 7fbd 7dc3 983d
000000d0: fab1 1abe 0102 0c3e f4e9 f53d 0e1d cabc
000000e0: 7186 aebd eccf 013e 8427 4c3c 0fca 3bbd
000000f0: c605 963d f888 4f3b 09ff 603d b6e4 763c
00000100: 42d6 07bd 8d89 7bbd 0e63 053e 0e49 bdbd
00000110: 604f dc3d 5865 03be 08b6 273e ab79 e23d
00000120: 7e2e cf39 d524 1dbd a950 4f3d c665 0cbe
00000130: 581e 22be 4b42 0cbe 19bb 263e 4329 473e
00000140: 1679 033d 76f4 12be 3515 313e fa41 03be
00000150: 520e 62be 4c7a bdbd ad49 633c d6cd aa3c
00000160: d55c dc3c 9452 8d3d 8c2a d9bd cd26 0f3e
00000170: 6677 d8bd 3062 8bbd 365b 82bb 5c24 3abe
00000180: c099 10be 18c1 23be 00a1 023e 3c79 543a
00000190: 5419 4c3e e432 523c cd35 a2bd 0090 74bd
000001a0: 085b 963d c05b 4ebd b4c0 1bbe 43d8 e7bd
000001b0: a509 923b 5566 9c3d 9ac3 c8bd dfd1 bf3d
000001c0: eb86 4cbe c434 2abd 9018 9fbc 31cf d2bc
000001d0: 0965 1d3e c534 e9bd cdf1 783d 4525 59bd
000001e0: 23ba d0bd 4236 d63d fd1e 07be 08fa 093d
000001f0: 30b6 4dbe eab0 e83d f6c9 e9bd 49e0 27bd
00000200: 02a9 da3c a4f9 353d a530 f03a 6b1b 3f3d
00000210: aba0 bebc cd5a 2f3e 6c63 fbbd 9aa0 8ebd
00000220: 4ef6 263e 9e31 b93d db1d c3bd 2005 f1bd
00000230: 102a 3dbe d250 05bd 3169 223e 084e 1ebe
00000240: ac67 46bd aac3 233e b204 0a3e 9d92 0c3e
00000250: 2644 f5bd 1305 ea3d ed43 033d dc9b bb3d
00000260: 16df b8bd c8b6 663d 68ef cf3d e5e5 e23d
00000270: f84c aabd 0791 66bd 98c0 13be 40df b43c
00000280: 0b64 f43d 5009 4abe 03f3 d4be 2379 4abd
00000290: d897 94bc 8780 c43d e31d 0d3e 9bbc 44bd
000002a0: 02a8 963e ec36 3bbe a7ec cdbe 6013 0bbd
000002b0: 122b 30bd 125b d43b a6fb 273e b446 68be
000002c0: 737f 9d3c c3b6 69bb 4b62 d23d 83d2 633e
000002d0: 4770 90be 5d74 60be 3370 17be 23ec ecbd
000002e0: 070d b4bd e577 a1bd 5251 a63d 3015 1b3e
000002f0: 9730 9b3d 0301 c13d 4009 933d b41a 40bd
00000300: 5b97 4abb 8e74 d83d d2fd 9ebd 55e7 5b3e
00000310: 6c17 853d 48b6 e0bc a34c 14be 8989 3e3d
00000320: 4d34 aabd 89c3 353c 1295 1cbc ee67 1c3c
00000330: bdce ac3d 4756 89bd 1ea2 60be 6ed2 b6bd
00000340: a44a 09bd 932d 8abd 3db1 d7bc 5d9c 9ebd
00000350: b8c6 803d c747 0b3e 0c3e 2cbd d17e 333e
00000360: 9bd5 1b3e da38 703e dec2 613e 1c25 cbbd
00000370: 93f7 28bd 4ac7 3f3e 303c d93d 33e7 433e
00000380: f96d 553e 31bb c1bd 7ebc 41bd a7b1 d9bd
00000390: 756f c8bd 1f42 a73c 51e4 a13d 84c4 0dbc
000003a0: d5bd e1bb 4d2c 90bd 541d 0e3e 6f80 d73c
000003b0: 93bd e4bc 22af 27be 9061 abbc bb1f 29bd
000003c0: 0d88 42be e782 513b 2b9c 0d3e c210 423d
000003d0: 4fa0 9f3c f832 10be 41a9 723d 60aa b83d
000003e0: 1818 2bbe ab95 a73d 251c b03d 7f6a e43c
000003f0: 34b0 12bd be1d 523e be39 213e 6dd0 3a3e

model.rnn.bias_ih_l1 f4 [160]
0.0976729 0.088028215 0.03313739 0.25048167 0.020704092 0.1311853 0.00076603884 0.15919617
0.008484246 -0.108487 0.14185935 0.16508403 -0.09400291 0.126336 -0.13478167 0.005887942
0.017844705 0.027908266 0.06453806 0.07875901 0.072200544 0.1266749 0.022886323 0.045020025
0.07460853 0.028022181 0.07576463 0.0048059705 0.30469155 0.22933394 0.02296317 0.040326264
0.27626565 -0.12504904 0.11317111 0.050954998 0.16762753 0.23020844 0.111147694 0.16000842
0.15357964 -0.086746454 0.15873651 0.05611236 0.07650406 0.061258413 -0.008119042 0.12524167
-0.15658344 -0.09818435 -0.090975665 -0.049909223 0.051429793 -0.055179887 -0.14460032 0.1244657
0.07739058 -0.07652447 0.063466206 -0.059805293 0.05722163 -0.12000758 -0.11831738 0.15242584
-0.025498932 -0.05055618 -0.10743643 -0.13436282 -0.042127315 -0.014564424 -0.13611652 -0.077101804
-0.007277617 -0.085366994 0.17357846 0.056090742 0.092836045 0.008419007 -0.098527566 0.15339245
-0.20639686 -0.0716848 0.070592515 -0.15605426 0.058464505 -0.0104244035 0.16045886 0.054276247
0.082566775 -0.035064507 0.14130583 0.048778683 -0.05043459 0.17663658 -0.1312411 0.13981235
0.16679545 -0.00020818424 0.066674724 -0.16374229 0.11933938 0.1776725 -0.030825572 0.080131456
-0.025416749 -0.048471257 -0.012588375 -0.12656417 0.008517014 -0.10505929 0.24054475 0.04584693
-0.08267492 0.026200978 0.134536 -0.1928288 -0.06164995 0.10845927 0.023813449 0.09340939
0.12044672 0.24139804 -0.13979909 0.005113259 -0.13090193 0.112651765 -0.06733534 -0.018381437
0.030429216 -0.04409968 -0.10003057 -0.1337327 -0.040731154 -0.027474996 0.047243237 -0.09473475
0.030702863 0.14273019 0.07094844 0.007830177 0.08189682 0.011882505 -0.010469116 0.050461657
0.15419927 0.006729983 0.16621372 -0.024017809 0.18117762 0.12916982 0.19819105 0.017792402
0.20027591 -0.070496134 0.039632946 -0.026891712 0.20957923 0.09564661 0.02523191 0.0012576833
00000000: bb08 c83d 2348 b43d 12bb 073d 223f 803e
00000010: a19b a93c 7055 063e ffcf 483a 5204 233e
00000020: 8201 0b3c 6f2e debd 9443 113e ca0b 293e
00000030: 9984 c0bd 395e 013e 3504 0abe a3ef c03b
00000040: 0f2f 923c e09f e43c 882c 843d 674c a13d
00000050: e1dd 933d 11b7 013e 197c bb3c eb66 383d
00000060: 5bcc 983d c68e e53c 7d2a 9b3d 677b 9d3b
00000070: 8800 9c3e 84d6 6a3e 421d bc3c 272d 253d
00000080: b172 8d3e db0c 00be 41c6 e73d 30b6 503d
00000090: 8da6 2b3e c3bb 6b3e 67a1 e33d 3fd9 233e
000000a0: fb43 1d3e 20a8 b1bd d38b 223e 13d6 653d
000000b0: 29ae 9c3d 1aea 7a3d bb05 05bc 5a3f 003e
000000c0: 6957 20be e014 c9bd 7351 babd 9d6d 4cbd
000000d0: 0ca8 523d 4e04 62bd 1b12 14be dfe7 fe3d
000000e0: f47e 9e3d dcb8 9cbd 92fa 813d 65f6 74bd
000000f0: 3a61 6a3d 89c6 f5bd 6250 f2bd 8515 1c3e
00000100: 23e3 d0bc ff13 4fbd a207 dcbd 6896 09be
00000110: b18d 2cbd 9f9f 6ebc 2162 0bbe 8de7 9dbd
00000120: 1479 eebb e4d4 aebd 8dbe 313e 68bf 653d
00000130: d320 be3d e0ef 093c d2c8 c9bd e912 1d3e
00000140: b359 53be 7bcf 92bd cf92 903d b0cc 1fbe
00000150: 7a78 6f3d 1ecb 2abc 544f 243e c550 5e3d
00000160: c518 a93d cd9f 0fbd 7ab2 103e 28cc 473d
00000170: 8094 4ebd 38e0 343e 1164 06be f82a 0f3e
00000180: 6dcc 2a3e 084c 5ab9 c28c 883d 0fac 27be
00000190: 3468 f43d c8ef 353e e985 fcbc f61b a43d
000001a0: c936 d0bc cc89 46bd 793f 4ebc 0a9a 01be
000001b0: f28a 0b3c 5329 d7bd 5d51 763e fec9 3b3d
000001c0: 7851 a9bd 6fa3 d63c cec3 093e ea74 45be
000001d0: a884 7cbd e51f de3d 6c14 c33c 6c4d bf3d
000001e0: c5ac f63d 0c31 773e 7e27 0fbe 208d a73b
000001f0: 280b 06be f8b5 e63d 1ce7 89bd ab94 96bc
00000200: b146 f93c dea1 34bd d4dc ccbd 3af1 08be
00000210: b6d5 26bd 3e13 e1bc 2082 413d 4b04 c2bd
00000220: 9284 fb3c dd27 123e 6a4d 913d 254a 003c
00000230: 85b9 a73d d7ae 423c a886 2bbc e2b0 4e3d
00000240: 6ae6 1d3e 3087 dc3b ee33 2a3e ffc0 c4bc
00000250: a086 393e 1845 043e 98f2 4a3e 5fc1 913c
00000260: 2115 4d3e 4760 90bd 2856 223d 024c dcbc
00000270: f09b 563e 5fe2 c33d 27b3 ce3c d9d8 a43a

model.rnn.bias_hh_l1 f4 [160]
0.19777478 0.22291033 0.09018804 -0.01731727 0.018078173 0.10458184 0.021481823 -0.009971532
0.120581634 -0.01822485 -0.040486645 -0.014567851 -0.041985247 -0.08999726 -0.0008292351 -0.02098622
0.16155519 0.19290952 0.08451823 0.11770638 0.00015911336 -0.060840737 -0.014974627 0.17874555
0.044711597 0.04368288 0.03787718 0.1429264 0.1499053 0.14444052 0.29361796 0.15223537
0.010495418 -0.048228808 -0.0790599 0.0042759036 0.115399204 0.07941932 0.13853186 0.13326846
-0.07934678 0.0807794 -0.08917184 -0.019457739 0.207966 0.15859096 -0.06464821 0.08616774
-0.0025092638 -0.0013588737 -0.06552128 0.027426735 -0.0769962 0.11559901 0.070351794 -0.15458848
-0.064101 -0.030384779 0.043592144 0.041052002 -0.16789328 -0.052616976 0.04468943 -0.03435318
-0.08983903 0.0025413907 0.15781175 -0.15350981 -0.026545588 -0.04001637 0.0013578371 0.066484556
-0.07846955 0.03142262 0.0431572 -0.014470235 -0.019717025 0.09871418 0.043135818 -0.06467651
0.0032052598 0.07565463 0.03252953 -0.0260129 -0.0917906 -0.13314341 -0.12528612 -0.073321864
0.08390688 -0.012754536 0.15167715 -0.13230672 0.19050822 0.16390748 -0.038773894 -0.10987922
0.061542418 -0.05881453 0.050772812 -0.09540317 -0.09757765 0.006198002 0.012593598 0.088459864
0.02839672 -0.067113325 -0.13856557 -0.057225306 -0.21338378 0.039305955 0.057507668 0.15140091
0.21505281 0.09285595 0.1696914 -0.19452482 -0.18093204 -0.088953376 0.04388537 0.112397544
0.26076847 0.098589934 -0.034690794 0.17908408 0.14907263 0.24541637 0.12976156 0.06100678
0.13943708 0.12515825 0.10906403 -0.09243105 0.016226176 -0.029787742 0.11992526 -0.07322319
0.13906085 0.25355572 0.12333371 0.034679595 -0.030952273 -0.09658867 0.17952837 -0.0011657899
0.12704432 0.004556248 0.17824185 -0.05246093 0.082468554 0.25441918 0.16492675 0.12472435
0.20026556 -0.0033668089 -0.078091726 0.08589697 0.17798226 0.13829944 0.2003163 0.04815351
00000000: 7985 4a3e 9b42 643e 82b4 b83d f3dc 8dbc
00000010: ad18 943c 012f d63d a6fa af3c a35f 23bc
00000020: 81f3 f63d 484c 95bc 53d5 25bd ffad 6ebc
00000030: b9f8 2bbd 7c50 b8bd 0761 59ba 4beb abbc
00000040: b96e 253e 138a 453e e517 ad3d 0b10 f13d
00000050: abd7 2639 2334 79bd 2358 75bc 1309 373e
00000060: 8223 373d d2ec 323d 1a25 1b3d 4c5b 123e
00000070: c680 193e 37e8 133e 1855 963e 97e3 1b3e
00000080: f9f4 2b3c 928b 45bd 28ea a1bd e11c 8c3b
00000090: 6b56 ec3d 99a6 a23d 4cdb 0d3e 8777 083e
000000a0: 9180 a2bd ac6f a53d ba9f b6bd d665 9fbc
000000b0: 0af5 543e ab65 223e 4866 84bd b678 b03d
000000c0: 7672 24bb 3c1c b2ba 0530 86bd 08ae e03c
000000d0: 2fb0 9dbd 2cbf ec3d 9a14 903d 714c 1ebe
000000e0: 6347 83bd 80e9 f8bc ad8d 323d 2526 283d
000000f0: 37ec 2bbe e684 57bd 440c 373d ecb5 0cbd
00000100: 86fd b7bd 768d 263b 6799 213e ad31 1dbe
00000110: 2276 d9bc 35e8 23bd 74f9 b13a 0e29 883d
00000120: a5b4 a0bd 01b5 003d 9bc5 303d 9114 6dbc
00000130: 9985 a1bc a92a ca3d 2faf 303d 1e75 84bd
00000140: 560f 523b d1f0 9a3d af3d 053d 0119 d5bc
00000150: b6fc bbbd bf56 08be 014b 00be c629 96bd
00000160: 5fd7 ab3d 67f8 50bc 4151 1b3e 6a7b 07be
00000170: 9614 433e 5dd7 273e 60d1 1ebd 5b08 e1bd
00000180: e713 7c3d 81e7 70bd 27f7 4f3d bd62 c3bd
00000190: cad6 c7bd 9c18 cb3b 6155 4e3c 722a b53d
000001a0: 3da0 e83c b672 89bd 22e4 0dbe 1565 6abd
000001b0: 4781 5abe 48ff 203d 298d 6b3d d708 1b3e
000001c0: ce36 5c3e 432b be3d 95c3 2d3e 8431 47be
000001d0: 4046 39be 302d b6bd 25c1 333d af30 e63d
000001e0: 7283 853e 85e9 c93d ef17 0ebd d161 373e
000001f0: 7fa6 183e 6e4e 7b3e 37e0 043e 3fe2 793d
00000200: 98c8 0e3e 7c29 003e f65c df3d 7e4c bdbd
00000210: c2ec 843c 6c05 f4bc 609b f53d 0af6 95bd
00000220: f865 0e3e 0ed2 813e 6296 fc3d 310c 0e3d
00000230: 9f8f fdbc 48d0 c5bd 49d6 373e 6bcd 98ba
00000240: e817 023e 944c 953b 0885 363e 46e1 56bd
00000250: 46e5 a83d 3b43 823e 8fe2 283e 7b6f ff3d
00000260: 6a12 4d3e aea5 5cbb 8eee 9fbd c0ea af3d
00000270: fb40 363e 5e9e 0d3e b71f 4d3e 9d3c 453d
