generate_forecasts/output/Local_Forecasts/Food purchased from restaurants/2021/models/DeepAR/W0/gluon_ts/prediction-net-state.pt (torch, 97628 bytes, 11 tensors)

model.param_proj.proj.0.weight f4 [1, 40]
0	0x3e144046	0.14477643
1	0x3da1f65a	0.07908316
2	0x3e191cc5	0.14952381
3	0x3d174541	0.03693128
4	0x3e90f165	0.2830917
5	0xbd00637b	-0.031344872
6	0x3d481844	0.048851267
7	0xbdc66f39	-0.09689183
8	0xbcd3b27f	-0.02584195
9	0xbdbf3e89	-0.093380995
10	0xbda263a2	-0.0792916
11	0x3de333e0	0.11093879
12	0x3dac94ba	0.08426805
13	0xbe0b7ea5	-0.1362253
14	0x3b448538	0.002998663
15	0x3e328fcb	0.17437665
16	0x3d8afdfc	0.06786725
17	0xbdfd4355	-0.12366358
18	0xbd2e06b3	-0.042486858
19	0xbe59efec	-0.21282929
20	0x3bf904a1	0.0075994288
21	0xbd4f8202	-0.050661094
22	0x3db499dd	0.088184096
23	0x3c79c944	0.015245739
24	0x3dea68c3	0.11445763
25	0x3db0816d	0.08618436
26	0xbea71748	-0.3263495
27	0x3dc2327f	0.094822876
28	0xbd570be6	-0.05250158
29	0x3db47efd	0.088132836
30	0x3d24def8	0.040251702
31	0x3d58c57a	0.052922703
32	0x3da2ece0	0.079553366
33	0xbeb29b98	-0.34884334
34	0xbe09126e	-0.13385937
35	0xbc8b6a19	-0.017018365
36	0x3da9d464	0.082924634
37	0x3d718d8b	0.058972877
38	0xbdb3ee64	-0.08785704
39	0xbd017d8d	-0.031613875

model.param_proj.proj.1.weight f4 [1, 40]
0	0xbe261382	-0.16218379
1	0x3e12f588	0.14351475
2	0x3dedec7b	0.11617371
3	0xbe047a79	-0.12937345
4	0xbcb77763	-0.022395795
5	0xbe28645d	-0.16444536
6	0x3d142976	0.036172353
7	0x3d664b00	0.05622387
8	0xbe0bf8b1	-0.13669087
9	0x3af66321	0.0018797853
10	0x3e0dd050	0.13848996
11	0x3c743a29	0.014906445
12	0x3d459d2b	0.04824559
13	0x3de6df8a	0.112731054
14	0xbdc2edb8	-0.095179975
15	0x3dc1bba2	0.09459616
16	0x3e1502fe	0.14551923
17	0x3ccbc02c	0.024871908
18	0xbdacbdb3	-0.0843462
19	0xbe013443	-0.12617593
20	0x3dafa4e7	0.085763745
21	0x3dca0dc0	0.09865904
22	0x3c80e00c	0.015731834
23	0x3d5857a3	0.052817952
24	0x3e00538d	0.12531872
25	0x3d1d0190	0.03833157
26	0xbd8cedda	-0.06881304
27	0xbaea4c0e	-0.0017875449
28	0xbdc032ce	-0.0938469
29	0xbcd9bb18	-0.026578471
30	0x3d73d93f	0.059533354
31	0x3df40f74	0.1191701
32	0x3cd56090	0.026047021
33	0xbcb30439	-0.0218526
34	0x3ba3d0d8	0.0049992613
35	0xba776328	-0.00094370777
36	0xbe039525	-0.12849863
37	0xbac12d29	-0.001473819
38	0x3d9a9a26	0.07548933
39	0xbcc3f286	-0.023919355

model.param_proj.proj.2.weight f4 [1, 40]
0	0x3e4c36b1	0.19942738
1	0xbe0ecaa3	-0.13944487
2	0x3ce7d133	0.028297996
3	0x3dde406f	0.108521335
4	0x3e46d4f3	0.19417171
5	0x3e782907	0.242344
6	0x3e00830d	0.12549992
7	0xbe2d016d	-0.16895075
8	0xbd87907f	-0.06619357
9	0x3e6d2b38	0.23161018
10	0x3d51d95c	0.05123268
11	0x3e0cb616	0.13741335
12	0x3e3f5aba	0.18686953
13	0xbdb41646	-0.08793311
14	0xbe0d949e	-0.13826224
15	0xbca1da7b	-0.0197575
16	0xbd1c4d92	-0.038159914
17	0xbe1952f6	-0.14973053
18	0xbe35405c	-0.17700332
19	0xbde7a674	-0.11311045
20	0x3e29a5e4	0.16567189
21	0x3bf22189	0.0073892516
22	0x3e4065dd	0.18788858
23	0xbe2d9fa9	-0.16955437
24	0xbe81ec63	-0.2537566
25	0x3e6a8099	0.22900619
26	0xbe7af802	-0.2450867
27	0xbd9befe9	-0.076141186
28	0x3df29f2a	0.118467644
29	0x3e69317b	0.22772782
30	0xbe4d7ccd	-0.20067139
31	0xbe21d152	-0.15802506
32	0xbdde4a55	-0.108540215
33	0xbe829ce3	-0.2551032
34	0xbdd10e79	-0.102078386
35	0x3e0bb1b0	0.13642001
36	0x3e927526	0.28605002
37	0x3dd8b8cb	0.105821215
38	0xbe748498	-0.23878706
39	0xbe6462f1	-0.22303368

model.rnn.weight_ih_l0 f4 [160, 21]
0	0x3e51364a	0.20430866
1	0x3d9435a4	0.07236794
2	0x3e4a2da1	0.19743969
3	0x3e263967	0.16232835
4	0x3cde2ff1	0.02712247
5	0x3d18a31d	0.037264932
6	0x3e90a82c	0.28253305
7	0x3e036f4f	0.1283543
8	0x3ddf4731	0.109022506
9	0x3e63fbf5	0.22264083
10	0x3e462792	0.19351032
11	0x3e8330f9	0.256233
12	0x3e253eaf	0.16137193
13	0x3e851207	0.25990316
14	0x3da24aaf	0.07924401
15	0x3e810d77	0.25205585
16	0xbca01c1d	-0.019544655
17	0x3cfad095	0.030617038
18	0x3cdc6f44	0.026908524
19	0xbe354b50	-0.1770451
20	0x3db27b70	0.0871495
21	0x3d7164c8	0.058934003
22	0x3e04dc66	0.129747
23	0x3e4d59dd	0.20053811
24	0x3dc7a49d	0.09748194
25	0x3c9e5465	0.019327352
26	0xbcb116e5	-0.021617362
27	0x3da7427b	0.08166977
28	0x3e17adfa	0.1481246
29	0x3e37f62e	0.17965004
30	0xbd295494	-0.041340426
31	0x3e36e4a0	0.17860651
32	0xbd67481d	-0.056465257
33	0xbba4aad1	-0.0050252457
34	0x3c5f18e8	0.013616778
35	0xbd8ffa98	-0.07030219
36	0x3c93d1bd	0.018044347
37	0x3d19921d	0.03749286
38	0xbc388d23	-0.011264118
39	0x3d9f53fc	0.077796906
40	0xbdbfdb10	-0.09367955
41	0x3e0f1115	0.1397136
42	0x3e0f7ab5	0.14011653
43	0x3d77b8d4	0.060479
44	0xbcbb1ed1	-0.022841843
45	0x3e2f75af	0.17134736
46	0x3de61c52	0.112358704
47	0x3e1bc2bd	0.15211006
48	0x39a3b3c2	0.00031223713
49	0xbd447f83	-0.047973167
50	0x3dfa4136	0.12219469
51	0x3dc8a3c3	0.0979686
52	0x3b7df7b8	0.0038752388
53	0x3e31c44b	0.17360036
54	0xbd61bf9a	-0.055114366
55	0xbdb257e2	-0.087081686
56	0x3dbbd8fa	0.09172244
57	0x3e3fbcda	0.18724385
58	0x3dffde88	0.12493616
59	0xbc8e3478	-0.017359003
60	0x3c6cb138	0.014446549
61	0xbdc0f44f	-0.09421598
62	0x3dab2b9a	0.08357926
63	0x3e4fb0c9	0.20282282
64	0x3be865a6	0.0070921956
65	0x3e72705f	0.23675679
66	0xbcc25403	-0.0237217
67	0x3e736baf	0.23771547
68	0xbd2857e9	-0.041099463
69	0x3c353dd1	0.011062101
70	0x3e3904bf	0.18068217
71	0x3e2994d7	0.16560684
72	0x3c4a880e	0.0123615395
73	0xbc496a4c	-0.01229341
74	0x3d96c421	0.07361627
75	0x3ae435ac	0.0017411015
76	0x3e54c5c0	0.2077856
77	0xbd3034ba	-0.043019034
78	0xbd5ab0bb	-0.0533912
79	0x3db814e2	0.08988358
80	0x3d2d4113	0.042298388
81	0x3e3cfb62	0.1845527
82	0x3c87bfd2	0.01657096
83	0x3cd2f9e2	0.025753919
84	0x3e1c88bb	0.15286534
85	0x3e577534	0.21040803
86	0x3d8de415	0.06928269
87	0x3e0df92f	0.13864587
88	0x3e36a518	0.17836416
89	0x3e21a833	0.15786819
90	0x3e2df4cc	0.16987914
91	0x3e57f91d	0.21091123
92	0xbd650333	-0.055911254
93	0x3e3c4f91	0.18389727
94	0x3e1a1289	0.15046133
95	0xbd166756	-0.036719643
96	0x3e13340c	0.14375323
97	0x3e1f665a	0.15566388
98	0x3e12c890	0.14334321
99	0x3e8000c0	0.25000572
100	0x3df2a5f1	0.11848057
101	0x3c0eb8c2	0.008711042
102	0x3ac75df7	0.0015210499
103	0xbe2a44e2	-0.16627839
104	0x3da9a0a8	0.08282596
105	0x3e1a454c	0.15065497
106	0x3c17f38c	0.009274375
107	0x3e1babc6	0.15202245
108	0xbca7e29a	-0.020493794
109	0x3dcbec48	0.099571764
110	0x3d9af340	0.075659275
111	0x3d3a1444	0.045429483
112	0xbd144b2a	-0.036204495
113	0xbc8a9164	-0.01691503
114	0x3e2cca4b	0.16874044
115	0xbc8aabd1	-0.016927632
116	0x3d6cf35a	0.057849266
117	0x3e65ca77	0.22440515
118	0x3de8ebdc	0.113731116
119	0xbd86268d	-0.06550322
120	0x3dc248d8	0.0948655
121	0x3e03ce61	0.12871696
122	0x3c24892f	0.010042473
123	0xbcf905ea	-0.030398328
124	0xbdeb92e0	-0.115026236
125	0x3e2e73e4	0.17036396
126	0x3c8105cd	0.015749836
127	0x3d4d0b60	0.050059676
128	0x3e49a234	0.19690782
129	0x3e52d2c9	0.2058822
130	0x3e89e6d5	0.26933923
131	0x3d387f1f	0.045043107
132	0x3ca1d5c8	0.01975526
133	0x3e3f2608	0.18666852
134	0x3db24745	0.08705
135	0x3e830c9a	0.25595552
136	0x3e59d391	0.21272112
137	0x3c214e8f	0.00984539
138	0x3d83e911	0.06440938
139	0xbc19db46	-0.009390658
140	0x3e3bac19	0.18327369
141	0xbc223b05	-0.009901767
142	0x3e87707f	0.26453015
143	0x3bf79734	0.0075558666
144	0x3c424b83	0.011858824
145	0xbe161d97	-0.14659725
146	0x3dbbf2eb	0.09177192
147	0x3e0ecba7	0.13944875
148	0x3c991611	0.01868728
149	0xbc034b69	-0.008013585
150	0xbd1e893f	-0.038705107
151	0xbbc00e6d	-0.0058610947
152	0xbda41547	-0.08011871
153	0xbd3c002a	-0.045898594
154	0xbd3c3426	-0.04594817
155	0x3e1a738e	0.15083143
156	0x3e15e173	0.14636783
157	0x3dad22e5	0.08453921
158	0xbc85fe90	-0.016356736
159	0xbce61db8	-0.028090343
160	0x3dfdffb1	0.12402285
161	0x3e24c8eb	0.16092269
162	0x3c4a882f	0.01236157
163	0xbb61dc9c	-0.0034463769
164	0x3cbca2e6	0.023026895
165	0x3deb0df3	0.1147727
166	0xbd886303	-0.0665951
167	0xbca68439	-0.02032672
168	0x3d22df0c	0.039763495
169	0x3e600317	0.21876179
170	0x3dba0d78	0.090846
171	0x3e4cbc64	0.1999374
172	0x3dc4dd72	0.0961255
173	0x3dda36f7	0.10655015
174	0x3d8b2c6f	0.067955844
175	0x3d91f7eb	0.07127365
176	0x3e93f538	0.28898025
177	0x3e1814d1	0.14851691
178	0x3e2c8566	0.16847762
179	0xbd135f0e	-0.035979323
180	0x3caab71c	0.020839266
181	0x3c8c003a	0.017089952
182	0x3e29fcd8	0.16600358
183	0xbd4e9597	-0.05043563
184	0x3e85314c	0.26014173
185	0x3d0a8c3e	0.03382515
186	0xbcb892d9	-0.02253096
187	0xbcbbc266	-0.022919845
188	0x3e226655	0.15859349
189	0xbcd4b624	-0.025965758
190	0xbd7a95ea	-0.061178125
191	0x3e5cf09e	0.21576163
192	0xbd711c69	-0.058864985
193	0x3e4bc03c	0.1989755
194	0xbcee1325	-0.029061863
195	0x3ca91944	0.02064193
196	0xbd433928	-0.04766193
197	0x3e39264a	0.18081012
198	0xbd958b65	-0.07301978
199	0x3e21b824	0.157929
200	0xbc319344	-0.0108383335
201	0xbcb2431d	-0.021760518
202	0xbcd4547c	-0.025919192
203	0x3e094f54	0.13409168
204	0x3e17bc72	0.1481798
205	0x3d9b0458	0.07569188
206	0x3d0a4a93	0.033762526
207	0x3dc6b365	0.097021855
208	0xbe2375ee	-0.15962955
209	0xbc4c6e26	-0.012477433
210	0x3e7c6e1d	0.2465138
211	0x3e46fe85	0.19433029
212	0x3e609462	0.21931604
213	0x3e639d9d	0.22228093
214	0x3dcc38f1	0.09971798
215	0xbd0361ec	-0.032075807
216	0x3dc2e383	0.09516051
217	0x3db6e46a	0.08930285
218	0x3d472080	0.04861498
219	0xbd23f3ae	-0.040027313
220	0x3c491352	0.012272673
221	0xbd161587	-0.036641624
222	0x3da2b81e	0.07945274
223	0x3dd588d3	0.10426488
224	0x3e0df446	0.13862714
225	0x3e068135	0.13135226
226	0xbc949461	-0.018137159
227	0xbd125a11	-0.035730425
228	0x3de47aaa	0.11156209
229	0xbd779520	-0.06044495
230	0x3c78c600	0.015183926
231	0xbc072bf2	-0.0082502235
232	0x3e3a25a0	0.18178415
233	0x3e2f0041	0.1708994
234	0x3e4d5669	0.20052494
235	0x3e81bc00	0.25338745
236	0x3c849a0a	0.016186733
237	0x3dde3ac3	0.10851052
238	0x3dc391ca	0.095492914
239	0x3d1a12ce	0.03761559
240	0x3c268e23	0.010165724
241	0x3e5e17f1	0.2168882
242	0x3d410653	0.047125172
243	0x3e45d037	0.19317709
244	0x3e0fb6c4	0.14034563
245	0x3dcb4863	0.09925916
246	0xbb8696ac	-0.004107317
247	0x3d992b7b	0.07478996
248	0x3c40c22e	0.011765046
249	0x3e3fbb7e	0.18723866
250	0xbc00c536	-0.007859519
251	0x3d28aac1	0.04117847
252	0x3decd15a	0.11563368
253	0x3e0a3ee3	0.13500552
254	0x3e550127	0.20801221
255	0x3e89590f	0.2682576

model.rnn.weight_hh_l0 f4 [160, 40]
0	0xbd9dbd0b	-0.07702073
1	0xbe04275d	-0.12905641
2	0x3dc4ccb5	0.09609357
3	0x3d4a0ed6	0.049330555
4	0xbe4480b4	-0.19189721
5	0x3e313f7b	0.17309372
6	0x3da5a3d3	0.080878876
7	0xbe22914d	-0.1587574
8	0xbde15d5f	-0.11004137
9	0x3d277247	0.040880468
10	0xbd9615ee	-0.073284015
11	0xbe14eebf	-0.145442
12	0xbe2a138c	-0.16609019
13	0x3d86ae1b	0.06576177
14	0xbdca62d5	-0.09882132
15	0xbe33b053	-0.17547731
16	0x3e09d58d	0.1346037
17	0xbd19993c	-0.03749965
18	0x3ddbfaf3	0.10741224
19	0xbd8bff19	-0.068357654
20	0xbd90f2b5	-0.07077543
21	0x3db286c6	0.08717112
22	0x3d1885ba	0.037236907
23	0x3c6a9cf3	0.014319646
24	0xbded0fee	-0.11575304
25	0x3daa8a4e	0.08327161
26	0x3e4156ab	0.18880717
27	0xbd9d2725	-0.07673482
28	0x3dd511a5	0.10403756
29	0x3cf03691	0.029322894
30	0x3d41c832	0.04731006
31	0x3c206a3d	0.009790954
32	0xbd18c81a	-0.037300207
33	0x3e1925c1	0.14955808
34	0x3d7729b9	0.060342524
35	0xbdd9616e	-0.10614286
36	0xbde011d6	-0.10940902
37	0xbe213c6b	-0.15745704
38	0x3dc1f9be	0.09471463
39	0x3d2e517a	0.04255817
40	0xbc0ecbfe	-0.008715628
41	0xbd97ae97	-0.07406347
42	0x3d8975aa	0.06711896
43	0x3d8fc1af	0.07019364
44	0x3e226a9f	0.15860985
45	0xbe1e7d21	-0.1547742
46	0x3d91c64c	0.071179
47	0xbcd84753	-0.026401198
48	0x3d460f9f	0.04835474
49	0x3cbd2626	0.02308948
50	0xbb0f82a2	-0.0021897932
51	0x3d4a341a	0.049366094
52	0xbdd0e90f	-0.102007024
53	0xbd6aa7e7	-0.05728903
54	0xbd3da71a	-0.04630194
55	0x3bf43a57	0.0074532437
56	0xbe28c3d6	-0.16480955
57	0x3d80309d	0.06259272
58	0xbe315b65	-0.1732002
59	0x3e0141f5	0.12622817
60	0x3d330956	0.043710075
61	0x3d7bc239	0.061464522
62	0x3dbb730f	0.09152805
63	0xbdb295b3	-0.08719959
64	0xbd4ff9cb	-0.05077533
65	0xbdcf4935	-0.10121385
66	0xbda30492	-0.07959856
67	0x3ddf0609	0.10889823
68	0x3df102d6	0.11768119
69	0x3d8eb652	0.069683686
70	0xbdf2c402	-0.11853792
71	0x3d1857fb	0.03719328
72	0x3e06e7e0	0.13174391
73	0xbd53f565	-0.0517477
74	0x3bfc0895	0.0076914527
75	0x3da90715	0.08253304
76	0xbca9a801	-0.020709993
77	0xbd1c8c95	-0.038220007
78	0x3de4d3c6	0.11173205
79	0xbd672eab	-0.05644099
80	0x3dbcc886	0.09217934
81	0x3e232c1b	0.15934794
82	0xbd9be4c9	-0.07611997
83	0x3ba9ff1e	0.005187883
84	0x3ce79e0f	0.02827361
85	0xbe27be51	-0.16381194
86	0x3e113dd5	0.14183743
87	0x3c03730e	0.008023037
88	0xbc53a729	-0.012918272
89	0x3d8e3d1f	0.06945252
90	0x3de56ede	0.11202787
91	0x3c1e8708	0.009675749
92	0xbd325764	-0.043540373
93	0x3ca22f46	0.019797932
94	0xbe0c5fe5	-0.13708456
95	0x3ddafeff	0.10693168
96	0xbc36843e	-0.011139927
97	0x3d95edf0	0.073207736
98	0x3e2f1513	0.17097883
99	0x3d5a2c6a	0.053265013
100	0x3d92cbff	0.071678154
101	0x3dd98f36	0.106230184
102	0xbddca128	-0.107729256
103	0xbe09d4bd	-0.1346006
104	0xbd920682	-0.071301475
105	0xbc9df83a	-0.019283403
106	0x3d0624e4	0.032750025
107	0x3e025373	0.12727146
108	0xbdbc5a0e	-0.09196864
109	0x3dc27273	0.09494486
110	0xbc87223a	-0.016495813
111	0x3e133dc5	0.14379032
112	0x3d89145a	0.06693335
113	0x3e49e5bb	0.19716541
114	0xbc62651c	-0.013818052
115	0x3d03db4c	0.03219156
116	0x3e11c983	0.14237027
117	0xbd0eb5c7	-0.034841325
118	0x3d58a953	0.052895855
119	0xbc39a954	-0.011331875
120	0xbe2c2759	-0.16811885
121	0x3dec27eb	0.11531051
122	0x3e00b382	0.12568477
123	0xbdae5ad2	-0.08513416
124	0xbe4e10bf	-0.20123576
125	0xbc1eb256	-0.009686073
126	0x3d1edd9f	0.038785573
127	0x3daffc4e	0.08593045
128	0xbd06d27a	-0.03291557
129	0x3da01db7	0.07818168
130	0x3e31fac3	0.17380814
131	0x3de3a910	0.111162305
132	0x3d22a1b6	0.039705
133	0x3c4b495d	0.012407628
134	0x3d59f866	0.053215407
135	0xbe4824c8	-0.19545281
136	0xbcb051bf	-0.021523355
137	0x3e2d33d5	0.16914304
138	0x3be000cd	0.006836033
139	0xbdd97d71	-0.10619629
140	0xbe104af6	-0.14091095
141	0xbdd2ef2e	-0.10299526
142	0xb9d92860	-0.00041419547
143	0x3df4661b	0.119335376
144	0xbd8765a6	-0.06611185
145	0x3deb4dc0	0.11489439
146	0x3e3a6690	0.18203187
147	0xbcf57d16	-0.029966872
148	0x3e39a5a4	0.18129593
149	0xbd9f742f	-0.07785832
150	0x3dd70e83	0.10500815
151	0x3d9af3bc	0.0756602
152	0xbe562705	-0.20913322
153	0x3dfa1555	0.122111
154	0xbe1d0954	-0.1533559
155	0x3c5a0ec6	0.013309186
156	0xbde8eadd	-0.113729216
157	0xbd602e29	-0.05473152
158	0xbc857ec3	-0.016295796
159	0x3da1b4ab	0.07895788
160	0xbe469566	-0.19392928
161	0xbe58067c	-0.21096224
162	0xbd026afe	-0.031840317
163	0x3e42db46	0.19028959
164	0xbc9eb854	-0.019375004
165	0xbd496d60	-0.049176574
166	0xbca28523	-0.019838875
167	0xbdb3e89a	-0.087845996
168	0xbdc94123	-0.09826877
169	0x3e3efe29	0.18651642
170	0x3cf6cc8e	0.030126836
171	0xbd7470f6	-0.05967804
172	0x3d98bc8f	0.0745784
173	0xbe443289	-0.19159903
174	0x3d53e805	0.051734943
175	0xbe5c152e	-0.21492454
176	0x3da36080	0.0797739
177	0xbe2b4ae9	-0.16727795
178	0x3ca8476f	0.020541875
179	0xbe2ee8c9	-0.17080988
180	0xbd68112f	-0.056657013
181	0x3d75f2a5	0.060045857
182	0xbd8502ce	-0.064946756
183	0xbd97f71a	-0.07420178
184	0xbe3870bb	-0.18011753
185	0xbc16a21a	-0.009193921
186	0xbd1a5a01	-0.03768349
187	0xbd720e8d	-0.059095908
188	0x3e1d7b0a	0.15378967
189	0xbd81b272	-0.06332864
190	0xbde755f8	-0.11295694
191	0x3e46091b	0.19339411
192	0xbd9f83ee	-0.077888355
193	0xbccab8bb	-0.02474629
194	0xbe0e2fdf	-0.13885449
195	0xbdab1dff	-0.08355331
196	0xbd0da7d0	-0.034583867
197	0xbdf024a4	-0.11725739
198	0xbe5621e9	-0.20911373
199	0xbdd4aae0	-0.10384154
200	0xbd866836	-0.065628454
201	0x3bc46efa	0.0059946747
202	0x3d600922	0.05469621
203	0x3db20044	0.08691457
204	0xbd76d509	-0.06026176
205	0xbd471124	-0.04860033
206	0xbe43e9e5	-0.19132192
207	0x3d1adafe	0.037806503
208	0xbbb09549	-0.00538889
209	0x3cfc9aac	0.030835472
210	0x3d51ba2a	0.05120293
211	0x3d32f4df	0.04369056
212	0x3d6cfd7f	0.05785894
213	0xbcba8b2f	-0.022771446
214	0xbddb9f0e	-0.10723697
215	0xbe3db44d	-0.1852581
216	0xbd44a77e	-0.048011295
217	0x3dece442	0.11566974
218	0xbdcec1d6	-0.10095565
219	0xbcd0d19d	-0.025490576
220	0x3dcc3402	0.09970857
221	0x3e45df9f	0.19323586
222	0xbd6a389e	-0.0571829
223	0xbc252234	-0.010078955
224	0xbdc9388b	-0.09825238
225	0xbe354620	-0.17702532
226	0xb9647592	-0.00021787573
227	0x3e22d9a3	0.15903334
228	0xbd0f3984	-0.03496696
229	0x3e153b89	0.14573492
230	0xbe09b698	-0.1344856
231	0x3da7c621	0.08192087
232	0xbe3529f8	-0.17691791
233	0x3d8a8edd	0.0676553
234	0xbd75d3bd	-0.060016382
235	0xbe2a7de1	-0.16649581
236	0xbc615d18	-0.013755105
237	0xbc9ceb95	-0.019155303
238	0xbdbe544c	-0.09293422
239	0xbe0219ea	-0.12705198
240	0x3d812d3a	0.063074544
241	0xbd9b30ca	-0.07577665
242	0x3db6613d	0.089052655
243	0xbd01ded4	-0.031706646
244	0x3cfc805b	0.030822923
245	0xbccd3319	-0.02504878
246	0xbd6bb1bb	-0.057542544
247	0xbcb8f4d1	-0.022577675
248	0xbe158499	-0.14601363
249	0xbdb24abd	-0.087056614
250	0xbdb0f77e	-0.086409554
251	0xbdd79b24	-0.105276376
252	0x3d8ff69f	0.07029461
253	0xbe1ea9ec	-0.15494508
254	0xbab749a4	-0.0013983739
255	0xbe04f748	-0.12984955

model.rnn.bias_ih_l0 f4 [160]
0	0x3e14ca7d	0.14530368
1	0x3d2dbe60	0.042417884
2	0xbd66ede0	-0.0563792
3	0xbbbe0658	-0.005799096
4	0xbd4163d3	-0.04721434
5	0x3e821808	0.2540896
6	0xbafdbd0b	-0.0019358707
7	0x3cb81738	0.022472009
8	0x3d3f090a	0.04663948
9	0xbd64e6c9	-0.055884156
10	0x3d45dc4d	0.0483058
11	0x3e808e06	0.25108355
12	0x3dea0f31	0.11428679
13	0x3e265cb6	0.16246304
14	0xbc84d5ea	-0.016215283
15	0x3dfca450	0.123360276
16	0x3c9087e5	0.017642925
17	0xbdb7ede4	-0.08980921
18	0xbdb9d02b	-0.09072908
19	0x3e3ce501	0.18446733
20	0xbb0c4983	-0.002140612
21	0x3d8bd265	0.06827239
22	0xbe124630	-0.14284587
23	0xbde39bad	-0.11113677
24	0x3e40997a	0.18808547
25	0x3d16eb79	0.036845658
26	0x3e258292	0.1616309
27	0xbdf2c053	-0.11853089
28	0x3e356f15	0.17718156
29	0x3dcea5c8	0.10090214
30	0x3e08dde7	0.13365899
31	0xbcc5e728	-0.024158075
32	0x3dca5e41	0.09881259
33	0x3db49c1a	0.088188365
34	0xbcd43a83	-0.025906807
35	0xbd1da87e	-0.038490765
36	0x3da6a028	0.08136016
37	0x3dd83acc	0.105580896
38	0xbd5147be	-0.05109381
39	0xbcdb39fe	-0.026761051
40	0x3d894035	0.067017
41	0x3dc729eb	0.09724792
42	0x3d192bea	0.037395395
43	0xbdb18d27	-0.08669501
44	0x3e544fde	0.20733592
45	0x3e1548bc	0.14578527
46	0x3da894ef	0.08231532
47	0x3dda3bee	0.10655962
48	0x3c0f8eb4	0.00876205
49	0x3de90c1c	0.11379263
50	0x3da7de74	0.081967264
51	0x3dd2aeb9	0.10287232
52	0xbd2179ea	-0.039422907
53	0x3e005620	0.12532854
54	0xbd8ab6b1	-0.06773127
55	0xbd5762ae	-0.052584343
56	0xbcd42261	-0.0258953
57	0xbbd11acd	-0.0063813687
58	0xbe01aaf4	-0.1266287
59	0x3e208748	0.15676606
60	0xbb88ccac	-0.0041747894
61	0xbe0b1c6b	-0.1358506
62	0x3e5c348f	0.21504425
63	0x3e0e2a03	0.13883214
64	0x3e3ecf1b	0.18633692
65	0x3e1b9433	0.15193252
66	0x3d011634	0.031515315
67	0x3e153282	0.14570048
68	0x3e0966ff	0.13418196
69	0x3c36c9f4	0.011156548
70	0xbd8c9752	-0.068647996
71	0xbd63e595	-0.05563887
72	0xbd8e0bb0	-0.06935823
73	0x3e37274d	0.17886086
74	0x3dffe9a7	0.124957375
75	0xbd8b8f5a	-0.068144515
76	0xbc51129a	-0.012760783
77	0xbdc6e0b9	-0.09710831
78	0x3d35c635	0.044378478
79	0x3a0331ab	0.00050046545
80	0xbda41ccd	-0.08013306
81	0xbd8c6a8a	-0.06856258
82	0xbaa986e2	-0.0012933875
83	0x3d55068d	0.0520082
84	0x3d45ba4e	0.048273377
85	0x3e1b4666	0.15163574
86	0xbdb768b6	-0.08955519
87	0xbe26486c	-0.16238564
88	0xbc60a231	-0.013710544
89	0xbbe2a43f	-0.0069165523
90	0x3e1f12c0	0.15534496
91	0x3ceef3ff	0.02916908
92	0xbadaefe3	-0.0016703572
93	0x3daf3c02	0.085563675
94	0x3dfe45ee	0.12415682
95	0x3d24f5b0	0.04027337
96	0xbcb4be47	-0.022063388
97	0xbd8398f9	-0.064256616
98	0x3dbc17db	0.091842376
99	0x3d38db1e	0.04513084
100	0xbdd4b187	-0.10385423
101	0x3d4c7cb1	0.049923602
102	0xbc2bd1ac	-0.010487001
103	0x3e03a844	0.12857157
104	0x3e0e0469	0.1386887
105	0x3c5625bc	0.01307052
106	0xbdd72849	-0.10505731
107	0xbe24ce7c	-0.16094393
108	0xbd88f0b6	-0.06686537
109	0x3e0a337e	0.13496205
110	0xbd3c1e32	-0.045927234
111	0xbd377369	-0.044787798
112	0xbd9c2f3b	-0.07626196
113	0xba8142a4	-0.0009861779
114	0xbe18e3e5	-0.14930685
115	0xbd655970	-0.055993497
116	0xbd8e8690	-0.069592595
117	0xbbeb94cf	-0.00718937
118	0x3d9ea1f4	0.07745734
119	0x3d5f9ef1	0.054594938
120	0x3e0babcb	0.13639753
121	0xbd2ce8df	-0.04221427
122	0x3ccbf4fd	0.024897093
123	0xbd9ad658	-0.07560414
124	0x3e36b900	0.1784401
125	0x3e2f5af9	0.17124547
126	0x3e27c7aa	0.1638476
127	0xbda5c80b	-0.08094796
128	0x3dca3d64	0.098749906
129	0xbbee2277	-0.007267292
130	0x3d97f35a	0.074194625
131	0x3cf458d3	0.029827511
132	0x3dfdc82c	0.123916954
133	0x3dea0017	0.114257984
134	0x3dc1fea1	0.09472395
135	0x3d5e7365	0.054309268
136	0x3da31368	0.07962686
137	0xbda555a2	-0.08072974
138	0x3e15ba18	0.1462177
139	0xbc3379dc	-0.0109543465
140	0x3e22cb65	0.15897901
141	0x3b0c43dc	0.0021402752
142	0x3d826f4d	0.06368885
143	0xbd44d419	-0.048053835
144	0xba60b12b	-0.0008571322
145	0x3e60a1e7	0.21936761
146	0xbdbe6034	-0.09295693
147	0x3c62a08d	0.013832224
148	0x3df7db5d	0.12102387
149	0x3bf1c7b1	0.0073785414
150	0xbd2ece35	-0.042677123
151	0xbe00325d	-0.12519212
152	0x3e85c481	0.26126483
153	0x3d57fc1e	0.052730672
154	0x3e31699d	0.17325445
155	0xbd09731d	-0.033557046
156	0xbd118f16	-0.035536848
157	0xb97ecf4c	-0.00024300552
158	0x3d8892e8	0.06668645
159	0x3d1b8d72	0.03797669

model.rnn.bias_hh_l0 f4 [160]
0	0x3e1c0b2f	0.15238641
1	0x3cdd6570	0.027025908
2	0x3df5606c	0.11981282
3	0x3e546186	0.20740327
4	0xbc80243f	-0.015642283
5	0x3e4f8a7d	0.20267673
6	0x3e855695	0.2604262
7	0xbd76b23c	-0.06022857
8	0x3e8e4390	0.2778592
9	0xbd7e365f	-0.06206357
10	0x3e3e41a3	0.18579726
11	0x3d602347	0.054721143
12	0x3de1c0d5	0.11023108
13	0x3e66ec46	0.22551069
14	0x3dbdf73b	0.09275671
15	0x3e82e0c0	0.25562096
16	0x3e27295a	0.16324368
17	0xbe10bc10	-0.1413424
18	0xbd7257ac	-0.05916564
19	0x3de7122f	0.11282765
20	0x3d733525	0.059376854
21	0xbe010853	-0.12600832
22	0xbe20ea53	-0.15714388
23	0xbda9a85a	-0.08284064
24	0xbd033823	-0.032035958
25	0x3d3630c4	0.0444801
26	0x3de933aa	0.11386807
27	0xbbe499b4	-0.0069763307
28	0x3de91b57	0.11382168
29	0xbd4a3cba	-0.04937432
30	0x3d1f8def	0.038953718
31	0xbdade1be	-0.084903225
32	0x3e5c0cdb	0.21489279
33	0x3d23e28a	0.040010966
34	0x3c8c84e7	0.017153217
35	0xba099608	-0.00052484917
36	0xbd9c5212	-0.07632841
37	0x3d8a1366	0.06741981
38	0x3aa655bc	0.0012690346
39	0x3da199ea	0.07890685
40	0xbdc19e76	-0.09454052
41	0xbd34ad8c	-0.04411082
42	0x3d38ff23	0.045165192
43	0x3d98d11b	0.07461759
44	0x3e4026b9	0.18764772
45	0xbddc793f	-0.10765313
46	0x3e11b650	0.14229703
47	0x3e2346c5	0.15944965
48	0x3e1d9fca	0.15392986
49	0xbd840075	-0.064454
50	0x3e2bea89	0.16788687
51	0xbcbd6552	-0.023119602
52	0xbcdf0ed9	-0.02722876
53	0x3e3b0b7e	0.18266103
54	0xbc137ba3	-0.009001645
55	0xbbc8267a	-0.0061081024
56	0xbd8dfeb7	-0.069333486
57	0x3dd0926f	0.1018418
58	0xbca0ab47	-0.019612921
59	0xbd1617bb	-0.036643725
60	0x3e10dc2a	0.14146486
61	0xbc7483ba	-0.014923984
62	0x3cbd0e90	0.023078233
63	0x3d93da1b	0.07219335
64	0xbd7c8cfc	-0.06165789
65	0xba8c488b	-0.0010702772
66	0x3de03c72	0.10949029
67	0x3da9bce5	0.08287982
68	0x3dd55e72	0.10418405
69	0x3c9a7fcd	0.018859768
70	0x3b5dfb4c	0.0033871708
71	0xbcf4c4ac	-0.029878937
72	0x3d8a9215	0.06766144
73	0xbdb5cb07	-0.08876615
74	0xbd4bb68d	-0.04973464
75	0xbdf5cd89	-0.12002093
76	0xbc78c65b	-0.01518401
77	0xbddf84e5	-0.109140195
78	0x3e09388f	0.13400482
79	0x3e23b0fb	0.15985481
80	0xbb819618	-0.00395466
81	0x3dee8788	0.11646944
82	0x3e331ac0	0.17490673
83	0x3d433289	0.047655616
84	0xbcd0492a	-0.025425512
85	0x3c3936fc	0.011304613
86	0xbe26d7a3	-0.16293196
87	0xbd0c125c	-0.034197196
88	0xbe64bfe7	-0.2233883
89	0x3dad72e2	0.08469178
90	0x3c02de5c	0.007987585
91	0xbd2f6ef8	-0.042830437
92	0x3c9c2023	0.019058293
93	0xbe18b1bf	-0.14911555
94	0xbce127d4	-0.027484812
95	0xbd9cab42	-0.07649852
96	0xbdf1a7cc	-0.11799583
97	0xbd702095	-0.058624823
98	0x3cc6e71a	0.02428012
99	0x3da651f5	0.08121101
100	0xba9b10eb	-0.0011830603
101	0xbdc9586f	-0.098313205
102	0x3d9120d3	0.07086339
103	0x3d99b42b	0.075050674
104	0xbd9dd224	-0.07706097
105	0xbe45f332	-0.19331053
106	0x3c375676	0.0111900475
107	0x3d87cdb8	0.066310346
108	0x3c8988fa	0.016788948
109	0x3e0b40d5	0.1359895
110	0xbd22878f	-0.03968006
111	0x3da54ffc	0.080718964
112	0x3da0ead4	0.0785729
113	0xbd272ec5	-0.040816087
114	0xbd830348	-0.0639711
115	0xbe0dbca7	-0.13841496
116	0xbdaf7059	-0.085663505
117	0x3c8ce705	0.017200002
118	0x3da6bf8f	0.08142006
119	0xbd66c0f4	-0.05633636
120	0x3e478996	0.19486079
121	0x3e4e3a35	0.20139392
122	0x3e1d1347	0.15339385
123	0x3dc3720e	0.095432386
124	0xba7d6528	-0.00096662575
125	0x3e6fad72	0.23406008
126	0x3e37caee	0.17948505
127	0xbd86f8c0	-0.06590414
128	0xbc2b4266	-0.010452842
129	0xbdc22132	-0.09478988
130	0x3e1255bf	0.14290522
131	0x3df87442	0.121315494
132	0xbd8858f6	-0.06657593
133	0xbd806676	-0.06269543
134	0x3db39fc8	0.0877071
135	0x3e82074f	0.253962
136	0x3d9a205a	0.07525702
137	0xbde51f99	-0.111876674
138	0x3d6587ef	0.05603784
139	0xbdb97eb2	-0.09057368
140	0x3d088485	0.033329505
141	0x3e086d36	0.1332291
142	0xbd5b341b	-0.05351649
143	0x3d89b9be	0.06724881
144	0x3ce6b676	0.028163176
145	0x3d70ae33	0.05875988
146	0xbdb3c1fe	-0.087772354
147	0xbdb6eb26	-0.0893157
148	0x3c8448b1	0.016147943
149	0xbd97cdd2	-0.07412304
150	0x3d806c03	0.062706016
151	0xbd49eada	-0.049296238
152	0x3e227b6e	0.15867397
153	0x3e471c09	0.19444288
154	0x3c1929e7	0.009348369
155	0x3e1b97ec	0.15194672
156	0x3e21a8ef	0.157871
157	0x3e8ba5f8	0.27275062
158	0x3d859ac2	0.06523658
159	0xbc9f3e03	-0.01943875

model.rnn.weight_ih_l1 f4 [160, 40]
0	0x3c01766a	0.007901767
1	0x3c820a3c	0.01587402
2	0xbd4f4f53	-0.05061276
3	0x3db0df3d	0.08636329
4	0xba9430c0	-0.0011306033
5	0x3e6351ee	0.22199222
6	0xbe40270d	-0.18764897
7	0xbe5ce016	-0.21569857
8	0xbe5b1150	-0.21393323
9	0x3d128cd7	0.035778847
10	0x3df8ecd4	0.121545464
11	0xbd177a96	-0.03698214
12	0xbe37f6cb	-0.17965238
13	0xbcdf872f	-0.02728614
14	0x3d62f7d4	0.05541213
15	0xbd5b7804	-0.053581253
16	0xbdf5a5b2	-0.119944945
17	0xbd7da4dc	-0.0619248
18	0xbc1b5628	-0.0094809905
19	0xbe161113	-0.14654951
20	0x3d4b82e2	0.049685366
21	0x3d8e36bf	0.06944036
22	0xbcccafd3	-0.024986183
23	0xbd6d4c1a	-0.057933904
24	0xbb993def	-0.0046765725
25	0xbdf3da4a	-0.1190687
26	0xbcde6dea	-0.02715202
27	0x3e0d945a	0.13826123
28	0xbd555bb0	-0.052089393
29	0x3cf0e974	0.029408194
30	0x3d4388fb	0.047738057
31	0x3da3f80f	0.08006298
32	0xbe07c7e4	-0.13259846
33	0xbda4345e	-0.08017801
34	0x3d7aceb4	0.061232284
35	0x3d987c80	0.074456215
36	0x3cec82a6	0.028870892
37	0xbda1992a	-0.07890542
38	0xbd2ac216	-0.041689
39	0x3da6b6e9	0.08140356
40	0xbe10f98c	-0.14157695
41	0xbe574595	-0.21022637
42	0x3dd9dfcc	0.10638389
43	0x3e8bfea0	0.273427
44	0xbde8e283	-0.11371329
45	0xbbc6631f	-0.0060542966
46	0xbeba98e6	-0.36444777
47	0x3c2411fd	0.010014054
48	0xbeb452b1	-0.3521934
49	0x3ddc563f	0.10758638
50	0x3dbabb71	0.09117783
51	0x3b4eb7d8	0.0031542685
52	0xbe8efdc7	-0.27927992
53	0xbe4cba02	-0.19992831
54	0x3e35178b	0.17684762
55	0xbec112ff	-0.37709805
56	0xbe445fa5	-0.1917711
57	0xbd4e39dc	-0.050348148
58	0xbe38f4a9	-0.1806208
59	0xbe76c76c	-0.24099511
60	0xbe334174	-0.17505437
61	0xbcdb78ad	-0.026790941
62	0xbe1c154d	-0.152425
63	0x3d8753a3	0.06607749
64	0xbd70f8f7	-0.05883118
65	0x3b9039a2	0.0044014016
66	0x3c5e6c55	0.013575633
67	0xbdebca45	-0.11513189
68	0x3e214781	0.15749933
69	0x3dcb0a9b	0.09914132
70	0xbe801ba8	-0.250211
71	0x3dee89f0	0.11647403
72	0xbdd0d227	-0.101963334
73	0x3e5a621f	0.21326493
74	0xbe831e34	-0.2560898
75	0xbcbfe144	-0.023422845
76	0x3d7a3a8c	0.06109099
77	0xbe9c19f2	-0.30488545
78	0xbe74fc37	-0.23924337
79	0x3cf59efc	0.029983036
80	0x3cb78de7	0.022406531
81	0xbb0dd603	-0.0021642454
82	0x3cd84f9b	0.026405146
83	0x3d74e864	0.059791937
84	0xbd8fb010	-0.07016003
85	0xbdc5897c	-0.09645364
86	0xbda854ab	-0.08219274
87	0xbe206153	-0.15662126
88	0xbd9bcc1c	-0.0760729
89	0xbe1a8826	-0.15090999
90	0xbe115956	-0.14194235
91	0xbe22bd41	-0.15892507
92	0xbb1f5e8b	-0.0024317827
93	0xbcac863b	-0.0210601
94	0xbd7aed4d	-0.061261464
95	0x3d88a9e9	0.06673033
96	0x3d39cced	0.045361448
97	0x3d88a128	0.06671363
98	0x3caa5ea7	0.020797087
99	0xbd4f8f02	-0.050673492
100	0x3e005bb4	0.12534982
101	0x3c77f9a2	0.015135201
102	0xbc3867e7	-0.011255241
103	0xbd981255	-0.074253716
104	0x3d92852c	0.07154307
105	0xbe0c54e7	-0.13704263
106	0x3dcb8669	0.09937746
107	0x3e2c267b	0.16811554
108	0x3dc2d1e2	0.09512688
109	0x3dc9c1ea	0.09851439
110	0x3d3e98ca	0.04653243
111	0xbdf4078f	-0.11915504
112	0x3d8c965c	0.06864616
113	0x3e1c5cb8	0.15269744
114	0x3de89376	0.11356251
115	0xbd993b3c	-0.07482001
116	0x3df5130d	0.11966524
117	0xbe401513	-0.18758039
118	0x3ddc0a37	0.10744136
119	0xbdd213aa	-0.10257657
120	0xbd2b68c7	-0.04184797
121	0x3d1b84fb	0.037968617
122	0xbdc60e5b	-0.09670707
123	0xbdb85be2	-0.090019
124	0x3d82df7a	0.06390281
125	0x3e237e91	0.1596625
126	0x3e0a515d	0.135076
127	0x3df77d09	0.120843954
128	0xbc24c495	-0.010056634
129	0xbd0bb37d	-0.03410672
130	0x3dd55290	0.10416138
131	0xbe16c4ad	-0.14723463
132	0xbdd75306	-0.10513882
133	0xbd839733	-0.06425323
134	0xbd961b2b	-0.07329401
135	0xbdb62af1	-0.08894909
136	0xbcda2e17	-0.026633305
137	0xbe10ea9f	-0.14152001
138	0x3e0355df	0.12825726
139	0xbe1aa2e2	-0.15101197
140	0xbc84ead7	-0.016225262
141	0x3d46d978	0.048547238
142	0xbdf27d6c	-0.118403286
143	0x3e1fd686	0.15609178
144	0x3da859ef	0.082202785
145	0xbcb69a65	-0.022290418
146	0x3d4045bf	0.046941515
147	0x3dbe4535	0.09290544
148	0x3ddde033	0.10833778
149	0xbd4cb48a	-0.049976863
150	0x3d8b04ac	0.067880005
151	0x3da84010	0.08215344
152	0xbd19a002	-0.03750611
153	0x3e2a1b8f	0.16612075
154	0xbdddea66	-0.108357236
155	0xbe1cb101	-0.15301897
156	0x3d93079e	0.07179187
157	0xbe0f6a84	-0.14005476
158	0x3d7c1548	0.061543733
159	0xbddae485	-0.10688118
160	0xbe197599	-0.14986266
161	0xbe1d03b3	-0.15333442
162	0xbe1345d5	-0.14382108
163	0xbdac004d	-0.08398495
164	0x3dab2333	0.08356323
165	0x3e00351b	0.12520258
166	0x3cb725db	0.022356918
167	0xbcba48c8	-0.022739783
168	0x3dcfff0a	0.10156067
169	0xbe1b04c5	-0.15138538
170	0x3dad45ed	0.08460603
171	0x3e047c46	0.12938032
172	0xbd70ccbd	-0.058789004
173	0xbe186971	-0.14883973
174	0x3c615dd3	0.01375528
175	0x3d5d951b	0.054097276
176	0x3dae5a8e	0.08513366
177	0x3e30b51d	0.17256589
178	0x3db990b3	0.09060802
179	0x3d8b0e39	0.06789822
180	0x3c15371c	0.009107377
181	0xbe0c7b0b	-0.13718812
182	0x3e14ef68	0.14544451
183	0xbc93a882	-0.018024687
184	0x3dedbc64	0.11608198
185	0x3dd3547a	0.10318847
186	0x3e0b022c	0.13575047
187	0x3dc96bac	0.0983499
188	0xbe01a7fb	-0.12661736
189	0xbe169969	-0.14706959
190	0x3d9f4b12	0.077779904
191	0xbd1b79b1	-0.03795785
192	0x3dbb55a3	0.09147193
193	0xbe6a25cf	-0.22865985
194	0xbd0f8f08	-0.035048515
195	0x3ce8398d	0.028347755
196	0xbe01a019	-0.12658729
197	0x3d820ca5	0.06350068
198	0x3c97d048	0.018531933
199	0x3ac8c0b2	0.0015316217
200	0xbea4b098	-0.3216598
201	0xbe5cc7f4	-0.21560651
202	0x3e8a95f4	0.2706753
203	0x3e7eb8d2	0.24875191
204	0xbe588105	-0.21142967
205	0x3c869da0	0.016432583
206	0xbe84e360	-0.25954723
207	0x3ca457a5	0.020061323
208	0xbe8e503a	-0.27795583
209	0xbb5dd662	-0.0033849706
210	0x3ba18632	0.0049293274
211	0xbe19a1d1	-0.15003134
212	0xbddb7532	-0.107157126
213	0xbe04d23e	-0.12970826
214	0x3e65dcfd	0.22447582
215	0xbe86fb01	-0.26363376
216	0xbe9b19af	-0.30293033
217	0x3df6c076	0.12048428
218	0xbd545b2f	-0.051844772
219	0xbc4beafb	-0.01244616
220	0xbe251a33	-0.16123275
221	0x3de88e55	0.11355273
222	0x3d2899a6	0.041162156
223	0x3dcf9c3d	0.10137222
224	0xbd786bd4	-0.060649708
225	0xbe5a474a	-0.21316257
226	0x3e783c1d	0.24241681
227	0xbd0d6bba	-0.034526564
228	0x3e862863	0.26202688
229	0x3dd43279	0.103611894
230	0xbd230d9b	-0.039807897
231	0xbcf79141	-0.03022063
232	0xbdc113bb	-0.094275914
233	0x3e41fd91	0.18944384
234	0xbd8c786b	-0.068589054
235	0xbe660bd9	-0.22465457
236	0x3e7534bf	0.23945902
237	0xbe32819a	-0.17432252
238	0xbea2e94a	-0.3181861
239	0xbdc24f2c	-0.09487757
240	0xbc24fc19	-0.01006987
241	0xbd6973ca	-0.05699519
242	0x3d92728f	0.071507566
243	0x3dbcc25e	0.0921676
244	0xbd00dd0d	-0.03146081
245	0x3d91fb92	0.07128061
246	0xbb82c3ad	-0.0039906115
247	0x3ddbd430	0.10733831
248	0xbd131386	-0.03590729
249	0x3e4ad6f4	0.1980856
250	0x3dd35429	0.10318787
251	0xbcfa8159	-0.030579256
252	0xbe1a76eb	-0.15084426
253	0xbc0d3650	-0.008618906
254	0xbdcaa604	-0.09894946
255	0xbd87a95b	-0.06624099

model.rnn.weight_hh_l1 f4 [160, 40]
0	0x3ca9f5ef	0.020747153
1	0x3d6d9685	0.058004875
2	0x3dff08f7	0.12452882
3	0xbe1bd206	-0.15216836
4	0x3c6e68f1	0.014551387
5	0xbd32240d	-0.043491412
6	0x3d6d2bea	0.057903208
7	0x3d422b46	0.04740455
8	0x3d975a32	0.0739025
9	0xbde4db15	-0.11174599
10	0x3d72b1b4	0.059251502
11	0x3ce688be	0.028141376
12	0x3dfe1caf	0.12407815
13	0x3e13fa8a	0.14451042
14	0xbe13ed90	-0.14446092
15	0x3e14a947	0.14517699
16	0x3dae09d8	0.08497971
17	0x3d8080ee	0.062745914
18	0x3e2ba102	0.16760638
19	0xbd878f56	-0.06619136
20	0x3dec013f	0.11523675
21	0xbc3da8cc	-0.011575889
22	0x3db478d6	0.0881211
23	0xbd844f29	-0.06460411
24	0xbd8026a1	-0.06257368
25	0x3db299df	0.08720755
26	0xbe041b9d	-0.12901159
27	0x3d9ed457	0.07755344
28	0x3d2226e0	0.039587855
29	0x3e027770	0.12740874
30	0xbd1de265	-0.038545985
31	0x3e0fd6a1	0.14046718
32	0x3e0cdd3a	0.13756266
33	0x3d8e925f	0.06961512
34	0x3db957ad	0.09049926
35	0x3e018cd7	0.12651382
36	0xbcbc1f30	-0.02296409
37	0xbce52561	-0.027971925
38	0x3aff64f9	0.0019485048
39	0xbdb25d74	-0.08709231
40	0x3de78aac	0.113057464
41	0x3d373879	0.04473159
42	0xbd330106	-0.043702148
43	0x3c6d2340	0.014473736
44	0x3db7de57	0.08977955
45	0xbe0241d6	-0.12720427
46	0x3d8b72ba	0.06808992
47	0x3cc7edb9	0.024405347
48	0x3dcd14e7	0.100137524
49	0xbe0449ce	-0.12918779
50	0xbd8338b7	-0.06407302
51	0x3df6f9b2	0.12059344
52	0xbe08a0d5	-0.13342603
53	0x3df6003e	0.12011765
54	0x3df041e3	0.11731317
55	0xbce8c065	-0.028412053
56	0xbdb5d7fd	-0.08879087
57	0x3db5b288	0.08871943
58	0xbd2ee484	-0.0426984
59	0xbd329155	-0.04359563
60	0x3d96e3ff	0.073677056
61	0x3a7895d2	0.0009482774
62	0x3d8ed24c	0.06973705
63	0xbd0fae10	-0.03507811
64	0xbd46db07	-0.048548725
65	0xbd51e041	-0.051239256
66	0x3df8270f	0.12116825
67	0xbdbff022	-0.093719736
68	0x3df580a9	0.119874306
69	0xbdc71bed	-0.09722123
70	0x3deadfb1	0.11468447
71	0x3dca5eac	0.098813385
72	0xbd2c5f25	-0.042082924
73	0xbd7db35c	-0.06193863
74	0x3d2f36c0	0.042776823
75	0xbde63004	-0.11239627
76	0xbe000e9b	-0.12505572
77	0xbe00df3f	-0.12585162
78	0x3e08d1df	0.1336131
79	0x3e338097	0.17529522
80	0x3ca48668	0.020083621
81	0xbe07bb3d	-0.1325502
82	0x3e19cce1	0.15019561
83	0xbdffcb31	-0.124899276
84	0x3cede474	0.029039599
85	0xbdd6d278	-0.104893625
86	0x3ca2c951	0.019871386
87	0x3ce93a2a	0.028470118
88	0xbd592a2c	-0.053018734
89	0xbd860034	-0.065430075
90	0xbdec782b	-0.11546358
91	0x3e075b7b	0.13218491
92	0xbdc4ee98	-0.09615821
93	0xbd590b5b	-0.052989345
94	0xbd5ea8e5	-0.05436029
95	0xbe370af7	-0.17875277
96	0xbe13102c	-0.14361638
97	0xbe176f81	-0.14788629
98	0x3de23c59	0.11046667
99	0xbd68b2a2	-0.056810983
100	0x3e0544e3	0.1301456
101	0x3d7f7918	0.062371343
102	0xbdad1ee5	-0.08453158
103	0xbd3d2210	-0.046175063
104	0x3db22644	0.08698705
105	0xbd5b1422	-0.053485997
106	0xbe2400e3	-0.16015963
107	0xbd9cb707	-0.07652097
108	0xbba4c8db	-0.0050288267
109	0x3d8801e0	0.06640983
110	0xbdb30849	-0.08741815
111	0x3dd9c570	0.10633361
112	0xbe3cbd7c	-0.18431658
113	0x3b3d33fd	0.0028870099
114	0xbcfa145d	-0.030527288
115	0xbcfc64bb	-0.03080975
116	0x3e0fec4d	0.14054985
117	0xbdfb89c0	-0.12282133
118	0x3d94eba7	0.072715096
119	0xbd40fabd	-0.047114123
120	0xbdaa751d	-0.08323119
121	0x3dae2f24	0.08505085
122	0xbe113e77	-0.14183985
123	0x3d4944ad	0.04913776
124	0xbe085d25	-0.13316782
125	0x3e0902cd	0.13379975
126	0xbdb5b0ae	-0.088715896
127	0xbd67ba1e	-0.05657398
128	0x3ce2d8df	0.027691303
129	0x3db85e04	0.09002307
130	0x3c84417d	0.016144508
131	0x3d8f6720	0.070020914
132	0x3c444e46	0.0119815525
133	0x3e0e7e4e	0.13915369
134	0xbe26eeb1	-0.16301991
135	0xbdabe9df	-0.08394217
136	0x3e200605	0.15627296
137	0x3d8fdac5	0.07024149
138	0xbe0457db	-0.12924139
139	0xbde3fe2d	-0.111324646
140	0xbe091184	-0.13385588
141	0xbd74b6b4	-0.05974455
142	0x3e366116	0.17810473
143	0xbe3198e9	-0.17343487
144	0xbd8d60a9	-0.06903202
145	0x3e42e5ed	0.19033022
146	0x3de0ff96	0.10986249
147	0x3e0696dd	0.13143487
148	0xbdcb90a9	-0.09939701
149	0x3e0a8bf4	0.1352995
150	0x3c5249df	0.012834995
151	0x3d939a08	0.072071135
152	0xbde0dc2a	-0.10979493
153	0x3cbfa0a9	0.023392038
154	0x3da74963	0.08168294
155	0x3e08fa11	0.13376643
156	0xbd7a7d5c	-0.06115471
157	0xbd12eeb8	-0.03587219
158	0xbe29d806	-0.16586313
159	0xbbbf74f8	-0.005842801
160	0x3d03c4f1	0.03217024
161	0xbde39e01	-0.11114121
162	0x3bd26698	0.0064209215
163	0xbe114b96	-0.1418899
164	0xbdcee906	-0.101030394
165	0x3c1f30a5	0.009716188
166	0x3d1ef056	0.03880342
167	0x3d35cf0c	0.04438691
168	0x3e0ddf36	0.1385468
169	0xbe48c5d8	-0.19606721
170	0x3cf4ef5f	0.029899297
171	0xbdf8e084	-0.12152198
172	0xbe10eb62	-0.14152291
173	0x3da7873b	0.0818009
174	0x3e7d0b79	0.24711408
175	0xbe0bd4b6	-0.13655362
176	0x3e1026b6	0.14077267
177	0x3db31b8d	0.08745489
178	0x3e5c32cb	0.21503751
179	0x3dbdb129	0.09262306
180	0xbe6f6a55	-0.23380406
181	0xbdeed38e	-0.116614446
182	0xbe7ec180	-0.24878502
183	0xbcd157a4	-0.025554486
184	0xbb6c3284	-0.0036040852
185	0xbe35fb63	-0.17771678
186	0x3e393e2e	0.18090126
187	0x3e42bdc5	0.19017704
188	0xbc214c9a	-0.009844923
189	0xba5bd4c5	-0.0008385892
190	0x3e281898	0.16415632
191	0x3d12dc83	0.035854828
192	0x3db13755	0.08653132
193	0x3e2eac1c	0.17057842
194	0x3be0352b	0.0068422756
195	0x3dfd4260	0.12366176
196	0xbcc946da	-0.024569917
197	0xbde99eb7	-0.114072256
198	0xbd6153ef	-0.055011686
199	0x3e14d40a	0.14534011
200	0xbd9577f5	-0.072982706
201	0x3b173400	0.0023071766
202	0xbc3c2b3a	-0.011484915
203	0x3c7184e0	0.0147411525
204	0x3da3674b	0.07978686
205	0xbd6b1558	-0.0573934
206	0xbe56bfe9	-0.20971645
207	0xbdfe0bbd	-0.12404583
208	0xbcf2faa2	-0.029660527
209	0xbd87a3d3	-0.06623044
210	0xbce7d0cf	-0.02829781
211	0xbd5c8165	-0.053834338
212	0x3d95e52b	0.07319101
213	0x3df8a06d	0.12139974
214	0xbd2dba4b	-0.04241399
215	0x3e31300c	0.17303485
216	0x3e19ac27	0.15007077
217	0x3e528883	0.20559888
218	0x3e46de78	0.19420803
219	0xbdc69067	-0.09695511
220	0xbd350e0c	-0.04420285
221	0x3e3dbf49	0.18530001
222	0x3de969fa	0.113971666
223	0x3e1fb80f	0.15597557
224	0x3e4b2b39	0.19840707
225	0xbdb683b0	-0.08911836
226	0xbd586e1f	-0.052839395
227	0xbddc3b27	-0.1075347
228	0xbdb71869	-0.08940203
229	0x3d32b42f	0.043628868
230	0x3d2d6171	0.042329255
231	0xbc874ea9	-0.016517
232	0xbd15e9b9	-0.03659985
233	0xbda40d65	-0.08010367
234	0x3e095dab	0.13414638
235	0x3d235575	0.03987642
236	0xbbd87c5b	-0.006606621
237	0xbe1fddd8	-0.1561197
238	0xbd24156e	-0.0400595
239	0xbd539d8b	-0.051663917
240	0xbe58a0dd	-0.21155114
241	0x3cf33b65	0.029691407
242	0x3e0e311e	0.13885924
243	0x3cef84b0	0.029238075
244	0xbdc310d4	-0.09524694
245	0xbe2a45c8	-0.16628182
246	0x3d2d74a8	0.04234758
247	0x3e09e8b4	0.13467675
248	0xbe2887f6	-0.16458115
249	0x3d86e388	0.06586367
250	0x3dbda4a8	0.09259921
251	0xbc0e72d4	-0.008694369
252	0xbd8bd381	-0.068274505
253	0x3e4a4a7b	0.19754975
254	0x3e2f8141	0.1713915
255	0x3e47b59d	0.19502874

model.rnn.bias_ih_l1 f4 [160]
0	0x3d2c2064	0.042023078
1	0x3d81ce3a	0.06338163
2	0x3c7ceb17	0.015436909
3	0x3e3d67a8	0.18496573
4	0x3dd5ac20	0.10433221
5	0x3dc61ad0	0.09673083
6	0xbcdbbe9b	-0.026824286
7	0x3e101ad6	0.14072737
8	0xbc73aea5	-0.0148731815
9	0xbdd529ca	-0.10408361
10	0x3dd97963	0.10618856
11	0x3e165935	0.14682467
12	0xbdd26772	-0.10273637
13	0x3d1f7557	0.038930263
14	0xbdf824ad	-0.1211637
15	0x3c19dded	0.00939129
16	0x3cb72817	0.022357984
17	0xbb82a733	-0.003987217
18	0x3debd18d	0.11514578
19	0x3d84a56e	0.06476866
20	0x3d8ca7a6	0.06867914
21	0x3dec8240	0.11548281
22	0x3ce6ac62	0.02815837
23	0x3b48f889	0.0030665717
24	0x3d31a3ca	0.043369092
25	0x3d0d6e4d	0.03452902
26	0x3d916b39	0.07100529
27	0xbc1efc4e	-0.009703709
28	0x3e814ec4	0.25255406
29	0x3e517b06	0.20457086
30	0xbccde59b	-0.025133898
31	0x3c3cc6f8	0.011522047
32	0x3e818475	0.2529637
33	0xbdecfd30	-0.11571729
34	0x3df8df77	0.121519975
35	0x3c876a8b	0.016530296
36	0x3e0dfec4	0.13866717
37	0x3e21d14d	0.15802498
38	0x3db22deb	0.087001644
39	0x3e0b90c8	0.13629448
40	0x3e1a63d2	0.15077141
41	0xbdb7c83e	-0.0897374
42	0x3e175aeb	0.14780776
43	0x3d69582d	0.056968857
44	0x3a89c7bc	0.0010511796
45	0x3d77e7e6	0.06052389
46	0x3aafbcf4	0.0013407753
47	0x3e0d49dc	0.13797706
48	0xbe236332	-0.15955809
49	0xbd703708	-0.058646232
50	0xbdbdcaec	-0.0926722
51	0xbd1bb4c1	-0.038014177
52	0x3d9e37f4	0.07725516
53	0xbd45271f	-0.048133012
54	0xbde03474	-0.10947505
55	0x3dede7d1	0.11616481
56	0x3dadbf47	0.08483749
57	0xbd8b4e54	-0.06802049
58	0x3d9e5a4c	0.077320665
59	0xbd7cdf3e	-0.061736338
60	0x3d982729	0.07429344
61	0xbddb8f67	-0.10720711
62	0xbdd7d5d0	-0.105388284
63	0x3e2a2421	0.16615345
64	0xbcb4abc2	-0.022054557
65	0xbcfe3651	-0.03103176
66	0xbdd67bfe	-0.104728684
67	0xbe03b241	-0.12860967
68	0xbd4ba8f2	-0.049721666
69	0x3c824858	0.015903637
70	0xbe0e65f2	-0.13906077
71	0xbdac48e5	-0.08412341
72	0x3c382ee9	0.011241653
73	0xbd8a9260	-0.067662
74	0x3e366c73	0.17814808
75	0x3d8338b3	0.06407299
76	0x3dc3de38	0.09563869
77	0x3bce8bcb	0.0063032857
78	0xbdb6216c	-0.088930935
79	0x3e20383c	0.15646452
80	0xbe49ddbb	-0.1971349
81	0xbd9f64d5	-0.07782904
82	0x3d43333b	0.04765628
83	0xbe117bf5	-0.14207442
84	0x3d0f16f6	0.034934007
85	0xbaf9b9a4	-0.0019052518
86	0x3e34f427	0.17671262
87	0x3d506bbe	0.050884
88	0x3dd85b56	0.10564296
89	0xbd131ea6	-0.0359179
90	0x3e11dfcb	0.14245526
91	0x3d60d9b0	0.054895103
92	0xbd8f3f68	-0.06994516
93	0x3e083594	0.13301688
94	0xbdeef6b2	-0.11668147
95	0x3e0a9073	0.13531666
96	0x3e1c8e03	0.15288548
97	0xbbf3a71d	-0.007435693
98	0x3d979f78	0.07403463
99	0xbe1c34ca	-0.15254512
100	0x3dc783cf	0.09741937
101	0x3e23291b	0.15933649
102	0xbd9f9ebd	-0.07793949
103	0x3d9683b8	0.07349342
104	0xbd0f6474	-0.03500791
105	0xbd2d748c	-0.042347476
106	0xbc0c5006	-0.008564001
107	0xbe194c63	-0.14970545
108	0x3c8eb0d7	0.017418308
109	0xbdd10548	-0.102060854
110	0x3e6ae7d2	0.22939995
111	0x3d0e5fb8	0.034759253
112	0xbdb4e6e9	-0.08833105
113	0x3d07bd46	0.03313949
114	0x3dcb68f2	0.09932126
115	0xbe363b23	-0.17795996
116	0xbd5dc26e	-0.0541405
117	0x3e06edf5	0.13176711
118	0x3c963925	0.018337796
119	0x3d88f37a	0.066870645
120	0x3dbd5ce8	0.09246236
121	0x3e659a70	0.22422194
122	0xbe2c61ff	-0.16834258
123	0x3b8c66ba	0.004284707
124	0xbdf2a73c	-0.11848304
125	0x3db0a538	0.08625263
126	0xbd6c3f1a	-0.057677366
127	0xbcac9ae5	-0.021069953
128	0x3c0033f2	0.007824885
129	0xbbdbe9a8	-0.0067112036
130	0xbe04602e	-0.12927315
131	0xbda0e912	-0.07856955
132	0xbcfb366b	-0.030665597
133	0xbd8a44f8	-0.06751436
134	0x3d4e8bf0	0.050426424
135	0xbdc870f5	-0.0978717
136	0x3ceabc8f	0.028654365
137	0x3de167ad	0.11006103
138	0x3d8b4c8b	0.06801709
139	0xbc3a2d99	-0.01136341
140	0x3d9e5e27	0.07732802
141	0xbb32933c	-0.0027248403
142	0xbb229d05	-0.002481283
143	0x3c4240c9	0.011856266
144	0x3df7bafb	0.120962106
145	0x3c5bc350	0.013413265
146	0x3e33da53	0.17563753
147	0xbd23938a	-0.039935626
148	0x3e0d6904	0.13809592
149	0x3ddc1bf9	0.10747523
150	0x3e2312c9	0.15925135
151	0xbc8a2fa8	-0.016868427
152	0x3e2bdea8	0.16784155
153	0xbd41fc9f	-0.04736006
154	0x3d453bae	0.048152618
155	0xbce2775f	-0.027644811
156	0x3e321426	0.17390499
157	0x3dcbefe3	0.09957864
158	0xbbf116d3	-0.007357457
159	0x3c9cc268	0.019135669

model.rnn.bias_hh_l1 f4 [160]
0	0x3e1189eb	0.14212768
1	0x3e4b0753	0.19827013
2	0x3d94748a	0.072487906
3	0xbda9a67a	-0.08283706
4	0x3dd04b66	0.10170631
5	0x3d8f9e48	0.07012612
6	0xbbc80de0	-0.0061051697
7	0xbce92656	-0.028460663
8	0x3dc71e4c	0.097225755
9	0xbc62702a	-0.013820687
10	0xbd9bf87e	-0.076157555
11	0xbd068cf1	-0.032849256
12	0xbd4fbe1d	-0.050718416
13	0xbe35a94f	-0.17740367
14	0x3c518b8e	0.01278962
15	0xbc8f3848	-0.017482892
16	0x3e2a0df7	0.1660689
17	0x3e24e69d	0.16103597
18	0x3e0a5f03	0.13512807
19	0x3dd4693d	0.10371635
20	0xbb5c6187	-0.0033627467
21	0xbd938758	-0.07203549
22	0xbc1f0729	-0.009706297
23	0x3e0c1753	0.13680772
24	0x3c5cb191	0.0134700695
25	0x3d4d946a	0.050190367
26	0x3d07a5b8	0.033117026
27	0x3e0381f2	0.12842539
28	0x3dc83780	0.09776211
29	0x3df5170f	0.11967289
30	0x3e7b6e7b	0.24553864
31	0x3dfccc1d	0.12343619
32	0xbc533d51	-0.012893037
33	0xbd1f51bf	-0.03889632
34	0xbd90d578	-0.07071966
35	0xbcf7023a	-0.030152429
36	0x3db10618	0.086437404
37	0x3bec6084	0.007213654
38	0x3dea447b	0.11438843
39	0x3de05d28	0.10955268
40	0xbda84225	-0.08215741
41	0x3d9f5072	0.077790156
42	0xbdcd02a7	-0.100102715
43	0xbc9862a6	-0.018601727
44	0x3e07b13a	0.132512
45	0x3e21a54f	0.15785716
46	0xbd621582	-0.055196293
47	0x3dca8cbc	0.09890124
48	0xbbb37892	-0.0054770196
49	0x3d1c630c	0.038180396
50	0xbd89a946	-0.067217395
51	0x3d21191a	0.03933058
52	0xbd5198fb	-0.051171284
53	0x3dfb2e5c	0.12264702
54	0x3dd8051d	0.1054785
55	0xbe26cd91	-0.16289355
56	0xbd680ebb	-0.056654673
57	0xbcb3387a	-0.021877516
58	0x3d6b4b76	0.057445012
59	0x3d2040ca	0.039124288
60	0xbe1a7177	-0.15082346
61	0xbd2313e0	-0.039813876
62	0x3d6c1203	0.057634365
63	0xbca90495	-0.020632068
64	0xbdb0f05d	-0.08639596
65	0x3cb4c3ff	0.022066114
66	0x3e24610c	0.16052645
67	0xbe174dc9	-0.14775766
68	0xbd0bd617	-0.03413972
69	0xbc1c74b4	-0.009549309
70	0xbacf563b	-0.0015818545
71	0x3d739278	0.059465855
72	0xbd75984c	-0.059959695
73	0x3d493aa4	0.04912819
74	0x3d43781a	0.04772196
75	0xbbd4c0c0	-0.006492704
76	0xbc8a972d	-0.01691779
77	0x3dc5db53	0.096609734
78	0x3d58020d	0.05273633
79	0xbd7c6210	-0.061616957
80	0x3c4c470c	0.012468111
81	0x3d8e5c0f	0.069511525
82	0x3c1d2d63	0.009593341
83	0xbc452340	-0.01203233
84	0xbdec2ccc	-0.11531982
85	0xbdff3b53	-0.12462487
86	0xbddf53c9	-0.109046526
87	0xbd9d1d38	-0.07671589
88	0x3ddb19f1	0.10698307
89	0xbc5ef3b9	-0.013607913
90	0x3e1c7e84	0.15282637
91	0xbe0139b4	-0.12619668
92	0x3e2f1a92	0.1709998
93	0x3df65932	0.120287314
94	0xbcc65cbd	-0.024214143
95	0xbdea3e35	-0.11437646
96	0x3d431916	0.047631346
97	0xbd87421c	-0.06604406
98	0x3d6e1c4b	0.05813245
99	0xbdac73f7	-0.08420556
100	0xbdf4bba2	-0.119498506
101	0xbc46e996	-0.012140652
102	0xbd0d637c	-0.034518704
103	0x3da79234	0.08182183
104	0x3c9a0f1e	0.018806037
105	0xbd79d07c	-0.06098984
106	0xbe09c56a	-0.13454214
107	0xbda49617	-0.0803644
108	0xbe516467	-0.20448457
109	0x3d2d4b6a	0.04230825
110	0x3d3de398	0.04635963
111	0x3e0fae79	0.140314
112	0x3e566ecb	0.20940702
113	0x3dcc6102	0.0997944
114	0x3e09b471	0.13447739
115	0xbe37f7c5	-0.1796561
116	0xbe3195ff	-0.17342375
117	0xbd867400	-0.06565094
118	0x3d1d53de	0.03841006
119	0x3dafd70b	0.08585938
120	0x3e6e5f2b	0.23278491
121	0x3da6bc4d	0.08141384
122	0xbd8180a7	-0.063233666
123	0x3e3688ba	0.17825595
124	0x3e255e3a	0.16149226
125	0x3e604627	0.21901761
126	0x3e0ec424	0.13942009
127	0x3d6edfaf	0.05831879
128	0x3def46bf	0.116834156
129	0x3e267345	0.1625491
130	0x3da3795f	0.07982134
131	0xbd18a5a8	-0.037267357
132	0x3cd761b2	0.026291702
133	0xbd8f0182	-0.069827095
134	0x3dfc2050	0.123108506
135	0xbd9c62b3	-0.07636013
136	0x3e0c4cf5	0.13701232
137	0x3e6231e8	0.2208935
138	0x3df6959e	0.12040256
139	0x3c7db9d9	0.015486204
140	0xbd117ef0	-0.035521448
141	0xbde3bb3f	-0.11119699
142	0x3e4004a6	0.18751773
143	0xbd22e896	-0.039772592
144	0x3dc01d96	0.09380643
145	0x3c3825fd	0.011239526
146	0x3e402b70	0.1876657
147	0xbd8c0ace	-0.06837998
148	0x3d215248	0.03938511
149	0x3e6e5042	0.23272803
150	0x3e0102a5	0.12598665
151	0x3db87518	0.09006709
152	0x3e2bdbf2	0.16783121
153	0x3ca1f421	0.01976973
154	0xbd8e7c86	-0.06957345
155	0x3dae61eb	0.0851477
156	0x3e11b8df	0.14230679
157	0x3e11a578	0.14223278
158	0x3e2bc16c	0.16773003
159	0x3d873bae	0.0660318
