generate_forecasts/output/Local_Forecasts/Food/2025/models/SimpleFeedForward/W0/gluon_ts/prediction-net-state.pt (torch, 34030 bytes, 7 tensors)

model.nn.0.weight f4 [20, 32]
000000 28 a6 ba 3d 5a 4f 33 3d 18 18 ce bb 9f 91 8a 3d
       0.09113723 0.043776847 -0.0062894933 0.06766056
000010 be 08 ce 3d 4c b0 c4 3d 15 44 a8 3d ec 03 0a 3d
       0.10060261 0.096039385 0.082161106 0.033695146
000020 bd 96 22 3d 27 e2 6a 3d 1f 01 ef 3d 5f c9 2f 3b
       0.039694536 0.057344582 0.11670136 0.0026822907
000030 17 be dd 3c 14 28 bf 3d 91 32 86 3d 55 4f e6 3d
       0.027068181 0.09333816 0.065526135 0.112456
000040 73 18 f3 3d af a8 0a 3d 4e e9 2e 3c 03 c2 23 3d
       0.11869898 0.033852275 0.010675741 0.039979946
000050 1e a0 cf 3d 60 22 bc 3d 79 bd 83 3c ec 0c c7 3d
       0.10137962 0.09186244 0.016081559 0.097192615
000060 66 b8 c9 3d ab f8 cd 3d 44 4f b0 bb d6 83 40 3d
       0.09849624 0.10057195 -0.005380543 0.04700073
000070 99 8d 24 3d 60 32 10 3c f0 22 f5 3d f9 b5 96 3b
       0.0401741 0.008801073 0.119695544 0.0045993295
000080 13 a5 ac bc a9 f4 3b bd 2c 2d 0b 3d fa c6 10 3b
       -0.021074807 -0.045887623 0.033978626 0.0022091256
000090 dc 2a 3b 3d dc 22 71 3c 08 1f 85 3c f2 8f 82 bd
       0.04569517 0.014717784 0.016250148 -0.06375112
0000a0 fa 34 ab bc ea 91 95 3d 1e 5c 70 bc bc 05 7f bd
       -0.020899285 0.073032215 -0.0146704 -0.062261328
0000b0 c2 05 52 bd 26 ff 02 3d 7d f8 35 bd f1 62 9d bc
       -0.051275022 0.03198161 -0.04442643 -0.019212218
0000c0 ea f3 3b 3d 02 a1 3d bd e6 76 6d bd 82 46 f8 3c
       0.04588691 -0.046296127 -0.05797472 0.030307058
0000d0 df a6 ae 3c d3 11 25 3d 08 66 b7 3d 7c 6a 9b bb
       0.021319805 0.0403002 0.08955008 -0.0047429185
0000e0 05 f2 3c 3d 60 40 5c 3d c0 c3 33 3b 1b 11 9f 3c
       0.046129245 0.05377233 0.0027429909 0.019417336
0000f0 04 69 01 3c 30 9f c8 3d c9 fa 44 3d b5 25 ef 3d
       0.007898573 0.097959876 0.04809073 0.11677114
000100 7f d4 88 bd fe d4 9d bc eb c3 d9 bd 82 90 d2 bc
       -0.066811554 -0.019266602 -0.106330715 -0.025703672
000110 62 a3 b0 bc a7 89 b1 bd 31 7e ad bd c1 1a a7 bc
       -0.021562282 -0.08668833 -0.08471335 -0.0203985
000120 4c 9c d2 bd 70 95 63 bd 56 fb c8 bd ed 62 80 bc
       -0.102837175 -0.055562437 -0.098135635 -0.015672171
000130 d3 52 fa bd 1b 98 4f bd c5 d5 ad bd 64 77 46 bd
       -0.12222829 -0.05068217 -0.08488039 -0.048453704
000140 ea 69 73 3c 9d f2 15 bd 8c 7a 3c 3d 02 a1 27 bd
       0.014856795 -0.036608327 0.046015307 -0.040925033
000150 c8 c3 9f 3c b4 4c 0c 3d 04 10 af 3d f2 9d a4 3d
       0.019502535 0.034252837 0.085479766 0.08037938
000160 3d 55 1d 3c 49 27 1a 3d b7 43 be 3d 9b d3 e6 3c
       0.009602842 0.03763512 0.09290259 0.028177073
000170 f8 72 fa 3d 24 66 b5 3d fb 76 c2 3d 1e 23 2a 3e
       0.1222896 0.088573724 0.0949535 0.16614959
000180 2b b5 1c bd 92 4e a0 bd 03 68 dd bc 83 75 02 3d
       -0.038258713 -0.07827486 -0.027027136 0.03185035
000190 06 c8 da bc a7 5c 2d bd bc 91 98 bd 4d 50 de bc
       -0.026706707 -0.04232469 -0.074496716 -0.0271379
0001a0 5a e6 dc 3c f6 d5 df 3a 9f a4 a2 bd 73 a1 67 bc
       0.026965309 0.0017077315 -0.07941555 -0.014137614
0001b0 e3 8c 80 bd 67 23 49 bd 24 59 1c bd 88 16 3d bd
       -0.06276872 -0.049106028 -0.03817095 -0.046164066
0001c0 09 10 ba bd f8 59 a0 3b a6 a3 b9 bb e4 ec 4b bd
       -0.0908509 0.0048935376 -0.0056652604 -0.049786463
0001d0 ad 80 dd 3a 7d e5 e0 bc 5a 9e 91 3c 01 99 e6 3d
       0.001689931 -0.027453179 0.017775703 0.11259652
0001e0 60 3c db 3d 13 3d 45 3d 26 89 cb 3d aa 2e 7f 3d
       0.10704875 0.048153948 0.09938268 0.06230036
0001f0 e9 72 f2 3d 65 a8 e7 3d 9c fe 8f 3d 00 d3 ca 3d
       0.118383236 0.113114156 0.07030985 0.09903526
000200 25 9b 3a 3b 49 ee c0 3d d1 c6 cd 3d a4 26 c0 3c
       0.002847382 0.09420449 0.10047687 0.023455925
000210 14 95 9f 3c a8 63 22 3d 38 59 03 bc c2 a1 1b bc
       0.019480266 0.03964582 -0.008016877 -0.009499015
000220 37 de 9a 3c bb 2f e3 3c 08 70 d3 3a d3 36 e5 3d
       0.018904788 0.02773272 0.001613141 0.111920975
000230 c6 1e ec 3d 11 31 a4 3d 9f 52 d2 3c 80 42 43 3c
       0.11529307 0.08017171 0.025674162 0.01191771
000240 c9 c9 48 3b 19 22 ee 3d 7b c6 41 bc 40 73 f9 3c
       0.0030637851 0.11627597 -0.011827107 0.030450463
000250 00 e3 dd 3d ee 4e e2 3b cd 89 71 3d cd 5c 9c 3d
       0.108343124 0.006906382 0.058969308 0.07634888
000260 9b d2 04 bc 07 02 bd 3c 8f 3c f6 3d c3 be 25 3c
       -0.008106853 0.023072256 0.120232694 0.010116282
000270 71 b8 53 3d 5f 33 e6 3d 69 15 b9 3d af ef 38 3d
       0.05168957 0.11240267 0.09037287 0.045150455
000280 e8 d6 83 3d 75 3a c6 3d d6 f5 23 3d 66 a9 38 3d
       0.064374745 0.096791185 0.04002937 0.045083426
000290 e0 35 ae 3d 48 f9 ce 3d af 48 98 3c d8 44 a5 3b
       0.085063696 0.101061404 0.018589346 0.005043607
0002a0 d7 46 b8 bb 58 ca 7d 3d 12 b8 af 3d 86 e7 d6 3c
       -0.005623679 0.06196055 0.085800305 0.026233446
0002b0 53 7e c7 3d 0b 80 aa 3c 65 0e 95 3d 2a bd 02 3d
       0.09740891 0.020813009 0.07278136 0.031918682
0002c0 71 41 e0 3d 59 a2 bf 3d cb 3c 8c 3d e0 de b4 3d
       0.10949982 0.09357137 0.06847533 0.088315725
0002d0 83 87 96 3c 57 34 af 3c d5 05 55 3d 33 e0 3e 3d
       0.018375164 0.021387262 0.052007515 0.04660053
0002e0 97 5a e6 3d 38 06 13 3d d3 45 15 3d 30 29 a9 3d
       0.112477474 0.035894603 0.036443543 0.08259809
0002f0 94 54 b0 3c e4 f3 55 3d 12 fe 4b 3d 93 8b b9 3d
       0.021524705 0.052234545 0.049802847 0.09059825
000300 ac 7a 0f bc 12 38 3c bc 7c 60 d8 3d 97 81 d2 3d
       -0.008757275 -0.011487978 0.10565278 0.102786236
000310 4d 06 d2 3c c2 06 c3 3d 43 71 be 3b c1 cd 01 3e
       0.02563777 0.09522773 0.0058118417 0.12676145
000320 42 1d 85 3d ac 5f 03 3e 69 1a 9a 3d ce bd 39 3d
       0.06499721 0.12829465 0.075245686 0.045347027
000330 17 c2 00 3d 3a c5 df 3b 37 74 21 3d 74 9d 94 38
       0.0314351 0.006828931 0.03941747 7.086518e-05
000340 7b ba f4 3d 48 f8 95 3d 53 58 34 3d c3 76 8b 3d
       0.11949631 0.073227465 0.044029545 0.068097614
000350 5d bf f9 3d a5 1f 1b 3d e3 48 b9 3d 17 1f ff 3d
       0.12194703 0.037871975 0.09047105 0.12457102
000360 96 7d f2 3d 6c da b2 3d a4 49 fc 3c e6 e4 36 3d
       0.1184036 0.08733067 0.030796833 0.04465189
000370 ab 41 d0 3d eb 26 e2 3c 6a d9 b1 3d fa 32 40 bb
       0.10168775 0.027606448 0.086840466 -0.002932726
000380 49 ee 34 3d f8 d2 ca 3c be a4 84 3c 07 34 85 3c
       0.04417256 0.0247588 0.016191836 0.01626016
000390 2c 64 91 bc 11 bf 8d 3d 56 f7 14 3d e6 82 d8 3d
       -0.017747961 0.06921209 0.03636869 0.10571842
0003a0 c4 79 04 3d 48 57 9b 3d 06 f9 9d 3c 02 bf 3c 3d
       0.032342687 0.07585007 0.019283783 0.046080597
0003b0 58 3c 9a 3c 46 8b a8 bb 15 1d 27 bc 7b e1 b7 3d
       0.018827602 -0.005143556 -0.010199805 0.08978554
0003c0 2f 5e 9b 3d f5 a3 e5 3c b2 cc dc 3b 0e 16 dc 3d
       0.075863235 0.028032282 0.006738269 0.10746394
0003d0 9a 07 a4 3c 06 55 02 3e 0f ec 02 3e 72 f9 ca 3c
       0.020023156 0.12727746 0.12785362 0.024777148
0003e0 09 45 5e 3d 73 8f 06 3e 25 f9 84 3d 00 ab 19 3d
       0.054265056 0.13140659 0.06492833 0.037516594
0003f0 cd 18 45 3c e3 f5 da 3d b1 2b 9d 3d e4 48 d7 3c
       0.012029839 0.106914304 0.07674349 0.026279874

model.nn.0.bias f4 [20]
000000 b8 78 5b 3d f9 b1 b8 3c c7 81 a6 3d 8b c3 4d 3d
       0.053581923 0.022545801 0.08130222 0.050235312
000010 43 8c 47 3d 00 e3 5b 3d 5f cd 71 3d 57 62 82 3d
       0.04871775 0.05368328 0.059033748 0.06366413
000020 c2 ee 46 3d 89 79 66 3d 90 3a 08 bc f2 f0 28 3d
       0.04856754 0.05626825 -0.008314744 0.04124541
000030 d6 97 54 3d 00 00 00 00 8f 7f 7a 3d 69 ab be 3c
       0.051902615 0.0 0.061156806 0.023275094
000040 81 38 9a 3d d7 df 31 3d 42 c6 5c 3d 6f 91 33 3d
       0.075303085 0.04342636 0.05390001 0.04383987

model.nn.2.weight f4 [320, 20]
000000 7e 62 e9 bd e3 79 cc bd 68 40 36 3e 13 7f fe 3d
       -0.11395739 -0.099841855 0.17798007 0.12426581
000010 56 7d cd bd 92 96 b3 bd 94 ac db bb 9f 98 c3 bd
       -0.100336716 -0.087689534 -0.0067039225 -0.095505945
000020 e8 6b fe bd 7d 39 5a bd 78 7a 3e bd 3f c9 9c bd
       -0.12422925 -0.05327748 -0.046503514 -0.07655572
000030 99 fd 29 3e 8a c3 68 bc c4 1f 28 bd ef 10 ec bc
       0.16600646 -0.014206776 -0.04104592 -0.028816668
000040 b9 f8 13 be 35 4a 54 bd 33 19 e4 bd 32 bc 76 bd
       -0.14450349 -0.05182858 -0.11137619 -0.06023807
000050 48 da f7 3d 9e ad 56 3d 22 76 8c bd 08 f8 00 be
       0.12102181 0.052411668 -0.068584695 -0.12594616
000060 54 aa ec 3d d1 44 c8 3d db 2a 16 3e 3b e2 1e 3c
       0.11555925 0.09778751 0.14664786 0.009697492
000070 24 e2 00 3e 34 19 1b 3d 0c 7c 85 bd 69 01 1f 3e
       0.12586266 0.037865832 -0.06517801 0.15527882
000080 2e e7 e2 bd 41 e6 22 3d b3 e5 a8 3d 98 df a5 bb
       -0.1107925 0.03977037 0.08246937 -0.005062055
000090 32 8f 95 3d 79 09 dc 3c 1b 5d 20 3e a8 1c 11 3e
       0.07302703 0.026859986 0.15660517 0.14171088
0000a0 eb d8 d0 bd 35 e2 64 bd b8 22 48 bd 42 d1 94 bd
       -0.10197624 -0.05587979 -0.048861235 -0.07266475
0000b0 32 6d 90 bd 7c 2e 34 bd 75 cd 0a be f7 2a c5 bd
       -0.07052077 -0.043989643 -0.13554938 -0.096273355
0000c0 0d a2 3f bd 3c 1e 49 bd 0f 1e 17 bd 04 81 b7 bd
       -0.046785403 -0.0491011 -0.0368939 -0.08960155
0000d0 b7 4b c8 bc 3f ea 2c 3c 68 f4 78 bd 6d 1b 85 bb
       -0.024450166 0.0105538955 -0.06077996 -0.0040621073
0000e0 25 5c 61 bd 08 00 f4 bd 34 88 f3 bc d2 c0 76 bd
       -0.055019516 -0.119140685 -0.029728033 -0.06024248
0000f0 44 9c d7 bd dd 08 cc bd 25 e0 0a 3d 41 d0 e2 bc
       -0.10527852 -0.09962628 0.033905167 -0.027687194
000100 ec f7 a3 bc 12 58 f5 bc ac 0f d9 bd 5f c8 1b bc
       -0.02001568 -0.029949222 -0.10598692 -0.009508221
000110 b9 36 09 bd 28 2c 6b bd 6e 0c 97 3d f6 9c fb bd
       -0.033499453 -0.057415158 0.07375418 -0.12285797
000120 20 1a 1d 3d 15 2d e9 3b b3 a2 af bd de 4a 31 bd
       0.038354993 0.00711597 -0.08575954 -0.04328429
000130 42 f5 8c bd 11 b5 39 bd 1d 87 c3 bc 05 23 b8 bd
       -0.06882717 -0.045338694 -0.023868138 -0.089910544
000140 c8 d0 8a bc 80 08 1c bd 7e 88 35 bd d8 73 14 be
       -0.016945258 -0.038094044 -0.044319622 -0.14497316
000150 d5 be 87 3d c6 9d bb 3d cf 82 ad 3d 7b 69 da 3c
       0.06628195 0.09160952 0.084722154 0.026661625
000160 28 58 d0 3c 78 e2 9a 3d 6b 00 11 bd 27 c0 38 3d
       0.025432661 0.07562727 -0.03540079 0.045105126
000170 40 04 2e be 04 1e 15 bd 5a bd a4 3d 3d 04 33 bd
       -0.16993809 -0.03640558 0.080439284 -0.043705214
000180 89 b4 0b 3d 22 b6 00 bd d9 47 c2 3c 80 fa 31 3d
       0.03410772 -0.031423695 0.0237159 0.043451786
000190 61 92 1b 3b 41 07 b1 3d 11 c6 9e 3d 42 e4 8f 3c
       0.0023738372 0.08643962 0.07752622 0.017564896
0001a0 4c af 09 3d e3 4e 5d 3c df 19 80 3c 4d b1 3b 3d
       0.03361444 0.013507578 0.015637336 0.045823384
0001b0 03 db bb bc 87 58 9a bc 9b 9d 9f 3d 72 66 f2 3b
       -0.022931581 -0.018841041 0.07793733 0.0073974663
0001c0 8e c5 13 3d df cf 16 bd ec 56 e6 bc 30 e8 6b 3d
       0.036077075 -0.036819335 -0.02811762 0.057594478
0001d0 4c 05 c0 bc d8 cd 76 3c a6 89 ba 3d 0e 7c 98 3c
       -0.023440026 0.015063725 0.091082856 0.018613841
0001e0 e5 25 64 bc 13 1d 1a 3d 8a 74 11 3e a6 6d 2a 3e
       -0.01392505 0.037625384 0.14204612 0.1664339
0001f0 81 d3 cb bc 0f b1 0c bd 84 d4 52 3d 16 43 29 bc
       -0.024881126 -0.034348544 0.051472202 -0.010330936
000200 2c 20 67 bd f0 c5 6d bd fb 0e 57 3c b6 26 28 bd
       -0.056427166 -0.058050096 0.01312613 -0.041052543
000210 1e 5f 06 3e bb bb 30 bb dd 91 6c bd 3e b0 8b b9
       0.13122222 -0.0026967365 -0.057756294 -0.00026643457
000220 75 4c 26 3d 20 50 e2 3c 56 28 83 3d 0a 77 12 bd
       0.04060026 0.027626097 0.06404178 -0.035758056
000230 c0 39 31 bd bc 8d 92 bd 02 2c 32 bd 3f db 17 be
       -0.043267965 -0.0715594 -0.043499 -0.1482973
000240 e3 3f d6 3c 57 85 71 3c 7c d6 89 3d 14 05 9c 3d
       0.02615351 0.014741263 0.06730363 0.07618156
000250 e0 47 56 3d 01 64 c1 bc dd 54 14 bd b0 30 1e bc
       0.05231464 -0.023607256 -0.036213744 -0.009655163
000260 66 de 0e be b5 03 64 3c 84 c5 67 3d 38 8e e5 bd
       -0.13952026 0.013916899 0.05658485 -0.11208767
000270 20 17 41 3d b0 d6 7e 3c 3e c2 6f bd 7c 10 68 bd
       0.047141194 0.015554115 -0.058534853 -0.056656346
000280 47 ca c1 3d 78 44 40 3d 2c 0c 85 bd 43 15 fb bd
       0.094624095 0.046940297 -0.06496462 -0.12259915
000290 f3 ec ae 3d 1a d2 9a 3c 87 c2 9d 3d f5 cf 9e 3d
       0.08541288 0.018899012 0.07703119 0.077545084
0002a0 4e 3e a3 3d 4f 08 ad 3c a4 90 1c bd b5 33 12 3d
       0.07970868 0.021122126 -0.038223878 0.035693843
0002b0 79 cc 02 be a0 9b 3e bd 08 16 16 3e fe ef a1 bd
       -0.12773313 -0.046535134 0.14656842 -0.07907103
0002c0 ee d6 a1 3c 28 4e a5 3d 4d a8 cf 3c ad e3 6a 3c
       0.019755807 0.08071548 0.025348807 0.014336509
0002d0 34 f9 f8 3d 4c 5e e8 3d 7e a0 b3 3d 04 1b c6 3c
       0.12156907 0.11346111 0.08770846 0.024182804
0002e0 43 36 a0 3d c5 ab 02 3c 39 25 a5 3a 0a d2 c0 3d
       0.078228496 0.007975523 0.0012599594 0.09415062
0002f0 e4 ce d2 3c 2f eb 9c 3d 25 aa 1c 3d 58 2a 48 3d
       0.025733419 0.07662045 0.0382482 0.048868507
000300 72 57 b0 3d 0c 26 10 bc 23 40 ce 3b cc e2 9b 3d
       0.08610429 -0.008798134 0.006294267 0.076116174
000310 89 00 c1 3d 90 dc 01 3e 1c b2 85 3d 88 7f 7c 3d
       0.0942393 0.12681794 0.06528112 0.06164506
000320 6e 9c cf 3c a1 57 d7 bc ad 5c 97 bd ae 24 92 bd
       0.025343146 -0.026286902 -0.073907234 -0.07135902
000330 33 17 af 3c 8e 42 25 3d c5 85 12 3d ec e1 1e 3d
       0.021373367 0.040346675 0.035772104 0.038789675
000340 2b df 9f 3d fe a6 22 bd 19 7b 2d 3d 70 2e 9b ba
       0.07806238 -0.039710037 0.042353723 -0.0011839401
000350 b8 fb 74 bd ce d4 3c bd 62 d6 9c 3c f4 b3 32 bd
       -0.05981037 -0.046101384 0.019145194 -0.043628648
000360 ea 7b 5b 3d 43 1a 82 3d 32 b6 76 bc 70 e4 9d 3d
       0.05358497 0.06352665 -0.015058087 0.077095866
000370 a2 e4 eb 3c 3d 50 a7 3c 12 b3 0c be 20 fc 00 be
       0.028795544 0.020424003 -0.13740185 -0.12596178
000380 4a ff 88 3d 41 60 e8 3c 09 03 8f bc ed 92 c0 3d
       0.066893175 0.02836621 -0.017457502 0.09403024
000390 c1 53 b2 3d 6d 3f 03 3c 5b 40 9d bd 26 4c 42 bb
       0.08707381 0.008010727 -0.076782905 -0.0029647439
0003a0 65 c0 ec bd af f5 c7 bc e3 00 3c 3d 6c 77 80 bd
       -0.11560134 -0.024409143 0.045899283 -0.06272778
0003b0 92 11 f1 3d ba 8c b0 bc c1 75 8b bb 4f 95 8a 3d
       0.117709294 -0.021551479 -0.0042559807 0.067667596
0003c0 c1 6c 63 3c 78 1d c9 bd 50 00 bf bd d3 20 d2 bd
       0.013880909 -0.09820074 -0.093262315 -0.10260167
0003d0 bd f7 c5 bd 5b 5b a2 bd ca 33 c3 bd 42 93 ea bd
       -0.09666393 -0.07927581 -0.09531362 -0.114538684
0003e0 d8 1b 97 bd 6e 69 dd bd cb 8c 6b 3d 15 86 c4 bd
       -0.07378358 -0.10811125 0.057507318 -0.095958866
0003f0 8f cd 11 be 8a e4 e8 3c a4 d1 a5 bd 30 75 fb bd
       -0.1423857 0.028429288 -0.080966264 -0.12278211

model.nn.2.bias f4 [320]
000000 92 3e 4f bd 9c f2 bc 3d ee 8a 69 bd 30 f4 56 bd
       -0.05059678 0.092259616 -0.05701726 -0.05247897
000010 db 31 33 3c 08 41 c2 3c 70 23 1f 3c bd 04 84 bc
       0.010937179 0.02371265 0.009713039 -0.01611554
000020 29 19 3c 3d 93 c2 3b 3d b8 3b db bb 1a 1b 97 3b
       0.045922432 0.045839857 -0.0066904686 0.004611385
000030 73 c2 41 bd 96 2b 6c 3d 2b 28 26 3a 0f 57 66 3c
       -0.04730458 0.057658754 0.0006338383 0.014058842
000040 3c 26 98 bd 65 20 34 bc 53 1b 93 bd a2 5c 1c bc
       -0.07429168 -0.010994052 -0.07182946 -0.00954357
000050 d2 51 50 bd 58 ba bd 3d 2b 78 70 bd 93 a1 5b bd
       -0.05085928 0.09264058 -0.05870835 -0.053620886
000060 51 c4 3a 3c 58 51 bf 3c e6 22 17 3c 9c 3f 7f bc
       0.011399345 0.023354217 0.009224629 -0.0155791305
000070 ab 84 42 3d c9 c5 3d 3d ba 04 c3 bb da 13 a6 3b
       0.047489803 0.0463312 -0.005951491 0.0050682845
000080 a4 d9 44 bd e3 77 6d 3d f5 c6 98 3a ba 09 5d 3c
       -0.04805912 0.05797566 0.0011655974 0.0134910885
000090 55 d5 9f bd 47 7a 3b bc f9 53 9a bd 44 2c 12 bc
       -0.07804362 -0.011442727 -0.07535548 -0.008921687
0000a0 27 82 65 bd ec 59 c5 3d dc f2 63 bd fa 02 50 bd
       -0.056032326 0.09636292 -0.05565153 -0.05078409
0000b0 e1 b3 87 3c d5 23 a3 3c 57 38 a0 3b 23 4b 3f bc
       0.016565265 0.019914547 0.0048895287 -0.011675629
0000c0 32 b5 63 3d de 66 33 3d a7 b1 dc ba 5b 3c 23 3c
       0.055592723 0.043799274 -0.0016837612 0.00996312
0000d0 55 e9 39 bd 17 85 80 3d bd e2 be 3b 1a 00 1c 3c
       -0.04538854 0.06275385 0.005825369 0.009521509
0000e0 71 7b 97 bd a0 9a 88 bc b5 78 91 bd f1 11 98 bb
       -0.073965915 -0.016675293 -0.07103101 -0.0046408107
0000f0 53 38 58 bd 19 c4 c4 3d 80 4a 67 bd f5 ad 54 bd
       -0.05278809 0.09607715 -0.056467533 -0.05192371
000100 71 3d 47 3c 6e 4e bc 3c 6e b8 10 3c d7 42 78 bc
       0.012160645 0.022986617 0.008833034 -0.015152655
000110 d1 55 45 3d 59 11 39 3d ef c8 b8 bb 5f ec b8 3b
       0.048177544 0.04518256 -0.0056391875 0.005643412
000120 4b 0c 3f bd 38 f4 76 3d 8b 3e ce 3a 9e 43 56 3c
       -0.046642583 0.0602915 0.0015735192 0.013077645
000130 09 50 97 bd 96 c3 47 bc 7a 5b 92 bd 20 8b 0c bc
       -0.07388312 -0.012192627 -0.07146354 -0.008578092
000140 1b 8c 5c bd 49 40 c6 3d bd 89 6c bd 02 cd 59 bd
       -0.053844552 0.0968023 -0.057748545 -0.053174026
000150 89 be 48 3c 6c ba c3 3c 8d 72 19 3c 01 37 82 bc
       0.012252458 0.023892604 0.00936569 -0.015895369
000160 d3 47 49 3d 15 36 3e 3d 43 c0 c8 bb 76 47 b7 3b
       0.049140763 0.046438295 -0.006126435 0.0055932356
000170 c0 74 44 bd 6a 12 7b 3d 0a af b8 3a 5d 51 61 3c
       -0.047962904 0.061296858 0.0014090252 0.013752309
000180 ce f6 99 bd a8 5e 49 bc 1e ba 94 bd 53 b9 15 bc
       -0.075177774 -0.012290634 -0.072620615 -0.009138423
000190 93 75 80 bd 0d 8d cf 3d 78 99 58 bd 4d a8 44 bd
       -0.062724255 0.10134325 -0.052880734 -0.048012067
0001a0 7a a6 b0 3c 67 ed 85 3c 09 28 11 3a 42 b0 00 bc
       0.021563757 0.016348554 0.0005537277 -0.007854523
0001b0 67 f8 8c 3d b1 69 29 3d 83 df 13 3b 39 b0 72 3c
       0.068833165 0.04136056 0.0022563643 0.014812523
0001c0 25 91 2f bd 6b ed 8d 3d 76 23 2c 3c 2c 94 c1 3b
       -0.04286303 0.069300495 0.010506501 0.005907556
0001d0 25 2c 91 bd 42 7b b2 bc 9f 39 8a bd 23 56 22 ba
       -0.07088498 -0.02178729 -0.067492716 -0.0006192645
0001e0 91 78 4c bd 58 59 b2 3d 38 00 5c bd 18 88 49 bd
       -0.04991967 0.08708447 -0.053711146 -0.049202055
0001f0 82 ad 41 3c 3b cd a9 3c b8 75 eb 3b ff 32 5f bc
       0.011821153 0.020727744 0.007185664 -0.013622998
000200 61 ad 3b 3d e7 50 30 3d 5b 0f a3 bb 72 4d cb 3b
       0.045819644 0.043045904 -0.0049761957 0.0062043006
000210 3b 11 36 bd 49 f3 61 3d 29 ee 28 3b e9 d7 44 3c
       -0.044450026 0.055163655 0.002577672 0.012014368
000220 6b 29 91 bd 9b 18 44 bc bb da 8a bd 5c 93 f9 bb
       -0.07087978 -0.011968757 -0.06780001 -0.0076164436
000230 0d cb 5e bd a1 96 c3 3d d3 e4 6b bd ff 24 58 bd
       -0.054392863 0.095502146 -0.05759127 -0.052769657
000240 fb d1 58 3c b7 f3 b8 3c ab d8 00 3c 9e c6 74 bc
       0.013233657 0.02257715 0.007864158 -0.014939932
000250 36 c5 4e 3d bc 81 3d 3d f7 3b ac bb 73 81 e4 3b
       0.050481044 0.046266302 -0.005256172 0.0069734394
000260 34 3a 44 bd c1 97 78 3d 8c 2a 40 3b 4c a4 54 3c
       -0.04790707 0.0606916 0.0029322235 0.012978625
000270 d6 bf 9a bd 9d 3e 5b bc b1 e7 93 bd 91 dd 05 bc
       -0.07556121 -0.013381627 -0.07221926 -0.008170501
000280 d3 7a 50 bd e8 e0 b8 3d f6 07 6f bd e9 ae 5a bd
       -0.050898384 0.090272725 -0.0583572 -0.053389464
000290 1c c7 45 3c 83 3b ba 3c 54 c6 06 3c b3 6a 71 bc
       0.012071397 0.022733456 0.008225996 -0.014734912
0002a0 2e 76 45 3d 9f 86 3d 3d b4 0f ae bb 40 02 c2 3b
       0.048208408 0.046270963 -0.0053119306 0.0059206784
0002b0 99 65 44 bd d3 52 6a 3d 20 ba 08 3b a6 b2 53 3c
       -0.047948454 0.057207894 0.0020862892 0.012921011
0002c0 42 f5 9d bd 52 80 47 bc b9 2c 98 bd 9b 9c 06 bc
       -0.07712795 -0.01217659 -0.07430405 -0.008216049
0002d0 2f 8d 58 bd e3 9c bd 3d 27 8b 72 bd c5 46 5e bd
       -0.05286902 0.092584394 -0.059214737 -0.05426671
0002e0 4a f3 5c 3c f8 87 bb 3c d8 b5 fa 3b 36 24 6d bc
       0.013485739 0.022891983 0.007651072 -0.014473965
0002f0 84 ea 50 3d db 0d 41 3d 76 e2 97 bb 56 5c e8 3b
       0.0510049 0.047132354 -0.0046351505 0.0070910854
000300 7a 0c 48 bd 4f 3d 72 3d 37 51 49 3b a2 da 4d 3c
       -0.048840024 0.0591405 0.0030718574 0.012564333
000310 b8 3a 9f bd 2f 31 5f bc 8e 3a 99 bd bd 3f f9 bb
       -0.077748716 -0.013622566 -0.074818715 -0.007606475
000320 d5 09 58 bd fc 64 b8 3d d7 d6 59 bd b8 13 46 bd
       -0.05274375 0.09003636 -0.053183403 -0.04835865
000330 ec ce 6f 3c 3a 05 98 3c 16 1a 96 3b cf 78 37 bc
       0.014636736 0.01855718 0.0045807464 -0.011198237
000340 68 77 4d 3d 69 44 2b 3d 3a 1b 15 bb ce e1 10 3c
       0.050162703 0.041813288 -0.0022751824 0.0088428985
000350 ea 52 31 bd c9 11 6f 3d c4 2f a9 3b 19 96 1b 3c
       -0.043291964 0.05836657 0.005163165 0.009496235
000360 e4 42 92 bd 47 b3 72 bc 77 b8 8b bd bc 8c a0 bb
       -0.071416646 -0.014813251 -0.06822293 -0.0048995893
000370 a1 6a 4e bd 4f 20 b3 3d 95 e2 5b bd b5 8d 48 bd
       -0.050394658 0.08746397 -0.053682882 -0.048963267
000380 8a 3f 52 3c 34 35 a2 3c 50 c6 ca 3b 80 dc 4f bc
       0.012832532 0.01980076 0.0061881915 -0.012686849
000390 b8 80 42 3d 7c ba 2d 3d db e6 75 bb 60 73 e9 3b
       0.047486037 0.042414173 -0.0037521634 0.0071243495
0003a0 28 be 33 bd 25 62 65 3d 54 47 64 3b e1 25 30 3c
       -0.04388252 0.0560018 0.0034832554 0.010751219
0003b0 b6 bd 92 bd 0c 59 54 bc c8 b4 8c bd 9c e4 d1 bb
       -0.07165091 -0.012960684 -0.06870419 -0.006405426
0003c0 5a d4 62 bd c9 04 c0 3d b0 99 5a bd 4d c9 46 bd
       -0.055378295 0.09375913 -0.053369224 -0.04853182
0003d0 e1 de 8a 3c fd 5f 92 3c 9d da 55 3b 50 1e 22 bc
       0.01695198 0.017868036 0.0032631524 -0.009894922
0003e0 25 f1 5f 3d 72 81 2a 3d df a7 f3 b9 f1 99 2f 3c
       0.054673333 0.041627355 -0.00046473645 0.010717855
0003f0 97 89 30 bd ff 3b 7c 3d 39 f2 df 3b 3e a2 02 3c
       -0.043099966 0.061580654 0.006834295 0.007973252

model.args_proj.proj.0.weight f4 [1, 20]
000000 13 26 43 3e 15 ef 07 3e 02 84 f8 3c 7c 6e a4 bd
       0.19057493 0.13274796 0.030336384 -0.08028886
000010 67 83 65 3e 21 cd 0e 3e f3 50 50 bc ce 2f 4e 3e
       0.22413407 0.13945438 -0.012714612 0.20135424
000020 0a ac 4e 3e 3f ed 5b be 96 ef 86 3e 47 56 13 3d
       0.20182815 -0.21477221 0.26354665 0.035970952
000030 9b a5 62 3e 8a e6 42 3d 22 fd 66 bd fe 4b 76 be
       0.22133486 0.04758314 -0.05639375 -0.24052426
000040 03 d4 24 3e 17 e1 33 be 3a f9 3c be 9f 37 8a 3e
       0.16096501 -0.17566334 -0.18454447 0.2699556

model.args_proj.proj.1.weight f4 [1, 20]
000000 e9 c8 0d 3d 90 4d e8 3b 7d c6 3f be b2 80 7d be
       0.03461543 0.0070893243 -0.18728061 -0.24756125
000010 cf e7 e7 bd 71 1d 4b 3e 79 51 0d 3e a6 ad fb bd
       -0.11323511 0.1983545 0.1380061 -0.1228898
000020 65 3c 1c bd c8 3c 7b 3e df b3 eb bd ee 5d 2e be
       -0.038143534 0.24534905 -0.11508917 -0.17028019
000030 29 e4 3e be 1c d4 d1 bc ac 84 42 be 63 c6 0a 3e
       -0.18641724 -0.025613837 -0.18995923 0.13552241
000040 db 83 da bd 2d a1 db 3d 8b 6a 11 be 72 75 fc bd
       -0.10669681 0.10724101 -0.14200799 -0.123270884

model.args_proj.proj.2.weight f4 [1, 20]
000000 73 c6 4f 3e 46 6f 4f be d7 a3 29 3e ab f3 33 3e
       0.20290546 -0.20257291 0.16566406 0.1757342
000010 e8 d1 47 be 41 3d 2a bb ae 01 89 3d db 2f 13 bd
       -0.19513667 -0.0025976452 0.066897735 -0.03593431
000020 02 ba e0 bd 7b 5b 06 be a0 2a b4 bd 5a 02 61 be
       -0.10972978 -0.13120835 -0.087971926 -0.21973553
000030 49 9d ee 3d a6 29 57 be 78 13 4d be 2f c1 4e 3d
       0.116510935 -0.21011981 -0.20026958 0.050477203
000040 09 fb 1c 3e 76 0d 3c 3e 5f c6 42 3e ab 23 90 bd
       0.15330137 0.1836451 0.19020985 -0.07038053
