generate_forecasts/output/Local_Forecasts/Other food products and non-alcoholic beverages/2021/models/SimpleFeedForward/W0/gluon_ts/prediction-net-state.pt (torch, 34030 bytes, 7 tensors)

model.nn.0.weight f4 [20, 32]
0	0x3d9e4aad	0.07729087
1	0x3d20851c	0.039189443
2	0xbcd3941a	-0.025827456
3	0x3d2e5755	0.042563755
4	0x3daaaab7	0.083333425
5	0x3d9a7168	0.07541162
6	0x3d749ffa	0.059722878
7	0x3aa37b0c	0.0012472584
8	0x3caacb69	0.020848947
9	0x3d0df7ea	0.034660257
10	0x3dd78c35	0.10524789
11	0xbd00e57d	-0.031468857
12	0x3c90967a	0.017649878
13	0x3d949394	0.07254711
14	0x3d30bbd2	0.04314787
15	0x3db95c9a	0.090508655
16	0x3daefc4f	0.08544218
17	0xbad012e4	-0.001587477
18	0xbcbb0bd4	-0.022832789
19	0x3c9edfdc	0.019393854
20	0x3d897b0b	0.06712922
21	0x3d8979ad	0.06712661
22	0xbcac90ee	-0.021065202
23	0x3d500af8	0.05079171
24	0x3d8ad681	0.067791946
25	0x3db286d9	0.087171264
26	0xbb93909a	-0.004503322
27	0x3d6a0bad	0.05714004
28	0x3d4d6451	0.050144497
29	0x3ca7cad0	0.02048245
30	0x3dfddc1a	0.12395497
31	0x3caae88a	0.020862836
32	0xbc9ee283	-0.019395119
33	0xbd11a5c2	-0.03555847
34	0x3d091826	0.033470295
35	0xbaf2ba05	-0.0018518573
36	0x3d53dbe1	0.051723365
37	0x3cbb13cb	0.022836586
38	0x3cae3b3f	0.021268485
39	0xbd901822	-0.07035853
40	0xbc9bd38e	-0.019021776
41	0x3d88c3b2	0.06677951
42	0xbc106433	-0.008812952
43	0xbda093c9	-0.07840688
44	0xbd3d5b50	-0.04622966
45	0x3ca8224e	0.02052417
46	0xbd632c0e	-0.055461936
47	0xbcfd9136	-0.030953031
48	0x3cc3e520	0.023912966
49	0xbd94b316	-0.072607204
50	0xbdab92a8	-0.08377582
51	0x3c1a2425	0.009408032
52	0xbc737c21	-0.014861138
53	0x3b8c13d5	0.004274825
54	0x3d193f2b	0.037413757
55	0xbd8d5b76	-0.069022104
56	0xbbaa521f	-0.005197778
57	0x3cabc612	0.02096847
58	0xbc44b09a	-0.012004996
59	0x3cb516c8	0.02210559
60	0x3cc1e024	0.023666449
61	0x3e089eee	0.13341877
62	0x3dd19e22	0.102352396
63	0x3e441ef7	0.19152437
64	0xbd358cce	-0.044323735
65	0x3c1a6cc3	0.009425345
66	0xbdb5df3e	-0.08880471
67	0xbc81d480	-0.015848398
68	0xbc40cb7e	-0.011767266
69	0xbd9de877	-0.07710355
70	0xbda9f377	-0.0829839
71	0xbcb23e94	-0.021758355
72	0xbdb49299	-0.08817024
73	0xbd2a7c7d	-0.041622628
74	0xbd870803	-0.06593325
75	0x3a9441d5	0.0011311123
76	0xbd9fc227	-0.078007035
77	0xbc8e2b6f	-0.017354695
78	0xbd5299bb	-0.05141614
79	0xbcbcffa0	-0.02307111
80	0x3d147734	0.036246493
81	0xbd009e75	-0.031401116
82	0x3d2626fb	0.04056452
83	0xbd4ce011	-0.050018374
84	0xbc629a06	-0.013830667
85	0xbc1b079e	-0.009462265
86	0x3c91e7bd	0.017810697
87	0xbb68aac3	-0.0035502173
88	0xbd88f2d4	-0.06686941
89	0xbca85d8c	-0.02055242
90	0x3d586aa0	0.05283606
91	0x3c9e29b9	0.019307004
92	0x3e1033ac	0.14082211
93	0x3e074812	0.13211086
94	0x3e3ced9f	0.1845002
95	0x3ea1fa68	0.31636357
96	0xbc23195e	-0.0099547785
97	0xbd2e96cc	-0.04262428
98	0xbba74a53	-0.0051052957
99	0x3d458189	0.048219237
100	0xbbaa2049	-0.005191837
101	0xbcb2c71e	-0.021823462
102	0xbd7675af	-0.060170826
103	0xbcb9ffa3	-0.022704905
104	0x3d264df2	0.04060168
105	0x3c3cfcb3	0.011534858
106	0xbd61267b	-0.05496834
107	0xbc1ce444	-0.009575907
108	0xbd12b69e	-0.03581869
109	0xbd1b15aa	-0.037862457
110	0xbce8607c	-0.02836632
111	0xbd238ae5	-0.039927382
112	0xbdbd9000	-0.092559814
113	0xbc911312	-0.017709289
114	0xbd0244e9	-0.031804
115	0xbd950ab6	-0.072774336
116	0xbd15eb7e	-0.036601536
117	0xbd8f2951	-0.06990302
118	0xbd380dd4	-0.044935063
119	0x3d0f0e4b	0.03492574
120	0x3d0d9af1	0.03457159
121	0xbbfef085	-0.007780137
122	0x3d6e8e00	0.05824089
123	0x3d368a16	0.044565283
124	0x3dfb7c60	0.12279582
125	0x3e180d1b	0.1484875
126	0x3e170318	0.14747274
127	0x3e69886f	0.22805952
128	0xbd7fa822	-0.062416203
129	0x3d334e23	0.04377569
130	0x3d395408	0.045246154
131	0xbcc9ad4b	-0.024618765
132	0xbc4d7383	-0.012539747
133	0x3c711bff	0.014716147
134	0xbd01909b	-0.031632047
135	0xbd26d425	-0.04072966
136	0xbbe443e6	-0.006966102
137	0xbb06ec8b	-0.0020587768
138	0xbc6800e0	-0.014160365
139	0x3d97be27	0.074093156
140	0x3dcc0df0	0.09963596
141	0x3d4afad8	0.04955563
142	0xbb00eeff	-0.0019673703
143	0xbbcf742f	-0.006330989
144	0xbca36a0d	-0.01994803
145	0x3db6af99	0.08920211
146	0xbd2138c5	-0.03936078
147	0x3c08c111	0.008346812
148	0x3d83f3ad	0.06442962
149	0xbcc8706b	-0.024467668
150	0x3c830b47	0.015996588
151	0x3cc94fb6	0.024574142
152	0xbd29c257	-0.041445103
153	0x3be60e8c	0.007020777
154	0x3df1e5e3	0.118114255
155	0x3c9113b3	0.017709589
156	0x3d59ab50	0.053141892
157	0x3de2a5af	0.11066758
158	0x3d8f69f3	0.0700263
159	0x3c52f4bc	0.012875732
160	0x3c825941	0.0159117
161	0x3d7a16de	0.061056964
162	0x3aa55d14	0.001261624
163	0x3c38862e	0.01126246
164	0x3d86cb56	0.06581752
165	0x3dafc655	0.08582751
166	0x3895424a	7.117221e-05
167	0xbcc16745	-0.023608813
168	0xbcdf4eb9	-0.027259218
169	0x3d1b6f91	0.037948195
170	0x3da7448c	0.08167371
171	0x3a9c30fa	0.0011916452
172	0x3db8aea6	0.090176865
173	0xbb5781f3	-0.0032883852
174	0x3d559132	0.052140422
175	0x3cab624c	0.020920895
176	0x3db9d35a	0.09073515
177	0x3d892815	0.06697098
178	0x3d190ade	0.03736388
179	0x3d7fdd44	0.062466875
180	0xbcbd256d	-0.023089135
181	0xbc2c40bb	-0.01051348
182	0x3c267ba5	0.010161315
183	0xbb90e7c0	-0.004422158
184	0x3da02bc4	0.07820848
185	0x3c8f9263	0.017525857
186	0x3d082b98	0.0332447
187	0x3dbc05da	0.091808036
188	0x3ceed098	0.0291522
189	0x3d78ae8e	0.060713343
190	0x3d449f32	0.048003383
191	0x3d8ba3a9	0.06818325
192	0xbd0a3063	-0.03373755
193	0xbce62d2c	-0.028097712
194	0x3da0a272	0.07843484
195	0x3d853ac7	0.065053515
196	0xbbf69e09	-0.0075261635
197	0x3d65fe91	0.056150977
198	0xbd03184e	-0.0320056
199	0x3da99cb9	0.082818456
200	0x3d0354f9	0.032063458
201	0x3db02afb	0.08601948
202	0x3d10e030	0.03537005
203	0xbc618246	-0.01376397
204	0x396d59bd	0.00022635511
205	0xbd019d22	-0.031643994
206	0x3bebf439	0.0072007445
207	0xbd0cc74f	-0.034369763
208	0x3d9b63d0	0.07587397
209	0x3d010fdf	0.031509276
210	0x3c019fa3	0.0079115955
211	0x3d40fe3b	0.047117453
212	0x3db52322	0.08844592
213	0x3c5e0a74	0.013552297
214	0x3d5d3e04	0.05401422
215	0x3da80bfd	0.082054116
216	0x3dc3e68b	0.09565457
217	0x3da6b74b	0.08140429
218	0x3d218f30	0.039443195
219	0x3d67bc94	0.056576326
220	0x3dd20733	0.102552794
221	0x3c93d979	0.018048035
222	0x3d51104f	0.051040944
223	0xbb9a2b5d	-0.0047048763
224	0x3ca7cf6b	0.020484647
225	0x3c07a571	0.00827919
226	0xbc1d65e8	-0.009606816
227	0xbc6a5555	-0.014302571
228	0xbd21ff24	-0.03954996
229	0x3d1fba71	0.038996164
230	0x3bbc7f08	0.005752448
231	0x3d867a16	0.06566255
232	0x3c03634b	0.008019279
233	0x3d580a2b	0.052744072
234	0x3b638a87	0.003472002
235	0x3c1b3b86	0.009474641
236	0x3b172776	0.0023064292
237	0xbd15dbe9	-0.036586676
238	0xbd26ab73	-0.04069085
239	0x3d7feedf	0.062483665
240	0x3d25a593	0.040441107
241	0xbc4d4e70	-0.012530908
242	0xbcfcc42f	-0.030855266
243	0x3daa3263	0.08310392
244	0xbc986278	-0.018601641
245	0x3ddb28af	0.10701119
246	0x3dc4ea8d	0.096150495
247	0xbc81f3a8	-0.015863255
248	0x3ced6592	0.028979097
249	0x3df9193a	0.12163015
250	0x3d8eeea4	0.06979111
251	0x3d4c0d40	0.049817324
252	0x3c9ff696	0.019526761
253	0x3de795a0	0.113078356
254	0x3d8597ef	0.0652312
255	0x3c80e15b	0.015732458

model.nn.0.bias f4 [20]
0	0x3ae2a27d	0.0017290857
1	0x3c409f3b	0.0117567135
2	0x3db76955	0.08955637
3	0x3d5470c6	0.05186536
4	0xbb9ca048	-0.004779849
5	0xba77d040	-0.0009453334
6	0xbb97ed9e	-0.0046364805
7	0x3b05ff7b	0.0020446468
8	0xbb5c0200	-0.0033570528
9	0x3c33554c	0.010945629
10	0xbbec0da2	-0.0072037736
11	0xba88b84a	-0.0010430899
12	0x3dcefbaa	0.10106595
13	0x00000000	0.0
14	0xbc5c5c39	-0.013449722
15	0x3b1980f8	0.0023422819
16	0xbbcdd68d	-0.00628168
17	0xb99bc3ae	-0.00029709697
18	0x3c0fe69e	0.008783011
19	0x396f04e6	0.00022794641

model.nn.2.weight f4 [320, 20]
0	0xbe0df10d	-0.13861485
1	0xbdc28141	-0.094973095
2	0x3ea9d363	0.33169088
3	0x3e66f880	0.22555733
4	0xbdf710bf	-0.12063741
5	0xbddb9a77	-0.10722821
6	0xbd111319	-0.035418604
7	0xbdf256fd	-0.11832998
8	0xbe102c0d	-0.14079304
9	0xbd8f715f	-0.07004046
10	0xbcb4392c	-0.021999918
11	0xbdc2d54a	-0.09513338
12	0x3ea8ac09	0.32943752
13	0xb92b6cb6	-0.00016348329
14	0xbd822f16	-0.06356637
15	0xbe066401	-0.13124086
16	0xbe22485d	-0.15847917
17	0xbd969c31	-0.0735401
18	0xbe0807fc	-0.13284296
19	0xbd9898e0	-0.074510336
20	0x3e3d14f0	0.18465018
21	0x3d8b9752	0.068159714
22	0xbe5881e0	-0.21143293
23	0xbe0691a9	-0.13141502
24	0x3e2be785	0.16787536
25	0x3e2734a4	0.16328675
26	0x3e521918	0.20517385
27	0x3d92cbb5	0.0716776
28	0x3e496d63	0.19670634
29	0x3dd34b0a	0.10317047
30	0xbcd0bf3c	-0.025481813
31	0x3e5414d3	0.20711069
32	0xbe4a87e9	-0.19778408
33	0x39fc5397	0.00048127465
34	0x3e136e81	0.14397623
35	0x3dc070be	0.09396504
36	0x3e097f80	0.13427544
37	0x3da8d92a	0.08244546
38	0x3e63a6fa	0.22231665
39	0x3e4c30fc	0.19940561
40	0xbddd2fbe	-0.10800122
41	0xbd9866e8	-0.07441503
42	0xbdd7f04f	-0.10543882
43	0xbe27cf4d	-0.16387673
44	0xbd9b711f	-0.075899355
45	0xbd541f42	-0.051787622
46	0xbe0c923c	-0.13727659
47	0xbde6afd7	-0.112640075
48	0xbd7e3bb6	-0.062068664
49	0xbd7c353b	-0.061574202
50	0xba687ddf	-0.0008868854
51	0xbdc06b00	-0.09395409
52	0xbdbbf6a5	-0.09177903
53	0x38fcda76	0.00012056988
54	0xbd890ecd	-0.06692276
55	0xbc6b30af	-0.014354869
56	0xbd7fbe9e	-0.062437646
57	0xbe03f6ff	-0.1288719
58	0xbd1f51a9	-0.038896237
59	0xbd98db1e	-0.07463668
60	0xbde308da	-0.11085673
61	0xbdefacaa	-0.11702855
62	0xbcac6cdf	-0.021048008
63	0xbdf137d4	-0.117782265
64	0xbccb9a90	-0.024853975
65	0xbd18a006	-0.037261985
66	0xbddb7d0b	-0.107172094
67	0xbccdf336	-0.025140386
68	0xbd462560	-0.048375487
69	0xbd8e2468	-0.06940538
70	0x3b6ea50b	0.0036414291
71	0xbe02afcd	-0.12762375
72	0xbce25519	-0.027628468
73	0x38a95297	8.0739315e-05
74	0xbdbae973	-0.09126558
75	0xbd5ed697	-0.054403868
76	0xbd9b871a	-0.07594128
77	0xbd5cf9c9	-0.05394915
78	0xbd05a639	-0.032629225
79	0xbdd4b24a	-0.103855684
80	0xbc32c492	-0.010911124
81	0xbd4105ec	-0.04712479
82	0xbe116b6d	-0.14201136
83	0xbe74df9a	-0.23913422
84	0x3d9320a9	0.07183964
85	0x3dc29923	0.09501865
86	0x3dc2af78	0.09506124
87	0x3ce8bedb	0.02841132
88	0x3cb58627	0.022158695
89	0x3d9805fd	0.07423017
90	0xbcbf3efc	-0.023345463
91	0x3d4f1366	0.05055561
92	0xbe9818a6	-0.29706305
93	0xb9e576e7	-0.00043766873
94	0x3db1a685	0.08674339
95	0x3d165254	0.036699608
96	0x3cfc16ca	0.030772585
97	0xbcda1e57	-0.026625795
98	0x3cd9390f	0.026516465
99	0x3d29e17d	0.041474808
100	0x3b45f039	0.0030202998
101	0x3dca00fc	0.09863469
102	0x3e223561	0.15840675
103	0x3de1ce6b	0.11025699
104	0x3d08463a	0.0332701
105	0x3c8130c0	0.015770316
106	0x3c250525	0.010072027
107	0x3d357b19	0.04430685
108	0xbc54bbe7	-0.012984253
109	0xbc435f21	-0.011924536
110	0x3d179b94	0.037013605
111	0x3bcfbb8c	0.006339496
112	0x3e010c9a	0.12602463
113	0xb9e842b0	-0.00044300174
114	0xbcf56ffe	-0.029960629
115	0x3cb0c87e	0.021579977
116	0xbc85a746	-0.016315114
117	0x3c6b3fe0	0.014358491
118	0x3dc2fe47	0.09521156
119	0x3cd397c0	0.025829196
120	0xbc8d23d1	-0.017228993
121	0x3d31e93c	0.04343532
122	0x3e513a16	0.20432314
123	0x3e79fd59	0.2441305
124	0xbceb4b6e	-0.028722491
125	0xbd12cb2e	-0.0358383
126	0x3d33d6c7	0.043906
127	0xbc3cff2e	-0.011535449
128	0xbd55e968	-0.052224547
129	0xbd66b044	-0.056320444
130	0x3bd48e36	0.0064866794
131	0xbd378a8e	-0.04480987
132	0x3e601e8f	0.21886657
133	0xb7fe6abb	-3.032886e-05
134	0xbd7d6a77	-0.06186911
135	0xbd51befe	-0.051207535
136	0x3d3caa8d	0.046061087
137	0x3cc625e9	0.024187999
138	0x3d818124	0.0632346
139	0xbd077827	-0.03307357
140	0xbd27a186	-0.040925525
141	0xbda0b1d1	-0.07846416
142	0xbdd9a213	-0.10626616
143	0xbe6955a3	-0.22786574
144	0x3ceafaa1	0.028683962
145	0x3c7c2618	0.015389942
146	0x3d977f22	0.073972955
147	0x3d9ae2f3	0.075628184
148	0x3d426c28	0.047466427
149	0xbcd7813e	-0.026306745
150	0xbca0ac60	-0.019613445
151	0xbbe4a527	-0.0069776955
152	0xbe679585	-0.22615631
153	0x3927d490	0.00016005547
154	0x3d76a52f	0.060216125
155	0xbd881c5b	-0.066460334
156	0x3d29e0a6	0.041474007
157	0x3c940ed2	0.018073473
158	0xbd7033b2	-0.05864305
159	0xbd761ad8	-0.060084194
160	0x3de8046c	0.113289684
161	0x3d32d5bb	0.04366086
162	0xbe443f1a	-0.19164696
163	0xbe5a3a8b	-0.21311395
164	0x3dc8acb6	0.09798567
165	0x3d04b911	0.032403056
166	0x3db76aa6	0.089558885
167	0x3dc05ee6	0.093931004
168	0x3db6506c	0.08902058
169	0x3cf8c302	0.030366424
170	0xbc51635e	-0.012780039
171	0x3d441063	0.04786719
172	0xbe86ba44	-0.26313984
173	0xba1594dd	-0.0005706081
174	0x3e278e70	0.1636293
175	0x3cc135bf	0.023585198
176	0x3ce9400d	0.028472925
177	0x3dc46e2f	0.09591328
178	0x3d1c3ac0	0.038141966
179	0x3cbd22ed	0.023087943
180	0x3e00aa0b	0.12564866
181	0x3e005a26	0.12534389
182	0x3e15a6e6	0.14614448
183	0x3de2e5e1	0.11079002
184	0x3da9d536	0.0829262
185	0x3c65e67e	0.014032004
186	0x3a1710e7	0.00057627115
187	0x3dd098ce	0.10185395
188	0x3d207ee4	0.039183512
189	0x3db33213	0.08749785
190	0x3c6c3124	0.014416013
191	0x3d50e416	0.05099877
192	0x3e299bc1	0.16563322
193	0xb8d20d1d	-0.00010016023
194	0x3c1cfc7a	0.0095816795
195	0x3d81b9a0	0.06334233
196	0x3dcdc381	0.10047055
197	0x3e0461f2	0.12927988
198	0x3d94d528	0.07267219
199	0x3d92a994	0.07161251
200	0x3ce8dda1	0.028425993
201	0xbd1172a1	-0.03550971
202	0xbe1fe84a	-0.15615955
203	0xbe268548	-0.1626178
204	0x3cc82c9f	0.02443534
205	0x3d2903f9	0.041263554
206	0x3d327762	0.043570884
207	0x3d1c3798	0.038138956
208	0x3d9441ca	0.07239111
209	0xbd31467d	-0.043280113
210	0x3cdfd788	0.027324453
211	0x3afbb438	0.001920349
212	0xbe2e8950	-0.17044568
213	0xba140fd3	-0.000564811
214	0x3cbe0fda	0.023200918
215	0x3c9f5df1	0.019453974
216	0x3d43fd41	0.047848944
217	0x3d8792da	0.066198066
218	0xbc75b089	-0.014995703
219	0x3d956ccc	0.07296142
220	0x3d02e3cc	0.031955525
221	0x3c33f371	0.010983334
222	0xbe64e411	-0.22352625
223	0xbe5f2c9c	-0.21794361
224	0x3d905ebf	0.070493214
225	0x3cef0dae	0.029181328
226	0xbc1ea061	-0.009681792
227	0x3dbf56b0	0.09342706
228	0x3da5cb7a	0.08095451
229	0x3b850834	0.004059816
230	0xbd608d78	-0.054822415
231	0x39f30556	0.00046352547
232	0xbe7007de	-0.23440501
233	0xb99644a3	-0.00028661368
234	0x3d4ba7e8	0.049720675
235	0x3c245505	0.010030036
236	0x3de4255b	0.111399375
237	0xbc9c3b6f	-0.019071309
238	0xbb900cf2	-0.0043960745
239	0x3d81c3c5	0.06336168
240	0x3c1aee7a	0.009456271
241	0xbde2569c	-0.11051676
242	0xbe1a957e	-0.15096089
243	0xbe40bd53	-0.18822221
244	0xbdd03511	-0.101663716
245	0xbdaf8bed	-0.085716106
246	0xbdc2c660	-0.09510493
247	0xbdfc4809	-0.12318427
248	0xbdb357ea	-0.08757003
249	0xbdf4823c	-0.11938903
250	0x3cabee4f	0.020987658
251	0xbdc98828	-0.09840423
252	0xbe6201aa	-0.22070947
253	0x39b06885	0.0003364721
254	0xbdad6e78	-0.08468336
255	0xbde3eab6	-0.11128752

model.nn.2.bias f4 [320]
0	0xbd686184	-0.056733623
1	0x3dce3ac9	0.10069806
2	0xbd911c00	-0.07085419
3	0xbd871e63	-0.06597593
4	0xba78ce22	-0.00094911654
5	0x3d0c2739	0.034217093
6	0x3c8b6113	0.017014062
7	0xbcec1b96	-0.028821748
8	0x3ce80061	0.028320493
9	0x3d74462c	0.059637234
10	0xbcacb671	-0.021083089
11	0xbbafe6ba	-0.005368081
12	0xbd7a5cc7	-0.061123636
13	0x3d58838e	0.052859835
14	0xbc164483	-0.009171608
15	0x3cdb399b	0.026760867
16	0xbdb98747	-0.09059005
17	0xba1190f5	-0.00055529113
18	0xbdaf5926	-0.085619256
19	0xbca5b8f2	-0.02022979
20	0xbd40a07d	-0.047028054
21	0x3db27b2e	0.08714901
22	0xbd95147a	-0.07279296
23	0xbd8a8266	-0.06763153
24	0xbb8ab766	-0.0042332886
25	0x3d0f0c73	0.034923982
26	0x3cc9cba7	0.024633242
27	0xbcf90387	-0.03039719
28	0x3c800789	0.015628593
29	0x3d7bdaa1	0.061487798
30	0xbccdef43	-0.025138503
31	0xbc0726d3	-0.0082490025
32	0xbd807a9a	-0.062733844
33	0x3d0461f2	0.03231997
34	0xbc4c5025	-0.01247028
35	0x3cd1e375	0.025621155
36	0xbdbf5b92	-0.093436375
37	0x3bbe30e3	0.0058041676
38	0xbdb43d66	-0.08800773
39	0xbcc0b11f	-0.023521958
40	0xbd640a7f	-0.055674072
41	0x3d997800	0.07493591
42	0xbd85bfee	-0.06530748
43	0xbd7747be	-0.060371153
44	0x3ac70a37	0.0015185539
45	0x3ce4266a	0.027850349
46	0x3c678c14	0.014132518
47	0xbcc2690d	-0.023731733
48	0x3cc62248	0.024186268
49	0x3d5f9f73	0.054595422
50	0xbc9c92b5	-0.019112924
51	0xba60f7d2	-0.000858185
52	0xbd65367b	-0.05596016
53	0x3d2951e5	0.041337866
54	0xbbb71b8c	-0.0055880006
55	0x3cc09a6e	0.023511138
56	0xbdadb327	-0.08481436
57	0xb9e4badf	-0.0004362678
58	0xbda1d0da	-0.079011634
59	0xbcb2b122	-0.02181298
60	0xbd3f4f6f	-0.046706613
61	0x3d82d735	0.06388704
62	0xbd8daf02	-0.06918146
63	0xbd840e6b	-0.064480625
64	0xbbe0ca20	-0.0068600327
65	0x3d06fd49	0.032956395
66	0x3c5dbfca	0.013534496
67	0xbccab772	-0.024745677
68	0x3c342e7d	0.010997412
69	0x3d721744	0.05910422
70	0xbcc47f18	-0.023986384
71	0xbbf884ef	-0.0075842063
72	0xbd785ee1	-0.06063736
73	0x3cf6e0e7	0.030136539
74	0xbc42fe24	-0.011901412
75	0x3cdf5b4f	0.027265219
76	0xbdb4f472	-0.08835687
77	0x3bdbb90f	0.0067054103
78	0xbda7338b	-0.08164128
79	0xbceaadc2	-0.028647307
80	0xbd45c46d	-0.04828303
81	0x3d51da17	0.051233377
82	0xbd8beb19	-0.06831951
83	0xbd81d189	-0.06338794
84	0xbbec1d43	-0.0072056367
85	0x3d00c033	0.031433295
86	0x3c91e809	0.017810838
87	0xbcf10432	-0.029420946
88	0x3bc6d3d5	0.006067733
89	0x3d70302f	0.0586397
90	0xbccefabf	-0.02526605
91	0xbc036ef5	-0.00802206
92	0xbd7610dc	-0.060074672
93	0x3cda8016	0.026672404
94	0xbc2876bd	-0.010282216
95	0x3cb250a5	0.02176697
96	0xbdb36c83	-0.08760931
97	0x3bf8022c	0.0075686183
98	0xbda40b42	-0.0800996
99	0xbcdf22b3	-0.027238226
100	0xbd4fde89	-0.050749335
101	0x3d2b3bbf	0.041805025
102	0xbd7e20b3	-0.062042903
103	0xbd6a21cb	-0.057161134
104	0xbb1bae17	-0.0023754889
105	0x3cc4ec7c	0.024038546
106	0x3c05f4bb	0.008176024
107	0xbcaaffeb	-0.020873984
108	0x3bab13b4	0.0052208547
109	0x3d5961f3	0.053071927
110	0xbcaefc38	-0.021360502
111	0xba9ec9f1	-0.0012114627
112	0xbd5e5a3b	-0.05428527
113	0x3c980587	0.018557323
114	0xbb5a02c8	-0.0033265818
115	0x3ca7c546	0.02047981
116	0xbda5b65f	-0.08091425
117	0x3b474ad7	0.0030409598
118	0xbd93e869	-0.07222063
119	0xbc9ec86a	-0.019382674
120	0xbd327684	-0.043570057
121	0x3d1178eb	0.035515707
122	0xbd8195d5	-0.06327406
123	0xbd6eece3	-0.05833138
124	0xbc253544	-0.0100835
125	0x3cecad3e	0.028891202
126	0x3c707391	0.014675991
127	0xbcd0ee6d	-0.025504315
128	0xbb2e09e7	-0.0026556195
129	0x3d60cc5e	0.0548824
130	0xbcdd36ec	-0.027003728
131	0xbbe628cc	-0.0070239063
132	0xbd671e34	-0.05642529
133	0x3c2f5d34	0.010703374
134	0xbc12bba8	-0.008955874
135	0x3d04db24	0.03243555
136	0xbda7a473	-0.08185663
137	0x3c22498c	0.00990523
138	0xbd9525ef	-0.07282626
139	0xbccb6f73	-0.024833417
140	0xbd3f17a0	-0.04665339
141	0x3ce779b3	0.028256273
142	0xbd81e7b0	-0.06343019
143	0xbd6ede27	-0.05831733
144	0xbc168df3	-0.009189117
145	0x3ce49be2	0.027906362
146	0x3c58bb05	0.013228183
147	0xbcefbb82	-0.029264215
148	0xbb3d4009	-0.002887728
149	0x3d61205e	0.05496251
150	0xbcdad1cc	-0.026711367
151	0xbbb2b189	-0.0054532927
152	0xbd67fc43	-0.05663706
153	0x3c1cc099	0.009567403
154	0xbbf33520	-0.0074221045
155	0x3cfa023e	0.030518647
156	0xbda898ca	-0.08232267
157	0x3c10e0fc	0.008842703
158	0xbd94e29b	-0.07269784
159	0xbcce5ea4	-0.025191613
160	0xbd28648d	-0.041111518
161	0x3cfbc5ab	0.030733904
162	0xbd8fc50d	-0.07020006
163	0xbd84af3b	-0.06478735
164	0xbc5e97b3	-0.013585973
165	0x3d0792e1	0.03309906
166	0x3c93af84	0.018028028
167	0xbcdc784d	-0.026912833
168	0xbbd8e89a	-0.006619525
169	0x3d79241f	0.060825463
170	0xbcffce68	-0.031226352
171	0xbc39ea59	-0.011347377
172	0xbd7fb35d	-0.062426914
173	0x3bbe8dc4	0.0058152396
174	0xbc564682	-0.013078334
175	0x3d09b4e4	0.033619776
176	0xbdb7ed8e	-0.08980857
177	0x3c7aee07	0.015315539
178	0xbda5b066	-0.08090286
179	0xbd0ae0bd	-0.033905733
180	0xbd25e328	-0.040499836
181	0x3c9f916c	0.019478522
182	0xbd8fee06	-0.07027821
183	0xbd84d45d	-0.064858176
184	0xbc68b846	-0.01420409
185	0x3d0520a4	0.03250183
186	0x3c9297e3	0.01789469
187	0xbcfa6703	-0.030566698
188	0xbc23148a	-0.009953627
189	0x3d7bf6fa	0.061514832
190	0xbcfca7dc	-0.03084176
191	0xbc2ff29b	-0.010738994
192	0xbd80ee82	-0.06295492
193	0x387997ab	5.9507478e-05
194	0xbc49c0f7	-0.012314073
195	0x3d029ea8	0.031889588
196	0xbdb7f3a4	-0.08982018
197	0x3c759845	0.014989917
198	0xbda35de8	-0.079768956
199	0xbcf6cdca	-0.030127425
200	0xbd0dd580	-0.034627438
201	0x3c9c2fc5	0.019065747
202	0xbd85c085	-0.06530861
203	0xbd761311	-0.060076777
204	0xbc750427	-0.014954603
205	0x3cfa8e5d	0.030585462
206	0x3c6f7f22	0.014617713
207	0xbcd22b0c	-0.025655292
208	0xbc414228	-0.011795558
209	0x3d69c239	0.05706999
210	0xbcf1e73e	-0.02952921
211	0xbc39692f	-0.011316582
212	0xbd6f0345	-0.058352727
213	0xbb5d4f79	-0.0033769293
214	0xbc4e9bf4	-0.012610424
215	0x3d003b46	0.031306528
216	0xbdab24ff	-0.08356666
217	0x3c7f76cc	0.015592288
218	0xbd989be8	-0.07451612
219	0xbcef9bef	-0.02924916
220	0xbcd2c34f	-0.025727896
221	0xbc0fecef	-0.008784517
222	0xbd7b3d3b	-0.06133769
223	0xbd679779	-0.05654094
224	0xbc81e7de	-0.015857633
225	0x3ce41d66	0.02784605
226	0x3c856204	0.016282089
227	0xbd071fe0	-0.032989383
228	0xbc9baae2	-0.019002382
229	0x3d5cb20b	0.053880733
230	0xbcfc6135	-0.03080807
231	0xbc3cbb8a	-0.011519322
232	0xbd608794	-0.054816797
233	0xbc94d065	-0.018165777
234	0xbc4cff82	-0.01251209
235	0x3cf606db	0.030032566
236	0xbda1cf6c	-0.07900891
237	0x3c8a72e2	0.016900484
238	0xbd8e4f5c	-0.0694873
239	0xbce92c28	-0.028463438
240	0xbcc5c6f7	-0.024142725
241	0xbc838606	-0.016055118
242	0xbd74ccb8	-0.059765548
243	0xbd614d6e	-0.055005483
244	0xbc6e46be	-0.014543233
245	0x3cce7f42	0.025207166
246	0x3c58f26d	0.013241393
247	0xbd036dc1	-0.03208709
248	0xbc963ade	-0.018338617
249	0x3d560cfb	0.052258473
250	0xbceb83d0	-0.028749377
251	0xbc17e220	-0.009270221
252	0xbd5aa498	-0.053379625
253	0xbcaeb0ce	-0.021324541
254	0xbc257503	-0.010098699
255	0x3ce5266c	0.027972423

model.args_proj.proj.0.weight f4 [1, 20]
0	0xbe541c09	-0.2071382
1	0x3f1dc404	0.6162722
2	0xbe84b517	-0.2591941
3	0xbec527f1	-0.38507035
4	0x3f3e2a82	0.7428361
5	0x3e4a9756	0.19784293
6	0xbe3f1395	-0.18659814
7	0x3ef491e1	0.47767547
8	0x3f304f87	0.6887135
9	0xb7eda64a	-2.8330036e-05
10	0x3f3a3d0c	0.727494
11	0x3f082446	0.5318035
12	0xbc94eacb	-0.018178364
13	0x3f0a4480	0.5401077
14	0x3ed78133	0.4209076
15	0xbf07e295	-0.5308011
16	0xbe1ff039	-0.15618981
17	0xbf3f6c56	-0.7477468
18	0xbf0d13f5	-0.55108577
19	0x3f1556de	0.58335674

model.args_proj.proj.1.weight f4 [1, 20]
0	0x3c13847d	0.009003756
1	0x3c123eac	0.008926075
2	0xbe3531c6	-0.17694768
3	0xbe6ebf6c	-0.23315209
4	0xbd849e9f	-0.06475567
5	0x3e166188	0.14685643
6	0x3cb9cc9b	0.022680571
7	0xbc9bf9f6	-0.01904009
8	0xbc27018d	-0.010193241
9	0x3e70e572	0.23525026
10	0xbd3a3786	-0.045463108
11	0xbdd01965	-0.101610936
12	0xbe35d4bb	-0.17756931
13	0xbb9b2cd9	-0.004735571
14	0xbdf1ff86	-0.11816315
15	0x3ce08918	0.027409121
16	0xbdca6d05	-0.09884075
17	0x3d695700	0.056967735
18	0xbe0122fc	-0.12611002
19	0xbd17cb88	-0.037059337

model.args_proj.proj.2.weight f4 [1, 20]
0	0x3ec06d75	0.3758351
1	0xbeb9085b	-0.36139187
2	0x3ea030d5	0.31287256
3	0x3ea48807	0.3213503
4	0xbec560f4	-0.38550532
5	0xbda0970b	-0.07841309
6	0x3ddefed6	0.1088845
7	0xbd8bc613	-0.06824889
8	0xbe91a155	-0.284434
9	0xbe87230b	-0.26393923
10	0xbe8a539a	-0.27016908
11	0xbecdd96f	-0.4020495
12	0x3e824d71	0.25449708
13	0xbec0939f	-0.37612626
14	0xbebea9f9	-0.37239054
15	0x3ddda764	0.10822943
16	0x3e9b632c	0.303491
17	0x3ebeed9b	0.37290654
18	0x3eb05b6e	0.34444755
19	0xbe49da65	-0.19712217
