generate_forecasts/output/Local_Forecasts/Dairy products and eggs/2025/models/SimpleFeedForward/W0/gluon_ts/prediction-net-state.pt (torch, 34030 bytes, 7 tensors)

model.nn.0.weight f4 [20, 32]
0	0x3db8db22	0.09026171
1	0x3d38b101	0.04509068
2	0xbc0d8788	-0.00863827
3	0x3d85e497	0.06537741
4	0x3dd6944f	0.10477506
5	0x3dd6e6ca	0.10493238
6	0x3dba42fc	0.090948075
7	0x3d1d1604	0.038351074
8	0x3d287796	0.04112967
9	0x3d6b8357	0.057498302
10	0x3df54ca9	0.119775124
11	0x3ad772b6	0.0016437385
12	0x3ce6f617	0.028193517
13	0x3db9e0e0	0.090760946
14	0x3d6dab7c	0.05802487
15	0x3dce6557	0.10077923
16	0x3dd6dd16	0.104913875
17	0x3c8cf9f1	0.017209025
18	0xbba65740	-0.005076319
19	0x3cd886b5	0.02643142
20	0x3db9533b	0.09049078
21	0x3dad0d1d	0.08449767
22	0x3c4291b2	0.011875557
23	0x3dc44eaf	0.0958532
24	0x3dca367b	0.098736726
25	0x3dd063dd	0.101752974
26	0xbb80e9fa	-0.003934142
27	0x3d462a3a	0.048380114
28	0x3d21b1b1	0.0394761
29	0x3bceed71	0.0063149263
30	0x3ddf75d8	0.10911149
31	0xbb8ae322	-0.004238502
32	0xbca9e22e	-0.020737734
33	0xbd338c07	-0.043834712
34	0x3d01e917	0.031716432
35	0xb9379c71	-0.00017510519
36	0x3d4ee623	0.050512444
37	0x3cc93144	0.024559624
38	0x3cd3c8f0	0.02585265
39	0xbd705f7f	-0.058684822
40	0xbc9fa376	-0.019487124
41	0x3d94ce16	0.0726587
42	0xbc463595	-0.012097736
43	0xbd842907	-0.06453138
44	0xbd54e0d0	-0.05197221
45	0x3cddb521	0.027063908
46	0xbd60737f	-0.054797646
47	0xbd0c875b	-0.034308773
48	0x3ce8042f	0.028322307
49	0xbd8a1f7f	-0.06744289
50	0xbda12678	-0.078686655
51	0x3c3ebff6	0.011642447
52	0x3bb34133	0.005470419
53	0x3ce576ae	0.028010692
54	0x3da4816b	0.08032497
55	0xbc246f9c	-0.010036375
56	0x3d37039b	0.044681173
57	0x3d624625	0.055242676
58	0x3be53bd5	0.006995658
59	0x3cd90626	0.02649219
60	0x3c907046	0.017631661
61	0x3de2ebfa	0.11080165
62	0x3d80fc20	0.06298089
63	0x3e08da87	0.13364612
64	0xbd42cc7e	-0.0475583
65	0xba91ff28	-0.0011138665
66	0xbdbd0b57	-0.092306785
67	0xbca070a9	-0.01958497
68	0xbcc0d80f	-0.023540525
69	0xbdb227f1	-0.086990245
70	0xbdb5ca89	-0.08876521
71	0xbc977d54	-0.018492378
72	0xbdbfb711	-0.09361089
73	0xbd329bfd	-0.043605793
74	0xbda8acf8	-0.08236116
75	0x3bcfdad7	0.0063432264
76	0xbdc5495b	-0.09633132
77	0xbcbae4d4	-0.022814192
78	0xbd66bc75	-0.05633207
79	0xbcef01f7	-0.029175742
80	0x3d0ceb5f	0.034404155
81	0xbce56773	-0.02800343
82	0x3d343b3f	0.044001814
83	0xbd4ae310	-0.04953295
84	0x3ba82150	0.0051309243
85	0x3c89adda	0.016806532
86	0x3d851489	0.064980574
87	0x3d8062b9	0.0626883
88	0xbbb0dbcd	-0.005397296
89	0x3cc47346	0.023980748
90	0x3da57a71	0.080799945
91	0x3ca43c98	0.020048425
92	0x3df4bab5	0.11949674
93	0x3dbb9ef2	0.09161176
94	0x3ddd1d70	0.107966304
95	0x3e47f551	0.19527175
96	0xbd152774	-0.03641458
97	0xbd98e4a4	-0.07465485
98	0xbcf83bfd	-0.030302042
99	0x3cdb7cc9	0.0267929
100	0xbcf2c295	-0.0296338
101	0xbd29a7c4	-0.04141976
102	0xbd98ea4e	-0.07466565
103	0xbceeee4f	-0.029166369
104	0x3cc63a98	0.024197862
105	0xbad96f22	-0.0016588906
106	0xbda2bf5e	-0.07946657
107	0xbc6d2583	-0.0144742755
108	0xbd7b4b13	-0.061350893
109	0xbd48cbff	-0.04902267
110	0xbd23cdfa	-0.039991356
111	0xbd55163a	-0.05202315
112	0xbdc68d1e	-0.09694885
113	0xbbc8062a	-0.0061042504
114	0xbc99c661	-0.018771352
115	0xbd816bfd	-0.06319425
116	0xbc3e027f	-0.011597275
117	0xbd1b992e	-0.03798788
118	0x3c0a4f4d	0.008441758
119	0x3dd927d2	0.10603298
120	0x3dd671a1	0.10470892
121	0x3d43eed4	0.047835186
122	0x3dcec6ae	0.10096489
123	0x3d8a58de	0.06755231
124	0x3e02944e	0.12751886
125	0x3e017347	0.12641631
126	0x3db982f0	0.090581775
127	0x3e0270d8	0.12738359
128	0xb9dbb9bc	-0.00041909318
129	0x3dc009f4	0.093768984
130	0x3dc57e2d	0.09643207
131	0x3ca3ba0b	0.019986173
132	0x3cbc76e0	0.023005903
133	0x3d459fe2	0.04824818
134	0x3a545988	0.00081004994
135	0xbb97eda7	-0.0046364847
136	0x3ca8203e	0.020523187
137	0x3ce92466	0.028459739
138	0x3bb7b39f	0.0056061293
139	0x3de45187	0.111483626
140	0x3def2d81	0.11678601
141	0x3d9f50b4	0.07779065
142	0x3c9632de	0.018334802
143	0x39bc6231	0.00035931313
144	0xbc3437a2	-0.010999592
145	0x3dc932fd	0.09824178
146	0xbcf3c676	-0.02975772
147	0x3c6b909a	0.014377737
148	0x3dc19171	0.09451569
149	0xbb5b0e37	-0.003342522
150	0x3d55006d	0.05200236
151	0x3d94532b	0.072424255
152	0xbc2ae8c1	-0.010431469
153	0x3cb0c488	0.021578088
154	0x3df3837c	0.11890313
155	0x3c09a06a	0.008400062
156	0x3d3fb810	0.046806395
157	0x3dd61655	0.10453478
158	0x3d927f20	0.071531534
159	0x3c6be9fd	0.014399049
160	0x3d7764e6	0.06039896
161	0x3dc20297	0.0947315
162	0x3d0e6cf4	0.034771875
163	0x3d2717a3	0.040794026
164	0x3db3720e	0.087619886
165	0x3ddec6d4	0.10877767
166	0x3cdc0231	0.026856514
167	0x3c1ee674	0.009698499
168	0xbb5d6c1e	-0.0033786367
169	0x3d81b756	0.06333797
170	0x3db8c113	0.09021201
171	0x3cd6bfee	0.026214566
172	0x3dcaa67f	0.09895038
173	0x3c98222d	0.018570984
174	0x3d86a721	0.06574846
175	0x3caa2760	0.020770729
176	0x3dc4450d	0.09583483
177	0x3d9c1157	0.07620495
178	0x3d52a056	0.05142244
179	0x3d95ae9d	0.073086955
180	0x3bb3c6e2	0.005486355
181	0x3c440482	0.011963965
182	0x3d3becd9	0.045880172
183	0x3d32e817	0.04367837
184	0x3de42a04	0.11140826
185	0x3d136773	0.03598733
186	0x3d1771a3	0.036973607
187	0x3daa505b	0.08316108
188	0x3ca3210a	0.019913215
189	0x3d4740cd	0.048645783
190	0x3d1ac2cf	0.03778344
191	0x3d8d5e8a	0.069027975
192	0xbc1c25a1	-0.009530456
193	0xbc272506	-0.010201698
194	0x3dd345ae	0.10316025
195	0x3dcd30d9	0.100190826
196	0x3cefcbfe	0.029272076
197	0x3dd32daa	0.10311444
198	0x3c59f686	0.013303405
199	0x3e053e8d	0.13012142
200	0x3d8637e2	0.065536276
201	0x3e028b3a	0.12748423
202	0x3d9f29bb	0.07771631
203	0x3d34edee	0.04417222
204	0x3d07507e	0.033035748
205	0x3ba16731	0.0049256315
206	0x3d06356b	0.032765787
207	0xbc2e12a4	-0.010624561
208	0x3ddab599	0.10679168
209	0x3d6d2504	0.05789663
210	0x3cf4685f	0.029834924
211	0x3d65f06d	0.05613749
212	0x3de67729	0.11253197
213	0x3d029975	0.03188463
214	0x3db347d0	0.087539315
215	0x3dfdbc46	0.12389426
216	0x3df160da	0.11786051
217	0x3db0ffba	0.08642526
218	0x3cea3e27	0.02859409
219	0x3d260e6d	0.0405411
220	0x3dbc822e	0.09204517
221	0x3c4fcf38	0.012683682
222	0x3d678d18	0.05653104
223	0xbce25928	-0.027630404
224	0x3d2f0c85	0.04273655
225	0x3ccf5c33	0.025312519
226	0x3c5fc290	0.013657227
227	0x3c6834f3	0.01417278
228	0xbc607f35	-0.0137022035
229	0x3d9ed954	0.07756296
230	0x3d355bdb	0.044277053
231	0x3de012b9	0.10941071
232	0x3d073119	0.033005808
233	0x3d994d4c	0.07485446
234	0x3cac03a7	0.020997835
235	0x3d33345f	0.043751117
236	0x3c9bb2cb	0.019006154
237	0xbc0adc83	-0.008475426
238	0xbc942bf9	-0.018087374
239	0x3da028b6	0.07820265
240	0x3d7f6f06	0.06236174
241	0x3c48a1c7	0.012245602
242	0xbbfaba99	-0.0076516387
243	0x3dc38599	0.09546966
244	0x3c2f1f48	0.01068861
245	0x3df92571	0.121653445
246	0x3e006ef3	0.12542324
247	0x3cc896e6	0.024486016
248	0x3d5c8657	0.053839054
249	0x3e0560c8	0.130252
250	0x3d7e57d4	0.06209548
251	0x3d051ee5	0.032500166
252	0x3aa0ba7d	0.0012262609
253	0x3db97c72	0.09056939
254	0x3d357c8e	0.044308238
255	0xbc381849	-0.011236259

model.nn.0.bias f4 [20]
0	0x3d3e0e51	0.046400372
1	0x3caf718b	0.021416446
2	0x3d93bbe0	0.07213569
3	0x3d5475c9	0.05187014
4	0x3d1b3799	0.03789482
5	0x3d38792f	0.045037445
6	0x3d40ceaa	0.04707209
7	0x3d52cdf7	0.051465955
8	0x3d1fe0d7	0.039032783
9	0x3d4c1aae	0.04983013
10	0xbc080485	-0.008301859
11	0x3d0d8a83	0.034555923
12	0x3d6e0ab3	0.058115672
13	0x00000000	0.0
14	0x3d2c623d	0.042085875
15	0x3cb5f481	0.022211315
16	0x3d4555b1	0.048177425
17	0x3d156346	0.036471628
18	0x3d453b92	0.048152514
19	0x3d146c44	0.036236063

model.nn.2.weight f4 [320, 20]
0	0xbdfa2bd2	-0.12215389
1	0xbda69c93	-0.08135333
2	0x3ea4633b	0.32106957
3	0x3e4d4dce	0.20049211
4	0xbdd8fbe0	-0.10594916
5	0xbdc08403	-0.09400179
6	0xbc853020	-0.0162583
7	0xbdd5da27	-0.10442
8	0xbe0671fc	-0.13129419
9	0xbd70c0c9	-0.058777604
10	0xbd3412c3	-0.043963205
11	0xbda806b1	-0.08204401
12	0x3e8b2d43	0.2718297
13	0xbb8c9657	-0.004290383
14	0xbd4fc0b2	-0.050720878
15	0x3d48089c	0.048836336
16	0xbe1e2c0e	-0.15446493
17	0xbd66a6de	-0.05631148
18	0xbdf2da85	-0.118580855
19	0xbd81bd4e	-0.06334935
20	0x3e17a2a5	0.14808138
21	0x3c9a5996	0.018841546
22	0xbe909001	-0.28234866
23	0xbe8e1e2a	-0.27757388
24	0x3e0db121	0.138371
25	0x3df992ff	0.121862404
26	0x3e3428a2	0.17593625
27	0x3d19db08	0.0375624
28	0x3e1c7067	0.15277253
29	0x3d7234f8	0.059132546
30	0xbd7b4a9a	-0.061350442
31	0x3e306ea9	0.17229713
32	0xbe9db7d3	-0.3080431
33	0x3c49c00e	0.012313856
34	0x3debc54d	0.115122415
35	0xbe1fce39	-0.15606011
36	0x3dd937bf	0.10606336
37	0x3d2ecec8	0.04267767
38	0x3e39b8c7	0.18136893
39	0x3e202fff	0.15643309
40	0xbdd5360c	-0.10410699
41	0xbd72c566	-0.059270285
42	0xbd30b493	-0.04314096
43	0xbdbbe91e	-0.09175323
44	0xbd9788c0	-0.0739913
45	0xbd3ed113	-0.046586107
46	0xbe0caf24	-0.13738686
47	0xbdcaa041	-0.09893847
48	0xbd4bf147	-0.049790647
49	0xbd532ad5	-0.05155452
50	0xbca347e2	-0.019931737
51	0xbdb928f2	-0.09041013
52	0xbd0920af	-0.033478435
53	0x3b501e80	0.003175646
54	0xbd81e5ea	-0.06342681
55	0x3cb91d41	0.022596957
56	0xbd69275d	-0.056922305
57	0xbdf817f9	-0.121139474
58	0xbd024f9d	-0.031814206
59	0xbd807684	-0.06272605
60	0xbddb57b3	-0.10710087
61	0xbdd3a07f	-0.103333466
62	0x3d15e551	0.036595646
63	0xbd420f24	-0.04737772
64	0xbcbd66c8	-0.023120299
65	0xbd042096	-0.03225764
66	0xbddc20a2	-0.10748412
67	0xbc40b394	-0.011761565
68	0xbd14467b	-0.036200028
69	0xbd742707	-0.059607532
70	0x3d4191d4	0.047258213
71	0xbdfd515c	-0.12369034
72	0x3ce0ac4a	0.027425904
73	0x3b0bd773	0.0021338135
74	0xbdb446e1	-0.088025816
75	0xbc9c3749	-0.01906933
76	0xbd902a65	-0.07039336
77	0xbd41082d	-0.047126938
78	0xbcd254b9	-0.025675165
79	0xbdbcc3e9	-0.092170544
80	0xbc551f7a	-0.013007993
81	0xbd425e76	-0.047453366
82	0xbdcc58b0	-0.09977853
83	0xbe36c3f9	-0.17848195
84	0x3d8cb44d	0.06870327
85	0x3dc18c4d	0.094505884
86	0x3db77b7e	0.08959101
87	0x3cfdcbe5	0.030981014
88	0x3ce8d8b4	0.028423645
89	0x3da056d9	0.07829065
90	0xbd0ee43c	-0.03488563
91	0x3d4662cc	0.048434064
92	0xbe60f0b7	-0.21966825
93	0xbc3815e7	-0.011235691
94	0x3dadb6e9	0.08482153
95	0xbd871897	-0.06596487
96	0x3d1d0d66	0.038342856
97	0xbcec8f0a	-0.0288768
98	0x3cdfa1b2	0.027298782
99	0x3d38404f	0.044983204
100	0x3ae75838	0.0017650193
101	0x3dba9aad	0.09111533
102	0x3db6a6c9	0.089185305
103	0x3d139db2	0.03603906
104	0x3d0a688c	0.03379111
105	0x3c5cfdac	0.013488214
106	0x3c6bd7bf	0.0143947
107	0x3d38ff02	0.04516507
108	0xbcb9a116	-0.02265982
109	0xbc9ad6eb	-0.018901309
110	0x3d98dea5	0.07464341
111	0x3bcc2482	0.006229938
112	0x3d67a218	0.05655107
113	0xbc3a4074	-0.011367906
114	0xbceabea6	-0.028655361
115	0x3d33360c	0.043752715
116	0xbcc2ae9f	-0.023764906
117	0x3c70a9f0	0.014688954
118	0x3db980b5	0.09057752
119	0x3c9a6012	0.018844638
120	0xbc7856db	-0.015157427
121	0x3d34d1d6	0.044145428
122	0x3e29d035	0.16583331
123	0x3e40004e	0.18750116
124	0xbccd8602	-0.025088314
125	0xbd0ed6ab	-0.034872692
126	0x3d4aa24d	0.04947119
127	0xbc41a50f	-0.011819138
128	0xbd689e14	-0.05679138
129	0xbd6fd81f	-0.05855572
130	0x3c53a8e1	0.012918682
131	0xbd2e0259	-0.042482708
132	0x3e247027	0.16058408
133	0xba530a54	-0.000805055
134	0xbd720647	-0.059088018
135	0xbb3b0424	-0.0028536404
136	0x3d22766a	0.03966371
137	0x3cdc31b8	0.026879176
138	0x3d80fb35	0.06297914
139	0xbd124b07	-0.035716083
140	0xbd2cb27d	-0.042162407
141	0xbd9fe3ff	-0.07807159
142	0xbd856e64	-0.06515196
143	0xbe2bf141	-0.1679125
144	0x3cd751ac	0.026284061
145	0x3c780c91	0.015139715
146	0x3d8d88cd	0.06910858
147	0x3d9e52bc	0.07730624
148	0x3d574e64	0.052564994
149	0xbcbe7b75	-0.023252228
150	0xbd10354a	-0.03520707
151	0xbc098c72	-0.008395301
152	0xbe2ba5b2	-0.16762426
153	0x3b89add3	0.0042016297
154	0x3d6c9164	0.057755843
155	0xbddea5ab	-0.108714424
156	0x3d44596b	0.047936838
157	0x3c8372f4	0.016046025
158	0xbd6bf492	-0.057606287
159	0xbd68e410	-0.056858122
160	0x3dd099e9	0.10185606
161	0x3d0ae563	0.033910166
162	0xbe2342cd	-0.15943451
163	0xbe336ecc	-0.17522734
164	0x3db92245	0.090397395
165	0x3cc87841	0.024471404
166	0x3dae6a4c	0.08516368
167	0x3dac5f10	0.08416569
168	0x3db0667e	0.08613299
169	0x3cd5790c	0.026058696
170	0xbd125275	-0.03572317
171	0x3d285d87	0.04110482
172	0xbe502e07	-0.20330058
173	0xbc6d97f9	-0.014501565
174	0x3e1e54d8	0.15462053
175	0xbe06be13	-0.13158445
176	0x3cdfa0b8	0.027298316
177	0x3dadd6a7	0.08488207
178	0x3d0259aa	0.03182379
179	0x3c8edbe3	0.017438835
180	0x3dfaee3a	0.12252469
181	0x3df11e30	0.11773336
182	0x3db96094	0.09051624
183	0x3d26663d	0.040624846
184	0x3da3447f	0.07972049
185	0x3c1b8530	0.009492204
186	0x3af2f7b9	0.0018536962
187	0x3dc33b91	0.09532846
188	0x3ce1f11d	0.027580792
189	0x3d9fef02	0.07809259
190	0x3d13ef49	0.036116872
191	0x3d48fb0d	0.049067546
192	0x3dcecd29	0.10097725
193	0xbb2d30f0	-0.0026426874
194	0x3bf84b47	0.007577333
195	0x3d6236ad	0.055227924
196	0x3dc2751d	0.09494994
197	0x3e03079f	0.12795876
198	0x3d87c21c	0.0662882
199	0x3d819a38	0.06328243
200	0x3ce29bad	0.027662123
201	0xbd0bd2eb	-0.034136694
202	0xbddf09b8	-0.108905256
203	0xbdc44f90	-0.09585488
204	0x3cb7e277	0.022446854
205	0x3d2b3741	0.04180074
206	0x3d1f46a1	0.038885716
207	0x3d28ccb2	0.041210838
208	0x3da2bee5	0.079465665
209	0xbd1d2bd8	-0.03837189
210	0x3d27630c	0.040865943
211	0x3a81be20	0.0009898581
212	0xbdc6bb94	-0.097037464
213	0xbc6b481b	-0.014360453
214	0x3cb166bf	0.021655438
215	0xbd4c0469	-0.049808893
216	0x3d64be30	0.05584544
217	0x3d84e919	0.06489772
218	0xbc54c156	-0.012985548
219	0x3d9ef4eb	0.07761558
220	0x3d01b8cd	0.03167038
221	0x3c4b5fc0	0.012412965
222	0xbe36bd74	-0.17845708
223	0xbe1cde76	-0.15319237
224	0x3d8c32a6	0.06845598
225	0x3cf89362	0.030343715
226	0xbc600076	-0.013671985
227	0x3dc76c9c	0.097375125
228	0x3db65abd	0.08904026
229	0x3c21a502	0.009866001
230	0xbd9ae74f	-0.0756365
231	0xb9ad0c0e	-0.00033006113
232	0xbe1fffb0	-0.15624881
233	0xbbf3fe0c	-0.007446056
234	0x3d4911da	0.04908929
235	0xbd97c817	-0.07411211
236	0x3df7142a	0.12064393
237	0xbca07145	-0.019585261
238	0xbad87e1c	-0.0016517076
239	0x3d8c9be8	0.06865674
240	0x3c522cae	0.012828035
241	0xbdd17356	-0.10227077
242	0xbdc0d0e3	-0.09414842
243	0xbdf23f45	-0.11828474
244	0xbdc92bc5	-0.098228015
245	0xbda5a4fb	-0.08088108
246	0xbdc4ab5a	-0.09602995
247	0xbded45f8	-0.11585611
248	0xbd9b170b	-0.075727545
249	0xbde0967e	-0.10966204
250	0x3d59c991	0.053170744
251	0xbdc50fb0	-0.09622133
252	0xbe1fe809	-0.15615858
253	0x3c0ea5ce	0.008706523
254	0xbda8b9f2	-0.08238591
255	0xbdcde866	-0.10054092

model.nn.2.bias f4 [320]
0	0xbd606825	-0.05478682
1	0x3dd597d4	0.104293495
2	0xbd7755e9	-0.060384665
3	0xbd6349b6	-0.055490218
4	0x3c2b7bbc	0.010466512
5	0x3cccbd45	0.024992594
6	0x3c376e05	0.011195664
7	0xbc9612cb	-0.018319508
8	0x3d3bb30e	0.045825057
9	0x3d47de41	0.048795942
10	0xbc0b72da	-0.008511269
11	0x3b89d10f	0.00420583
12	0xbd4e663a	-0.05039046
13	0x3d7d8b17	0.061900225
14	0x38bbadda	8.949237e-05
15	0x3c83d289	0.016091602
16	0xbda1a24d	-0.078922845
17	0xbc2ce60f	-0.010552897
18	0xbd9ad6d9	-0.0756051
19	0xbc3ca649	-0.011514255
20	0xbd665587	-0.05623391
21	0x3dd570a3	0.104218744
22	0xbd80a1f0	-0.06280887
23	0xbd6adfe9	-0.057342444
24	0x3c2f5f36	0.010703852
25	0x3ccf5da0	0.025313199
26	0x3c3bd283	0.011463764
27	0xbc96e85c	-0.018421344
28	0x3d420adb	0.047373634
29	0x3d4d2338	0.050082415
30	0xbc0a8d35	-0.008456518
31	0x3b8dad57	0.0043236422
32	0xbd54c46d	-0.05194514
33	0x3d814ec6	0.06313853
34	0x392cc9c8	0.00016478368
35	0x3c84a019	0.016189622
36	0xbdaafb7b	-0.08348747
37	0xbc2ee2e8	-0.010674216
38	0xbda37d49	-0.079828806
39	0xbc3f5a59	-0.011679255
40	0xbd6d4d35	-0.05793496
41	0x3dcce40d	0.10004435
42	0xbd7057c6	-0.058677457
43	0xbd5bbb73	-0.053645562
44	0x3c6943b4	0.014237333
45	0x3cb37e65	0.021910856
46	0x3bfbe964	0.0076877344
47	0xbc759660	-0.0149894655
48	0x3d5edd2b	0.05441014
49	0x3d403169	0.04692212
50	0xbbaac4e5	-0.00521146
51	0x3c0341dc	0.008011308
52	0xbd46d60d	-0.04854398
53	0x3d81f55d	0.063456275
54	0x3b785d74	0.00378975
55	0x3c531e03	0.012885573
56	0xbd9f06b0	-0.077649474
57	0xbc697c48	-0.014250822
58	0xbd974cac	-0.07387671
59	0xbc085121	-0.008320124
60	0xbd5430d6	-0.051804386
61	0x3dbe0708	0.09278685
62	0xbd738485	-0.059452552
63	0xbd5fbe75	-0.054624993
64	0x3c1d1b34	0.009589005
65	0x3cc7bc7f	0.024381874
66	0x3c2e7b83	0.010649565
67	0xbc902d65	-0.01759977
68	0x3d357ecd	0.04431038
69	0x3d452cf0	0.04813856
70	0xbc0cddb4	-0.00859778
71	0x3b8162c0	0.0039485395
72	0xbd4bb1c6	-0.049730085
73	0x3d66c2ba	0.05633805
74	0xb7d9ef3e	-2.5979822e-05
75	0x3c823d7a	0.015898455
76	0xbd9f715b	-0.07785293
77	0xbc1eba5e	-0.009687988
78	0xbd97ec82	-0.07418157
79	0xbc3e6d03	-0.01162267
80	0xbd51948b	-0.051167052
81	0x3db33626	0.08750562
82	0xbd773c71	-0.060360376
83	0xbd636a6a	-0.055521406
84	0x3c199f03	0.00937629
85	0x3ccc9bb7	0.024976594
86	0x3c3b7ed1	0.01144381
87	0xbc97ff31	-0.018554302
88	0x3d35055b	0.04419456
89	0x3d492c0c	0.049114272
90	0xbc1a8c55	-0.009432872
91	0x3b74ee9a	0.0037373663
92	0xbd4fba9c	-0.050715074
93	0x3d6083fc	0.05481337
94	0xb94ed13e	-0.0001972364
95	0x3c871e23	0.016493862
96	0xbda111bb	-0.0786471
97	0xbc197b0d	-0.0093677165
98	0xbd994df0	-0.074855685
99	0xbc4a1361	-0.012333722
100	0xbd786e16	-0.06065186
101	0x3dbd63e8	0.09247571
102	0xbd5dfe10	-0.05419737
103	0xbd49badd	-0.049250472
104	0x3c969ec1	0.018386247
105	0x3c8cd1e8	0.017189935
106	0x3b2d1a58	0.0026413407
107	0xbc26e8b8	-0.01018732
108	0x3d8218fe	0.06352423
109	0x3d30a39f	0.04312479
110	0xba93407a	-0.0011234425
111	0x3c4f5f92	0.012657063
112	0xbd36ca85	-0.04462673
113	0x3d825878	0.0636453
114	0x3c0d2fdd	0.0086173685
115	0x3c0aa35a	0.008461798
116	0xbd94a1e3	-0.0725744
117	0xbc97c9af	-0.018528787
118	0xbd8b5062	-0.06802441
119	0xbb77abe3	-0.0037791661
120	0xbd412829	-0.04715744
121	0x3d974a3d	0.07387207
122	0xbd61fcc4	-0.055172697
123	0xbd4ef815	-0.05052956
124	0x3c02c828	0.007982291
125	0x3cb1ff88	0.021728292
126	0x3c1a935c	0.009434547
127	0xbc892e99	-0.016745852
128	0x3d1d06b7	0.038336482
129	0x3d388e97	0.04505786
130	0xbc133ee6	-0.008987164
131	0x3b795764	0.0038046474
132	0xbd3e83e9	-0.046512518
133	0x3d4317c1	0.047630075
134	0x3a0175bd	0.0004938504
135	0x3c7bb2b9	0.015362435
136	0xbd94fc21	-0.07274652
137	0xbc05e142	-0.008171381
138	0xbd8ba128	-0.068178475
139	0xbc393b9f	-0.011305719
140	0xbd5053b8	-0.05086109
141	0x3da3dd32	0.08001174
142	0xbd6e5443	-0.058185827
143	0xbd5a22d9	-0.05325589
144	0x3c18d21b	0.009327437
145	0x3cbc985e	0.023021873
146	0x3c1e27a2	0.009653004
147	0xbc900ea5	-0.017585108
148	0x3d2f41ed	0.04278748
149	0x3d42e246	0.047579072
150	0xbc136a29	-0.0089974785
151	0x3b9a6a9c	0.004712416
152	0xbd49c67d	-0.04926156
153	0x3d5407fc	0.051765427
154	0x3a91152d	0.0011068933
155	0x3c8381c6	0.016053092
156	0xbd9c985f	-0.0764625
157	0xbc1c4ce3	-0.009539816
158	0xbd9281de	-0.071536765
159	0xbc3d897e	-0.011568425
160	0xbd431e1c	-0.047636136
161	0x3d9afccb	0.07567748
162	0xbd76370a	-0.060111083
163	0xbd610536	-0.05493661
164	0x3c04ac2f	0.008097692
165	0x3cc23e68	0.023711398
166	0x3c2cb7f5	0.010541906
167	0xbc92e1e1	-0.017929973
168	0x3d270ec0	0.04078555
169	0x3d46d10d	0.04853921
170	0xbc1b7c01	-0.009490014
171	0x3b62190c	0.0034499792
172	0xbd4df484	-0.050282016
173	0x3d474681	0.048651222
174	0x36e59349	6.841878e-06
175	0x3c853a7b	0.016263237
176	0xbda2de76	-0.07952587
177	0xbc0579f8	-0.008146755
178	0xbd999b78	-0.075003564
179	0xbc46dab3	-0.012137103
180	0xbd4bdeb7	-0.049772944
181	0x3d9fe6ef	0.07807719
182	0xbd772206	-0.06033518
183	0xbd6217ca	-0.05519847
184	0x3c1b28e7	0.009470201
185	0x3cc0f76a	0.023555476
186	0x3c1dbd47	0.009627647
187	0xbc8e7472	-0.01738951
188	0x3d3075f6	0.043081246
189	0x3d486c21	0.048931245
190	0xbc0cfc93	-0.00860514
191	0x3b9cb644	0.00478247
192	0xbd4fa9cc	-0.05069904
193	0x3d4e1c94	0.050320223
194	0x3a9f714d	0.0012164504
195	0x3c80b87c	0.015712969
196	0xbda2a595	-0.079417385
197	0xbc1de731	-0.00963764
198	0xbd98e352	-0.07465233
199	0xbc35b367	-0.011090136
200	0xbd42d73c	-0.047568545
201	0x3d9436a1	0.07236982
202	0xbd5cb9d9	-0.053888176
203	0xbd4893e7	-0.048969176
204	0x3c1df206	0.009640222
205	0x3c9e327c	0.019311182
206	0x3bddfe09	0.006774668
207	0xbc6856fd	-0.014180896
208	0x3d272ae4	0.040812388
209	0x3d31ed05	0.04343893
210	0xbbdc0bee	-0.0067152893
211	0x3bbd4615	0.0057761767
212	0xbd382364	-0.044955626
213	0x3d40a9a9	0.0470368
214	0x3b305447	0.0026905702
215	0x3c54fd8c	0.012999903
216	0xbd940d5b	-0.0722911
217	0xbc21a388	-0.009865649
218	0xbd89c366	-0.067267224
219	0xbc119a95	-0.008886953
220	0xbd372fb3	-0.044723224
221	0x3d8a658c	0.0675765
222	0xbd5c596d	-0.05379622
223	0xbd4929e6	-0.049112223
224	0x3be4ac97	0.006978582
225	0x3caa110e	0.020760085
226	0x3c13f052	0.009029465
227	0xbc8848db	-0.016636303
228	0x3d135712	0.03597171
229	0x3d339481	0.043842796
230	0xbc153c54	-0.009108622
231	0x3b5a5edd	0.0033320703
232	0xbd396007	-0.045257594
233	0x3d33a1bf	0.043855425
234	0x39b83adc	0.00035139068
235	0x3c73507f	0.014850735
236	0xbd929445	-0.071571864
237	0xbbe64b8d	-0.0070280493
238	0xbd88917b	-0.06668373
239	0xbc382943	-0.011240306
240	0xbd3e4a42	-0.046457537
241	0x3d8968b7	0.06709426
242	0xbd5a24be	-0.053257696
243	0xbd462337	-0.048373427
244	0x3c1ecdad	0.009692592
245	0x3c970ab9	0.01843773
246	0x3bc59f52	0.0060309554
247	0xbc637290	-0.013882294
248	0x3d247c9a	0.04015789
249	0x3d2fdc69	0.04293481
250	0xbbd55a78	-0.006511029
251	0x3bd01205	0.0063498043
252	0xbd35f2e9	-0.04442111
253	0x3d35bb6d	0.044368196
254	0x3b5bd2e4	0.0033542449
255	0x3c4c7062	0.012477966

model.args_proj.proj.0.weight f4 [1, 20]
0	0xbdbb9aeb	-0.09160408
1	0x3ec4ac87	0.38412878
2	0xbde83e0a	-0.11339958
3	0xbe63fb3d	-0.22263809
4	0x3ef11be8	0.47091603
5	0x3e253cb1	0.16136433
6	0xbda6c751	-0.08143485
7	0x3e863ca1	0.2621813
8	0x3ef85c7d	0.48508063
9	0xbdf851d9	-0.12124986
10	0x3edec64e	0.4351067
11	0x3e6cf9e3	0.23142199
12	0x3df1d4f3	0.11808195
13	0x3ea5a77b	0.3235434
14	0x3e045648	0.12923539
15	0xbea49cf6	-0.32151002
16	0x3c97939d	0.018503005
17	0xbee85651	-0.45378354
18	0xbec50bf2	-0.38485676
19	0x3ec49505	0.38394943

model.args_proj.proj.1.weight f4 [1, 20]
0	0x3d0392fe	0.032122605
1	0x3c1d7a87	0.009611732
2	0xbe3ec3c9	-0.18629374
3	0xbe7c0fbe	-0.2461538
4	0xbde13474	-0.10996333
5	0x3e459195	0.19293816
6	0x3dfe88c7	0.12428432
7	0xbdcafb64	-0.0991123
8	0xbd1377fe	-0.036003105
9	0x3e7a8390	0.2446425
10	0xbde1501f	-0.1100161
11	0xbe294fb3	-0.16534309
12	0xbe3e61ef	-0.18592046
13	0xbcc1aa7f	-0.02364087
14	0xbe3cd66f	-0.18441175
15	0x3df61109	0.12014968
16	0xbdd95a3a	-0.106129125
17	0x3dd443db	0.10364505
18	0xbe0f66b5	-0.14004023
19	0xbded8986	-0.11598496

model.args_proj.proj.2.weight f4 [1, 20]
0	0x3e8058ee	0.25067848
1	0xbe73fc09	-0.23826613
2	0x3e370f0a	0.1787683
3	0x3e3fcc8c	0.18730372
4	0xbe7f66b8	-0.24941528
5	0x3c158ad8	0.009127341
6	0x3dd17d2d	0.102289535
7	0xbd96d578	-0.07364935
8	0xbe1f1263	-0.15534358
9	0xbe094f20	-0.1340909
10	0xbe1668e0	-0.14688444
11	0xbe8b31be	-0.27186388
12	0x3df93421	0.12168146
13	0xbe81e30c	-0.25368536
14	0xbe81782d	-0.25287
15	0x3db295b7	0.08719962
16	0x3e2a526d	0.16633005
17	0x3e72baaf	0.23704027
18	0x3e583ac4	0.21116167
19	0xbde9938e	-0.11405097
