generate_forecasts/output/Local_Forecasts/Food purchased from restaurants/2025/models/SimpleFeedForward/W0/gluon_ts/prediction-net-state.pt (torch, 34030 bytes, 7 tensors)

model.nn.0.weight f4 [20, 32]
000000 bb 75 b6 3d 76 d1 30 3d a8 48 b8 bb 64 7f 8e 3d
       0.08909174 0.043168508 -0.0056238957 0.069578916
000010 22 f3 d4 3d 8a 7f cd 3d 48 cd b2 3d 78 cd 15 3d
       0.103979364 0.10034092 0.087305605 0.036572903
000020 7f a4 29 3d 58 53 6b 3d 8b d7 f3 3d 45 8a a0 3b
       0.04141664 0.05745253 0.11906346 0.0048992955
000030 1f 3e 00 3d 57 09 c4 3d 81 c4 85 3d 56 9c e3 3d
       0.031309243 0.09572094 0.06531621 0.11113803
000040 9c 27 ef 3d 9a fc f6 3c a8 38 ee 3b 5e 63 1d 3d
       0.11677477 0.030149747 0.0072699375 0.038424842
000050 e9 de cd 3d c4 f7 bc 3d a0 1a 8f 3c b1 d7 ca 3d
       0.10052282 0.09226945 0.01746875 0.09904421
000060 f6 55 ce 3d 18 66 d2 3d 72 06 81 bb 78 d6 43 3d
       0.100749895 0.10273379 -0.003937536 0.047811955
000070 22 4e 23 3d b8 f1 d8 3b d1 4f e9 3d af 1d 7c bb
       0.039869435 0.006620612 0.11392177 -0.0038469841
000080 1f 91 e2 bc 20 16 4f bd f0 6e fe 3c d6 f6 66 3a
       -0.02765709 -0.05055821 0.031058758 0.0008810585
000090 52 3d 3d 3d 6f a8 86 3c 19 0e 9e 3c fa a6 80 bd
       0.046201058 0.016437737 0.019293832 -0.06281848
0000a0 ca d5 aa bc 43 41 92 3d d0 b2 63 bc 3a 68 7d bd
       -0.020853896 0.07141354 -0.013897613 -0.061866976
0000b0 7d e9 47 bd 68 6b 04 3d 8d 62 40 bd b4 06 bc bc
       -0.048806656 0.032328993 -0.046968985 -0.022952415
0000c0 8e 46 2a 3d 3c e0 57 bd e7 a3 83 bd 52 dc d5 3c
       0.041571192 -0.05270408 -0.06427746 0.026106033
0000d0 8d ab 93 3c 99 c4 1e 3d d3 cc b6 3d 20 19 7a bb
       0.018026138 0.03876171 0.08925786 -0.0038161948
0000e0 b0 93 44 3d 19 c2 66 3d 80 cb bd 3b 2b ee ba 3c
       0.04799241 0.05633745 0.0057920814 0.022818645
0000f0 28 8a 3c 3c e9 a4 cf 3d db c2 4f 3d 6b 09 f2 3d
       0.011507548 0.10138876 0.050722938 0.118182026
000100 d2 b0 84 bd cc ee 8a bc 70 10 cf bd 98 ce d4 bc
       -0.06479038 -0.01695957 -0.10110557 -0.025977418
000110 4a 7d 0b bd 4d b8 ce bd 88 ea cc bd 4c 67 e4 bc
       -0.03405503 -0.10093746 -0.10005671 -0.027881287
000120 2d c2 cd bd c4 2a 4c bd 3d 63 b2 bd 3f 6b c9 3b
       -0.10046802 -0.049845472 -0.087103345 0.006146818
000130 5d 44 c2 bd 87 24 a3 bc bf 2f 51 bd 10 3c ab bc
       -0.094856955 -0.019914879 -0.051070925 -0.020902663
000140 c0 82 34 3d ec 77 89 bc af 11 67 3d 0f 03 10 bd
       0.044070005 -0.016780816 0.05641335 -0.035159167
000150 e4 2a 94 3c 7a fc e5 3c 7f b3 9a 3d ed e7 90 3d
       0.018086858 0.028074492 0.075537674 0.07075486
000160 0d 02 a7 b9 46 6f df 3c ff 8b ab 3d ec 17 a8 3c
       -0.0003185425 0.027274739 0.083763115 0.02051922
000170 2d c7 ec 3d a5 33 ae 3d 7b bf c2 3d 0b 02 35 3e
       0.11561427 0.08505944 0.09509178 0.1767656
000180 6b 25 4d bd 03 96 b3 bd db e7 15 bd 30 ad b9 3c
       -0.050084513 -0.08768847 -0.036598068 0.02266559
000190 af 3f 1d bd 5b 14 5b bd 66 4b ae bd 71 fb 1a bd
       -0.03839081 -0.05348621 -0.08510475 -0.03783745
0001a0 22 9c 94 3c 43 e8 01 bc d8 71 af bd 8d c4 87 bc
       0.018140856 -0.007928911 -0.08566636 -0.016573215
0001b0 ca 7c 7e bd 21 36 45 bd fd ff 16 bd 0c db 38 bd
       -0.062130727 -0.048147324 -0.036865223 -0.045130774
0001c0 61 57 b5 bd 9c 3c 4e 3b 7f fb 22 bc 22 06 5d bd
       -0.08854557 0.0031469231 -0.009947657 -0.053960927
0001d0 5d 75 86 bb 0c c0 04 bd 85 e5 48 3c b9 1e de 3d
       -0.0041033463 -0.032409713 0.012261753 0.10845704
0001e0 2a 89 d3 3d 8a d6 36 3d 07 34 c5 3d b5 36 75 3d
       0.10328896 0.044638194 0.09629064 0.059866626
0001f0 67 61 ef 3d 70 bf e6 3d 24 84 92 3d 16 bd d3 3d
       0.116885 0.112669826 0.0715411 0.103388
000200 57 49 2f ba 1f a3 bc 3d ee 56 cd 3d 68 2e cb 3c
       -0.00066866487 0.092108004 0.10026346 0.024802402
000210 2a 18 b8 3c a6 c4 33 3d de c7 19 bb 02 7b b8 bb
       0.02247246 0.04388871 -0.0023465077 -0.005629898
000220 c5 37 b4 3c bd 28 f1 3c 79 1c b0 3b fd 18 ec 3d
       0.02199925 0.02943837 0.005374488 0.11528204
000230 16 bb f6 3d a1 c6 aa 3d 07 2b d7 3c 8e 74 3c 3c
       0.120474026 0.08338667 0.026265634 0.011502398
000240 ef 27 03 3b 59 89 e7 3d 05 a5 76 bc 16 ee ec 3c
       0.0020012816 0.11305494 -0.015053992 0.028922122
000250 3d ba db 3d 11 24 e8 3b 52 32 76 3d 34 5e 9f 3d
       0.107288815 0.0070843776 0.060106583 0.0778164
000260 cc dd d0 bb 3e cb c8 3c c1 1e f7 3d 15 ca 1e 3c
       -0.0063740965 0.024510976 0.12066413 0.009691735
000270 e7 d0 4b 3d d9 60 dd 3d f8 7b a7 3d 45 db ff 3c
       0.04975977 0.10809488 0.08177942 0.031232486
000280 80 dd 74 3d 4f a6 c0 3d 17 1e 20 3d 72 f9 3a 3d
       0.05978155 0.09406721 0.039091196 0.045648046
000290 a3 a7 b2 3d 0a f5 d5 3d ae 6a bf 3c 88 94 04 3c
       0.087233804 0.10447128 0.023366299 0.008092053
0002a0 64 7a 5f bb 1e 7c 80 3d 19 a6 b5 3d f3 5c eb 3c
       -0.003410005 0.062736735 0.08869571 0.028730845
0002b0 7e a1 d0 3d 11 3f c0 3c b3 63 95 3d e4 35 ff 3c
       0.10187052 0.023467572 0.07294407 0.031153627
0002c0 dd 20 dd 3d e2 a4 b7 3d c1 87 84 3d 82 c5 b0 3d
       0.10797284 0.08966996 0.064712055 0.086314216
0002d0 cc 3f 8b 3c f6 89 ae 3c af b2 58 3d 67 83 44 3d
       0.016998194 0.02130602 0.05290478 0.047976878
0002e0 85 f6 e9 3d fe fa 19 3d 19 66 19 3d 79 fe a9 3d
       0.11423973 0.03759288 0.037450884 0.0830049
0002f0 bf a4 aa 3c 25 76 4b 3d 4e 1c 33 3d 3b f3 a3 3d
       0.02083051 0.04967322 0.043728165 0.08005377
000300 f4 33 10 bc 68 96 2c bc d8 cd db 3d 78 98 d7 3d
       -0.008801449 -0.0105339065 0.10732621 0.10527128
000310 e5 be ed 3c 6e 24 cb 3d e2 45 2a 3c a8 ab 04 3e
       0.02902169 0.09919058 0.010392638 0.12956107
000320 66 f6 88 3d f7 e3 03 3e ed d7 9e 3d 27 0b 44 3d
       0.06687622 0.1287993 0.07756028 0.0478622
000330 9c 55 12 3d 22 a5 1e 3c d4 34 25 3d f5 7e 06 39
       0.035726175 0.009682925 0.040333584 0.00012826531
000340 3f e4 f3 3d 33 bd 92 3d b0 a3 2e 3d 6a 36 8b 3d
       0.11908769 0.07164993 0.042636573 0.06797488
000350 53 55 fa 3d 66 db 1f 3d 83 48 bd 3d ed 8d 01 3e
       0.122233056 0.039027594 0.09242346 0.12651797
000360 db 72 f6 3d e0 b0 b5 3d f3 61 fd 3c 18 ca 32 3d
       0.12033626 0.08871627 0.030930495 0.043649763
000370 bb 9d ca 3d 4e 72 b4 3c 56 64 9c 3d 99 41 4e bc
       0.09893366 0.022027161 0.07636325 -0.012588882
000380 d9 19 3f 3d 41 2b e9 3c 34 a7 ab 3c 14 82 b3 3c
       0.04665551 0.028463008 0.020953752 0.021912612
000390 a8 44 34 bc a9 a6 9c 3d 93 ee 34 3d a8 8d e4 3d
       -0.011002697 0.076489754 0.044172835 0.11159831
0003a0 8f 41 18 3d c3 df a1 3d d7 b3 c7 3c 17 c2 51 3d
       0.037171897 0.07904007 0.024377747 0.05121049
0003b0 37 d2 d3 3c 0c e7 8b 39 c1 1f e7 bb 4d 44 bc 3d
       0.025857074 0.0002668429 -0.007053346 0.09192715
0003c0 6d 0b 9e 3d 6f 1e e6 3c 33 19 e7 3b 71 61 df 3d
       0.07717023 0.028090684 0.0070525645 0.10907257
0003d0 65 66 b4 3c e6 24 05 3e 90 61 06 3e 0c 71 e4 3c
       0.022021482 0.13002357 0.13123155 0.027885936
0003e0 6d 24 6a 3d b4 a8 08 3e ca 74 85 3d d4 f9 13 3d
       0.057163645 0.13345605 0.06516416 0.036126927
0003f0 46 81 05 3c 7c 90 cb 3d 0e 81 81 3d 61 6f ac 3b
       0.008148497 0.099396676 0.06323443 0.005262301

model.nn.0.bias f4 [20]
000000 04 60 5b 3d cf 90 b5 3c f3 be 89 3d ad 0d 30 3d
       0.053558365 0.022163777 0.06725874 0.042981792
000010 6e c7 45 3d d0 ea 59 3d 9b 37 71 3d dd 6e 84 3d
       0.048285894 0.05320245 0.05889092 0.06466458
000020 ef 67 45 3d d4 6b 67 3d 37 6f 08 bc 02 03 26 3d
       0.048194822 0.056499317 -0.008327297 0.040530212
000030 69 aa 12 3d 00 00 00 00 fa 2b 79 3d 03 46 a1 3c
       0.035807047 0.0 0.060832955 0.019686705
000040 51 5f 9a 3d cf a3 2f 3d f3 f2 5b 3d a6 74 31 3d
       0.075377114 0.04288083 0.05369849 0.043324135

model.nn.2.weight f4 [320, 20]
000000 33 06 f5 bd c4 d7 c6 bd 54 5c 79 3e b5 70 2c 3e
       -0.11964073 -0.09709123 0.24351627 0.1683987
000010 1f 2b d6 bd 18 70 bd bd e1 c0 4a bc 9c cf ce bd
       -0.104574434 -0.09249896 -0.0123750875 -0.10098192
000020 d2 7a 04 be a1 49 6c bd 20 39 3c bd f5 09 a6 bd
       -0.12937477 -0.057687405 -0.045952916 -0.08107368
000030 5e 79 9e 3e 92 50 1c bc 74 75 40 bd 80 20 02 bc
       0.3095197 -0.009540694 -0.046987012 -0.007942319
000040 54 5c 19 be b5 57 63 bd 0a 35 ee bd 55 80 82 bd
       -0.14976627 -0.055503566 -0.1163121 -0.06372134
000050 f6 85 0e 3e f9 74 35 3d 10 24 10 be e7 3a 46 be
       0.1391829 0.044301007 -0.14076257 -0.19358407
000060 71 f5 07 3e fd 60 ea 3d ca 12 2b 3e ad 50 02 3d
       0.13277222 0.1144428 0.16706386 0.03181522
000070 b6 69 13 3e 9a e5 5b 3d 1b 5d 83 bd 5c 52 2d 3e
       0.14395794 0.053685762 -0.06414243 0.16925949
000080 af 15 4c be af f7 dc 3c 2e 0c d5 3d 8e bb 52 bd
       -0.19930147 0.026973573 0.10402714 -0.051448397
000090 71 f1 c7 3d a3 47 28 3d ea 2c 31 3e 29 d3 1e 3e
       0.09762848 0.041083943 0.1730229 0.15510239
0000a0 e6 3f d2 bd 58 d9 66 bd 98 4e 71 bd 43 3d ab bd
       -0.10266094 -0.05635962 -0.058912843 -0.08361294
0000b0 fd 18 92 bd 16 80 37 bd f1 07 0b be 0e e1 c5 bd
       -0.071336724 -0.044799887 -0.13577248 -0.096620664
0000c0 e0 50 43 bd 94 40 4c bd f2 34 fa bc b4 6e b8 bd
       -0.04768455 -0.049866274 -0.030542824 -0.0900549
0000d0 de c0 84 bd 6c e8 e7 3b 3d d8 7b bd b3 77 f9 3a
       -0.06482099 0.0070772674 -0.061485518 0.0019032866
0000e0 f6 76 63 bd 16 ac f4 bd 30 3c fa bc e1 ed 79 bd
       -0.055533372 -0.11946885 -0.030546278 -0.061017875
0000f0 9d c7 d8 bd 13 f5 cc bd 28 0a b8 3c b8 5f 20 bd
       -0.10584948 -0.10007682 0.02246578 -0.039153785
000100 e2 f7 a9 bc 1e 36 fb bc 1b 58 d9 bd 2f 5c 1f bc
       -0.020748083 -0.030665454 -0.10612508 -0.009726568
000110 72 74 0c bd d2 f2 6d bd 8e 6e 84 3d c8 dc fb bd
       -0.03429074 -0.0580929 0.06466399 -0.1229797
000120 f8 71 2e bc fc 25 9c 3b 26 ec b0 bd 6e cc 1a bd
       -0.010647289 0.0047652703 -0.08638792 -0.037792616
000130 3c f6 8d bd f9 ac 3a bd f7 58 c9 bc 9e 7d b9 bd
       -0.06931731 -0.045575116 -0.024578555 -0.09057163
000140 0a c2 7b bc 86 0f 1f bd 0e 75 99 bd ca 29 28 be
       -0.015366087 -0.038833164 -0.074930295 -0.16422191
000150 7f b6 89 3d 52 eb bd 3d d7 f2 b0 3d c0 34 e8 3c
       0.067242615 0.092733994 0.08640068 0.028345466
000160 d1 35 da 3c 44 d5 9c 3d 3a 2b 10 bd 5f ad 3e 3d
       0.02663699 0.07657865 -0.035197474 0.04655206
000170 7b 28 93 be e1 03 ca bc d9 04 a8 3d c4 49 36 bd
       -0.28741822 -0.024660053 0.082040496 -0.044503942
000180 26 7e 0e 3d 20 b4 f8 bc 47 e0 cb 3c af 11 35 3d
       0.034788273 -0.030359328 0.024887217 0.044206318
000190 47 56 23 3b 04 a5 b0 3d 80 14 c0 3d 44 8f e2 3c
       0.0024923251 0.08625224 0.0937891 0.027656205
0001a0 e9 fb 0b 3d d0 81 63 3c 05 a6 82 3c 66 09 3c 3d
       0.034175787 0.01388593 0.015948305 0.0459074
0001b0 dc 98 b8 bc 81 cb 96 bc 1b d2 9d 3d 91 96 e8 3b
       -0.022533827 -0.018407585 0.0770609 0.007098027
0001c0 73 ce ff 3d dc 57 cc bc 48 6f e1 bc 4c 71 53 3d
       0.12490549 -0.024944238 -0.027518883 0.05162172
0001d0 f1 89 b0 bc b3 c1 77 3c 84 1a bb 3d 63 08 9b 3c
       -0.02155015 0.015121865 0.09135917 0.018924898
0001e0 d8 6a 66 bc 3d 83 1a 3d 24 ab 25 3e 0a ca 35 3e
       -0.0140635595 0.037722815 0.16178566 0.17752853
0001f0 5b 99 c8 bc c8 fd 0b bd de 2b 53 3d a7 c0 25 bc
       -0.024487188 -0.03417757 0.051555507 -0.010116733
000200 b4 6f 66 bd cf 98 6c bd 88 04 55 3c 2a d7 29 bd
       -0.056258872 -0.057762917 0.013001569 -0.041464962
000210 9a c7 74 3e 7a 47 ec ba 7d b4 6b bd 71 5b b1 bb
       0.23904267 -0.0018026673 -0.057545174 -0.005412512
000220 5c 9b 2c 3d 8c 91 e2 3c f6 58 83 3d d7 a7 11 bd
       0.04214035 0.027657293 0.06413452 -0.035560455
000230 6f ea 33 bd 91 75 93 bd f1 55 77 bd 69 46 21 be
       -0.043924745 -0.072001584 -0.060384694 -0.15749516
000240 24 27 cc 3c 38 ab 61 3c 02 ba 87 3d 50 fa 99 3d
       0.024921007 0.013773732 0.06627275 0.075184464
000250 09 54 52 3d eb 41 ca bc fd fb 12 bd 5e b6 23 bc
       0.051349673 -0.024689635 -0.035884846 -0.00999221
000260 01 ab 74 be 89 1b 19 3c 33 08 63 3d 47 4a d9 bd
       -0.23893358 0.009344944 0.05542774 -0.106098704
000270 11 a5 36 3d ce 44 71 3c 7d 3d 73 bd 86 20 6c bd
       0.044591013 0.014725877 -0.05938481 -0.057648204
000280 83 f1 c3 3d 4d 26 36 3d aa 48 df bd 5f b3 1c be
       0.09567549 0.04447012 -0.109025314 -0.153028
000290 fb 7a b0 3d 26 19 a2 3c 40 61 a0 3d 93 1c a3 3d
       0.08617207 0.019787382 0.07831049 0.079644345
0002a0 c5 19 9f 3d 5a 1c b3 3c 4b a8 19 bd 88 52 16 3d
       0.07768587 0.021864105 -0.037514012 0.0366998
0002b0 26 0e 79 be be 9a 01 bd df 17 17 3e 0d 6a b6 bd
       -0.24321803 -0.031641714 0.147552 -0.08906946
0002c0 94 1d ab 3c 4f 75 a6 3d 1b 00 d7 3c 6f d1 6b 3c
       0.020888127 0.081278436 0.026245167 0.014393195
0002d0 4a fb f9 3d 4b ee e8 3d 4c b5 cd 3d 71 89 05 3d
       0.12206133 0.11373576 0.10044345 0.032601777
0002e0 4d 6a a1 3d 10 45 0d 3c b2 3d b6 3a 4f 7a c0 3d
       0.078816034 0.008622423 0.0013903885 0.093983285
0002f0 c0 b3 d8 3c d4 2a 9e 3d ff 33 1a 3d 69 3a 48 3d
       0.026452899 0.077230126 0.037647244 0.04888383
000300 59 45 1f 3e fc 30 c1 bb 61 14 e3 3b 6f 4f 8f 3d
       0.15553798 -0.005895732 0.0069299196 0.06997573
000310 19 98 c2 3d f3 fe 01 3e 59 f5 86 3d 4e 40 7f 3d
       0.095016666 0.12694912 0.06589765 0.062317185
000320 4d a1 d2 3c 98 56 da bc 09 99 c6 bd 7d 39 ad bd
       0.02571168 -0.02665262 -0.09697158 -0.08458231
000330 37 5d ad 3c b6 41 25 3d ca 65 13 3d 34 74 1f 3d
       0.021162612 0.04034587 0.035985745 0.03892918
000340 5e ef 9f 3d 8d 39 23 bd 5c 55 2c 3d 3b 66 2c ba
       0.078093275 -0.039849807 0.042073593 -0.0006576513
000350 96 09 33 be 2a 60 00 bd 12 ba 9d 3c 60 ff 22 bd
       -0.17484125 -0.03134171 0.019253764 -0.039794326
000360 95 1e 57 3d 3a 49 82 3d 0e 79 75 bc 99 94 9d 3d
       0.0525194 0.06361623 -0.014982475 0.076943584
000370 20 51 f6 3c c9 d9 a4 3c 80 46 27 be c2 bc 10 be
       0.03006798 0.02012338 -0.16335487 -0.14134505
000380 4c 7e 8a 3d 24 ac ef 3c fc 4e 84 bc 3b 09 c3 3d
       0.067623705 0.029256888 -0.016150944 0.09523245
000390 26 3b b4 3d 00 67 0f 3c e3 87 9c bd e4 78 d9 ba
       0.08800344 0.008752584 -0.07643106 -0.0016591814
0003a0 d9 0a 73 be f5 d2 86 bc 7e f9 40 3d a4 9c 77 bd
       -0.23734607 -0.016458014 0.047112934 -0.06045212
0003b0 e7 66 f1 3d a0 f9 a8 bc 7c f4 59 bb 0d fb 8b 3d
       0.11787205 -0.020626843 -0.0033257296 0.068349935
0003c0 9e 25 5b 3c 38 90 c9 bd 47 a9 d6 bd f9 59 e2 bd
       0.013375668 -0.09841961 -0.10481506 -0.11052317
0003d0 05 1f c7 bd b7 ad a3 bd 7e 6c c3 bd 78 1a ea bd
       -0.097227134 -0.07992118 -0.095421776 -0.1143083
0003e0 bb 98 98 bd 6c a4 de bd 19 67 67 3d 54 8e c4 bd
       -0.07451006 -0.10871205 0.056494806 -0.095974594
0003f0 f6 4d 54 be 29 46 9d 3c 23 16 a7 bd 09 20 ee bd
       -0.20732865 0.019198494 -0.08158519 -0.11627204

model.nn.2.bias f4 [320]
000000 ec ce 63 bd 63 ea d7 3d 26 6e 6f bd be 18 5c bd
       -0.055617258 0.105427526 -0.058454655 -0.053734533
000010 ae ca 3c 3c 04 f9 c5 3c 63 d0 24 3c a0 2e 8b bc
       0.011522932 0.024166591 0.010059449 -0.016990006
000020 37 bd 3c 3d e4 9f 40 3d 84 76 e6 bb e8 cf a6 3b
       0.046078887 0.047027484 -0.007033171 0.0050907023
000030 27 e3 46 bd 4d c9 82 3d 76 29 86 3a ac 39 6e 3c
       -0.048556473 0.06386051 0.0010235745 0.014540117
000040 08 31 9c bd ae 0c 3f bc 85 99 96 bd a7 f8 23 bc
       -0.076265395 -0.011660738 -0.073535 -0.010008014
000050 1a 4e 67 bd d4 ac e1 3d 93 3a 77 bd b8 d9 61 bd
       -0.056470968 0.110192925 -0.060358595 -0.055139273
000060 4f 2c 4b 3c e9 63 c5 3c a7 f0 1e 3c 88 ca 87 bc
       0.012400701 0.024095492 0.009700931 -0.016576067
000070 8a 67 48 3d d1 fd 42 3d d7 92 c5 bb 40 e6 b6 3b
       0.048926868 0.04760534 -0.0060294676 0.005581647
000080 57 3b 4a bd a7 dd 86 3d ae 89 bb 3a 5b c0 63 3c
       -0.049372997 0.065852456 0.0014308 0.013900842
000090 09 13 a4 bd 90 05 4c bc b7 ba 9e bd 10 23 14 bc
       -0.08011443 -0.012452498 -0.07750457 -0.009041563
0000a0 76 22 74 bd 9c 32 da 3d 22 64 6b bd e8 1e 57 bd
       -0.059603177 0.10654184 -0.05746854 -0.05251971
0000b0 5a 4d 88 3c 68 0c ae 3c d1 61 c3 3b 18 51 5a bc
       0.016638447 0.02124615 0.0059625884 -0.013324998
0000c0 20 68 63 3d ce da 39 3d c9 09 25 bb ea ff 1d 3c
       0.055519223 0.045374684 -0.0025182834 0.009643534
0000d0 a2 77 40 bd 32 77 8a 3d 57 73 ac 3b f2 79 2f 3c
       -0.04698909 0.06761016 0.005262773 0.010710226
0000e0 99 bc 9b bd 63 f1 88 bc b7 f4 95 bd 40 7b b6 bb
       -0.076043315 -0.016716665 -0.07322066 -0.0055688918
0000f0 f7 d5 5f bd a5 77 d5 3d 17 a7 6a bd fa b3 57 bd
       -0.054647412 0.10423211 -0.057288256 -0.052661873
000100 4f 73 3f 3c d8 50 bf 3c 5e 67 16 3c 39 0a 84 bc
       0.011685207 0.023353979 0.009179918 -0.016118156
000110 47 10 3f 3d 97 25 3c 3d 65 b5 c9 bb b6 30 af 3b
       0.046646383 0.045934286 -0.006155657 0.005346383
000120 2f 53 42 bd e3 2f 80 3d 8f 9f a9 3a 43 e6 5f 3c
       -0.04744261 0.06259134 0.0012941229 0.0136657385
000130 65 94 99 bd f9 93 41 bc 57 3b 94 bd e4 d8 19 bc
       -0.07499007 -0.011815065 -0.07237881 -0.00939009
000140 3e ae 62 bd d3 b5 d7 3d c5 24 70 bd 3c 06 5d bd
       -0.05534195 0.10532727 -0.058628816 -0.053961024
000150 cd 18 3e 3c 7b 48 c7 3c 18 7b 21 3c 11 ae 8a bc
       0.011602593 0.024326554 0.009856008 -0.016928704
000160 c7 1a 42 3d 63 61 41 3d ef 10 dc bb 3a d8 a9 3b
       0.047388818 0.047212016 -0.006715886 0.005183247
000170 67 d9 47 bd e1 bc 81 3d 3a 0d 8a 3a 04 46 69 3c
       -0.048791315 0.06334854 0.0010532506 0.014237884
000180 c4 62 9c bd 8e 84 41 bc 60 cb 96 bd e7 9b 22 bc
       -0.076360255 -0.011811389 -0.073630095 -0.009924865
000190 5b ea 83 bd f9 3f d7 3d 50 86 5a bd b5 a3 46 bd
       -0.06441184 0.10510249 -0.053350747 -0.048495967
0001a0 7a 00 b0 3c ab 1d 89 3c cd 2c 90 3a f2 e2 10 bc
       0.021484602 0.01673778 0.001099968 -0.0088431705
0001b0 f2 7f 87 3d 4d 1d 2b 3d e8 9a f3 3a 98 53 6f 3c
       0.066162005 0.04177599 0.0018585594 0.014607333
0001c0 8c 33 31 bd 38 eb 91 3d 02 bb 27 3c 8b 86 cc 3b
       -0.04326205 0.071249425 0.010237457 0.0062416247
0001d0 bb 2c 92 bd 7c e4 b1 bc da 67 8b bd a0 d1 71 ba
       -0.07137438 -0.021715395 -0.068069175 -0.0009224657
0001e0 45 9c 58 bd bf a4 bb 3d 9b f1 5d bd 98 56 4b bd
       -0.052883405 0.09162282 -0.05418549 -0.04964313
0001f0 22 76 3c 3c cf 90 ac 3c 72 5f 00 3c 12 f0 72 bc
       0.011502774 0.021065144 0.007835256 -0.014827745
000200 52 5b 34 3d 24 88 32 3d 26 9f be bb 8c 5c c5 3b
       0.044032402 0.043586865 -0.005817312 0.0060229953
000210 a5 49 38 bd 9f a5 6d 3d cf b5 1a 3b 5f 55 4f 3c
       -0.044992108 0.058019277 0.0023606902 0.012654631
000220 a6 5e 92 bd 2b 5c 40 bc 58 a8 8b bd 28 f8 0b bc
       -0.07146959 -0.011740725 -0.068192184 -0.008543052
000230 a5 24 63 bd 3e 8c cb 3d 60 19 6b bd c6 68 57 bd
       -0.05545487 0.099388584 -0.057397246 -0.052590154
000240 b4 83 4d 3c 1c 68 b9 3c f5 05 04 3c 2a ec 81 bc
       0.0125436075 0.022632651 0.008058061 -0.015859682
000250 fd 0d 47 3d 7b 71 3d 3d 57 a1 b9 bb a7 ee d9 3b
       0.048597325 0.0462508 -0.005664985 0.006650764
000260 c7 47 44 bd 34 ac 7a 3d 6d 4f 32 3b c7 d1 5a 3c
       -0.047920015 0.061199382 0.0027207986 0.013355679
000270 d3 37 9a bd af 39 53 bc fb 04 93 bd ee 4a 0f bc
       -0.07530179 -0.012892171 -0.07178684 -0.008745892
000280 0b 76 61 bd bc 10 c8 3d 7d 3c 73 bd d2 73 5e bd
       -0.055044215 0.09768817 -0.059383858 -0.054309674
000290 2d de 47 3c d2 5c be 3c 01 8b 0f 3c ce 6c 82 bc
       0.012198967 0.02323762 0.008761168 -0.015921023
0002a0 87 5e 43 3d 72 43 41 3d 92 35 c2 bb 92 23 c5 3b
       0.04769757 0.04718346 -0.0059267962 0.006016203
0002b0 da 54 48 bd 80 31 7d 3d 95 1a 08 3b d8 34 5f 3c
       -0.048909046 0.061814785 0.0020767797 0.013623439
0002c0 3b c6 a0 bd 48 9e 4a bc cc 90 9a bd ab b0 14 bc
       -0.078503095 -0.012366839 -0.07547149 -0.009075324
0002d0 24 3e 6d bd f5 6a cd 3d ba fd 75 bd 17 45 61 bd
       -0.05792059 0.10030166 -0.060056426 -0.05499753
0002e0 15 5d 61 3c 55 06 bf 3c 6c 04 06 3c 4b 87 80 bc
       0.013755103 0.023318449 0.008179765 -0.015689513
0002f0 20 e8 4e 3d b0 43 44 3d 4f 4c ac bb ae 9f ef 3b
       0.05051434 0.047916114 -0.00525812 0.0073127365
000300 06 66 4b bd 42 2c 84 3d a5 c4 50 3b 30 6f 58 3c
       -0.049657844 0.06453754 0.003185549 0.013210103
000310 a7 bd a1 bd 7a e5 64 bc 9b 27 9b bd fe a6 09 bc
       -0.078975014 -0.013970727 -0.075759135 -0.00840163
000320 31 bf 60 bd 2f a0 b7 3d 5b dd 5d bd 1f 6f 49 bd
       -0.054869834 0.089660995 -0.05416618 -0.04917824
000330 d1 42 78 3c 6b 8b 99 3c 9d 61 96 3b 57 5f 44 bc
       0.015152649 0.018743237 0.004589273 -0.011985621
000340 a4 44 4f 3d 69 1a 2e 3d 80 f9 12 bb 7d 48 18 3c
       0.05060257 0.042505655 -0.0022426546 0.009294626
000350 24 7f 34 bd 3f b0 75 3d c4 de b4 3b 0c 32 1f 3c
       -0.044066563 0.059982534 0.00551972 0.009716522
000360 81 36 95 bd 36 05 7c bc 14 70 8e bd df 03 a7 bb
       -0.072857864 -0.015382102 -0.06954971 -0.005096897
000370 66 f4 55 bd ab 39 a8 3d 48 eb 63 bd 57 a8 4f bd
       -0.05223503 0.08214124 -0.055644304 -0.05069765
000380 42 ec 51 3c fa 8b a9 3c 84 49 e0 3b 41 8e 6a bc
       0.012812676 0.020696629 0.0068447012 -0.014316143
000390 21 18 41 3d 5b 8c 34 3d 3a 5c 96 bb 61 b3 e7 3b
       0.04714215 0.044079166 -0.004588631 0.007070944
0003a0 44 f7 3a bd 66 5c 67 3d 9c c9 5b 3b f3 f7 42 3c
       -0.045645967 0.056484602 0.0033536917 0.011899936
0003b0 b4 1b 98 bd c8 09 55 bc 4d 61 91 bd 7b d0 f0 bb
       -0.07427159 -0.01300282 -0.07098637 -0.0073490716
0003c0 80 76 66 bd 36 fc b7 3d 4a 49 5f bd 7f d9 4a bd
       -0.056265354 0.08983652 -0.054513253 -0.049523827
0003d0 8e 04 8a 3c 30 25 96 3c 84 f5 6d 3b 84 f0 34 bc
       0.016847875 0.01832828 0.0036309669 -0.0110436715
0003e0 37 fc 5c 3d ae 36 2e 3d e3 06 6d ba cb 1f 2f 3c
       0.05395147 0.042532615 -0.0009041859 0.010688732
0003f0 9f 8f 34 bd 66 2e 7b 3d bf 2f dd 3b 93 c9 0b 3c
       -0.04408228 0.061323546 0.0067500765 0.008531946

model.args_proj.proj.0.weight f4 [1, 20]
000000 01 eb 3e 3e 69 3e 0f 3e f7 da 05 3d b8 2d 9c bd
       0.18644334 0.13988651 0.032679524 -0.07625908
000010 f6 10 67 3e 8c c7 fe 3d 67 17 1c bd 36 1a 64 3e
       0.22565064 0.12440404 -0.038108256 0.22275624
000020 7c 8e 50 3e e3 64 64 be ef 26 93 3e 62 e5 44 3d
       0.20366853 -0.2230411 0.2874064 0.04807032
000030 76 b6 69 3e b2 0c 57 3d fc 79 0b bd c7 18 87 be
       0.2282351 0.05250234 -0.03405188 -0.2638609
000040 8c 46 28 3e 08 fb 36 be d3 41 3c be 9f 71 97 3e
       0.16433161 -0.17869198 -0.18384485 0.29578874

model.args_proj.proj.1.weight f4 [1, 20]
000000 ea 10 04 3d a8 16 fd 3a eb ff 3f be 94 6e 7d be
       0.032242693 0.001930912 -0.18749969 -0.24749213
000010 49 a3 e2 bd b5 a1 47 3e 15 5c 07 3e 3e 66 f0 bd
       -0.110663004 0.1949528 0.1321872 -0.11738251
000020 a6 c9 10 bd 01 5f 7b 3e 7b 07 e4 bd 5e da 2a be
       -0.035348557 0.2454796 -0.11134239 -0.16684863
000030 f6 3c 3f be 23 5a bf bc 40 89 3e be 30 55 01 3e
       -0.18675599 -0.02335841 -0.18607044 0.12630153
000040 4f 79 db bd ce bc d4 3d ca 29 11 be 68 74 f5 bd
       -0.10716497 0.10387574 -0.14176098 -0.11985093

model.args_proj.proj.2.weight f4 [1, 20]
000000 ae 43 66 3e 5d 7e 62 be 53 ea 32 3e f1 8f 3c 3e
       0.22486755 -0.22118516 0.174722 0.18414284
000010 cf b9 61 be 2b 5e 4a 3a 83 d7 ad 3d 83 c9 47 bd
       -0.22043537 0.00077197206 0.08488371 -0.04877616
000020 e6 9b 03 be 6c c7 0a be e7 2b ee bd 7a fa 7a be
       -0.1285244 -0.13552636 -0.116294675 -0.24509612
000030 51 48 f9 3d f9 8d 6b be b6 e6 67 be 48 c3 8b 3d
       0.121719964 -0.23003377 -0.22646603 0.06824356
000040 c9 5a 26 3e 7b 71 56 3e c6 58 4f 3e eb 3a be bd
       0.1624557 0.20941727 0.20248708 -0.092885815
