generate_forecasts/output/Local_Forecasts/Fruit, fruit preparations and nuts/2021/models/SimpleFeedForward/W0/gluon_ts/prediction-net-state.pt (torch, 34030 bytes, 7 tensors)

model.nn.0.weight f4 [20, 32]
00000000: 3037 b63d 0bf8 ff3c bd80 e0bc 830f 4f3d
00000010: 60c1 bd3d 0d47 b73d 1a49 a03d b7a6 2b3d
00000020: 531e 743d 7dfd 9c3d f5bc 073e ff72 173b
00000030: 5dce 9c3c f29f 953d b8f9 1a3d 66ac a93d
00000040: b3d4 b23d e11d 4d3a a0b6 a8bc 80df b43c
00000050: 060f bf3d 6031 bd3d 0753 293c f15a a73d
00000060: dd31 a43d f119 aa3d afc7 aebc 8143 133d
00000070: b397 013d eb0b 8a3b 3e93 e63d c4b7 b83c
00000080: 14e3 cabc 3948 66bd ddef af3c 234d f3ba
00000090: c459 5c3d 0826 c53c a59a e73c 5522 26bd
000000a0: bcb2 4a3c 9433 d43d 98d1 2d3c eefd 63bd
000000b0: 9c54 5dbd e484 a33c 29e7 79bd 1688 11bd
000000c0: 97fc ec3c 4725 88bd 9900 a0bd 3ad5 ac3c
000000d0: 8b91 a63c 145a 213d 751b 9a3d efd6 0cbd
000000e0: 4d6e 043c 9bd9 7a3c 9fbc 08bd b6e2 e2bb
000000f0: bf4c f0bb 60e4 d63d 1851 b03d 4a17 4c3e
00000100: 6d15 7cbd f227 91bc 9d18 d9bd 11bc 00bd
00000110: c70f 22bd 0844 debd 66ef e0bd dffe 3fbd
00000120: 5ef7 84bd 65a2 c3bd 592d 88bd 2f35 77bd
00000130: 8e41 6fbd bfea a6bd f7a1 c4bd 4ece 81bc
00000140: 7c79 303d 4001 303c e109 203d a868 833c
00000150: 20fa 8abc d1a6 b8bc 154f 6bbd 5333 d9bd
00000160: dba8 17be 65f1 f6bd c100 b1bd 2f12 dabd
00000170: 8131 7b3d 985d 093e c2cd 8e3e 0f57 fa3e
00000180: 6829 cbbc ef9b a3bd ca0d 32bd 6e0c 8a3c
00000190: 7049 10bd 7de2 3bbd 8a9d 97bd d816 1fbc
000001a0: 5165 783d 7898 343d f0ca 02bd a331 cb3c
000001b0: 3186 0abd bbe7 22bd 1d25 2bbd f83f 6cbd
000001c0: 9b0c ccbd 7d9b adbc bf3c 09bd 2ff1 91bd
000001d0: 934e 3dbc 7f85 0dbd b919 b43b 455b b93d
000001e0: 29a8 943d 8d9c 083c eed5 533d ddd8 a73c
000001f0: 447d af3d 4a1d d13d abc7 cb3d 4472 3e3e
00000200: 4a50 993c db40 bf3d 7f46 ac3d 6115 873b
00000210: a098 b5b9 9cc0 403c bc90 22bd 4bc1 00bd
00000220: 9846 ae3b 4444 b13c 8e5a b93b d608 eb3d
00000230: 2630 f73d 828e a43d 0f9a ab3c fa0c 093b
00000240: fa85 87bc dc7a ab3d cd3e 54bd 862e 6fbb
00000250: 983b 9b3d 9761 57bc 306e 1e3d 93cc 643d
00000260: 2fb7 aabc 3766 923c 9406 f63d 7ade 953c
00000270: 09a2 713d e81c ea3d 0c0d 8f3d e404 963b
00000280: 40ab 953d 3e51 b33d 05d5 983c 7add c23c
00000290: e479 893d 2bb8 a23d 6416 95bb 998f 0cbc
000002a0: c214 edbb cca6 913d ce49 d93d 1473 263d
000002b0: 95bd dd3d 3cda a53c 8fde 823d be85 973c
000002c0: 965e b63d c421 803d 7d5e ef3c d564 613d
000002d0: c1bc f2bb 2fb0 0d3c 15e5 2e3d b02f 163d
000002e0: 5dff d33d 1a25 e93c a515 073d 91f8 b53d
000002f0: 6383 e23c 806c 5a3d 82c3 053d 7873 673d
00000300: dc3b 6fbc d018 9fbc e4a3 c33d c298 c43d
00000310: 22fe bb3c d55b af3d 4c57 60bb 1318 063e
00000320: bef2 a43d 63f4 0b3e 0c9a 943d ddcf b93c
00000330: 7040 2b3b 0ddf dcbc 1070 e53b 1ff5 f1bc
00000340: 7406 af3d fc9a 063d a8f9 b63b 8750 443d
00000350: e5df e83d e5c0 0e3d cdce 9a3d 6464 c73d
00000360: 4417 bb3d 714f 8c3d dc85 b63c fbd0 2f3d
00000370: d14d c63d 3318 993c 2673 763d e95d f03b
00000380: b29f d93c 11a1 afbb 12fd 8bbc 6e33 d8bb
00000390: b613 cdbc a586 853d 8a35 213d 2635 f63d
000003a0: 747b 693d 3c6b c63d ff8d f23c d168 033d
000003b0: e6e7 4bbc 4811 58bd 9d5a 84bd 745b 333d
000003c0: 2f2c 213d 880b b7bb 671f abbc cfd3 c43d
000003d0: 3568 a83c 8e83 123e f110 0b3e 2f67 873c
000003e0: 22a2 063d 12fb d13d 3a20 0f3d 878b 523c
000003f0: 59e3 33bc 1bf9 b63d 44e5 5c3d 34c0 ca3c
0.08897245 0.031246206 -0.027405137 0.050551903 0.09265399 0.08949099 0.07826443 0.04190704
0.059599232 0.076655366 0.13255675 0.0023109314 0.01914137 0.07305898 0.037835807 0.082848355
0.087319754 0.00078245817 -0.020594895 0.02207923 0.09329037 0.09237933 0.010334737 0.081716426
0.08017323 0.08305729 -0.021335451 0.03595305 0.031638812 0.0042128465 0.11258553 0.022548564
-0.024766482 -0.05622122 0.02147668 -0.0018562417 0.053796545 0.024065986 0.028271982 -0.040560085
0.012371715 0.103614 0.010609053 -0.055662088 -0.054035768 0.019960828 -0.061011467 -0.035530172
0.028929038 -0.06647735 -0.07812614 0.021097768 0.020333072 0.039392546 0.07524768 -0.034384664
0.008082938 0.01531067 -0.033383008 -0.0069239987 -0.0073333676 0.10492778 0.086092174 0.19930759
-0.06154387 -0.017719243 -0.10600398 -0.031429354 -0.039565828 -0.1085282 -0.10983162 -0.046873923
-0.06492494 -0.09552459 -0.066492744 -0.060353454 -0.058412127 -0.08150243 -0.09601205 -0.015845444
0.043084607 0.0107424855 0.03907192 0.016041115 -0.016964972 -0.022540482 -0.057448465 -0.106054924
-0.14810507 -0.12057761 -0.08642722 -0.106479995 0.061326507 0.1341461 0.27891356 0.48894545
-0.024800017 -0.07988726 -0.04347018 0.01685163 -0.035226285 -0.045870293 -0.07403095 -0.009710036
0.060643498 0.044090718 -0.031931818 0.024803942 -0.03381938 -0.039771777 -0.04178344 -0.057678193
-0.09963342 -0.021192307 -0.033505198 -0.0712608 -0.011554378 -0.03455114 0.0054962304 0.090506114
0.072586365 0.008338106 0.05171769 0.02048915 0.085688144 0.102106646 0.09950193 0.18598276
0.018715043 0.09338542 0.084118836 0.0041224216 -0.00034636725 0.011764672 -0.03968881 -0.03143434
0.005318474 0.021638997 0.005656547 0.11476295 0.120697305 0.08034994 0.020947484 0.0020912276
-0.016543377 0.08373043 -0.051817704 -0.0036496236 0.07579726 -0.013145826 0.0386793 0.05585916
-0.020839302 0.017871005 0.120129734 0.018294562 0.05899242 0.11431295 0.0698491 0.0045782197
0.07308054 0.0875573 0.018656263 0.023787249 0.06712702 0.079452835 -0.0045497883 -0.008579158
-0.0072351405 0.07111892 0.1060978 0.04063709 0.108271755 0.020245664 0.06390106 0.01849639
0.089047596 0.0625644 0.02921986 0.0550278 -0.007407755 0.0086479625 0.04269894 0.036666572
0.10351441 0.028460074 0.032979626 0.08885301 0.02765054 0.05332613 0.032657154 0.056506604
-0.014601674 -0.019421011 0.09552744 0.09599449 0.022948328 0.085624374 -0.003423172 0.13095121
0.08054112 0.13667445 0.072559446 0.022682125 0.0026130937 -0.026961828 0.0070018843 -0.029535828
0.08546153 0.03286265 0.0055839606 0.04792836 0.113708295 0.034851927 0.07558975 0.09735945
0.09135297 0.0685109 0.022280626 0.04292391 0.09682811 0.018688297 0.060168408 0.0073354137
0.026565406 -0.005359777 -0.017088447 -0.006597928 -0.025033813 0.06519822 0.0393577 0.12021856
0.0570025 0.09688422 0.029608725 0.032082383 -0.012445426 -0.052750856 -0.064625956 0.04378839
0.039348777 -0.0055860914 -0.020888997 0.09610712 0.020557502 0.14307997 0.13580681 0.016528694
0.032869466 0.10252966 0.034942843 0.012850649 -0.010979497 0.08934232 0.053929582 0.024749853

model.nn.0.bias f4 [20]
00000000: 2807 383c 941a a63c debe a63e 47c7 3a3d
00000010: 0f90 5fb8 148a 1d3c d6e9 c9ba 4b27 843c
00000020: b423 9539 9433 bd3c 66bb aabb cb8e 2e3c
00000030: d12c bd3d 0000 0000 5017 33bb 9e69 a53c
00000040: b27e 0fbb e407 483c bfb9 9e3c 704e 5e3c
0.011232175 0.020276345 0.32567495 0.045600202 -5.3301508e-05 0.00961544 -0.0015404772 0.016132018
0.00028446096 0.023095883 -0.005210328 0.010654162 0.09237064 0.0 -0.0027327128 0.020191964
-0.0021895585 0.0122089125 0.01937568 0.013568506

model.nn.2.weight f4 [320, 20]
00000000: ea4c f7bd b56d 19bd 4f5b b03e 42db 253e
00000010: 99c6 e6bd 840f c5bd 45a5 5bbc 7246 c6bd
00000020: 034d 03be 4b5b 6abd 1b33 3fbd 273c 98bd
00000030: 445d 8d3e 2b63 7ebb 6844 4dbd f6b2 bdbd
00000040: d141 15be 4abb 51bd bb80 f3bd b974 82bd
00000050: c4ac 1d3e 1868 8b3d 4f2a 56be b8ec 26be
00000060: 53e1 083e d35e 063e 193e 363e efe9 173d
00000070: 890f 263e 11dd 883d fe20 6bbd 515e 3a3e
00000080: 26ac 44be 6ace 363c a529 f73d 2f35 da3c
00000090: 2d81 df3d 21ba 4c3d e6ec 3c3e 9a9d 293e
000000a0: 63a7 d2bd abd7 dcbd 05d3 06be a866 cdbd
000000b0: 7760 82bd 7ec3 2abd b13f 0dbe c622 e3bd
000000c0: 03ad 4ebd bee1 4dbd 2ab1 96bc a4e7 c0bd
000000d0: d075 5dbd 3840 3c3b 8e6b 80bd 1095 39bc
000000e0: 159f 68bd f466 02be bbc4 e5bc 0bf5 81bd
000000f0: b51a dabd 46a8 1abe a6ae 62bd 224b 5dbd
00000100: f668 59bc 6785 e4bc ae83 debd cdf8 c6bc
00000110: eea7 19bd 2e26 71bd 34a2 363d 1ba3 03be
00000120: cff5 313c 47ee fc3a a3c6 b3bd e856 58bd
00000130: 2c83 91bd ca91 59bd 41ed b8bc 801a bfbd
00000140: ce96 6cbc 4173 babd 03a1 63be d49c 1dbe
00000150: 98d4 9b3d ed6a c63d ee1a b13d 17d3 af3c
00000160: db83 ca3c 8a3d 9c3d 5914 00bd 1c7e 2c3d
00000170: 03e3 6dbe 6fc4 26bc 0801 ac3d 8af0 a63c
00000180: e04b ef3c 5d88 0cbd 1941 e53c 645d 383d
00000190: d27d 0b3b cdc0 0b3e 5bfd 443e 43cf 193d
000001a0: f921 cf3c b752 223c abab 763c 8bdc 403d
000001b0: 1fdf a5bc c7f3 97bc 5eab 903d 94e1 303c
000001c0: 45bc a73d d9bb 28bc 283b f6bc 562d e43c
000001d0: 523b 90bc 0076 903c b90e b63d 0476 8d3c
000001e0: 0c4e 62bc c308 af3d 94b8 883e c0c5 373e
000001f0: 6545 07bd c6a4 18bd 9bbc 533d 487a a0bb
00000200: 8e66 5abd 02e8 68bd a54c 1b3c f93c 17bd
00000210: 30f3 373e a0cd 3eba 909d 71bd 6455 34bd
00000220: 334f 473d 8303 013d bfa8 7f3d a904 13bd
00000230: 5d39 2dbd 82ab f1bd c099 2fbe 78a3 25be
00000240: 193c 0d3d 2439 983c 74e1 8b3d 2fd8 903d
00000250: 3ad8 4d3d 9674 c4bc a154 01bd 81ff 53bc
00000260: 2938 3cbe e31e 793b 2e9a 723d 15ec 90bd
00000270: 6c00 273d c3ae 4d3c 1b1e 65bd 732b 63bd
00000280: b11d d63d 616f d0bb 3963 90be 8ba7 0cbe
00000290: 2b78 c83d d54f f13c f0ef 9c3d 7bb5 a63d
000002a0: 43ea af3d 07a9 d53c 57c6 02bd 8191 103d
000002b0: e178 50be 9c5e 57bc 8d0d 223e eeaf 96ba
000002c0: 3655 be3c 2c81 a83d 5806 093d 827b b33c
000002d0: 56a3 f93d 8543 243e b5c3 2e3e 9de7 1c3d
000002e0: 54c5 933d 339a ad3b eea3 343b f7dc cf3d
000002f0: 348d ec3c 0820 9f3d aa07 053d ad2a 583d
00000300: 296f f93d 04a4 1cbb 22a6 d93b 4512 833d
00000310: 3ce4 c43d 72be 043e 9c97 813d 9046 753d
00000320: 4e02 de3c dbcd 9cbd d378 71be 9138 a6bd
00000330: 4f2d fa3c a18c 383d 7c2a 183d e651 073d
00000340: c4ef 9c3d 53fc 21bd 0764 343d d751 8ebb
00000350: 7dba e2bd bb44 55bc 146f b63c 1e8e 133c
00000360: 35f1 433d c0c6 773d 766d 3cbc 0bc1 a03d
00000370: e110 f13c 3560 00bd 4a31 95be fa1e 0abe
00000380: d2b4 9a3d 8fba 023d 9bcc 8ebc 155d b33d
00000390: 1c38 ad3d 3473 eb3b e62f 93bd d14a e8bb
000003a0: 360d 31be abe1 dcbb 2282 423d 0f07 8bbb
000003b0: f714 e23d 15e0 d1bc 27ee edba fada 8a3d
000003c0: 223d 5f3c efc6 14be ce0d 36be 3e68 edbd
000003d0: d767 b9bd 29e4 9cbd 945c c6bd 88b3 fabd
000003e0: f86a 9dbd 1fa3 dfbd b932 633d fd76 ccbd
000003f0: f01a 35be bc2a 013c 37a2 a6bd e2cd e3bd
-0.12075217 -0.03745814 0.34444663 0.16196921 -0.11268348 -0.096221 -0.013406103 -0.09681405
-0.12822346 -0.05721597 -0.046679597 -0.07433348 0.2761022 -0.0038816433 -0.050114065 -0.0926265
-0.14575888 -0.051204003 -0.11889788 -0.06369919 0.15397936 0.06806964 -0.20914577 -0.16301239
0.13367204 0.1312211 0.17797126 0.03708833 0.16216864 0.0668279 -0.05740451 0.18200041
-0.19206294 0.011157611 0.1206849 0.026636688 0.1091331 0.049982194 0.18449745 0.16564026
-0.10285833 -0.10783323 -0.13166435 -0.10029346 -0.063660555 -0.041690342 -0.13793828 -0.11090617
-0.050457966 -0.050264113 -0.018395025 -0.09419182 -0.054067433 0.00287248 -0.062705144 -0.011327043
-0.056792337 -0.12734586 -0.02804791 -0.06345566 -0.10649625 -0.15103254 -0.05534234 -0.05402673
-0.013269654 -0.027895642 -0.1086496 -0.02428856 -0.037513666 -0.0588743 0.044588283 -0.12855189
0.010861828 0.0019297086 -0.08778121 -0.052817255 -0.07105097 -0.05311755 -0.022574069 -0.09331226
-0.0144402515 -0.09104014 -0.2222939 -0.15391856 0.076089084 0.09688363 0.086477146 0.02146296
0.024721077 0.07628925 -0.031269405 0.042112455 -0.2323113 -0.010178669 0.08398634 0.02037837
0.029210985 -0.034309734 0.027985143 0.04501094 0.0021284712 0.13647766 0.19237272 0.037551176
0.025284754 0.009907416 0.015055577 0.047085326 -0.020247994 -0.01854886 0.07063936 0.0107959695
0.081902064 -0.010298693 -0.030057505 0.02785365 -0.017606411 0.017634392 0.08889527 0.017268188
-0.013812553 0.08546593 0.26703322 0.1794653 -0.033025164 -0.037266515 0.05169354 -0.0048973896
-0.05332046 -0.056861885 0.009478723 -0.036923382 0.17963862 -0.00072785653 -0.058988154 -0.044026747
0.048659515 0.03149749 0.06241679 -0.035893116 -0.042291034 -0.11800291 -0.17148495 -0.1617564
0.03448114 0.018581934 0.06830111 0.07072484 0.050255038 -0.023981374 -0.03157485 -0.012939335
-0.18380798 0.0038012795 0.05922907 -0.07076279 0.040771887 0.0125538735 -0.055936914 -0.05546136
0.10454882 -0.0063609337 -0.282007 -0.13735788 0.09788545 0.029457012 0.07662952 0.081400834
0.08589604 0.026081575 -0.031927433 0.035295013 -0.20358612 -0.013145115 0.15825482 -0.0011496523
0.023233991 0.082277626 0.033453315 0.021909479 0.12189357 0.16041382 0.17066844 0.03830682
0.07215372 0.005297923 0.002756353 0.101495676 0.028875925 0.07769781 0.032478012 0.052775074
0.12179405 -0.0023901472 0.006642119 0.06399969 0.09613845 0.12963274 0.06327745 0.059881747
0.027100708 -0.07656451 -0.23581247 -0.08116258 0.030539183 0.04505599 0.03714989 0.03303709
0.07662919 -0.039547276 0.044040706 -0.004343252 -0.11070726 -0.013016875 0.022269763 0.009006051
0.047837455 0.060492277 -0.011500707 0.0784932 0.029426994 -0.03134175 -0.29139167 -0.13488379
0.0755402 0.031916197 -0.017431548 0.08757988 0.08457968 0.007185364 -0.0718687 -0.007088997
-0.17290196 -0.006740769 0.047487386 -0.004242785 0.11039155 -0.025619546 -0.001815264 0.06780048
0.013625415 -0.14529012 -0.17778704 -0.11592148 -0.09053009 -0.076607056 -0.096856266 -0.12241274
-0.07686418 -0.10919785 0.055468295 -0.09983633 -0.17686057 0.007883724 -0.08136409 -0.111232534

model.nn.2.bias f4 [320]
00000000: 1066 4fbd 2d27 973d 1356 73bd 794a 61bd
00000010: 8a25 cab8 f72c da3c 8814 803c 454c bfbc
00000020: 52c1 df3c 73e7 4b3d 24a9 8bbc d019 1dbb
00000030: 411f 51bd 53cf 343d dabe bbbb 2d65 ae3c
00000040: aa59 9ebd 3587 94b9 3dcc 93bd 10fe 93bc
00000050: a557 49bd 175c 783d aa35 74bd e81d 60bd
00000060: aec3 6e39 5b89 cc3c f542 6e3c b7be b8bc
00000070: 2c39 dc3c 0c14 4a3d edf6 87bc 8cff aaba
00000080: d052 50bd 3b88 1c3d ddc7 91bb 9903 a73c
00000090: c6c6 a2bd cf28 c0b9 09fe 95bd 8693 8fbc
000000a0: 1775 4fbd ba2e 3d3d d54c 5bbd d185 48bd
000000b0: 66fc 193b bf6a a13c df46 223c d8b5 94bc
000000c0: 81a4 d33c af95 363d f944 65bc 19f6 1a3b
000000d0: c410 3cbd e915 0a3d f9cb e3b9 b276 873c
000000e0: f832 93bd ba87 25bb 398f 84bd 3bee 71bc
000000f0: 7557 32bd 0b07 123d b43c 5ebd 5616 4cbd
00000100: bfa1 52bb 5101 b43c 4711 523c a7fb a9bc
00000110: d7ca 7f3c b220 3c3d e930 95bc 4a64 03bb
00000120: ec89 41bd e827 c53c b043 8fbb f228 a13c
00000130: 9e8f 93bd 610a 413b 41f4 83bd fc8c 9bbc
00000140: da35 35bd c072 013d 35bb 5ebd 250d 4cbd
00000150: 166d 80bb c03e b23c 9353 513c 12c8 aabc
00000160: 3dfe 583c 4b58 3d3d e874 9bbc 3658 02bb
00000170: 9b46 43bd 582a b13c 8bac 83bb 3866 a33c
00000180: dc6d 94bd c83f 6d3b 0028 83bd 16f5 9fbc
00000190: 6bae 56bd fd9c 013d 5ef3 46bd c7d3 33bd
000001a0: 43ea 4c3b 2c49 6c3c 71ab 943b 9499 5cbc
000001b0: 8d1a ad3c 8eea 263d bb60 4abc 9d2d bb3b
000001c0: 5255 2cbd 303a d53c 185c 803b fb45 5f3c
000001d0: 8733 88bd 8372 6cbb 424a 6bbd b09a 46bc
000001e0: 9cb2 22bd 4baa c03c d515 50bd 5874 3ebd
000001f0: 4415 c0bb 8896 a63c d180 403c 4cfd a3bc
00000200: e332 0b3c ffcd 323d 4e47 9ebc 9407 42bb
00000210: e0df 37bd 1c6f 6b3c 9c98 8dbb bbb6 ab3c
00000220: 5f9b 8abd eae3 b33b 9995 72bd a377 9abc
00000230: 255e 21bd 0a14 c33c 6952 5ebd 888b 4bbd
00000240: 1227 01bc 44a6 b93c cff3 5f3c 96f8 bcbc
00000250: c322 ea3b 9c6f 403d 56a8 b4bc c525 92bb
00000260: 2c4f 46bd 8dba 403c a21c c1bb cb2e c23c
00000270: e69c 92bd 7675 f43b f100 80bd 7c12 b2bc
00000280: bd92 14bd 589f d23c e860 6fbd 7ee8 5bbd
00000290: 9f92 24bc 72fd d23c 58ae 853c 98a2 cfbc
000002a0: 706e b13b febc 4d3d d1b5 c5bc b37b e9bb
000002b0: edc6 53bd 8e4b 243c 1bc1 0dbc 3ffa d43c
000002c0: c5f2 9cbd 3d5d 203c 1384 8bbd fe6e c4bc
000002d0: 4e1c 12bd 6cf3 d43c 80c0 76bd 2005 63bd
000002e0: aa16 24bc 2149 da3c 1a25 873c 2262 d4bc
000002f0: ec90 c03b 4e37 553d 8eb6 c7bc d1e5 e7bb
00000300: c445 5bbd 3c2d 003c c1ca 0dbc f9e9 d53c
00000310: c6c1 a0bd 538c 1d3c 1286 8ebd 6f94 c5bc
00000320: ae9c 0bbd 2c49 d43c fdde 5ebd 056b 4cbd
00000330: 278d 0dbc 1156 bd3c 988c 603c e5f0 b8bc
00000340: 2598 e73b b807 403d 6c47 b0bc 7620 bebb
00000350: 76e4 44bd 19fd 0e3c 3497 e8bb d111 bd3c
00000360: 078c 92bd 8f03 053c cbfd 81bd 46b0 acbc
00000370: 1f5e 01bd 1607 983c 9ac1 5dbd 3886 4bbd
00000380: 1605 2bbc 350a c13c 7bf8 743c 7272 c5bc
00000390: 5f2b 6b3b b62b 403d 118f bcbc 2d2f ecbb
000003a0: 84f4 44bd 978d b23b e675 09bc 5fb8 c53c
000003b0: bde3 91bd e169 243c 0f7d 80bd e05b b7bc
000003c0: f30c 0bbd ef4c 193c 65bd 52bd ce0d 40bd
000003d0: a10d 0abc de3c a23c 7f82 3c3c 551f b5bc
000003e0: ad13 6a3b 48a1 353d 76d0 abbc 1b63 83bb
000003f0: 406b 3abd 9be8 2a3b 6d8b a3bb 7cbe b13c
-0.050634444 0.07380519 -0.05940826 -0.055002663 -9.639103e-05 0.026632769 0.01563479 -0.023351798
0.027313862 0.049781274 -0.017048426 -0.0023971684 -0.051055197 0.044143032 -0.0057295384 0.021288479
-0.07731946 -0.00028329497 -0.0721669 -0.018065482 -0.04915585 0.0606347 -0.05962149 -0.05471602
0.00022770345 0.02496784 0.014542331 -0.022551877 0.02688273 0.049335524 -0.016597236 -0.001304613
-0.050860226 0.038215857 -0.0044488744 0.020387458 -0.07948069 -0.00036651499 -0.07323844 -0.0175264
-0.050648775 0.04618714 -0.05354007 -0.048955742 0.0023496388 0.01970422 0.009904592 -0.018153116
0.025835278 0.044576343 -0.013993495 0.002364522 -0.045914426 0.0337123 -0.00043448785 0.01653609
-0.07187456 -0.0025257901 -0.0647263 -0.014766271 -0.043540437 0.035651248 -0.05425711 -0.04982599
-0.0032139865 0.021973284 0.012821502 -0.02074988 0.015612326 0.04592962 -0.018211799 -0.002004879
-0.047250673 0.02406688 -0.0043720827 0.019672845 -0.07205127 0.002945565 -0.06443072 -0.018988125
-0.04424081 0.031603575 -0.054377753 -0.049817223 -0.003919254 0.021758437 0.012776273 -0.020847354
0.013244209 0.04622678 -0.018976644 -0.0019889004 -0.047674756 0.021626636 -0.0040183715 0.019946203
-0.072475165 0.0036201347 -0.06404114 -0.019526046 -0.05241243 0.031643856 -0.048571937 -0.04390314
0.003126756 0.014421742 0.004537039 -0.01346435 0.021130824 0.040751033 -0.012352164 0.0057122246
-0.042073555 0.026028723 0.0039172284 0.0136275245 -0.06650453 -0.0036078996 -0.057443865 -0.012121841
-0.039721116 0.023518702 -0.05080207 -0.046497673 -0.00586191 0.02033545 0.011749462 -0.020018242
0.008496019 0.043653484 -0.01932111 -0.0029606568 -0.04489124 0.014369752 -0.004321171 0.020961156
-0.06767916 0.005489816 -0.0592247 -0.018855875 -0.039396424 0.023813266 -0.05427781 -0.049693614
-0.00788285 0.02266229 0.013668968 -0.023067754 0.007145257 0.04698144 -0.022052925 -0.004460069
-0.048415348 0.011763227 -0.005893306 0.023703953 -0.07158832 0.0074602915 -0.062501796 -0.02173733
-0.036272753 0.025710747 -0.058442026 -0.05368852 -0.010044723 0.025755618 0.016318485 -0.025346085
0.0054147765 0.050229065 -0.024134548 -0.007125342 -0.051703382 0.010027779 -0.008651997 0.025998233
-0.07663492 0.009787855 -0.068123005 -0.023978706 -0.035671525 0.025994979 -0.060242176 -0.05542481
-0.010015169 0.026646199 0.016497184 -0.0259257 0.005876651 0.052054696 -0.024379041 -0.007076957
-0.05353333 0.007823285 -0.008654297 0.026112543 -0.07849459 0.009615975 -0.06959166 -0.02411863
-0.03408497 0.025913797 -0.054411877 -0.04990675 -0.00863961 0.023112329 0.013705395 -0.022575805
0.0070676976 0.04688236 -0.021518432 -0.0058022095 -0.04806944 0.008727335 -0.007098103 0.023079785
-0.07155614 0.008118524 -0.06347235 -0.021080147 -0.0315839 0.018558066 -0.05413971 -0.049688548
-0.010438224 0.023564437 0.0149518205 -0.024102423 0.0035884005 0.046916686 -0.023017438 -0.007207772
-0.04808475 0.0054490077 -0.008389926 0.024135767 -0.07123516 0.010035009 -0.06273853 -0.022382677
-0.033947896 0.009356721 -0.051450152 -0.046888165 -0.008426101 0.019804414 0.011505722 -0.022109667
0.0035717294 0.044343263 -0.020973425 -0.004009617 -0.045512438 0.0026078585 -0.004990986 0.021697275

model.args_proj.proj.0.weight f4 [1, 20]
00000000: ba8e 26be 5233 023f a713 50be b9e4 a1be
00000010: a2bb 3a3f f736 2b3e 178f 3cbe d616 b13e
00000020: 3de2 203f d1a2 26bd 1ae4 2a3f e97e f23e
00000030: f8ce 053d 94ee e03e f805 bd3e f3cf eabe
00000040: 3363 ddbd c5e9 30bf e94c f9be 20c5 0d3f
-0.16265383 0.5085956 -0.20319997 -0.31619814 0.72942555 0.16720186 -0.1841396 0.34587735
0.6284521 -0.040682618 0.66754305 0.4736245 0.032668084 0.4393202 0.36918616 -0.45861778
-0.108099364 -0.69106704 -0.4869149 0.55378914

model.args_proj.proj.1.weight f4 [1, 20]
00000000: c1e1 cd3c 0e65 6c3c f5ee 3ebe b1ec 7abe
00000010: 8d14 d4bd 0033 443e 49a7 ee3d f4dc c5bd
00000020: 470a f2bc 4f0d 7b3e 59c1 d3bd a365 1fbe
00000030: f35b 3fbe f26a 90bc 8a16 32be 376a e73d
00000040: 85fd d6bd fec3 be3d c7fe 0bbe 02a9 dabd
0.025132062 0.01442839 -0.18645842 -0.24504353 -0.10355482 0.1916008 0.11653001 -0.09661284
-0.029545916 0.24516796 -0.103396125 -0.15566115 -0.1868742 -0.01762912 -0.1739141 0.11299556
-0.10497574 0.09314726 -0.13671409 -0.10676767

model.args_proj.proj.2.weight f4 [1, 20]
00000000: 645c 733e 756b 6cbe dc72 3e3e f7c7 4a3e
00000010: e5ce 6cbe e7c2 21bc 7963 ac3d 7bbd 47bd
00000020: 3872 17be c0cd 19be 5a52 01be cfb7 84be
00000030: c756 0d3e 562e 7abe eb18 6dbe 1bf5 803d
00000040: 1250 343e 6f58 633e c57d 5b3e 77f2 c1bd
0.23765713 -0.23087867 0.18598503 0.19802843 -0.23125799 -0.0098731285 0.084174104 -0.048764687
-0.14789665 -0.15019894 -0.12629071 -0.25921485 0.13802634 -0.24431738 -0.23154037 0.0629675
0.1760867 0.22201703 0.21434696 -0.094700746
