generate_forecasts/output/Local_Forecasts/Fish, seafood and other marine products/2023/models/DeepAR/W0/gluon_ts/prediction-net-state.pt (torch, 97628 bytes, 11 tensors)

model.param_proj.proj.0.weight f4 [1, 40]
0	0xbd4a48d4	-0.04938586
1	0x3e8e5ce2	0.2780524
2	0x3e46de34	0.19420701
3	0xbe1db48c	-0.15400904
4	0xbdb780b3	-0.08960094
5	0xbe67d04d	-0.22638054
6	0xbe36af08	-0.17840207
7	0x3e5170c3	0.20453171
8	0xbd530b7a	-0.051524617
9	0xbdd28d68	-0.10280877
10	0xbd87fbe8	-0.06639844
11	0xbe18eb94	-0.14933616
12	0xbe8190e0	-0.25305843
13	0x3d98068f	0.07423126
14	0x3e2ca0d2	0.16858223
15	0x3e794d27	0.24345838
16	0x3e1c2d19	0.15251578
17	0x3d9b5893	0.075852536
18	0x3e432be7	0.19059716
19	0xbe723749	-0.23653902
20	0xbd8d7e9e	-0.06908916
21	0xbd03e295	-0.032198507
22	0xbe34f76d	-0.1767251
23	0x3e80a890	0.25128603
24	0x3e9421a5	0.2893192
25	0xbe6d12f9	-0.23151769
26	0xbd460a8c	-0.048349902
27	0x3ded42af	0.115849845
28	0xbe7fd99d	-0.24985357
29	0xbe4f99a5	-0.20273454
30	0x3e930a1b	0.28718647
31	0x3e62718e	0.2211363
32	0x3e9d0587	0.3066828
33	0x3df15ba3	0.117850564
34	0x3dbdecfe	0.09273718
35	0xbe615e24	-0.22008568
36	0xbddd6cd2	-0.108117715
37	0xbe13e135	-0.14441378
38	0x3de31a20	0.11088967
39	0x3e45e690	0.19326234

model.param_proj.proj.1.weight f4 [1, 40]
0	0xbe246f87	-0.1605817
1	0x3e10f598	0.14156187
2	0x3e05ff9f	0.13085793
3	0xbe03d463	-0.12873988
4	0xbcba783f	-0.022762416
5	0xbe26a8f7	-0.16275392
6	0x3d22b69e	0.03972494
7	0x3d5a3d88	0.053281337
8	0xbe36c56f	-0.17848752
9	0x3c903399	0.017602729
10	0x3e36b390	0.17841935
11	0x3c8efe44	0.017455228
12	0x3d5e0c7b	0.05421112
13	0x3de7a688	0.1131106
14	0xbddc1abd	-0.107472874
15	0x3dd84505	0.105600394
16	0x3e1d6046	0.15368757
17	0x3cbeddf8	0.023299202
18	0xbdb60f43	-0.0888963
19	0xbe226dbc	-0.15862173
20	0x3db72a8f	0.08943664
21	0x3dfa16d7	0.122113876
22	0x3c953eab	0.018218359
23	0x3d52782d	0.05138414
24	0x3dfd71d3	0.12375226
25	0x3d24a31d	0.04019462
26	0xbd961700	-0.07328606
27	0x3bed7c22	0.007247464
28	0xbdbab4f2	-0.09116544
29	0xbcc4821a	-0.023987819
30	0x3d6b2985	0.057412643
31	0x3df09873	0.117478274
32	0x3ccfc8b3	0.025364256
33	0xbc97c7c2	-0.01852787
34	0x3b58597f	0.0033012328
35	0x3aac83c9	0.0013161834
36	0xbe00f344	-0.12592798
37	0x3a82c5d0	0.0009977166
38	0x3d9799a1	0.07402349
39	0xbcdc8983	-0.02692104

model.param_proj.proj.2.weight f4 [1, 40]
0	0x3e444e1a	0.19170418
1	0xbe07bfb9	-0.1325673
2	0x3d213810	0.039360106
3	0x3dbe23d5	0.09284178
4	0x3dda059c	0.10645601
5	0x3e7290a3	0.23687987
6	0x3ddc449a	0.10755272
7	0xbe240584	-0.16017729
8	0xbd0fa841	-0.03507257
9	0x3e16f008	0.14740002
10	0x3d1c5078	0.03816268
11	0x3e0015dd	0.1250834
12	0x3dfeb8cd	0.12437592
13	0xbdbe3472	-0.09287347
14	0xbde7f760	-0.1132648
15	0xbcc44a22	-0.02396113
16	0xbd3015dc	-0.042989597
17	0xbe13f181	-0.14447595
18	0xbe1ea230	-0.15491557
19	0xbdc67f79	-0.09692282
20	0x3e0083ef	0.12550329
21	0xba6a419a	-0.0008936167
22	0x3e354b08	0.17704403
23	0xbe287e69	-0.16454472
24	0xbe801d3d	-0.25022307
25	0x3e463617	0.19356571
26	0xbe5e2134	-0.21692353
27	0xbdaa0526	-0.08301763
28	0x3de4a4eb	0.11164268
29	0x3e6157d4	0.2200616
30	0xbe46f07e	-0.19427678
31	0xbe1e05a8	-0.15431845
32	0xbdd56d39	-0.10421223
33	0xbe656737	-0.22402655
34	0xbd94bf7b	-0.072630845
35	0x3e0376c1	0.1283827
36	0x3e90ba09	0.28266934
37	0x3dc2f8b2	0.09520091
38	0xbe6fae41	-0.23406316
39	0xbe56dc19	-0.20982398

model.rnn.weight_ih_l0 f4 [160, 21]
0	0x3e1a11c2	0.15045837
1	0xbbfb192b	-0.0076629124
2	0x3dd1ff80	0.10253811
3	0x3d808d97	0.06277006
4	0xbd94798d	-0.072497465
5	0xbd3fc59e	-0.04681932
6	0x3e6882f8	0.2270621
7	0x3e0c87fa	0.13723746
8	0x3dfea77a	0.12434287
9	0x3e80cbc3	0.25155458
10	0x3e9023a5	0.28152195
11	0x3eb803be	0.35940355
12	0x3e8df9fd	0.27729788
13	0x3ea9f95f	0.33198068
14	0x3e220a1f	0.15824173
15	0x3eaa2eab	0.3323873
16	0xbd8a1d34	-0.06743851
17	0x3c8cfcd6	0.017210405
18	0xbc8f9254	-0.01752583
19	0xbecae0c4	-0.39624608
20	0x3d8fb03b	0.07016035
21	0x3dca503a	0.09878583
22	0x3e2ce57e	0.1688442
23	0x3e772557	0.24135338
24	0x3e107afa	0.14109412
25	0x3d84ac92	0.06478228
26	0x3ccc554f	0.024943022
27	0x3e04e48d	0.1297781
28	0x3e4b6dda	0.19866124
29	0x3e6b1978	0.22958934
30	0x3c01a5ad	0.007913035
31	0x3e5b8297	0.21436535
32	0xbcabbba1	-0.020963492
33	0x3cfbced2	0.030738268
34	0x3d7cb793	0.061698508
35	0xbcb380a5	-0.021911928
36	0x3d888f82	0.06667997
37	0x3dd01f29	0.10162193
38	0xbbcbae0b	-0.006215816
39	0x3e06b927	0.13156568
40	0xbd579f50	-0.052642167
41	0x3e2f951a	0.17146721
42	0x3e2f0614	0.17092162
43	0x3dc852c5	0.09781412
44	0x3c84a59b	0.016192248
45	0x3e56cdd2	0.20976952
46	0x3e17d004	0.14825445
47	0x3e3e2c9e	0.18571708
48	0x3d10c12c	0.035340473
49	0xbc006bfb	-0.007838245
50	0x3e25aa9f	0.16178368
51	0x3e0e05c7	0.13869391
52	0x3d91a248	0.07111031
53	0x3e74d8f8	0.23910892
54	0x3c181d39	0.009284311
55	0xbd19c466	-0.037540816
56	0x3e130e51	0.1436093
57	0x3e75eb0b	0.24015443
58	0x3dd17076	0.10226528
59	0xbc1de6c7	-0.009637541
60	0x3bc80696	0.0061043007
61	0xbe84fcd9	-0.25974157
62	0x3e17c67f	0.14821814
63	0x3e71cf63	0.23614268
64	0x3d2ad207	0.041704204
65	0x3e8bf2c5	0.27333656
66	0x3c64834c	0.013947319
67	0x3e8cba28	0.27485776
68	0xbb84e96b	-0.004056146
69	0x3d4642a0	0.048403382
70	0x3e612490	0.21986604
71	0x3e50fc10	0.20408654
72	0x3d4b4420	0.049625516
73	0x3cb27ad5	0.021787087
74	0x3ddc8964	0.10768393
75	0x3d1152a2	0.035479195
76	0x3e85435b	0.2602795
77	0x3c296d53	0.010341006
78	0x3afbc1b5	0.001920751
79	0x3e0b170d	0.13583012
80	0x3cc4c328	0.024018839
81	0x3e65b100	0.22430801
82	0x3e6d2b2a	0.23160997
83	0x3d84c605	0.06483082
84	0x3df9273e	0.12165688
85	0x3e2f88fb	0.17142098
86	0x3ceb1184	0.028694876
87	0x3dcfacbe	0.1014037
88	0x3e167e88	0.14696705
89	0x3e09b0f7	0.13446413
90	0x3e1d333e	0.15351579
91	0x3e505ed8	0.2034868
92	0xbd61361d	-0.054983247
93	0x3e4bfb0c	0.19919986
94	0x3e003c48	0.12522995
95	0xbd5722c7	-0.0525234
96	0x3e120249	0.14258684
97	0x3e1cb863	0.15304713
98	0x3e1e3ea1	0.15453579
99	0x3e813862	0.2523833
100	0x3da3f2dc	0.08005306
101	0x3b9d19e5	0.0047943466
102	0xbce2445d	-0.027620489
103	0xbf5d031a	-0.8633286
104	0x3db58b20	0.088644266
105	0x3e2db42c	0.16963261
106	0x3cdeb000	0.027183533
107	0x3e2d4099	0.16919173
108	0xbb4f0e92	-0.0031594378
109	0x3df0ebcb	0.11763724
110	0x3dc0b301	0.09409142
111	0x3d83e6f8	0.06440538
112	0xbc568e24	-0.013095412
113	0x3bf95b46	0.0076097576
114	0x3e475e09	0.19469465
115	0x3c45aae9	0.012064674
116	0x3db15eff	0.08660697
117	0x3e8188c5	0.2529966
118	0x3e21ad7f	0.1578884
119	0xbc9b5d9f	-0.01896554
120	0x3e135834	0.14389116
121	0x3e25e2ef	0.1619985
122	0x3bb55ccf	0.0055347453
123	0xba9d3386	-0.0011993505
124	0x3e094a4d	0.1340725
125	0x3e4eaa7a	0.20182219
126	0x3ccf9b92	0.025342736
127	0x3d811816	0.06303422
128	0x3e5afdbc	0.21385854
129	0x3e6847f3	0.22683696
130	0x3e94eecf	0.29088446
131	0x3d83c60e	0.0643426
132	0x3d123f79	0.035705063
133	0x3e5deeca	0.21673122
134	0x3dff34b4	0.12461224
135	0x3e988ef9	0.2979658
136	0x3e90f1d2	0.28309494
137	0x3dab207f	0.083558075
138	0x3e0e3f7d	0.13891406
139	0x3dd4a3e1	0.1038282
140	0x3e9919d8	0.2990253
141	0x3dde0015	0.108398594
142	0x3e9f6bf4	0.3113705
143	0x3b881a83	0.004153551
144	0x3d5c01ce	0.05371266
145	0xbe3dde00	-0.18541718
146	0x3e0a4c2d	0.13505621
147	0x3e4dd221	0.20099689
148	0x3da6f700	0.0815258
149	0x3d64259b	0.055699926
150	0x3ccca6f2	0.02498195
151	0x3d665559	0.056233738
152	0xbcaa5527	-0.020792557
153	0x3c37065c	0.01117095
154	0x3c3e75f1	0.011624799
155	0x3e570d06	0.21001062
156	0x3e5410f6	0.20709595
157	0x3e166f41	0.14690877
158	0x3d401ff0	0.046905458
159	0x3d1590d5	0.036515076
160	0x3e7131d6	0.23554167
161	0x3e8e2f79	0.27770594
162	0x3e08d548	0.1336261
163	0x3d89488b	0.067032896
164	0x3c529942	0.012853922
165	0x3e2fb1e0	0.17157698
166	0x3e02a6b5	0.12758906
167	0x3cbca172	0.023026202
168	0x3da3ca41	0.07997561
169	0x3e843321	0.25820258
170	0x3e036368	0.12830889
171	0x3e714b40	0.23563862
172	0x3e0421d7	0.12903534
173	0x3e0a0be1	0.13481094
174	0x3dc091f0	0.09402835
175	0x3dcf46f4	0.10120955
176	0x3ea4a0a9	0.32153824
177	0x3e3c8fba	0.18414202
178	0x3e59986d	0.21249552
179	0x3c11def6	0.008903256
180	0x3d88e98f	0.06685173
181	0x3ddd38b4	0.10801831
182	0x3e86448a	0.26224166
183	0x3d4d2106	0.05008032
184	0x3e9bf160	0.30457592
185	0x3c9c3488	0.019068018
186	0x3c98e071	0.01866171
187	0x3e1de229	0.15418305
188	0x3e4ca0cd	0.19983216
189	0xbcaf24be	-0.021379825
190	0xbd63cd1c	-0.05561553
191	0x3e669614	0.22518188
192	0xbd349a4f	-0.044092473
193	0x3e5f6f50	0.21819806
194	0xbbc931ff	-0.006139993
195	0x3d4b7e30	0.04968089
196	0xbbc0f4c3	-0.005888553
197	0x3e631c1f	0.22178696
198	0xbce5674f	-0.028003363
199	0x3e769702	0.24081042
200	0x3d813359	0.06308622
201	0x3d361144	0.04445006
202	0x3d10601c	0.035247907
203	0x3e4d0011	0.20019557
204	0x3e5fee27	0.21868192
205	0x3dc436c8	0.09580761
206	0x3c9be848	0.019031659
207	0x3dee6fb4	0.116423994
208	0x3d5e4f36	0.05427476
209	0x3c07c5d5	0.008286913
210	0x3e8e7f56	0.27831525
211	0x3e6619c8	0.22470772
212	0x3e7e379c	0.24825901
213	0x3e8030f4	0.25037348
214	0x3e020178	0.12695873
215	0xbbcb4461	-0.0062032198
216	0x3df53037	0.11972087
217	0x3dea738a	0.114478186
218	0x3d992a3e	0.0747876
219	0xbc4dd262	-0.012562366
220	0x3d3c423b	0.0459616
221	0xbb0b5bc5	-0.0021264416
222	0x3deaa0f7	0.11456483
223	0x3e2af267	0.16694032
224	0x3e525e20	0.20543718
225	0x3e4e6c35	0.20158465
226	0x3cfa6658	0.03056638
227	0xbca5477f	-0.020175694
228	0x3e1e1899	0.15439071
229	0xbcfe9284	-0.031075723
230	0x3d6e61f9	0.058198903
231	0x3ca2e215	0.019883195
232	0x3e561598	0.20906675
233	0x3e48a3f6	0.19593796
234	0x3e644c88	0.2229482
235	0x3e8b9ed1	0.27269605
236	0x3d048315	0.032351572
237	0x3dfb7882	0.122788444
238	0x3de6f593	0.11277308
239	0x3d664fdb	0.0562285
240	0x3cf8b73f	0.030360816
241	0x3e7dc97f	0.24783896
242	0x3da2344b	0.0792013
243	0x3e67699c	0.2259888
244	0x3e64d324	0.22346169
245	0x3e411a70	0.18857741
246	0x3db995b0	0.09061754
247	0x3de426d4	0.111402184
248	0x3bd4d892	0.0064955438
249	0x3e63af0b	0.22234742
250	0x3e57b3e4	0.21064717
251	0x3db02e7e	0.08602618
252	0x3e0c06d8	0.13674486
253	0x3e1c20bf	0.15246867
254	0x3e642d88	0.22282994
255	0x3e90e585	0.2830011

model.rnn.weight_hh_l0 f4 [160, 40]
0	0xbc7dd620	-0.015492946
1	0xbd961c04	-0.07329562
2	0x3d1abdf2	0.037778802
3	0xbcfa8acb	-0.03058376
4	0xbe05eeee	-0.13079426
5	0x3dfc1208	0.12308127
6	0x3e0c597c	0.1370601
7	0xbdc627ea	-0.09675582
8	0xbc9a6e5c	-0.018851452
9	0x3c103677	0.008802048
10	0xbe076663	-0.13222651
11	0xbdad8428	-0.084724724
12	0xbdcda81b	-0.10041829
13	0x3ddd1453	0.10794892
14	0xbe218b9a	-0.1577591
15	0xbdaf94f1	-0.0857333
16	0x3e214ac5	0.15751179
17	0xbce0bcff	-0.02743387
18	0x3e3f5b04	0.18687063
19	0xba9d0739	-0.0011980302
20	0xbcddc9f5	-0.02707384
21	0x3d00f007	0.031478908
22	0x3e43e1ce	0.19129106
23	0xbc5bc59d	-0.013413814
24	0xbda200e7	-0.07910328
25	0x3e0d4e0c	0.13799304
26	0x3e0ab443	0.13545327
27	0xbd029f34	-0.03189011
28	0x3d4403dd	0.047855247
29	0xbd30e13a	-0.043183543
30	0x3d89b132	0.067232504
31	0xbcfb3fb6	-0.030670028
32	0x3d3c0210	0.045900404
33	0x3e588f42	0.21148399
34	0x3e312c9c	0.17302173
35	0xbd389ac1	-0.04506946
36	0xbd587fc9	-0.05285624
37	0xbe1c6000	-0.15270996
38	0x3e2a4c91	0.1663077
39	0x3db9e023	0.09075954
40	0xbd488648	-0.048956186
41	0xbdd8e22b	-0.10590013
42	0x3d68648d	0.056736518
43	0x3dd039d8	0.10167283
44	0x3df93664	0.12168577
45	0xbe00435d	-0.12525697
46	0x3c84d4cb	0.016214749
47	0xbd6d153a	-0.05788157
48	0x3c177016	0.009243032
49	0x3d49ad13	0.049237322
50	0x3d09ced2	0.033644505
51	0x3c76394b	0.015028308
52	0xbe13988f	-0.14413665
53	0xbdb74c55	-0.08950106
54	0xbcb56b95	-0.022146026
55	0xbcecfa45	-0.028927932
56	0xbe08adcb	-0.13347547
57	0x3d2a2d65	0.041547198
58	0xbe44045b	-0.19142286
59	0x3db668fb	0.08906742
60	0x3cd3554d	0.02579751
61	0x3daa9fbb	0.083312474
62	0x3dc0f1a9	0.09421093
63	0xbd9d6326	-0.07684927
64	0xbd917c31	-0.07103766
65	0xbe076d8e	-0.13225386
66	0xbd664586	-0.056218646
67	0x3e00825c	0.12549728
68	0x3e188887	0.14895831
69	0x3d6aea7e	0.057352535
70	0xbe09dcf6	-0.13463196
71	0x3d5ebd31	0.054379646
72	0x3da7cc71	0.08193291
73	0xbda94384	-0.08264831
74	0xbd39c68c	-0.045355365
75	0x3da0a743	0.07844403
76	0xbc27e5e5	-0.010247682
77	0xbd180392	-0.03711278
78	0x3d9e3fce	0.077270135
79	0xbd9f7b17	-0.077871494
80	0xbde90c2b	-0.11379274
81	0xbc3e07d6	-0.011598548
82	0xbdb85113	-0.08999839
83	0x3e46aad5	0.19401105
84	0xbe2e7f14	-0.17040664
85	0xbd367ee6	-0.044554614
86	0xbdc5a721	-0.09651018
87	0xbe1997cb	-0.1499931
88	0xbe453434	-0.19258195
89	0x3e5d4dee	0.21611759
90	0x3e85890e	0.26081127
91	0xbe0d4886	-0.13797197
92	0xbe721248	-0.23639786
93	0xbcf439fe	-0.02981281
94	0xba3be6db	-0.0007167884
95	0xbda6edb6	-0.081508085
96	0x3d3b39e5	0.04570951
97	0x3dc3c58e	0.09559165
98	0xbcb431a5	-0.021996329
99	0xbe10e9c7	-0.14151679
100	0x3b327493	0.0027230128
101	0x3e476655	0.1947263
102	0x3e30314b	0.17206304
103	0xbdc16b15	-0.094442524
104	0xbe4c6397	-0.19959866
105	0xbe0b24e7	-0.13588296
106	0x3e131a6d	0.1436555
107	0x383c9ba7	4.4967655e-05
108	0x3d2217d2	0.039573498
109	0xbe2978ec	-0.16550034
110	0x3c2c896c	0.010530811
111	0x3e65123b	0.22370236
112	0xbe1d378c	-0.1535322
113	0xbdae6250	-0.08514845
114	0xbe8a3aa6	-0.2699787
115	0x3cd8ab85	0.026448974
116	0x3e486c43	0.19572549
117	0x3db8e4b1	0.090279944
118	0xbe0bffa8	-0.13671744
119	0xbe3a5b2e	-0.18198845
120	0xbe344148	-0.17603028
121	0x3dd92f0e	0.10604678
122	0x3df4da3d	0.11955688
123	0xbd961bc4	-0.073295146
124	0xbe574bc7	-0.21025
125	0xba6a8c02	-0.00089472544
126	0x3c86aef6	0.01644085
127	0x3da65473	0.08121576
128	0xbd458e76	-0.048231564
129	0x3da9a3da	0.08283205
130	0x3e3e27ec	0.18569916
131	0x3dcd2663	0.10017087
132	0x3cbf6dde	0.023367818
133	0x3b3a63b8	0.0028440785
134	0x3d64e286	0.055880092
135	0xbe52ae2e	-0.20574257
136	0xbc172902	-0.009226086
137	0x3e0fe47b	0.14052002
138	0x3bb1a3c9	0.005421136
139	0xbdf2f9a6	-0.11864023
140	0xbe105d95	-0.14098199
141	0xbdc24b9b	-0.09487077
142	0x3d9c4424	0.07630184
143	0x3df9521f	0.121738665
144	0xbd84afeb	-0.06478866
145	0x3dd6d7e4	0.104903966
146	0x3e414065	0.18872221
147	0x3d4ae309	0.049532924
148	0x3e4415d2	0.19148949
149	0xbdbf9215	-0.09354035
150	0x3dcce1b4	0.10003987
151	0x3d9ec9fc	0.07753369
152	0xbe644782	-0.22292903
153	0x3de0ba29	0.10973007
154	0xbe33ce60	-0.17559195
155	0x3ccd252e	0.025042143
156	0xbdeb0047	-0.11474662
157	0xbcfd3ab8	-0.030911788
158	0xbcc840c0	-0.024444938
159	0x3d8d79c3	0.0690799
160	0xbde72c31	-0.11287726
161	0xbde38cdb	-0.111108504
162	0xbe39bf76	-0.18139443
163	0x3d059474	0.03261228
164	0x3d0c692c	0.034279987
165	0xbdf71c15	-0.12065903
166	0x3e025c89	0.12730612
167	0xbc5709ae	-0.013124866
168	0x3dc98070	0.09838951
169	0x3df260f2	0.11834897
170	0xbd8b0533	-0.06788101
171	0x3d06b40b	0.032886546
172	0x3e44955d	0.19197603
173	0xbe1bf6e5	-0.15230902
174	0xbd1b8280	-0.03796625
175	0xbd1f9aef	-0.038966116
176	0x3d26ae9e	0.04069387
177	0xbe8f025a	-0.27931482
178	0x3dc223f7	0.09479516
179	0xbd8f6d17	-0.07003229
180	0xbc6b1df8	-0.014350407
181	0xbbc0ae1c	-0.0058801305
182	0x3c19992d	0.009374899
183	0xbdbe3bda	-0.092887595
184	0xbe814c56	-0.25253552
185	0x3d915d90	0.07097924
186	0xbd3d8e04	-0.046278015
187	0x3d21a1b9	0.03946087
188	0x3d8702aa	0.06592305
189	0x3c255db0	0.010093138
190	0xbe45b1cb	-0.19306104
191	0x3e3eceb4	0.18633538
192	0x3d86f010	0.06588757
193	0x3d4c05de	0.049810283
194	0x3d04f955	0.032464344
195	0xbe25b780	-0.16183281
196	0xbc3c4432	-0.011490868
197	0xbe7e33b6	-0.24824414
198	0xbda57e76	-0.08080761
199	0x3ab5f17f	0.0013881176
200	0xbd823a6c	-0.06358799
201	0x36304f3f	2.627217e-06
202	0x3d47e26d	0.04879992
203	0x3dc6c9c9	0.09706456
204	0xbd74a55c	-0.05972801
205	0xbd380d39	-0.044934485
206	0xbe4e96d2	-0.20174721
207	0x3d036b5b	0.032084804
208	0xbd84d443	-0.06485798
209	0x3cece4ff	0.028917788
210	0x3d6c039d	0.057620633
211	0x3d200182	0.039063938
212	0x3d446efc	0.047957405
213	0xbce71727	-0.028209282
214	0xbdd6f875	-0.10496608
215	0xbe6d4ada	-0.23173085
216	0xbd20497b	-0.039132576
217	0x3dcf39d7	0.10118454
218	0xbdcb82b0	-0.09937036
219	0xbcfca613	-0.03084091
220	0x3dc95148	0.09829956
221	0x3e4b8568	0.19875109
222	0xbd911755	-0.07084528
223	0xbc167b12	-0.009184616
224	0xbdce4ab3	-0.100728415
225	0xbe39438f	-0.18092178
226	0x3a3425f0	0.0006872108
227	0x3e204981	0.1565304
228	0xbcf90b0f	-0.030400781
229	0x3e1aa40c	0.15101641
230	0xbe0dbd56	-0.13841757
231	0x3da9f959	0.082995124
232	0xbe3af6d2	-0.18258217
233	0x3d96785b	0.07347175
234	0xbd6fd7f2	-0.05855555
235	0xbe28191c	-0.16415828
236	0xbc902358	-0.017594978
237	0xbbd3bff3	-0.006462091
238	0xbdcee1d7	-0.10101669
239	0xbe0360a2	-0.12829831
240	0x3d2e488f	0.042549666
241	0xbdd7ea84	-0.10542777
242	0x3da6cb3c	0.08144233
243	0xbbabd59f	-0.0052439715
244	0x3c0f03e3	0.008728954
245	0x3c087b0b	0.008330117
246	0xbdaeebbd	-0.08541057
247	0xbd3fd015	-0.046829302
248	0xbe385e4d	-0.18004723
249	0xbd8b076e	-0.067885265
250	0xbd5444af	-0.051823314
251	0xbe0b0860	-0.13577414
252	0x3d1fd7df	0.03902423
253	0xbe4a4607	-0.19753276
254	0x3c23e139	0.010002428
255	0xbe1af7c7	-0.15133582

model.rnn.bias_ih_l0 f4 [160]
0	0x3dcf7fd3	0.101318024
1	0x3dcddbab	0.10051664
2	0xbd9bb2b9	-0.07602448
3	0x3d0cc8a6	0.03437104
4	0xbda5d320	-0.080969095
5	0x3e900bf2	0.28134114
6	0x3d2fa120	0.04287827
7	0x3dab1aee	0.08354746
8	0x3db298e3	0.08720567
9	0xbd1275e7	-0.03575697
10	0x3db5f70e	0.088850126
11	0x3e907fe3	0.2822257
12	0x3e13f114	0.14447433
13	0x3e3a59ac	0.1819827
14	0x3c1ec3c1	0.009690226
15	0x3e459832	0.19296339
16	0xbdc5e6dd	-0.09663174
17	0xbafc8585	-0.0019265866
18	0xbdc10ffb	-0.09426876
19	0x3e6720da	0.22571126
20	0xbcd3d770	-0.025859565
21	0x3dbcdfe7	0.092223935
22	0xbdef6f6d	-0.11691175
23	0xbdfa96f8	-0.12235826
24	0x3e6cc7c6	0.23123083
25	0x3d8be08b	0.068299375
26	0x3e3a8ea6	0.18218479
27	0xbe0d8777	-0.13821207
28	0x3e5a4ae8	0.21317637
29	0x3e5f5758	0.21810663
30	0x3e629228	0.22126067
31	0xbc2bb825	-0.010480915
32	0x3e088111	0.13330485
33	0x3dbcbaed	0.09215341
34	0x3d8783f3	0.06616964
35	0xbd3eeb12	-0.0466109
36	0x3e23ebe7	0.16007958
37	0x3d7c6a87	0.06162503
38	0xbd7486ef	-0.059698995
39	0xbc737e37	-0.014861635
40	0x3d77b181	0.060472015
41	0x3df5f408	0.12009436
42	0x3d728ff6	0.059219323
43	0xbda3a2a3	-0.07990005
44	0x3e4ceff0	0.20013404
45	0x3e181624	0.14852196
46	0x3da3f751	0.08006156
47	0x3e0bd824	0.1365667
48	0x3cb9d598	0.022684857
49	0x3e145d8e	0.14488813
50	0x3dbbdfd5	0.09173552
51	0x3de8297b	0.11336037
52	0xbd0c3f8a	-0.034240283
53	0x3e05ec66	0.1307846
54	0xbd83128f	-0.06400024
55	0xbd0daedf	-0.0345906
56	0xbd85f1af	-0.06540238
57	0xbd3eeb2c	-0.046610996
58	0xbe0c0c04	-0.13676459
59	0x3e4a015e	0.19727084
60	0xbc2bde3a	-0.010489995
61	0xbe0b4085	-0.13598831
62	0x3e786f2f	0.24261163
63	0x3e09793a	0.1342515
64	0x3e1ffaf6	0.15623078
65	0x3e315d7c	0.17320818
66	0x3ced6297	0.028977675
67	0x3e3febe7	0.18742333
68	0x3e0baab3	0.13639335
69	0x3da58be9	0.08083326
70	0xbdf2a7cb	-0.1184841
71	0xbd982c09	-0.07430274
72	0xbd998c87	-0.074975066
73	0x3dea15e2	0.11429955
74	0x3e13456c	0.14381951
75	0xbdc65210	-0.09683621
76	0xbbb569a3	-0.0055362745
77	0xbe1747b6	-0.1477345
78	0x3d220ae3	0.039561164
79	0x3a06d4f3	0.0005143426
80	0xbd820267	-0.063481145
81	0xbdcca2e6	-0.09992008
82	0xbd66d200	-0.056352615
83	0x3db4ffa9	0.08837826
84	0x3daf31d6	0.08554427
85	0x3e23ef43	0.1600924
86	0xbddc75e9	-0.10764677
87	0xbe3d8d4a	-0.18510929
88	0xbd06edb8	-0.03294155
89	0xbd82929c	-0.0637562
90	0x3e3466e0	0.17617369
91	0x3bf98d1e	0.0076156994
92	0xbc9174bf	-0.017755864
93	0x3d9cf277	0.07663434
94	0x3ddaac87	0.10677438
95	0x3c044862	0.008073898
96	0x3d1a1761	0.037619952
97	0xbda17282	-0.07883169
98	0x3daeb49e	0.08530544
99	0x3d40bcb8	0.047054976
100	0xbdb23ec7	-0.0870338
101	0x3deec671	0.116589434
102	0xbcf51803	-0.029918676
103	0x3e2c10f3	0.1680334
104	0x3e040fbd	0.12896629
105	0xb9a64871	-0.0003171596
106	0xbde1a6c8	-0.11018139
107	0xbe28dc1c	-0.16490215
108	0xbd56d8ec	-0.052452967
109	0x3e02edee	0.12786075
110	0xbd9b31b5	-0.0757784
111	0xbd6d9d7d	-0.05801152
112	0xbdaba58a	-0.083811834
113	0x3c789ff2	0.015174853
114	0xbe13e367	-0.14442216
115	0x3d04d1dd	0.032426704
116	0xbdbf92d6	-0.093541786
117	0xbc99ccf0	-0.01877448
118	0x3d9962dd	0.0748956
119	0x3d561fda	0.05227647
120	0x3dc7ebca	0.0976177
121	0x3961e791	0.00021543937
122	0xbd878bef	-0.06618487
123	0xbd9d6569	-0.07685358
124	0x3e16fbe1	0.14744522
125	0x3e46249b	0.19349901
126	0x3e584e2f	0.21123575
127	0xbd2ea29f	-0.042635556
128	0x3e17fb6a	0.14842
129	0xbbce99ea	-0.006304969
130	0x3dda275c	0.106520385
131	0x3d6757f5	0.056480367
132	0x3e2390c6	0.15973195
133	0x3dfeb60e	0.12437068
134	0x3dd04c95	0.10170857
135	0x3d3c4246	0.04596164
136	0x39d28b3a	0.00040158053
137	0xbda79c62	-0.081841245
138	0x3e033e80	0.1281681
139	0x3d861c4b	0.06548365
140	0x3e0ea00a	0.13928238
141	0x3d9b7ac1	0.07591773
142	0x3da7866d	0.081799366
143	0xbd65c587	-0.05609658
144	0x3d2e9580	0.042623043
145	0x3e8d51a6	0.27601355
146	0xbdbe2b94	-0.092856556
147	0x3d55d26b	0.052202623
148	0x3e40c319	0.18824424
149	0x3cf80be8	0.030279115
150	0x3ca419a0	0.02003175
151	0xbdf5b1b4	-0.11996785
152	0x3e93742e	0.28799576
153	0x3cb41548	0.021982804
154	0x3e593146	0.21210203
155	0xbc89fb8d	-0.016843582
156	0xbc0fbd21	-0.008773119
157	0xbdeeeb7f	-0.11666011
158	0x3dac8edc	0.08425686
159	0x3d462fa3	0.048385274

model.rnn.bias_hh_l0 f4 [160]
0	0x3dde0140	0.10840082
1	0x3dae5603	0.08512499
2	0x3dcd232d	0.10016475
3	0x3e7d82df	0.24756955
4	0xbd4a5513	-0.04939754
5	0x3e6b727e	0.22992894
6	0x3e9c4816	0.30523747
7	0x3a5e49e2	0.00084796373
8	0x3ea30836	0.31842202
9	0xbd2bc599	-0.04193649
10	0x3e67c51b	0.22633784
11	0x3dafdc7d	0.08586977
12	0x3e0fc9ea	0.14041868
13	0x3e7ae90e	0.24502966
14	0x3df30521	0.11866213
15	0x3ea68256	0.32521313
16	0x3d4896dc	0.048971996
17	0xbd5af869	-0.05345956
18	0xbd806b95	-0.0627052
19	0x3e1dc55a	0.15407315
20	0x3d120d29	0.03565708
21	0xbdd10344	-0.10205701
22	0xbe065bbb	-0.1312093
23	0xbdc0a3ce	-0.09406243
24	0x3c360599	0.011109733
25	0x3d9b8302	0.07593347
26	0x3e09a61a	0.13442269
27	0xbcda617e	-0.026657816
28	0x3e1969ab	0.14981715
29	0x3d8aec53	0.067833565
30	0x3e0197d5	0.12655576
31	0xbd91deb8	-0.07122558
32	0x3e7f5daf	0.24938081
33	0x3d342020	0.04397595
34	0x3ddfb2de	0.10922788
35	0xbc0da4f5	-0.008645286
36	0x3b1ce6dc	0.0023941314
37	0x3cc03708	0.023463741
38	0xbbf06ecf	-0.007337428
39	0x3db9f86d	0.090805866
40	0xbdcf05df	-0.10108542
41	0xbcae2dd4	-0.021262087
42	0x3d8931ad	0.06698928
43	0x3da6bad2	0.08141102
44	0x3e38c6cc	0.18044585
45	0xbdd6dd31	-0.10491408
46	0x3e0f6775	0.1400431
47	0x3e4200e5	0.18945654
48	0x3e2be0ce	0.16784975
49	0xbd08a490	-0.033360064
50	0x3e35eabe	0.17765328
51	0xbc4ee470	-0.012627706
52	0xbcb49a70	-0.022046298
53	0x3e40a178	0.18811595
54	0xbbacb3be	-0.0052704504
55	0x3c42ad06	0.011882072
56	0xbddee836	-0.108841345
57	0x3d7c5d43	0.06161238
58	0xbcf3b378	-0.029748663
59	0x3b7d4b1a	0.00386495
60	0x3e0a6421	0.13514759
61	0xbc76c76d	-0.015062195
62	0x3d4f7299	0.0506464
63	0x3d8a78e4	0.06761339
64	0xbdbbeec9	-0.09176404
65	0x3ca58e83	0.020209556
66	0x3ddb09bd	0.10695217
67	0x3dff2fd2	0.12460293
68	0x3dd9e610	0.10639584
69	0x3db55294	0.08853641
70	0xbd3e420e	-0.046449713
71	0xbd46d4bc	-0.048542723
72	0x3d7e2047	0.0620425
73	0xbe1d0201	-0.15332796
74	0xbcfcd4e7	-0.030863238
75	0xbe184822	-0.14871266
76	0xbc026889	-0.007959493
77	0xbe23999b	-0.15976565
78	0x3e044999	0.129187
79	0x3e23b487	0.15986834
80	0x3c500757	0.012697062
81	0x3dae4d9f	0.08510899
82	0x3df57317	0.11984842
83	0x3dac15b3	0.08402576
84	0x3c4213ed	0.011845571
85	0x3ca1e384	0.019761808
86	0xbe395e32	-0.18102339
87	0xbd6925c2	-0.056920774
88	0xbe787060	-0.24261618
89	0x3ce43133	0.027855491
90	0x3cec1359	0.02881782
91	0xbd83db51	-0.06438316
92	0x3b42d15d	0.002972684
93	0xbe21d631	-0.15804364
94	0xbd37c60a	-0.0448666
95	0xbdde9b7c	-0.108695
96	0xbd6ed946	-0.058312677
97	0xbd95e9cd	-0.073199846
98	0x3c915a99	0.017743396
99	0x3daa42b4	0.08313504
100	0x3c801832	0.015636537
101	0xbd019ebb	-0.031645518
102	0x3d52aa3f	0.05143189
103	0x3dea85de	0.114513144
104	0xbdb1bb51	-0.08678306
105	0xbe53a7e5	-0.20669515
106	0x3bc6c31b	0.006065739
107	0x3d7f64b9	0.062351916
108	0x3cff9781	0.031200172
109	0x3e03fb45	0.1288882
110	0xbd8e6671	-0.06953133
111	0x3d8a3930	0.06749189
112	0x3d91746d	0.071022846
113	0xbcc9f96b	-0.024655065
114	0xbd720496	-0.059086405
115	0xbd4cc94c	-0.04999666
116	0xbde07cb1	-0.10961283
117	0x3bb7fba7	0.005614716
118	0x3da18076	0.0788583
119	0xbd703fd7	-0.058654632
120	0x3e1fd3c1	0.15608121
121	0x3e79ac97	0.24382244
122	0x3d7f3949	0.06231049
123	0x3dc0e2fa	0.09418292
124	0xbd02e935	-0.031960685
125	0x3e833b76	0.25631303
126	0x3e68515e	0.22687289
127	0xbce2083f	-0.027591823
128	0x3d20a36e	0.03921836
129	0xbdc02894	-0.0938274
130	0x3e336f72	0.17522982
131	0x3e1784fd	0.14796825
132	0xbcfbfef4	-0.03076122
133	0xbd5760fd	-0.05258273
134	0x3dc1edba	0.09469171
135	0x3e7b828c	0.24561518
136	0xbb8206be	-0.003968089
137	0xbde76666	-0.11298828
138	0x3d1b99bc	0.03798841
139	0xbc6797b1	-0.014135287
140	0x3c5f5c61	0.013632865
141	0x3e53f950	0.20700574
142	0xbd1105cb	-0.035405915
143	0x3d728192	0.0592056
144	0x3d92b9c4	0.07164338
145	0x3dec5c9a	0.115411
146	0xbdb38d61	-0.087672
147	0xbd50ab5c	-0.05094467
148	0x3daabe1c	0.08337042
149	0xbd51cf08	-0.05122283
150	0x3e006c1c	0.1254124
151	0xbd3484b5	-0.04407187
152	0x3e3ddb8c	0.18540782
153	0x3e279fcf	0.16369556
154	0x3d4568df	0.048195716
155	0x3e2cb482	0.16865733
156	0x3e3d10a2	0.18463376
157	0x3e201682	0.15633586
158	0x3da996ba	0.08280702
159	0xbc13f2b6	-0.009030035

model.rnn.weight_ih_l1 f4 [160, 40]
0	0xbbf14ea9	-0.0073641133
1	0x3baef765	0.0053395503
2	0xbdbf0da7	-0.09328776
3	0x3ddea980	0.10872173
4	0xbbe0f70a	-0.006865387
5	0x3e5eac3b	0.21745388
6	0xbe5a2d27	-0.21306287
7	0xbe66c637	-0.2253655
8	0xbe67c9e2	-0.22635606
9	0x3d71b697	0.059012022
10	0x3e05ffda	0.13085881
11	0xbd2c5908	-0.042077094
12	0xbe41ee35	-0.18938525
13	0xbca096a0	-0.019603074
14	0x3d899d33	0.067194365
15	0xbda2474b	-0.07923754
16	0xbdbf9872	-0.093552485
17	0x3bbd1872	0.0057707364
18	0xbc19c174	-0.009384502
19	0xbe17f0d9	-0.1483797
20	0x3d082222	0.033235677
21	0x3db1fda2	0.08690955
22	0x3d246cff	0.04014301
23	0xbd3bd839	-0.045860503
24	0xbcbc9c77	-0.023023827
25	0xbdf7a56a	-0.12092097
26	0xbd0919b0	-0.033471763
27	0x3e12e242	0.14344123
28	0xbd37e6f7	-0.044898
29	0xba250f08	-0.00062964903
30	0x3ce6a3a9	0.028154211
31	0x3d9a088e	0.07521163
32	0xbe250f97	-0.16119228
33	0xbd931152	-0.07181038
34	0x3d121fd6	0.035674892
35	0x3dec5c5f	0.11541056
36	0x3d2696ed	0.040671278
37	0xbd4040ee	-0.04693692
38	0xbd63753f	-0.055531736
39	0x3da7e2f3	0.08197584
40	0xbe1ff6e4	-0.15621525
41	0xbe6f7eb3	-0.23388176
42	0x3dea0d2f	0.11428296
43	0x3ea80460	0.32815838
44	0xbe015bfa	-0.12632743
45	0x3bbee058	0.0058250837
46	0xbee43dd8	-0.44578433
47	0xbb377d9d	-0.0027998455
48	0xbed64749	-0.4185126
49	0x3dea4eca	0.11440809
50	0x3de6061f	0.11231636
51	0xbc821823	-0.01588065
52	0xbe9f1069	-0.31067207
53	0xbe59b7b1	-0.21261479
54	0x3e4591e5	0.19293936
55	0xbedfde5d	-0.43724337
56	0xbe368e43	-0.17827706
57	0xbd83991f	-0.0642569
58	0xbe3d9135	-0.18512423
59	0xbe899a9a	-0.26875764
60	0xbe3d3c8a	-0.18480125
61	0xba46dc4b	-0.0007585927
62	0xbe2474ad	-0.16060133
63	0x3d9918c7	0.07475429
64	0xbd987b20	-0.07445359
65	0xbc2135b4	-0.009839464
66	0x3caae785	0.02086235
67	0xbdfc7875	-0.12327663
68	0x3e33fd51	0.17577101
69	0x3dc430a9	0.09579594
70	0xbe909206	-0.28236407
71	0x3e0142cd	0.12623139
72	0xbe0a1fc0	-0.13488674
73	0x3e67b583	0.22627835
74	0xbeb24d53	-0.3482462
75	0xbd31dd6a	-0.043424048
76	0x3d8ef58b	0.06980427
77	0xbe1ddd67	-0.1541649
78	0xbe876066	-0.26440734
79	0x3ccf1bcf	0.025281815
80	0xbd0990a6	-0.033585213
81	0xbcd9a3a6	-0.026567291
82	0x3d142b3f	0.036174055
83	0x3e06c8fb	0.13162605
84	0xbdda72ac	-0.10666403
85	0xbd8a742d	-0.0676044
86	0xbe1eb54d	-0.15498848
87	0xbe727823	-0.23678641
88	0xbe0c7d16	-0.13719591
89	0xbda6afaa	-0.08138974
90	0xbdaf5a1c	-0.08562109
91	0xbe3bcc80	-0.1833973
92	0xbd215b84	-0.039393917
93	0xbcd89afc	-0.02644109
94	0xbc0f0124	-0.008728299
95	0xbbb91822	-0.005648629
96	0xbdd2319d	-0.10263369
97	0x3e824446	0.25442713
98	0xbcf97499	-0.030451106
99	0xbdf50edf	-0.11965727
100	0x3d99011b	0.07470914
101	0x3d296084	0.04135181
102	0x3d90d1ac	0.07071242
103	0xbcce09c3	-0.02515114
104	0xba9a5056	-0.001177321
105	0xbe2d1ba3	-0.16905074
106	0x3e176fb8	0.14788711
107	0xbd0b80a5	-0.03405823
108	0x3deccd96	0.1156265
109	0x3d809311	0.06278051
110	0xbcbb99c4	-0.02290047
111	0xbdb77b95	-0.08959118
112	0x3c603336	0.013684085
113	0x3dd029cd	0.10164223
114	0x3d7fb945	0.062432546
115	0xbda73bc9	-0.081657
116	0x3ea13306	0.3148424
117	0xbe49f8c9	-0.1972381
118	0x3d49de0c	0.049284026
119	0xbe39c3ae	-0.18141052
120	0xbd601d36	-0.054715358
121	0x3d011761	0.031516436
122	0xbe2deb03	-0.16984181
123	0xbda99caf	-0.08281838
124	0x3d7ad6b7	0.061239924
125	0x3e14b016	0.14520296
126	0x3e079595	0.13240655
127	0x3de768df	0.112992994
128	0xbb99876e	-0.004685334
129	0xbbde308b	-0.006780689
130	0x3dd2c43c	0.10291335
131	0xbe11f42b	-0.14253299
132	0xbddb0c39	-0.10695691
133	0xbd38af3d	-0.045088995
134	0xbd8410a6	-0.06448488
135	0xbdbe928e	-0.09305297
136	0x3ce21575	0.027598122
137	0xbd861601	-0.06547166
138	0x3df99582	0.121867195
139	0xbe122992	-0.1427367
140	0xbca97921	-0.020687642
141	0x3d4e93ed	0.05043404
142	0xbd13058e	-0.03589397
143	0x3e1bc159	0.15210475
144	0x3d95d459	0.07315893
145	0xbc91baa0	-0.017789185
146	0x3ccc3a2c	0.024930082
147	0x3e0afeb6	0.13573727
148	0x3ddaf5ac	0.106913894
149	0xbdd155b8	-0.10221428
150	0x3db26757	0.08711117
151	0x3d905af0	0.07048595
152	0xbd29624e	-0.041353516
153	0x3e0de214	0.13855773
154	0xbddb164a	-0.10697611
155	0xbdae38cc	-0.08506927
156	0x3d83b2f1	0.06430615
157	0xbdf39e26	-0.11895399
158	0x3d479ea0	0.04873526
159	0xbdf180a4	-0.117921144
160	0xbe0843e0	-0.13307142
161	0xbdf42b08	-0.1192227
162	0xbe288a6e	-0.16459057
163	0xbdc66a89	-0.09688289
164	0x3dc795ba	0.09745355
165	0x3df88d5f	0.121363394
166	0x3d248930	0.040169895
167	0x3c4302fd	0.011902568
168	0x3dfead27	0.1243537
169	0xbe2d2923	-0.16910224
170	0x3d9554ba	0.07291551
171	0x3e17af43	0.14812951
172	0xbd47e08c	-0.04879813
173	0xbe04a6d4	-0.12954265
174	0xbc7785aa	-0.015107552
175	0x3d9a541f	0.07535576
176	0xbbf6bb00	-0.0075296164
177	0x3e04ddbf	0.12975214
178	0x3e060e66	0.1309143
179	0x3db56b73	0.08858385
180	0x3cc71c1a	0.024305392
181	0xbe1684ce	-0.14699098
182	0x3e0924e3	0.13392977
183	0xbcc4fb90	-0.024045736
184	0x3e09d8d0	0.13461614
185	0x3df2f6d4	0.11863485
186	0x3ded6454	0.11591402
187	0x3e0b7230	0.13617778
188	0xbe10182d	-0.14071722
189	0xbe132dee	-0.1437299
190	0x3dae374e	0.08506642
191	0xbd8440fe	-0.06457709
192	0x3dd5a5ba	0.104320005
193	0xbe37d8c5	-0.17953785
194	0xbbf6b125	-0.0075284415
195	0x3da18149	0.07885987
196	0xbe1b8df9	-0.15190877
197	0x3d0b088d	0.0339437
198	0x3d6f3a5d	0.05840527
199	0x3d2f6b18	0.042826742
200	0xbeaf02f1	-0.34181932
201	0xbe80012d	-0.25000897
202	0x3e917dca	0.28416282
203	0x3ea029ac	0.31281793
204	0xbe6dac09	-0.23210157
205	0x3d0d265b	0.034460407
206	0xbeb26126	-0.34839743
207	0xbb478d0a	-0.0030449056
208	0xbeb278bf	-0.34857747
209	0x3c27d19c	0.010242846
210	0x3d068d5b	0.03284965
211	0xbe350871	-0.17679001
212	0xbe177085	-0.14789017
213	0xbe191e19	-0.14952888
214	0x3e7f271e	0.24917266
215	0xbea4a5d8	-0.3215778
216	0xbe905b79	-0.28194788
217	0x3dc6235b	0.09674712
218	0xbd65b3e0	-0.056079745
219	0xbd4f2125	-0.05056872
220	0xbe355b6d	-0.17710657
221	0x3e17987a	0.14804259
222	0x3ceeeb1e	0.029164847
223	0x3dea82ea	0.11450751
224	0xbda6d5e1	-0.08146263
225	0xbe7118a0	-0.2354455
226	0x3e820f56	0.25402325
227	0xbd196afd	-0.037455548
228	0x3e938124	0.28809464
229	0x3dcaccb7	0.099023275
230	0xbdaea4ae	-0.08527504
231	0xbc7571c9	-0.014980742
232	0xbe02e19e	-0.12781379
233	0x3e508727	0.20364057
234	0xbe1bc697	-0.15212475
235	0xbe814940	-0.25251198
236	0x3e800a9d	0.25008097
237	0xbccf723b	-0.025323024
238	0xbeb539b3	-0.35395584
239	0xbdd0157e	-0.10160349
240	0xbce82d36	-0.02834187
241	0xbdac0fd9	-0.0840146
242	0x3de9a05c	0.11407539
243	0x3e153896	0.14572367
244	0xbd3a5648	-0.04549244
245	0x3db1ab01	0.086751945
246	0xbd88ae4a	-0.06673868
247	0x3dbb2f64	0.091398984
248	0xbd9559da	-0.072925285
249	0x3e56ffab	0.20995967
250	0x3df6dcd4	0.12053838
251	0xbd57c33c	-0.052676424
252	0xbe308cca	-0.17241207
253	0xbcfba880	-0.030719995
254	0xbd5e179c	-0.054221734
255	0xbdbdb073	-0.09262171

model.rnn.weight_hh_l1 f4 [160, 40]
0	0x3d0da57e	0.034581654
1	0x3d2cac2b	0.04215638
2	0x3d927d4d	0.071528055
3	0xbe14b277	-0.14521204
4	0x3cb7004c	0.022339009
5	0xbcdfbbfd	-0.02731132
6	0x3d7811d2	0.06056387
7	0x3cec28ee	0.02882811
8	0x3dba1425	0.090858735
9	0xbdecf92e	-0.11570965
10	0x3d0f20bf	0.03494334
11	0x3d1b85de	0.037969463
12	0x3e0223f0	0.12709022
13	0x3e1947a5	0.14968736
14	0xbe0536d3	-0.13009195
15	0x3e01e8c3	0.12686448
16	0x3d874d07	0.06606489
17	0x3d42ebcc	0.047588155
18	0x3e3333f7	0.17500292
19	0xbd30312c	-0.043015644
20	0x3dcd68f8	0.10029787
21	0xbce45be0	-0.02787584
22	0x3dcc0693	0.099621914
23	0xbda8ab20	-0.082357645
24	0xbda44027	-0.080200486
25	0x3da1dcf8	0.079034746
26	0xbe018465	-0.12648161
27	0x3d9b43a3	0.0758126
28	0x3d5ced24	0.053937092
29	0x3e11d8ab	0.14242809
30	0xbd5c18fb	-0.05373476
31	0x3dfe5972	0.12419404
32	0x3df415fc	0.11918256
33	0x3d84e4e4	0.0648897
34	0x3db768ad	0.08955512
35	0x3e0da488	0.13832295
36	0xbba61dd5	-0.005069474
37	0xbc9f0a24	-0.019414015
38	0xbc65305f	-0.013988583
39	0xbdc06a6c	-0.09395298
40	0x3de806e3	0.113294385
41	0x3d334023	0.043762337
42	0xbd40cdc8	-0.04707125
43	0x3c6d05ab	0.014466683
44	0x3dbf0457	0.09327
45	0xbe01792c	-0.1264388
46	0x3d833715	0.064069904
47	0x3cbf7394	0.023370542
48	0x3dcb8bec	0.09938797
49	0xbe04ef62	-0.12981942
50	0xbd86fe73	-0.06591501
51	0x3de49ab5	0.111623205
52	0xbe08755e	-0.13326022
53	0x3df833c0	0.121192455
54	0x3df7fc61	0.12108684
55	0xbcf13c57	-0.029447718
56	0xbdb7fa8b	-0.08983334
57	0x3db9b9bd	0.0906863
58	0xbcc3aec2	-0.023887042
59	0xbd2dfb3c	-0.042475924
60	0x3d97e227	0.07416182
61	0xba03a341	-0.000502158
62	0x3d8b27b1	0.0679468
63	0xbd0110d5	-0.031510193
64	0xbd4ba1f1	-0.049714986
65	0xbd5ee824	-0.054420605
66	0x3dfe60e8	0.12420827
67	0xbdbf2dda	-0.09334917
68	0x3df5ffe8	0.12011701
69	0xbdca01b6	-0.098636076
70	0x3df55dbb	0.11980768
71	0x3dc8f8fa	0.098131135
72	0xbd22f6e3	-0.03978623
73	0xbd7359a9	-0.05941168
74	0x3d3410e9	0.04396144
75	0xbdea8432	-0.114509955
76	0xbe00e59d	-0.1258759
77	0xbe017119	-0.126408
78	0x3e09e51e	0.13466308
79	0x3e35f208	0.17768109
80	0xbcaa0b77	-0.02075742
81	0xbdbe7107	-0.09298902
82	0x3e5a2d1d	0.21306272
83	0xbe3481b2	-0.176276
84	0xbcc0c9b5	-0.023533681
85	0xbe126020	-0.14294481
86	0xbce3d671	-0.027812215
87	0x3d913b0b	0.0709134
88	0xbbeb7b79	-0.00718635
89	0xbd885a5a	-0.06657858
90	0xbe17f1e4	-0.14838368
91	0x3db40803	0.087905906
92	0xbe10c188	-0.14136326
93	0xbbb3cee2	-0.005487309
94	0xbd05560d	-0.032552768
95	0xbe369dcd	-0.17833634
96	0xbe059c06	-0.130478
97	0xbde0515c	-0.10953018
98	0x3e231869	0.1592728
99	0xbc144e6a	-0.0090518985
100	0x3e03df8e	0.12878248
101	0x3cecce6a	0.02890702
102	0xbe0024c6	-0.12514028
103	0xbbef07e8	-0.0072946437
104	0x3df918c3	0.12162926
105	0xbdb86d9c	-0.09005281
106	0xbde50299	-0.11182136
107	0xbdd617d6	-0.10453765
108	0xbd3ae9d7	-0.045633163
109	0x3cd80b93	0.026372707
110	0xbd472f1b	-0.048628908
111	0x3e10aa85	0.14127548
112	0xbe15629d	-0.14588399
113	0x3d03f76e	0.03221839
114	0x3cc28742	0.023746137
115	0xbd919859	-0.07109136
116	0x3dd61ba6	0.10454492
117	0xbe28fd3c	-0.16502851
118	0x3de17500	0.11008644
119	0xbbae5f91	-0.005321451
120	0xbda6f300	-0.08151817
121	0x3da77d7c	0.08178231
122	0xbe68311b	-0.22674982
123	0x3d35709b	0.044296842
124	0xbe0f8097	-0.14013897
125	0x3e0ccabd	0.13749214
126	0xbdc8c9f9	-0.09804148
127	0xbd6a6528	-0.057225376
128	0x3d5eae78	0.054365605
129	0x3d97df5b	0.074156485
130	0xbd180894	-0.037117556
131	0x3d848982	0.0647154
132	0xbbc88132	-0.006118917
133	0x3e26fc94	0.16307288
134	0xbe104fbb	-0.14092915
135	0xbdca4684	-0.09876731
136	0x3e11077e	0.14163014
137	0x3d8bd97f	0.068285935
138	0xbde44924	-0.11146763
139	0xbd8aabda	-0.06771059
140	0xbe26998d	-0.16269512
141	0xbdb2d581	-0.08732129
142	0x3e3203a9	0.17384209
143	0xbe34efeb	-0.17669646
144	0xbd982dbf	-0.074306004
145	0x3e2e0194	0.1699279
146	0x3dfd4a6d	0.12367711
147	0x3e047046	0.12933454
148	0xbdc7adb7	-0.0974993
149	0x3e09df61	0.13464119
150	0x3c4024a9	0.01172749
151	0x3d8ad23a	0.06778379
152	0xbde8e647	-0.11372047
153	0x3d10ba89	0.035334144
154	0x3dbb8ee6	0.09158115
155	0x3e087d7a	0.13329116
156	0xbd63ee16	-0.05564698
157	0xbd24b405	-0.040210743
158	0xbe2cfdce	-0.16893694
159	0x3a06a16c	0.0005135748
160	0x3d8b492c	0.06801066
161	0xbe16f6fa	-0.14742652
162	0xbd19e484	-0.037571445
163	0xbde33fe9	-0.11096174
164	0xbc5af7a3	-0.013364705
165	0x3d379853	0.044823002
166	0x3db124a4	0.08649567
167	0x3a786f3a	0.0009477023
168	0x3e386713	0.1800807
169	0xbe20e518	-0.15712392
170	0x3c991c42	0.018690232
171	0xbd9a8cb3	-0.075463675
172	0xbd8f5679	-0.06998915
173	0x3d6c0066	0.057617567
174	0x3e47d499	0.19514693
175	0xbe206946	-0.15665159
176	0x3df6e288	0.12054926
177	0x3d406a11	0.046976153
178	0x3e1ce46a	0.15321508
179	0x3dd81161	0.1055019
180	0xbe516eb0	-0.2045238
181	0xbe034d80	-0.12822533
182	0xbe452946	-0.19254026
183	0xbd869b7a	-0.065726236
184	0xbd1730bd	-0.036911715
185	0xbdf1d00c	-0.1180726
186	0x3e00efa0	0.1259141
187	0x3e368803	0.17825322
188	0x3cd9253a	0.026507009
189	0x3d32077f	0.04346418
190	0x3df5f959	0.1201045
191	0x3b480af1	0.00305241
192	0x3d4023d9	0.046909187
193	0x3deaa901	0.11458016
194	0xbcee62ee	-0.029099908
195	0x3e28e76b	0.16494529
196	0x3c5b107a	0.013370628
197	0xbd9d26c5	-0.0767341
198	0xbdc0525a	-0.09390707
199	0x3dbdf564	0.0927532
200	0xbd9d79d9	-0.07689256
201	0x3bc2a9c8	0.0059406497
202	0xbc7140af	-0.014724894
203	0x3c4ad0f4	0.01237892
204	0x3d9edf48	0.07757431
205	0xbd7b2335	-0.061312873
206	0xbe5e2885	-0.21695144
207	0xbdd6f72a	-0.104963616
208	0xbcfd169c	-0.03089457
209	0xbd8a8869	-0.067642994
210	0xbcef5fb2	-0.029220436
211	0xbd98f817	-0.074691944
212	0x3d6a3db7	0.057187762
213	0x3e01b446	0.12666425
214	0xbd1a0849	-0.037605558
215	0x3e319ce8	0.17345011
216	0x3e1a3eb0	0.15062976
217	0x3e6136e2	0.21993592
218	0x3e6e169a	0.2325081
219	0xbdc77abf	-0.09740209
220	0xbd2c2100	-0.04202366
221	0x3e3d5367	0.18488847
222	0x3dd7b294	0.10532108
223	0x3e337648	0.1752559
224	0x3e4f1aec	0.20225114
225	0xbdc3f090	-0.09567368
226	0xbd43c55c	-0.04779564
227	0xbddacdc2	-0.106837764
228	0xbdbe6ee7	-0.09298497
229	0x3d0222b4	0.031771377
230	0x3d8ba02c	0.0681766
231	0xbc5a855c	-0.013337459
232	0xbcb1b117	-0.021690888
233	0xbd91f0d0	-0.071260095
234	0x3e0c35b0	0.13692355
235	0x3d036f4b	0.03208856
236	0xbc9857ff	-0.018596647
237	0xbe229537	-0.15877233
238	0xbcf84be5	-0.030309627
239	0xbd3799a6	-0.044824265
240	0xbe5dbe1f	-0.21654557
241	0x3d16aaaf	0.03678387
242	0x3e2dc092	0.16967991
243	0x3cec1fdb	0.028823784
244	0xbdad37ec	-0.08457932
245	0xbe326a01	-0.1742325
246	0x3d1e8977	0.038705315
247	0x3e1bade4	0.15203053
248	0xbe4a6ec2	-0.19768813
249	0x3d8e4d9c	0.069483966
250	0x3ddc9595	0.10770718
251	0xbca81a83	-0.020520454
252	0xbd8f0897	-0.0698406
253	0x3e585c25	0.211289
254	0x3e21ec08	0.15812695
255	0x3e4e342c	0.2013709

model.rnn.bias_ih_l1 f4 [160]
0	0x3d63725d	0.055528987
1	0x3d9889c4	0.07448152
2	0x3d49f726	0.049307965
3	0x3e3ecae9	0.18632092
4	0x3dbe1fe6	0.09283428
5	0x3debacad	0.11507545
6	0xbbd67f1b	-0.006545914
7	0x3e1e092a	0.15433183
8	0x3c8768b2	0.016529415
9	0xbdfb10b7	-0.122590475
10	0x3e029a30	0.1275413
11	0x3e2bbce2	0.16771272
12	0xbde5173b	-0.111860715
13	0x3d94022b	0.07226976
14	0xbdf465b1	-0.119334586
15	0x3c46c043	0.0121308
16	0x3cf62129	0.030045109
17	0x3cbc3ca0	0.022978127
18	0x3e032908	0.12808621
19	0x3db0c0b3	0.086305045
20	0x3d7a0343	0.061038267
21	0x3e065efa	0.13122168
22	0x3d839269	0.0642441
23	0x3d232973	0.03983445
24	0x3d7e13b3	0.062030505
25	0x3cdd4b3c	0.027013414
26	0x3da30237	0.07959407
27	0xbbb41d10	-0.0054966286
28	0x3e8be096	0.27319783
29	0x3e7124dc	0.23549217
30	0x3c05215e	0.008125631
31	0x3cf8b776	0.030360918
32	0x3e934c38	0.28769088
33	0xbe129ad9	-0.14316882
34	0x3dd7f099	0.10543937
35	0x3d2a49cf	0.041574296
36	0x3e1eecf4	0.15520078
37	0x3e53c6a2	0.20681241
38	0x3dd8b8cd	0.10582123
39	0x3e1bf089	0.15228476
40	0x3e160ca2	0.14653257
41	0xbdbc371f	-0.09190201
42	0x3e107f6d	0.14111109
43	0x3d74b5bc	0.059743628
44	0xbc96a51e	-0.01838928
45	0x3d570e98	0.052504152
46	0x3b97742a	0.004622002
47	0x3e09f16f	0.13471006
48	0xbe257b4e	-0.16160318
49	0xbdccf2eb	-0.100072704
50	0xbdcf7bef	-0.1013106
51	0xbd120dc0	-0.035657644
52	0x3d5c8348	0.053836137
53	0xbd84bf98	-0.06481856
54	0xbdfd9605	-0.123821296
55	0x3de007c8	0.10938984
56	0x3da868e1	0.08223129
57	0xbd8bf697	-0.06834143
58	0x3d9382b4	0.07202664
59	0xbd89e590	-0.06733239
60	0x3d692aec	0.0569257
61	0xbdee399a	-0.116320804
62	0xbdd393f7	-0.103309564
63	0x3e2956de	0.16537043
64	0xbcc103cb	-0.023561379
65	0xbd63d656	-0.05562433
66	0xbdd89cd9	-0.10576791
67	0xbe063df7	-0.13109575
68	0xbd47c6b0	-0.048773468
69	0x3c982db5	0.018576482
70	0xbe05686c	-0.13028115
71	0xbd96f262	-0.073704496
72	0x3c439e65	0.01193962
73	0xbdca7cb9	-0.0988707
74	0x3e3a2e8f	0.18181823
75	0x3d8398b8	0.06425613
76	0x3db88ff8	0.09011835
77	0x3c100f6a	0.0087927375
78	0xbdbc5389	-0.091956206
79	0x3e232819	0.15933265
80	0xbe4cc398	-0.19996488
81	0xbd9b29d9	-0.07576341
82	0x3d4de5b6	0.050267898
83	0xbe14bc6c	-0.14525002
84	0x3cd81141	0.026375415
85	0xbbb9b27d	-0.0056670294
86	0x3e2332f6	0.15937409
87	0x3d5f4ab6	0.05451461
88	0x3dbaa7a5	0.09114007
89	0xbd23e663	-0.040014636
90	0x3e1699ba	0.1470708
91	0x3d427943	0.047478925
92	0xbd79b166	-0.060960196
93	0x3e1352d1	0.1438706
94	0xbdf920d5	-0.12164465
95	0x3e0de4a2	0.13856748
96	0x3e25818d	0.16162701
97	0x3b40246e	0.0029318589
98	0x3d983ae0	0.074331045
99	0xbe221da3	-0.15831618
100	0x3dec85e3	0.11548974
101	0x3e2cbb71	0.16868378
102	0xbdfd0c46	-0.123558566
103	0x3da3c7bd	0.079970814
104	0xbceedefc	-0.029159062
105	0xbd69b8ef	-0.057061132
106	0xba68a9f2	-0.00088754215
107	0xbe03e2a3	-0.12879424
108	0x3c681c36	0.014166882
109	0xbdead96f	-0.114672534
110	0x3e72b7b8	0.23702896
111	0x3d211889	0.03933004
112	0xbd9ddc0e	-0.07707988
113	0x3d1eee08	0.038801223
114	0x3dcf63b8	0.10126442
115	0xbe3fa5aa	-0.1871554
116	0xbd6b6ead	-0.057478596
117	0x3decad37	0.115564756
118	0x3cc5842d	0.024110878
119	0x3db9739c	0.09055254
120	0x3dbf397e	0.09337138
121	0x3e658cb4	0.22416955
122	0xbe0b9656	-0.13631567
123	0xbb13ef70	-0.0022573136
124	0xbe27d81b	-0.16391031
125	0x3dd6b232	0.10483207
126	0xbd80b0eb	-0.062837444
127	0xbcedcd23	-0.02902848
128	0x3d2d9fe5	0.042388815
129	0xbcca557e	-0.024698969
130	0xbdbe809c	-0.09301874
131	0xbdaebdfc	-0.085323304
132	0xbd288beb	-0.04114906
133	0xbd5c908a	-0.05384878
134	0x3d658581	0.056035522
135	0xbdb05f36	-0.0861191
136	0x3d041f4f	0.03225642
137	0x3e0ac73a	0.13552561
138	0x3d9ad608	0.075603545
139	0x3c3bab77	0.011454455
140	0x3d9220a3	0.07135131
141	0x3c960d29	0.018316822
142	0x3c38dc77	0.011283032
143	0x3d3903e2	0.04516972
144	0x3e0fb755	0.1403478
145	0x3be840cd	0.007087803
146	0x3e26cf02	0.16289905
147	0xbd1272c9	-0.035754
148	0x3e1e6572	0.15468386
149	0x3e064a95	0.13114388
150	0x3e3c6b78	0.18400371
151	0x3bf70e16	0.007539521
152	0x3e5029e0	0.20328474
153	0xbd647312	-0.055773802
154	0x3d259d8b	0.040433448
155	0xbc541295	-0.012943883
156	0x3e443932	0.19162443
157	0x3de6865f	0.11256098
158	0x3c82fff2	0.015991185
159	0x3c3dcc36	0.011584332

model.rnn.bias_hh_l1 f4 [160]
0	0x3e1f5e55	0.15563329
1	0x3e5664da	0.2093691
2	0x3dd9d2a4	0.1063588
3	0xbda6dfdb	-0.08148166
4	0x3db8bf2c	0.09020838
5	0x3db53032	0.08847083
6	0x3c6833ed	0.014172536
7	0xbc735c9d	-0.014853624
8	0x3e03b70c	0.12862796
9	0xbd046a01	-0.032327656
10	0xbd607aee	-0.054804735
11	0xbc43eb61	-0.011957974
12	0xbd751dd5	-0.059842903
13	0xbe13858d	-0.14406414
14	0x3c6f833e	0.014618693
15	0xbc718e4c	-0.014743399
16	0x3e31ed03	0.17375569
17	0x3e4082b1	0.18799855
18	0x3e179f45	0.1480685
19	0x3e004234	0.12525254
20	0xbc344803	-0.011003497
21	0xbd669670	-0.056295812
22	0x3cd81ad5	0.026379982
23	0x3e31bd3e	0.17357346
24	0x3d039c99	0.032131765
25	0x3d2ecbdf	0.042674895
26	0x3d2ad3da	0.041705944
27	0x3e07d098	0.13263166
28	0x3df27ea7	0.11840563
29	0x3e1a357d	0.15059467
30	0x3e8ebe44	0.27879536
31	0x3e11b069	0.14227451
32	0x3cb2f541	0.021845462
33	0xbd87e171	-0.066347964
34	0xbdb1c470	-0.086800456
35	0xbba75f86	-0.005107823
36	0x3dd2e27d	0.102971055
37	0x3d65645b	0.05600391
38	0x3e086781	0.13320734
39	0x3e008e6e	0.12554333
40	0xbdb0f090	-0.08639634
41	0x3d9ae158	0.07562512
42	0xbddab9c9	-0.10679967
43	0xbc81a78c	-0.015826963
44	0x3de79345	0.11307386
45	0x3e196ef1	0.14983727
46	0xbd54a37f	-0.051913735
47	0x3dc3dc4c	0.09563503
48	0xbbf6880d	-0.0075235427
49	0xbb54c3b8	-0.003246529
50	0xbd9b5a6f	-0.07585608
51	0x3d2abeb9	0.041685794
52	0xbd98c2ca	-0.07459028
53	0x3dd9024a	0.1059614
54	0x3dbaa382	0.09113218
55	0xbe2dbd65	-0.1696678
56	0xbd72bb30	-0.059260547
57	0xbcb5dac5	-0.022199044
58	0x3d559c76	0.052151166
59	0x3d095468	0.03352776
60	0xbe2c3a01	-0.16819002
61	0xbd486937	-0.048928466
62	0x3d74933f	0.059710737
63	0xbcaf68ba	-0.021412242
64	0xbdb40627	-0.08790236
65	0xbb259422	-0.0025265296
66	0x3e23503c	0.15948576
67	0xbe19d972	-0.15024355
68	0xbd07f3eb	-0.033191603
69	0xbbe151d3	-0.0068762093
70	0x3bebcf63	0.0071963533
71	0x3d8f1f78	0.06988424
72	0xbd72b9d8	-0.059259266
73	0x3c92cb81	0.017919304
74	0x3d5280d1	0.05139238
75	0xbbcebad7	-0.006308894
76	0xbcb7cf47	-0.022437705
77	0x3dcaf391	0.09909738
78	0x3d4b9c4f	0.049709614
79	0xbd70a0e9	-0.058747206
80	0x3c1de7db	0.009637798
81	0x3d9296e9	0.0715769
82	0x3c47f762	0.012204977
83	0xbc792cbf	-0.015208422
84	0xbdfdb363	-0.12387731
85	0xbe0377c1	-0.12838651
86	0xbe016a76	-0.12638268
87	0xbd95ad90	-0.07308495
88	0x3dbd6642	0.0924802
89	0xbc910967	-0.017704679
90	0x3e213880	0.1574421
91	0xbe08d190	-0.13361192
92	0x3e384dc2	0.17998412
93	0x3e0649dd	0.13114114
94	0xbcef059d	-0.029177481
95	0xbde395c5	-0.11112551
96	0x3d66e732	0.05637283
97	0xbd640cb1	-0.055676166
98	0x3d6f5336	0.058428966
99	0xbdb84598	-0.08997649
100	0xbdcfb95c	-0.10142776
101	0xbb370937	-0.0027929076
102	0xbda41f5a	-0.08013792
103	0x3db4d647	0.08829933
104	0x3cc9f8c9	0.024654763
105	0xbd9b0a72	-0.07570352
106	0xbe01e904	-0.12686545
107	0xbd7384ff	-0.059453007
108	0xbe54b8a7	-0.20773564
109	0x3cf344f1	0.02969596
110	0x3d5d23d9	0.053989265
111	0x3e145c8d	0.1448843
112	0x3e61f3d6	0.22065672
113	0x3dd7f942	0.10545589
114	0x3e0bb1da	0.13642064
115	0xbe41624a	-0.1888515
116	0xbe3500ef	-0.17676137
117	0xbda7a21e	-0.08185218
118	0x3d34f943	0.044183027
119	0x3de05719	0.109541126
120	0x3e6f4d6e	0.23369381
121	0x3da6a0db	0.081361495
122	0xbcffa476	-0.03120635
123	0x3e2fd5bc	0.17171377
124	0x3dedb386	0.11606507
125	0x3e734cac	0.23759717
126	0x3e097b8b	0.13426034
127	0x3d4e46af	0.050360378
128	0x3e1b07e5	0.1513973
129	0x3e1407f2	0.14456156
130	0x3dedb8dc	0.11607525
131	0xbd345004	-0.04402162
132	0x3c81803d	0.01580822
133	0xbd66099b	-0.056161504
134	0x3e03ce64	0.128717
135	0xbd8450fd	-0.0646076
136	0x3e0ffd40	0.14061451
137	0x3e7c44ec	0.24635667
138	0x3e030f98	0.12798917
139	0x3d1ce4b3	0.038304042
140	0xbd29f99f	-0.041497823
141	0xbdb8a322	-0.0901549
142	0x3e4e1cbc	0.20128149
143	0xbbd3a450	-0.0064587966
144	0x3de7d16a	0.113192394
145	0x3ba1060b	0.0049140505
146	0x3e332019	0.17492713
147	0xbd837a68	-0.064198315
148	0x3d654423	0.055973183
149	0x3e834665	0.25639644
150	0x3e1a5b45	0.15073879
151	0x3dea7194	0.114474446
152	0x3e50272a	0.2032744
153	0x3c3a0dd2	0.011355834
154	0xbd9e4b44	-0.077291995
155	0x3dcc7ccb	0.0998474
156	0x3e23de03	0.1600266
157	0x3e1ef0a7	0.15521489
158	0x3e43aa16	0.19107851
159	0x3d6f8922	0.05848039
