generate_forecasts/output/Local_Forecasts/Meat/2025/models/DeepAR/W0/gluon_ts/prediction-net-state.pt (torch, 97628 bytes, 11 tensors)

model.param_proj.proj.0.weight f4 [1, 40]
0	0xbc032257	-0.008003793
1	0x3e78219e	0.24231574
2	0x3e11a0e0	0.14221525
3	0xbdf6f421	-0.12058283
4	0xbd7f6415	-0.062351305
5	0xbe4531e5	-0.19257315
6	0xbe1084e6	-0.14113197
7	0x3e23b539	0.159871
8	0xbd7cf65f	-0.061758395
9	0xbdca8207	-0.09888082
10	0xbd831cbd	-0.06401966
11	0xbdde706a	-0.10861285
12	0xbe4fbcf9	-0.20286931
13	0x3d25534e	0.04036265
14	0x3dcf56da	0.101239875
15	0x3e6e4789	0.23269476
16	0x3e0ecbf9	0.13944997
17	0x3d28132e	0.041033916
18	0x3e1663ed	0.14686556
19	0xbe704c25	-0.23466547
20	0xbde642ef	-0.11243235
21	0xbcf6df9c	-0.030135922
22	0xbe0ab76e	-0.13546535
23	0x3e5a23aa	0.21302667
24	0x3e84614e	0.25855488
25	0xbe40e4da	-0.188373
26	0xbdbaf797	-0.09129255
27	0x3dd9819c	0.10620424
28	0xbe5b2f54	-0.21404773
29	0xbe237e2c	-0.159661
30	0x3e7d3e5a	0.24730816
31	0x3e442bba	0.19157305
32	0x3e8950e7	0.26819536
33	0x3d98e570	0.07465637
34	0x3d4d69a5	0.05014958
35	0xbe3e3d10	-0.18577981
36	0xbd99c480	-0.075081825
37	0xbe73a15c	-0.23792022
38	0x3d9d4eef	0.07681071
39	0x3e1fcd96	0.15605769

model.param_proj.proj.1.weight f4 [1, 40]
0	0xbe24dd74	-0.16100103
1	0x3e1192f1	0.1421621
2	0x3e1962b0	0.14979053
3	0xbe065098	-0.13116682
4	0xbccd8e41	-0.025092246
5	0xbe26fcd2	-0.16307381
6	0x3d242bef	0.04008096
7	0x3d59456e	0.05304473
8	0xbe49e18c	-0.19714946
9	0x3ccaa85b	0.024738481
10	0x3e286018	0.16442907
11	0x3c960781	0.018314125
12	0x3d5fd742	0.054648645
13	0x3de9e286	0.11420159
14	0xbdec36bb	-0.115338765
15	0x3ddba119	0.10724086
16	0x3e25b37d	0.1618175
17	0x3cb577ac	0.02215179
18	0xbdb65518	-0.08902949
19	0xbe2bbe81	-0.1677189
20	0x3dc438e3	0.09581163
21	0x3df85298	0.121251285
22	0x3c936de6	0.01799674
23	0x3d4f34f3	0.050587606
24	0x3dfd7d20	0.12377381
25	0x3d3611d5	0.0444506
26	0xbd969eb9	-0.07354493
27	0x3bbf94c2	0.0058465907
28	0xbdbb5d4a	-0.09148653
29	0xbcc88582	-0.024477724
30	0x3d6b97a3	0.05751766
31	0x3df07f0c	0.11742982
32	0x3cc11a45	0.023572097
33	0xbc92d7ad	-0.017925108
34	0x3ba3bf9f	0.0049972082
35	0x3a8f98ee	0.0010955611
36	0xbe02541d	-0.12727399
37	0x3b5c835c	0.0033647632
38	0x3d969861	0.07353283
39	0xbcdd5489	-0.027017849

model.param_proj.proj.2.weight f4 [1, 40]
0	0x3e3aae1d	0.18230481
1	0xbe0384ab	-0.12843578
2	0x3dbc3535	0.09189836
3	0x3db9c9e8	0.09071714
4	0x3e1fe602	0.15615085
5	0x3e6eafbc	0.23309225
6	0x3dd37814	0.103256375
7	0xbe20b2fe	-0.1569328
8	0xbcb391a4	-0.021920033
9	0x3e427cbc	0.18992895
10	0x3d19c527	0.037541535
11	0x3df62eb9	0.120206304
12	0x3e1c355c	0.1525473
13	0xbdb5ad62	-0.08870961
14	0xbdb3e9bf	-0.08784818
15	0xbc95d33a	-0.018289197
16	0xbd184404	-0.03717424
17	0xbe10c35a	-0.1413702
18	0xbe18fda7	-0.1494051
19	0xbdc2e56d	-0.09516416
20	0x3e18c79f	0.149199
21	0xbb80336e	-0.003912381
22	0x3e31c122	0.1735883
23	0xbe25ee56	-0.16204199
24	0xbe7cbc9f	-0.24681328
25	0x3e4b04cd	0.1982605
26	0xbe5ad101	-0.21368791
27	0xbdad448b	-0.08460339
28	0x3ddb41ee	0.107059345
29	0x3e605b55	0.2190984
30	0xbe43e547	-0.19130431
31	0xbe1a978d	-0.15096875
32	0xbdcee813	-0.101028584
33	0xbe821436	-0.25406045
34	0xbd819fa0	-0.06329274
35	0x3e002326	0.12513408
36	0x3e8e53f4	0.27798426
37	0x3dd84599	0.1056015
38	0xbe6c42f2	-0.23072413
39	0xbe52ee1e	-0.20598647

model.rnn.weight_ih_l0 f4 [160, 21]
0	0x3e5fe32e	0.21864006
1	0x3db901ef	0.09033572
2	0x3e6f82c6	0.2338973
3	0x3e67acf8	0.22624576
4	0x3ddf8a90	0.109151006
5	0x3e0b480a	0.136017
6	0x3ecac8ba	0.39606267
7	0x3e6f2cf9	0.23357
8	0x3e535988	0.20639622
9	0x3ea0bfc6	0.31396312
10	0x3e862130	0.26197195
11	0x3ea599a3	0.32343778
12	0x3e68ff3c	0.22753614
13	0x3ea8dcc5	0.32980934
14	0x3e18b077	0.14911066
15	0x3ea4de13	0.3220068
16	0xbd349885	-0.044090766
17	0x3cc0c993	0.023533618
18	0x3a6d7c58	0.0009059361
19	0x3d4818ea	0.048851885
20	0x3e1475fb	0.14498131
21	0x3d3d2262	0.046175368
22	0x3df7a8de	0.12092756
23	0x3e4c9259	0.19977702
24	0x3dd721ae	0.10504471
25	0x3d0567ef	0.032569822
26	0xbb8915c9	-0.004183505
27	0x3dcf1253	0.10110917
28	0x3e1a2309	0.15052427
29	0x3e35f297	0.17768322
30	0xbd3af013	-0.04563911
31	0x3e270a3e	0.16312501
32	0xbd967891	-0.07347215
33	0xbcbfca92	-0.023412023
34	0xbbc66663	-0.006054686
35	0xbdbc146b	-0.09183582
36	0xbbadd15e	-0.0053044995
37	0x3d5fed27	0.054669525
38	0xbc0cb887	-0.008588917
39	0x3db007ae	0.08595215
40	0x3eb4e430	0.35330343
41	0x3e031c53	0.12803774
42	0x3d5b6d3c	0.05357097
43	0xbcd105ef	-0.025515525
44	0xbde4d43b	-0.11173292
45	0x3d9afd30	0.07567823
46	0x3c588d81	0.013217331
47	0x3d5bb34f	0.0536378
48	0xbdc5379a	-0.09629746
49	0xbe122693	-0.14272527
50	0x3d0f5045	0.03498866
51	0x3ca8001c	0.020507865
52	0xbda42a01	-0.08015824
53	0x3daef904	0.0854359
54	0xbe158894	-0.14602882
55	0xbe4d1d1d	-0.20030637
56	0xbc4bdaa5	-0.012442266
57	0x3dbc9b7d	0.092093445
58	0xbd3ff233	-0.04686184
59	0xbc596f58	-0.013271175
60	0xbe05f8e2	-0.13083223
61	0xbe8dba21	-0.27681068
62	0x3a025b69	0.00049727276
63	0x3e866b26	0.26253623
64	0x3d89fbad	0.067374565
65	0x3e98139b	0.29702458
66	0x3d1232f0	0.03569311
67	0x3e976fd6	0.29577512
68	0x3c85ff00	0.016356945
69	0x3d8b9c94	0.06816974
70	0x3e6f6b0c	0.23380679
71	0x3e5e3d0e	0.21702978
72	0x3d7ed601	0.06221581
73	0x3d0af6a6	0.03392663
74	0x3df5d258	0.120030105
75	0x3d459e80	0.04824686
76	0x3e83ae07	0.2571871
77	0x3ba3cfee	0.0049991524
78	0xbbd8fd5e	-0.0066220006
79	0x3e269a2a	0.16269746
80	0x3d05c2f5	0.03265663
81	0x3e7ca7da	0.24673405
82	0x3db41d1c	0.08794615
83	0x3da23182	0.07919599
84	0x3e43d2c6	0.19123372
85	0x3e806fec	0.2508539
86	0x3de5dcb5	0.11223737
87	0x3e3a89cc	0.18216628
88	0x3e614a59	0.22001018
89	0x3e4a9fb7	0.19787489
90	0x3e55b4e2	0.20869783
91	0x3e7e3582	0.24825099
92	0xbca2e650	-0.019885212
93	0x3e5eba0a	0.21750656
94	0x3e31967d	0.17342563
95	0xbc5c13fd	-0.0134325
96	0x3e2ba3ac	0.16761655
97	0x3e3b44c9	0.18287958
98	0x3e2e7c53	0.17039613
99	0x3e8d9f3e	0.27660555
100	0x3e23dc3a	0.16001979
101	0x3bd96790	0.00663466
102	0x3d09d74e	0.033652596
103	0xbeb8abc2	-0.3606854
104	0x3ddfa908	0.10920912
105	0x3e35ec3c	0.17765898
106	0x3d0efe8d	0.034910727
107	0x3e3515f0	0.1768415
108	0x3ba41580	0.005007446
109	0x3e01f011	0.12689234
110	0x3dd618ae	0.10453926
111	0x3d9b1ac9	0.07573468
112	0xba855a40	-0.0010173991
113	0x3ca4c02f	0.020111172
114	0x3e54d9a5	0.2078615
115	0x3cccf249	0.025017874
116	0x3dcbd76e	0.09953199
117	0x3e8805bf	0.26566884
118	0x3e252783	0.16128354
119	0xbc87e5c0	-0.016589046
120	0x3e148736	0.14504704
121	0x3e273c25	0.16331537
122	0x3bfac84f	0.007653273
123	0x3a7ccc7a	0.00096435065
124	0x3d766694	0.06015642
125	0x3e58a3ba	0.21156207
126	0x3d8ee47c	0.06977174
127	0x3de28abf	0.1106162
128	0x3e848010	0.25878954
129	0x3e87c596	0.26517934
130	0x3ea6bec1	0.3256741
131	0x3dceb22f	0.100925796
132	0x3da3f5ba	0.08005853
133	0x3e858abc	0.26082408
134	0x3e1515cf	0.145591
135	0x3e9840b9	0.2973688
136	0x3e863a1c	0.2621621
137	0x3d7fc496	0.06244334
138	0x3df1d21f	0.118076555
139	0x3dbcb90a	0.09214981
140	0x3e8fcad7	0.28084442
141	0x3da8fad7	0.08250969
142	0x3eb03c06	0.34420794
143	0x3bbc79ee	0.00575184
144	0x3da3e1f8	0.080020845
145	0xbe36ec66	-0.17863616
146	0x3e1b5c25	0.15171869
147	0x3e60c7f3	0.21951275
148	0x3dc98ee7	0.098417096
149	0x3d909100	0.070589066
150	0x3d18d5f8	0.03731343
151	0x3d8954fa	0.06705661
152	0xbc23222d	-0.009956879
153	0x3cb583f0	0.02215764
154	0x3c9202cd	0.017823601
155	0x3e5a9777	0.21346842
156	0x3e544def	0.20732854
157	0x3e108912	0.14114788
158	0x3d2a3335	0.04155274
159	0x3d019953	0.031640362
160	0x3e6035d2	0.21895531
161	0x3e849e2b	0.25901923
162	0x3de7521b	0.11294957
163	0x3da17bbf	0.07884931
164	0x3c908e1e	0.017645892
165	0x3e32463f	0.1740961
166	0xbb1799d7	-0.0023132467
167	0x3c271f49	0.01020033
168	0x3dceb9f3	0.10094061
169	0x3e8dd851	0.277041
170	0x3e14d756	0.14535269
171	0x3e7f64e8	0.24940836
172	0x3e11d286	0.14240465
173	0x3e1a6da0	0.15080881
174	0x3de5b176	0.112154886
175	0x3df5b894	0.11998096
176	0x3ead3fec	0.3383783
177	0x3e4b4afa	0.1985282
178	0x3e68c362	0.22730783
179	0x3ccacb9e	0.024755295
180	0x3dab1ca6	0.08355074
181	0x3dddb4ab	0.10825475
182	0x3e853a86	0.26021212
183	0x3d3c15f7	0.045919385
184	0x3e9b27fc	0.30303943
185	0x3cd540c2	0.026031855
186	0x3c6e46ca	0.014543245
187	0xbd67683d	-0.056495894
188	0x3e56f994	0.20993644
189	0x3d89a9dc	0.06721851
190	0x3cf8e2dd	0.030381614
191	0x3e9cd9e3	0.30634984
192	0x3cff0691	0.03113106
193	0x3e93d99b	0.28876957
194	0x3d804aff	0.06264304
195	0x3debf5bf	0.11521482
196	0x3ce48c02	0.027898792
197	0x3e805713	0.25066432
198	0xbbf773de	-0.0075516542
199	0x3e450278	0.19239223
200	0x3cc0a75e	0.023517307
201	0x3c5a7551	0.0133336345
202	0x3cd90fc4	0.026496775
203	0x3e3ebcc1	0.18626691
204	0x3e4cc91d	0.19998594
205	0x3e31414a	0.17310062
206	0x3cd4da5f	0.025983034
207	0x3e345795	0.17611535
208	0xba7e4636	-0.00096997933
209	0x3d0ef0e4	0.0348977
210	0x3e7b9f27	0.2457243
211	0x3e4353e9	0.19074978
212	0x3e5b5171	0.21417786
213	0x3e5e3a55	0.2170194
214	0x3dc2933f	0.09500741
215	0xbd14baf2	-0.036311097
216	0x3dbb00af	0.0913099
217	0x3db4c0b4	0.08825818
218	0x3d4935df	0.04912364
219	0xbd197669	-0.03746644
220	0x3cded164	0.027199455
221	0xbca8b6d8	-0.020595
222	0x3dc5d1bb	0.096591435
223	0x3e0d7de1	0.1381755
224	0x3e33da47	0.17563735
225	0x3e2ebc63	0.17064051
226	0xbbb80175	-0.005615408
227	0xbce16dd7	-0.027518196
228	0x3dfc8638	0.12330288
229	0xbe145436	-0.14485249
230	0x3cd37ab2	0.025815342
231	0x3d28e5c7	0.041234758
232	0x3e68e604	0.22743994
233	0x3e581088	0.21100056
234	0x3e714c62	0.23564294
235	0x3e92cbad	0.28671017
236	0x3d49dcb5	0.04928275
237	0x3e124f39	0.14288034
238	0x3e08c4d5	0.13356335
239	0x3d9cc8bf	0.07655477
240	0x3d5137e0	0.051078677
241	0x3e9012a0	0.2813921
242	0x3de8fddd	0.113765456
243	0x3e85d706	0.26140612
244	0x3e704f64	0.23467785
245	0x3e48efea	0.1962277
246	0x3dc12c9a	0.09432335
247	0x3e0aeb70	0.13566375
248	0x3c1302e1	0.008972854
249	0x3e7d0f83	0.24712949
250	0x3dbeef2d	0.09322963
251	0x3decbd3e	0.115595326
252	0x3e14120c	0.1446001
253	0x3e2347b9	0.15945329
254	0x3e6ba7d8	0.23013246
255	0x3e9533cb	0.29141077

model.rnn.weight_hh_l0 f4 [160, 40]
0	0xbd0c59d1	-0.034265343
1	0xbdc83e76	-0.097775385
2	0x3e16adf3	0.14714794
3	0xbc3bcc99	-0.011462354
4	0xbe248148	-0.16064942
5	0x3e1231d5	0.14276822
6	0x3dddff47	0.10839706
7	0xbdfbb1b8	-0.122897565
8	0xbd400f50	-0.046889603
9	0xbc2f0522	-0.010682376
10	0xbde3bd68	-0.11120111
11	0xbde50b64	-0.11183813
12	0xbe269673	-0.1626833
13	0x3dd7bb31	0.10533751
14	0xbe0c06a4	-0.13674408
15	0xbde2993c	-0.110643834
16	0x3dbabb26	0.09117727
17	0xbc39f8e4	-0.011350844
18	0x3e160970	0.14652038
19	0xbd9d25a9	-0.07673199
20	0xbd51b8b2	-0.05120153
21	0x3d8653d7	0.0655896
22	0x3e1c187d	0.15243717
23	0x3c26cfb2	0.010181354
24	0xbdca53e3	-0.09879281
25	0x3deefe90	0.11669648
26	0x3e3330b4	0.17499048
27	0xbda4c473	-0.08045282
28	0x3d8dd134	0.06924668
29	0x3d92d855	0.07170168
30	0x3def0067	0.116699986
31	0xbc822b0f	-0.015889673
32	0x3bf42fd5	0.007451991
33	0x3e310ee1	0.17290832
34	0x3dd871fe	0.10568617
35	0xbdc6e173	-0.0971097
36	0xbde16415	-0.11005417
37	0xbdf74ec3	-0.120755695
38	0x3e153d66	0.14574203
39	0x3d82e06e	0.06390463
40	0x3c14c84e	0.0090809595
41	0xbd790b9d	-0.06080209
42	0x3d4dff09	0.05029205
43	0x3d799eeb	0.06094257
44	0x3e28a8f3	0.16470699
45	0xbe261808	-0.16220105
46	0x3da7503f	0.081696026
47	0xbc3fbf8b	-0.011703382
48	0x3d733102	0.05937291
49	0xbcdc652d	-0.026903713
50	0xbc1a5316	-0.009419223
51	0x3d6b04f0	0.057377756
52	0xbdbc4532	-0.091928855
53	0xbd45cf19	-0.048293207
54	0xbda4fa2f	-0.08055531
55	0x3cb2faa6	0.021848034
56	0xbe26bdf9	-0.16283406
57	0x3db0e428	0.08637267
58	0xbe45bcb7	-0.1931027
59	0x3e193ec5	0.14965351
60	0x3d77abd9	0.06046662
61	0x3d536bbd	0.05161642
62	0x3e45c019	0.1931156
63	0xbdea71ea	-0.11447509
64	0xbd0945b5	-0.033513743
65	0xbdbeb42a	-0.09311707
66	0xbd94ee67	-0.07272034
67	0x3e409be2	0.18809465
68	0x3ddae1e7	0.10687619
69	0x3ddf048f	0.10889541
70	0xbac94048	-0.001535424
71	0x3cbcdbaf	0.023053972
72	0x3e09f7eb	0.1347348
73	0xbd578df1	-0.0526256
74	0x3caf4969	0.02139731
75	0x3e166704	0.14687735
76	0xbd2c66e1	-0.0420903
77	0x3d30a687	0.043127563
78	0x3dfe65e2	0.12421776
79	0xbdaef6f9	-0.085432
80	0xbe794d7d	-0.24345966
81	0xbe10f0ad	-0.1415431
82	0xbd4e094f	-0.050301846
83	0x3e9b7701	0.3036423
84	0xbe96950d	-0.29410592
85	0x3d445e60	0.047941566
86	0xbe48bc28	-0.19603026
87	0xbe860f34	-0.26183474
88	0xbeaa7cff	-0.3329849
89	0x3e96c30c	0.29445684
90	0x3ec49eea	0.38402492
91	0xbe7befee	-0.24603245
92	0xbebd9c8e	-0.37033504
93	0xbde4d9cc	-0.11174354
94	0x3ced714f	0.028984694
95	0xbe552eed	-0.20818682
96	0x3e014472	0.12623766
97	0x3db71ca9	0.08941013
98	0xbe4aeccb	-0.19816892
99	0xbe7e497d	-0.24832721
100	0xbd266f89	-0.040633712
101	0x3e8ba566	0.27274626
102	0x3ea533b1	0.32266
103	0xbd4b7add	-0.04967772
104	0xbe86cd73	-0.2632862
105	0xbe6a15ea	-0.22859922
106	0x3e6f0b45	0.23344143
107	0x3df8037a	0.12110038
108	0x3e158c9c	0.1460442
109	0xbe8e43c2	-0.2778607
110	0x3dca29bb	0.09871241
111	0x3e7b4448	0.24537766
112	0xbe89eb3b	-0.2693728
113	0xbe002534	-0.12514192
114	0xbec1e46c	-0.37869585
115	0x3b330bb9	0.002732022
116	0x3e721d5e	0.23644015
117	0x3e31854e	0.17336008
118	0xbe85ae8b	-0.26109728
119	0xbe9a58a9	-0.30145767
120	0xbe3dcb24	-0.18534523
121	0x3dd21286	0.10257439
122	0x3e056973	0.13028507
123	0xbd6f4a38	-0.05842039
124	0xbe5f7800	-0.2182312
125	0x3b59bf8c	0.0033225743
126	0x3b57a483	0.0032904453
127	0x3d968985	0.073504485
128	0xbd4b3ad9	-0.04961667
129	0x3db1c7f5	0.08680717
130	0x3e41597b	0.1888179
131	0x3dc03742	0.093855396
132	0x3cac7dfc	0.021056168
133	0x3980e065	0.0002458125
134	0x3d7226fc	0.05911921
135	0xbe5cf60a	-0.21578231
136	0xbcdb65a1	-0.026781859
137	0x3e2785be	0.16359612
138	0x3b88ca75	0.0041745254
139	0xbdf7639d	-0.120795466
140	0xbe1b8467	-0.15187226
141	0xbdba3f9e	-0.09094165
142	0x3cae7ecd	0.021300698
143	0x3e004946	0.12527952
144	0xbd8f41c2	-0.06994964
145	0x3dcb29b0	0.09920061
146	0x3e4884c9	0.19581904
147	0xbb89b7e5	-0.00420283
148	0x3e482096	0.1954368
149	0xbdbd5d42	-0.09246303
150	0x3db353a0	0.087561846
151	0x3dadef9f	0.0849297
152	0xbe71fcf0	-0.23631644
153	0x3ddf10ae	0.10891853
154	0xbe3a3e7a	-0.18187895
155	0x3c3d8287	0.011566765
156	0xbdd8f5ef	-0.10593783
157	0xbd7e7943	-0.062127363
158	0xbcff2469	-0.031145291
159	0x3d92f9ee	0.071765766
160	0xbe3f773c	-0.18697828
161	0xbe53dd83	-0.20689969
162	0xbcc3ed8c	-0.023916982
163	0x3e305a45	0.17221935
164	0xbc98d1a1	-0.018654646
165	0xbd63792c	-0.05553548
166	0xbd1717ba	-0.03688786
167	0xbda489bc	-0.08034083
168	0xbd9ead00	-0.07747841
169	0x3e3da71e	0.18520781
170	0x3cab2d93	0.020895755
171	0xbd5d2f9e	-0.05400049
172	0x3d909003	0.07058718
173	0xbe394be8	-0.18095362
174	0x3d36294e	0.044472985
175	0xbe400994	-0.18753654
176	0x3d335b43	0.043788206
177	0xbe11d8d0	-0.14242864
178	0x3ceee323	0.029161042
179	0xbe3394c6	-0.17537221
180	0xbd55d8dc	-0.052208766
181	0x3d718a22	0.058969624
182	0x3db60e92	0.08889498
183	0xbd959082	-0.07302953
184	0xbe34464a	-0.17604938
185	0xbb665f98	-0.0035152193
186	0xbd23c573	-0.039983224
187	0xbd3a9874	-0.045555547
188	0x3e157b28	0.14597762
189	0xbd8ff338	-0.07028812
190	0xbdec2dc2	-0.11532165
191	0x3e41fab7	0.18943296
192	0xbd94d387	-0.07266908
193	0xbcb8a846	-0.022541177
194	0xbe4ce73c	-0.20010084
195	0xbdb4afbc	-0.08822581
196	0xbd0c1c53	-0.0342067
197	0xbe16a38a	-0.14710823
198	0xbe492e27	-0.19646512
199	0xbdcf0834	-0.101089865
200	0xbd8b124d	-0.067906
201	0x3ba81950	0.0051299706
202	0x3d52d9cc	0.05147724
203	0x3db85315	0.09000222
204	0xbd81d4a5	-0.06339387
205	0xbd46b000	-0.04850769
206	0xbe5980e4	-0.21240574
207	0x3d134e83	0.035963546
208	0x3ac01e9e	0.0014657562
209	0x3cd6496e	0.02615806
210	0x3d55d04a	0.052200593
211	0x3d2f856a	0.042851843
212	0x3d6880a0	0.05676329
213	0xbcbba54f	-0.022905974
214	0xbde1a1f9	-0.11017222
215	0xbe401050	-0.18756223
216	0xbd2a6359	-0.04159865
217	0x3df656fd	0.120283104
218	0xbdcd7fd1	-0.10034145
219	0xbcdb59a2	-0.026776139
220	0x3dcbd307	0.0995236
221	0x3e46ff24	0.19433266
222	0xbd8000fc	-0.06250188
223	0xbc3e64a6	-0.011620676
224	0xbdcb1074	-0.099152476
225	0xbe355ab5	-0.17710383
226	0xb8a9685a	-8.077985e-05
227	0x3e1ff715	0.15621598
228	0xbd0cb2cd	-0.034350205
229	0x3e078607	0.13234721
230	0xbe09582f	-0.13412546
231	0x3da600e7	0.08105641
232	0xbe465eee	-0.1937215
233	0x3d859237	0.06522029
234	0xbda22e8d	-0.07919035
235	0xbe2420e0	-0.16028166
236	0xbc557ca5	-0.013030206
237	0xbc18d75b	-0.0093286885
238	0xbdc220f8	-0.094789445
239	0xbe019be2	-0.12657121
240	0x3cf21816	0.0295525
241	0xbdd6574f	-0.104658715
242	0x3db9b975	0.09068576
243	0x3b98b355	0.00466005
244	0xbb898132	-0.0041963095
245	0x3c48a585	0.012246494
246	0xbdb66ca0	-0.08907437
247	0xbd508f32	-0.05091781
248	0xbe3df40b	-0.18550126
249	0xbdab74b5	-0.083718695
250	0xbd43b300	-0.04777813
251	0xbe11ff58	-0.14257562
252	0x3d14f7da	0.036369182
253	0xbe4f35bc	-0.20235342
254	0x3c90feb2	0.017699573
255	0xbe21569d	-0.15755697

model.rnn.bias_ih_l0 f4 [160]
0	0x3dfca75c	0.12336609
1	0x3d6e4823	0.058174264
2	0xbe5d4274	-0.21607381
3	0x3d6f2d12	0.05839259
4	0xbc40b9c9	-0.011763045
5	0x3e9123ef	0.28347728
6	0x3d9802a3	0.07422378
7	0x3dc1ceaf	0.0946325
8	0x3daf2ff1	0.08554066
9	0x3d088d6c	0.033337995
10	0x3d6d49d4	0.057931736
11	0x3e9bd3c4	0.30435002
12	0x3e14ec8c	0.1454336
13	0x3e3737de	0.17892405
14	0xbd51328a	-0.05107359
15	0x3e4c9a55	0.19980748
16	0xbe05f9cd	-0.13083573
17	0xbdc2ea9f	-0.09517407
18	0xbdbc2b0e	-0.091878995
19	0x3e63ef02	0.22259143
20	0x3c49a763	0.0123079745
21	0x3daa55ec	0.083171695
22	0xbd82fd66	-0.06395988
23	0xbe155563	-0.14583354
24	0x3e431d21	0.1905408
25	0x3db0e43b	0.086372815
26	0x3e12a4cb	0.14320676
27	0xbde7f8e7	-0.11326771
28	0x3e5ee73d	0.21767898
29	0x3e94ed6c	0.2908739
30	0x3e4de3c7	0.20106421
31	0xbc0f03be	-0.00872892
32	0x3e0c777e	0.13717458
33	0x3d9a0562	0.07520558
34	0x3d9e1785	0.0771933
35	0xbdf700f3	-0.12060728
36	0x3ddc0e71	0.10744942
37	0x3db2e28d	0.087346174
38	0xbcce69c1	-0.025196912
39	0xbcc3f60e	-0.023921039
40	0x3da45a41	0.08025027
41	0x3dd0c411	0.10193647
42	0x3d4bc2af	0.04974621
43	0xbd22d7bf	-0.039756533
44	0x3e6043e8	0.21900904
45	0x3e16a9e2	0.14713243
46	0x3d956955	0.07295481
47	0x3e0f6af8	0.14005649
48	0x3c9f6079	0.019455181
49	0x3dcaf06b	0.09909137
50	0x3db4941c	0.08817312
51	0x3dfe2957	0.12410229
52	0xbcff37e0	-0.031154573
53	0x3e099c6d	0.13438578
54	0xbd8c85a4	-0.068614274
55	0xbcbf68a1	-0.02336532
56	0xbdb28b95	-0.087180294
57	0x3b0997d1	0.002099503
58	0xbe0af0f8	-0.13568485
59	0x3e0789bc	0.13236135
60	0xba869dfa	-0.0010270469
61	0xbe0360d9	-0.12829913
62	0x3e79830b	0.24366395
63	0x3def15a3	0.11674049
64	0x3e23f1db	0.1601023
65	0x3e395a52	0.1810086
66	0x3c908dd4	0.017645754
67	0x3e123ff0	0.14282203
68	0x3e08a78d	0.13345166
69	0x3d7adf82	0.06124831
70	0xbe0e94a2	-0.13923886
71	0xbd928594	-0.07154384
72	0xbd80fc35	-0.06298105
73	0x3dee017b	0.11621376
74	0x3e194306	0.14966974
75	0xbd9e568b	-0.077313505
76	0xbcb12812	-0.021625552
77	0xbe474241	-0.19458868
78	0x3cd29837	0.025707347
79	0x3cc839f7	0.024441702
80	0xbda5cb94	-0.0809547
81	0xbdb2dae1	-0.08733154
82	0xbd361c1d	-0.044460405
83	0x3dcf972c	0.101362556
84	0x3d204191	0.03912503
85	0x3e274597	0.1633514
86	0xbde0778f	-0.10960304
87	0xbe45dcc0	-0.1932249
88	0xbce816d1	-0.028331192
89	0xbcea35eb	-0.028590163
90	0x3e209816	0.15683016
91	0xbb449a6f	-0.0029999276
92	0xbbcf2af9	-0.0063222614
93	0x3da30c70	0.07961357
94	0x3d842474	0.064522654
95	0x3b38da3c	0.002820625
96	0x3cf82654	0.030291714
97	0x3c2f24fc	0.01068997
98	0x3da94c99	0.08266563
99	0x3d58e4e6	0.05295267
100	0xbde2a9cb	-0.11067542
101	0x3dc7871d	0.09742568
102	0xbcbf2e0b	-0.023337385
103	0x3d918d3f	0.07107019
104	0x3ddb703e	0.10714768
105	0xbc1ee2b2	-0.009697603
106	0xbdfaca61	-0.12245632
107	0xbe24dc32	-0.16099623
108	0xbd8cccab	-0.06874975
109	0x3d5f41fa	0.05450628
110	0xbd47fa69	-0.048822794
111	0xbd2dabad	-0.04240005
112	0xbdd47553	-0.1037394
113	0xbb53bd71	-0.003230896
114	0xbe22da37	-0.15903555
115	0x3d19c8ea	0.037545122
116	0xbda88142	-0.08227779
117	0x3c80e295	0.015733043
118	0x3d8098a9	0.062791176
119	0x3d64af2e	0.055831127
120	0x3e3cf7cb	0.184539
121	0xbc682440	-0.014168799
122	0xbda481df	-0.080325834
123	0xbd7d5030	-0.06184405
124	0x3e51ccf7	0.20488344
125	0x3e3a4da2	0.18193677
126	0x3e81c2a2	0.25343806
127	0xbd206a2b	-0.03916375
128	0x3e027870	0.12741256
129	0xbc14be61	-0.009078593
130	0x3d9b1f67	0.07574349
131	0x3d6d9a3f	0.05800843
132	0x3deb6f43	0.11495831
133	0x3e008020	0.12548876
134	0x3da3132f	0.07962643
135	0x3d1ea9f6	0.038736306
136	0x3d86b0c8	0.06576687
137	0xbdb05b09	-0.086111136
138	0x3e0923b1	0.13392521
139	0x3c1bf934	0.009519864
140	0x3e2b324c	0.16718405
141	0x3d603ef0	0.054747522
142	0x3d6f5e00	0.058439255
143	0xbd0c9ec6	-0.034331106
144	0x3af029f6	0.0018323052
145	0x3e908bb7	0.28231594
146	0xbdd1e41c	-0.102485865
147	0x3c9c04e6	0.019045305
148	0x3e256221	0.16150714
149	0x3dd26195	0.102725185
150	0x3b63cd29	0.0034759736
151	0xbdb7ee73	-0.089810275
152	0x3e96b26b	0.29432997
153	0x3ca04b72	0.019567225
154	0x3e899193	0.26868877
155	0xbccba058	-0.024856731
156	0xbcbbf632	-0.022944544
157	0xbde9c33c	-0.11414191
158	0x3dad56f0	0.08463848
159	0x3d8f9776	0.07011311

model.rnn.bias_hh_l0 f4 [160]
0	0x3e05945f	0.1304488
1	0x3d2f3c98	0.042782396
2	0xbd235b9a	-0.03988228
3	0x3e8b0e3c	0.27159297
4	0x3ca24590	0.01980856
5	0x3e6da22f	0.232064
6	0x3eac54b9	0.33658388
7	0x3c4380ef	0.011932596
8	0x3ea22e0d	0.3167576
9	0x3cde7c06	0.027158748
10	0x3e481c7e	0.19542119
11	0x3ddd2a99	0.107991405
12	0x3e10c55e	0.1413779
13	0x3e77c75e	0.24197146
14	0x3d6d26c0	0.057898283
15	0x3eaa040d	0.33206216
16	0x3c71f212	0.014767187
17	0xbe163a7a	-0.14670745
18	0xbd770d3f	-0.060315367
19	0x3e1a9397	0.15095364
20	0x3d97316b	0.073824726
21	0xbde38d74	-0.111109644
22	0xbda04584	-0.07825759
23	0xbdf0b791	-0.117537625
24	0xbcf25315	-0.029580632
25	0x3dc086c2	0.09400703
26	0x3dc3782d	0.09544406
27	0xbae0931c	-0.0017133686
28	0x3e1e05d4	0.15431911
29	0x3e0ff9d5	0.14060147
30	0x3dd9d30c	0.10635957
31	0xbd8e485c	-0.06947395
32	0x3e81aa73	0.25325355
33	0x3cdd6a46	0.027028214
34	0x3df646ca	0.12025221
35	0xbda93fe9	-0.08264143
36	0xbd4dc71e	-0.05023872
37	0x3d497618	0.04918489
38	0x3cde8a44	0.02716554
39	0x3da76ae7	0.08174687
40	0xbda68541	-0.08130885
41	0xbd21783e	-0.039421313
42	0x3d6b9606	0.05751612
43	0x3df8f0b9	0.12155289
44	0x3e4c1ada	0.19932118
45	0xbdd9b62f	-0.10630452
46	0x3e08206f	0.13293622
47	0x3e4593b8	0.19294631
48	0x3e289298	0.16462171
49	0xbda21b2f	-0.07915341
50	0x3e32453f	0.17409228
51	0xbaf774c3	-0.0018879402
52	0xbc9b5323	-0.018960541
53	0x3e4451ac	0.1917178
54	0xbc21f374	-0.009884704
55	0x3cbd501c	0.023109488
56	0xbe05c10c	-0.13061923
57	0x3de1f05f	0.11032175
58	0xbceadb8d	-0.028669143
59	0xbd7a0aaf	-0.061045345
60	0x3e14150f	0.14461158
61	0xbbf192dc	-0.0073722433
62	0x3d53c168	0.05169812
63	0x3d4d37b8	0.050101966
64	0xbdb400de	-0.08789228
65	0x3ce56ecd	0.028006935
66	0x3dc3d4d0	0.09562075
67	0x3da3d82a	0.080002144
68	0x3dd3df7a	0.10345359
69	0x3d8d3659	0.068951316
70	0xbd89a1f1	-0.06720341
71	0xbd3b87fc	-0.04578398
72	0x3d97a163	0.07403829
73	0xbe1b0c25	-0.15141352
74	0xbcccf7e6	-0.025020551
75	0xbe044a75	-0.12919028
76	0xbcc501ee	-0.024048772
77	0xbe539471	-0.20662095
78	0x3dec34b7	0.11533492
79	0x3e3c34e3	0.1837955
80	0xbb9c7e8d	-0.004775828
81	0x3dc8172b	0.09770044
82	0x3e06e6f2	0.13174036
83	0x3dc6ad2d	0.097009994
84	0xbd0d9d14	-0.03457363
85	0x3cbc955b	0.023020437
86	0xbe3b5f0b	-0.18297975
87	0xbd853206	-0.06503682
88	0xbe73b7c9	-0.23800577
89	0x3d811152	0.06302132
90	0x3c1b354c	0.009473156
91	0xbd999912	-0.07499899
92	0x3c6c0889	0.014406332
93	0xbe1ec963	-0.1550651
94	0xbdb26bc2	-0.087119594
95	0xbde95e70	-0.11394966
96	0xbd866ec2	-0.06564094
97	0x3c85b522	0.016321722
98	0x3c7773fb	0.0151033355
99	0x3db656e9	0.089032955
100	0xbc032603	-0.008004668
101	0xbd501f00	-0.050810814
102	0x3d6d9f50	0.05801326
103	0x3c8fc1e0	0.017548501
104	0xbdde6a55	-0.10860125
105	0xbe5d4347	-0.21607696
106	0xbbcb7496	-0.0062089665
107	0x3d87b20e	0.06625758
108	0x3c743051	0.014904098
109	0x3d63775b	0.055533748
110	0xbd2e63c5	-0.042575616
111	0x3daa341b	0.083107196
112	0x3d514920	0.051095128
113	0xbd306050	-0.0430606
114	0xbd96f006	-0.073699996
115	0xbd37d247	-0.04487827
116	0xbdc96b00	-0.09834862
117	0x3d24578f	0.040122565
118	0x3d88b63f	0.06675386
119	0xbd61b07e	-0.055099957
120	0x3e78d594	0.24300224
121	0x3e6af1e9	0.22943844
122	0x3d454df3	0.04817004
123	0x3ddfa023	0.109192155
124	0x3cd0b6e3	0.025477832
125	0x3e7aa016	0.2447513
126	0x3e89c442	0.26907545
127	0xbcc5972c	-0.024119936
128	0x3c952d14	0.018209971
129	0xbdc5d6ae	-0.096600875
130	0x3e13ebe9	0.14445461
131	0x3e1915b8	0.14949691
132	0xbd9ab299	-0.07553596
133	0xbd52ccb5	-0.051464755
134	0x3d94b45b	0.072609626
135	0x3e741ca4	0.2383905
136	0x3d7b7b96	0.061397158
137	0xbdf024e2	-0.11725785
138	0x3d332e64	0.043745413
139	0xbd8f904b	-0.070099436
140	0x3d2a1ff1	0.041534368
141	0x3e3e4bee	0.18583652
142	0xbd70b4d4	-0.0587662
143	0x3da5d44f	0.08097135
144	0x3cfcbe72	0.03085253
145	0x3df94325	0.1217101
146	0xbdc745e5	-0.09730128
147	0xbdac3dfa	-0.084102586
148	0x3d67f5ff	0.056631085
149	0x3cadde61	0.021224203
150	0x3ddef0bf	0.108857624
151	0xbc63f9b0	-0.013914511
152	0x3e44576b	0.19173972
153	0x3e2526aa	0.1612803
154	0x3dd698dc	0.10478374
155	0x3e247ffa	0.16064444
156	0x3e2e8dcf	0.17046283
157	0x3e22aa7c	0.15885347
158	0x3daa5ecb	0.083188616
159	0x3c500989	0.012697586

model.rnn.weight_ih_l1 f4 [160, 40]
0	0x3d1074b0	0.035267532
1	0x3d3cd556	0.04610189
2	0xbe39446a	-0.18092504
3	0x3d6b93b2	0.0575139
4	0x3d5969d9	0.05307946
5	0x3e27b429	0.1637732
6	0xbe1e4ed4	-0.15459758
7	0xbe3648bd	-0.17801185
8	0xbe3503d8	-0.17677248
9	0x3cb9b308	0.022668377
10	0x3da49c1e	0.080375895
11	0x3a28ac8b	0.00064344023
12	0xbe06c6af	-0.1316173
13	0x3d018c2d	0.031627823
14	0x3d294f26	0.041335247
15	0xbd0977c2	-0.033561476
16	0x3d4d9617	0.050191965
17	0xbc5238b8	-0.012830906
18	0x3ca1948b	0.019724151
19	0xbdb97abb	-0.09056612
20	0x3d6f798b	0.05846552
21	0x3d1a6410	0.037693083
22	0x3e146ce6	0.14494666
23	0xbdcdd08e	-0.10049544
24	0x3cd21022	0.025642458
25	0xbd96c3fd	-0.073616005
26	0xbd9b48cf	-0.075822465
27	0x3e44bdad	0.1921298
28	0xbdb134f0	-0.08652675
29	0x3cf817d8	0.030284807
30	0x3e499554	0.1968587
31	0x3c7feb87	0.015620119
32	0xbddf8ae7	-0.109151654
33	0xbd92eae1	-0.07173706
34	0x3dc19757	0.09452694
35	0x3e68ef87	0.22747622
36	0x3d0ce551	0.03439838
37	0x3d8e3e91	0.06945527
38	0xbc186b78	-0.009302966
39	0x3db364bd	0.08759449
40	0xbe30bc0f	-0.17259239
41	0xbe66dabb	-0.22544377
42	0x3dcc0a7b	0.099629365
43	0x3ea491f6	0.3214261
44	0xbe0cce32	-0.13750532
45	0x3b4f35b4	0.0031617703
46	0xbee0354f	-0.4379067
47	0xbc1020ce	-0.008796884
48	0xbecc3932	-0.39887387
49	0x3df51091	0.119660504
50	0x3dd3ec60	0.10347819
51	0xbc5c6e52	-0.013454037
52	0xbe94a365	-0.2903091
53	0xbe58060b	-0.21096055
54	0x3e3344c2	0.17506698
55	0xbedac8b1	-0.4273124
56	0xbe380eed	-0.17974444
57	0xbd2a6eac	-0.04160945
58	0xbe3b96cb	-0.18319242
59	0xbe832c52	-0.2561975
60	0xbe3f4b5b	-0.1868109
61	0xbc128dec	-0.00894497
62	0xbe35bec9	-0.1774856
63	0x3d8fda04	0.07024005
64	0xbd8c47b8	-0.06849617
65	0xbc06dbde	-0.008231131
66	0x3c90ac9d	0.017660433
67	0xbdf2548b	-0.118325315
68	0x3e3065dc	0.17226356
69	0x3ba95024	0.005167024
70	0xbe8ccc0f	-0.27499434
71	0x3e002745	0.1251498
72	0xbe2c6b98	-0.16837919
73	0x3e2cc7b4	0.16873056
74	0xbeb13786	-0.34612674
75	0xbcc91a48	-0.024548665
76	0x3d8337f0	0.064071536
77	0xbe9e0dc3	-0.30869874
78	0xbe869f96	-0.2629363
79	0x3cc624b1	0.024187418
80	0xbcfb163c	-0.03065025
81	0xbd370b69	-0.044688616
82	0x3cf41d23	0.02979905
83	0x3e139763	0.14413218
84	0xbdd8f39e	-0.10593341
85	0xbd5e02d0	-0.0542019
86	0xbe2470df	-0.16058682
87	0xbe63edcd	-0.22258683
88	0xbe080e1c	-0.13286632
89	0xbdc27a4a	-0.09495981
90	0xbdb6d066	-0.089264676
91	0xbe471d92	-0.19444874
92	0xbd39fd31	-0.045407478
93	0xbd53fef6	-0.05175682
94	0xbc424f6a	-0.011859754
95	0xb9b8b36f	-0.00035228903
96	0xbd895744	-0.06706098
97	0xbab987eb	-0.0014154887
98	0xbd515db3	-0.05111475
99	0xbe09bca6	-0.1345087
100	0x3d915aa2	0.07097365
101	0x3d361ac4	0.04445912
102	0x3d667490	0.056263506
103	0x3c859381	0.016305687
104	0x38e7021a	0.0001101533
105	0xbe35c2a9	-0.17750038
106	0x3e2055ed	0.15657778
107	0x3dc22e1c	0.09481451
108	0x3e08065d	0.13283677
109	0x3d793923	0.060845505
110	0xbe0252e1	-0.12726928
111	0xbd920f42	-0.071318164
112	0x3b37afc0	0.002802834
113	0x3dd5ba0b	0.104358755
114	0x3d50b35e	0.050952308
115	0xbe52d853	-0.20590334
116	0x3e4808de	0.19534633
117	0xbe8f916a	-0.2804063
118	0x3d605696	0.054770075
119	0xbe3e6330	-0.18592525
120	0xbd2cfee7	-0.04223528
121	0x3d202ec2	0.03910709
122	0xbe3e5dd2	-0.18590477
123	0xbdcada4d	-0.09904919
124	0x3daea972	0.08528413
125	0x3e011289	0.12604727
126	0x3e195dfb	0.14977257
127	0x3e058f6e	0.13042995
128	0x3ba22f3e	0.0049494794
129	0xbbfcb324	-0.007711785
130	0x3db1960e	0.08671199
131	0xbe0883da	-0.13331547
132	0xbdbc6bc0	-0.09200239
133	0xbce64067	-0.028106881
134	0xbd747ff1	-0.059692327
135	0xbdb8378e	-0.08994971
136	0x3d9677b5	0.07347051
137	0xbdbf4c3f	-0.09340715
138	0x3e0e32bd	0.13886543
139	0xbe051980	-0.12998009
140	0xbca8bea0	-0.02059871
141	0x3d3bd4b8	0.04585716
142	0x3c2aa1a4	0.010414515
143	0x3e0c7524	0.1371656
144	0x3db987fe	0.090591416
145	0xbb8f940e	-0.004381663
146	0x3c883a50	0.016629368
147	0x3e0f6e38	0.14006889
148	0x3dc8a220	0.09796548
149	0xbd6c4c3a	-0.057689883
150	0x3e61279f	0.2198777
151	0x3d47c327	0.048770096
152	0xbced0ed6	-0.028937738
153	0x3e2ea2ac	0.17054242
154	0xbdc95937	-0.098314695
155	0xbc82ba5b	-0.015958002
156	0x3dc7d3d6	0.097572014
157	0xbd892756	-0.06696956
158	0x3d7786b1	0.060431186
159	0xbe00d11b	-0.12579767
160	0xbe1c9237	-0.15290152
161	0xbe029b72	-0.1275461
162	0xbe41bf2e	-0.18920586
163	0xbdb34654	-0.087536484
164	0x3dc0e09a	0.09417839
165	0x3e007e7a	0.12548247
166	0x3cbfd9ed	0.023419345
167	0x3a894188	0.00104718
168	0x3de2e24b	0.11078318
169	0xbe2a4c9d	-0.16630788
170	0x3da883d4	0.08228269
171	0x3e0e5e0e	0.13903067
172	0xbd554568	-0.052068144
173	0xbe0d4a19	-0.13797797
174	0xba87a85e	-0.001034986
175	0x3d80d08d	0.06289778
176	0x3d47b1dd	0.048753608
177	0x3de04a4e	0.109516725
178	0x3e0e8bcb	0.13920514
179	0x3db49c24	0.08818844
180	0x3bcd774f	0.006270326
181	0xbe0b828e	-0.13624021
182	0x3e00042a	0.12501588
183	0xbd1a59b2	-0.037683196
184	0x3e0f3fe7	0.1398922
185	0x3de1d91e	0.1102774
186	0x3df70bac	0.12062773
187	0x3db1799b	0.086657725
188	0xbe03f013	-0.1288455
189	0xbe1252d1	-0.14289404
190	0x3e25a4fc	0.16176218
191	0xbd7d00eb	-0.061768454
192	0x3d9e97a4	0.07743767
193	0xbe430cdf	-0.19047879
194	0xbd08a9e7	-0.033365157
195	0x3e248702	0.16067126
196	0xbe049ca2	-0.12950376
197	0x3cbe354c	0.023218773
198	0x3d483d5d	0.048886646
199	0x3d23cdad	0.03999107
200	0xbeb75052	-0.35803467
201	0xbe76391d	-0.24045224
202	0x3e8b0ad6	0.27156705
203	0x3e9ef388	0.31045175
204	0xbe7aed6b	-0.2450463
205	0x3d06fa17	0.032953348
206	0xbeaf39a8	-0.34223676
207	0xbbfb16eb	-0.007662644
208	0xbea87f88	-0.329098
209	0x3cb84e1f	0.022498189
210	0x3cc922cb	0.024552723
211	0xbe346b90	-0.17619157
212	0xbe020c5c	-0.12700027
213	0xbe19c146	-0.15015134
214	0x3e6a0920	0.22855043
215	0xbea305ce	-0.31840366
216	0xbe8beaa3	-0.2732745
217	0x3e01bcda	0.12669697
218	0xbd4357fd	-0.047691334
219	0xbd184767	-0.03717747
220	0xbe3a500d	-0.181946
221	0x3e123081	0.14276315
222	0x3d2eec4a	0.04270581
223	0x3de18860	0.110123396
224	0xbd9be434	-0.07611886
225	0xbe70ee80	-0.2352848
226	0x3e8084f7	0.25101444
227	0xbd1d3633	-0.038381767
228	0x3e9254a9	0.28580216
229	0xba799477	-0.0009520719
230	0xbd98d13f	-0.074617855
231	0xbc6465f4	-0.013940323
232	0xbe314e39	-0.17314996
233	0x3e108fc4	0.14117342
234	0xbe23e272	-0.16004351
235	0xbe6609d2	-0.22464684
236	0x3e7ed56d	0.24886103
237	0xbe4fa016	-0.20275912
238	0xbeb4a43b	-0.35281548
239	0xbdd377f6	-0.10325615
240	0xbd01c3de	-0.031680934
241	0xbd9a0d08	-0.07522017
242	0x3dc520a5	0.09625367
243	0x3e050cfe	0.12993237
244	0xbd36433f	-0.044497725
245	0x3da609b6	0.08107321
246	0xbd251cc8	-0.04031065
247	0x3dc12543	0.09430935
248	0xbd64d605	-0.055868167
249	0x3e571386	0.21003541
250	0x3defd1b2	0.11709918
251	0xbd3bf486	-0.045887493
252	0xbe2bcb43	-0.16776757
253	0xbced593b	-0.028973212
254	0xbd967cba	-0.073480085
255	0xbda884b4	-0.08228436

model.rnn.weight_hh_l1 f4 [160, 40]
0	0x3d1c5ac4	0.0381725
1	0x3d0d67d1	0.034522835
2	0x3cabac8a	0.020956296
3	0xbe13c86c	-0.14431924
4	0x3beca9b6	0.0072223796
5	0xbc98fbca	-0.01867475
6	0x3d68814b	0.05676393
7	0x3cdbb192	0.02681807
8	0x3e1e9510	0.1548655
9	0xbe0d1a4e	-0.13779566
10	0xbb9ebf09	-0.0048445505
11	0x3d09f311	0.03367907
12	0x3dcd6028	0.10028106
13	0x3e231764	0.15926892
14	0xbdb4f7f4	-0.08836356
15	0x3dde661b	0.10859319
16	0x3d4ee7e1	0.050514106
17	0x3d251bfc	0.04030989
18	0x3e3405d6	0.17580351
19	0x3bfd898c	0.007737344
20	0x3db4ea73	0.0883378
21	0xbd8c77ce	-0.068587884
22	0x3dd09e5e	0.10186456
23	0xbdbc544c	-0.09195766
24	0xbdb97903	-0.09056284
25	0x3d92d578	0.07169622
26	0xbdeef54e	-0.11667882
27	0x3d9b0c11	0.07570661
28	0x3d72f03e	0.059311144
29	0x3e1762dc	0.14783806
30	0xbd8024d6	-0.06257026
31	0x3deaf5d7	0.114726715
32	0x3ddfab89	0.109213896
33	0x3da719ae	0.08159195
34	0x3dcd2892	0.10017504
35	0x3e12d474	0.14338857
36	0x3b6ffd29	0.00366194
37	0xbc98734e	-0.018609669
38	0xbcc27f75	-0.023742417
39	0xbdc072c2	-0.09396888
40	0x3deae4a4	0.11469391
41	0x3d2b5a63	0.041834246
42	0xbd4efbb9	-0.05053303
43	0x3c7e4453	0.015519219
44	0x3db8d3dc	0.09024784
45	0xbdfdab61	-0.123862036
46	0x3d85e8b3	0.065385245
47	0x3ca0b69f	0.01961833
48	0x3dcda37c	0.10040948
49	0xbe06d6a9	-0.13167824
50	0xbd87d616	-0.066326305
51	0x3df3cace	0.11903916
52	0xbe12621c	-0.14295238
53	0x3df7eb7d	0.12105463
54	0x3dfad9ec	0.122485965
55	0xbcfe8b1c	-0.031072192
56	0xbdbb6688	-0.09150416
57	0x3dac61e5	0.084171094
58	0xbd1a47ec	-0.037666246
59	0xbd2870f7	-0.041123357
60	0x3d94fb57	0.07274502
61	0xba6c851c	-0.00090225204
62	0x3d8fb27d	0.07016466
63	0xbd2a5ca2	-0.041592248
64	0xbd574426	-0.052555226
65	0xbd6098d5	-0.054833252
66	0x3dff0eac	0.1245397
67	0xbdbe7f37	-0.09301608
68	0x3df9519a	0.121737674
69	0xbdc0d396	-0.09415357
70	0x3ddf01de	0.10889028
71	0x3dc4d61b	0.0961115
72	0xbd470bdc	-0.048595294
73	0xbd598a8f	-0.053110655
74	0x3d3629e0	0.04447353
75	0xbde1e396	-0.11029737
76	0xbdf6e896	-0.12056081
77	0xbdff089b	-0.12452813
78	0x3e0490aa	0.1294581
79	0x3e33a087	0.17541705
80	0xbd154080	-0.036438465
81	0xbdaa1180	-0.08304119
82	0x3e360495	0.17775185
83	0xbe3dab13	-0.18522291
84	0xbd2415c3	-0.040059816
85	0xbe1cbbd6	-0.15306029
86	0xbd15bd42	-0.036557443
87	0x3da72653	0.08161607
88	0x3cc93d60	0.024565399
89	0xbd8e8be4	-0.06960276
90	0xbe212b81	-0.15739252
91	0x3d9dd96d	0.07707486
92	0xbe113be6	-0.14183006
93	0x3b9e059e	0.004822447
94	0xbc4b1132	-0.012394236
95	0xbe2e11e3	-0.1699901
96	0xbe037faa	-0.12841669
97	0xbdcbcd2e	-0.09951244
98	0x3e2d12e6	0.1690174
99	0x3b6d007d	0.003616362
100	0x3dcd2e0e	0.1001855
101	0x3cf155e1	0.029459896
102	0xbe0bb9cd	-0.13645096
103	0x3b13315b	0.0022459838
104	0x3e07460e	0.13210317
105	0xbdd998bf	-0.10624837
106	0xbdd14d46	-0.10219817
107	0xbda887be	-0.08229016
108	0xbd6568e9	-0.056008253
109	0x3c75f513	0.0150120435
110	0xbd12c60e	-0.03583341
111	0x3e1b0fda	0.15142766
112	0xbe0c4c1f	-0.13700913
113	0x3d304342	0.043032892
114	0x3d1aaf99	0.03776512
115	0xbda63463	-0.08115461
116	0x3dbe6c11	0.09297956
117	0xbe37bdbf	-0.17943476
118	0x3df5e347	0.1200624
119	0x3b9d86ba	0.0048073204
120	0xbda46b57	-0.08028286
121	0x3da2cbea	0.0794905
122	0xbe74bfab	-0.2390124
123	0x3d31a793	0.0433727
124	0xbe1024e1	-0.14076568
125	0x3e0f7a38	0.14011467
126	0xbdcd44a8	-0.10022861
127	0xbd6ed9e6	-0.058313273
128	0x3db7111d	0.08938811
129	0x3d969417	0.07352465
130	0xbd36f4ad	-0.044666935
131	0x3d7a9727	0.061179306
132	0xbc458671	-0.012055979
133	0x3e2eb682	0.17061809
134	0xbe0514d7	-0.12996231
135	0xbdd461af	-0.10370194
136	0x3e0e1ff8	0.13879383
137	0x3d85ca70	0.065327525
138	0xbde1ce1a	-0.11025639
139	0xbd1c3b69	-0.038142595
140	0xbe25a733	-0.16177063
141	0xbdd5eac7	-0.10445171
142	0x3e33b6ef	0.17550252
143	0xbe37f8ee	-0.17966053
144	0xbd9f7090	-0.077851415
145	0x3e2e6d0d	0.17033787
146	0x3e0101e2	0.12598374
147	0x3debad30	0.11507642
148	0xbdc4cdf8	-0.09609598
149	0x3e0ca5c2	0.13735107
150	0x3c21f81a	0.009885812
151	0x3d838921	0.0642264
152	0xbdf0704e	-0.117401704
153	0x3d200ad7	0.039072838
154	0x3dc9c089	0.09851176
155	0x3e09a884	0.1344319
156	0xbd5cdcc4	-0.053921476
157	0xbd82b491	-0.063820966
158	0xbe30bcea	-0.17259565
159	0x39a3a160	0.00031210016
160	0x3d782e6a	0.06059114
161	0xbe0f71be	-0.14008233
162	0xbd13b8fa	-0.03606508
163	0xbdeccfb2	-0.11563052
164	0xbcf9f4ee	-0.0305123
165	0x3d19afc7	0.03752115
166	0x3d9da6ff	0.076978676
167	0x3b8594ea	0.00407659
168	0x3e34590f	0.17612098
169	0xbe3750e0	-0.17901945
170	0x3c8e51d6	0.017373007
171	0xbdad8d10	-0.08474171
172	0xbdac54cd	-0.08414612
173	0x3d7daeec	0.061934397
174	0x3e59bd37	0.21263586
175	0xbe1d8a07	-0.15384685
176	0x3df8f92c	0.12156901
177	0x3d618730	0.055060565
178	0x3e344162	0.17603067
179	0x3ddc70ee	0.10763727
180	0xbe5e2145	-0.21692379
181	0xbe025f38	-0.12731636
182	0xbe4c708a	-0.19964805
183	0xbd6d2d89	-0.057904754
184	0xbcf7a19f	-0.030228434
185	0xbe02e8d8	-0.12784135
186	0x3e0b9249	0.13630022
187	0x3e40e0dc	0.18835777
188	0x3ca2a841	0.01985562
189	0x3d186754	0.037207916
190	0x3e067bed	0.13133211
191	0x3c16dab0	0.009207413
192	0x3d60f87a	0.054924466
193	0x3e00b6b5	0.12569697
194	0xbcabb6dc	-0.020961218
195	0x3e1fafd0	0.15594411
196	0x3bd41d58	0.0064732246
197	0xbda9b33e	-0.08286141
198	0xbdb0c19d	-0.08630679
199	0x3dd2789c	0.10276911
200	0xbd98413a	-0.07434316
201	0x3b93fd69	0.004516293
202	0xbc901fff	-0.017593382
203	0x3c5d308f	0.013500347
204	0x3d9e26dc	0.077222556
205	0xbd74225f	-0.05960309
206	0xbe5cb32e	-0.21552727
207	0xbdfff321	-0.12497545
208	0xbcfb485f	-0.030674158
209	0xbd8d2996	-0.068926975
210	0xbcf08869	-0.02936192
211	0xbd5dfd66	-0.054196738
212	0x3d7f57e3	0.062339675
213	0x3e01ca53	0.12674837
214	0xbd1e8ea0	-0.038710237
215	0x3e30b620	0.17256975
216	0x3e1916c5	0.14950092
217	0x3e56be04	0.20970923
218	0x3e45bf80	0.19311333
219	0xbdc569af	-0.09639298
220	0xbd32ffb6	-0.043700896
221	0x3e3d8af2	0.18510035
222	0x3ddeeb25	0.10884694
223	0x3e2152da	0.15754262
224	0x3e4d5af7	0.20054232
225	0xbdbee4de	-0.09320997
226	0xbd47f76c	-0.048819944
227	0xbdd9e78b	-0.106398664
228	0xbdbaa113	-0.09112754
229	0x3d23d9a5	0.040002484
230	0x3d251c09	0.04030994
231	0xbc6b9c79	-0.014380568
232	0xbd07a8f8	-0.033120126
233	0xbdbf3359	-0.09335966
234	0x3e0a2f63	0.13494639
235	0x3d14d335	0.036334235
236	0xbc305070	-0.010761365
237	0xbe251349	-0.16120638
238	0xbd0f7958	-0.03502783
239	0xbd41f6e9	-0.047354612
240	0xbe4c50a5	-0.19952638
241	0x3cca8fcb	0.024726769
242	0x3e2dbfdc	0.1696772
243	0x3d1d74a5	0.03844132
244	0xbdaea48f	-0.08527481
245	0xbe25a3bf	-0.16175745
246	0x3d3de102	0.046357162
247	0x3e03616f	0.12830137
248	0xbe5d9d6e	-0.21642086
249	0x3db4243c	0.08795974
250	0x3dd026f3	0.10163679
251	0x3b727a68	0.003699923
252	0xbd861bad	-0.065482475
253	0x3e4e43b7	0.20143019
254	0x3e09cbb0	0.13456607
255	0x3e492a1a	0.19644967

model.rnn.bias_ih_l1 f4 [160]
0	0x3c6be5dd	0.014398065
1	0x3d977720	0.07395768
2	0x3d6dbfd3	0.058044266
3	0x3e367aa3	0.1782022
4	0x3ddfe493	0.10932269
5	0x3defe5fe	0.117137894
6	0xbbffedea	-0.007810344
7	0x3e17adda	0.14812413
8	0x3d0b8f41	0.034072164
9	0xbdda3281	-0.10654164
10	0x3df479a1	0.119372614
11	0x3e23d3a3	0.15998702
12	0xbde94282	-0.113896385
13	0x3da3be19	0.079952426
14	0xbdf5d20a	-0.120029524
15	0x3c5735d8	0.013135396
16	0x3cc3f646	0.023921143
17	0x3c15a436	0.009133389
18	0x3df8c375	0.121466555
19	0x3db6403f	0.08898973
20	0x3d97ddac	0.074153274
21	0x3e03cbb2	0.12870672
22	0x3d6d21dd	0.057893623
23	0x3d010260	0.031496406
24	0x3d6d51db	0.05793939
25	0x3cc2e41e	0.023790415
26	0x3d9c62f8	0.07636064
27	0xbba84279	-0.0051348773
28	0x3e8c2d4a	0.27378303
29	0x3e6bfdd4	0.23046046
30	0x3a8cad4d	0.00107328
31	0x3ce96d2f	0.028494446
32	0x3e8cf5f7	0.27531406
33	0xbe1e6843	-0.1546946
34	0x3dce8d5e	0.100855574
35	0x3d14f0dc	0.036362514
36	0x3e1af21d	0.15131421
37	0x3e663dfa	0.2248458
38	0x3dd2e372	0.10297288
39	0x3e1ebffb	0.15502922
40	0x3e17de0d	0.148308
41	0xbdbe1807	-0.092819266
42	0x3e15ff6e	0.1464822
43	0x3d64bd47	0.05584457
44	0xbc8fb119	-0.017540501
45	0x3d516054	0.051117256
46	0x3b699e1f	0.0035647226
47	0x3e08d620	0.13362932
48	0xbe26b616	-0.16280398
49	0xbdd17acf	-0.10228502
50	0xbdcbbeeb	-0.09948524
51	0xbd191feb	-0.037383955
52	0x3d66ec5d	0.056377757
53	0xbd885b4c	-0.066580385
54	0xbe02fbef	-0.12791418
55	0x3de987d9	0.11402864
56	0x3dad732c	0.08469233
57	0xbd8df3db	-0.06931277
58	0x3da31b30	0.0796417
59	0xbd85a6f6	-0.06525986
60	0x3d84da90	0.06487
61	0xbde73e9c	-0.11291239
62	0xbdd6c55a	-0.104868606
63	0x3e2e3751	0.17013289
64	0xbcc407f9	-0.023929583
65	0xbd419723	-0.047263276
66	0xbdd6a09a	-0.10479851
67	0xbe08649f	-0.13319634
68	0xbd548cb6	-0.051892005
69	0x3c7ea005	0.015541081
70	0xbe06ba01	-0.13156892
71	0xbd928d97	-0.07155912
72	0x3c84b8e8	0.016201451
73	0xbda85a43	-0.08220341
74	0x3e4224bd	0.18959327
75	0x3d83508b	0.06411847
76	0x3dbbede0	0.091762304
77	0x3c910383	0.01770187
78	0xbdb6bfa0	-0.08923268
79	0x3e22acc1	0.15886213
80	0xbe4bcd18	-0.19902456
81	0xbd9cd408	-0.07657629
82	0x3d29675d	0.04135834
83	0xbe15781b	-0.14596598
84	0x3cc98285	0.02459837
85	0xbb983a3c	-0.004645614
86	0x3e20b0e4	0.15692478
87	0x3d5593c5	0.052142877
88	0x3db986a2	0.09058882
89	0xbd233b5c	-0.03985153
90	0x3e1108d3	0.14163522
91	0x3d53c112	0.051697798
92	0xbd820525	-0.063486375
93	0x3e1550c0	0.14581585
94	0xbe02d1a9	-0.12775292
95	0x3e0e773c	0.13912672
96	0x3e2578df	0.1615939
97	0xba6a19fc	-0.00089302636
98	0x3d94cc58	0.07265538
99	0xbe22fb15	-0.15916093
100	0x3de51a2d	0.11186633
101	0x3e2f4b51	0.17118575
102	0xbdec9ecb	-0.11553725
103	0x3d9f6037	0.077820234
104	0xbd038471	-0.032108728
105	0xbd55d0d8	-0.052201122
106	0xbb289db6	-0.0025728769
107	0xbe036b94	-0.12834007
108	0x3c592150	0.013252571
109	0xbdde4431	-0.1085285
110	0x3e713aaa	0.23557535
111	0x3d20226f	0.03909534
112	0xbda1994f	-0.078905694
113	0x3cce125a	0.025155235
114	0x3de01b75	0.10942737
115	0xbe3cae13	-0.18425779
116	0xbd682d07	-0.056683566
117	0x3dfc52b0	0.12320459
118	0x3cad3a7a	0.021146048
119	0x3dbf00e5	0.093263425
120	0x3db1d788	0.086836874
121	0x3e67380b	0.22579972
122	0xbe04a2e8	-0.12952769
123	0xbb62c210	-0.0034600534
124	0xbe1908ba	-0.14944735
125	0x3dca0eed	0.09866128
126	0xbd859e02	-0.06524278
127	0xbcce8865	-0.025211522
128	0x3d7f63bb	0.06235097
129	0xbc9c400e	-0.019073512
130	0xbdd82624	-0.1055415
131	0xbdd4a98a	-0.103838995
132	0xbd268ee0	-0.0406636
133	0xbd7ec06c	-0.062195227
134	0x3d5ff594	0.05467756
135	0xbdafa4c0	-0.085763454
136	0x3d1033d5	0.03520568
137	0x3df909f4	0.121601015
138	0x3d8f6a95	0.07002751
139	0x3c6d7b36	0.014494708
140	0x3da91187	0.08255296
141	0x3c730de5	0.014834856
142	0x3b9de560	0.0048186034
143	0x3d36bd02	0.044613846
144	0x3e0f5e80	0.14000893
145	0xbb2c13ff	-0.0026257036
146	0x3e230d8b	0.15923135
147	0xbd149242	-0.036272295
148	0x3e1b0266	0.15137634
149	0x3e028894	0.12747413
150	0x3e3a812b	0.18213336
151	0x3b9ad6d8	0.0047253184
152	0x3e4c1b47	0.1993228
153	0xbd870cf9	-0.06594271
154	0x3d1cb76a	0.038260855
155	0xbc8b421b	-0.016999295
156	0x3e40ae49	0.18816485
157	0x3e0d5bf1	0.13804604
158	0x3c50eb02	0.012751343
159	0x3c6f0696	0.014588973

model.rnn.bias_hh_l1 f4 [160]
0	0x3dea805d	0.114502646
1	0x3e55dbb5	0.20884593
2	0x3debb727	0.11509543
3	0xbdb78070	-0.089600444
4	0x3dda83dc	0.106696814
5	0x3db96976	0.09053318
6	0x3c537dd9	0.012908422
7	0xbcac8b32	-0.021062467
8	0x3e15addf	0.14617108
9	0xbc855b35	-0.016278842
10	0xbd80f8c3	-0.062974475
11	0xbca142f4	-0.019685246
12	0xbd7d745c	-0.061878547
13	0xbe0ba78d	-0.13638134
14	0x3c642048	0.013923712
15	0xbc6118ad	-0.013738793
16	0x3e2ba7c7	0.1676322
17	0x3e3255b6	0.17415509
18	0x3e10d7ea	0.14144865
19	0x3e030202	0.12793735
20	0x3b0a6122	0.0021115025
21	0xbd70e431	-0.05881137
22	0x3ca4145f	0.020029245
23	0x3e2933b4	0.1652363
24	0x3ce5b535	0.028040508
25	0x3d21982a	0.039451756
26	0x3d1d94f2	0.038472123
27	0x3e082fa9	0.13299431
28	0x3df3b17a	0.11899085
29	0x3e150e80	0.14556313
30	0x3e8b2215	0.2717444
31	0x3e0fc727	0.14040814
32	0x3c1b0f71	0.009464131
33	0xbd9f7c70	-0.077874064
34	0xbdbb2871	-0.09138573
35	0xbc2914cc	-0.0103199
36	0x3dcaece8	0.099084675
37	0x3d97a024	0.07403591
38	0x3e057ce8	0.13035929
39	0x3e035dd2	0.12828758
40	0xbdad4d5b	-0.0846202
41	0x3d9900ba	0.07470842
42	0xbdcfba34	-0.10142937
43	0xbca1986e	-0.019726004
44	0x3de9505b	0.1139228
45	0x3e18038c	0.14845103
46	0xbd58f8cf	-0.052971657
47	0x3dc1a584	0.09455398
48	0xbc0eed3e	-0.008723555
49	0xbbb2ddc5	-0.005458566
50	0xbd979d60	-0.07403064
51	0x3d23ad43	0.039960157
52	0xbd938e20	-0.072048426
53	0x3dd5669f	0.10419964
54	0x3db241a9	0.0870393
55	0xbe28fd6f	-0.16502927
56	0xbd68a6df	-0.056799766
57	0xbcbdcfa6	-0.023170304
58	0x3d74cd5a	0.05976615
59	0x3d11d209	0.035600696
60	0xbe2417ac	-0.16024655
61	0xbd3a72fe	-0.04551982
62	0x3d6e31d7	0.058153
63	0xbc8868a1	-0.016651453
64	0xbdb4c74c	-0.08827075
65	0x3bbf3038	0.0058346055
66	0x3e244e8e	0.16045591
67	0xbe1c001b	-0.15234415
68	0xbd14b9e7	-0.036310103
69	0xbc2264c9	-0.009911724
70	0x3bc1a010	0.0059089735
71	0x3d93845f	0.07202982
72	0xbd61464a	-0.054998673
73	0x3d0daa5e	0.034586303
74	0x3d72581e	0.059166066
75	0xbbd33fb1	-0.0064468016
76	0xbcaa5805	-0.020793924
77	0x3ddd3314	0.10800758
78	0x3d56c4f7	0.052433934
79	0xbd728f90	-0.059218943
80	0x3c2d510c	0.010578405
81	0x3d90ecde	0.07076429
82	0x3b57f81d	0.0032954284
83	0xbc82726b	-0.0159237
84	0xbe00aba8	-0.12565482
85	0xbe026c0e	-0.12736532
86	0xbe03ecc2	-0.12883285
87	0xbd9a8906	-0.075456664
88	0x3dbc454b	0.09192904
89	0xbc8fb36f	-0.017541615
90	0x3e1ba790	0.15200639
91	0xbe047fdb	-0.12939398
92	0x3e35b7aa	0.17745844
93	0x3e0847ea	0.13308683
94	0xbd1087b6	-0.035285674
95	0xbde270c2	-0.11056663
96	0x3d66c490	0.0563398
97	0xbd73b7a5	-0.05950131
98	0x3d687617	0.056753244
99	0xbdba005e	-0.09082101
100	0xbdd72503	-0.10505106
101	0xb998622d	-0.00029064846
102	0xbd93b1c9	-0.07211644
103	0x3db06ec4	0.08614877
104	0x3cb1cf09	0.021705167
105	0xbd911659	-0.070843406
106	0xbe03a2e2	-0.12855104
107	0xbd71a8c3	-0.058998834
108	0xbe55a864	-0.20865017
109	0x3d12cd16	0.035840116
110	0x3d572ed7	0.052534904
111	0x3e141f2b	0.14465015
112	0x3e601547	0.21883117
113	0x3dbc06ef	0.0918101
114	0x3e140db5	0.14458354
115	0xbe3e6ab6	-0.18595394
116	0xbe343093	-0.17596655
117	0xbd97fd3a	-0.07421346
118	0x3d28d46f	0.041218217
119	0x3de5e469	0.112252064
120	0x3e689c5f	0.22715901
121	0x3da9f73c	0.08299109
122	0xbcc8096f	-0.02441856
123	0x3e2e9a6d	0.17051096
124	0x3e05a918	0.13052785
125	0x3e6cfb00	0.23142624
126	0x3e0704f3	0.13185482
127	0x3d5de92b	0.054177444
128	0x3e2f7904	0.17136008
129	0x3e19ca56	0.15018591
130	0x3dd413aa	0.10355313
131	0xbd801373	-0.0625371
132	0x3c857a1b	0.016293576
133	0xbd841ccb	-0.06450804
134	0x3e026a7d	0.12735935
135	0xbd839683	-0.06425192
136	0x3e130259	0.14356364
137	0x3e6e02ef	0.23243307
138	0x3dfab3ae	0.122413024
139	0x3d2958ac	0.04134433
140	0xbcf83060	-0.030296504
141	0xbdbfc4de	-0.09363721
142	0x3e477e3a	0.19481745
143	0xbbe5db28	-0.007014651
144	0x3de71f9a	0.112853244
145	0xbb9d44c5	-0.0047994577
146	0x3e2f5ea6	0.1712595
147	0xbd848a40	-0.064716816
148	0x3d57b7f4	0.052665666
149	0x3e816566	0.25272673
150	0x3e1870f6	0.14886841
151	0x3de4ae58	0.11166066
152	0x3e4c1891	0.19931246
153	0x3a9b8d66	0.0011867702
154	0xbda2be87	-0.079464965
155	0x3dc42ef1	0.09579266
156	0x3e20531a	0.156567
157	0x3e390957	0.18069969
158	0x3e4058d8	0.18783891
159	0x3d7bd7c1	0.061485056
