generate_forecasts/output/Local_Forecasts/Bakery and cereal products (excluding baby food)/2024/models/DeepAR/W0/gluon_ts/prediction-net-state.pt (torch, 97628 bytes, 11 tensors)

model.param_proj.proj.0.weight f4 [1, 40]
000000 63 0b e6 3c 7a 26 47 3e 64 e6 c3 3d b9 41 80 bd
       0.028081601 0.19448271 0.09565428 -0.062625356
000010 61 95 11 3e 06 47 17 be c9 72 9f bd b0 39 8f 3d
       0.1421714 -0.14773187 -0.077855654 0.06993425
000020 8f ca 13 be 43 7e 33 be 24 87 45 3c e1 a9 e1 bc
       -0.14432739 -0.17528634 0.012056146 -0.027546825
000030 d2 09 8d bd 2c 56 32 bd 21 38 19 3d 2b 0c 78 3e
       -0.06886639 -0.04353921 0.037407044 0.24223392
000040 1c 02 21 3e 98 b9 73 bb 20 07 98 3d 33 1f 99 be
       0.15723461 -0.003718948 0.07423234 -0.29906616
000050 ca d7 29 bd 59 ac d6 3b 78 3e 75 bd 86 d2 1c 3e
       -0.041465558 0.006551307 -0.059874028 0.15314683
000060 19 12 63 3e 94 1c c3 bd 3b ce 3f be f4 5b 1b 3e
       0.22174872 -0.09526935 -0.18731014 0.15171796
000070 a4 54 2c be 6f d7 94 bd 2f 10 39 3e b2 66 20 3e
       -0.16829163 -0.07267653 0.1807258 0.15664175
000080 9a fc 5b 3e 2f 6f ed bd b8 15 91 bc 7e 70 bf bd
       0.21483079 -0.11593472 -0.017710552 -0.09347628
000090 d5 1e 0c bd ca 96 5a bd 06 ec 00 3d 3f aa af 3d
       -0.03420909 -0.05336646 0.03147509 0.08577394

model.param_proj.proj.1.weight f4 [1, 40]
000000 dd 62 23 be ec 6e 10 3e 1b da e8 3d 43 71 ff bd
       -0.15955682 0.14104813 0.11369725 -0.12472775
000010 f2 97 f4 bc 17 af 25 be 28 d0 26 3d 19 b0 55 3d
       -0.02985761 -0.16180073 0.040725857 0.052169893
000020 26 8a 1a be 83 c1 cb 3c 38 31 2a 3e 66 6a 9b 3c
       -0.15091762 0.024872547 0.16620338 0.018971633
000030 0c 1a 48 3d 9f f1 e0 3d d6 83 e6 bd 29 d5 cd 3d
       0.048852965 0.109835856 -0.112556145 0.10050423
000040 5a a8 21 3e 55 08 b1 3c f9 cb b6 bd 4b be 1b be
       0.15786877 0.021610418 -0.089256234 -0.1520931
000050 25 2f b2 3d da fb d8 3d 28 ba a1 3c 5c 5a 4e 3d
       0.08700398 0.10594912 0.019742087 0.050379142
000060 cf f5 fb 3d 61 0e 45 3d 3e a3 96 bd 9a 97 d4 3b
       0.12302744 0.048109416 -0.07355355 0.006487799
000070 f9 f1 b9 bd 93 83 bf bc ba 60 69 3d ef 0f ef 3d
       -0.09079356 -0.02337817 0.05697701 0.11672961
000080 f7 eb bc 3c cd 43 c7 bc 08 5c 10 3b e3 7c 84 bb
       0.023061736 -0.024324322 0.002202751 -0.004043208
000090 46 d8 01 be 8c 7c b3 3a b9 75 95 3d 7b 7f e3 bc
       -0.12680158 0.0013693734 0.072978444 -0.027770748

model.param_proj.proj.2.weight f4 [1, 40]
000000 5f 7c 61 3e d4 40 23 be ad 8f 6a 3c 65 03 ea 3d
       0.220201 -0.15942699 0.014316482 0.11426429
000010 eb 39 ef 3d b0 1e 87 3e 93 28 04 3e e0 2f 46 be
       0.11680969 0.263906 0.12906103 -0.193542
000020 07 db 4e 3d c1 54 61 3e 9e d6 5d bd 19 c2 18 3e
       0.05050185 0.22004987 -0.054159753 0.14917792
000030 33 18 0a 3e bb f2 c0 bd 43 f9 ec 3c 42 81 72 bd
       0.13485794 -0.09421297 0.028927451 -0.0592053
000040 0a 9a 95 bd 98 f9 30 be 54 a1 2c be 70 82 fe bc
       -0.07304771 -0.17282712 -0.16858417 -0.031068057
000050 14 66 f7 3d f6 85 32 bd 1e 92 4f 3e bf 2d 48 be
       0.12080017 -0.043584786 0.20270583 -0.19548701
000060 3a 3a 8d be 3b d5 59 3e 18 7d 6e be 08 da 05 be
       -0.27583486 0.21272747 -0.23289907 -0.13071454
000070 ed e1 0d 3e 0e 27 82 3e 59 42 66 be 02 e9 37 be
       0.13855715 0.2542042 -0.22486247 -0.17959979
000080 87 29 0a be d5 1c 65 be 2a 7f aa bd 38 ae 30 3e
       -0.13492404 -0.2237428 -0.08325036 0.17253959
000090 91 af 9d 3e 85 8c 08 3e 21 c0 85 be 22 2b 69 be
       0.3079801 0.13334854 -0.26123145 -0.2277036

model.rnn.weight_ih_l0 f4 [160, 21]
000000 17 dd 13 3e d1 03 0c bc 36 e6 d6 3d 5e 6f 87 3d
       0.14439808 -0.008545832 0.10493128 0.066130385
000010 76 29 8a bd dd 00 36 bd e7 a1 63 3e 8d a9 11 3e
       -0.06746189 -0.044434417 0.2222973 0.14224835
000020 8a 36 07 3e a0 30 7e 3e 0b d6 2c 3e 0d dd 6d 3e
       0.13204399 0.24823236 0.16878526 0.23228855
000030 9e 97 11 3e 6c 92 9c 3e cd 8c 09 3e 80 d8 9f 3e
       0.14217994 0.3058046 0.13432617 0.31219864
000040 12 c6 3a 3c 20 23 85 3b d6 ef 8a 3d fb fd cf be
       0.011399763 0.004063025 0.06784026 -0.4062346
000050 40 77 a7 3d e9 0a eb 3d 98 a3 39 3e d5 bc 7f 3e
       0.08177042 0.1147669 0.18128812 0.24974377
000060 fa da 14 3e e5 17 8f 3d 70 d1 18 3d 5e 84 16 3e
       0.14536658 0.069869794 0.03730911 0.14698932
000070 c4 ea 5c 3e a3 9b 78 3e ba 08 9b 3c c0 60 73 3e
       0.21573931 0.2427812 0.01892506 0.23767376
000080 a3 28 90 3b 09 68 64 3d 3b 85 b0 3d 61 ad de 3a
       0.0043993755 0.05576328 0.08619162 0.0016988927
000090 f0 32 b8 3d 3f 9c 04 3e e3 a8 bb ba 96 ed 21 3e
       0.089940906 0.12950228 -0.00143173 0.15813288
0000a0 96 97 0e be 4d df 4c 3e ce 82 1b 3e 11 a8 94 3d
       -0.13925013 0.20007057 0.15186617 0.072586186
0000b0 dd 4c 5e bc 9a 98 37 3e 0c 42 ef 3d 17 a1 15 3e
       -0.01356813 0.17929307 0.11682519 0.14612232
0000c0 3c e7 de bb 96 a4 01 bd e0 6a 12 3e 63 ec 01 3e
       -0.0068024676 -0.031651102 0.14298582 0.1268783
0000d0 16 80 7f 3b d3 f1 22 3e d8 61 90 bd 56 e1 03 be
       0.0038986257 0.15912561 -0.07049912 -0.12878928
0000e0 71 3c 55 3d 52 9d 17 3e f6 47 0c 3e e3 a5 12 bb
       0.052059595 0.14806107 0.13699326 -0.0022376708
0000f0 5c f2 0a 3d f8 67 26 be 12 a1 f5 3d 94 42 a1 3e
       0.03392254 -0.16250598 0.11993612 0.31496108
000100 3f c4 01 3e c8 2c b8 3e e0 31 c4 3d b1 99 b5 3e
       0.12672518 0.35971665 0.095798254 0.3546882
000110 61 6f 96 3d df 56 f6 3d 79 ac 8a 3e 9a f3 81 3e
       0.073454626 0.12028288 0.2708471 0.25381166
000120 b2 e6 cb 3d 4e 1c 92 3d 61 3e 21 3e 4f 77 ab 3d
       0.09956111 0.07134305 0.15746452 0.08372366
000130 1a 50 91 3e 15 4d f8 3c 8e 12 8f 3c 50 db 4f 3e
       0.28381425 0.030310193 0.017464902 0.20298505
000140 48 6b bc 3b 2e 7c 8b 3e e6 08 49 3e 27 d6 eb 3d
       0.0057500936 0.2724318 0.196323 0.11515456
000150 d7 d5 89 3e bd b0 a7 3e 78 15 40 3e 10 82 83 3e
       0.2692096 0.32752028 0.1875819 0.25685167
000160 cc a5 98 3e 1d 55 8f 3e 31 37 96 3e 01 85 a9 3e
       0.29813993 0.27994624 0.29338983 0.33109286
000170 82 41 79 3d 20 64 98 3e 83 3e 82 3e a2 4c 8b 3d
       0.06085349 0.2976389 0.25438318 0.06801726
000180 0a 55 7d 3e 5b 9c 7a 3e 75 a8 6a 3e 42 dc aa 3e
       0.24739471 0.24473707 0.22915824 0.33371168
000190 f0 e9 8d 3e 48 40 90 3a be 25 08 3e 2e f0 87 bd
       0.27717543 0.0011005485 0.13295648 -0.066376075
0001a0 55 7b 3b 3e 1f 75 5e 3e c1 ec 98 3d 17 be 5e 3e
       0.18308766 0.21724366 0.07467032 0.21752201
0001b0 cb c7 41 3d 78 a9 2d 3e 98 95 13 3e fb 11 e5 3d
       0.047309678 0.16959178 0.14412534 0.1118507
0001c0 8a 1f cc 3c 95 23 36 3d 44 49 6e 3e cf 81 51 3d
       0.024917383 0.044467527 0.23270136 0.051149186
0001d0 08 78 01 3e 4e 42 96 3e e4 16 40 3e 97 a4 d2 3b
       0.12643445 0.2934746 0.18758732 0.006428312
0001e0 79 9f 29 3e 4d 7b 5f 3e 5a d3 a6 3a c5 83 25 3d
       0.1656474 0.2182438 0.0012727783 0.04040887
0001f0 c9 b9 a5 bc 8e ca 70 3e 58 60 a8 3d 5a 2a e4 3d
       -0.02023019 0.23514768 0.08221501 0.111408904
000200 11 06 83 3e 26 63 88 3e d6 28 aa 3e 58 d8 d9 3d
       0.25590566 0.26638144 0.3323428 0.106369674
000210 d2 be 9d 3d 6e a1 62 3e ee b7 f4 3d 70 c8 94 3e
       0.07702412 0.22131893 0.11949144 0.29059172
000220 71 2c 86 3e e3 a8 7d 3d e0 58 ee 3d 30 a9 bf 3d
       0.2620578 0.06192864 0.11638045 0.09358442
000230 ac b3 90 3e 4f 02 b4 3d 43 50 c7 3e 86 8d 79 3a
       0.2826208 0.08789503 0.38928422 0.0009519685
000240 3c 70 f0 3d a5 79 29 be 0d 36 3c 3e 7d 2f 7c 3e
       0.11740157 -0.1655031 0.18379994 0.2462749
000250 86 37 01 3e 62 bf d0 3d d8 f8 9a 3d 4f 9d e6 3d
       0.12618837 0.101927534 0.075669944 0.11260473
000260 7d b6 14 3d 66 7a 89 3d 54 01 4a 3d 3e 5f 77 3e
       0.036306847 0.06712799 0.049317673 0.24157426
000270 8a 9f 73 3e 64 4c 43 3e 05 de bf 3d 92 f3 ae 3d
       0.23791328 0.1907211 0.09368519 0.08542551
000280 80 1f 88 3e 71 5d 99 3e 00 18 19 3e 39 d6 13 3e
       0.26586533 0.29954103 0.14950562 0.14437188
000290 44 02 45 3b 1e 80 68 3e bd f1 e1 3b a6 dc 5e 3d
       0.0030061165 0.22705123 0.0068952725 0.054409645
0002a0 23 53 13 3e cf 8d a5 3e d8 db 4b 3e 12 82 9f 3e
       0.14387183 0.32334754 0.19908082 0.31153923
0002b0 b8 c4 54 3e c1 6b 57 3e ab 9b 29 3e d0 f7 18 3e
       0.20778167 0.21037199 0.16563289 0.14938283
0002c0 46 42 bb 3e 08 22 69 3e c9 a0 85 3e 84 d5 73 3d
       0.36574 0.22766888 0.26099232 0.059529796
0002d0 bb e4 f5 3d a6 4b 15 3e 62 39 96 3e ac 3a 9c 3d
       0.120065175 0.14579639 0.29340655 0.07628378
0002e0 4a 87 cf 3e 4a 15 94 3b 09 53 c8 3d e4 8f d2 3d
       0.40532905 0.0045191394 0.09781463 0.10281351
0002f0 22 fd 80 3e 4d 76 bb bc a8 57 84 bd ed 89 53 3e
       0.25193125 -0.022883559 -0.064620316 0.20658083
000300 7e f5 93 bd 64 4a 35 3e 12 00 7b bd 73 49 80 bc
       -0.07224558 0.17704159 -0.061279364 -0.015660023
000310 2b 3e 8a bd 6f 18 30 3e 64 5d 8d bd 98 a3 ca 3d
       -0.06750139 0.1719682 -0.069025785 0.09894484
000320 f3 3d 96 bd 57 37 80 bd 2f 05 10 bc 0a f5 17 3e
       -0.073360346 -0.06260555 -0.008790298 0.14839569
000330 7e 59 1e 3e 3f b7 bf 3d 13 ca 93 3b 09 f2 bf 3d
       0.15463826 0.09361123 0.004510173 0.093723364
000340 4a 7d db 3b df 95 29 bc a1 fa 99 3e 26 0b 81 3e
       0.006698285 -0.010350673 0.30074027 0.25203818
000350 f1 49 8f 3e 41 b4 92 3e a9 c5 2c 3e 0e ec 16 3d
       0.279861 0.28653148 0.16872276 0.036846213
000360 c1 e4 24 3e d5 be 0e 3e 02 bf c4 3d 49 6f 18 3c
       0.16102888 0.13939984 0.09606744 0.009303876
000370 01 36 a3 3d f7 fe 04 3d c4 9a 17 3e b6 bf 27 3e
       0.07969285 0.032469716 0.14805132 0.16381726
000380 74 fc 47 3e d4 8d 3f 3e 83 13 5d 3d 73 0b 9d bb
       0.19529897 0.18706447 0.053973686 -0.0047926246
000390 74 36 25 3e 7c 03 79 3c 27 e4 66 3d ba 9b c1 3d
       0.16134053 0.015198585 0.056369927 0.094535306
0003a0 4a 3a 94 3e 15 e1 93 3e 8b 2f a7 3e ec 40 c3 3e
       0.2895072 0.2888266 0.3265346 0.3813547
0003b0 d2 05 0c 3e 0b 52 63 3e 66 29 42 3e 59 c6 06 3e
       0.13674095 0.22199266 0.18961105 0.13161601
0003c0 c3 7f dd 3d 95 7c ab 3e ca dc 2b 3e 38 df a1 3e
       0.10815384 0.33493486 0.16783443 0.31615615
0003d0 be 3d 91 3e ef d6 77 3e db 28 0d 3e 93 34 41 3e
       0.28367418 0.24203084 0.13785116 0.18867712
0003e0 38 3c c4 3a 12 48 91 3e e8 0d 9c 3e 97 9e 23 3e
       0.001497156 0.28375298 0.3047936 0.15978466
0003f0 e5 9c 21 3e dd c6 2f 3e 83 22 7a 3e ef 2d 9d 3e
       0.15782507 0.17165704 0.24427228 0.30699107

model.rnn.weight_hh_l0 f4 [160, 40]
000000 c2 ed 01 be 45 e3 2f be 67 d3 ad 3d 2d 66 ff 3d
       -0.12688354 -0.1717654 0.084875874 0.1247066
000010 fa dc 63 be 13 6a 52 3e 23 51 bc 3c 8c 19 42 be
       -0.22252265 0.20548277 0.022987908 -0.18955058
000020 b6 0d 36 be fd 51 af 3d 4e 72 40 bd 4d de 1e be
       -0.17778668 0.0856056 -0.04698401 -0.15514489
000030 92 c7 43 be 59 5d c0 3c 42 22 82 bd 7a 63 81 be
       -0.19119099 0.023482012 -0.063541904 -0.25271207
000040 8f fb 34 3e fa d8 13 be 88 d2 d6 3d 27 c9 ce bd
       0.17674087 -0.14438239 0.104893744 -0.100969605
000050 f6 0d b7 bd 13 39 ff 3d 5d 7e e2 3c 1b 46 d9 3c
       -0.0893821 0.12462058 0.027648145 0.026522687
000060 36 e4 14 be 63 a3 29 3d 5d dc 50 3e 99 03 bc bd
       -0.1454018 0.041415583 0.20396562 -0.09180374
000070 7b 76 04 3e e1 8e 02 3e c0 30 6d 3d 8d 74 4f 3d
       0.12935822 0.12749816 0.05790782 0.05064826
000080 45 e5 1b 3e 45 91 75 3e 0b d2 e6 3b c7 d5 1e be
       0.15224178 0.23981197 0.007044082 -0.15511237
000090 88 58 c6 bd ee e7 da bd 0d 32 3d 3d 9e ee 8c 3c
       -0.09684855 -0.10688768 0.04619031 0.017203625
0000a0 cf 6d 40 bd 47 d2 e6 bd eb 7f 9d 3d f2 e2 dd 3d
       -0.04697972 -0.11270576 0.07690414 0.10834302
0000b0 b8 06 f7 3d 00 e0 f0 bd 4e f7 0e 3d 98 26 80 bd
       0.120618284 -0.117614746 0.034903817 -0.06257361
0000c0 51 d0 d1 3b 41 ac 6c 3d 4d ce 17 3d 2d 12 41 3c
       0.006403007 0.05778146 0.037061978 0.011784119
0000d0 c5 30 12 be 78 3d cc bd f2 1f 5e bc 54 00 22 bd
       -0.14276417 -0.09972662 -0.013557421 -0.039551094
0000e0 e1 09 10 be 3f f5 54 3c 03 4e 41 be f3 3a b4 3d
       -0.14066269 0.012997924 -0.18877415 0.08800306
0000f0 39 ae 8d 3c 76 68 be 3d 40 7d 9f 3d 07 27 8d bd
       0.01729499 0.09297268 0.077875614 -0.068922095
000100 a4 09 9e bd 5f d9 0f be 83 2a 44 bd 81 4a a5 3d
       -0.077166826 -0.14047764 -0.047892105 0.08070851
000110 c1 a7 1f 3e 1a 1d 79 3d 62 be 10 be d3 ea 90 3d
       0.15591337 0.06081877 -0.14135125 0.07076039
000120 35 93 db 3d 3c 11 e0 bc 27 67 e1 bc 52 a1 47 3d
       0.10721437 -0.027351968 -0.027515007 0.04873783
000130 03 ef 1d bc 22 2c 9a bd 63 14 95 3d ab 68 a9 bd
       -0.009639504 -0.07527949 0.07279279 -0.08271917
000140 6c e3 18 3d 42 24 f9 3d d5 4b 0a bd 35 36 6b 3d
       0.03732626 0.12165119 -0.033763725 0.057424743
000150 a8 c9 aa bc 2e 1b 06 be f2 5a 9f 3d 54 48 ff bc
       -0.02084811 -0.13096306 0.07781018 -0.031162418
000160 4d 6a 96 bd 75 75 e8 3d 36 18 1c 3e 82 d3 ea bc
       -0.07344494 0.11350528 0.1524361 -0.028665308
000170 cd d9 bc bd 1f b5 1c 3c 85 6e d9 bd bf fd 2a 3d
       -0.0922123 0.009564667 -0.10616783 0.041745897
000180 60 23 99 bc 84 4d c9 3e 55 08 01 3e b8 d2 16 3c
       -0.018693626 0.39316952 0.12600835 0.009205513
000190 6d 2f 97 3d 2d 67 a5 3d 51 fc bd 3c ba a6 06 be
       0.073820926 0.0807632 0.023191603 -0.13149539
0001a0 6d 64 ec bd ab e2 5a bd 1e f4 82 3d 90 9e 13 3e
       -0.11542592 -0.053438824 0.06394218 0.14415956
0001b0 6d 68 63 bd d8 7f 9a 3d 97 2b 48 bc 64 c4 23 3e
       -0.05551951 0.075439155 -0.012217424 0.15992886
0001c0 09 14 e7 3c 55 b4 17 3d e4 75 86 bd 28 e7 70 3b
       0.028207796 0.037037212 -0.065654546 0.0036758874
0001d0 43 8f 1c 3e d3 c5 61 be 7e cd 91 3b 0d 3f 79 bd
       0.15289025 -0.2204812 0.0044495454 -0.060851146
0001e0 f0 36 2c be e3 74 f7 3d f5 b5 0d 3e e3 1c b4 bd
       -0.16817832 0.12082841 0.13838942 -0.08794572
0001f0 d7 8e 4c be 54 ea 77 bc 3c 81 fc 3c c3 d3 ba 3d
       -0.19976364 -0.015131552 0.030823343 0.091224216
000200 e9 1a f2 bc ad af 90 3d 57 7b 30 3e 4a 08 e1 3d
       -0.029553847 0.070647575 0.1723455 0.10987909
000210 6d 1f 22 3d 9e dc b0 3c fe bb 4e 3d 4a 4f 48 be
       0.03958075 0.021589573 0.050472252 -0.19561496
000220 7d f7 c5 bc fd 50 61 3e 9e 01 b6 3b 52 9c d9 bd
       -0.024165863 0.22003551 0.005554392 -0.10625519
000230 ca b6 0c be 90 cf da bd 90 72 62 3c f5 4d f5 3d
       -0.13741603 -0.10684121 0.013821259 0.1197776
000240 de 60 6f bd 52 f7 f4 3d 83 a5 3b 3e 9d a1 19 3a
       -0.05844199 0.11961235 0.18324856 0.0005860569
000250 83 33 39 3e 80 18 cf bd 05 47 b0 3d d4 a6 90 3d
       0.18086056 -0.10112095 0.08607296 0.0706307
000260 4d 5e 7d be 4b 70 fe 3d e1 8e 26 be f2 a9 91 3c
       -0.24743004 0.12423762 -0.16265441 0.017781232
000270 9e 39 ec bd 55 78 ff bd ac 94 2b bc 84 68 b1 3d
       -0.11534427 -0.124741234 -0.010472458 0.08662513
000280 94 74 63 be 08 1c 69 be a9 34 cd bc f5 1a 80 3e
       -0.2221244 -0.227646 -0.025049524 0.25020567
000290 5d 1b 3a bd 57 b9 1e bd 9f 91 a7 bd 59 c4 d0 bd
       -0.045436252 -0.038750973 -0.08182072 -0.101937
0002a0 cc 04 37 be 84 25 4d 3e 61 ba 39 3d 55 07 97 bd
       -0.17872924 0.20033842 0.04534376 -0.07374445
0002b0 10 8a 67 3d 75 2e 4f be 2d f1 83 3d a6 2e a0 be
       0.05652815 -0.20232566 0.06442485 -0.3128559
0002c0 fc 3c a7 3d 6e 2d 44 be b8 ad 44 3c 86 79 40 be
       0.08165929 -0.19157955 0.012004308 -0.18796358
0002d0 08 74 83 bd 2f 7a 96 3d 5c e0 aa bd 2a 13 8d bd
       -0.064186156 0.073475234 -0.083435744 -0.06888421
0002e0 67 ad 40 be 8e e8 c7 bc 8d 56 f9 bc d0 02 6e bd
       -0.18816148 -0.024402883 -0.030436778 -0.05810815
0002f0 9b fb 2a 3e 1d de 84 bd e1 af f7 bd 69 5b 50 3e
       0.16697542 -0.06487677 -0.12094093 0.2034737
000300 4d 00 94 bd ff 63 06 bc 7a 27 70 be d8 61 d4 bd
       -0.0722662 -0.008202552 -0.23452559 -0.10370225
000310 5b ea f3 bc 60 6f 29 be 29 99 72 be 94 12 eb bd
       -0.029774835 -0.16546392 -0.23691238 -0.11478153
000320 64 8c 75 bd a2 a4 b3 3b 10 e9 61 3d a5 1e b6 3d
       -0.05994834 0.0054822722 0.055153906 0.08892564
000330 67 6b 82 bd 0c d5 45 bd ec b8 50 be c7 e5 11 3d
       -0.063681416 -0.04829888 -0.20383042 0.035619523
000340 c7 3c 7f 3c ef 57 fa 3c 3b d2 54 3d af 84 30 3d
       0.015578455 0.030559508 0.051958304 0.043095287
000350 9b b4 6d 3d f1 d6 bd bc df 38 dd bd e4 43 33 be
       0.058033567 -0.023173781 -0.10801863 -0.17506367
000360 f8 69 44 bd c8 46 04 3e 99 72 ce bd 6d 11 f3 bc
       -0.047952622 0.12917626 -0.100804515 -0.029671395
000370 52 38 ca 3d 7a f3 48 3e 0e cf 5d bd 38 fc 0d bc
       0.098740235 0.19624129 -0.05415254 -0.008666091
000380 65 78 cc bd 53 27 36 be 86 ec b6 b9 eb bd 21 3e
       -0.09983901 -0.17788438 -0.0003488997 0.15795104
000390 df 15 0d bd 68 8d 07 3e 6f 4f 0e be 56 c3 a8 3d
       -0.034444686 0.13237536 -0.13897489 0.082403824
0003a0 59 df 40 be 4f 56 9a 3d 1b 0a 61 bd b2 08 2d be
       -0.188352 0.07535993 -0.054941278 -0.16897848
0003b0 aa 08 52 bc 59 e5 23 bd d6 3f bc bd 5f 0f 02 be
       -0.0128194485 -0.040013645 -0.09191863 -0.12701176
0003c0 8c 49 0d 3d 2b fa cc bd 8f 18 d3 3d e2 18 16 3c
       0.034493968 -0.10008653 0.103074186 0.009161206
0003d0 b4 0a a3 bb b0 71 8c 3c 31 ab b0 bd 2e 77 67 bd
       -0.004975641 0.017144054 -0.08626402 -0.056510143
0003e0 1e 01 3f be 7a 2c 75 bd 2c a0 3f bd 0d 4b 0f be
       -0.1865277 -0.05985687 -0.04678361 -0.13993473
0003f0 58 1d 20 3d 9c cd 65 be f4 5d d4 3c d0 8b 20 be
       0.039090484 -0.22441715 0.025923707 -0.15678334

model.rnn.bias_ih_l0 f4 [160]
000000 68 6c 2f 3e 1c bf 02 3e b9 b4 3f bd 67 52 c8 3d
       0.17131197 0.12768215 -0.04680321 0.09781342
000010 71 4f b9 3d e8 2a aa 3e 19 92 f5 3d 17 4c 1e 3e
       0.09048355 0.3323586 0.119907565 0.15458713
000020 2d 25 38 3e c4 76 3e bd d8 0a e3 3d 46 f8 b4 3e
       0.17982931 -0.046499982 0.11086053 0.35345668
000030 b1 c4 24 3e 00 5d 82 3e 66 0a 5b bc 04 99 12 3e
       0.16090657 0.25461578 -0.013369178 0.14316183
000040 8b 12 35 be 35 af 6e bd fa af b5 bd 0e 16 a5 3e
       -0.17682855 -0.05827256 -0.088714555 0.3224339
000050 53 92 85 3d 19 6a b8 3d cf 7d ff bd a9 31 d9 bd
       0.0652205 0.090046115 -0.12475168 -0.10605175
000060 b9 36 75 3e 4b df 3c 3e 64 e7 2a 3e c4 9b 02 be
       0.23946656 0.18444555 0.16689831 -0.12754732
000070 dc 8b 71 3e 51 74 a3 3e 3e 72 e7 3d 9a 9e e0 3d
       0.23588508 0.3192468 0.11301087 0.10967751
000080 8f 2b a7 3e 19 68 1a 3e e0 25 e4 3d 9d 19 09 3e
       0.3265042 0.15078773 0.111400366 0.13388677
000090 a8 f9 b4 3d 87 e9 18 3e 70 03 25 3d 5e 3c 7b 3d
       0.08836681 0.14932834 0.04028648 0.061336868
0000a0 03 ad f6 3d bb 2e ec 3d a1 0e 8a 3d 1a b4 c6 bd
       0.12044718 0.11532351 0.067410715 -0.097023204
0000b0 d6 f3 80 3e 10 57 15 3e 77 04 a1 3d 44 d0 1c 3e
       0.25186032 0.14583993 0.0786218 0.15313822
0000c0 c2 9c b0 3c a2 53 fa 3d 0e 31 6b 3d 7b ca fa 3d
       0.021559123 0.12222983 0.05741983 0.12245651
0000d0 3d 25 83 bd 4a cb 0c 3e 07 f4 a2 bd 3f f0 fd bd
       -0.06403587 0.13749424 -0.07956701 -0.12399339
0000e0 17 01 9b bd 6e 79 83 bd 04 bb 15 be b1 11 4f 3e
       -0.07568567 -0.06419645 -0.14622122 0.20221592
0000f0 75 e1 2c 3c 2f 45 19 be ea 71 60 3e 0b 4f fa 3d
       0.0105518 -0.14967798 0.21918455 0.122221075
000100 96 92 37 3e 24 45 1b 3e f1 be c2 3c 66 de a1 3d
       0.17927012 0.15163094 0.023772689 0.07903747
000110 e7 92 d5 3d ad 72 e1 3c b0 b3 d3 bd 77 b1 23 bd
       0.1042841 0.027520502 -0.10337007 -0.039964166
000120 9d e0 e5 bd 96 0b 01 3e a5 42 10 3e d2 8f 45 bc
       -0.11224482 0.12602076 0.14087923 -0.012058215
000130 8e 41 2c bc 9f bc 6f be af b9 c8 3d 47 b0 50 3c
       -0.010513676 -0.23411797 0.09801041 0.01273734
000140 c2 55 9e bd 97 92 0f be 5d 36 9a bc df 03 f2 3d
       -0.07731201 -0.14020763 -0.01882475 0.118171446
000150 82 30 80 bc 1a 0e 45 3e bc 8d 53 be c7 08 69 be
       -0.01564813 0.1924366 -0.20659536 -0.22757255
000160 38 f5 c4 bd 8c 99 57 3d a2 7d 38 3e 0e be f5 3c
       -0.09617084 0.052636668 0.18016675 0.029997852
000170 08 ab 8b bc 3c a6 34 3d d2 49 b6 3d f6 80 9c 3d
       -0.017049327 0.044103846 0.08900799 0.07641785
000180 f1 c5 f6 3c 0c 76 b1 bd 29 c6 94 3d 55 bd 00 bd
       0.030123683 -0.08665094 0.072643586 -0.03143056
000190 89 cd 04 be ba 40 1e 3e fb e1 92 bc 80 fe 51 3e
       -0.1296903 0.15454379 -0.017930022 0.2050724
0001a0 9d 6e 9e 3d 0e e7 76 bd e7 60 ca bd 7b 07 1e be
       0.077359416 -0.060278945 -0.09881764 -0.15432541
0001b0 d2 2b 72 bc c2 b8 b0 3d 3f bf f6 bc b0 ed 8f 3d
       -0.014780955 0.0862899 -0.03012049 0.07027757
0001c0 ea ba 01 3a 6a 28 15 ba 8e f9 86 be b7 5b db bc
       0.0004948812 -0.0005689921 -0.2636227 -0.026777131
0001d0 dc d9 06 bd 18 d0 ab 3c 34 a6 e5 3c 0c 96 0d 3d
       -0.03292261 0.02097325 0.028033353 0.034566924
0001e0 44 26 bf 3d c6 8a d3 bc fc 41 76 3c ab 7d f0 3b
       0.093334705 -0.025823008 0.01503038 0.0073391995
0001f0 4f 29 a6 3e d1 53 3f 3e 20 3b 91 3e b2 41 0b 3d
       0.3245339 0.18684317 0.2836542 0.0339982
000200 5a 51 5e 3e bb e7 87 3b c3 0c 07 3e 13 72 16 3e
       0.2171072 0.0041474975 0.13188462 0.14691953
000210 08 2a d7 3d 35 1e 10 3e 87 e0 8f 3d 5b f6 1a 3e
       0.10506064 0.14074023 0.07025247 0.1513304
000220 fa 8d 3e bd 08 cb 24 be bb 78 0d 3e b4 d0 a9 3c
       -0.04652212 -0.16093075 0.13815586 0.0207294
000230 86 6b 29 3e d2 4f 51 3d a3 6b 8e 3d f0 56 84 bd
       0.16544923 0.051101513 0.06954124 -0.064618945
000240 d0 04 03 3c df 61 b5 3e f9 81 bc bd a2 29 77 bc
       0.007996753 0.35426232 -0.09204478 -0.01508561
000250 6b 3d 1f 3e 23 1e 01 3e 78 46 a0 bd ca 28 eb bd
       0.15550773 0.12609152 -0.07825941 -0.11482389
000260 1d e3 e0 3e 97 a1 91 3d e6 78 1f 3e f5 71 b0 bb
       0.43923274 0.07110899 0.15573463 -0.0053846785
000270 98 a3 c8 bc ad 7b c3 bd 74 b2 07 3e 07 aa 47 3d
       -0.02449207 -0.09545074 0.13251668 0.048746135

model.rnn.bias_hh_l0 f4 [160]
000000 b1 ac 36 3e 03 f9 e5 3d 3b 7d 04 3e 01 3a 9f 3e
       0.17839314 0.11229136 0.12938397 0.3109894
000010 a0 f5 f9 3d a5 d8 8f 3e 7c b6 c3 3e dc 3c 93 3d
       0.122050524 0.28094974 0.38225162 0.071893424
000020 4c 71 d2 3e 88 c5 57 bd 7b 4a 7e 3e de e8 20 3e
       0.41102064 -0.052678615 0.248331 0.15713832
000030 99 9d 20 3e f6 a3 a2 3e fd ca c3 3d 0c ff 8c 3e
       0.15685119 0.31765717 0.09560201 0.27538335
000040 8c cc ff bc ec e0 e0 bd 63 17 6a bd e7 6a 80 3e
       -0.031225465 -0.109804004 -0.05715121 0.2508156
000050 b2 c5 01 3e f0 78 d5 bd 10 63 0e be 6e 3e 9f bd
       0.12673071 -0.104234576 -0.13904977 -0.077755794
000060 e4 8e 9e 3c eb af 44 3e b3 fe f3 3d cf 03 83 bc
       0.019355245 0.19207732 0.119138144 -0.015993027
000070 4f ab 30 3e 5f 09 2d 3e 8b f7 95 3c 80 74 48 3d
       0.17252849 0.16898106 0.018306514 0.048939228
000080 13 97 e2 3e dd 25 d2 3d de 28 1e 3e c4 f8 2f 3e
       0.44255885 0.10261128 0.15445277 0.1718474
000090 73 f7 8d bd 9b ac e3 3d f4 b9 bd 3d 08 03 2b 3e
       -0.06931963 0.11116906 0.09263983 0.16700375
0000a0 86 37 28 bd 86 3f d5 bc 26 f8 99 3d f0 a7 83 3d
       -0.041068576 -0.026031267 0.07518034 0.06428516
0000b0 85 bf 6d 3e 7a 53 dc bd 0b ee 0d 3e bc f7 52 3e
       0.2321759 -0.107581094 0.13860337 0.20602316
0000c0 21 b5 2a 3e a6 59 65 bd 81 c4 12 3e 1e e3 65 bb
       0.16670658 -0.0559937 0.14332773 -0.0035078
0000d0 65 59 54 bd 37 7f 47 3e d0 b3 aa bc 66 c9 9e bd
       -0.051843066 0.19482122 -0.020837694 -0.077532575
0000e0 80 f7 f3 bd 8b 55 34 3d 26 96 20 bd be e7 10 3c
       -0.11912441 0.044026893 -0.039205693 0.008844314
0000f0 3a ec 1f 3e 70 8a eb bc e7 fe de 3c 79 ab 63 3d
       0.15617457 -0.028752536 0.027221156 0.05558345
000100 83 ba 8c bd c5 2f b0 ba d2 5f d0 3d a3 d9 84 3c
       -0.06871512 -0.0013441971 0.10174526 0.016217059
000110 bd 23 98 3d 4d 46 10 3d ff 58 00 bd b6 bf 68 bc
       0.074286915 0.035223294 -0.031334873 -0.014205864
000120 38 e2 ca 3c 61 01 11 be a4 59 0a bd 82 ed 82 bd
       0.024766073 -0.14160682 -0.033776894 -0.06392957
000130 51 f5 53 bc 37 0e 7c be 4a 1f 40 3e bb 37 30 3e
       -0.012936906 -0.24614798 0.18761936 0.1720876
000140 41 68 95 ba c2 84 37 3d e1 26 21 3e 26 1a e9 3d
       -0.0011398868 0.044804342 0.15737487 0.113819405
000150 9a f9 b6 bd 5c 70 55 3d 0b 58 8f be 6f 8b cb bd
       -0.089343265 0.052109107 -0.2799686 -0.09938704
000160 b4 91 9c be eb ac 13 3e 16 6b 06 3d 30 05 2c bd
       -0.30579913 0.14421432 0.03281697 -0.041997135
000170 05 19 71 3b 8b 24 43 be e6 40 80 bd d2 38 25 bd
       0.0036788594 -0.19056909 -0.062623784 -0.04033739
000180 d9 c6 86 bd 5a ed a5 bd bc 87 a6 3b 1b 4a 98 3b
       -0.06580896 -0.08101912 0.0050820988 0.004647506
000190 4e 63 dd bc 6c 07 cf 3b a9 e2 81 3d e5 31 1b 3e
       -0.027024891 0.0063180234 0.0634206 0.15155752
0001a0 fa b4 0d be 79 84 88 be db c5 8e 3c e5 5b 95 3d
       -0.13838568 -0.2666357 0.01742833 0.07292918
0001b0 4a 08 8d 3d 6b d3 b2 3d 1e 92 c3 bc c7 6c 48 3e
       0.06886347 0.08731731 -0.023873385 0.19572745
0001c0 4d 0e 1f 3e 6a 79 25 bd ba 92 36 be d3 a1 df bd
       0.15532799 -0.040398993 -0.17829409 -0.109195374
0001d0 30 ad 48 bd 34 ce 39 3d 1c 0e 03 3d 5d 64 9c bd
       -0.04899329 0.045362666 0.031995878 -0.0763633
0001e0 d8 70 1b 3e 8f 02 5f 3e db f8 12 3e d0 a6 36 3e
       0.15179765 0.2177832 0.14352743 0.17837071
0001f0 a2 9f 14 3e 81 a5 7f 3e 9e 3c 99 3e 4a df 48 3d
       0.1451402 0.24965478 0.2992906 0.04904107
000200 6c 01 dd 3d 43 c0 aa bd 8b 67 4d 3e b6 1f 74 3e
       0.10791287 -0.08337452 0.2005903 0.23840222
000210 38 f5 ae bd e5 52 14 bd b9 81 81 3d 33 b3 b3 3e
       -0.085428655 -0.036211867 0.06323571 0.35097656
000220 a2 73 50 bd c1 af 44 be 66 83 44 3d dc 35 71 bd
       -0.050891526 -0.1920767 0.047976874 -0.058889255
000230 bf 05 23 3d 11 90 3a 3e 56 38 43 bd f6 98 4f 3d
       0.0398004 0.1821902 -0.047661148 0.050682984
000240 16 9f 17 3d b5 56 46 3e ce e3 b1 bd 31 24 f2 bd
       0.03701695 0.19369014 -0.086860284 -0.11823309
000250 6d 6b 4f 3d 08 a7 36 3d aa 2f de 3c 51 73 1f bd
       0.05063956 0.044592887 0.027122337 -0.038928334
000260 8b 5e ac 3e 5f ed 59 3e 80 e4 05 bc 20 71 38 3e
       0.3366588 0.21281956 -0.008172154 0.18011904
000270 9f f6 2c 3e be cb 35 3e 62 36 06 3e b2 09 0e bc
       0.16890953 0.17753503 0.13106683 -0.008669304

model.rnn.weight_ih_l1 f4 [160, 40]
000000 10 06 ae bd b8 8a 8b bd de 08 f4 3b cc b6 53 3e
       -0.0849725 -0.06813568 0.007447346 0.206752
000010 2e ba bd bd a0 45 91 3e 4c 75 96 be a3 3e 9a be
       -0.092640266 0.28373432 -0.29386365 -0.30125913
000020 8b 8a a5 be 13 0e e3 3d e0 21 56 3e d0 74 ef bd
       -0.32332262 0.11086669 0.2091136 -0.11692202
000030 30 02 84 be b2 e9 b6 bd a2 1d f8 3d 30 b2 35 be
       -0.2578292 -0.089312926 0.12115027 -0.17743754
000040 1d 51 b4 bd 28 3c 83 bd de 7e 4e bd 71 bd 5b be
       -0.08804534 -0.06407958 -0.05041396 -0.21458985
000050 b8 4a ec bb a3 5b 19 3e d7 fb 1e bd d5 76 90 bc
       -0.0072110556 0.14976363 -0.038814392 -0.017634789
000060 0e b5 8a bd 42 2d 3d be 39 5a 6f 3c 9c 79 19 3e
       -0.06772815 -0.18474296 0.014608913 0.14987797
000070 2e 21 a8 3c 4d b8 06 bc 3b d6 49 bc fb 4c 0d 3e
       0.020523634 -0.008222652 -0.012319143 0.13798897
000080 82 7e 38 be f9 67 ca bc ee 59 02 bd ee bb 3c bc
       -0.18017009 -0.024707781 -0.031824045 -0.011519415
000090 92 66 98 3d 5e c8 75 be 6d 7a 0d be 02 35 09 3d
       0.07441439 -0.24002215 -0.13816233 0.033497818
0000a0 dd 96 4a be 85 53 82 be 46 78 0a 3e cc 04 c7 3e
       -0.19784112 -0.25454345 0.13522443 0.38870847
0000b0 51 66 36 be 2b a3 be 3c db 38 02 bf b3 bf 1d bd
       -0.17812468 0.023271164 -0.50868005 -0.038512897
0000c0 96 d2 ea be 92 f4 14 3e 1b 8b 0d 3e 0b 61 21 bd
       -0.4586379 0.14546421 0.13822596 -0.039399188
0000d0 53 9c a8 be 5a 19 6b be 09 25 55 3e 20 2c fa be
       -0.32931766 -0.2295889 0.20814909 -0.4886179
0000e0 78 5b 26 be fe 52 24 bd 33 7c 5b be a8 19 93 be
       -0.1624583 -0.04011821 -0.21434097 -0.28730512
0000f0 c4 b2 49 be a6 71 5a 3c 11 2f 35 be f6 40 a8 3d
       -0.196971 0.01333276 -0.17693736 0.08215515
000100 ca a3 c0 bd 0f 12 e2 bc e6 85 11 3d ae 0e ef bd
       -0.0940624 -0.027596502 0.035528086 -0.11672722
000110 ec c1 45 3e 3f 15 8b 3b e2 78 96 be c6 82 14 3e
       0.19312257 0.004244476 -0.293891 0.14503011
000120 05 7f 28 be 80 6c 8e 3e 24 ed d6 be 1d 82 a8 bd
       -0.16454704 0.27817154 -0.419778 -0.08227942
000130 33 a9 a6 3d b2 f1 ab be e4 5d 9d be 98 7f c9 ba
       0.08137741 -0.33582836 -0.30735695 -0.0015373109
000140 a3 6d 21 bd 80 8f a2 3a 3d 25 83 3d ae f8 a1 3d
       -0.0394112 0.0012402385 0.06403587 0.0790876
000150 3c 7e 9d bd c5 9c 95 bd 70 9c d5 bd a9 64 43 be
       -0.07690093 -0.07305292 -0.10430229 -0.19081368
000160 6b 76 05 be ae fa f1 bd 2a db a6 bd 59 a3 1d be
       -0.13033454 -0.118153915 -0.08147271 -0.15394343
000170 43 ba d7 bb 64 75 13 3c 5e 9a 5f bd 29 ed da 3c
       -0.0065834834 0.009000156 -0.054590575 0.026724415
000180 1c f3 8e be b2 f9 e1 3e e0 7a 9d bc d0 06 aa bd
       -0.27919853 0.44135815 -0.01922363 -0.08302081
000190 13 f6 f1 3d 2f 39 9f bc 83 8c c2 bd 83 28 3f bd
       0.11814513 -0.019436447 -0.09499457 -0.046669494
0001a0 dc 00 64 3d cb c9 f7 bd 60 ec 6f 3d c6 ef d1 3d
       0.055664882 -0.12099036 0.058575034 0.10250811
0001b0 68 81 b9 3d 6a b9 cc 3d 7a 22 3c be c6 99 05 be
       0.090578854 0.099963024 -0.18372527 -0.13046941
0001c0 75 80 e5 3c 94 22 c6 3e 23 a2 ba 3d 59 a4 81 bd
       0.028015355 0.38698256 0.091129564 -0.06330175
0001d0 ed d9 0c 3e 79 8e c6 be 3f d3 a8 3d 23 78 1e be
       0.13755007 -0.38780573 0.08243417 -0.15475516
0001e0 4a d3 9b bd b1 97 44 3c 70 7f bd bd 86 ad 74 bd
       -0.076086596 0.011999057 -0.092528224 -0.059735797
0001f0 f9 96 45 3d 20 4d 35 3e b1 44 07 3e 11 a2 b7 3d
       0.048239682 0.17705202 0.13209797 0.089664586
000200 d7 0d 13 bd d6 dd a5 bb fb fe 09 3e 3f 2c 2e be
       -0.03590187 -0.0050618453 0.13476174 -0.17009066
000210 7a 5f f3 bd 28 6f c7 bd ae 97 56 bd 70 d5 f1 bd
       -0.11883445 -0.09737998 -0.052390747 -0.11808288
000220 d9 e0 8e 3d f7 1f 2f be 7c 39 e9 3d c6 2c 1f be
       0.0697648 -0.17102037 0.113879174 -0.15544423
000230 67 7a 02 bd e8 44 98 3d f0 1d bd bd 99 ad 26 3e
       -0.031855013 0.07435018 -0.09234226 0.1627716
000240 75 01 87 3d 9e 86 ee bc 9c fe 3b 3d 7a b3 15 3e
       0.06592075 -0.029116925 0.04589711 0.14619246
000250 b0 2e 09 3e 16 ae fe bc 8e 33 cf 3d 38 96 bd 3d
       0.13396716 -0.03108887 0.10117255 0.092571676
000260 dd 63 c4 bc 15 58 b6 3d d4 de 00 be d1 0b 2c be
       -0.0239734 0.08903519 -0.12585002 -0.16801383
000270 7c f5 96 3d b7 0b 3f bd 29 2c 16 3d 99 d0 05 be
       0.07371041 -0.04664203 0.03666321 -0.13067855
000280 77 1a e6 bd c5 9e cb bd 83 09 32 be f9 2a d5 bd
       -0.112355165 -0.09942392 -0.17386441 -0.10408587
000290 d8 fc f6 3d a2 c5 e8 3d d5 1a 89 3d dd 7e 0c 3d
       0.12059945 0.113658205 0.06694571 0.034300674
0002a0 05 d2 12 3e fb 89 4d be 94 9e 72 3d e6 1f 20 3e
       0.14337929 -0.20072167 0.059233263 0.15637168
0002b0 e3 67 e8 bc 00 3d e0 bd bf ec 19 bd 8d ac c1 3d
       -0.02836985 -0.10949135 -0.037579294 0.094567396
0002c0 78 ff 00 3e 6e 4d 72 be 46 d7 12 3e 58 0e db 3d
       0.12597454 -0.2366235 0.14339933 0.10696095
0002d0 33 40 20 3d 70 62 20 be 7d 42 d3 3d 53 64 4d bd
       0.039123725 -0.15662551 0.10315416 -0.050144505
0002e0 72 a6 1e 3e d5 83 16 3e 90 ec c9 3d 3a af d5 3d
       0.15493181 0.14698727 0.09859574 0.104338124
0002f0 9b 72 1e be f5 37 d8 bd 1a 93 42 3e 5f f9 9d bd
       -0.15473406 -0.10557548 0.19001427 -0.077135794
000300 81 4a dd 3d 53 4e 4a be e7 2c 3d bc 3d ff 91 3d
       0.10805226 -0.19756441 -0.01154635 0.07128761
000310 8c e4 47 be 8d 71 b2 3e cc 4c a7 3d 80 d7 84 3d
       -0.19520777 0.34852257 0.08168945 0.06486416
000320 5e 86 c6 be 38 b7 8b be 3b 1a 9d 3e ec f5 c2 3e
       -0.3877439 -0.27288222 0.30684075 0.38078249
000330 c8 f6 92 be 9d 40 62 3d 4c f5 d5 be 0c a2 1f bd
       -0.28703904 0.0552374 -0.4178871 -0.0389729
000340 a9 f1 c9 be ab 73 41 3d fc e4 79 3d 0d e1 4e be
       -0.39442185 0.04722945 0.061009392 -0.20203038
000350 1d 5c 2a be ec a5 2d be 4e 4c 89 3e 97 28 c3 be
       -0.16636701 -0.16957825 0.26816028 -0.38116905
000360 34 03 8d be af 78 f8 3d 7c 99 b2 bd 75 d1 94 bd
       -0.27541506 0.121323936 -0.08720681 -0.07266513
000370 d0 7a 44 be 44 26 29 3e 8c ed 4e 3c 5c c6 fd 3d
       -0.19187474 0.16518503 0.012629878 0.1239135
000380 38 5e d3 bd bf 09 83 be e3 ac 8a 3e d9 37 00 bd
       -0.10320705 -0.25593373 0.27085027 -0.03130326
000390 3e 6b 9d 3e 2b fa 89 bb 8f cc cb bd 60 f8 fa 3b
       0.30745882 -0.0042107305 -0.09951126 0.007659003
0003a0 34 c3 16 be 23 8e 91 3e 2f b2 7a be e4 71 98 be
       -0.14722902 0.28428754 -0.24482034 -0.29774392
0003b0 d2 3c 88 3e 48 cc 90 be 30 af cc be 89 b3 07 be
       0.26608902 -0.28280854 -0.39977407 -0.13252081
0003c0 7b f5 6b bd 7a 27 dd bd 75 31 0d 3e 9b 95 52 3e
       -0.057607155 -0.10798545 0.13788398 0.20564882
0003d0 e4 14 ba bd 4e f5 cb 3d 9d 2d 0b be f2 cd 92 3d
       -0.09086016 0.099588975 -0.13591619 0.07168187
0003e0 23 76 c8 bd 22 60 6e 3e 61 90 10 3e 02 c2 b3 bd
       -0.09788158 0.2327886 0.14117576 -0.087772384
0003f0 b0 48 52 be b1 6a d8 bc bd 4d 63 bc b6 28 04 be
       -0.2053554 -0.026418062 -0.013873515 -0.12906155

model.rnn.weight_hh_l1 f4 [160, 40]
000000 f3 ad ca 3b 5d 8f 94 3d a0 b2 fc 3d 35 d3 28 be
       0.006185287 0.07253907 0.123387575 -0.16486819
000010 9a be d7 3b 83 f0 72 bd b6 45 2a 3d 85 47 66 3d
       0.006584001 -0.0593114 0.041570388 0.05622055
000020 20 b9 8a 3d 57 4e 0a be 20 a3 7e 3d e6 53 6a 3c
       0.06773591 -0.13506447 0.062167287 0.0143022295
000030 3d 49 e2 3d 3b 72 2b 3e b6 01 0a be 75 84 1d 3e
       0.11049125 0.16742794 -0.13477215 0.1538256
000040 00 0a ba 3d 14 e9 9f 3d 94 28 3d 3e 82 7b 95 bd
       0.090839386 0.07808128 0.1847251 -0.07298948
000050 8f 6e c9 3d e6 4f 5d bb 84 3d 9f 3d 1a 59 4f bd
       0.098355405 -0.0033769547 0.07775405 -0.050622083
000060 55 92 3d bd 26 4f 95 3d ff 87 ef bd 8f 94 a7 3d
       -0.04628213 0.07290487 -0.11695861 0.08182632
000070 87 17 c9 3c 0b fa eb 3d 4b 1d da bc 2c 5b 1f 3e
       0.024547352 0.11522301 -0.026625296 0.15562123
000080 68 65 1c 3e c8 8b b5 3d 7c 09 d3 3d 9e 49 e9 3d
       0.15273058 0.08864552 0.103045434 0.113909945
000090 2a bd 2c bd d7 09 1e bd 97 4c 9e 3c a7 98 91 bd
       -0.04217259 -0.038583603 0.01932363 -0.07109194
0000a0 8b d5 d4 3d c4 60 57 3d b4 0f 34 bd b9 1e 20 3c
       0.103922926 0.052582517 -0.04396029 0.00977295
0000b0 b8 30 b4 3d 68 5a 0c be 08 79 5d 3d 49 a9 44 3d
       0.08798355 -0.13706362 0.054070503 0.048013005
0000c0 b5 6c c7 3d 56 56 08 be 1f c0 80 bd d0 68 b3 3d
       0.09737531 -0.13314185 -0.06286644 0.08760226
0000d0 d8 44 13 be 9c d3 05 3e 45 f1 f5 3d 14 e0 da bc
       -0.1438173 0.13069004 0.12008909 -0.026718177
0000e0 68 b5 b2 bd e2 64 e9 3d c1 3d ff bb 1d 9e 38 bd
       -0.08726007 0.11396195 -0.007789344 -0.045072664
0000f0 09 b7 92 3d ab f2 35 3b 49 5b 73 3d cc 1b b2 ba
       0.071638174 0.002776305 0.05941323 -0.0013588606
000100 4a 24 1c bd 0f 28 62 bd 7e 2e 02 3e 15 10 bd bd
       -0.038120545 -0.055213984 0.12713048 -0.09231583
000110 68 55 e4 3d d4 49 ee bd 32 a2 14 3e 94 4a db 3d
       0.111491024 -0.11635175 0.14514998 0.10707584
000120 70 6b 61 bc d8 09 4e bd de b7 47 3d db 61 00 be
       -0.013758525 -0.050302356 0.048759334 -0.12537329
000130 f0 15 19 be 97 64 07 be 43 a5 1d 3e 96 03 41 3e
       -0.14949775 -0.13221966 0.15395074 0.18849024
000140 2e a0 3c 3b 73 e6 ec bd 3f 63 31 3e 54 ca 1e be
       0.0028781998 -0.11567392 0.17323016 -0.1550687
000150 69 11 42 bd 43 49 f8 bd a4 f9 9f bb 15 5a 47 3d
       -0.047379885 -0.121233486 -0.0048820544 0.048669893
000160 83 6d 24 3d c8 d8 8e bc 1e 3b fd bd 4c ba df 3d
       0.0401435 -0.017437354 -0.12364791 0.10924205
000170 d2 25 ed bd 7d 63 ac bc 6c c4 ad 3a 39 65 3e be
       -0.11579479 -0.021043533 0.0013257391 -0.18593301
000180 ea 7d fb bd c1 89 07 be 13 ed 11 3e cc 4e e2 3c
       -0.122798756 -0.13236143 0.14250593 0.027625464
000190 96 24 57 3e 18 cd 98 3b d2 b5 d6 bd 68 26 f5 bc
       0.2101005 0.004663121 -0.10483898 -0.02992554
0001a0 c7 51 cf 3d 59 aa 5b bd a9 aa 0c be d1 61 10 be
       0.1012302 -0.053629253 -0.13736977 -0.14099814
0001b0 e9 7f b9 bc bb 75 43 3d 0c 4f 8c bd 5a 13 f7 3d
       -0.022644 0.0477197 -0.068510145 0.12064238
0001c0 e9 80 2e be 51 75 2a bd e1 83 a2 3a d2 f0 3f bc
       -0.17041363 -0.041615788 0.0012398922 -0.011715131
0001d0 89 28 ff 3d fc c5 f0 bd 15 4d b5 3d ba 9d 0d bd
       0.12458903 -0.117565125 0.08852593 -0.034574248
0001e0 35 30 c8 bd 42 10 cc 3d 32 60 44 be 58 81 04 3d
       -0.0977482 0.099640384 -0.1917732 0.032349914
0001f0 4f 0b 20 be 58 a0 f2 3d 02 f8 e0 bd 1a b4 36 bd
       -0.15629314 0.118469894 -0.10984804 -0.044605352
000200 d9 f1 2f 3d 3a 5a 77 bb 13 d1 b6 bc 30 0a 51 3d
       0.042955253 -0.0037742988 -0.022316491 0.051035106
000210 4b 78 be bc 37 75 32 3e 52 ee f4 bd 13 d9 9f bd
       -0.02325072 0.17427526 -0.119595185 -0.078050755
000220 9a 9a 1b 3e 10 f9 ad 3d c9 f0 cd bd 95 63 bd bd
       0.15195695 0.084947705 -0.10055692 -0.092475094
000230 7b 0d 46 be a7 ee 53 bd bf d7 26 3e 16 df 22 be
       -0.1934108 -0.05174127 0.16293238 -0.15905413
000240 3c 67 5b bd b3 aa 22 3e de f2 05 3e 96 03 12 3e
       -0.05356525 0.15885429 0.13080928 0.1425918
000250 c8 1d ec bd b3 09 f9 3d 04 8c e5 3c f7 6b b2 3d
       -0.11529118 0.12160053 0.028020866 0.08711999
000260 a2 74 c4 bd d5 c3 66 3d aa b0 ce 3d 47 61 f5 3d
       -0.095925584 0.056339104 0.1009229 0.11981445
000270 94 a8 a0 bd ca ba 4a bd 32 67 19 be b1 b8 81 3c
       -0.07844654 -0.049494542 -0.14980772 0.015835138
000280 82 6c 9d 3d a3 f3 1f be 5f 5d 6f be 2b ab bf bd
       0.07686712 -0.15620284 -0.23375462 -0.093588196
000290 96 6e f6 bb d7 9a 58 3d 5e e0 c6 3d 08 b3 e0 bb
       -0.007520507 0.05288204 0.097107634 -0.0068572797
0002a0 a4 9d 58 3e 78 7e 9a be 3a 0a 12 bd da 71 8d bd
       0.21153885 -0.30174613 -0.035654284 -0.06906481
0002b0 1f 2a a9 bd 07 75 29 3d 33 0c 54 3e ff 1b 2a be
       -0.08259987 0.04137137 0.20707779 -0.16612242
0002c0 4c e5 bf 3d 7d e8 24 3d 04 d1 1d 3e 36 97 ee 3d
       0.09369907 0.04026078 0.15411764 0.11649935
0002d0 c7 13 89 be d6 9a 0b be 6a a9 3e be ca 05 91 bd
       -0.267729 -0.13633284 -0.18619314 -0.07081182
0002e0 e8 00 36 bd ee 64 05 be be 0b f4 3d a5 b6 57 3e
       -0.044434458 -0.13026783 0.11916302 0.21065767
0002f0 4c 2e 0c 3d 4a 45 4f 3d a0 2c f3 3d ea 00 8b bb
       0.03422384 0.05060319 0.11873746 -0.0042420523
000300 be 68 2b 3d 46 00 13 3e 5b 7a 2d bd 14 29 2e 3e
       0.041847937 0.14355573 -0.042353015 0.17007858
000310 8b a4 a6 3c 98 f3 88 bd ec 84 ce bd 73 d8 b3 3d
       0.020342132 -0.06687087 -0.100839466 0.08781519
000320 54 b5 ab bd 81 e5 40 3c 34 f5 36 bc 7a 3e 18 3c
       -0.08384195 0.011773468 -0.011166859 0.009292239
000330 c9 5c 9f 3d 35 b6 8c bd ae 20 64 be 56 a3 ab bd
       0.07781369 -0.06870691 -0.22278091 -0.08380763
000340 7d 69 09 bd 81 ab 8f bd fc d3 d9 bc f3 b2 bf bd
       -0.033547867 -0.07015134 -0.02659034 -0.09360304
000350 af f3 77 3d 54 06 09 3e 89 c4 26 bd e5 4f 33 3e
       0.06053513 0.1338132 -0.040714774 0.17510946
000360 a3 50 1b 3e 69 fe 74 3e c7 5d 72 3e bc 00 cb bd
       0.15167479 0.23925175 0.23668586 -0.099122494
000370 a0 e9 33 bd fd 4e 40 3e ec ba d0 3d 12 2a 4e 3e
       -0.043923974 0.18780132 0.101919025 0.20133236
000380 e6 2c 57 3e 13 e1 b9 bd 13 b9 3e bd 65 ef d7 bd
       0.21013221 -0.090761326 -0.04656322 -0.10543708
000390 c9 a2 ca bd 88 b5 a7 3c 25 34 ae 3d 71 50 e5 bb
       -0.0989433 0.020472303 0.085060395 -0.0069981148
0003a0 9d 62 8f 39 fd 5c aa bd e7 82 0f 3e ff b8 db 3c
       0.00027348558 -0.08318517 0.14014779 0.026821611
0003b0 d3 7a 07 bd b9 96 27 be f5 58 89 bc b4 18 1b bd
       -0.03307612 -0.1636609 -0.01676605 -0.037865356
0003c0 20 3e 45 be f1 4c 01 3c f4 2c 17 3e 3b 8a 41 3d
       -0.1926198 0.007891879 0.14763242 0.047250967
0003d0 fe 9d 28 3c 64 a3 13 be 45 4c 7d 3d 0c 59 c3 3d
       0.0102915745 -0.14417797 0.061840314 0.09538469
0003e0 b5 67 21 be c5 9f dc 3d d5 c5 b5 3d 86 12 eb 3c
       -0.15762217 0.10772661 0.08875624 0.028695356
0003f0 43 fb b7 bb 9a 0c 49 3e b6 f2 12 3e 8f 87 40 3e
       -0.0056146695 0.19633713 0.143504 0.18801711

model.rnn.bias_ih_l1 f4 [160]
000000 e8 f4 f0 3d 13 d3 bf 3d 88 ed 95 3c 3f 2f 67 3e
       0.11765462 0.09366431 0.01830174 0.22576617
000010 2f c2 91 3d de 84 0f 3e 3a 3d 3e 3c c6 03 29 3e
       0.07117116 0.14015529 0.011611277 0.16505346
000020 83 cc 22 bb ea 53 e4 bd 96 93 14 3e 1b e2 40 3e
       -0.0024841137 -0.11148818 0.14509425 0.18836252
000030 20 d9 d7 bd 40 50 b3 3d 63 b9 01 be 62 a4 0f 3c
       -0.1053946 0.08755541 -0.12668376 0.008767219
000040 c7 06 9d 3c 88 96 12 3d 74 c0 86 3d fb 6e 9e 3d
       0.01916827 0.03578809 0.06579676 0.077360116
000050 5a 25 95 3d bf 29 fc 3d 27 36 fb 3c 93 db 59 3d
       0.07282515 0.1231265 0.03066547 0.053187918
000060 6e 0a af 3d ff c1 79 bc e1 ec b4 3d c6 d8 68 3c
       0.08546911 -0.015244006 0.088342436 0.014211839
000070 51 b0 9f 3e 54 20 7b 3e a6 eb 04 3d 17 78 48 3d
       0.31189206 0.24524051 0.032451294 0.04894265
000080 42 d4 8e 3e e8 04 10 be af 10 13 3e f5 a4 54 3d
       0.27896315 -0.14064372 0.14361833 0.051915128
000090 cb b2 33 3e 37 62 7f 3e 4a 3d f8 3d 0f 6a 31 3e
       0.17548673 0.2493981 0.12121065 0.17325614
0000a0 19 88 19 3e 6c 97 aa bd db 34 21 3e de 59 81 3d
       0.14993323 -0.08329663 0.15742819 0.06315969
0000b0 ec 5d c5 bb 73 84 63 3d 85 0a 07 bc 7a f6 f8 3d
       -0.0060231593 0.055546235 -0.008242254 0.12156387
0000c0 ba c0 24 be 65 c8 8c bd a9 0f a5 bd e0 27 0f bd
       -0.16089144 -0.0687416 -0.080596276 -0.034950137
0000d0 4a 30 60 3d 0f dc 5c bd 3d b5 fa bd 54 4e f6 3d
       0.054733552 -0.0539208 -0.122416 0.12026659
0000e0 e3 22 ab 3d 7b b6 76 bd d8 30 85 3d 40 95 79 bd
       0.083562635 -0.06023262 0.06503457 -0.06093335
0000f0 93 6a 80 3d ea 21 e6 bd 46 57 fe bd 23 47 24 3e
       0.062703274 -0.11236937 -0.1241899 0.16042762
000100 1d e4 b3 bc 56 12 13 bd 49 a5 d3 bd 89 de 0f be
       -0.021959359 -0.03590616 -0.1033426 -0.14049734
000110 28 44 16 bd 7f 6c 79 3c 58 f5 02 be c6 fe 92 bd
       -0.036686093 0.015223621 -0.12788904 -0.071775004
000120 0e 0b cd 3c e7 f2 ad bd 51 f0 3f 3e 44 2b 87 3d
       0.025029685 -0.084935956 0.18744017 0.06600049
000130 7c 45 ce 3d db d7 7e 3c 77 4f b8 bd 46 9d 23 3e
       0.10071847 0.015554394 -0.08999532 0.15977964
000140 a6 1f 58 be fb 21 8f bd 9f 6f 5c 3d b9 35 24 be
       -0.21105823 -0.06988903 0.053817388 -0.16036119
000150 55 40 cf 3c b0 fe 68 bc d5 16 1c 3e c4 19 5f 3d
       0.02529923 -0.0142208785 0.15243085 0.05446793
000160 2d 33 a5 3d 15 7b 20 bd f7 21 17 3e d5 8d 3f 3d
       0.08066402 -0.03917988 0.1475905 0.04676612
000170 de 27 81 bd cb 95 37 3e d4 1c f9 bd cb a3 11 3e
       -0.06306432 0.17928235 -0.12163702 0.14222638
000180 9d 2f 2c 3e e9 63 96 3b 51 31 80 3d ba 8b 29 be
       0.16815038 0.004589547 0.06259406 -0.16557208
000190 05 9d df 3d a0 d8 35 3e da b1 26 bd ab c3 a7 3d
       0.10918621 0.17758417 -0.040696956 0.081916176
0001a0 97 25 b4 bc db b9 61 bd e4 37 de bc 02 76 f0 bd
       -0.02199058 -0.055108886 -0.02712626 -0.11741258
0001b0 97 7c c6 3b 0a e5 c4 bd 68 b7 7a 3e 5b f3 45 3d
       0.0060573327 -0.09613998 0.24484026 0.048327785
0001c0 12 f4 af bd 1f 2a d5 3c 59 bc 04 3e ab 0b 45 be
       -0.085914746 0.026021061 0.12962474 -0.19242732
0001d0 2b 49 85 bd 06 59 c9 3d 88 64 de 3c 05 63 ca 3d
       -0.06508096 0.09831433 0.027147546 0.09882168
0001e0 c9 08 f2 3d 59 2e 64 3e 90 d7 1b be e9 23 36 bb
       0.11818082 0.22283305 -0.1521895 -0.00277924
0001f0 d6 68 13 be cf b1 f4 3d 0c 25 8c bd 0b b2 0d bc
       -0.1439546 0.11947977 -0.06843004 -0.008648406
000200 03 51 a8 3c af 5d 0d bd 63 19 c2 bd e7 53 ae bd
       0.020546442 -0.03451317 -0.094774984 -0.08512097
000210 8d c1 1e bd 68 0f 35 bd be f2 57 3d 41 19 c0 bd
       -0.038758803 -0.044204146 0.05272173 -0.09379817
000220 e5 15 0a 3d 4c 98 1a 3e 5b 2a 98 3d 67 2f 20 3c
       0.033712287 0.15097159 0.07429954 0.009776927
000230 d7 4d 99 3d 9a 12 4b 3b 58 0e 22 3b b7 3d 6a 3d
       0.0748555 0.003098643 0.0024727788 0.057187762
000240 d3 a7 23 3e c2 26 44 3c 1b 5e 2c 3e 68 34 e8 bb
       0.15981989 0.011972131 0.16832773 -0.0070863254
000250 c1 23 33 3e c4 3d 02 3e fd 17 45 3e d5 b1 e9 3c
       0.17494108 0.12718874 0.19247432 0.02852718
000260 28 cb 53 3e 8e 54 7f bd 20 15 09 3d ee aa 4f bd
       0.20682967 -0.062336497 0.033467412 -0.05070012
000270 18 f8 5d 3e b4 68 9d 3d 42 f6 ff 3c cc f1 7b 3b
       0.21676672 0.07685986 0.031245355 0.0038443683

model.rnn.bias_hh_l1 f4 [160]
000000 c7 fb 5e 3e 15 08 6a 3e 42 52 9a 3d 0c 2c 2c bd
       0.21775733 0.22854646 0.07535221 -0.042034194
000010 72 61 8c 3d e6 8d e8 3d 36 69 04 3d 9e d4 86 bb
       0.06854524 0.1135519 0.0323269 -0.0041147014
000020 c3 7c e0 3d 03 e2 ad bc 29 94 18 bd 6c b6 0e 3c
       0.109612964 -0.021225935 -0.03725067 0.008710485
000030 3d a1 5a bd 5c de 03 be 56 36 ee 3b f7 54 94 bc
       -0.053376425 -0.12877792 0.007269661 -0.01810692
000040 c2 c9 26 3e aa 9b 4d 3e 27 ac af 3d 86 32 ee 3d
       0.16287902 0.20078912 0.08577757 0.1163073
000050 cb 79 4d 3a 13 df 83 bd d0 c6 eb bb 1a 66 3f 3e
       0.0007838278 -0.064390324 -0.007195331 0.18691292
000060 c0 9f 63 3d 51 d5 da 39 1d aa 4e 3d 17 fe 1b 3e
       0.05557227 0.00041739133 0.0504552 0.15233646
000070 31 e0 20 3e 14 32 24 3e cc 30 9b 3e 3a b6 24 3e
       0.15710522 0.16034728 0.30310667 0.16085139
000080 80 2e 58 3c a7 b5 82 bd 26 1e 47 bd ed 93 ab 3b
       0.01319468 -0.06382304 -0.048612736 0.00523614
000090 26 6f fc 3d 63 f3 c9 3d 47 29 18 3e 39 08 16 3e
       0.123258874 0.098608755 0.14859496 0.14651574
0000a0 a4 f8 a9 bd b8 7f ac 3d 7c 4d b9 bd f6 54 4b bc
       -0.082993776 0.08422798 -0.09047982 -0.012410393
0000b0 58 73 00 3e 58 8c 1c 3e e3 a6 84 bd c5 f0 a8 3d
       0.12544 0.15287912 -0.064771436 0.08249048
0000c0 ec 68 df bb 8f 11 e6 3c ed dc 61 bd 4b 9c 2d 3d
       -0.0068179276 0.028084544 -0.055142332 0.04238538
0000d0 19 ec 96 bd c1 53 ef 3d e3 83 bd 3d 05 99 22 be
       -0.07369251 0.11685897 0.09253671 -0.15878685
0000e0 dc 46 6d bd 04 eb 66 bc 9c fa 38 3d 47 87 23 3d
       -0.057928905 -0.014094118 0.045160875 0.039923932
0000f0 0f 4f 26 be 7f 3a 38 bd f2 fd 1e 3d 86 c9 d7 bc
       -0.16241096 -0.04497766 0.0388164 -0.026341211
000100 d4 bd b0 bd 28 d6 8c 3c 81 ca 25 3e e3 79 23 be
       -0.08629957 0.017191961 0.1619053 -0.15964465
000110 f5 e2 ac bc 25 93 27 bc 0a 00 1d 3c 47 11 93 3d
       -0.021104315 -0.010227953 0.009582529 0.0718103
000120 0e 0c 3d bd 2a 79 02 3d e6 8e 69 3d 97 6b 95 bb
       -0.046154074 0.031853832 0.057021044 -0.004559945
000130 05 e4 41 bc ae c7 d8 3d 1c 9e 53 3d 78 c0 6e bd
       -0.011834149 0.10584961 0.051664457 -0.05828902
000140 16 eb be ba 47 9e 9e 3d a3 0f 81 3c 90 61 f8 bc
       -0.0014565911 0.07745033 0.015754526 -0.030319959
000150 30 e7 ff bd f8 39 0c be 2e 83 08 be 50 c5 95 bd
       -0.124952674 -0.13693988 -0.13331291 -0.07313025
000160 c4 f1 a7 3d b4 32 8a bc bd c0 21 3e 1a 8b 09 be
       0.0820041 -0.01686988 0.1579618 -0.1343197
000170 ee 25 36 3e f8 8c 2a 3e 87 f5 ee bc 59 16 dc bd
       0.17787907 0.16655338 -0.029169811 -0.1074645
000180 e6 cf 80 3d 83 40 5d bd 3f 40 3f 3d 2f 22 c7 bd
       0.062896535 -0.0540166 0.04669213 -0.09723317
000190 03 a2 dc bd c3 34 c8 3b b2 67 32 3b 17 d2 b8 3d
       -0.10773089 0.0061098053 0.0027222452 0.090244465
0001a0 96 58 02 3d e2 0a 97 bd 34 c7 1c be 2b e9 44 bd
       0.031822763 -0.073751226 -0.15310365 -0.04807393
0001b0 25 06 5d be 91 87 45 3d 55 25 7d 3d 2a 93 1d 3e
       -0.21584375 0.04822499 0.06180318 0.1538817
0001c0 7a e5 58 3e 18 cd bd 3d 12 bc 28 3e 4a c8 46 be
       0.21181288 0.09267634 0.16477993 -0.19412342
0001d0 ac c9 3c be a8 f3 ca bd 23 69 41 3d 49 46 f1 3d
       -0.18436307 -0.09909755 0.047219407 0.11780984
0001e0 86 5a 84 3e 0e e4 a3 3d 6c d8 40 bd f7 4c 2f 3e
       0.25850314 0.08002482 -0.047081396 0.17119204
0001f0 e9 48 0b 3e 25 26 81 3e 67 c1 03 3e 21 e0 90 3d
       0.13602032 0.25224414 0.12866746 0.07073999
000200 ea a9 04 3e 67 fa 09 3e 42 1f ea 3d 1c 7c 33 bd
       0.12955442 0.13474427 0.11431743 -0.04381953
000210 af 14 95 3c 86 88 3e bd c2 69 00 3e 02 0b 94 bd
       0.01819834 -0.046516918 0.12540343 -0.07228662
000220 be 7a 11 3e 4c 0a 86 3e a7 b9 01 3e 7f 05 16 3d
       0.14206979 0.2617973 0.12668477 0.036626335
000230 5b 9f 1b bd ae cd d7 bd b9 16 45 3e fd 37 b6 3b
       -0.03799377 -0.10537277 0.1924695 0.0055608735
000240 68 d9 07 3e 85 89 20 3c 34 af 38 3e 78 87 11 bd
       0.13266528 0.009798412 0.18035585 -0.035529584
000250 02 1f 9c 3d 87 3f 81 3e 0b 08 23 3e b2 b5 0a 3e
       0.07623102 0.2524378 0.15921037 0.13545874
000260 72 c8 53 3e 57 0d 9d 3b 2f 8f ac bd 0e 52 7e 3d
       0.20681933 0.00479285 -0.084257476 0.062089972
000270 23 9d 3d 3e f5 c2 f4 3d 0f 48 53 3e 16 d5 4f 3d
       0.18516974 0.119512476 0.20632957 0.050740324
