generate_forecasts/output/Local_Forecasts/Other food products and non-alcoholic beverages/2021/models/DeepAR/W0/gluon_ts/prediction-net-state.pt (torch, 97628 bytes, 11 tensors)

model.param_proj.proj.0.weight f4 [1, 40]
00000000: 3162 f63c 6b46 463e 6b76 463e dfb7 a3bd
00000010: 93cf d93e b173 13be bc04 95bd 00cf 883d
00000020: ca18 bebd d344 fd3d 8c4b 9b3b 5429 873c
00000030: eeee f6bc 9159 b33b 70dd b03c f2ec 6c3e
00000040: ee69 123e 17d1 08bc a3ff a13d db6d 86be
00000050: e099 0f3d c37e 00bc 3785 71bd 87de 183e
00000060: 7df8 5d3e c246 2abd 66e7 39be 3b44 fe3d
00000070: b13f 29be 4b6b 98bd fcb2 363e 2f64 1b3e
00000080: b6b8 553e 614f 2cbe 957f 6e3b 39e6 07be
00000090: 10b5 e3bc b4ba 72bd 686f d63c 7a6b b13d
0.030076118 0.193628 0.1938111 -0.07994055 0.4254118 -0.14399602 -0.07276294 0.06680107
-0.09282072 0.12366643 0.0047392305 0.016499199 -0.030143227 0.0054733236 0.021589965 0.23137262
0.14298221 -0.008350632 0.07910087 -0.26255688 0.035058856 -0.007842722 -0.058964934 0.14928637
0.21676822 -0.041571386 -0.18154678 0.12415358 -0.16528203 -0.074423395 0.17841715 0.15174936
0.20871243 -0.16827156 0.0036391963 -0.13271417 -0.027796298 -0.059260085 0.02617617 0.08663078

model.param_proj.proj.1.weight f4 [1, 40]
00000000: 5e1d 25be 08c3 113e 174f f33d 3531 02be
00000010: 12d3 cabc 8d86 27be 8f5e 1f3d 02e0 5a3d
00000020: 0828 18be f7d3 053d 14ba 2c3e 6d1d b63c
00000030: 1047 763d cadc e03d 9f4d debd c92f cc3d
00000040: 510d 1e3e 0621 c23c 663c b3bd 7a11 26be
00000050: c321 c23d 29bc f93d 025c 963c 602a 543d
00000060: 166c ff3d 2ac2 343d 7bf9 92bd a66d 933b
00000070: 2ca9 bdbd b458 c5bc 3a30 6c3d a134 f23d
00000080: b23b ce3c c347 f4bc 17ff 473b a308 cb39
00000090: b549 03be 8ab3 15ba 5da3 993d 02cd d6bc
-0.16124484 0.14234555 0.118803196 -0.12714083 -0.02475885 -0.16359921 0.038908537 0.053436287
-0.1485902 0.03267285 0.16867858 0.022230828 0.060126364 0.10979612 -0.10854649 0.09970052
0.15434767 0.023697387 -0.087517545 -0.16217604 0.09479096 0.12194092 0.01835442 0.051798224
0.12471788 0.04413048 -0.07176491 0.004499155 -0.092607826 -0.024090149 0.05766318 0.118264444
0.02517495 -0.029819375 0.0030517036 0.00038725612 -0.12821086 -0.00057106523 0.07501862 -0.026220802

model.param_proj.proj.2.weight f4 [1, 40]
00000000: 4ec6 5d3e b590 1ebe 7a76 693b b99f fb3d
00000010: 46f5 54be 00ed 843e 5c70 023e 0b61 3dbe
00000020: 2d9d efba 94dc 233e 2d69 efbc 5145 013e
00000030: 9ad9 ee3d 008a 07be a1ef 87bd 9551 17bd
00000040: 0134 6ebd a9bf 2abe 8f73 30be d032 84bd
00000050: 92fa e83d 86b8 e2bc 52bd 493e dbf6 40be
00000060: 12f1 8abe f401 583e 23ed 71be 84bf bfbd
00000070: b418 0a3e 471e 7a3e 6284 5ebe 230d 33be
00000080: b42b 03be 2c61 71be 19da ccbd 3eed 183e
00000090: 5808 9b3e f2f6 f33d 6f2e 83be 4593 66be
0.21657678 -0.15484889 0.0035623596 0.12286324 -0.2079669 0.25962067 0.12738174 -0.1849405
-0.0018281095 0.16002113 -0.029224956 0.12624098 0.11662598 -0.13236237 -0.066375025 -0.036943037
-0.058155064 -0.16674675 -0.17231582 -0.06455004 0.113759175 -0.027675878 0.19701126 -0.18844168
-0.27137047 0.21094495 -0.23625617 -0.093627006 0.13485986 0.24425612 -0.21730188 -0.1748548
-0.1280964 -0.23572224 -0.10002536 0.1493425 0.30279803 0.119123355 -0.25621364 -0.22517116

model.rnn.weight_ih_l0 f4 [160, 21]
00000000: 8d6b 3c3e d891 033d 2c9c 113e f3e9 aa3d
00000010: 81eb b3bd da71 fbbd 1576 a03d 46be ad3d
00000020: 06f5 193d 9f21 dc3d 08cc 963d cfbc c33d
00000030: d313 bc3c 832e a23e adfb 213e a233 a83e
00000040: 6d8b 81bd bdde 8b3b bac5 94bc 9b58 1abf
00000050: 4803 8a3c 6aa4 013e 37cf 3f3e 9642 7f3e
00000060: da2a 0e3e d5e2 613d 4eb1 393c 347c e63d
00000070: 18a6 1d3e 3876 403e 8c4a eabc 7d99 393e
00000080: 366d 64bd 9212 173b 1ad1 e33c 24c4 71bd
00000090: 5d77 d53c 711e e23d d735 c5ba 66a6 113e
000000a0: f902 0bbe e077 1f3e 43ef 023e e8ae 333d
000000b0: 0e2d 35bd 32b8 193e 43e1 c83d bcb5 0d3e
000000c0: c9d7 b1bc adc6 75bd 5ef2 f23d 8f96 b33d
000000d0: 28a3 14bd a9a4 d13d fee3 12be 2f11 b0bd
000000e0: 394c f03d f4ee 643e bbbb dc3d a418 1abb
000000f0: 1674 1d3c b7fa c93c cd62 c73d 2247 973e
00000100: b309 d03d 6940 aa3e 6175 873d 737b a43e
00000110: 837a 273d 63cc bc3d 3700 7e3e edad 6c3e
00000120: 7e9f 9d3d 6cf2 4a3d 83aa 0b3e 04fd 813d
00000130: 438e 863e e782 203c 2b21 1bbb c6fb 4f3e
00000140: 51e9 c53b 10a7 8b3e ea71 3d3d 0567 b43d
00000150: 1824 783e fb63 9c3e 2b2c 2c3e 1129 713e
00000160: 3366 8b3e a4f2 803e 5a8a 883e 9051 9a3e
00000170: fb18 073d 3d78 8c3e d00d 763e 8b90 603d
00000180: cdcb 6f3e 179d 6c3e 6e48 5c3e 4a66 a33e
00000190: 6417 503e 3799 973a 501c 923d dca2 f93d
000001a0: eaf6 2f3e 5ea4 483e 2fb4 473d 20ea 3f3e
000001b0: b0ae 663c 7efa 0a3e f93c e83d a77d ad3d
000001c0: 71b7 49bb a8ac 8d3c 74fc 513e 8af7 b43c
000001d0: 4168 c83d 53ab 853e 327e 203e 18ea b2bc
000001e0: faad 0d3e 08d7 343e c051 af3a 35ee d23b
000001f0: 2c8d 6dbe cd8b 5b3e 8f21 bc3d 295b fd3d
00000200: 745c 8c3e f8b2 8b3e eb1b a73e ffbc ca3d
00000210: 7e22 9c3d 107a 633e 9e84 f03d 78c3 943e
00000220: 86df 6c3e f8ce 273d ecd7 d73d 8c8a ac3d
00000230: 9fb8 8e3e fe77 b93d 59ff db3e 6d22 833a
00000240: 83d1 193e 13e4 1d3d c7ce 343e d019 743e
00000250: 7759 ec3d 1c18 b33d b464 693d c2e3 b93d
00000260: e8a5 8c3c 988c 583d 0692 1c3d be9e 6e3e
00000270: 838b 6a3e 9584 313e ea83 9a3d 90d2 803d
00000280: 82f9 743e ee52 8d3e e7e1 013e fb8a ff3d
00000290: 15ff 4e3b 54ef 5a3e 8687 353c 7cd3 623d
000002a0: 7443 e93d ce48 933e c260 213e 0b34 893e
000002b0: f264 2b3e 1780 363e 570b 0e3e e591 ff3d
000002c0: 31e1 ae3e f9e3 4b3e 9d8c 623e 92c7 963c
000002d0: cd00 963d 86cd cc3d bf84 803e 1022 113d
000002e0: 675f c03e 5590 9b3b e23f 8d3d 593b af3c
000002f0: d77f 5c3e 0d17 06bd f1df 9dbd 816b 473e
00000300: 955a abbd 68cb 293e dc95 9bbd 85ad 29bd
00000310: 2743 99bd 9980 283e 59c6 dbbd ca2a 7f3d
00000320: f91f 1cbe 2602 3dbe 499a bcbc ba70 383e
00000330: c8bb 523e 43c8 663d 6441 9b3b 4d01 a13d
00000340: 2bab f5bd 1d1a 65bd 5dbe 973e 595d 803e
00000350: b818 903e ee72 943e 726c 313e b92a 423d
00000360: 99e1 373e 198f 233e 8b4b f63d 124a 0b3d
00000370: 5384 b63d 4cd0 2d3d 16fd 1c3e 24ca 343e
00000380: 3867 563e 5a8e 4c3e 323f 5d3d 26f9 a4bb
00000390: 3e23 303e 579f ac3d 1633 b93d 4ce4 803d
000003a0: f5a8 773e 7382 653e 6bbc 813e 6ffc 9e3e
000003b0: 87a6 9b3d 3377 2e3e 99ef 133e f36d b43d
000003c0: 4b7f 833d 42f1 923e a8de f43d 897b 863e
000003d0: 57cf 6b3e f0e1 433e 1170 b63d 130e 073e
000003e0: 7338 ce3a 53cb 703e ea21 c3bd 609b eb3d
000003f0: fd21 173e 16a5 133e b57f 4a3e d454 773e
0.18400402 0.03212151 0.14219731 0.083454035 -0.08785153 -0.12277575 0.07835022 0.084835574
0.03758719 0.107486 0.073631346 0.09557497 0.022958672 0.3167611 0.15818663 0.32851893
-0.063254215 0.004268496 -0.01816069 -0.6029145 0.016847268 0.12660375 0.1873139 0.24927744
0.13883534 0.055147965 0.011333777 0.112541586 0.15395391 0.18795097 -0.0286 0.18124957
-0.055768214 0.002305184 0.027809668 -0.059024945 0.026057893 0.110409625 -0.0015045953 0.14223632
-0.13575353 0.15573072 0.12786584 0.043867975 -0.04423242 0.15011671 0.0980859 0.13838857
-0.02170934 -0.060003925 0.11862634 0.08768951 -0.03628841 0.102364846 -0.14344785 -0.085970275
0.11733288 0.22356778 0.10777994 -0.0023513222 0.009610197 0.024655683 0.09735642 0.29546458
0.101581 0.33252266 0.06614185 0.32125434 0.04088832 0.09218671 0.2480477 0.23113222
0.07696436 0.049547598 0.13639264 0.06347087 0.26280412 0.009796835 -0.0023670893 0.20310888
0.0060397764 0.27275896 0.046251215 0.08808712 0.24232519 0.3054503 0.16813724 0.23550822
0.2722641 0.2518512 0.26668054 0.30140352 0.032982808 0.27435485 0.24028707 0.054825347
0.23417588 0.231068 0.21512005 0.31913978 0.20321423 0.0011566047 0.071343064 0.12189266
0.17184034 0.19593951 0.04875582 0.18741655 0.014079735 0.13572118 0.113397546 0.08471232
-0.0030779506 0.017294243 0.2050646 0.022090692 0.0978551 0.26107273 0.1567314 -0.02184014
0.13835898 0.17660153 0.0013375804 0.006437088 -0.23198384 0.21440049 0.09186088 0.12370903
0.27414286 0.2728498 0.32638487 0.098993294 0.07623766 0.22214532 0.11744045 0.2905538
0.23132142 0.040968865 0.10539231 0.08424863 0.2787523 0.0905609 0.42968252 0.0010004767
0.15021329 0.038547587 0.17657004 0.23837972 0.115405016 0.08744833 0.056980804 0.090766445
0.017168954 0.052868456 0.038225196 0.23302743 0.22904782 0.17335732 0.07544692 0.062901616
0.23923305 0.27602333 0.12683831 0.1247768 0.0031585146 0.21380359 0.011079675 0.05537747
0.11389819 0.28766483 0.15759566 0.26797518 0.16737726 0.178223 0.13871513 0.12478999
0.34156182 0.19911183 0.22123952 0.01840571 0.073243715 0.10000138 0.25101277 0.035432875
0.37572786 0.0047474303 0.0689695 0.021390604 0.21533142 -0.032736827 -0.07708729 0.19474603
-0.083668865 0.165815 -0.07596943 -0.041425247 -0.074835114 0.16455306 -0.10731191 0.062296666
-0.15246572 -0.18457851 -0.023022788 0.18011752 0.20579445 0.05634333 0.00473802 0.07861576
-0.11995538 -0.055933107 0.29637423 0.2507122 0.2814386 0.28993934 0.17326525 0.047404025
0.17957152 0.15972556 0.120261274 0.034006186 0.089119576 0.042434976 0.1533092 0.17655236
0.20937812 0.19976178 0.054015346 -0.0050345836 0.17200944 0.08428829 0.09042947 0.06293544
0.24185546 0.22413044 0.25339064 0.31051967 0.07600122 0.17037658 0.14446868 0.08810034
0.064207636 0.2869969 0.11956531 0.26266125 0.23028313 0.19129157 0.08908094 0.13188963
0.0015733376 0.23515062 -0.09527953 0.11504245 0.14759059 0.14418444 0.19775279 0.24153453

model.rnn.weight_hh_l0 f4 [160, 40]
00000000: 35e5 04bd 5538 1e3c a0b1 223d 2c40 ef3b
00000010: 0578 15be db6c 113e e548 f53d 8021 f2bd
00000020: 08a6 92bd 65bf 4fbb 5151 f2bd 13a2 d1bd
00000030: 0a0f d6bd 1a5e ba3d 7453 39be 7944 12be
00000040: a4af 083d 359f 8bbe 7f52 ce3d 95c1 02bd
00000050: d8dc 71bc 8f28 a83d 690e 993d ed6b d6bc
00000060: cd33 d4bd 442b ef3d 4b96 293e a899 22bd
00000070: c814 903d 2406 263e bfe5 ceb9 6c17 fa3c
00000080: 1644 6c3c 31af 793e fed0 b43d 77d6 c2bc
00000090: d6ed 08be 4a7c ee3d 6c1a 0a3e 331d 9f3d
000000a0: 1b9a 8abd 4546 9cbd 4038 cf3d c7cc fa3d
000000b0: cad2 d13d a472 cebd 9da0 833c 2af4 a5bd
000000c0: 1174 6cbc 4599 a53d 0914 613d b63c 0abc
000000d0: 75e6 0cbe 7702 f3bd e2b3 febc 5e1d 4bbd
000000e0: 25d5 19be 462f 46be 2ebd 66be 3679 a03d
000000f0: 90ed 10bb d792 1c3e 3918 453c 52d3 20bd
00000100: b1c4 cbbd a314 24be a066 98bc 376c f83d
00000110: 4377 2f3e 8680 b83d 059e a5bd b4bc fd3d
00000120: f297 c33d 1821 e73a 6732 40bd ef2f 513d
00000130: dca2 9c3c f92d 64bd b17a 523d a41e aebd
00000140: d0b5 253d e486 ba3d 652e 17bd 3d9f 7e3d
00000150: 24ce 93bc 7577 08be 4b38 a23d ae8c f8bc
00000160: a45e a7bd e5ba cf3d 0318 193e d1f2 d1bc
00000170: 3a32 dfbd ffbc debc a90f d6bd 73f0 2a3d
00000180: 4dbe 003e 7ca8 c8bd 5b09 373e 3153 773a
00000190: bb75 893d c68c aa3d dc13 9bbd e8ee 28be
000001a0: fe3e f0bd d5a2 54bd e598 873d 76a0 32bd
000001b0: f6a8 59bd 5db5 cd3d 3d94 bbbd 868d 143e
000001c0: 008c 633d d79c ff3d 1418 c6bd 0ca5 693c
000001d0: bf94 0a3e c1f5 213e 070f cf3b c063 43bd
000001e0: 0b92 38be f895 d83d ae0c 0a3e 54b4 8fbd
000001f0: 08aa 60be c9dc 6e3b 97ac 84ba 3356 923d
00000200: 7f36 52bd 3d48 b63d 9c48 423e 30bc be3d
00000210: 82db d43c a5a1 263a f065 7c3d 477f 5bbe
00000220: 4c74 c3bc e4aa 243e 1cb3 c3ba 33a4 f9bd
00000230: 2458 1abe 2fd5 afbd 4ca0 4d3b 4d81 003e
00000240: b566 94bd eaa1 c93d b9ca 463e b548 2ebb
00000250: e210 473e f485 c4bd ecfe 763d 8678 ad3d
00000260: d03e 6fbe d615 dd3d 13f7 38be 159d d1bb
00000270: 49dd cfbd 5e8c c0bd 811c fdbc 4c7a 8b3d
00000280: 20fd 41be 177b 64be 9d2c e9bc 17e6 293e
00000290: 7a50 26bc 586b 72bd 2ed5 f93b cceb a4bd
000002a0: 6b34 6ebd 861e 363e 8c39 a13c 62db 4dbd
000002b0: 66b7 933d 3557 38be 8d67 493d f26f 2abe
000002c0: f60a a33d 7071 0cbe 103c da3c 1bae 2cbe
000002d0: 8f25 52bd c9a8 3a3d 46f0 7fbd e664 9cbd
000002e0: 49ef 32be 3c2b 643b 9021 2abd ef11 83bd
000002f0: 4a08 163e e5c7 f2bd 9746 f5bd cf00 3a3e
00000300: 66f6 08be 87f0 8bbd 19f6 00be 009f babd
00000310: 670e 10bd 5c73 05be 42f9 46be c1a4 c2bd
00000320: 7ee1 20bd c6c9 113b 9ee2 423d 7211 323d
00000330: bc54 f1bc 8fe1 7cbd bbef 12be 85ef 5c3d
00000340: a594 c03d 575c 953c bc25 eb3c 30d4 803d
00000350: 1d0c 9c3d 53cf eabb c79d ecbd 29e2 bdbd
00000360: 8080 85bd 3f62 143e 8670 ccbd 594a 52bc
00000370: 7819 dd3d 45f7 343e 2e94 8abc 33b3 45bc
00000380: e00c b6bd dba6 23be 41af 05bc 3546 1f3e
00000390: 17e6 4ebd 267c e73d 6823 14be 79d7 933d
000003a0: 2261 50be 43f8 573d 08b6 1bbc 2f8d 2cbe
000003b0: 3be3 9dbc 7710 48bd d5de 71bd 7be4 efbd
000003c0: db87 1e3d 6b7b 7bbd ccda cc3d be4a 3f3b
000003d0: 81a5 06bc c7fa 923c ce45 aabd 004c 70bd
000003e0: ca86 41be d48c 7abd 0c7d 2dbd 8f5d 18be
000003f0: 30c4 413d 47e3 59be 3117 4a3c 1d84 26be
-0.03244515 0.009656985 0.039720178 0.007301351 -0.14596565 0.14201681 0.11976794 -0.11822796
-0.07160574 -0.0031699773 -0.11831916 -0.10235991 -0.10452087 0.0909998 -0.18098241 -0.14283933
0.03337063 -0.27269903 0.10074329 -0.031922895 -0.014762126 0.08210861 0.07473452 -0.02617451
-0.10361443 0.11678174 0.16561238 -0.03969732 0.07035214 0.1621328 -0.00039462556 0.030528747
0.01442053 0.24383236 0.088289246 -0.023783905 -0.13371977 0.116448 0.13486642 0.07769241
-0.067676745 -0.0763059 0.10118151 0.122460894 0.10245283 -0.1008046 0.016067797 -0.08103211
-0.014431969 0.080858745 0.054950748 -0.008437326 -0.13759787 -0.118657045 -0.031091634 -0.049588554
-0.15022714 -0.19353971 -0.22533104 0.07835619 -0.0022114255 0.1529039 0.012029701 -0.03926403
-0.09949625 -0.16023497 -0.018603623 0.12130015 0.17135338 0.09008889 -0.080867805 0.12389508
0.09550466 0.0017633764 -0.046923067 0.051071104 0.019120626 -0.055707905 0.05138654 -0.08501938
0.040456593 0.091077596 -0.03690948 0.06216358 -0.018042631 -0.13326819 0.07920893 -0.030340519
-0.08172348 0.10143069 0.14950566 -0.02562848 -0.10898252 -0.02718973 -0.10452206 0.041733216
0.12572594 -0.09797761 0.17874663 0.0009434699 0.067119084 0.08327632 -0.07572147 -0.16497386
-0.11730765 -0.0519131 0.06620959 -0.04361006 -0.05313965 0.10044358 -0.091591336 0.14507112
0.055553436 0.12481087 -0.09672561 0.014260542 0.13533305 0.15816404 0.00631893 -0.04770255
-0.18024461 0.10575479 0.134814 -0.07016817 -0.21939862 0.0036447516 -0.0010122237 0.071453474
-0.051321503 0.08900497 0.18973011 0.09313238 0.025983576 0.00063564844 0.061620653 -0.21435271
-0.023859166 0.16080815 -0.0014930698 -0.12189522 -0.15072685 -0.085855834 0.0031376062 0.12549324
-0.07246152 0.09845336 0.1941327 -0.002659363 0.19440034 -0.09595862 0.060301706 0.08470254
-0.23363805 0.107951805 -0.18063001 -0.0063968995 -0.10149629 -0.09401773 -0.03089738 0.06810436
-0.18944216 -0.2231258 -0.028463656 0.16591679 -0.010151023 -0.059184402 0.00762429 -0.08052787
-0.05815546 0.17785081 0.01968076 -0.050258048 0.07212715 -0.18002017 0.04917102 -0.16644266
0.07961075 -0.13715148 0.026639968 -0.16863291 -0.05130535 0.045571122 -0.062485002 -0.07636432
-0.17474093 0.0034815809 -0.041535914 -0.06399905 0.146516 -0.11854533 -0.119763546 0.18164371
-0.13375244 -0.06832986 -0.12593879 -0.09112358 -0.035169985 -0.13032287 -0.19431022 -0.095040806
-0.039277546 0.002224551 0.0475794 0.04347367 -0.02945935 -0.061738547 -0.14349262 0.05393936
0.09403352 0.018232508 0.028704517 0.062904716 0.07619498 -0.0071658283 -0.11553531 -0.09271652
-0.0651865 0.14490603 -0.099824 -0.012835109 0.107958734 0.17672451 -0.01691636 -0.01206665
-0.088891745 -0.15981619 -0.00815946 0.15554126 -0.0505124 0.11302976 -0.14466631 0.072188325
-0.20349553 0.052726995 -0.009503849 -0.16850732 -0.019273391 -0.048843827 -0.0590504 -0.11713501
0.03870378 -0.061396997 0.1000267 0.0029188837 -0.00821817 0.017941846 -0.083140954 -0.05866623
-0.18899074 -0.06116946 -0.042355582 -0.1487944 0.04730624 -0.21278106 0.012334631 -0.16261335

model.rnn.bias_ih_l0 f4 [160]
00000000: e38d cd3d 632e df3d f368 95bd 8006 b93d
00000010: 1dff be3c 1623 963e 8c60 193e 639f 073e
00000020: 29af 153e 7fc7 a0bd 015f e23d 3336 993e
00000030: 8e57 b23c b665 4e3e 2b71 5cbd ce22 5e3e
00000040: dc72 993d c212 19be 53a8 95bd 461e 873e
00000050: dc01 963b a1d4 2c3e e1a7 e8bd 97b7 85bd
00000060: fe30 843e b723 1d3e 6437 6c3e 3b73 d9bd
00000070: aa0a 343e 5848 bb3e 546c 023e 6c23 b53c
00000080: 6bcb 483e 83d5 533e 2d7d 103e 84b9 c43d
00000090: 81f5 d63d 0f92 ee3d 09a2 37bd f5c8 663d
000000a0: 7268 c63c 6dc1 da3d 9126 af3d 6ace c9bc
000000b0: 1619 633e 661d 0a3e 143f a73d 6415 0f3e
000000c0: b0d3 bd3c 17ef dc3d e99b 9c3d 4ded c83d
000000d0: 442e b4bd ead9 fa3d 2f7b 43bd 2b19 1dbd
000000e0: 9590 f6bd 64eb 8bbd 9d0b 22be 1acd 4b3e
000000f0: 8ed2 863a 35ab 59bd 4cd8 5d3e f3d1 133e
00000100: 26fd 463e 100a 393e 31c6 063d e3fc 153e
00000110: 6747 153e fa35 ca39 915c 01be 64ef 5dbd
00000120: f62a 8cbd 65b3 dd3d cdab 093e fde6 6dbd
00000130: 80ad a8bb 9d76 4fbe 8d0c 8b3d d932 323c
00000140: 6847 56bd 6025 eabc 2734 9abc a9ec 8c3d
00000150: b327 b73c b55c 333e eae9 54be 2ee4 5dbe
00000160: 75bf 98bd b512 093d 4913 303e dfc5 b53a
00000170: f935 393d 3c32 883d fc5c 883d 8492 453d
00000180: 2808 64bc b0fd a8bd 6a93 403d c26a 593c
00000190: 8865 c8bd 15db 173e 5c63 10bc d724 1d3e
000001a0: c172 cf3d 7253 2fbd 17d4 85bd 88d2 20be
000001b0: fc98 b1bd f346 f33d 6e20 38bd 5b25 813d
000001c0: fc06 30bc 3452 c43c 5aa6 80be 0871 933d
000001d0: 1c8a e2bb 9f1d fc3c cfec 9b3d 0b28 953c
000001e0: 1119 7c3d 066d 56bc 53ee 363c 5697 893d
000001f0: 3cf1 7d3e e066 333e 1373 953e af1f 9d3c
00000200: 0273 563e 4756 63bc 9f11 f23d 9ee5 b93d
00000210: 6736 503d 1117 e93d 45b1 593d 9aa1 173e
00000220: 7782 d73d 09ec 63be c7c1 383e 7ff2 3bbc
00000230: e99d 083e cf6c 263e ad8d be3d 0c05 b3bc
00000240: f8fe 87bc 39f1 a23e e52f b6bd f9e4 7dbc
00000250: cf2c f73d f138 5e3e e7fd 2abd be91 2dbd
00000260: 08ec b13e d5d7 123e 1f32 823e 62a5 893c
00000270: 6275 05bb 45c1 c8bc df87 4b3d 1418 be3c
0.10036828 0.108975194 -0.07295408 0.09034443 0.023315007 0.29323643 0.14978236 0.13244395
0.146176 -0.07850551 0.11053277 0.29924163 0.021770265 0.20155987 -0.053818863 0.21692964
0.07492611 -0.14948562 -0.07307496 0.26390284 0.0045778584 0.16877986 -0.11360145 -0.065291576
0.25818628 0.15345655 0.23068005 -0.106176816 0.17582193 0.3657863 0.12736636 0.022111617
0.19608848 0.20686917 0.14110251 0.09605697 0.10496045 0.11648952 -0.044832263 0.05634399
0.024219725 0.10681424 0.08552278 -0.024634559 0.22177538 0.13487777 0.08166328 0.13973004
0.02317223 0.1078779 0.07646925 0.098108865 -0.08797887 0.12248595 -0.0477249 -0.03835408
-0.120392956 -0.068320066 -0.15824743 0.19902459 0.0010286139 -0.05314179 0.21664542 0.14435558
0.19432506 0.18070245 0.032903854 0.1464725 0.14578019 0.00038568658 -0.12632968 -0.05418338
-0.06844132 0.108252324 0.13444443 -0.058081616 -0.005147636 -0.20260091 0.06789503 0.010876381
-0.052314192 -0.028582275 -0.018823696 0.06881077 0.022357797 0.17515834 -0.20792356 -0.21669075
-0.074583925 0.033465106 0.17194857 0.0013868174 0.045217488 0.066502064 0.0665836 0.04823543
-0.01391796 -0.08251512 0.047015585 0.013270082 -0.097849905 0.14829667 -0.008812752 0.15346085
0.101293094 -0.04280419 -0.065345936 -0.15705311 -0.086717576 0.11878767 -0.044952802 0.06305953
-0.010743853 0.023964979 -0.25126916 0.071992934 -0.0069134366 0.030775843 0.07613527 0.01820757
0.061547343 -0.013087517 0.011165219 0.06718318 0.24799055 0.17519712 0.29189357 0.019180147
0.2094231 -0.013875551 0.11819767 0.09076999 0.050833132 0.11381353 0.053147573 0.1480774
0.10522931 -0.22258009 0.1804267 -0.01147139 0.13341488 0.16252445 0.09304366 -0.021852992
-0.01660107 0.31824663 -0.08895854 -0.015496486 0.120690934 0.21701409 -0.041746046 -0.04237532
0.3475039 0.14340146 0.25428864 0.016802493 -0.0020364155 -0.02450622 0.049690124 0.02320484

model.rnn.bias_hh_l0 f4 [160]
00000000: 0f0f dc3d faa8 bf3d 9068 d33d 6766 9b3e
00000010: 0acc 603d 7ea1 773e 46fe d23e 25c7 4b3d
00000020: df35 c13e 066f adbd 9ff5 7d3e 3cc7 d23d
00000030: 531e 913c f679 873e cde6 613d d7c1 b23e
00000040: 69cb 613e 92d7 4dbe 2708 2abd c6e6 443e
00000050: cb59 873d 97d9 d0bc f3f7 02be 0089 17bd
00000060: 5bff 1b3d 80f4 243e a34f 3b3e 6a36 b03b
00000070: b453 e63d 10b3 5c3e 39c8 053d 0b3e 1ebd
00000080: e9d1 9f3e 7480 223e b790 3c3e f33b 093e
00000090: a2f6 57bd 666b a03d f47b f63b f5e5 253e
000000a0: 15a1 0cbe d17d 0dbd 2710 bf3d 78ec 0b3e
000000b0: d1f0 4e3e abc7 f2bd c10a 113e e23c 453e
000000c0: aa5b 2c3e bf11 90bd 0d46 263e 0c44 e4bc
000000d0: fd34 9bbd e920 383e c74a 343c 34d5 043c
000000e0: f9c2 27be bb71 233d dfda 51bd 3f93 b93b
000000f0: f32b 163e 67cf 8a3d e038 ca3c 1d2b 9f3d
00000100: b2ba 5bbd bc2a e33c 6c12 e33d dd51 ab3d
00000110: a020 ed3d 1285 043c eb63 5ebd 6ad8 e8bc
00000120: 756b 8c3d c632 23be 489c 24bd 622f e1bd
00000130: c314 f8bb afc8 5bbe 9449 213e 044f 2e3e
00000140: b477 c33c 9534 203e 6e26 213e cc02 843d
00000150: 2b47 52bd cfaa 0e3d a905 90be 7642 b5bd
00000160: f083 91be c30b 003e d780 c93c 989b 90bd
00000170: a30e 873d f034 2cbe 4530 aebd d055 8cbd
00000180: d7f7 e0bd 0b75 9dbd 884e a8bc 2f21 4a3d
00000190: fad1 9d3b f88f 9338 968e 943d 5fae cc3d
000001a0: 3165 eabd 7524 7fbe 0d7c 503d b9c5 8f3d
000001b0: d450 49bb a161 f53d dc89 1ebd 6b0b 413e
000001c0: 2d8c 133e 1af7 81bc bbec 29be 6bd6 2abc
000001d0: f648 bcbc 11f5 613d 4e0a a43d 05e5 bdbd
000001e0: f0c7 f53d e70c 6c3e 5e03 0f3e 2aea 733e
000001f0: 067c 8c3d 77b8 733e 9774 9d3e df2c 0c3d
00000200: a145 cd3d 62a9 cfbd 0064 3f3e 48a0 3a3e
00000210: 9b02 0fbe 3f4e 81bd a4f3 3c3d e408 b23e
00000220: aa8f ce3d 48e8 81be 94d4 b83d 7c8d babd
00000230: 9d7a fe3b 7353 963e b5dd c5bc ce61 bf3d
00000240: 6379 4b3c 0175 213e b091 abbd a5fb f2bd
00000250: d79d 813c 05c6 0a3e d550 823d 6d4c 093d
00000260: f8cd 7a3e 0ff9 913e a824 b93d 0229 4f3e
00000270: 7af5 433e ff70 7e3e 9b97 453d 9e20 0cbd
0.1074506 0.093584016 0.10322678 0.30351564 0.054882087 0.24182698 0.4120962 0.049750466
0.37736413 -0.08468442 0.24800728 0.10291907 0.017714655 0.26460236 0.05515175 0.34913513
0.22050251 -0.20101765 -0.04151168 0.19228658 0.066089235 -0.02549438 -0.12789898 -0.036995888
0.038085323 0.16108894 0.18292098 0.0053775804 0.11246434 0.21552682 0.03266165 -0.038633388
0.31214836 0.15869313 0.1841458 0.13401775 -0.05272544 0.078329846 0.0075221006 0.16201003
-0.13733323 -0.034543816 0.09329253 0.13664424 0.20209052 -0.1185449 0.14164259 0.19261506
0.16831842 -0.07034635 0.1623766 -0.027864479 -0.07578466 0.17981304 0.011004156 0.008107472
-0.1638297 0.039903384 -0.051234122 0.005663305 0.14665203 0.0677784 0.024685323 0.07771895
-0.053644843 0.027730338 0.11087498 0.083652236 0.11578488 0.008088367 -0.054294508 -0.028423507
0.06856433 -0.15937337 -0.040188104 -0.10995366 -0.0075708344 -0.21463273 0.15750724 0.1702233
0.02386079 0.15645058 0.15737316 0.06445846 -0.051337402 0.034830865 -0.28129318 -0.08850567
-0.28420973 0.12504487 0.024597568 -0.07060927 0.065945886 -0.16817069 -0.085053004 -0.06852305
-0.10984772 -0.0768834 -0.02054526 0.049348053 0.004816291 7.0363225e-05 0.072537586 0.09994196
-0.11445082 -0.24916251 0.050899554 0.070201345 -0.0030718343 0.11981512 -0.03870569 0.18852012
0.14408942 -0.015864898 -0.16594212 -0.010427098 -0.02298401 0.055165354 0.08009778 -0.09272198
0.12001026 0.23051797 0.13966128 0.23819795 0.06859593 0.23800837 0.30753013 0.03422248
0.10023046 -0.10139729 0.1869049 0.18225205 -0.13965838 -0.063137524 0.04613079 0.34772408
0.100859955 -0.2537253 0.09024921 -0.09109017 0.0077660815 0.29360542 -0.02415357 0.09344827
0.012419078 0.1576729 -0.08377397 -0.11864404 0.015822334 0.13552101 0.06363074 0.03352015
0.24492633 0.2851033 0.09040195 0.20230487 0.1913661 0.24847792 0.048240285 -0.034210794

model.rnn.weight_ih_l1 f4 [160, 40]
00000000: 18e3 b2bd c382 68bd 2080 bb3c 0c81 7b3e
00000010: 45c5 e3bd f216 8b3e 6dab b0be a5ac 97be
00000020: 582c afbe 7dd7 da3d e58e 543e 260f e8bd
00000030: 2166 7dbe 8bbf 9abd 15b7 e73d 2f30 54be
00000040: 5051 6abe e4c6 053c 042b a8bd 4f3b 69be
00000050: 4f0d c9ba 01d3 1e3e 9545 9fbc c925 d5bc
00000060: dcff 91bd 35c1 3abe a95c 043c 1d60 273e
00000070: 56f7 e73b de0a 56bd 3b07 9cbc 0158 0c3e
00000080: 14ec 71be bb63 0dbc 4b18 d1bd 235e b0bb
00000090: 6ca4 a53d 5640 6ebe 33c9 14be cbce 943c
000000a0: 37e2 2fbe cdcf 76be 1453 103e d4ba c33e
000000b0: 5501 32be ef9c b43c 0c71 fabe e82a 17bd
000000c0: 1fd2 dcbe 1bdc 0d3e cb6c 0a3e f48c 1abd
000000d0: 79f6 98be 16b6 6abe 1de6 483e dde0 f1be
000000e0: d35b 66be dc43 81bb fc41 6ebe 75a7 91be
000000f0: 16a4 4abe e58a b83c 6484 1dbe c201 a73d
00000100: 34a0 c0bd 3599 d0bc 76a8 063d 89a0 dfbd
00000110: 6c8c 3b3e bb65 00bd 21c9 96be f9b0 123e
00000120: b621 1fbe 7199 813e 5b7a d3be 609a 97bd
00000130: 7f58 b33d 635c c8be b6df 91be 6fe4 82bc
00000140: fe8f f03b bfd8 9abb db29 353d b492 a93d
00000150: 484e c7bd 586a 9abd 0d00 e0bd 6146 37be
00000160: 86a6 cabd 5c30 18be 7fba e9bd 2bfc 25be
00000170: b824 2fbc ae70 17bd f813 0cbd f6cd f83c
00000180: d1ff 0c3d a355 3c3e abcb 793b 4f8b 84bd
00000190: 8af4 e53d 5bb9 823c d28b 653d 8181 3cbd
000001a0: d98d 683d fc0b eebd bf90 d53d 3156 a93d
000001b0: 6d31 993d 4408 db3d 00bf 893d c01a ebbd
000001c0: 4d7a 8f3d aa75 4f3e fa22 ce3d ad60 8abd
000001d0: 7da4 ee3d 1065 42be 8d6e c63d 38bb f0bd
000001e0: c3c0 abbd c2f1 7f3c 9d86 76bd 6c0b f3bc
000001f0: 72a1 943c 995f 393e 76ba c13d 0540 913d
00000200: 38fe 7dbd 47e9 8d3c a230 1c3e c2b5 39be
00000210: ede4 05be 4c0a fdbd f7f4 15bd a3d5 1bbe
00000220: 541d c6bc 9ae3 38be c508 ba3d 5e18 41be
00000230: 689e 5fbd c0a5 bf3d 8053 d4bd 448e 363e
00000240: 2236 363d 00fd 70bd 22f6 893d 8e62 2e3e
00000250: 27ba 1d3e 114d 5ebd 2633 c03d 7be8 023e
00000260: da14 82bd c480 bc3d dc9b 26be 6297 3abe
00000270: 6095 c53d 51ac cabd 56ad 643c 2a22 14be
00000280: 49d7 a1bd 60ca e9bd e2d4 24be 24f2 06be
00000290: c513 eb3d d506 673d ef09 a43d aa36 823d
000002a0: 7a15 223e 4cca 4abe 1d28 073d 3444 453e
000002b0: eaf8 cabb f2f4 3fbd ed61 c3bd 8652 cd3d
000002c0: f94e fabc 97c3 02bf a795 103e c879 eb3d
000002d0: da8e a43d b5d3 5bbe 4c75 3e3e 5e32 92bd
000002e0: 808a 353e 5638 1b3e bf8f 983d 7bc3 273e
000002f0: 24db 10be bec7 ddbd 510c 173f a969 9fbd
00000300: e85a 023e 4abd bebe 158c 213d 25f3 a23d
00000310: aea3 55be 026b 1f3f 79e1 b93d 2afe 863d
00000320: b696 b6be 4f80 81be c985 9f3e ac06 be3e
00000330: 0acb 8ebe bcdd 483d a97a cabe 3f41 04bd
00000340: cc3f babe 1d3d 0e3d bc1e 5c3d 139a 48be
00000350: b306 04be 0002 29be a674 803e 3095 b9be
00000360: 3134 b2be 1a46 2e3e f42a d8bd 4662 85bd
00000370: 9497 42be 8f4e 303e f92c 1f3d b63a f93d
00000380: 4394 ccbd 1291 7fbe 6f35 883e 4df2 babc
00000390: 64cd 953e 72f2 20bd d48a d6bd b697 0a3b
000003a0: 4539 12be c9e8 783e 23f5 70be 151e 91be
000003b0: 4f32 8a3e 7c91 9fbe 973c bebe 2202 14be
000003c0: c614 61bd c55b 08be cf85 0d3e 5c11 3a3e
000003d0: 20e6 abbd 2a89 cf3d d89f f9bd 82be 8b3d
000003e0: 04b3 d6bd d0ed 5f3e f042 103e c86b a4bd
000003f0: 9d8c 4dbe 4fa9 1dbd 9a9b 55bd b2d5 0bbe
-0.08734721 -0.05676533 0.022888243 0.24560946 -0.111216106 0.27165943 -0.34505787 -0.29623905
-0.3421352 0.106856324 0.20757635 -0.11331014 -0.2474599 -0.07556065 0.11314217 -0.20721506
-0.22882581 0.008165095 -0.082113296 -0.2277653 -0.0015339049 0.15510179 -0.019442359 -0.026018994
-0.071288794 -0.18237765 0.0080787325 0.16345258 0.0070790453 -0.052256458 -0.019046417 0.13705446
-0.23625213 -0.008629735 -0.10209712 -0.0053823157 0.080880016 -0.2326673 -0.14529876 0.018165013
-0.17176138 -0.24102707 0.14094192 0.38228476 -0.1738332 0.022047488 -0.48914373 -0.036906153
-0.4312906 0.13853495 0.13518064 -0.03773208 -0.29875544 -0.22921023 0.19619031 -0.4724187
-0.22495966 -0.003944857 -0.23267359 -0.28448072 -0.19789156 0.022527168 -0.15382534 0.08154632
-0.09405556 -0.02546368 0.0328755 -0.109192915 0.18315285 -0.031347018 -0.29450324 0.14325322
-0.15540203 0.2531238 -0.41304287 -0.074024916 0.08757114 -0.39132985 -0.2849099 -0.015978066
0.007341384 -0.004725545 0.04422937 0.082799345 -0.09731728 -0.07539815 -0.1093751 -0.17897941
-0.09895043 -0.14862198 -0.114125244 -0.16209476 -0.010689907 -0.036972694 -0.03419873 0.030371647
0.034423653 0.18392043 0.003811578 -0.064718835 0.11228283 0.015957525 0.056041546 -0.046021942
0.0567759 -0.116233796 0.10427999 0.08268393 0.0748013 0.10694936 0.067258835 -0.114797115
0.07005749 0.20259729 0.10065265 -0.06756721 0.116524674 -0.18983865 0.09689055 -0.11754459
-0.08386376 0.015621604 -0.06018697 -0.029668532 0.01814339 0.18102874 0.09459393 0.07092289
-0.06201002 0.01732315 0.15252927 -0.18135741 -0.1307561 -0.123554796 -0.03661057 -0.15218215
-0.024183907 -0.18055573 0.09083704 -0.18856952 -0.054594427 0.09357786 -0.10367489 0.17827708
0.04448522 -0.05883503 0.06736399 0.17029783 0.15403043 -0.054272715 0.09384756 0.12783997
-0.06351633 0.092042476 -0.16270393 -0.1822181 0.09647632 -0.09896148 0.013957342 -0.14466158
-0.079023905 -0.11415553 -0.16096833 -0.13178307 0.1147838 0.056403 0.08009707 0.063580826
0.15828505 -0.19803733 0.03299724 0.19264299 -0.0061942236 -0.046864457 -0.09540162 0.10025506
-0.030555235 -0.51079696 0.14119588 0.11497837 0.08035059 -0.21467479 0.18599433 -0.07138513
0.17728615 0.15158209 0.074492924 0.16383164 -0.14146096 -0.108291134 0.5900317 -0.07783825
0.1272999 -0.3725379 0.039440233 0.079565324 -0.2086322 0.62272656 0.090762086 0.06591447
-0.35661858 -0.25293204 0.31156757 0.37114465 -0.27889282 0.049039587 -0.39546707 -0.032288786
-0.36376798 0.03472625 0.053740248 -0.19590025 -0.1289318 -0.16504669 0.25088996 -0.36246634
-0.34805444 0.17018929 -0.10555068 -0.06512885 -0.19003135 0.17217468 0.03886125 0.12169401
-0.09989216 -0.24957684 0.26603267 -0.022820616 0.29258263 -0.039293714 -0.10475698 0.0021147556
-0.14279659 0.2430755 -0.23531012 -0.28343263 0.26991507 -0.31165683 -0.371556 -0.14453939
-0.05495145 -0.13316257 0.13820575 0.18170685 -0.08393502 0.10133584 -0.12188691 0.06823446
-0.10483363 0.21868062 0.14088035 -0.0802837 -0.20073171 -0.038491543 -0.052150346 -0.13655737

model.rnn.weight_hh_l1 f4 [160, 40]
00000000: 589a df3b 4b95 933d 877b 073e 6690 25be
00000010: 9988 223c 1f6e 72bd 3237 293d 99be 703d
00000020: 0467 8c3d b3a1 ebbd 814e 863d f627 fb3b
00000030: bbcd e93d 3351 2a3e 3a3c 16be abce 1e3e
00000040: 1703 bf3d d589 a83d e6d2 483e 344c 9abd
00000050: d3df de3d e8f4 71bb 75f8 983d c0fd 37bd
00000060: 4a0b 3dbd fca6 9a3d 2fa9 f3bd ba03 9f3d
00000070: 8d55 d53c b56a de3d 0424 8fbc facc 1d3e
00000080: 7a72 213e 8c9b ae3d 07e1 cf3d 6a16 da3d
00000090: 2655 33bd ad9a 25bd d192 b43c 0d6b 8bbd
000000a0: 1d05 d03d c03b 613d a594 30bd c5dd 0a3c
000000b0: 3eb2 b83d e89d 0ebe 3c61 583d cd3a 593d
000000c0: 8f51 c83d f14f 07be c920 7abd f960 b43d
000000d0: df1e 12be 6efe 083e 6842 f53d c441 cebc
000000e0: 7f90 aebd a377 f53d 60d8 bfb9 65f0 3cbd
000000f0: 2bb2 953d 915c 533b ff50 613d f17a 803b
00000100: fc49 12bd 6d85 72bd 7525 043e a3a2 bdbd
00000110: b09d e03d 91f8 fbbd daec 1d3e 3181 de3d
00000120: bd4a 11bc 49ea 39bd 426f 4e3d 0981 09be
00000130: 405f 1bbe 4cb3 0abe f417 213e daea 443e
00000140: 74e5 9c3c 0426 05be e471 0b3e 6e8b 08be
00000150: 78b1 51be 2d28 dabd ade3 7a3c 58fb 023d
00000160: 2929 0fbc a3ea 893c 5ac1 30be f011 0b3e
00000170: 5e8e e9bd 0aa4 86bd 9548 ecbc 9afc 40be
00000180: 5a34 0ebe 404d 16be 8586 f23d 2da9 98bc
00000190: 7f25 0c3e 8e53 f93c 228e adbd 1185 33bd
000001a0: 2820 b53d cdc8 46bd 0367 1dbe f308 c6bd
000001b0: 9897 dabb 1059 863d 9aa1 adbd 96ef db3d
000001c0: c973 3bbe 9676 66bc fe7e babc a574 07bd
000001d0: 7116 0e3e dce7 f8bd 1a5d 993d e869 3dbd
000001e0: dbe6 c8bd 497b cd3d 5817 f9bd c161 1b3d
000001f0: 4b3c 2cbe 770a f03d 3a39 dcbd 6162 39bd
00000200: d22a d13c 3cfb 913c 25dc 823c 0a96 453d
00000210: 58bd 39bc daa1 2c3e 1e1a 0abe 2fc3 96bd
00000220: 9264 223e e960 b23d c0ac d1bd 5125 00be
00000230: b7b9 3abe 113e 13bd 9fff 253e 7fd5 20be
00000240: 47e4 53bd f9be 2a3e 21eb 013e 7a65 043e
00000250: 083e ecbd 15bc f23d de66 f53c 779c b33d
00000260: fe66 bebd f3f3 4b3d 9b4e c73d 07b3 ec3d
00000270: be90 a4bd 81ff 51bd 02e6 16be ecf9 7e3c
00000280: b63e df3d 4fbd 3fbe 751d 89be 739f 82bd
00000290: 2a95 82bd 8e27 b03d 2634 033e 550f 18bd
000002a0: b056 9f3e 1fe8 68be 781d 96be b651 54bd
000002b0: 3fac 27bd 1f18 993c edd2 313e 3fe7 64be
000002c0: 0918 a83c 227b bf3b a0dd df3d b741 5f3e
000002d0: e675 74be f371 63be b56f 22be defe d7bd
000002e0: b603 a0bd 64fa bebd 1446 b63d a4d2 1c3e
000002f0: bbc4 853d b6d1 ab3d 13ee a63d f1e0 17bd
00000300: cf38 e43b 7478 df3d d12c 90bd f5bc 533e
00000310: 03c0 613d 59bc 11bd 6920 0abe b0e7 533d
00000320: 185d a5bd bea6 0d3c 2848 2cbc c8c6 2c3c
00000330: 32d1 ad3d f376 84bd 2d3f 5dbe fd51 d0bd
00000340: 6296 03bd 16bc 8bbd 1f98 d0bc 350e 82bd
00000350: 0b4b 833d c1ae 083e dc74 2bbd 7aff 323e
00000360: 83c9 1b3e 6fb0 673e 69a1 553e 71a3 cbbd
00000370: 1ed3 2bbd cbe3 3f3e a2e4 d93d e7bb 353e
00000380: 7be7 523e 9b52 bebd eaba 46bd 8842 dabd
00000390: 6d62 c4bd 7341 da3c 5faf 893d f547 2cbc
000003a0: 17b8 8fbc 0f69 8ebd acf6 0d3e 4960 eb3c
000003b0: 1200 a8bc be28 26be 39ee d9bc ce34 31bd
000003c0: b802 42be c05b 803b d53f 0a3e 2c1c 3e3d
000003d0: c80e a83c 14c1 0fbe ea97 683d 0c6c af3d
000003e0: 7e73 28be 520d a53d 2005 a83d dd17 f33c
000003f0: aef6 5abd 3092 553e ab0c 273e b734 3b3e
0.006823819 0.0720621 0.13230716 -0.16168365 0.009920263 -0.05918705 0.041312404 0.058775518
0.06855586 -0.11505451 0.06557942 0.007664676 0.11416193 0.16632538 -0.14671412 0.15508525
0.09326761 0.082294144 0.19611701 -0.07534066 0.10882535 -0.0036919657 0.074692644 -0.04491973
-0.046153344 0.07551381 -0.118975036 0.07764383 0.02604177 0.108601965 -0.017473228 0.15410224
0.15766326 0.08525762 0.101503424 0.106488064 -0.043782376 -0.040430713 0.022042664 -0.06807528
0.10157225 0.054988623 -0.04311051 0.008475726 0.09018372 -0.13927424 0.052827105 0.053034592
0.09781181 -0.13214089 -0.061066423 0.088075586 -0.14269589 0.13378307 0.119755566 -0.025177844
-0.08523654 0.119857095 -0.0003659157 -0.046127696 0.073093735 0.0032251219 0.055008885 0.0039209058
-0.03571509 -0.059209276 0.12904914 -0.09259536 0.109675765 -0.1230327 0.15422383 0.10864485
-0.008867917 -0.045389447 0.050399072 -0.1342813 -0.15173054 -0.13544959 0.15731794 0.19230214
0.01915238 -0.13002783 0.13617665 -0.13334438 -0.20477855 -0.10652194 0.015313071 0.03197798
-0.008737841 0.016835516 -0.17261258 0.13581061 -0.114041075 -0.06574257 -0.028843204 -0.1884636
-0.13887158 -0.14677906 0.11842064 -0.018635357 0.13686179 0.03043535 -0.08474375 -0.043828074
0.08844024 -0.048531342 -0.15371327 -0.09669676 -0.0066709034 0.06559956 -0.08478089 0.10739057
-0.18305887 -0.014066359 -0.022765633 -0.033070225 0.13875748 -0.12153599 0.07488461 -0.04624358
-0.09809657 0.100332804 -0.121626556 0.037935022 -0.16819875 0.11720746 -0.107531026 -0.045259837
0.025533114 0.017819993 0.015974114 0.04823879 -0.011336647 0.16858616 -0.13486525 -0.07361447
0.15858677 0.087098904 -0.102380276 -0.12514235 -0.18234907 -0.035947863 0.16210793 -0.15706442
-0.051731374 0.16674413 0.12687351 0.12929335 -0.11535269 0.1185228 0.029956277 0.08770078
-0.09296988 0.049793195 0.0973179 0.11557584 -0.0803542 -0.05126906 -0.14736179 0.015562516
0.10900633 -0.18724559 -0.26780286 -0.06378069 -0.06376107 0.086012945 0.12812862 -0.037123997
0.31120825 -0.22744797 -0.29319358 -0.051835738 -0.04093575 0.01868826 0.17365618 -0.22353838
0.020519273 0.005843536 0.109309435 0.21802412 -0.238731 -0.22211437 -0.15862925 -0.10546659
-0.07813208 -0.09325102 0.08900085 0.15314728 0.06531664 0.083896086 0.08150878 -0.037079755
0.00696478 0.109116465 -0.07039798 0.2067755 0.055114757 -0.035580013 -0.13488926 0.051734626
-0.08074397 0.0086457115 -0.01051525 0.01054544 0.084871665 -0.06468 -0.21606131 -0.10171888
-0.032125838 -0.06822984 -0.025463162 -0.06350366 0.06410798 0.13347913 -0.041859493 0.17480269
0.1521359 0.22625898 0.20862354 -0.09943283 -0.041949384 0.1873924 0.106393114 0.1774746
0.20596115 -0.092930995 -0.0485181 -0.10657221 -0.09589086 0.026642537 0.067229025 -0.010515203
-0.017543836 -0.06953632 0.13863629 0.028732436 -0.020507846 -0.1622648 -0.026602851 -0.04326325
-0.1894635 0.0039171875 0.13500912 0.046413586 0.02051486 -0.14038497 0.0567855 0.0856553
-0.16450307 0.08059181 0.082041025 0.029674465 -0.05345791 0.20856547 0.16313426 0.18281828

model.rnn.bias_ih_l1 f4 [160]
00000000: a20a ce3d 6722 bf3d 3b46 083d 3074 813e
00000010: 57eb e83c a1b9 0a3e aea8 3f3c 3bff 253e
00000020: 57dc 0dbc 3bbb b3bd f5f5 0f3e fc9a 253e
00000030: c83f 6ebd 0d4d 0e3e bc3f febd d451 213c
00000040: 3fad c63c dc7b f73c 7257 aa3d 2774 9c3d
00000050: 329c 933d ef93 043e d489 303d d50f 443d
00000060: 5543 a03d 4b59 943c 9c8d a83d d415 bd39
00000070: 5fc1 9a3e 689d 6e3e e753 c73c 80a7 2b3d
00000080: 8cf7 8c3e e2f5 ddbd 8574 293e b72f 6b3d
00000090: fa92 2b3e dd1e 703e 98c5 eb3d f852 2b3e
000000a0: 2dc1 193e 8468 b5bd 4414 253e 1171 513d
000000b0: bd69 3b3d c4e0 5e3d 3dde 66bb f6e5 f83d
000000c0: 7983 21be 0600 acbd 0a7c 90bd a391 43bd
000000d0: a264 a73d a503 87bd 73c7 05be aed5 043e
000000e0: 0b38 b13d b7ba a9bd d19b 903d f786 6fbd
000000f0: 2002 823d cccc f6bd bc6f ebbd d956 1c3e
00000100: 68c0 edbc 2232 48bd af91 d4bd a37b 09be
00000110: fea6 38bd 162d 06bc 885e 12be 6d5c 98bd
00000120: e876 1ebc 9bcc aabd 5ce5 1f3e ba48 223d
00000130: 3210 b63d d980 2c3c a324 d7bd a828 1e3e
00000140: 75b1 53be b56d 8ebd 1c6e 7f3d ca17 1fbe
00000150: e94b 8e3d 6665 3bbc 333b 243e 5971 6e3d
00000160: 28a1 b23d c351 29bd 65ca 1a3e ac24 553d
00000170: e0b9 12bd 6b33 323e e6ec fcbd 5f84 0f3e
00000180: 4027 2b3e 9c8c 4a3b 2c03 903d 6abf 26be
00000190: 9e52 ec3d d11e 373e f14e a1bd 68ed a63d
000001a0: 6812 cabc 9cc4 61bd b1cf bcbb e624 02be
000001b0: a2f1 de3b 5a52 e1bd e18f 783e d281 3f3d
000001c0: e1e2 a5bd 4cb8 e33c 6d5a 1d3e 62e5 48be
000001d0: 48bf 80bd 8431 d93d c4d0 cf3c a96e c63d
000001e0: b2c6 f33d a17e 753e cbc8 28be 7fff f83b
000001f0: bd84 0cbe edea e73d 5fd9 84bd 80f7 5dbc
00000200: 6e47 6a3c 53c6 06bd 9c8d a5bd c04d 10be
00000210: 877b 06bd 3807 f3bc 911b 3f3d cd63 babd
00000220: ebd5 083d 45e9 123e 2540 9b3d 8397 cb3b
00000230: 06b5 af3d a711 6e3c 040f 16bc 4293 493d
00000240: 3f69 1f3e 2f05 633b b153 363e 46d7 e5bc
00000250: 1a64 353e 9963 093e 56a8 483e 591e 933c
00000260: 1c37 513e 7702 9cbd 0d25 143d 9e42 423a
00000270: a13b 573e 5631 c03d 8e45 d33c 969c c43c
0.10060622 0.093327336 0.033270102 0.25283957 0.028432531 0.13547374 0.011697931 0.16210644
-0.00865849 -0.08775946 0.14058669 0.16172403 -0.058166295 0.1389658 -0.124145 0.0098461695
0.024252532 0.030210428 0.0831746 0.07639342 0.07207526 0.12947057 0.043100193 0.04786666
0.078253426 0.018108984 0.08230135 0.00036065152 0.30225655 0.23302233 0.024332 0.041907787
0.27532613 -0.10837914 0.16548355 0.05741855 0.16755286 0.23449273 0.115122974 0.16730869
0.15015097 -0.088578254 0.16121012 0.05113322 0.045755137 0.054413572 -0.003522768 0.121532366
-0.15772809 -0.08398442 -0.070549086 -0.047746312 0.08173491 -0.06592492 -0.13064365 0.12972137
0.086532675 -0.08287566 0.070609696 -0.058478322 0.063480616 -0.12050781 -0.11495921 0.15267505
-0.02902241 -0.048875935 -0.103793494 -0.1342607 -0.04508113 -0.00818946 -0.14293873 -0.07439504
-0.009671904 -0.08339807 0.15614837 0.03962014 0.08889808 0.010528767 -0.10505035 0.15445197
-0.20673163 -0.06954519 0.062360868 -0.15536419 0.069480725 -0.0114377495 0.16038208 0.058213565
0.08722144 -0.04133774 0.1511627 0.052036926 -0.035821795 0.17402427 -0.12349872 0.1401534
0.16714191 0.0030906564 0.07031855 -0.16283956 0.115391955 0.1788285 -0.07876385 0.081507504
-0.02466698 -0.055119142 -0.0057620634 -0.12709388 0.006803707 -0.110020354 0.24273635 0.046754666
-0.08099914 0.02779784 0.15366526 -0.19618753 -0.06286484 0.106051475 0.025368102 0.096890755
0.119031325 0.23974086 -0.16482846 0.007598817 -0.1372251 0.113241054 -0.06486773 -0.013547778
0.014299257 -0.03290398 -0.080836505 -0.1409216 -0.03283265 -0.029666528 0.04665715 -0.09101067
0.033407133 0.14346798 0.07580594 0.00621313 0.08579449 0.014530576 -0.009158853 0.0492127
0.15567492 0.003464054 0.17805363 -0.028056752 0.17713967 0.134169 0.19595465 0.017958807
0.20431179 -0.07617658 0.036168147 0.00074104394 0.2101884 0.0938441 0.025790002 0.024000447

model.rnn.bias_hh_l1 f4 [160]
00000000: 8c86 4d3e c8af 693e 97f9 b83d 5517 75bc
00000010: 4568 d33c 55f7 de3d 71c4 043d 446d e7bb
00000020: 9bd7 d33d 4f05 243b c709 2bbd b0e1 92bc
00000030: ba80 c9bb 7472 9ebd c1b2 203c 547e 8bbc
00000040: 91fe 2b3e bfe5 473e 4f43 d33d b237 ec3d
00000050: d1b2 0c38 14c1 6dbd 10ac ab3b 67f3 393e
00000060: 3611 463d 1e52 0a3d 86eb 353d 6bce 0d3e
00000070: 2e02 173e 0aaf 173e 8c08 973e 3e82 1d3e
00000080: 7f7b 1c3c 1544 01bd 1916 dbbc 8af4 2f3c
00000090: 382f ec3d 676c ab3d 6ced 113e 21f1 0f3e
000000a0: 1986 a9bd 04af a13d de8a b1bd e22f c8bc
000000b0: 6e78 353e 3263 1b3e 5ff9 75bd e7df a83d
000000c0: a272 6fbb 1666 523c 7eb5 38bd 8e66 f23c
000000d0: b23e 3fbd debd d63d 7daa ac3d aeea 18be
000000e0: d31c 61bd 5077 16bd 16d0 4f3d ca95 2d3d
000000f0: 8d83 25be 5691 59bd 3dce 443d 9caf 0bbd
00000100: fb34 bfbd f254 8a3b 7c54 253e d016 1dbe
00000110: 4aa8 f1bc 5bcb 09bd 7703 b3bb 37b4 8d3d
00000120: ba9d a5bd a2c5 083d dfc2 d23c 2477 fdbc
00000130: 96ca c1bc 0b7d ce3d 70f8 153d d849 82bd
00000140: 8e1a 3c3b 9a52 9f3d 590c c73c db71 cfbc
00000150: ef6c a5bd 6c60 09be a55f 00be 9919 8ebd
00000160: cc5f b53d 4ae0 9bbc 2969 253e 9525 04be
00000170: ce0a 523e 8c2a 253e 4736 febc 6b55 e0bd
00000180: 2b7f 7d3d 7064 63bd c6e3 5e3d 9689 c1bd
00000190: 6eec cfbd 79fb f03b 92c5 10bd dafb b73d
000001a0: 6dc4 ee3c 1510 97bd a5e6 06be 0f91 6cbd
000001b0: 7d42 5cbe c0ac 0c3d f686 743d d4f6 1b3e
000001c0: 5bee 5d3e fe6f c13d 1b5a 413e 00a2 4abe
000001d0: ac84 3abe 911b bbbd 661f 3a3d e951 ed3d
000001e0: f2c9 843e b884 c63d 749d 74bd 63ed 393e
000001f0: fd2c 123e e1e8 7b3e 1867 073e 5bd7 863d
00000200: 3088 fc3d 4ca0 0b3e 6d55 033e 6f05 ccbd
00000210: aca0 c53c a6fc 02bd dc67 f43d 9555 8ebd
00000220: 0f2b 113e d532 823e 7a44 033e 956c 073d
00000230: bfa1 ddbc e963 c0bd a62d 393e ff3c 1ebb
00000240: aa9a 033e d11f a93a c8a4 423e 6b6c 67bd
00000250: 49a0 a03d 73d2 843e 3d98 263e d2c6 ff3d
00000260: 6534 513e 7f39 14bc fe06 a7bd 9480 e83d
00000270: 9ce0 363e bfc5 0b3e f4b1 4d3e f831 913d
0.20070857 0.22820961 0.090319805 -0.014959176 0.025806556 0.108870186 0.032413904 -0.007062586
0.10343858 0.0025027578 -0.04175737 -0.017929882 -0.0061493786 -0.07736674 0.009808243 -0.017028011
0.16796328 0.19521235 0.103155725 0.115340605 3.3545137e-05 -0.05804546 0.0052390173 0.18159257
0.048356257 0.03376972 0.044414066 0.13848273 0.14746925 0.14812866 0.29498708 0.15381715
0.009550928 -0.03155907 -0.026743935 0.010739455 0.11532444 0.083702855 0.14250726 0.14056827
-0.0827753 0.0789471 -0.08669065 -0.024436895 0.17721722 0.15174559 -0.060052272 0.08245831
-0.0036536832 0.012841722 -0.04509496 0.029589918 -0.04669065 0.10485433 0.084309556 -0.14933273
-0.05495913 -0.03673488 0.050735556 0.042379178 -0.16163464 -0.05311712 0.048048247 -0.03410302
-0.09336277 0.004221552 0.1614551 -0.15340734 -0.029499192 -0.0336412 -0.0054630595 0.06919139
-0.080867246 0.033391602 0.025727687 -0.0309406 -0.02365617 0.10082444 0.03661388 -0.06361741
0.0028702351 0.07779427 0.02429788 -0.025322845 -0.08077418 -0.13415688 -0.12536485 -0.06938476
0.088561624 -0.019027848 0.16153397 -0.12904961 0.20511934 0.16129512 -0.03103174 -0.10953792
0.061888855 -0.055515707 0.05441644 -0.094500706 -0.10152517 0.0073541966 -0.035344668 0.08983584
0.029146397 -0.07376114 -0.13173921 -0.057755526 -0.21509738 0.034344435 0.05969902 0.15230876
0.21672957 0.09445189 0.18882029 -0.1978836 -0.18214673 -0.09136117 0.0454401 0.11587889
0.25935322 0.09693283 -0.05972047 0.18156962 0.14274974 0.24600555 0.13222921 0.065840445
0.12330663 0.13635367 0.12825556 -0.09961974 0.024124466 -0.031979226 0.11933872 -0.06949917
0.14176582 0.25429407 0.1281909 0.033062536 -0.027054666 -0.09394056 0.1808382 -0.0024145243
0.12851968 0.0012903159 0.19008172 -0.05649988 0.07843072 0.2594181 0.16269012 0.12489094
0.20430143 -0.009046911 -0.081556305 0.11352649 0.17859119 0.13649653 0.20087415 0.07089609
