generate_forecasts/output/Final_2026_Forecasts/Meat/models/SimpleFeedForward/W0/gluon_ts/prediction-net-state.pt (torch, 34030 bytes, 7 tensors)

model.nn.0.weight f4 [20, 32]
00000000: 0bcb ab3d 2f54 153d ac3c 9abc 8557 5b3d
00000010: a112 c43d c740 c83d a058 a93d 946e e03c
00000020: 11a9 023d 09ea 433d 7071 eb3d 3437 daba
00000030: 812e d13c c52a af3d 2def 5a3d 5255 c63d
00000040: 2f03 cd3d dc00 483c bbe1 58bc 7425 7a3c
00000050: 9ceb 9b3d dbf1 903d 3fda 24bb f5c8 a83d
00000060: ee90 af3d acc1 b93d 4193 47bc b987 333d
00000070: 01fa 1a3d f8ef 133c b854 ec3d 17c4 053c
00000080: 9e73 6cbc 03a3 2abd 5b1d 003d e2c2 4dbb
00000090: 4aeb 4d3d ab60 dc3c adce da3c 2b82 7fbd
000000a0: 580a bfbc f4ee 8b3d a8ce 4bbc 7a64 87bd
000000b0: 4fce 5ebd b1cb 953c c0b4 85bd bd7b 35bd
000000c0: da6c 823c 10a4 a7bd 27b0 c8bd d186 3ebc
000000d0: eeb1 bbbc 68e9 f2ba af0e 463d 675c 2abd
000000e0: 1ffa 853c 4062 093d de40 05bc 6d17 993c
000000f0: d131 923c 3823 013e 452b be3d 14f4 3d3e
00000100: d6b1 00bd aafd 343c c282 a9bd c4e9 5bbc
00000110: 9530 72bc 2260 9ebd c28d a6bd 7de2 92bc
00000120: b7ea c0bd 1df4 48bd c259 a9bd e4e7 9c3b
00000130: edb9 c7bd b408 dcbc 3160 7abd ca2a 0abd
00000140: 5899 1c3d 98ef eebc cc96 1c3d 960a 75bd
00000150: 226c 38bc b1b9 583b 056c 413d a8cc 243d
00000160: 86e9 f6bc 25ea 933b 94fc 8d3d c139 5e3c
00000170: b5ab fb3d bbc1 d83d e6f2 093e 0585 823e
00000180: b4d5 d4bc 88c3 8cbd b30e e1bc 70c0 d83c
00000190: ab76 dfbc 6ba2 17bd 09d8 95bd 276e 07bd
000001a0: 11ab 9c3c 965e 20bc 5130 acbd 1837 babc
000001b0: b953 8abd a75f 74bd 4ad4 45bd ad08 6cbd
000001c0: 3a17 c4bd 9679 56bc 4ec3 f0bc 650a 9fbd
000001d0: 0e40 ddbc df0a 4dbd 69f9 d0bb 08ed b63d
000001e0: 8279 b23d cc9c 153d bcb8 c43d b476 893d
000001f0: e085 083e 0748 163e 2ce4 003e 8c42 413e
00000200: 8672 cabc 5e3d 8b3d ace7 903d 4e40 b6bb
00000210: 3b57 553a 6b3b ef3c f1fc 87bc 78bd b4bc
00000220: df9f 963b 4f18 833c 5363 ffba 1498 d73d
00000230: e46a e03d 9bd8 8d3d 7929 413c cb73 73bb
00000240: 6818 69bc 5781 c43d dff0 06bd 0b79 0a3c
00000250: 8ee5 b03d ef10 e8bb d7c5 403d fb52 8a3d
00000260: 469d a2bc 5cc8 3d3c 2d31 df3d 4596 abba
00000270: 1beb 0b3d a537 bb3d ffda 563d d46c 703b
00000280: 5455 4c3d 6cdc a83d 1a31 b03c 455c d63c
00000290: 26c9 9b3d 2e1c ce3d d4d5 973c 3d35 41ba
000002a0: 0994 4fbc bb51 5b3d f05f ac3d 66e1 a43c
000002b0: 9a3e bf3d 1972 2d3c 0d24 6f3d 8d52 713c
000002c0: c03d b83d ab6d 923d b37f 363d 00c5 813d
000002d0: 93e0 f5bb a9d9 63ba fb4d 043d d155 fc3c
000002e0: 125c ca3d 09af cc3c 13d2 ea3c 272a a03d
000002f0: c9a7 8d3c 0bd8 4e3d da52 2f3d f12f 9d3d
00000300: b63c d1bc 6249 e3bc 1a43 ad3d 5c13 a43d
00000310: 0894 2b3c 5651 ae3d 482d 92bb a22c e33d
00000320: 8004 4a3d d6b0 e63d 77ac 8a3d 4318 173d
00000330: e03f da3c 6ee2 55bb 51e3 df3c 52dc 73bc
00000340: 4e1b d13d e5cc 5c3d 8fec c03c f0eb 413d
00000350: a0b0 d03d 7644 b73c 8911 9f3d 21d3 eb3d
00000360: a5af df3d 8b1a a03d 2d6a b73c c5e1 143d
00000370: 73f2 b33d e20c 153c abec 543d f374 8bbc
00000380: 2320 003d f08c 503c 85ca 72b8 0517 b0b9
00000390: 81f2 d8bc 1ddd 823d 4743 043d f7dc c23d
000003a0: a809 a63c 9da5 823d ff5c 6a3c 6061 203d
000003b0: 658e 713c 45e4 79bc e855 a0bc 68b3 a03d
000003c0: 0664 7d3d 743b 133c 1d2d 7abc 95e3 aa3d
000003d0: c741 3abb 4cef ea3d fb60 f13d 280e 943c
000003e0: 046f 2c3d b707 f73d e7a8 603d 4b87 ea3c
000003f0: 6167 f7ba 944e c03d 75ca 463d c32d 8b3b
0.08388337 0.036457237 -0.018827759 0.053550262 0.09573866 0.0977798 0.08268857 0.027396478
0.031899516 0.047830615 0.11496246 -0.0016648532 0.02553487 0.085530795 0.053450752 0.09684242
0.10010373 0.012207236 -0.013237412 0.015267719 0.07613298 0.0707738 -0.00251545 0.082414545
0.08572565 0.09070143 -0.012181104 0.043830607 0.03783608 0.009029381 0.11539596 0.008164427
-0.014431862 -0.041659366 0.031277996 -0.0031396677 0.050273217 0.026901564 0.026709879 -0.062379997
-0.023320362 0.06832686 -0.012439407 -0.06610961 -0.05439597 0.018285604 -0.06528616 -0.04430746
0.015921045 -0.08185589 -0.097992234 -0.011628822 -0.022911992 -0.0018532695 0.048353847 -0.041592028
0.016354619 0.033540964 -0.008133141 0.018687928 0.01784602 0.12611091 0.09285597 0.1855014
-0.031419598 0.011046806 -0.08276893 -0.013422433 -0.014782091 -0.0773318 -0.08132507 -0.017930264
-0.09419768 -0.04906093 -0.08269073 0.0047883857 -0.097522594 -0.026859619 -0.06112689 -0.033732213
0.038232177 -0.029166982 0.03822975 -0.05982455 -0.01125625 0.0033069665 0.047222156 0.040234238
-0.03014065 0.004513996 0.06932941 0.013563574 0.1228861 0.10583826 0.13471565 0.2549211
-0.025980808 -0.06873232 -0.02747283 0.026458949 -0.027278265 -0.03702013 -0.07316596 -0.033064034
0.01912454 -0.009788176 -0.08407653 -0.022731349 -0.0675425 -0.059661534 -0.048298158 -0.05762546
-0.095747426 -0.013090512 -0.029390004 -0.077656545 -0.027008083 -0.050059196 -0.0063773883 0.08931929
0.08714582 0.036526486 0.09605548 0.06712094 0.1333232 0.14675914 0.1258704 0.18873042
-0.024712812 0.06798814 0.07075438 -0.005561865 0.00081383035 0.029203137 -0.016600104 -0.022063002
0.004596695 0.016002802 -0.0019484557 0.105270535 0.10957888 0.0692608 0.011789673 -0.0037147875
-0.01422701 0.09594982 -0.032944556 0.00845171 0.08637534 -0.0070820968 0.047063675 0.067541085
-0.019850384 0.011583414 0.108980514 -0.0013091048 0.03415976 0.09141473 0.052454945 0.003668596
0.049886063 0.08245167 0.021507788 0.026167044 0.076067254 0.100639686 0.018534578 -0.0007370299
-0.012669572 0.05354474 0.08416736 0.02012701 0.09338112 0.010586285 0.05838399 0.014729154
0.08996153 0.07149824 0.044555377 0.06336403 -0.007503578 -0.00086917967 0.03230093 0.03080264
0.09880842 0.024985807 0.028664624 0.0782054 0.01729192 0.050499003 0.042803623 0.0767516
-0.025541645 -0.027744953 0.08460064 0.08011505 0.010472305 0.08511607 -0.0044609644 0.110924974
0.049320698 0.112641975 0.06771176 0.036888372 0.026641786 -0.0032636183 0.027330073 -0.014884071
0.10210286 0.05390634 0.0235503 0.04734415 0.101899385 0.022371512 0.077670164 0.11514879
0.109221734 0.07817563 0.022389496 0.036348123 0.08786478 0.00909731 0.051983517 -0.01702354
0.031280648 0.012728915 -5.7885907e-05 -0.00033586487 -0.026482822 0.0638983 0.032290723 0.09514802
0.020268276 0.063792445 0.014304399 0.039155364 0.014743422 -0.015252178 -0.019572213 0.07846719
0.061862968 0.008986343 -0.015269545 0.08344189 -0.0028420554 0.114714235 0.11786076 0.018073156
0.04209806 0.12062018 0.054848578 0.028628966 -0.0018875414 0.093899876 0.04853292 0.0042473986

model.nn.0.bias f4 [20]
00000000: a3a9 e03c bac9 993c a941 a63d 9c35 813d
00000010: 0563 123c 3a7f ce3c 5ab6 963c e038 ef3c
00000020: f5ef 933c 2cab 083d a331 c4bb cdc7 993c
00000030: 689c 7a3d 0000 0000 4cba 093c a5fa aa3c
00000040: 9804 803c 568b b23c a5ad 053d 8bee af3c
0.02742464 0.018772949 0.081179924 0.06309053 0.008934741 0.02520715 0.018397499 0.029201925
0.018058756 0.033366367 -0.0059873625 0.01877203 0.061184317 0.0 0.008406233 0.02087147
0.01562719 0.021794956 0.032636303 0.02147605

model.nn.2.weight f4 [320, 20]
00000000: 063d 02be 707f ebbc 79aa 913e c970 7a3e
00000010: eaab e5bd 1449 c4bd d768 bbbc 21de dcbd
00000020: f31a 08be b4cd 7cbd c684 41bd 8cc9 acbd
00000030: d986 9d3e 38cd 93bb 6247 5fbd 9762 d6bd
00000040: 4fa8 1ebe 5d35 86bd 3b89 fcbd 269b 88bd
00000050: e6bf 3d3e 7077 78bd a11f 90be 5b87 a1be
00000060: e7a7 2a3e 3ee4 1c3e 19aa 583e 7ec8 883d
00000070: 51af 423e f06b bf3d 7f26 77bd 0400 493e
00000080: c6ee a2be d5ef 533c 2375 1a3e 7ee7 dc3d
00000090: 6c7e 113e a22c ac3d 9c1d 5c3e eceb 453e
000000a0: e73f dbbd cb14 8abd 3c76 b9bd 7e3d f2bd
000000b0: 8ce5 9abd b5f4 53bd d2f5 0dbe 08d6 e7bd
000000c0: 3c3e 60bd 1b62 63bd d12a d7bc 1f12 c4bd
000000d0: 4a46 8cbd ded2 5a3b 75af 8bbd 3742 08bd
000000e0: f3e5 76bd 5130 02be 70c7 0ebd dffd 96bd
000000f0: d98c dfbd 5744 e5bd af2e 1fbc a2ba 9bbd
00000100: 0481 c4bc 35da 15bd 819f dcbd e3cc d9bc
00000110: 27ff 24bd 5973 80bd 888d 813d 4705 04be
00000120: eeb4 4ebc d10c 133b f9b0 bbbd f976 94bd
00000130: c4db 94bd 97bd 58bd c4c2 e4bc 66a0 d1bd
00000140: 6ec1 65bc 139a a3bd c256 c8bd 9499 53be
00000150: ca91 903d 0493 ba3d 8435 bb3d 8c3f f03c
00000160: 9d0a cc3c 340c 9c3d 09f4 04bd 9143 3f3d
00000170: f074 80be 6f66 41bc e521 ab3d 2114 903c
00000180: cf94 093d 2604 c6bc 8c9e d93c 2a78 313d
00000190: a83e 1f3b fb2d df3d f4f5 f13d d411 843d
000001a0: 10cc f73c d455 843c 6d64 333c 5b46 273d
000001b0: 99d2 a3bc 6947 91bc a754 953d c50b fa3b
000001c0: a636 c73d 69ac 43bc 6983 ecbc 173d 2e3d
000001d0: 338a adbc 6396 323c 3a3d bb3d 81d7 a93c
000001e0: 321c 73bc b249 833d b07e 3d3e 9b01 5b3e
000001f0: 041c f3bc b7be 05bd cbdb 3d3d 7d41 60bc
00000200: 03f9 5ebd ec34 6cbd f173 2a3c b24f 2bbd
00000210: 18d1 463e 0df3 5dba 7ce1 72bd b320 13bd
00000220: b420 323d 053f b13c 9575 813d fca1 10bd
00000230: 244a 33bd 2e0e c7bd be99 a9bd 67a1 44be
00000240: 260a ec3c 77ba 413c 495c 913d bd2b a03d
00000250: 8d41 493d c66b cfbc 9dfe 06bd aff2 27bc
00000260: e6b3 49be d7be 903b d794 693d 94c0 a5bd
00000270: 104a 303d 148d aa3c d7ca 71bd e9c4 6dbd
00000280: cc43 cf3d 9656 2cbc 4135 0dbe 2010 4ebe
00000290: d1d6 b13d cfff c83c 3360 b33d adc1 b03d
000002a0: 6209 a83d 22b6 ce3c a0f6 0abd 7301 163d
000002b0: f921 67be f089 79bc b54b 1c3e 8efd 693b
000002c0: 56e6 d23c 0a29 ba3d 6fd6 133d 6038 693c
000002d0: 1499 fe3d 8bee 033e db7a 023e d7c0 8c3d
000002e0: ce07 a93d 5588 5b3c 5205 af3a 0125 ca3d
000002f0: ca15 003d d04d a53d a27e 0c3d 413c 543d
00000300: fdc0 0d3e f21b 36bb 987c 293c d06e b03d
00000310: bc06 c73d 503a 023e d384 8b3d 7451 893d
00000320: 6ef4 e13c 4696 70bd c7c5 f3bd 203e f9bd
00000330: c4c8 d43c 55a8 223d f91d 2d3d b44e 2e3d
00000340: 3022 9e3d 2a10 20bd 5fa9 343d 3bea 033a
00000350: a4f2 03be 281d 77bc 2e95 b43c 0e16 3c3b
00000360: 1658 563d e43f 923d 1106 50bc 9697 9e3d
00000370: 05fd f93c e85a 81bc 083d 3ebe 253d 3abe
00000380: 4f32 923d 53ac dc3c 7a1c 42bc a2bb c43d
00000390: e1f7 ae3d b518 003c c177 96bd 6420 f8ba
000003a0: c68a 43be 5837 00bc 407d 433d 18b7 10bc
000003b0: 3888 ec3d 81ff 7bbc 0ff4 29bb ef20 893d
000003c0: 34b4 373c ca1a e7bd 5e14 06be 55a9 14be
000003d0: c10c cfbd e036 adbd 7961 c3bd 874f f4bd
000003e0: 533b a2bd 188f e5bd ea47 683d 1316 cabd
000003f0: e0b7 46be f1e6 153c a12e aebd cef2 08be
-0.12718591 -0.02874729 0.28450373 0.24457087 -0.11214431 -0.09584251 -0.02287714 -0.10784555
-0.1329153 -0.06171961 -0.047245763 -0.084368795 0.30766943 -0.004510548 -0.054511435 -0.10468023
-0.15493892 -0.06553147 -0.12330862 -0.06670217 0.18530235 -0.06066078 -0.2814913 -0.3154858
0.16665612 0.15321442 0.21158637 0.06678866 0.1901219 0.09346759 -0.060339447 0.19628912
-0.31822795 0.012935598 0.15083747 0.10786341 0.14208382 0.084069505 0.2149567 0.19328278
-0.10705548 -0.06742247 -0.090557545 -0.11828135 -0.07563314 -0.051747043 -0.13863304 -0.1132012
-0.05474685 -0.055513483 -0.026265534 -0.09573769 -0.06849344 0.0033389847 -0.06820575 -0.033266272
-0.06027789 -0.12713744 -0.034858167 -0.07372641 -0.109155364 -0.111946754 -0.00971572 -0.07603957
-0.0239873 -0.03658505 -0.107726105 -0.026586955 -0.040282395 -0.06272001 0.06325823 -0.12892638
-0.012616379 0.002243806 -0.09164614 -0.07249255 -0.072684795 -0.052915182 -0.027924903 -0.10235672
-0.014023168 -0.07988372 -0.09782173 -0.20664054 0.07059057 0.09110072 0.09141067 0.029327177
0.024907405 0.07619515 -0.032459293 0.046695296 -0.25089216 -0.011804207 0.08356074 0.017587723
0.03358918 -0.0241719 0.026564859 0.043327488 0.002429882 0.10897442 0.1181449 0.06448713
0.030248672 0.016154207 0.010949236 0.04083858 -0.019997882 -0.017734246 0.07291537 0.0076307976
0.0972722 -0.011942961 -0.028871255 0.04253873 -0.021184063 0.010900113 0.091425374 0.020732643
-0.014838265 0.06410541 0.18505359 0.21387331 -0.029676445 -0.032652583 0.04635219 -0.013687489
-0.054436695 -0.057667658 0.010403619 -0.04182405 0.194157 -0.00084666983 -0.05929707 -0.035919856
0.04348822 0.021636495 0.06321255 -0.03531073 -0.043771878 -0.097195014 -0.08281277 -0.19202195
0.028813433 0.011824242 0.0709768 0.078208424 0.04913478 -0.025319945 -0.032957662 -0.010250731
-0.19697532 0.004417281 0.05702671 -0.08093372 0.04303938 0.020819224 -0.059031334 -0.058049116
0.10120353 -0.010518691 -0.13789846 -0.20123339 0.08683551 0.024536042 0.08758583 0.08630691
0.08204915 0.025233332 -0.033926606 0.036622476 -0.22571553 -0.015230641 0.15263255 0.003570411
0.025744598 0.09089859 0.03609317 0.014234632 0.12431541 0.12883966 0.12742178 0.06872719
0.08253442 0.013399203 0.0013353026 0.09870339 0.03127078 0.08071482 0.034300454 0.051815275
0.1384315 -0.0027787653 0.010344647 0.08614886 0.09718081 0.12717557 0.068124436 0.06704989
0.027582373 -0.058737062 -0.119029574 -0.121700525 0.025974639 0.039711315 0.042264912 0.042555526
0.077213645 -0.039077915 0.044106837 0.00050321565 -0.12885529 -0.015082635 0.02204379 0.002869967
0.0523301 0.071410924 -0.012696759 0.077437565 0.030516157 -0.015790418 -0.18577969 -0.18187387
0.07138502 0.02693764 -0.01184761 0.096061006 0.08543373 0.007818391 -0.0734706 -0.0018930552
-0.19095907 -0.007825695 0.04772687 -0.008832715 0.11549419 -0.015380741 -0.0025932824 0.06695735
0.011212397 -0.112844065 -0.13093707 -0.1451772 -0.101098545 -0.08457732 -0.09540076 -0.11929231
-0.079214714 -0.112089336 0.056709208 -0.098674916 -0.1940608 0.009149299 -0.085049875 -0.13373873

model.nn.2.bias f4 [320]
00000000: 657c 73bd f5d9 043e a8c2 7ebd d12f 68bd
00000010: c730 123c 64f7 d73c 2652 493c 6a9d aabc
00000020: 8d79 473d 1c57 4e3d 2a9c 20bc b9d9 3f3b
00000030: 9d67 54bd e431 8c3d 228c 8eba 7ac2 8b3c
00000040: 439c a6bd 553f 25bc 3335 9dbd 8a7c 48bc
00000050: ee6e 6bbd 4af5 e43d 8e0b 84bd 1774 6fbd
00000060: 494b 0b3c d969 d93c f697 5b3c 5317 a9bc
00000070: 5bf1 413d 6db2 543d 4ec7 31bc ab5d 343b
00000080: 0670 5bbd 997e 803d c608 ddba 9935 8e3c
00000090: 7288 afbd 8335 0ebc 343b a4bd 8ce3 5abc
000000a0: a4d5 69bd 953e bf3d 7323 75bd f683 5dbd
000000b0: 7821 3f3c 2ee2 b43c 0c6e 0c3c 50e3 8abc
000000c0: cbca 5f3d 2ea8 443d cea3 f0bb 3d5b df3b
000000d0: 2808 4bbd 152f 723d fd25 273b 2aa7 653c
000000e0: 0899 a3bd 73db 47bc de74 97bd 27f4 20bc
000000f0: 861b 40bd c2b6 9b3d 8e7e 78bd 72a9 62bd
00000100: eecf 903b ae89 d03c 684c 4c3c a41b a5bc
00000110: cfb4 213d efc4 4b3d cba7 4ebc 6670 1d3a
00000120: 7a9e 51bd 4e2d 403d 9a1b 4dbb ce4d 953c
00000130: d4d7 a2bd 2614 a4bb 29e1 96bd 5f86 75bc
00000140: 2ddf 3ebd 82b9 943d f280 7dbd bee2 66bd
00000150: f8b6 7c3b f673 d53c b279 603c 5503 b0bc
00000160: 7acd 1e3d 61b0 503d 898b 5dbc 64b6 2e39
00000170: d20d 57bd 7727 3a3d d535 4cbb 94da 963c
00000180: 284a a6bd 1549 96bb 7d2f 99bd 09ad 81bc
00000190: e6e4 5dbd 541b 8c3d dbe2 64bd 632b 4ebd
000001a0: b9d4 343c b7d7 973c 1d6c ac3b 6a2b 5dbc
000001b0: 39a4 563d 95a9 393d 4560 dcbb e3b3 023c
000001c0: 3736 3fbd defe 483d ef00 993b 6255 453c
000001d0: 733f 99bd 30ea 3fbc 92bc 8abd b073 08bc
000001e0: b45b 22bd 9ef1 483d 24a9 69bd 5630 54bd
000001f0: 4f92 193a a89f c03c 636e 473c 7a42 a2bc
00000200: 9d23 ee3c 73ad 423d 3b2e 71bc e2a9 89ba
00000210: de67 48bd dfd3 073d 5e07 63bb 1a45 9f3c
00000220: 8240 9abd 4f96 beba 0029 8bbd 0f55 84bc
00000230: cd86 38bd b820 823d 06b6 73bd c1cc 5cbd
00000240: eb49 313b 65db c83c ff6d 3a3c b84d a6bc
00000250: 548b 1c3d 0830 4a3d 8539 59bc a30b 503a
00000260: 4350 51bd e712 223d ffe6 07bb 9ffe 9e3c
00000270: b8f2 a0bd 57f6 77bb df6a 91bd 303a 7abc
00000280: 0719 23bd 7990 583d 7555 7dbd c4c0 65bd
00000290: 62de 253a f719 d53c 6322 593c 983d adbc
000002a0: a772 003d 34c8 503d 1344 79bc 4e02 e1ba
000002b0: 4667 57bd 4194 0e3d 0d88 8fbb 49fd aa3c
000002c0: a14b a7bd 9b58 9fba deac 98bd cd9b 8cbc
000002d0: 3233 25bd 4ec6 543d a2ac 7fbd 3537 68bd
000002e0: 3abc e039 6ea6 d63c df3a 5b3c b56c afbc
000002f0: 72ac 013d d4c8 543d 0ca5 7ebc f9b3 b8ba
00000300: a29b 5bbd 64a9 093d f244 86bb 6f7b ab3c
00000310: b0e9 a7bd 4521 a3ba b9fa 97bd 2e4a 8dbc
00000320: 3d25 1abd 3884 323d 183d 66bd 5106 50bd
00000330: 3ddc 0038 41cf b73c 8b1a 303c 9ba7 9abc
00000340: d75f e43c 3c59 3f3d 8d9d 6bbc 6905 6cba
00000350: ff13 45bd 24dc f23c 5360 4cbb cd85 9c3c
00000360: e61e 99bd a534 7fba 2749 89bd 5dfb 80bc
00000370: 8027 08bd e10c 193d 4712 64bd 2e21 4fbd
00000380: 616c feba 2572 c03c 3c45 4e3c 520c aebc
00000390: 3e3c ca3c 90a6 3e3d 1dd0 81bc ea23 49bb
000003a0: fcb3 43bd 8568 cf3c b9ee a8bb ea50 a43c
000003b0: e6a9 96bd c62b b33a 7bc9 87bd 9dd6 8cbc
000003c0: 1b92 0ebd b5a9 003d a49d 60bd 58cd 4abd
000003d0: 6fee 023a 6fcc aa3c 247d 1b3c 8bc8 96bc
000003e0: b3f3 f03c eaef 393d 865e 5cbc 3d74 46b9
000003f0: b918 3fbd aa40 cc3c e819 12bb 727d 903c
-0.059444804 0.12973769 -0.062197357 -0.056686226 0.008922762 0.026363082 0.012287652 -0.020827014
0.048699904 0.050376043 -0.009802857 0.002927406 -0.051856626 0.068454534 -0.0010875503 0.017060507
-0.08135273 -0.0100859 -0.076761626 -0.012236724 -0.057478838 0.11179598 -0.064475164 -0.05846032
0.008501836 0.02653973 0.0134029295 -0.020641005 0.047349315 0.051927973 -0.010850741 0.002752165
-0.05357363 0.062741466 -0.0016863577 0.017359542 -0.08570947 -0.00867975 -0.080191046 -0.013359915
-0.05708851 0.093381085 -0.05984826 -0.054080926 0.011665694 0.022080507 0.008571159 -0.016954094
0.054636758 0.04801195 -0.007343746 0.0068162964 -0.049568325 0.059126932 0.002550482 0.014016906
-0.07988173 -0.012198317 -0.073953375 -0.009823835 -0.04690125 0.07603218 -0.060667567 -0.055337377
0.0044193184 0.025456276 0.012469389 -0.020154782 0.039479073 0.049748357 -0.012613247 0.00060058234
-0.051176526 0.046918206 -0.003129697 0.018225577 -0.07951322 -0.0050072847 -0.07367165 -0.01498565
-0.046599556 0.07261945 -0.06189055 -0.056368582 0.0038561206 0.026056271 0.013700889 -0.021485964
0.038770176 0.050949458 -0.013522037 0.00016661879 -0.052503414 0.045447793 -0.0031160016 0.018414773
-0.08119613 -0.004586349 -0.07479761 -0.01582958 -0.054173373 0.0684115 -0.05588041 -0.050334346
0.011037045 0.018535478 0.0052619115 -0.01349912 0.05240271 0.04532774 -0.0067253434 0.007977459
-0.046682563 0.049071185 0.0046693007 0.012044283 -0.07482805 -0.0117135495 -0.06774248 -0.008328363
-0.039638236 0.04905855 -0.05704607 -0.05180391 0.00058582885 0.02351363 0.012172314 -0.01980709
0.029069716 0.047528695 -0.014720495 -0.00105029 -0.04892718 0.03316104 -0.0034641842 0.01944213
-0.07531835 -0.0014540645 -0.067949295 -0.01615384 -0.04505043 0.06353897 -0.059499763 -0.053906206
0.0027052115 0.024518678 0.011378764 -0.020300731 0.03821881 0.049362212 -0.013258343 0.00079363043
-0.051101934 0.039568808 -0.002073705 0.019408522 -0.07858795 -0.003783604 -0.07100462 -0.015272662
-0.03981879 0.052872155 -0.061849076 -0.05609204 0.0006327388 0.026013358 0.013252827 -0.021147534
0.03135934 0.05097218 -0.015213984 -0.0017166825 -0.052588724 0.034809355 -0.004380232 0.020872729
-0.08168722 -0.0012157144 -0.07454847 -0.017164135 -0.040332027 0.05194693 -0.062420495 -0.056693275
0.0004286485 0.026202407 0.013380735 -0.02141414 0.031658597 0.051949337 -0.01554228 -0.0014091722
-0.05361522 0.03360881 -0.0040975744 0.020932881 -0.08198869 -0.0012445828 -0.074208684 -0.017247286
-0.03763317 0.043583125 -0.056210607 -0.050787274 3.072269e-05 0.022437694 0.010748516 -0.018878749
0.027877731 0.04671596 -0.014380825 -0.0009003492 -0.048114773 0.029645987 -0.0031185343 0.01910677
-0.074765965 -0.00097353227 -0.06703406 -0.01574486 -0.033240795 0.037365798 -0.055681493 -0.050568752
-0.0019410962 0.023491928 0.012589749 -0.02124611 0.024686929 0.046545565 -0.015846306 -0.0030691572
-0.04777907 0.025318393 -0.005155411 0.020058114 -0.07356624 0.0013669662 -0.06630226 -0.01719218
-0.034807306 0.031411845 -0.054837838 -0.049512237 0.0004994636 0.020849435 0.009490285 -0.018406173
0.02941308 0.045394816 -0.0134502705 -0.00018926054 -0.046654437 0.024933178 -0.0022293273 0.017637942

model.args_proj.proj.0.weight f4 [1, 20]
00000000: bdfa 1abe c97c f83e 25cb 74be a590 b4be
00000010: a8a0 113f 0487 653e a57d ddbd 4a7e 903e
00000020: 7849 0e3f 611b b6bb 98b2 0a3f ead1 af3e
00000030: 5fca 753a ad43 cc3e ff8f 703e d10b c3be
00000040: 1932 d4bd a0f8 09bf 7353 01bf e7b5 ed3e
-0.15134712 0.48532704 -0.23905618 -0.35266605 0.56885767 0.22414786 -0.108149804 0.2822135
0.55580854 -0.005557463 0.5417876 0.3433984 0.0009376164 0.39895383 0.2349243 -0.38094953
-0.10361118 -0.53894997 -0.5051796 0.46427843

model.args_proj.proj.1.weight f4 [1, 20]
00000000: 34a0 d83c c48a cf3b a829 3bbe 3da3 78be
00000010: fcf9 c7bd 74bc 383e 056a b83d db1c 93bd
00000020: e0de f2bc b088 783e f089 bfbd 4119 19be
00000030: baac 3cbe 219c 9fbc c088 2cbe b23a bb3d
00000040: 2b6e d6bd e36f bc3d af16 0bbe c7bc c6bd
0.026443578 0.006333681 -0.1827761 -0.2428102 -0.097644776 0.18040639 0.090045966 -0.07183238
-0.02964729 0.24270892 -0.09352481 -0.1495104 -0.18425265 -0.019483628 -0.16849041 0.091420546
-0.104702316 0.09201028 -0.13582872 -0.09703975

model.args_proj.proj.2.weight f4 [1, 20]
00000000: 16a0 853e ab3d 80be 5341 483e 75a7 4e3e
00000010: 6d88 82be 8f02 983a 4d97 d43d 3197 8ebd
00000020: 16d6 26be 58c6 18be bebe 23be 3a41 91be
00000030: b1e4 0c3e d44e 85be 349e 86be e927 b43d
00000040: 8658 393e 56cb 7c3e a3a9 633e 46c5 f6bd
0.26098698 -0.2504705 0.19556169 0.20181067 -0.2549471 0.0011597442 0.10380421 -0.06962431
-0.16292605 -0.14919412 -0.15990731 -0.28370076 0.13759114 -0.26036704 -0.26292574 0.08796675
0.18100175 0.24686942 0.2223268 -0.12049346
