generate_forecasts/output/Local_Forecasts/Vegetables and vegetable preparations/2025/models/SimpleFeedForward/W0/gluon_ts/prediction-net-state.pt (torch, 34030 bytes, 7 tensors)

model.nn.0.weight f4 [20, 32]
0.13117051 0.07290657 0.0074433004 0.06439367 0.083567776 0.058562692 0.03692778 -0.0037059765
0.03260773 0.078193255 0.15024377 0.03167719 0.04808088 0.097944066 0.0576745 0.092984095
0.08749783 -0.010103121 -0.036296353 0.0054879677 0.085817344 0.09540243 0.024875501 0.102753416
0.100652814 0.09818829 -0.010637501 0.04062002 0.02941474 -0.007862121 0.1014307 0.017778287
-0.058833778 -0.07179274 0.03433416 0.023317585 0.078255236 0.04045 0.048145346 -0.019262865
0.04473251 0.12797068 0.009106901 -0.076280735 -0.0892181 -0.0130655505 -0.06987545 -0.025580501
0.051139466 -0.036734205 -0.04044004 0.05726514 0.054384664 0.048166536 0.054946225 -0.077580266
-0.043177485 -0.023359785 -0.039786328 0.007007495 0.010958628 0.107624374 0.088643394 0.21531855
-0.37080002 -0.120698795 -0.12696584 -0.023965297 0.046174817 0.0360424 0.03523755 0.0067586643
-0.057683423 0.054659866 0.039527066 0.033849344 -0.043175116 -0.055818867 -0.10547615 -0.03684653
0.03651751 -0.05570704 -0.0004557464 -0.063051715 -0.06468576 -0.05067795 0.02552364 -0.008127741
-0.08498013 -0.066770926 -0.018541094 -0.09081427 0.031768788 0.05147733 0.16703 0.35071337
-0.012055526 -0.041948255 0.010097507 0.05881784 -0.0040572775 -0.04484664 -0.094188824 -0.05880337
0.005395109 -0.0049242927 -0.073038176 -0.006685607 -0.050872993 -0.041030183 -0.031822506 -0.049711853
-0.11006466 -0.041065034 -0.0624338 -0.10336973 -0.049164046 -0.061905235 -0.003999779 0.08771705
0.08852016 0.041317876 0.09976629 0.066555806 0.12963419 0.12512329 0.11738085 0.20013422
0.03301989 0.118525945 0.11215497 0.01982782 0.002755438 0.0018440237 -0.060561433 -0.06742987
-0.023294238 0.013224539 0.011778036 0.13467905 0.14413907 0.09761503 0.033174083 0.010145198
-0.013624278 0.07630606 -0.06449503 -0.020601999 0.061167624 -0.01708972 0.059569456 0.08998247
0.015307527 0.04151605 0.13255684 0.020009154 0.055857003 0.10532878 0.06825155 0.012515388
0.07377295 0.103043355 0.050993115 0.059458986 0.0955271 0.08771753 -0.021804528 -0.05043029
-0.046585996 0.049427915 0.09959144 0.048008107 0.11357955 0.023255004 0.07723357 0.0404943
0.11223105 0.0746587 0.027255131 0.035215158 -0.03222563 -0.0011797245 0.05495302 0.05491817
0.12017129 0.037616152 0.04586647 0.105932675 0.046914153 0.06073119 0.03312227 0.054903798
-0.041198764 -0.037259456 0.09726716 0.10645098 0.029578123 0.0807483 -0.011242234 0.1284616
0.09920637 0.16864733 0.09498007 0.03254095 -0.0024137392 -0.032858886 0.015534225 -0.005334434
0.12066897 0.06528818 0.03247251 0.06632846 0.13470054 0.042498607 0.0672634 0.08171506
0.068899795 0.049379267 0.022565404 0.062467586 0.121839054 0.032900453 0.07826895 0.025389202
0.0025341937 -0.03997864 -0.060072243 -0.0597638 -0.0868133 -0.00039807826 -0.016497573 0.07351765
0.030853085 0.08169972 0.01643642 0.01777278 -0.0390716 -0.09569991 -0.11905381 -0.02545317
-0.034696855 -0.06652712 -0.0633759 0.066621505 0.0022311995 0.11065277 0.09391283 -0.033805564
-0.024435928 0.04508106 -0.01312644 -0.02354618 -0.021046646 0.10361777 0.13506003 0.19281286
00000000: 9051 063e 0a50 953d eee6 f33b d4e0 833d
00000010: 9525 ab3d 6fdf 6f3d 9541 173d f8df 72bb
00000020: af8f 053d c923 a03d 81d9 193e f1bf 013d
00000030: 75f0 443d e696 c83d 193c 6c3d 726e be3d
00000040: 1032 b33d 9087 25bc 7cab 14bd 69d4 b33b
00000050: 01c1 af3d 5962 c33d b5c7 cb3c 6270 d23d
00000060: 1023 ce3d f116 c93d ea48 2ebc 2e61 263d
00000070: 2ef7 f03c 20d0 00bc e6ba cf3d c5a3 913c
00000080: b0fb 70bd 1208 93bd faa1 0c3d 8504 bf3c
00000090: 4844 a03d e6ae 253d 0e34 453d 28cd 9dbc
000000a0: 7039 373d bf0a 033e 1c35 153c 1339 9cbd
000000b0: fbb7 b6bd e410 56bc dc1a 8fbd 338e d1bc
000000c0: 9e77 513d 9b76 16bd 75a4 25bd da8e 6a3d
000000d0: 74c2 5e3d 464a 453d 4b0f 613d 67e2 9ebd
000000e0: e0da 30bd 055d bfbc fdf6 22bd 219f e53b
000000f0: d18b 333c 2b6a dc3d ab8a b53d 777c 5c3e
00000100: 80d9 bdbe ee30 f7bd 5503 02be df52 c4bc
00000110: ce21 3d3d 32a1 133d 4055 103d c977 dd3b
00000120: 7445 6cbd 06e3 5f3d 22e7 213d 9ca5 0a3d
00000130: 64d8 30bd 53a2 64bd e103 d8bd 63ec 16bd
00000140: 6293 153d 112d 64bd 3ff1 eeb9 4221 81bd
00000150: f879 84bd af93 4fbd f416 d13c 372a 05bc
00000160: 100a aebd 32bf 88bd 7ee3 97bc d5fc b9bd
00000170: fd1f 023d e5d9 523d ea09 2b3e b490 b33e
00000180: 8a84 45bc efd1 2bbd 0470 253c faea 703d
00000190: e9f2 84bb 1cb1 37bd 12e6 c0bd cddb 70bd
000001a0: 74c9 b03b f65b a1bb 0a95 95bd f012 dbbb
000001b0: 3360 50bd 440f 28bd 5158 02bd a89e 4bbd
000001c0: 9569 e1bd cf33 28bd 96ba 7fbd 82b3 d3bd
000001d0: 3d60 49bd 5890 7dbd 9410 83bb ffa4 b33d
000001e0: 0f4a b53d ef3c 293d 4552 cc3d 694e 883d
000001f0: d3be 043e 5220 003e 5f65 f03d fcef 4c3e
00000200: dd3f 073d bbbd f23d 81b1 e53d f46d a23c
00000210: 9494 343b 2bb3 f13a 440f 78bd ac18 8abd
00000220: 8fd3 bebc bdab 583c aaf8 403c 4ee9 093e
00000230: 3199 133e 64ea c73d 8ce1 073d 0b38 263c
00000240: 5d38 5fbc 5a46 9c3d f815 84bd 86c5 a8bc
00000250: e78a 7a3d beff 8bbc 1aff 733d bb48 b83d
00000260: 6ccc 7a3c bc0c 2a3d fbbc 073e 3dea a33c
00000270: 50ca 643d 9eb6 d73d 78c7 8b3d 580d 4d3c
00000280: 4616 973d 6508 d33d 28de 503d 448b 733d
00000290: b6a3 c33d 40a5 b33d 699f b2bc fe8f 4ebd
000002a0: f5d0 3ebd ed74 4a3d 99f6 cb3d 26a4 443d
000002b0: 659c e83d 4781 be3c a22c 9e3d 5add 253d
000002c0: 65d9 e53d a9e6 983d 2746 df3c c53d 103d
000002d0: 06ff 03bd fca0 9aba 6b16 613d e0f1 603d
000002e0: 5e1c f63d 6513 1a3d 7bde 3b3d 3bf3 d83d
000002f0: 0e29 403d 45c1 783d 38ab 073d cee2 603d
00000300: 09c0 28bd 5f9d 18bd 0134 c73d f902 da3d
00000310: d24d f23c 5d5f a53d 5931 38bc 708b 033e
00000320: b62c cb3d e3b1 2c3e e984 c23d a949 053d
00000330: d32f 1ebb 0a97 06bd 4383 7e3c 7acc aebb
00000340: 4b21 f73d cfb5 853d e501 053d 37d7 873d
00000350: f0ee 093e 0513 2e3d 65c1 893d 3a5a a73d
00000360: 561b 8d3d ea41 4a3d 15db b83c 03de 7f3d
00000370: c186 f93d a0c2 063d 794b a03d 04fd cf3c
00000380: b714 263b a4c0 23bd 500e 76bd e3ca 74bd
00000390: 2ccb b1bd 29b5 d0b9 eb25 87bc 6c90 963d
000003a0: 9cbf fc3c 2f52 a73d aca5 863c 3998 913c
000003b0: 8b09 20bd 50fe c3bd 7cd2 f3bd 2b83 d0bc
000003c0: 4a1e 0ebd 5f3f 88bd 39cb 81bd db70 883d
000003d0: 5139 123b eb9d e23d 5f55 c03d b477 0abd
000003e0: db2d c8bc eba6 383d 4810 57bc ebe3 c0bc
000003f0: 046a acbc 8e35 d43d 2d4d 0a3e bc70 453e

model.nn.0.bias f4 [20]
0.010152186 0.022910465 0.33656448 0.082617246 -0.0002511219 0.0093849795 -0.0010814492 0.040523387
-0.00036026447 0.021188527 -0.008058173 0.010588779 0.3927008 0.0 -0.0024288518 0.02005798
-0.0057436684 0.007197704 0.016647084 0.01442336
00000000: 5b55 263c baae bb3c 2e52 ac3e 3b33 a93d
00000010: 03a9 83b9 75c3 193c 6abf 8dba dafb 253d
00000020: e1e1 bcb9 9093 ad3c 6d06 04bc 8f7c 2d3c
00000030: 1410 c93e 0000 0000 5f2d 1fbb a250 a43c
00000040: 6235 bcbb b8da eb3b 775f 883c f54f 6c3c

model.nn.2.weight f4 [320, 20]
-0.11906126 -0.030184338 0.27507484 0.11747089 -0.108878426 -0.0948417 -0.008700972 0.1662126
-0.12798369 -0.043624118 -0.044277012 -0.062472068 0.24989988 -0.0055095134 -0.04585424 -0.050135463
-0.045842424 -0.045038506 -0.113749094 -0.06389064 0.1534219 0.08355347 -0.26439184 -0.0979031
0.14403048 0.12349381 0.19656636 -0.17980379 0.17414932 0.06625186 -0.06359896 0.17969805
-0.20408407 0.015747944 0.12522574 0.035793554 -0.028647564 0.06770509 0.19060256 0.16873892
-0.09814853 -0.124935016 0.10497226 -0.067202844 -0.060724698 -0.034698896 -0.14158785 -0.1900622
-0.04930885 -0.057507075 -0.03672718 -0.10160784 -0.100562274 0.0040804436 -0.06069659 -0.038895536
0.010104504 -0.12856379 -0.029220045 -0.059091825 -0.10225026 -0.16980158 0.18487968 -0.023649195
-0.010881074 -0.021526974 -0.112709716 -0.11049464 -0.036738392 -0.066747725 0.06307298 -0.13489792
-0.03449213 0.0027433124 -0.08635794 -0.07665146 -0.007119251 -0.055495527 -0.024184532 -0.089504175
-0.010256714 -0.107570454 -0.056092393 -0.14371742 0.07861241 0.102299325 0.08542575 -0.2108466
0.027774602 0.068560995 -0.035805017 0.034485757 -0.31906676 -0.01437682 0.08574491 -0.02394391
-0.025578402 -0.037325054 0.02700116 0.051062718 -0.0014968396 0.15810128 -0.042029332 0.014864241
0.023022799 0.0046059354 0.019924179 0.22491926 -0.021045942 -0.009672108 0.076799996 0.01957863
0.118340865 -0.014545044 -0.029828595 0.07147516 -0.01726411 0.024479304 0.09089604 0.012645192
-0.01852255 0.11059324 0.057889428 0.16422297 -0.03606893 -0.043771576 0.054077677 0.19947146
-0.055720765 -0.04910674 0.01376068 -0.028701559 0.25285423 -0.0010357586 -0.060645703 -0.0012560128
0.06766146 0.036188867 0.063162796 -0.042209443 -0.036676064 -0.14262101 0.040680625 -0.14238371
0.039516028 0.026316248 0.0663678 -0.12910192 0.053390127 -0.030593837 -0.036361407 -0.019974496
-0.2843695 0.005395797 0.061378367 -0.11044667 0.016901167 0.008741407 -0.055694766 -0.047409188
0.107566416 -0.01788778 -0.17096145 -0.11936077 0.102601744 0.03450472 0.08367973 -0.1756068
0.086544275 0.018931754 -0.037362024 0.029447097 -0.32401785 -0.01852582 0.15857095 -0.045139875
-0.03209079 0.08020389 0.03454004 0.028987043 0.11677618 0.18194483 -0.045233566 0.014777559
0.06652709 -0.0021166264 0.005804854 0.2223975 0.027075876 0.08444691 0.037798353 0.05943831
0.18374737 -0.0033966082 0.004658729 0.10088686 0.04347659 0.13509189 0.06392477 0.052640256
0.031946026 -0.095481396 -0.038877174 -0.06758218 0.034393463 0.051581305 0.035609074 -0.17972045
0.0796199 -0.046483032 0.04083792 -0.011255845 -0.22495207 -0.01834683 0.02419576 -0.033648394
0.008788468 0.05733717 -0.012028623 0.08574231 0.033916425 -0.050036624 -0.11045273 -0.12587485
0.07789712 0.037719533 -0.018571934 -0.13443758 0.08757398 -0.00028978678 -0.07686716 -0.014655476
-0.23608543 -0.009546104 0.04957098 -0.049842954 0.058604505 -0.0289108 -0.0026081966 0.07366858
0.018941613 -0.16628405 0.043391887 -0.09212705 -0.08469456 -0.06888259 -0.099729195 -0.24101296
-0.074929215 -0.11564092 0.054242 -0.106186695 -0.24009284 0.011154841 -0.07917104 -0.1478133
00000000: 64d6 f3bd 2545 f7bc 9cd6 8c3e 9494 f03d
00000010: a7fb debd 5d3c c2bd 868e 0ebc a333 2a3e
00000020: 280e 03be 34af 32bd d05b 35bd b6e2 7fbd
00000030: c1e5 7f3e 2689 b4bb a8d1 3bbd d85a 4dbd
00000040: 44c5 3bbd 4c7a 38bd 49f5 e8bd 19d9 82bd
00000050: a11a 1d3e 151e ab3d 5e5e 87be 6c81 c8bd
00000060: ba7c 133e 53ea fc3d b148 493e 7c1e 38be
00000070: 3354 323e 0eaf 873d 2c40 82bd c402 383e
00000080: 6afb 50be d501 813c 2d3b 003e 439c 123d
00000090: 4cae eabc f7a8 8a3d 512d 433e e5c9 2c3e
000000a0: 1902 c9bd eedd ffbd b2fb d63d a5a1 89bd
000000b0: 76ba 78bd 6e20 0ebd 68fc 10be aa9f 42be
000000c0: 14f8 49bd 8a8c 6bbd 3d6f 16bd c517 d0bd
000000d0: 98f3 cdbd 3eb5 853b fd9c 78bd ed50 1fbd
000000e0: 5d8d 253c 3aa6 03be e05e efbc 450a 72bd
000000f0: 9668 d1bd 77e0 2dbe 1951 3d3e f5bb c1bc
00000100: 8846 32bc 5659 b0bc 5ad4 e6bd 044b e2bd
00000110: ff7a 16bd 08b3 88bd 682c 813d ae22 0abe
00000120: 9f47 0dbd 25c9 333b 6fdc b0bd 71fb 9cbd
00000130: 9b48 e9bb 474f 63bd a41e c6bc f74d b7bd
00000140: c70b 28bc e64d dcbd 23c1 65bd a92a 13be
00000150: 8bff a03d 4f82 d13d b2f3 ae3d 2ce8 57be
00000160: 9087 e33c b569 8c3d 48a8 12bd f040 0d3d
00000170: b85c a3be c18c 6bbc 079b af3d 0526 c4bc
00000180: cc89 d1bc 28e2 18bd 8931 dd3c 2427 513d
00000190: 9a31 c4ba 4de5 213e f326 2cbd 2589 733c
000001a0: 4f9a bc3c 63ed 963b 0838 a33c 3c51 663e
000001b0: 8a68 acbc c377 1ebc 5149 9d3d 5d63 a03c
000001c0: b25c f23d 564e 6ebc 195b f4bc 9261 923d
000001d0: 766d 8dbc d288 c83c b427 ba3d c82d 4f3c
000001e0: 9abc 97bc b57e e23d 771d 6d3d 112a 283e
000001f0: 04bd 13bd d349 33bd 8e80 5d3d 3f42 4c3e
00000200: 753b 64bd 2624 49bd 7a74 613c 881f ebbc
00000210: 1c76 813e 4bc2 87ba a167 78bd cca0 a4ba
00000220: 1792 8a3d c73a 143d 7f5b 813d cfe3 2cbd
00000230: a439 16bd 3e0b 12be baa0 263d 09cd 11be
00000240: 8fdb 213d 2c95 d73c d7eb 873d 4b33 04be
00000250: 9baf 5a3d ed9f fabc b3ef 14bd 8ea1 a3bc
00000260: e198 91be 3acf b03b e267 7b3d dd31 e2bd
00000270: 5174 8a3c 1e38 0f3c 3220 64bd 2330 42bd
00000280: c84b dc3d 6589 92bc 8510 2fbe 6b73 f4bd
00000290: dd20 d23d d254 0d3d 4760 ab3d 45d2 33be
000002a0: 203e b13d c416 9b3c ec08 19bd 0a3b f13c
000002b0: abe5 a5be 76c3 97bc 6c60 223e 97e4 38bd
000002c0: a271 03bd f041 a43d db79 0d3d 3c76 ed3c
000002d0: 5a28 ef3d bf4f 3a3e d546 39bd 931d 723c
000002e0: 5b3f 883d 19b7 0abb a536 be3b 2cbc 633e
000002f0: 3ace dd3c 80f2 ac3d 72d2 1a3d 9675 733d
00000300: 4528 3c3e a199 5ebb 40a8 983b c59d ce3d
00000310: 8214 323d 8755 0a3e fdea 823d 4f9d 573d
00000320: d6d9 023d c08b c3bd ac3d 1fbd 8768 8abd
00000330: 29e0 0c3d eb46 533d d2da 113d a308 38be
00000340: c20f a33d fe64 3ebd aa45 273d 706a 38bc
00000350: d659 66be 174c 96bc 3036 c63c e6d2 09bd
00000360: 82fd 0f3c 61da 6a3d b413 45bc aa99 af3d
00000370: f3eb 0a3d 34f3 4cbd 0a35 e2bd 56e5 00be
00000380: 8688 9f3d cc7f 1a3d 2b24 98bc 01aa 09be
00000390: fd59 b33d 86ee 97b9 886c 9dbd 861d 70bc
000003a0: 61c0 71be 4367 1cbc f10a 4b3d 2028 4cbd
000003b0: 470b 703d 58d6 ecbc 47ee 2abb 8ddf 963d
000003c0: 712b 9b3c 5e46 2abe b1bb 313d 1bad bcbd
000003d0: 5774 adbd 5112 8dbd d23e ccbd 1acc 76be
000003e0: 7d74 99bd 26d5 ecbd dc2c 5e3d 6978 d9bd
000003f0: e6da 75be cbc2 363c 6d24 a2bd 5f5c 17be

model.nn.2.bias f4 [320]
-0.034393746 -0.007564175 -0.056935847 -0.052274216 -0.008109144 0.02485631 0.016865874 -0.026048828
0.0020374146 0.04985236 -0.023701027 -0.0061453646 -0.051266946 0.017108897 -0.007983133 0.0260972
-0.07480664 0.007816214 -0.065456696 -0.02335953 -0.038371548 -0.013784219 -0.0565703 -0.0513726
-0.0049048727 0.022302886 0.014048756 -0.024053121 0.005233981 0.048676316 -0.021340687 -0.0027736693
-0.05042529 0.019113226 -0.0045853625 0.023551226 -0.076330654 0.004811792 -0.06609875 -0.02116718
-0.036120884 -0.01840077 -0.04899535 -0.044128 -0.003095966 0.016096137 0.008652551 -0.019029204
0.004690532 0.042794548 -0.017954405 0.00051507255 -0.044283446 0.012653092 -0.00072815985 0.01910652
-0.06730878 0.0030376127 -0.055670492 -0.017614566 -0.028175993 -0.028722191 -0.05050604 -0.045920994
-0.009084352 0.019660506 0.012600479 -0.022749582 -0.0060642227 0.044919655 -0.022957811 -0.0046769236
-0.046399716 0.00263178 -0.0055184737 0.022869302 -0.06783202 0.009096748 -0.056267835 -0.022726158
-0.027821906 -0.032381512 -0.051317427 -0.046516553 -0.010808207 0.019750457 0.012880086 -0.02381478
-0.009991622 0.046096597 -0.024830801 -0.005422976 -0.04762963 -0.0006829822 -0.0058687245 0.024107767
-0.06917508 0.010700268 -0.056266796 -0.02412248 -0.037459675 -0.021594467 -0.04637224 -0.041294206
-0.0029895098 0.012547854 0.0049211797 -0.016724324 0.006798672 0.041318234 -0.017891798 0.0028055971
-0.042805992 0.007013321 0.0024017529 0.017600972 -0.064805076 0.0026047607 -0.050633244 -0.016687922
-0.022045061 -0.03260791 -0.05275884 -0.04805909 -0.015585907 0.022274867 0.016143555 -0.026991919
-0.017005783 0.048118483 -0.028595306 -0.009507697 -0.049568355 -0.0067481287 -0.009611278 0.028391464
-0.0701803 0.015354501 -0.057053667 -0.027310956 -0.021881761 -0.023577312 -0.055968367 -0.051231723
-0.017420292 0.02527669 0.018822072 -0.02993709 -0.016067674 0.05129989 -0.030883662 -0.011734591
-0.052745286 -0.0054724547 -0.012042849 0.03147048 -0.0734083 0.017114671 -0.06037479 -0.030004641
-0.020065546 -0.016617244 -0.06397104 -0.058824416 -0.018745186 0.030438261 0.022890424 -0.033356424
-0.013498781 0.05744553 -0.033136375 -0.014321484 -0.05913443 -0.0041333297 -0.015018097 0.03470772
-0.08307629 0.01860051 -0.07104877 -0.032893036 -0.017199926 -0.017401706 -0.06299145 -0.05824223
-0.020121923 0.031086065 0.023630604 -0.034005225 -0.015173658 0.05718885 -0.033713907 -0.015656397
-0.058628745 -0.007780339 -0.016339282 0.035204194 -0.08068177 0.019934356 -0.06912886 -0.033120114
-0.014730368 -0.020855619 -0.05927682 -0.054895774 -0.019511895 0.029536568 0.022452472 -0.03244204
-0.013860462 0.05392143 -0.031905986 -0.015501445 -0.05513141 -0.008545529 -0.01616993 0.033394676
-0.07581238 0.019217659 -0.065189466 -0.031198276 -0.010272626 -0.03511688 -0.056234263 -0.05198486
-0.020365864 0.027618902 0.021506261 -0.031463087 -0.01812997 0.05124078 -0.031638794 -0.01564062
-0.052358188 -0.01509687 -0.015960969 0.032292094 -0.07248028 0.020148974 -0.061876677 -0.030467607
-0.015266722 -0.039347686 -0.0495076 -0.04527799 -0.01426366 0.020488566 0.014351396 -0.024898259
-0.011944815 0.044841092 -0.025330799 -0.009053714 -0.045895156 -0.011260761 -0.009214559 0.025535334
00000000: 75e0 0cbd e6dc f7bb 9035 69bd 7d1d 56bd
00000010: 37dc 04bc 769f cb3c 4d2a 8a3c 5a64 d5bc
00000020: 2586 053b fd31 4c3d a828 c2bc 0e5f c9bb
00000030: 4afd 51bd f527 8c3c b0cb 02bc ccc9 d53c
00000040: 3934 99bd 940f 003c 290e 86bd 7c5c bfbc
00000050: 7c2b 1dbd 34d7 61bc 42b6 67bd 136c 52bd
00000060: 0eb9 a0bb 8bb4 b63c c12c 663c 0d0b c5bc
00000070: d181 ab3b d160 473d aad2 aebc 73c6 35bb
00000080: c08a 4ebd 5793 9c3c cf40 96bb 80ee c03c
00000090: 3f53 9cbd 3dac 9d3b c85e 87bd cb66 adbc
000000a0: 7ef3 13bd 36bd 96bc 59af 48bd 90bf 34bd
000000b0: b1e5 4abb 0cdc 833c 6ec3 0d3c 22e3 9bbc
000000c0: 09b3 993b 5649 2f3d 1e15 93bc ef05 073a
000000d0: 8f62 35bd ea4e 4f3c fbe1 3eba 4785 9c3c
000000e0: 30d9 89bd af12 473b be06 64bd 6c4c 90bc
000000f0: 57d1 e6bc cd4a ebbc 6cdf 4ebd a717 3cbd
00000100: 89d6 14bc 120f a13c 3d72 4e3c 555d babc
00000110: 63b6 c6bb acfd 373d 0512 bcbc e140 99bb
00000120: a10d 3ebd f179 2c3b 50d4 b4bb 6758 bb3c
00000130: 84eb 8abd 870a 153c 1a79 66bd 352c babc
00000140: c4ea e3bc 7aa2 04bd 3932 52bd 2488 3ebd
00000150: e814 31bc b6cb a13c ff06 533c 3717 c3bc
00000160: e6b3 23bc c9cf 3c3d f769 cbbc 38b3 b1bb
00000170: 4917 43bd 290a 33ba 6e4e c0bb a77d c53c
00000180: aaab 8dbd 2d50 2f3c 0378 66bd 829c c5bc
00000190: 516f 19bd e1e6 b0bc d1f0 3dbd 1d24 29bd
000001a0: a7eb 43bb 8495 4d3c d941 a13b 7301 89bc
000001b0: 65c7 de3b 4f3d 293d d291 92bc 1cde 373b
000001c0: 5655 2fbd 00d0 e53b ba66 1d3b ea2f 903c
000001d0: 86b8 84bd a2b4 2a3b ce64 4fbd 1cb5 88bc
000001e0: d897 b4bc df8f 05bd a719 58bd 9cd9 44bd
000001f0: 085c 7fbc c879 b63c 7d3f 843c 281e ddbc
00000200: b64f 8bbc e317 453d b440 eabc 2cc6 1bbc
00000210: 3008 4bbd 681f ddbb 9f78 1dbc 3795 e83c
00000220: b0ba 8fbd 7291 7b3c 1bb1 69bd 3abb dfbc
00000230: 6141 b3bc 3525 c1bc 163f 65bd 5bd8 51bd
00000240: 00b5 8ebc 1011 cf3c bf30 9a3c a13e f5bc
00000250: 5ba0 83bc d51f 523d bcff fcbc 7142 40bc
00000260: 710b 58bd 4752 b3bb 5f4f 45bc 31e7 003d
00000270: 1757 96bd 1134 8c3c 8e4b 77bd 4bcc f5bc
00000280: 8060 a4bc e320 88bc 4003 83bd dff1 70bd
00000290: 818f 99bc a959 f93c b384 bb3c bfa0 08bd
000002a0: fe29 5dbc 014c 6b3d 02ba 07bd a8a4 6abc
000002b0: f236 72bd e270 87bb 770e 76bc af29 0e3d
000002c0: e723 aabd 1960 983c 0482 91bd d9ba 06bd
000002d0: dce6 8cbc 068e 8ebc a901 81bd 688f 6ebd
000002e0: bbd6 a4bc 34a8 fe3c f894 c13c 1049 0bbd
000002f0: ef9a 78bc db3e 6a3d 9817 0abd d841 80bc
00000300: b224 70bd 37f2 febb f5d9 85bc 4632 103d
00000310: 7c3c a5bd 604d a33c 6f93 8dbd f5a8 07bd
00000320: a457 71bc 67d9 aabc 40cc 72bd 64da 60bd
00000330: 69d7 9fbc acf6 f13c 3fee b73c f2e1 04bd
00000340: fe16 63bc b8dc 5c3d daaf 02bd c6f9 7dbc
00000350: 79d1 61bd 8c02 0cbc cd76 84bc dbc8 083d
00000360: 8543 9bbd 5a6e 9d3c 0e82 85bd 8793 ffbc
00000370: 844e 28bc b8d6 0fbd e655 66bd 14ee 54bd
00000380: 50d6 a6bc 0941 e23c e62d b03c 70df 00bd
00000390: 4e85 94bc dae1 513d ae97 01bd c220 80bc
000003a0: 8a75 56bd dd58 77bc 94c0 82bc b744 043d
000003b0: 8b70 94bd 760f a53c 6672 7dbd 3497 f9bc
000003c0: 4621 7abc 0a2b 21bd 7bc8 4abd 6a75 39bd
000003d0: 20b2 69bc a3d7 a73c 1e22 6b3c 6ff7 cbbc
000003e0: 2fb4 43bc 4bab 373d 8982 cfbc 0756 14bc
000003f0: 8ffc 3bbd 0e7f 38bc a9f8 16bc 7a2f d13c

model.args_proj.proj.0.weight f4 [1, 20]
-0.32398447 0.6606097 -0.2665695 -0.3952426 0.7692181 0.20700851 -0.20684548 0.39647338
0.7740177 -0.050490167 0.6931917 0.50635827 0.036679972 0.58763963 0.383838 -0.52084625
-0.1343657 -0.74242926 -0.6019901 0.56401056
00000000: 4be1 a5be b81d 293f cc7b 88be 3d5d cabe
00000010: 7aeb 443f 0afa 533e 4dcf 53be 8ffe ca3e
00000020: 0626 463f c7ce 4ebd 0375 313f b2a0 013f
00000030: bd3d 163d 8d6f 163f 6a86 c43e 2e56 05bf
00000040: 2997 09be d80f 3ebf 061c 1abf ff62 103f

model.args_proj.proj.1.weight f4 [1, 20]
0.03179836 0.005203405 -0.19366567 -0.25381956 -0.118885905 0.21356921 0.1752338 -0.1674646
-0.038306355 0.2557869 -0.12594704 -0.16971378 -0.19558613 -0.024255082 -0.19967669 0.18653016
-0.11083849 0.10940237 -0.14594884 -0.14205803
00000000: ff3e 023d 5381 aa3b 4b50 46be a3f4 81be
00000010: 747a f3bd e3b1 5a3e 7d70 333e d77b 2bbe
00000020: 20e7 1cbd 80f6 823e 43f8 00be 73c9 2dbe
00000030: bb47 48be 98b2 c6bc 0c78 4cbe c301 3f3e
00000040: 4aff e2bd 5a0e e03d 9d73 15be a977 11be

model.args_proj.proj.2.weight f4 [1, 20]
0.20385963 -0.20635183 0.16960452 0.18110853 -0.1892301 -0.010237627 0.06135685 -0.028416878
-0.115533784 -0.13196602 -0.082039095 -0.214015 0.11945693 -0.21357968 -0.19172928 0.045487083
0.15506138 0.18565917 0.19279087 -0.056229673
00000000: 94c0 503e e54d 53be cfac 2d3e 8474 393e
00000010: 89c5 41be b8bb 27bc 5251 7b3d 83ca e8bc
00000020: fa9c ecbd 1a22 07be 1d04 a8bd c026 5bbe
00000030: d6a5 f43d a2b4 5abe ae54 44be aa50 3a3d
00000040: 69c8 1e3e 701d 3e3e f86a 453e 1651 66bd
