generate_forecasts/output/Local_Forecasts/Other food products and non-alcoholic beverages/2023/models/SimpleFeedForward/W0/gluon_ts/prediction-net-state.pt (torch, 34030 bytes, 7 tensors)

model.nn.0.weight f4 [20, 32]
0.09979907 0.053311016 0.0023610515 0.07631735 0.111183405 0.11014689 0.09592541 0.046178874
0.05132368 0.068558395 0.12807718 0.011883821 0.03510939 0.09878244 0.066706814 0.10793782
0.11249048 0.026683094 0.0062792464 0.03765656 0.10065088 0.09284882 0.017024713 0.09882584
0.09948065 0.10154943 -0.004621192 0.044863068 0.035141 -0.0030382841 0.098571606 -0.016839216
-0.010501213 -0.034561437 0.04469949 0.013202645 0.05908544 0.033239257 0.034676332 -0.04670333
-0.005528795 0.088821046 0.0009344092 -0.049712818 -0.041740343 0.036811262 -0.04379812 -0.0233446
0.039913934 -0.054409016 -0.06130797 0.030276474 0.023069765 0.04172865 0.09144639 -0.0015515726
0.0489137 0.05864234 0.011973489 0.027698705 0.013738003 0.09995063 0.042427573 0.10017398
-0.060171112 -0.013347643 -0.0994602 -0.028858444 -0.036062773 -0.09787595 -0.10231517 -0.02997574
-0.10880536 -0.059248388 -0.10046263 -0.011994111 -0.11995362 -0.037928794 -0.06549867 -0.03541569
0.030443357 -0.026872082 0.06374431 -0.02502915 0.027378852 0.039748408 0.087557085 0.08338887
0.0081054205 0.039190166 0.095900565 0.034808356 0.12754422 0.092330635 0.107293025 0.19223623
-0.037530795 -0.07626585 -0.028336119 0.029594604 -0.031251643 -0.042562608 -0.07665443 -0.027799957
0.02577626 0.00041852467 -0.08076395 -0.016488139 -0.067899846 -0.0552752 -0.045788914 -0.056608383
-0.10090779 -0.016781457 -0.019691909 -0.059271477 -0.007901035 -0.036229163 0.009783026 0.1074878
0.0982318 0.04290243 0.10043563 0.06588706 0.12130854 0.1177764 0.079628214 0.113810755
0.013695684 0.1055498 0.11179836 0.036155425 0.03434002 0.05836807 0.011064057 0.0088593345
0.03770889 0.046412855 0.020107223 0.12929755 0.12990087 0.09233376 0.03390323 0.015313471
0.004940453 0.11605361 -0.010044085 0.03365074 0.11281624 0.011231306 0.06252435 0.07972345
-0.006230495 0.02373484 0.11949434 0.006472142 0.043931294 0.09585971 0.059407093 -0.0017803796
0.06958161 0.103172824 0.046607304 0.05287634 0.095468275 0.11579793 0.033259243 0.018800486
0.0072125746 0.0744951 0.098561555 0.03670577 0.1059689 0.026515234 0.07397045 0.027512094
0.10333149 0.08568507 0.06304081 0.08490227 0.016681578 0.02154398 0.052290868 0.047660537
0.11284276 0.036005743 0.036229413 0.08161811 0.01749214 0.041501485 0.029227491 0.057564728
0.0030288124 0.00090705586 0.11725069 0.11365442 0.03776193 0.10976622 0.020444833 0.14064293
0.0784829 0.14114068 0.087672226 0.056283563 0.04223021 0.015477243 0.044567626 0.000517309
0.11847958 0.07150407 0.044650853 0.07037378 0.12557846 0.04262225 0.094241135 0.12817724
0.12062692 0.08776593 0.02921226 0.037771396 0.08934347 0.004145358 0.04983726 -0.036728516
0.057606842 0.038757022 0.029158201 0.029091997 -0.004305389 0.082807004 0.052804153 0.12176674
0.048486926 0.09294194 0.036294013 0.061344057 0.03291877 0.0055318014 -0.001974817 0.09750671
0.08186272 0.030487077 0.0067375526 0.1098693 0.02437061 0.13627504 0.13549215 0.0333508
0.0609171 0.13608193 0.0668584 0.03441876 0.00251195 0.08952124 0.04361729 -0.010765338
00000000: 7463 cc3d a75c 5a3d dfbb 1a3b 454c 9c3d
00000010: 20b4 e33d b194 e13d 8b74 c43d 0f26 3d3d
00000020: c738 523d 5868 8c3d aa26 033e 5cb4 423c
00000030: ddce 0f3d 734e ca3d 959d 883d 810e dd3d
00000040: 6961 e63d 8196 da3c 23c2 cd3b c43d 1a3d
00000050: 0c22 ce3d 8627 be3d 6977 8b3c 3465 ca3d
00000060: 83bc cb3d 26f9 cf3d 5e6d 97bb 56c2 373d
00000070: 02f0 0f3d f31d 47bb e9df c93d 65f2 89bc
00000080: 480d 2cbc 4b90 0dbd d016 373d e84f 583c
00000090: 9303 723d e325 083d c508 0e3d fe4b 3fbd
000000a0: e52a b5bb cfe7 b53d 24f3 743a ab9f 4bbd
000000b0: ecf7 2abd 68c7 163d a865 33bd 2d3d bfbc
000000c0: cb7c 233d fddb 5ebd 111e 7bbd 5e06 f83c
000000d0: cefc bc3c a9eb 2a3d 3f48 bb3d 235e cbba
000000e0: bb59 483d f332 703d 742c 443c 65e8 e23c
000000f0: 5c15 613c eab2 cc3d 89c8 2d3d 0428 cd3d
00000100: fc75 76bd 13b0 5abc cab1 cbbd 8b68 ecbc
00000110: 8fb6 13bd 3073 c8bd 9e8a d1bd af8f f5bc
00000120: 58d5 debd 70ae 72bd 5abf cdbd f382 44bc
00000130: 3eaa f5bd 395b 1bbd 2b24 86bd 0b10 11bd
00000140: 5964 f93c d722 dcbc 608c 823d ef09 cdbc
00000150: 9d49 e03c 3acf 223d 2151 b33d c9c7 aa3d
00000160: 99cc 043c de85 203d 8467 c43d 3593 0e3d
00000170: f49a 023e d817 bd3d 72bc db3d 93d9 443e
00000180: e4b9 19bd 4531 9cbd 2621 e8bc 6270 f23c
00000190: b901 00bd 2156 2ebd fffc 9cbd bcbc e3bc
000001a0: bc28 d33c 6e6d db39 9267 a5bd 2212 87bc
000001b0: 130f 8bbd 4068 62bd 288d 3bbd 31de 67bd
000001c0: bea8 cebd 4479 89bc ed50 a1bc a6c6 72bd
000001d0: 5873 01bc 0865 14bd fc48 203c 9022 dc3d
000001e0: c12d c93d 75ba 2f3d 32b1 cd3d cbef 863d
000001f0: 9d70 f83d c134 f13d 1e14 a33d 9d15 e93d
00000200: dd63 603c 7e2a d83d 8af6 e43d b617 143d
00000210: 1fa8 0c3d 5b13 6f3d 0546 353c be26 113c
00000220: a374 1a3d 681b 3e3d e7b7 a43c 9466 043e
00000230: bc04 053e 7b19 bd3d 1dde 0a3d 5ae5 7a3c
00000240: 86e3 a13b 84ad ed3d f28f 24bc 5cd5 093d
00000250: 330c e73d 8303 383c c40c 803d 0c46 a33d
00000260: 2e29 ccbb 916f c23c 73b9 f43d 4314 d43b
00000270: 4df1 333d 1852 c43d da54 733d a05b e9ba
00000280: ce80 8e3d 464c d33d 4de7 3e3d dc94 583d
00000290: df84 c33d 7727 ed3d d83a 083d 7a03 9a3c
000002a0: 7657 ec3b e390 983d a4da c93d ca58 163d
000002b0: 3906 d93d 7a36 d93c d27d 973d 0b61 e13c
000002c0: 769f d33d a77b af3d 8a1b 813d 3ee1 ad3d
000002d0: cea7 883c 007d b03c f32e 563d b237 433d
000002e0: 1b1a e73d c27a 133d 4b65 143d 6527 a73d
000002f0: ad4b 8f3c 76fd 293d 7e6e ef3c fec8 6b3d
00000300: 0a7f 463b 7dc7 6d3a 2121 f03d a6c3 e83d
00000310: 41ac 1a3d 1dcd e03d ec7b a73c b304 103e
00000320: a5bb a03d 2f87 103e 7f8d b33d 9889 663d
00000330: 96f9 2c3d 4394 7d3c 8b8c 363d 059c 073a
00000340: 6ca5 f23d ba70 923d d0e3 363d 2120 903d
00000350: a497 003e ab94 2e3d 7f01 c13d e540 033e
00000360: 3f0b f73d a0be b33d 8d4e ef3c 2eb6 1a3d
00000370: b6f9 b63d c9d5 873b 2822 4c3d a470 16bd
00000380: 27f5 6b3d afbf 1e3d 2edd ee3c 5752 ee3c
00000390: 3814 8dbb b896 a93d 2b49 583d d760 f93d
000003a0: 3a9a 463d 5858 be3d 08a9 143d e843 7b3d
000003b0: d5d5 063d 1d44 b53b ee6b 01bb 99b1 c73d
000003c0: a4a7 a73d 09c0 f93c b0c6 dc3b 2803 e13d
000003d0: e0a4 c73c af8b 0b3e 74be 0a3e d99a 083d
000003e0: 3684 793d 1059 0b3e 0fed 883d b0fa 0c3d
000003f0: 879f 243b e956 b73d 0ba8 323d 1a61 30bc

model.nn.0.bias f4 [20]
0.054038603 0.026844844 0.08437855 0.04323046 0.05311966 0.05294865 0.05950222 0.067666546
0.048159923 0.05598373 -0.0074306517 0.04278424 0.081285596 0.0 0.059859443 0.020232033
-0.005910091 0.044984136 0.05301246 0.048289873
00000000: 9557 5d3d b8e9 db3c a9ce ac3d 6c12 313d
00000010: 0094 593d afe0 583d 9ab8 733d c294 8a3d
00000020: 5743 453d 324f 653d d37c f3bb 873e 2f3d
00000030: 1079 a63d 0000 0000 2d2f 753d a6bd a53c
00000040: 70a9 c1bb 4941 383d 9823 593d 9acb 453d

model.nn.2.weight f4 [320, 20]
-0.11836621 -0.10362046 0.2578 0.20295805 -0.10620841 -0.09069897 -0.011161809 -0.10009715
-0.12757012 -0.055459898 -0.047834303 -0.080547735 0.23204833 -0.0100281425 -0.046300076 -0.064275965
-0.057539515 -0.05573507 -0.114423476 -0.06628085 0.1318063 0.058533717 -0.13938688 -0.17624636
0.12690192 0.1109331 0.15981366 0.022020953 0.13918957 0.04827449 -0.06218182 0.16541824
-0.18230633 0.02831939 0.0958541 0.022862017 -0.04386098 0.035055503 0.16880816 0.15602516
-0.103698485 -0.06459743 -0.040776193 -0.08328065 -0.07592881 -0.045718394 -0.13809244 -0.1192198
-0.049447276 -0.051089782 -0.03064801 -0.09454231 -0.046542678 0.007440097 -0.06428267 -0.02123386
0.011711945 -0.12683192 -0.03112294 -0.065807804 -0.107120626 -0.107841566 0.04165032 -0.038597625
-0.025227891 -0.031802304 -0.1084992 -0.03395592 -0.036282204 -0.0595004 0.06566535 -0.12851456
0.019567864 0.0050103622 -0.0892677 -0.061057698 -0.008108326 -0.052548055 -0.025389794 -0.09537425
-0.0139864795 -0.0325939 -0.08107231 -0.19325125 0.07145264 0.09351696 0.08824382 0.030461075
0.027028646 0.07754873 -0.03331833 0.048740886 -0.20490603 -0.025894245 0.08415479 -0.0074119475
-0.028234176 -0.027414229 0.025890883 0.048858114 -0.0004812076 0.08379189 0.06441375 0.03410704
0.027872298 0.010667125 0.010327879 0.035134222 -0.024489611 -0.022087395 0.07511771 0.0034544219
0.030651674 -0.02619218 -0.03253943 0.043247033 -0.018941138 0.009007036 0.0884256 0.013732829
-0.017248455 0.031108381 0.13879216 0.19465944 -0.031629845 -0.037304226 0.046415124 -0.018809604
-0.05832556 -0.0614166 0.011110859 -0.045743782 0.14135292 -0.0018957715 -0.062300198 -0.02618895
0.0754745 0.021414313 0.061123792 -0.041991625 -0.040911578 -0.06595211 -0.04313714 -0.17695604
0.032069005 0.01673083 0.07152323 0.08441007 0.05303854 -0.021151202 -0.033977907 -0.005731788
-0.15164107 0.009822524 0.060348883 -0.08947885 0.01907713 0.020894835 -0.056610614 -0.05108965
0.09787687 0.053793736 -0.121774465 -0.18174247 0.09055603 0.023424406 0.08147529 0.08445491
0.08623248 0.023501458 -0.035492104 0.03870417 -0.17637494 -0.03321071 0.15131427 -0.033586957
-0.059432644 0.084891155 0.030963369 0.021003217 0.121897474 0.11344125 0.06734842 0.03716349
0.07851353 0.008384807 0.0017564672 0.0990224 0.027293824 0.0771123 0.035702456 0.048677873
0.07726351 -0.0061984863 0.007516391 0.079752 0.048208367 0.12654597 0.06548665 0.061164454
0.028689057 -0.019548291 -0.091068044 -0.10970177 0.027895646 0.043046866 0.040459137 0.04596658
0.07981174 -0.03661471 0.04397827 0.0035396237 -0.083450206 -0.032896448 0.023616359 -0.014099953
0.009834626 0.06932376 -0.01226526 0.08343737 0.03197704 0.026547719 -0.15689343 -0.16616517
0.07261702 0.03079345 -0.013469204 0.09861903 0.088928245 0.010548791 -0.07458468 0.0011811064
-0.1407795 -0.017290905 0.04983654 -0.027956724 0.062875 -0.01675142 -0.0016735919 0.07337389
0.013699555 -0.09836962 -0.07251163 -0.11546833 -0.09674424 -0.07955895 -0.09580337 -0.11977567
-0.07524817 -0.10848185 0.058357183 -0.09555372 -0.13410679 0.020166455 -0.08211408 -0.12724313
00000000: fc69 f2bd f736 d4bd 5dfe 833e 3cd4 4f3e
00000010: cb83 d9bd 62c0 b9bd 05e0 36bc bcff ccbd
00000020: bea1 02be eb29 63bd e7ed 43bd 36f6 a4bd
00000030: 149e 6d3e 144d 24bc 26a5 3dbd 1ea3 83bd
00000040: 8eae 6bbd 754a 64bd db56 eabd 41be 87bd
00000050: 3bf8 063e 0dc1 6f3d 6fbb 0ebe ed79 34be
00000060: 94f2 013e e530 e33d 31a6 233e 4965 b43c
00000070: b687 0e3e 79bb 453d 5db2 7ebd 6663 293e
00000080: 83ae 3abe 11fe e73c 284f c43d 2049 bb3c
00000090: 92a7 33bd 5c96 0f3d 0cdc 2c3e 0fc5 1f3e
000000a0: df5f d4bd a84b 84bd f004 27bd 0c8f aabd
000000b0: 9080 9bbd 3643 3bbd 1b68 0dbe 8329 f4bd
000000c0: 3a89 4abd 8543 51bd 8911 fbbc 669f c1bd
000000d0: 89a3 3ebd 0fcc f33b a2a6 83bd a2f2 adbc
000000e0: 75e3 3f3c 3ae0 01be 89f5 febc 3ec6 86bd
000000f0: 0f62 dbbd 0adc dcbd 8799 2a3d 8b18 1ebd
00000100: b9aa cebc 2243 02bd d434 debd 5d15 0bbd
00000110: a69c 14bd b1b6 73bd 8e7b 863d 5299 03be
00000120: c94c a03c f72d a43b fcd1 b6bd a317 7abd
00000130: c9d8 04bc a13c 57bd 42fe cfbc 9353 c3bd
00000140: 8c27 65bc 2e81 05bd 3d09 a6bd a8e3 45be
00000150: c355 923d d285 bf3d 2db9 b43d 8189 f93c
00000160: 2e6b dd3c ded1 9e3d cd78 08bd 86a4 473d
00000170: e3d2 51be 2b20 d4bc 5959 ac3d ecdf f2bb
00000180: 5c4b e7bc ce93 e0bc 1e19 d43c 721f 483d
00000190: 974a fcb9 159b ab3d 5beb 833d d3b3 0b3d
000001a0: 7254 e43c 2ac5 2e3c 4436 293c e7e8 0f3d
000001b0: 709e c8bc a0f0 b4bc 50d7 993d 9563 623b
000001c0: 3819 fb3c fc90 d6bc 1148 05bd cd23 313d
000001d0: 722a 9bbc 3f92 133c 7b18 b53d a9ff 603c
000001e0: a24c 8dbc 01d7 fe3c 881f 0e3e ce54 473e
000001f0: 4c8e 01bd 51cc 18bd c91d 3e3d 9916 9abc
00000200: c8e6 6ebd f98f 7bbd 520a 363c d55d 3bbd
00000210: d2be 103e 897b f8ba 7e2e 7fbd 358a d6bc
00000220: 6092 9a3d 126d af3c f15c 7a3d 69ff 2bbd
00000230: e692 27bd e611 87bd 92b0 30bd f733 35be
00000240: ca5a 033d 180f 893c c57a 923d 30df ac3d
00000250: f13e 593d 4945 adbc 6b2c 0bbd b9d1 bbbb
00000260: cc47 1bbe a7ee 203c 6430 773d b040 b7bd
00000270: a447 9c3c a52b ab3c 88e0 67bd 6143 51bd
00000280: ab73 c83d d256 5c3d e464 f9bd b31a 3abe
00000290: 7175 b93d 8ae4 bf3c 84dc a63d b2f6 ac3d
000002a0: a89a b03d 2186 c03c 2b60 11bd 4488 1e3d
000002b0: a29b 34be f407 08bd 21f2 1a3e 7a92 09bd
000002c0: a56f 73bd 6adb ad3d e4a6 fd3c f00e ac3c
000002d0: 62a5 f93d e353 e83d f8ed 893d be38 183d
000002e0: b4cb a03d 6e60 093c 4239 e63a 42cc ca3d
000002f0: 4c97 df3c 0eed 9d3d bd3c 123d 7362 473d
00000300: 553c 9e3d ac1c cbbb 0f4c f63b 0455 a33d
00000310: 2376 453d 4495 013e dd1d 863d 9487 7a3d
00000320: 5005 eb3c bd23 a0bc e281 babd 52ab e0bd
00000330: 6985 e43c e951 303d 7bb8 253d 7447 3c3d
00000340: 5674 a33d 4ef9 15bd 8f22 343d 08f9 673b
00000350: f1e7 aabd 6dbe 06bd 1877 c13c 7d03 67bc
00000360: 6921 213c 9ef9 8d3d 3bf4 48bc 36e1 aa3d
00000370: 5bfa 023d 9a7a d93c aca8 20be 3427 2abe
00000380: 3bb8 943d 8c42 fc3c f0ad 5cbc c6f8 c93d
00000390: 0320 b63d d6d4 2c3c dabf 98bd 5bcf 9a3a
000003a0: 8028 10be a8a5 8dbc 6621 4c3d 8005 e5bc
000003b0: 9cc4 803d 463a 89bc 6d5c dbba 0d45 963d
000003c0: 1974 603c 0376 c9bd fa80 94bd a97a ecbd
000003d0: d821 c6bd ceef a2bd 8f34 c4bd f24c f5bd
000003e0: b61b 9abd bb2b debd f107 6f3d abb1 c3bd
000003f0: 4a53 09be 1f34 a53c 6d2b a8bd 064c 02be

model.nn.2.bias f4 [320]
-0.05377429 0.09988156 -0.057983 -0.053560738 0.011785723 0.022905834 0.008841316 -0.016305028
0.054074246 0.046524387 -0.006219135 0.0058516446 -0.047987595 0.06027948 0.001828013 0.013019557
-0.07721383 -0.0123391 -0.0735558 -0.008993843 -0.05860845 0.107149124 -0.06113403 -0.056286618
0.012558341 0.024435718 0.009641182 -0.017274326 0.05741844 0.048731506 -0.00632302 0.005924823
-0.050450653 0.066862665 0.0016328971 0.0137631595 -0.08210742 -0.013108373 -0.07821572 -0.009577451
-0.059512686 0.10697762 -0.05594387 -0.051446304 0.016295468 0.019800194 0.004978452 -0.012803992
0.063152686 0.044300556 -0.0023314287 0.010100725 -0.04576803 0.06570284 0.0059041874 0.009457113
-0.07545268 -0.016909007 -0.07167142 -0.0051050214 -0.05344473 0.10104685 -0.058387164 -0.054119024
0.011207069 0.023832923 0.009525203 -0.01677473 0.054689795 0.0471208 -0.0067563974 0.005155023
-0.04855171 0.05999661 0.0010435525 0.013682612 -0.07716886 -0.011685761 -0.07367101 -0.009683289
-0.054612536 0.09897769 -0.05865541 -0.054161977 0.0126063805 0.02289602 0.008305029 -0.016116776
0.057014335 0.04711809 -0.005751976 0.0066537308 -0.04865742 0.05999686 0.0026122069 0.01265202
-0.07803776 -0.0132045625 -0.07412959 -0.008609809 -0.06341836 0.10371445 -0.05259301 -0.048003573
0.021406347 0.014741962 -0.00089415454 -0.0075511215 0.07083515 0.041059412 0.0027396642 0.015504718
-0.042480677 0.06698341 0.011519286 0.004371002 -0.07195016 -0.022151768 -0.06761313 0.0002536738
-0.050859604 0.08926306 -0.054979935 -0.05074688 0.011406379 0.0209662 0.007276134 -0.014660716
0.052817535 0.044268157 -0.005338744 0.006212041 -0.04564208 0.05483203 0.0025343662 0.011825082
-0.07343559 -0.011968227 -0.06938906 -0.008012491 -0.052476138 0.09124878 -0.05443661 -0.050067615
0.012559535 0.01962333 0.0059116934 -0.013933154 0.056054447 0.043725632 -0.004582933 0.0076051755
-0.04516796 0.055495918 0.00403359 0.0109443925 -0.07310628 -0.013231033 -0.06865595 -0.0069873044
-0.054633036 0.09423716 -0.059992176 -0.055065382 0.013110843 0.0221121 0.007305735 -0.015166751
0.057094924 0.047580127 -0.00493326 0.007322659 -0.04933238 0.05942555 0.0034622625 0.011988564
-0.08097733 -0.013738573 -0.076540396 -0.0078928135 -0.052967817 0.09111142 -0.05802907 -0.053417597
0.013191237 0.021154504 0.006483636 -0.014439266 0.057105817 0.04631825 -0.00445707 0.007690611
-0.047888625 0.056665454 0.0039432687 0.011281318 -0.07769258 -0.013818975 -0.073452346 -0.007083048
-0.051768404 0.087792784 -0.053473126 -0.049123064 0.012526992 0.018962285 0.005469501 -0.013107051
0.054424446 0.042667907 -0.004002679 0.007539495 -0.044043534 0.05500226 0.0040817754 0.010276078
-0.07218683 -0.013151644 -0.06797406 -0.006345345 -0.046845566 0.08175388 -0.0532151 -0.048989907
0.010502143 0.019730153 0.0067569525 -0.014058704 0.051008135 0.04263331 -0.005278187 0.0057825516
-0.043923024 0.04962207 0.0024560448 0.011293006 -0.071687065 -0.011063453 -0.06764611 -0.007603075
-0.05133872 0.088520624 -0.052426983 -0.048164338 0.014450985 0.017586926 0.0036562125 -0.011093809
0.059054893 0.041390773 -0.0017104883 0.009274381 -0.042661134 0.05461058 0.0057357857 0.008090026
00000000: 6e42 5cbd b48e cc3d 957f 6dbd 8162 5bbd
00000010: e818 413c 04a5 bb3c 2bdb 103c 1f92 85bc
00000020: f57c 5d3d 5b90 3e3d e3c9 cbbb 27bf bf3b
00000030: a48e 44bd 9ee7 763d f099 ef3a fb4f 553c
00000040: 4922 9ebd f029 4abc 6ca4 96bd e95a 13bc
00000050: 6a0f 70bd 0071 db3d ad67 7abd cc8c 66bd
00000060: 80c1 4d3c 6a2d c83c 0cf6 1d3c e382 8dbc
00000070: 992f 6b3d b09a 473d 5631 cfbb 0525 c23b
00000080: 58a5 4ebd 4bef 883d ef06 d63a e07e 613c
00000090: ef27 a8bd 80c4 56bc 902f a0bd beea 1cbc
000000a0: 93c3 73bd 1517 db3d 6625 65bd 5cb9 52bd
000000b0: 137e 853c 0434 a23c 4822 a33b d6c7 51bc
000000c0: 3256 813d 8074 353d e2ca 18bb 837d 253c
000000d0: 4277 3bbd 368f 863d ea77 c13b 02f2 1a3c
000000e0: ef86 9abd c284 8abc 77c8 92bd 0648 a7bb
000000f0: dce8 5abd a7f1 ce3d 6127 6fbd e9ab 5dbd
00000100: db9d 373c 433d c33c 990f 1c3c 296b 89bc
00000110: 6802 603d bd01 413d c564 ddbb 78eb a83b
00000120: 28de 46bd 01bf 753d d0c7 883a 092d 603c
00000130: b50a 9ebd a275 3fbc d4e0 96bd a8a6 1ebc
00000140: 65b1 5fbd d1b4 ca3d a840 70bd f3d8 5dbd
00000150: fe8a 4e3c 6f90 bb3c d111 083c 5407 84bc
00000160: dd87 693d e6fe 403d 127b bcbb 8a07 da3b
00000170: 014d 47bd 44bf 753d 8f31 2b3b 6b4a 4f3c
00000180: 43d2 9fbd f357 58bc 41d1 97bd 2810 0dbc
00000190: 7ce1 81bd 3e68 d43d c56b 57bd 659f 44bd
000001a0: 5d5c af3c 4588 713c b265 6aba 666f f7bb
000001b0: 0512 913d ea2d 283d f08b 333b 8007 7e3c
000001c0: 3800 2ebd 992e 893d 63bb 3c3c 9f3a 8f3b
000001d0: 9b5a 93bd a077 b5bc c178 8abd 85ff 8439
000001e0: 2952 50bd 8dcf b63d a432 61bd f6db 4fbd
000001f0: d2e1 3a3c 4fc1 ab3c a36c ee3b 8033 70bc
00000200: 3357 583d 8752 353d a1f0 aebb 608e cb3b
00000210: 31f3 3abd 8d97 603d 9c17 263b fdbd 413c
00000220: 6665 96bd 6216 44bc da1b 8ebd d346 03bc
00000230: 38f1 56bd a4e0 ba3d ecf8 5ebd b313 4dbd
00000240: 82c6 4d3c 1bc1 a03c e1b6 c13b e247 64bc
00000250: 5999 653d a619 333d 6e2c 96bb d634 f93b
00000260: 0a02 39bd b04f 633d 352c 843b 1c50 333c
00000270: bfb8 95bd fac6 58bc 7e9b 8cbd c2f5 e4bb
00000280: e4c6 5fbd 6aff c03d 5bba 75bd 3d8c 61bd
00000290: dcce 563c 6f24 b53c f264 ef3b f77d 78bc
000002a0: 5edc 693d 61e3 423d 2fa7 a1bb eaf2 ef3b
000002b0: c010 4abd 3568 733d 20e7 623b af6b 443c
000002c0: 71d7 a5bd c017 61bc 36c1 9cbd dc50 01bc
000002d0: c8f4 58bd a098 ba3d e4af 6dbd 69cc 5abd
000002e0: 0f20 583c 364c ad3c ae74 d43b ac92 6cbc
000002f0: cae7 693d 35b8 3d3d 9d0c 92bb 8501 fc3b
00000300: dd26 44bd 091a 683d 8936 813b 47d5 383c
00000310: 4a1d 9fbd fb68 62bc 2f6e 96bd ea18 e8bb
00000320: 1b0b 54bd b4cc b33d a306 5bbd 4435 49bd
00000330: 033e 4d3c cb56 9b3c 8039 b33b f5be 56bc
00000340: 2bec 5e3d 8bc4 2e3d e828 83bb de0d f73b
00000350: fe66 34bd 0d4a 613d 6ac0 853b ff5c 283c
00000360: b0d6 93bd fe79 57bc fc35 8bbd 9dec cfbb
00000370: 23e1 3fbd 946e a73d 14f8 59bd a4a9 48bd
00000380: 2e11 2c3c 21a1 a13c 6d69 dd3b 7a56 66bc
00000390: e8ed 503d 44a0 2e3d a4f4 acbb 8f7b bd3b
000003a0: a1e8 33bd 8340 4b3d 98f5 203b 4d06 393c
000003b0: abd0 92bd 7c43 35bc 0b8a 8abd 3723 f9bb
000003c0: 8d48 52bd 4d4a b53d adbd 56bd f847 45bd
000003d0: d3c3 6c3c 7512 903c 119d 6f3b cfc2 35bc
000003e0: 8be3 713d 5f89 293d 7732 e0ba 93f3 173c
000003f0: 71bd 2ebd 58af 5f3d 42f3 bb3b 078c 043c

model.args_proj.proj.0.weight f4 [1, 20]
0.10665534 0.20308663 0.0022922244 -0.10606369 0.33754578 0.1509745 -0.037990306 0.22094832
0.28798077 -0.18673788 0.33117023 0.11954641 0.20076624 0.1297858 0.02318369 -0.28298107
0.11747584 -0.3028889 -0.2415666 0.30498025
00000000: 1d6e da3d f1f5 4f3e 2539 163b eb37 d9bd
00000010: cdd2 ac3e 0f99 1a3e b99b 1bbd 4740 623e
00000020: 3772 933e 3738 3fbe 258f a93e c0d4 f43d
00000030: aa95 4d3e 92e6 043e b9eb bd3c e5e2 90be
00000040: 2c97 f03d 4114 9bbe 3c5d 77be 5f26 9c3e

model.args_proj.proj.1.weight f4 [1, 20]
0.035137586 0.019443454 -0.18330249 -0.24291122 -0.11141088 0.19166327 0.13078551 -0.118235506
-0.041601975 0.2404786 -0.1113384 -0.16597688 -0.18212503 -0.028757539 -0.18545407 0.1331535
-0.10137299 0.1060572 -0.13532479 -0.11746587
00000000: 6eec 0f3d e147 9f3c a6b3 3bbe b8bd 78be
00000010: 632b e4bd 6043 443e a3ec 053e 7525 f2bd
00000020: d566 2abd 0640 763e 6305 e4bd d8f5 29be
00000030: fc7e 3abe ee94 ebbc ace7 3dbe 6459 083e
00000040: a49c cfbd 8434 d93d 9592 0abe f291 f0bd

model.args_proj.proj.2.weight f4 [1, 20]
0.22599451 -0.21776347 0.16807203 0.18044856 -0.22277117 0.0056840405 0.091981225 -0.057476673
-0.13727449 -0.12866068 -0.122334346 -0.24834378 0.11431294 -0.22811127 -0.2304242 0.08635264
0.15755886 0.21673451 0.20052129 -0.09532673
00000000: 1b6b 673e 63fd 5ebe 131b 2c3e 82c7 383e
00000010: 201e 64be 3041 ba3b a760 bc3d a96c 6bbd
00000020: af91 0cbe a0bf 03be 6e8a fabd d54d 7ebe
00000030: e71c ea3d 0096 69be 52f4 6bbe a7d9 b03d
00000040: 1c57 213e a7ef 5d3e 7455 4d3e a93a c3bd
