generate_forecasts/output/Local_Forecasts/Meat/2024/models/DeepAR/W0/gluon_ts/prediction-net-state.pt (torch, 97628 bytes, 11 tensors)

model.param_proj.proj.0.weight f4 [1, 40]
00000000: b0fe 9abb e51a 713e 53e4 073e 20e7 e9bd
00000010: 237a 69bd e6c4 3ebe 6805 06be 7b54 133e
00000020: 142c 81bd 831f cabd bc7c 7cbd 1e07 c3bd
00000030: d739 3abe 518a fb3c 57be c93d 21ab 6e3e
00000040: e61e 0f3e aaaf 0a3d ef64 0d3e 298e 71be
00000050: f548 cbbd d7bc e7bc 1825 fdbd a6f4 4f3e
00000060: cdb0 813e b32d 3dbe 7567 d0bd d1dc eb3d
00000070: 128b 54be 4e08 13be d099 713e f40b 3f3e
00000080: 5ab5 843e 7230 b13d ab54 133d 98e4 36be
00000090: 5261 8dbd 7a1e 7cbe 8e4e 8f3d 00c3 173e
-0.004730068 0.23545416 0.13270693 -0.11421037 -0.057001244 -0.18629798 -0.13088 0.14387695
-0.06307235 -0.09869292 -0.061642393 -0.09522842 -0.18186127 0.030705603 0.098507576 0.23307468
0.1397663 0.033858933 0.13808034 -0.23589386 -0.09926025 -0.028288288 -0.12360591 0.2030817
0.253302 -0.18474464 -0.10175983 0.11516727 -0.20756176 -0.14358637 0.23593831 0.18656904
0.2591961 0.08651818 0.035969418 -0.17860639 -0.06903328 -0.24621001 0.06997405 0.1482048

model.param_proj.proj.1.weight f4 [1, 40]
00000000: e76d 24be ce45 113e 2586 163e 1ade 04be
00000010: 80d4 d2bc 6eca 26be 5865 243d 7ed9 573d
00000020: 4b6b 40be 39c7 e33c f252 323e caff 953c
00000030: c257 6c3d 1bd6 e93d 79e3 e7bd bfaf db3d
00000040: f445 233e 3f88 b73c 4f17 b7bd e7a3 25be
00000050: b81e c33d 0ec4 013e 620b 983c 3c7e 503d
00000060: cf4e fd3d a433 3b3d 43ef 97bd a0b7 f43b
00000070: 44c9 babd 8e69 c4bc fbee 6a3d 4674 f03d
00000080: fedc c23c afee babc 2055 ac3b 443d a73a
00000090: d4c7 01be b843 0b3a c065 963d 1977 e0bc
-0.1605755 0.14186785 0.1469961 -0.1297535 -0.025736094 -0.16288158 0.04013571 0.05269765
-0.18790929 0.027804958 0.17414454 0.018310446 0.05770088 0.114177905 -0.11322684 0.1072688
0.15944654 0.022403834 -0.08939993 -0.16175805 0.095273435 0.12672445 0.018560115 0.050901636
0.12368547 0.045703545 -0.074186824 0.007468179 -0.091204196 -0.023976114 0.057356816 0.117409274
0.023787018 -0.022818891 0.005259171 0.0012759347 -0.12673885 0.000531252 0.07343626 -0.02740054

model.param_proj.proj.2.weight f4 [1, 40]
00000000: 6c5d 3f3e 9849 05be 77d5 b53d 4d9a bc3d
00000010: c5c0 043e cbd6 703e b498 d83d acfc 21be
00000020: a1a1 80bc b64b 3a3e 9c6a 103d 637d f93d
00000030: 8b1b 133e e5b1 b9bd 3739 bfbd 63cf b8bc
00000040: 554d 22bd 95c2 12be dc4a 1bbe b430 bebd
00000050: 5984 0e3e 1119 ccbb 1c00 343e 8480 27be
00000060: a9f1 7ebe d84f 493e db22 5cbe 7b1e b8bd
00000070: 0be5 df3d 5ae6 5f3e c09e 45be 52c6 1cbe
00000080: 1720 d3bd 24a3 7ebe eb6a 74bd a7f5 013e
00000090: 129d 8f3e 2bfe e83d 7c8e 6ebe 5cd1 54be
0.18687981 -0.13016355 0.08878606 0.09209118 0.1296416 0.23519437 0.10576001 -0.15819043
-0.01570207 0.18192944 0.03525792 0.12182119 0.14365976 -0.09067134 -0.09337085 -0.022559827
-0.03962453 -0.1433204 -0.15165275 -0.09286633 0.13917674 -0.006228574 0.17578167 -0.16357619
-0.24896874 0.19659364 -0.21497671 -0.08990189 0.10932358 0.21865216 -0.1929884 -0.15310028
-0.10308855 -0.2486692 -0.059672277 0.12691365 0.28049523 0.11376604 -0.23296541 -0.2078299

model.rnn.weight_ih_l0 f4 [160, 21]
00000000: ed64 703e 67ba ce3d 68a6 713e e93f 623e
00000010: f8dc c83d 0602 f33d a32c c13e 7ed3 703e
00000020: bedc 563e 278d a23e f0db 883e f775 a83e
00000030: 60f4 6e3e 19bb ae3e 7231 253e 1d7e ab3e
00000040: 389c 2ebd 2261 863c 8187 493b 9743 30bd
00000050: ea05 263e a693 233d f555 f63d 3c33 4f3e
00000060: de0c de3d c467 0c3d ed65 89bb 7433 d03d
00000070: bead 1d3e 2491 363e 226e 4cbd 14b5 1c3e
00000080: f760 acbd 4654 1abd 0fe0 d9bc 4105 eebd
00000090: 9de5 12bd df6d 4d3d 0de5 c1bb ec1a a83d
000000a0: 8c06 9d3e 0476 0f3e 1cc9 bf3d bb28 aa3c
000000b0: 3f6a 82bd 5d2f fd3d c522 7a3d 9f82 d23d
000000c0: aebc 33bd 3bb0 c7bd ffdf 973d 5cc6 6e3d
000000d0: 5c37 31bd da3b f83d 0faa e4bd a11e 28be
000000e0: 9790 9b3c 9e98 f13d 5a7a fcba 4960 16bc
000000f0: 630b bbbd d4d8 633e e03a 113d 1bcb 893e
00000100: 47dd 963d ad39 9b3e 6950 2a3d b018 9a3e
00000110: a809 ac3c a18c 943d ada8 723e 1102 613e
00000120: f5c5 833d c297 0b3d 434f f53d b5b3 423d
00000130: 8520 833e 6ad2 7d3b 3b2c 01bc da70 2e3e
00000140: 4fab bb3c aef3 813e 26e6 173e deda ab3d
00000150: c8a6 3f3e 410a 7a3e a04c d53d 5214 333e
00000160: 7c66 5c3e d55d 473e 7ec7 533e 8bae 7e3e
00000170: a506 90bc bbaf 623e 6844 373e b1e2 ffbb
00000180: c2d1 313e c7f7 403e 1c94 343e 8f04 913e
00000190: 79b4 1f3e 2787 953b 4ca1 f73c 8fae c5be
000001a0: 6b09 dc3d c5e3 413e 4209 403d a031 413e
000001b0: 2edf 843c be86 0c3e cdb5 e93d 47ab ad3d
000001c0: 37c1 cd3b 52ab d83c 3336 5a3e 8a4a f13c
000001d0: 840e d43d e9d2 893e 8b79 293e e7ec 50bc
000001e0: c40d 183e e27e 363e a3a2 ac3b cdf6 6c3c
000001f0: fce3 393d e0e8 663e 9ca0 843d fc67 dd3d
00000200: 5aed 833e de1f 873e 5eb4 a43e dc4c be3d
00000210: fb59 8e3d 959e 833e 90d9 113e 5b8b 953e
00000220: 3ebe 803e a017 623d 919e e53d ba67 ab3d
00000230: 5616 8b3e 4cf1 963d 9990 ba3e 4188 813b
00000240: dda8 d23d 3ada a9be 5666 313e daa1 623e
00000250: 92f3 cd3d 4bef 943d cee6 203d d142 8d3d
00000260: 65b2 09bc 2d4a c53c 4a57 ae3c 0eb0 5d3e
00000270: a00a 573e df67 143e 5801 393d 96d9 0f3d
00000280: 8880 663e 2fba 873e df82 f33d 320f a93d
00000290: 69a2 483c ac66 383e f21e 973b 8b79 c33c
000002a0: c512 e43d 4a1f 933e e90b 1e3e b79e 833e
000002b0: 6802 193e 0bd6 203e 7213 f23d cb50 f53d
000002c0: b7ae ab3e d427 463e cd2f 613e d060 863c
000002d0: 9c04 983d 829a c73d db49 7e3e ab67 073d
000002e0: b09d a33e aae9 943c 4c52 fc3c 7309 503d
000002f0: 33dc 623e 1816 883d d5bc 013d 8ed2 9e3e
00000300: fe09 173d 2247 973e 9e6a 8e3d 6857 fa3d
00000310: 14a0 173d 5791 843e 6464 e9b9 c2c3 4c3e
00000320: 3ff3 fc3c cf41 a83c c1f6 0e3d b48f 463e
00000330: b2bb 533e 87b4 383e d0a0 943c d82a 3a3e
00000340: 6ef5 8d3d d7a5 343d 2487 853e e26e 533e
00000350: bbc2 6b3e b86e 6e3e 4bb8 e13d 3089 b3bc
00000360: e73b d73d e880 d23d 285a 833d fadd b6bc
00000370: ebdc 2d3d 7260 a3bb 1633 e63d 8d57 1f3e
00000380: 5ef2 453e 4323 413e 5d17 553c ba94 9dbc
00000390: e0e5 0e3e f885 93be fb07 2d3d 9d83 6f3d
000003a0: 669f 7b3e 5fdf 6a3e edb4 813e 3420 9b3e
000003b0: d916 843d 5c10 213e 0c5a 143e c941 b13d
000003c0: 1c6f 733d 1051 923e 3a0b f03d 6226 873e
000003d0: 7bb1 713e 15e4 493e 6e60 c23d 9b09 183e
000003e0: 93a0 ca3b ce36 843e 9c72 163e 0c5e 033e
000003f0: 2189 173e 2ec8 263e ea46 6e3e 180e 963e
0.23476 0.10094147 0.23598635 0.22094692 0.098077714 0.1186562 0.37729368 0.23518178
0.20982644 0.31748316 0.267303 0.329025 0.23335409 0.3412712 0.16132143 0.33494654
-0.04262945 0.016403738 0.0030750933 -0.04303321 0.16213194 0.03993573 0.12028114 0.20234388
0.10842298 0.034278646 -0.0041930587 0.10166064 0.15398309 0.17828804 -0.04990972 0.15303451
-0.08416932 -0.037678026 -0.026596097 -0.11622096 -0.035863508 0.05015361 -0.0059171976 0.0820826
0.30669057 0.14009863 0.093645304 0.020771375 -0.06367921 0.123625495 0.061068315 0.1027882
-0.04388111 -0.0975041 0.07415771 0.05829464 -0.043265685 0.12120791 -0.111652486 -0.16417934
0.018989844 0.117966875 -0.0019262538 -0.00917823 -0.09133031 0.22250682 0.03545654 0.2691277
0.07366424 0.3031744 0.04158059 0.3009696 0.021000698 0.07253385 0.23697157 0.21973445
0.06434242 0.034080274 0.119780086 0.047534663 0.25610748 0.0038730153 -0.0078840805 0.17035237
0.022908835 0.25381225 0.14833888 0.08391355 0.18715966 0.24417974 0.10415006 0.1748822
0.2152347 0.19469388 0.20681569 0.2487127 -0.017581293 0.22137348 0.17897189 -0.007809006
0.17365173 0.1884452 0.17634624 0.2832379 0.15596189 0.0045632306 0.03022828 -0.3860974
0.10743984 0.18934543 0.04688383 0.18866587 0.016219702 0.13723275 0.11411629 0.08479934
0.0062791365 0.02644888 0.21309738 0.029454488 0.10354331 0.26918724 0.16550271 -0.012751794
0.14849001 0.1782184 0.0052684112 0.014463139 0.04538344 0.22549772 0.06475946 0.10810849
0.25767022 0.263915 0.3216886 0.092920035 0.06950756 0.25706926 0.1424315 0.29207882
0.25145143 0.05519831 0.11211885 0.08369394 0.27165478 0.073702425 0.36438444 0.0039530103
0.10286114 -0.33174306 0.17324194 0.22132054 0.10056223 0.07272204 0.039282613 0.0689751
-0.008404349 0.024083221 0.021281857 0.21649191 0.21000147 0.14492749 0.045167297 0.035119615
0.22509968 0.26509234 0.11890196 0.082548514 0.012245753 0.18007916 0.0046118433 0.023861667
0.111363925 0.2873481 0.15434231 0.25707027 0.14942324 0.15706651 0.11820115 0.11978301
0.33531734 0.1935113 0.21990891 0.016403586 0.07422754 0.09746267 0.24832861 0.03305785
0.31956244 0.018177826 0.030800961 0.05079026 0.22154312 0.06644839 0.031674225 0.31020015
0.036874764 0.29546458 0.06953929 0.12223703 0.037017897 0.25892136 -0.0004451602 0.1999655
0.030877708 0.020539192 0.03490329 0.19390756 0.20677069 0.18037616 0.018143088 0.18180406
0.069315776 0.04410347 0.26079667 0.20647767 0.23023503 0.23284423 0.11021479 -0.021916002
0.10509472 0.10278493 0.0641368 -0.022322644 0.042447012 -0.0049858624 0.112402126 0.15560742
0.19330737 0.18861108 0.0130060585 -0.019235957 0.13954878 -0.28813148 0.04224394 0.058475126
0.24572524 0.22936772 0.25333348 0.30298007 0.0644967 0.15728897 0.14487475 0.08655126
0.059432134 0.2857747 0.11720891 0.2639647 0.2360286 0.19715913 0.09491049 0.14847414
0.0061836927 0.25823063 0.14692158 0.12828845 0.14798404 0.162873 0.23269239 0.29307628

model.rnn.weight_hh_l0 f4 [160, 40]
00000000: 37c8 23bd a777 c3bd 839f 0b3e 7993 8aba
00000010: 58f6 29be 0d1d 163e b2d0 b83d a405 01be
00000020: d556 76bd 76b8 f63b 6661 d5bd a73b f0bd
00000030: dd29 28be 9338 d23d 678f 00be 05f1 f1bd
00000040: 48db c33d dc76 e8bc c602 0d3e 62f7 37bd
00000050: 8844 4ebd 176d 853d 74d3 4d3e 5b8e 27bb
00000060: 4474 c3bd 9ff1 e63d c1cf 363e 9932 80bd
00000070: bec2 983d ba3b 8b3d 6f46 c93d db0c c1bc
00000080: 0dc7 f5bc 46cb 213e c7a7 d33d dac2 cdbd
00000090: 511d dcbd 8fde 9dbd 0663 0c3e aabc 783d
000000a0: 1d0a 953c 58bb 3bbd ae84 813d edd8 3e3d
000000b0: 6c9b 343e 77d8 30be 178a c63d 6cba b93a
000000c0: 43fd 913d f8f9 c83a 8bd7 acbc 2f26 8b3d
000000d0: 5fca c2bd 6ff9 1cbd b200 87bd 0119 323d
000000e0: ddd9 28be c276 d13d 1b27 47be ae28 203e
000000f0: a7fc 963d 55b4 143d b8db 543e f439 06be
00000100: cf56 b0bc 5f5d a9bd 6ebb acbd 3803 163e
00000110: f9cc c63d c081 003e ff17 a13d 69e5 58bb
00000120: 452b 0e3e a0ca 6cbd 3a14 1b3d 93bd 293e
00000130: eecd 7cbd f8dc 9e3d d0fd 0b3e d9ee bcbd
00000140: 13be 6cbe e341 f2bd 812a 5fbd c71c 893e
00000150: 429f 8bbe 0935 bb3c 4519 48be 38b7 6ebe
00000160: 812f a4be df8f 883e 04d8 b63e 5b28 65be
00000170: ccb1 b7be 08e1 a0bd 2607 dd3c c895 03be
00000180: 8fcf 5d3d f72b 613d 2b85 15be 62be 4bbe
00000190: 428b 10bd 2c67 853e 1870 643e ed04 c83c
000001a0: 8602 89be ae89 54be b7b2 5b3e 99a3 883d
000001b0: afe6 fc3d dabc 8abe 9eca 5d3d 8eeb 763e
000001c0: 5db3 88be 5980 bcbd ecac ccbe fda1 f5ba
000001d0: 02f9 583e e752 e03d fca4 77be 2a48 79be
000001e0: a322 40be 4de7 cd3d 538b 083e aee7 64bd
000001f0: 1581 63be 22d6 c63b 3467 f5b9 8fd3 913d
00000200: 9bd8 63bd f118 b73d 0fef 443e 5dbb b93d
00000210: 133a 943c 18be 5dbb 8763 7f3d fb4d 5fbe
00000220: 74e0 d7bc 5dd5 1f3e 47af 2c3b 8c0d fcbd
00000230: bfc0 1dbe 3ce5 b1bd a5ba 8e3c f20b 003e
00000240: 16a7 97bd 5e26 c43d c895 4a3e fbe5 47bc
00000250: 3cda 4a3e 71a1 c1bd 2755 ab3d 6096 b23d
00000260: 01f6 73be f2e5 e23d 68c1 3bbe 3b62 1a3c
00000270: c3ae d9bd d562 84bd bee5 0cbd 7321 903d
00000280: f242 49be 3eca 57be bebb 03bd aa81 493e
00000290: 5f0d c4bc 8e31 4ebd 19f9 2abd 2434 b2bd
000002a0: 8326 e8bd 059d 3d3e 2341 f63c bb0b 7abd
000002b0: 38a8 903d f2de 40be 680c 4e3d 3cc3 6fbe
000002c0: ea05 903d f79f 26be 7742 ca3c b9b2 2fbe
000002d0: b581 64bd 8fff 773d a801 f9bc 5d1b 9bbd
000002e0: 478b 36be fb87 1bbc ed0e 1bbd 0e25 66bd
000002f0: c2b6 1c3e aea9 84bd 309a e3bd e450 443e
00000300: 617c c9bd 57cd 1cbd b3e3 3abe b940 a1bd
00000310: 6dfe 0cbd a719 e8bd aa84 55be e5a3 d2bd
00000320: 3acf 94bd b73a 863b 7676 603d fdd5 bf3d
00000330: a09e 8bbd 2b2b 40bd 9c2f 64be 3628 0e3d
00000340: 5680 d3bc 06c6 f93c d88e 603d 21d4 243d
00000350: fd05 563d 3703 c9bc f062 ddbd 8154 48be
00000360: 8575 31bd 171f f43d cc80 d0bd 8f2d f0bc
00000370: 4b7a c93d 29b9 4a3e 0854 7dbd 875b 28bc
00000380: d073 d1bd a0ab 37be 3b8a 4f3a d56e 203e
00000390: a192 04bd 2a1e 063e a192 0ebe 1b76 a83d
000003a0: c166 48be e465 8a3d 8f66 b1bd e567 27be
000003b0: c76c 53bc ecee 9ebc 3f45 c8bd 4a83 02be
000003c0: 42fd 103d 4ea2 babd f5fb d43d 5f80 063c
000003d0: 6363 deba 17b3 3b3c 38c6 b1bd a1b9 40bd
000003e0: 9d85 3cbe 70cd 8dbd 666b 49bd d126 10be
000003f0: 4f74 113d a09a 53be bced 163c cfd8 25be
-0.03998586 -0.09544306 0.13635068 -0.0010572515 -0.16597879 0.1465952 0.090241805 -0.12599808
-0.060141403 0.0075293137 -0.10418968 -0.11730128 -0.1642222 0.10264697 -0.12554704 -0.11813549
0.09563309 -0.028376989 0.13770589 -0.044913657 -0.050358325 0.06514948 0.20100194 -0.0025567028
-0.0954366 0.11276554 0.1785269 -0.06259651 0.07459019 0.06798501 0.09827887 -0.0235657
-0.030002141 0.15800199 0.10334735 -0.100469306 -0.10747779 -0.07708465 0.1370965 0.0607268
0.018193299 -0.04583296 0.06324135 0.046593595 0.17637414 -0.17270075 0.09694307 0.0014169938
0.07128384 0.0015333286 -0.021098873 0.06794392 -0.095112555 -0.038323816 -0.065919295 0.043480877
-0.16489358 0.102277294 -0.19448511 0.15640518 0.07372408 0.03630479 0.20786941 -0.13108045
-0.021525769 -0.08269762 -0.08434187 0.14649665 0.09707064 0.12549496 0.07865905 -0.0033095723
0.13883694 -0.057810426 0.037861086 0.16576223 -0.061719827 0.0775699 0.1367104 -0.09225244
-0.23119383 -0.11828973 -0.054483894 0.26779768 -0.27269942 0.022852438 -0.1954089 -0.2331208
-0.32067493 0.26672265 0.35711682 -0.22378676 -0.35877836 -0.07855421 0.026980948 -0.12850106
0.05415302 0.05497357 -0.14601581 -0.19896844 -0.035289057 0.26055276 0.22308385 0.024416411
-0.26759738 -0.20755646 0.21454893 0.06671829 0.12348687 -0.27097207 0.05414831 0.24113294
-0.26699343 -0.09204168 -0.3997568 -0.0018740293 0.21188739 0.10953312 -0.2418403 -0.24343935
-0.18763213 0.10053883 0.13334398 -0.05588501 -0.2221721 0.006068007 -0.00046806934 0.0712043
-0.055626493 0.08940304 0.19231819 0.0906894 0.018094098 -0.0033835229 0.062350776 -0.21807091
-0.026352145 0.15608735 0.002634959 -0.12307271 -0.15405558 -0.08686301 0.017422983 0.12504557
-0.07404916 0.095776305 0.197837 -0.012200828 0.19809812 -0.09454621 0.08365851 0.08720088
-0.23824312 0.11079015 -0.18335497 0.009422834 -0.10629036 -0.06464163 -0.034398787 0.0703763
-0.19654444 -0.21073243 -0.032161467 0.19678369 -0.023932157 -0.050340228 -0.041741464 -0.08701351
-0.113354705 0.1851693 0.030060356 -0.061046343 0.07063335 -0.18835047 0.0503048 -0.2341432
0.07032378 -0.16271959 0.024689896 -0.17158021 -0.05578776 0.060546454 -0.030396298 -0.075735785
-0.17826568 -0.0094928695 -0.03785603 -0.05618768 0.15304092 -0.06477676 -0.11113393 0.19171482
-0.098381765 -0.038281765 -0.18250923 -0.07873673 -0.034422327 -0.11333018 -0.20851389 -0.10285167
-0.07266088 0.004096355 0.054800473 0.09366987 -0.06817365 -0.04691617 -0.22283787 0.034706317
-0.025818031 0.030489933 0.054823726 0.040241364 0.052251805 -0.024537666 -0.108098865 -0.19563486
-0.043324966 0.119199924 -0.10180816 -0.029318599 0.09837779 0.19797195 -0.061847717 -0.010275728
-0.102271676 -0.17936563 0.0007917021 0.15667279 -0.0323664 0.13097444 -0.13923122 0.08225652
-0.19570448 0.06757715 -0.086621396 -0.16348226 -0.0129043525 -0.019401036 -0.09778833 -0.12745395
0.035397775 -0.091129884 0.103996195 0.008209317 -0.0016966875 0.011456273 -0.08680385 -0.04705203
-0.18410344 -0.0692395 -0.04917469 -0.14077307 0.03551131 -0.20664454 0.009211954 -0.16195987

model.rnn.bias_ih_l0 f4 [160]
00000000: 1831 003e dabe 5b3d 30a6 30be 9cc5 863d
00000010: 3d79 7abc cca7 973e b878 bf3d 878b c73d
00000020: 02d9 cd3d f556 1e3d c1b7 973d b7ca a13e
00000030: 3d7f 183e 4617 3c3e 4caa 82bd 7d86 523e
00000040: 9b5a 25be 3105 afbd 3b54 b1bd f3b9 343e
00000050: 99ee 423c 5789 b13d e8a4 e1bd f5d1 1cbe
00000060: 63bd 7d3e d748 dc3d 524b 113e a583 f2bd
00000070: f202 6d3e cc59 973e df78 433e 18bf 50bc
00000080: 8997 033e 1892 933d 2f38 bf3d f3a2 18be
00000090: 4f42 213e c65f 8a3d 680f 43bd 5286 bbbb
000000a0: 3d21 9e3d c829 ca3d 5a76 bd3c eadc 4bbd
000000b0: 722d 623e 30f1 173e d4a4 9f3d c685 0c3e
000000c0: 800a b13b 41eb 113e d2c9 c33d 5fe0 f53d
000000d0: 9c97 10bd 1173 0b3e 2d94 a1bd 3a28 babc
000000e0: 04ce a4bd 96ca a2ba a06c 15be fc48 f83d
000000f0: cc37 3bba 3562 03be 8cea 813e 2218 373e
00000100: 864b 233e 0e7f 3a3e 269c 9f3c 7721 153e
00000110: 9f77 f43d ced5 823d 5b1b 1fbe 7f6c acbd
00000120: 9b97 6abd 138b f23d 43b3 fb3d 69d5 c8bd
00000130: f3ae ecbc 800e 43be b4a3 ab3c e8fc e73b
00000140: ccbe a1bd be11 b7bd 8ebf 7cbd 3c99 db3d
00000150: 9e37 143d 0637 2d3e db0d edbd a1bd 46be
00000160: 5c34 12bd 5ab5 323b 91eb 263e c738 77ba
00000170: e8f9 44bc f0d9 9c3d a6b7 c23d 7b30 9b3a
00000180: c2d4 103d 1884 02bd d327 ae3d 9115 103d
00000190: 54c0 e1bd e18f 013e 45bf cdbc 5a48 ac3d
000001a0: 98db a73d 7904 86bc 50eb 03be dcb3 20be
000001b0: aa8a 6cbd b626 983d dfbd 40bd cf67 1cbd
000001c0: 759f a6bd 3917 cfb7 ad76 18be 80c9 293d
000001d0: c09e 9ebd 4434 a33c 4712 ac3d 3d87 463d
000001e0: fa32 373e de15 4cbc 5c84 68bd fc5b 90bd
000001f0: b591 593e 1596 3c3e fb3c 8b3e a124 82bd
00000200: eee4 143e 2a5b 30bc c452 ac3d ec25 8f3d
00000210: a3e6 eb3d dac6 013e 4389 873d beeb 843c
00000220: 1977 06bd 705a 9dbd 3a3b 073e 966f 2abb
00000230: f865 233e b687 ac3d f6aa 9b3d 7d95 80bd
00000240: d6ce 96bb 8b0e 983e 2508 c4bd 6222 b43b
00000250: b8f6 313e 7a45 bd3d 50c7 4ebc f528 babd
00000260: ad4f 963e 7bbf 593c 8113 8f3e f93e a6bd
00000270: a1de 0bbc 8785 0fbe ef85 a63d ba51 8a3d
0.12518728 0.053648807 -0.17250896 0.0658066 -0.0152876945 0.29620206 0.09349197 0.097434096
0.100511566 0.038657147 0.07408095 0.31599972 0.14892288 0.18368253 -0.06380138 0.20559116
-0.16147844 -0.08545912 -0.08658644 0.17649059 0.011897706 0.086687736 -0.110177815 -0.15314467
0.24779277 0.107560806 0.14188889 -0.118415155 0.23145655 0.29560697 0.19089077 -0.012740873
0.12850775 0.072055995 0.09336888 -0.1490591 0.15747951 0.067565486 -0.047622114 -0.0057227993
0.077211834 0.098712504 0.023127723 -0.049771227 0.22087649 0.148381 0.0779511 0.13722906
0.005402863 0.14249898 0.095599785 0.12005686 -0.035300836 0.13618113 -0.078895904 -0.02272426
-0.08047107 -0.0012419994 -0.14592218 0.12123296 -0.0007141798 -0.12830432 0.25374258 0.178803
0.15946779 0.1821253 0.019483637 0.14563547 0.119368784 0.06388436 -0.15537779 -0.084191315
-0.05727349 0.118429326 0.12290051 -0.0980633 -0.028892016 -0.190485 0.020952083 0.0070797093
-0.0789772 -0.08938931 -0.06170612 0.107225865 0.036185853 0.16915521 -0.11574908 -0.19408275
-0.035694465 0.0027268738 0.16300799 -0.0009430763 -0.012022473 0.07658756 0.095076844 0.001184001
0.03535915 -0.031864256 0.085036896 0.035176817 -0.11023012 0.12652542 -0.025115618 0.084122375
0.08196181 -0.016359555 -0.12882733 -0.15693611 -0.057749428 0.074292585 -0.047056075 -0.038184937
-0.08135883 -2.4687137e-05 -0.14889021 0.04145193 -0.07745123 0.019922383 0.084019236 0.048468817
0.1789054 -0.012456385 -0.056766853 -0.070487946 0.21246989 0.18416627 0.27194962 -0.06354643
0.14540455 -0.010763923 0.08414224 0.06989655 0.115186 0.12673512 0.066179775 0.016225692
-0.032828424 -0.07683265 0.13206187 -0.0026006452 0.15956867 0.08424322 0.076009676 -0.062785126
-0.0046022935 0.29698595 -0.09571866 0.005497263 0.17379272 0.09241767 -0.012620762 -0.09089843
0.29357663 0.013290281 0.27944568 -0.0811748 -0.008536966 -0.1401578 0.081310146 0.06753869

model.rnn.bias_hh_l0 f4 [160]
00000000: be71 073e 5db3 1c3d 6833 713b a9d9 8e3e
00000010: e064 853c 2daa 7a3e d131 b63e 706b 713c
00000020: 11d8 a93e a807 053d 6ca5 583e 9908 f53d
00000030: 1358 143e 9ba6 7c3e d904 393d 4bf9 ac3e
00000040: 460c 82bc aa47 0cbe c55f 61bd 54bc d63d
00000050: 145a 963d eb59 dcbd 22ed febd d8b0 ffbd
00000060: 66b5 e23c 4feb eb3d 55c5 c03d 67d1 e0bb
00000070: ac21 2c3e 17d3 143e 83fd c43d ad7f 96bd
00000080: 3c74 7a3e 479d c33c 73b3 0b3e e984 e3bd
00000090: 222f 59b9 5ee1 f03c 7e50 9b3b d5af cc3d
000000a0: 75bd acbd 52ac 2ebd 031d fd3c 646d e43d
000000b0: 8904 4e3e c026 d7bd 1a3e 0d3e 6fae 423e
000000c0: 472e 1a3e 0e64 12bd abdf 393e a756 c2bb
000000d0: 8f4a bdbc 1c28 463e ac33 a5bc 5b8a c23c
000000e0: 98c4 fdbd 2418 db3d 085c 1fbd 70d1 93bd
000000f0: a866 143e 71bf f1bb d709 7d3d c4b6 e53d
00000100: 114c b5bd 529b ee3c 0698 c73d d99a a93d
00000110: 2a08 b73d 409c 923d 63af aabd fb55 6fbd
00000120: 9650 a33d 7fc7 18be e41f 54bd de89 19be
00000130: 6b44 00bd b360 4fbe 5677 e23d 926d 2a3e
00000140: 146e 37bb 11e0 c33d 417c ea3d 42af d23d
00000150: cca6 19bd ac20 ec3c 16aa 41be bdf3 86bd
00000160: 7b41 7bbe 1c34 c13d e737 803c 7f62 95bd
00000170: 3fa4 0e3c 6fe2 21be 20af 67bd 7bb7 ecbd
00000180: 0a1c 78bd 5ee5 d6bc 0828 8f3c 13ef 913d
00000190: 49b8 f7bb d3d8 b1bc ab56 663d 46ae fa3c
000001a0: 50ff 08be 2115 64be dc1c 4ebc e002 903d
000001b0: d533 d43c 6041 9a3d 3b27 27bd 25d5 b23d
000001c0: 727a 963d 733e 23bd 0a29 82bd b2d1 27bd
000001d0: 9d88 bfbd 4a80 353d da2f b43d 68d8 7fbd
000001e0: 8510 733e b3b2 6c3e 26e6 923d 97ec cd3d
000001f0: e56f 073d 74e8 7c3e 813e 933e bfaa 46bd
00000200: 7149 143d 2f4a c9bd 5385 1c3e ea41 253e
00000210: 1b3b 9abd 51b1 4dbd cf54 723d 9c0f 5d3e
00000220: 045d 18bd 4e24 ddbd b18c 2b3d 0663 a8bd
00000230: 5cee 0a3d f67f 5c3e a6bc 28bd 4f1c 573d
00000240: 4508 c83c 56a8 0b3e ee69 b9bd ebfc c7bd
00000250: 2225 8d3d 5edd 323c 3df9 bd3d 6dce 75bc
00000260: 6a92 433e 2bb9 1e3e 8ba1 ec3d e0a8 d53d
00000270: 7e4e 3d3e 7a06 083e cd8d a33d a6dc 253c
0.13226983 0.03825699 0.0036804322 0.27900437 0.016283453 0.2447898 0.35584882 0.014735088
0.33172658 0.032478005 0.21156853 0.119645305 0.14486723 0.2467293 0.04517064 0.33783945
-0.015874993 -0.13699213 -0.055022974 0.104851395 0.073414 -0.10759338 -0.12447573 -0.12484902
0.027674388 0.11519491 0.09412638 -0.0068609 0.1680972 0.1453365 0.09618666 -0.07348571
0.24458402 0.023878707 0.13642673 -0.11109335 -0.00020712291 0.029404338 0.00473982 0.09994475
-0.084345736 -0.042644806 0.030897623 0.11153677 0.20118918 -0.10505438 0.13793221 0.19011854
0.15056716 -0.03573995 0.18151729 -0.00593074 -0.023106841 0.19351238 -0.02016624 0.023747614
-0.12391013 0.10697964 -0.038906127 -0.072176814 0.14492285 -0.007377558 0.061776962 0.112165004
-0.08852399 0.029126797 0.09745793 0.08281488 0.08937104 0.071587086 -0.083342336 -0.058431607
0.07974355 -0.14919852 -0.051788226 -0.14993998 -0.03131525 -0.20251732 0.11057918 0.1664336
-0.0027989196 0.09564222 0.11449481 0.10287334 -0.037512586 0.028824173 -0.18912539 -0.06589458
-0.24536698 0.09433767 0.015651656 -0.07294177 0.0087061515 -0.15809034 -0.056563497 -0.115584336
-0.060573615 -0.026232418 0.017475143 0.07125678 -0.0075598103 -0.021709835 0.056234997 0.030600678
-0.13378644 -0.22273685 -0.012580123 0.07031798 0.025903622 0.075320005 -0.040808897 0.0873206
0.07347573 -0.039854478 -0.06355484 -0.040971465 -0.09352229 0.0443118 0.087981895 -0.06246224
0.2373677 0.23115043 0.071728036 0.100548916 0.033065695 0.24698049 0.28758624 -0.04850268
0.03620285 -0.098286025 0.15285234 0.16138425 -0.07530805 -0.05021793 0.05916291 0.21587986
-0.03719808 -0.1079794 0.04188222 -0.08222012 0.033918723 0.21533188 -0.041195534 0.05251723
0.024418006 0.13638434 -0.090534076 -0.09765037 0.06891848 0.010917036 0.09276054 -0.015002829
0.19098821 0.15500323 0.115542494 0.10432601 0.18486974 0.1328372 0.07986031 0.0101234075

model.rnn.weight_ih_l1 f4 [160, 40]
00000000: 79b0 473c 7ed7 d43c 7c24 0bbe 97da 9f3d
00000010: 1ec5 d23c d152 473e 65e0 39be bc9f 54be
00000020: b58b 50be 515f fd3c facd d83d 460c dfbc
00000030: b745 1cbe 51bf 23bb 8774 483d 8f9d 40bd
00000040: 6709 f6ba a827 4dbd b377 be3a 8705 e7bd
00000050: 762a 343d a09f 643d 1254 8e3d ea7e b6bd
00000060: 9d09 633c 5d30 bebd ff0a 44bd 4359 293e
00000070: 574c 84bd f229 6c3c d4ed 113e f02c 453d
00000080: 4886 09be 1364 a7bd 433a 993d 9684 313e
00000090: 5313 1f3d 52c3 b03d 3123 fdbc 9ead ae3d
000000a0: 3d70 37be 40d6 6abe 543a de3d eba9 a73e
000000b0: 71fb 12be c75c f53b 06b1 e6be 24fb 45bc
000000c0: ed76 d4be a573 fc3d e562 e03d c72c a3bc
000000d0: e1f2 97be 924a 5bbe 4a69 363e 9e4b dabe
000000e0: 4d2c 1fbe aaf1 5ebd 82e7 41be cd89 84be
000000f0: a5a1 42be cf14 06ba cfa2 2bbe 7174 913d
00000100: d9af a1bd f98b 41bc c94f a63c 703a f0bd
00000110: 1ee8 343e 94a3 5cbb 12d1 8fbe df63 043e
00000120: 9dd2 19be b538 3e3e 3083 b2be 266a e6bc
00000130: d5fe 883d bf3b 9cbe 4a61 89be c105 aa3c
00000140: 325f 1abd 138a 18bd e4ff 843d 9533 123e
00000150: 418b ccbd 4f6f 6ebd 8d67 1abe 0695 66be
00000160: 4799 0bbe 8dbe c7bd e5af aebd 986d 3bbe
00000170: ebd9 2ebd 21fd 37bd b8b8 33bc c6df a8b9
00000180: bf77 cebd 32c7 f2b9 2376 33bd f03b 0abe
00000190: 50f8 933d c331 103d 1632 3e3d 99af b13c
000001a0: 027e 473c 3415 2ebe 94f1 193e 5bb4 d03c
000001b0: abf3 f63d b8dd 6c3d 97c2 11be 1b9b a3bd
000001c0: 30ef 1f3c 59d2 f43d 47dd 7a3d c2ae 46be
000001d0: b0a7 2f3e f683 b3be 8328 543d ca6f 3bbe
000001e0: cd82 54bd dd8f f33c 232c 33be 807a b8bd
000001f0: e9df 993d d48b 123e e3bd 103e 8e17 ed3d
00000200: 8373 d6bb 77ce 8bbc 244b cb3d 9ddf 16be
00000210: f06d ccbd 757b 41bd 07d5 78bd 12ac bebd
00000220: da7e 9f3d 7059 d0bd 7e7e 063e 7639 0ebe
00000230: 0b89 dcbc 5000 4a3d 44d3 ac3b 1587 193e
00000240: a70f c03d 00ea 2fbc 175d 0c3d 879e dd3d
00000250: de90 d93d 7e4a 7abd 4003 573e 42e7 7b3d
00000260: 9d6f 1ebd d74b 243e 50e1 cdbd cb88 58bd
00000270: 625e c93d 63d1 5ab9 adf0 5e3d 99c1 fcbd
00000280: 13e5 19be aa5b 00be 00d6 05be 3e3e bcbd
00000290: b8ce b53d 83e0 033e 178e fc3c a9f9 683b
000002a0: 0af7 dd3d 600d 2dbe 64ea a93d d4b1 103e
000002b0: d154 54bd 657f 10be eeac 5fbc 1e62 843d
000002c0: 7e0e 4f3c dafe b73d a139 093e f969 b43d
000002d0: 6082 a03c 8c47 0cbe 298e 013e 6607 56bd
000002e0: d186 153e 111e e73d 7ec1 fd3d df2d cc3d
000002f0: bf5d 08be bec6 04be 9ac4 083e e23a 80bd
00000300: 86b7 bf3d c01b 3bbe a823 89bc 5dd5 a03d
00000310: c40f 0abe 1f87 813d 6d19 633d a3ef 1f3d
00000320: abab b7be 75b4 77be e3c8 913e 9573 9f3e
00000330: 20f3 7cbe 4b93 153d d0eb b0be 6f6b 1ebc
00000340: 00af abbe dbce b43c a381 e33c 0500 3abe
00000350: e239 05be 9258 1bbe 7e32 6d3e 6506 a0be
00000360: 24f3 85be e7fc f23d b861 48bd 8bdc 2bbd
00000370: 5ac0 3dbe 81d7 1a3e 5383 883d 7587 ec3d
00000380: 81cc b2bd e7a1 72be dabd 813e b1ca 25bd
00000390: 1293 933e 66b4 06bc 99fd b7bd 7995 17bc
000003a0: b28c 10be eb73 2f3e 3805 0fbe 75a3 6fbe
000003b0: fa4b 823e 1e1d 4abe 7099 b4be afba d4bd
000003c0: 4d28 43bd a5d2 b2bd 38da da3d d4f3 213e
000003d0: 331b 66bd d3c9 b73d 8210 a8bd cf3f b13d
000003e0: 734f 9bbd 6e4a 5c3e 89fa ff3d 07d0 6ebd
000003f0: bfe6 3abe c30c 05bd 8249 86bd 3b8f c9bd
0.01218807 0.025981661 -0.13588136 0.078053646 0.025728758 0.19465186 -0.18152006 -0.20764059
-0.20365794 0.03092924 0.10586162 -0.027227532 -0.15260969 -0.002498586 0.048939254 -0.04702526
-0.0018771113 -0.050086647 0.0014531523 -0.11280351 0.043985806 0.055816293 0.06949629 -0.08910926
0.013857272 -0.09286568 -0.04786205 0.16537957 -0.06459873 0.014414297 0.1425088 0.04813856
-0.1343013 -0.081733845 0.07481816 0.17335734 0.03883679 0.086310044 -0.03090057 0.085292086
-0.1791391 -0.22933292 0.10850969 0.32746825 -0.1435373 0.0074878666 -0.45056933 -0.012083802
-0.41496983 0.12326745 0.10956363 -0.019918812 -0.2967749 -0.21415165 0.17813602 -0.42635816
-0.15544243 -0.054429688 -0.1893597 -0.25886384 -0.19006975 -0.0005114795 -0.16761325 0.071022876
-0.078948684 -0.011813157 0.020301716 -0.11729896 0.1766667 -0.0033666836 -0.28089195 0.12928723
-0.15021749 0.1857632 -0.34865713 -0.028126787 0.0668923 -0.30514333 -0.26832038 0.020754697
-0.03768844 -0.037241053 0.0649412 0.1427749 -0.09987498 -0.05821162 -0.15078564 -0.22517785
-0.1363269 -0.097531416 -0.08529643 -0.18303525 -0.04268829 -0.044919137 -0.010969333 -0.0003221018
-0.100814335 -0.0004630625 -0.043813836 -0.13499427 0.07225096 0.035203706 0.046434484 0.021690177
0.012176039 -0.17000276 0.15033561 0.025476625 0.12058195 0.057828635 -0.14234386 -0.079885684
0.009761617 0.11954183 0.061246183 -0.19402602 0.17153811 -0.35061616 0.051796447 -0.18304363
-0.051882554 0.029731685 -0.17497306 -0.0900774 0.075134106 0.14311153 0.14134936 0.11576758
-0.006544532 -0.017066224 0.09926441 -0.14733739 -0.099819064 -0.04723688 -0.060750034 -0.093101636
0.07787867 -0.10173309 0.1313419 -0.13889107 -0.026920816 0.049316704 0.0052742083 0.14992936
0.093779854 -0.010736942 0.034268465 0.10821252 0.10623334 -0.061106198 0.20997334 0.06149984
-0.03868066 0.16044556 -0.100527406 -0.05286483 0.09832455 -0.00020868103 0.054428745 -0.12341613
-0.15028791 -0.12534967 -0.13069916 -0.09191559 0.08877319 0.12878613 0.030829472 0.00355492
0.108381346 -0.16899633 0.082966596 0.14130336 -0.0518387 -0.14111097 -0.0136520695 0.06464027
0.012637733 0.08984156 0.1340089 0.08809275 0.019593418 -0.13699168 0.12651886 -0.05225315
0.1460221 0.112850316 0.12390421 0.09969687 -0.13317011 -0.12966439 0.13356248 -0.06261231
0.09361176 -0.18272305 -0.016740635 0.07853196 -0.13482577 0.063246004 0.05544417 0.039046895
-0.3587316 -0.24189933 0.28473577 0.3114287 -0.2470212 0.036517423 -0.3455491 -0.009669169
-0.33531952 0.022071293 0.027771777 -0.1816407 -0.13010362 -0.15170506 0.23163792 -0.3125488
-0.26162064 0.118646435 -0.048921317 -0.041958373 -0.18530408 0.1512127 0.06665673 0.11549274
-0.08730412 -0.23694573 0.25340158 -0.040476505 0.28823143 -0.008221721 -0.08983917 -0.009251946
-0.14116171 0.17134063 -0.13966835 -0.23402198 0.2544859 -0.1973767 -0.35273314 -0.103871696
-0.047645856 -0.087315835 0.10686153 0.1581567 -0.056178283 0.08974042 -0.082062736 0.08654749
-0.07583513 0.21512768 0.12498958 -0.05830386 -0.18252085 -0.032482874 -0.06556989 -0.09841772

model.rnn.weight_hh_l1 f4 [160, 40]
00000000: 491e f03c f78c 2f3d 2b68 c03c c4a3 19be
00000010: f4e4 1c3c 7681 dbbc 0781 473d c3e4 0a3d
00000020: 9fff fe3d a9cf 22be 722c 033b b0b7 e03c
00000030: 5235 c73d e70d 273e 4d80 b2bd 7fb9 e53d
00000040: 0672 593d 489b 483d 02f2 403e 45cf 06bc
00000050: aea1 ad3d 9339 6cbd fb88 bf3d 8c7d aabd
00000060: 2d25 a8bd cbef 813d a10d e0bd 8a03 a53d
00000070: 7327 503d daf6 0e3e 7174 5dbd 0b21 fc3d
00000080: e3ec f13d 4749 b73d 73ef e13d 8653 0a3e
00000090: 17a8 9fbb 2628 d0bc 6068 77bc 1352 aebd
000000a0: cedc e63d 930d 333d 2145 50bd eed4 6a3c
000000b0: ca4f bb3d c004 01be c076 803d 9b1a aa3c
000000c0: 312c cf3d b859 07be fa03 88bd 77f4 ed3d
000000d0: 1838 13be 624a fa3d 73b9 fb3d c4a3 fabc
000000e0: 39ea b9bd 5d89 b43d 91c3 f0bc 7df7 2abd
000000f0: 3afc 943d a928 f0b9 3155 8b3d 3177 18bd
00000100: e900 4ebd e46a 66bd 1571 003e bd8a bebd
00000110: a5cb f53d 6162 c6bd 36c1 e73d 575c c83d
00000120: 0fbb 33bd a0a5 55bd ada6 3d3d 4fa0 e8bd
00000130: 18d0 ffbd 4823 02be 9941 083e 0fa4 363e
00000140: 21b5 f7bc 83fa b2bd 6163 6d3e 366a 3abe
00000150: 3bf8 f7bc b7f5 17be 4c31 08bd 6e4b 9e3d
00000160: 41cb 163d d366 6bbd f172 1ebe 218c a43d
00000170: ce26 10be 114e ce3b 71c6 74bc 021a 31be
00000180: f3e2 fdbd 555a d4bd c57a 2a3e d127 453c
00000190: 098f d03d b910 7b3c 85c7 06be feea acba
000001a0: 6229 023e 0f5f d0bd 3d49 d6bd 5c46 b8bd
000001b0: 8916 55bd bc21 9d3c 6431 27bd c703 163e
000001c0: 23a6 10be f321 353d 7597 203d e4f5 9dbd
000001d0: 2122 c83d 14dd 32be 18d9 ec3d c04a e53a
000001e0: 9cd3 b6bd acd0 b33d 6a17 7ebe 8267 163d
000001f0: 66c7 16be cb62 073e e01f debd cc6d 53bd
00000200: 397f 813d 8aa4 573d 72a1 38bd f810 613d
00000210: 155e b0bc 8969 333e d81d f5bd 94ca cdbd
00000220: b66b 103e 874e 963d 39c0 cebd d510 4dbd
00000230: 8f0d 2fbe 81c5 cebd 58f8 2a3e c180 30be
00000240: d6cb 8ebd b8d5 243e eee6 0a3e 0e2d 013e
00000250: 8b9f d6bd bc6e 043e 2b53 8b3c fb15 953d
00000260: ace6 e0bd 1eff 443d 8953 d63d e097 013e
00000270: d5f4 7bbd 1994 9cbd 01a3 28be 6820 193c
00000280: d910 7b3d fd0b 10be e49b 5fbd 3f31 ebbd
00000290: 2af4 93bc b491 1c3d 3fce a23d ff28 833b
000002a0: 949d 4a3e 5cb4 3cbe f1ae 5e3b aad8 a8bd
000002b0: 4574 9fbd bd7d 7a3d 8623 573e 139f 1fbe
000002c0: f099 f23d 88df 5c3d f58f 2a3e ee46 eb3d
000002d0: 97b0 59be 2a7c 0bbe ad18 4bbe 5bc4 71bd
000002e0: 7936 f9bc ec11 ffbd b2e2 073e 72d5 3e3e
000002f0: f22e a73c fd0d 1d3d 186e 043e 10de 143c
00000300: 1ff6 5d3d 7220 f63d bd7d b1bc 5a73 213e
00000310: 496e cf3b 0a43 abbd 4ae0 b1bd 5491 cc3d
00000320: ebf5 90bd bc00 073a c395 81bc 98c8 893c
00000330: c386 a93d 1076 64bd b989 56be 5daf 08be
00000340: 7009 f5bc 3995 85bd e073 efbc 4e9d 3dbd
00000350: 9da8 993d caf8 f03d 9d2f 2fbd ce6d 303e
00000360: a406 193e 3382 4f3e 2c3f 463e 22e0 c6bd
00000370: 1efb 2bbd 7b39 3e3e 2742 eb3d fba9 193e
00000380: e756 493e 13af b2bd f5c6 5dbd c577 dcbd
00000390: f880 b3bd 2e76 463d 934f 0f3d f76f 91bc
000003a0: f501 21bd 576a cfbd 016e 053e e7c3 303d
000003b0: 9691 bbbb 1c08 36be 24e7 28bd b63f 5dbd
000003c0: f0bb 4fbe 1ced dd3c 85e5 2f3e 9b8a 153d
000003d0: e6ea b3bd 6ec2 28be 04a9 323d 6404 103e
000003e0: 3d10 4cbe bfc0 be3d 1740 d63d c901 c6bb
000003f0: 0289 8bbd 4348 4d3e b000 0b3e c1f5 4a3e
0.029311316 0.042859044 0.023487171 -0.15003878 0.009576071 -0.02679513 0.048707034 0.03390957
0.124510996 -0.15899529 0.0020015505 0.027431339 0.09726967 0.16313897 -0.08715878 0.11217021
0.053087257 0.048976213 0.18842319 -0.008228128 0.084781036 -0.057672095 0.09352299 -0.083247274
-0.08210216 0.06344565 -0.109400995 0.08057316 0.05081887 0.13961354 -0.054066125 0.1231099
0.11812761 0.089495234 0.110319994 0.13508424 -0.004872333 -0.02540977 -0.0151005685 -0.08511748
0.11272584 0.043714117 -0.050847176 0.014332993 0.09146078 -0.12599468 0.0627265 0.02076464
0.10115851 -0.13217819 -0.066413835 0.116188936 -0.14376867 0.12221219 0.12291231 -0.030595668
-0.090778776 0.088152625 -0.029390128 -0.04173993 0.07274671 -0.0004580666 0.06803358 -0.037223045
-0.050293837 -0.056254283 0.12543137 -0.09303806 0.12001733 -0.09686733 0.11316149 0.097832374
-0.043879565 -0.052159905 0.046301533 -0.113587014 -0.124908626 -0.12708771 0.13306274 0.17836021
-0.030237736 -0.087391876 0.23182441 -0.18204579 -0.030269733 -0.14839827 -0.03325014 0.07729231
0.03681493 -0.057471108 -0.15473534 0.0803454 -0.14077303 0.0062959273 -0.01493989 -0.17295077
-0.12396803 -0.10368792 0.16648395 0.012033419 0.10183532 0.015323811 -0.13162048 -0.0013192592
0.12711099 -0.10174381 -0.10463188 -0.08997795 -0.052023444 0.019181125 -0.040818587 0.14649878
-0.14125876 0.04422183 0.03920694 -0.077129155 0.097721346 -0.17467147 0.11564845 0.0017493591
-0.0892708 0.087800354 -0.2481362 0.036719806 -0.14724502 0.1322128 -0.108459234 -0.051618382
0.06323094 0.05264715 -0.04507584 0.054947823 -0.021529237 0.17520727 -0.11968583 -0.10048404
0.14103588 0.07339197 -0.10095257 -0.05006488 -0.17095016 -0.10096265 0.16696298 -0.17236616
-0.06972472 0.16097152 0.13564655 0.12614843 -0.10479649 0.12932867 0.017007431 0.07279583
-0.10981497 0.04809486 0.10465152 0.12655592 -0.061512787 -0.07645435 -0.16468431 0.009346105
0.061295364 -0.14067073 -0.05459203 -0.11484002 -0.018060762 0.03822489 0.079494946 0.00400269
0.19786674 -0.18428177 0.0033978785 -0.082444504 -0.077858485 0.06115507 0.21009645 -0.15588026
0.118457675 0.053924114 0.16656478 0.11488138 -0.2125877 -0.13621584 -0.19833632 -0.05902515
-0.030421482 -0.1245459 0.13270071 0.1863611 0.020408127 0.03834342 0.12932622 0.009086147
0.054189797 0.12017907 -0.021666402 0.1576666 0.0063302857 -0.08362396 -0.08685358 0.09988657
-0.07078155 0.0005149951 -0.015818482 0.016819283 0.08277657 -0.055776656 -0.20950975 -0.13348146
-0.029911727 -0.065226026 -0.029230058 -0.046292596 0.075028636 0.11766203 -0.042770017 0.17229387
0.1494394 0.20264511 0.19360036 -0.09710719 -0.04198753 0.18576615 0.11487227 0.15006249
0.19662057 -0.08724799 -0.05414482 -0.10765032 -0.08764833 0.04845255 0.034987997 -0.017753584
-0.039308507 -0.101277046 0.13030244 0.043155577 -0.0057241423 -0.17776531 -0.041236058 -0.054015838
-0.20286536 0.027090602 0.17177399 0.036509138 -0.08785038 -0.16480419 0.043618217 0.14064175
-0.1992807 0.09314107 0.10461443 -0.0060426933 -0.068132415 0.20047097 0.13574481 0.1982031

model.rnn.bias_ih_l1 f4 [160]
00000000: 6ffd 1e3d cb38 9f3d 02d4 4c3d 3ab5 3f3e
00000010: 31b6 cf3d 95bc f53d 62bd 21ba c36c 1d3e
00000020: 5799 e93c 0540 e0bd 38c7 ff3d db7c 293e
00000030: ffb2 e3bd 0e2a a53d 5c38 f5bd 3f66 523c
00000040: 2251 dc3c 90c3 853c b94a f93d 5406 af3d
00000050: 4ae0 8e3d c83e 083e c1a0 813d 4aa8 213d
00000060: 3f97 7a3d d0bd ac3c c5fa a23d 4d81 96ba
00000070: 7c23 8d3e cfc1 6f3e c294 0f3c a9a7 023d
00000080: 461f 8f3e a15f 17be 97f7 e33d ddc3 2a3d
00000090: 7440 1e3e 8289 6b3e 0ca9 db3d 8b59 213e
000000a0: a438 1d3e db9f bdbd 2c50 0c3e ca14 7f3d
000000b0: 9594 b5bc 3d9a 533d ee67 5e3b 7eba 073e
000000c0: 691a 26be 4014 d6bd 5720 c3bd e098 17bd
000000d0: ca5a 613d b1e8 8bbd 6ee1 04be 5295 df3d
000000e0: 4448 ab3d a952 8dbd 3dcc 9d3d 2614 88bd
000000f0: 485b 7d3d 3004 ecbd faff dabd 8805 293e
00000100: 7b94 b5bc 3116 4fbd c9f6 d7bd 992e 0bbe
00000110: 7048 51bd ae1b 503c 01e6 07be eb3d 92bd
00000120: a022 533c d26d adbd 7e89 483e 0fd8 7e3d
00000130: 2ccb be3d dfb4 1d3c d96a bbbd be63 223e
00000140: cdaa 4cbe bd9d 9bbd b217 2d3d 433e 16be
00000150: 5479 c33c feb1 b6bb df5e 193e a040 5b3d
00000160: 09a6 b53d 9e3c 20bd f0f2 0d3e 4534 4e3d
00000170: 6d37 7ebd 17cb 163e c2dd 01be d598 0e3e
00000180: 3b29 273e 7b72 a83a 824c a23d 9fa7 23be
00000190: eb97 e93d ea62 303e ba85 f3bd 1268 a03d
000001a0: 9e85 fbbc b414 54bd 370c a139 5573 fdbd
000001b0: 3e90 513c b34f debd eaba 723e ba24 243d
000001c0: a867 a1bd c391 9f3c 309c c33d f167 3ebe
000001d0: 028f 6cbd e17a 073e d9c5 b83c d410 bf3d
000001e0: 8333 ba3d 247b 683e f9e7 06be 0cd7 9eba
000001f0: 8e1b 21be 2a60 d13d a0f2 83bd 5a42 89bc
00000200: 4f53 643d 658c 98bc b601 ccbd 0bf7 c7bd
00000210: c28f 1cbd c041 74bd 0a6d 6b3d d5bc a7bd
00000220: 8163 0f3d 72ef 023e a436 943d 6d98 2a3c
00000230: a4d1 a53d 0aa9 aa3c 4a3e 243c 57e9 483d
00000240: fe8d 123e 0a05 003b e2e6 1f3e ce77 04bd
00000250: f989 223e 8382 033e adbf 3f3e 343e f13b
00000260: 4fb4 503e 3688 65bd e9cb 273d 2a56 7dbc
00000270: d11a 453e f2f0 123e fd36 823c e7cf 253c
0.03881591 0.07774504 0.050006874 0.18721476 0.10142172 0.1199886 -0.0006169883 0.1537352
0.028515501 -0.10949711 0.1248917 0.16551535 -0.11118125 0.08064662 -0.1197364 0.01284176
0.026894156 0.016328603 0.12172455 0.08546129 0.069763735 0.13305199 0.063294895 0.039467134
0.061179396 0.021086603 0.07957987 -0.0011482626 0.27566135 0.23413776 0.008763494 0.031898174
0.27953547 -0.14782573 0.111312084 0.041690696 0.15454274 0.23001674 0.107256025 0.15756814
0.15353638 -0.09259006 0.13702458 0.062275685 -0.022165576 0.051660765 0.0033936459 0.13254735
-0.16221012 -0.10453081 -0.09527653 -0.037011027 0.055018224 -0.06831492 -0.1297662 0.109171525
0.08363393 -0.06900532 0.07704971 -0.06644468 0.06185463 -0.11524236 -0.10693355 0.16506016
-0.022165528 -0.050558273 -0.105451174 -0.13591994 -0.051094472 0.012701912 -0.13271333 -0.07140716
0.012886673 -0.08468212 0.19583699 0.06221777 0.09316096 0.009625643 -0.09151239 0.15858361
-0.1998703 -0.075984456 0.042258926 -0.14672188 0.023861565 -0.0055754175 0.14977597 0.053528428
0.08869559 -0.03912031 0.13862205 0.050342817 -0.062064577 0.1472591 -0.1268225 0.13925488
0.16324322 0.0012851501 0.07924749 -0.15981911 0.11405929 0.17225233 -0.11890741 0.0783235
-0.030703362 -0.051777557 0.00030717414 -0.123755135 0.012790738 -0.10855045 0.23704115 0.040074088
-0.07881099 0.019478684 0.09551275 -0.18594338 -0.05775357 0.13230468 0.022555279 0.093293816
0.09091856 0.22703224 -0.13174428 -0.0012118532 -0.15733168 0.1022342 -0.064427614 -0.016755272
0.05574351 -0.018621633 -0.09961264 -0.097639166 -0.038223036 -0.059633017 0.057477035 -0.08190314
0.035007004 0.12786654 0.07236984 0.010412318 0.080966264 0.020832557 0.0100246165 0.049050655
0.14311978 0.0019534254 0.15615419 -0.032340817 0.15872945 0.12842755 0.18725462 0.0073621515
0.20381282 -0.056038104 0.04096595 -0.015462438 0.19248511 0.14349726 0.015895361 0.010120369

model.rnn.bias_hh_l1 f4 [160]
00000000: 0c41 0e3e 4fbc 593e 0a41 db3d 480b a5bd
00000010: 7b55 ca3d 2440 bf3d cdab a43c 1521 7dbc
00000020: 1bfd 0f3e b691 9dbc 0056 6bbd b4ea 67bc
00000030: 4d55 72bd 81f1 0abe 8fee 683c 36e8 65bc
00000040: 03b3 2e3e 52b3 393e 881b 113e f7c9 fe3d
00000050: 384b 15bb 4e17 5fbd 6754 d03c e55c 313e
00000060: 2d20 003d e284 163d 04c5 2a3d 8844 0c3e
00000070: 598a f73d 73d2 183e df11 8f3e 5843 133e
00000080: ac56 603c f76a 91bd babd a5bd ab8e a3bb
00000090: 9589 d13d 3e38 a23d acdf 093e 71f7 053e
000000a0: 6798 a2bd d178 993d 7118 e3bd 79d2 59bc
000000b0: aad7 df3d 0192 183e 68ab 59bd 8c6e bf3d
000000c0: 1836 05bc e178 fcbb d2fe 8ebd 9033 253d
000000d0: d956 96bd 32d9 d13d 9e76 ae3d 94f6 2dbe
000000e0: 52fc 6cbd 5a4b bbbc 6b2f 6a3d 21f7 0c3d
000000f0: 322e 27be 4dfe 43bd 0abb 653d 49f3 b1bc
00000100: 492a b1bd a96e 263b 57a3 233e 16ca 1ebe
00000110: a375 11bd 84e8 50bc d41c 9c3b e3d3 933d
00000120: 7ed8 6ebd c783 033d bbf6 853d 86c2 08bc
00000130: ede1 9ebc 4ba8 cc3d 956d 4d3d ecb1 73bd
00000140: 8374 1f3c 1d23 923d 947e 893b 91a3 88bc
00000150: a16c 01be bf5f 03be 953e 0bbe 96b2 97bd
00000160: b364 b83d e0b5 89bc a991 183e cee2 05be
00000170: 322c 373e 21c2 093e 67b8 0cbd 2e2d e2bd
00000180: 8d86 6d3d 74cb 6abd 3cbb 813d 9d59 bbbd
00000190: 55a7 d2bd 2579 4b3a e498 9abd 9c76 b13d
000001a0: 1852 bd3c 5638 90bd e6af 00be 57e1 5ebd
000001b0: 7e21 56be b9b5 123d 1f31 5d3d b41f 153e
000001c0: 022e 603e c566 b03d 05ce 053e 8e24 40be
000001d0: 0c49 35be cc59 85bd 1b9a 2e3d 58f4 e53d
000001e0: 67ca 6c3e ab7d ac3d 6832 dabc d4e7 303e
000001f0: 702c fb3d aca3 703e 94da 073e 0546 803d
00000200: beb4 283e e140 1a3e 0638 e03d 35c2 66bd
00000210: 6178 993c d9ba 7dbd 6f48 053e 405d 77bd
00000220: 52ce 123e 416d 743e bf7f ff3d f29f 183d
00000230: 9c97 02bd 4b7c b3bd e6d2 4c3e bcee 28bb
00000240: 9b7e ed3d 6102 67b9 fc37 2c3e f4f9 78bd
00000250: 1cd6 753d 4ee2 813e 92af 1d3e aa14 ea3d
00000260: 98b1 503e 86b8 353c 2f34 9dbd 5054 c73d
00000270: 9abf 243e 579e 3e3e e190 433e 098a 693d
0.13892001 0.2126324 0.107057646 -0.08058792 0.09879585 0.09338406 0.020101452 -0.015449782
0.14061396 -0.01923452 -0.057455063 -0.014155079 -0.05916338 -0.13568689 0.014217033 -0.014032414
0.17060475 0.18134812 0.14170659 0.124408655 -0.002278043 -0.054465584 0.025430871 0.17320593
0.031280685 0.03674782 0.041691795 0.13698018 0.120869346 0.1492403 0.27943322 0.14381158
0.013692539 -0.0710048 -0.08092828 -0.0049913726 0.1023132 0.079208836 0.1346423 0.13082673
-0.07939225 0.07493747 -0.11088646 -0.0132948095 0.109298065 0.14899446 -0.05314198 0.09347257
-0.008130573 -0.0077048396 -0.06982197 0.040332377 -0.073407836 0.10246505 0.08518718 -0.16988593
-0.05785782 -0.022863079 0.057174128 0.034415368 -0.16326216 -0.047849942 0.056086577 -0.021722453
-0.086506434 0.0025395548 0.15980278 -0.15506777 -0.035512578 -0.012750749 0.004764179 0.072181486
-0.05831193 0.032108095 0.06541201 -0.008347159 -0.01939484 0.09993037 0.050153334 -0.05949585
0.009732368 0.071356036 0.0041959975 -0.016679557 -0.12639095 -0.12829493 -0.13598092 -0.074071094
0.09003582 -0.016810358 0.14899315 -0.130748 0.17887953 0.1345296 -0.034355547 -0.110437736
0.057989646 -0.057322934 0.0633454 -0.09147952 -0.10285822 0.00077618874 -0.07548693 0.08665201
0.023110434 -0.07041995 -0.125671 -0.05441412 -0.20911214 0.035817835 0.054001924 0.14562875
0.2189255 0.08613352 0.13066871 -0.18763945 -0.17703646 -0.06511268 0.042627435 0.112282455
0.23124085 0.08422407 -0.026635364 0.17275935 0.12264335 0.23499936 0.13266975 0.06263355
0.16475198 0.15063812 0.109481856 -0.056337554 0.018734159 -0.06194577 0.13015912 -0.060391665
0.14336517 0.23869802 0.124755375 0.03726191 -0.031882867 -0.087639414 0.20002326 -0.0025777062
0.11596414 -0.00022030763 0.16818231 -0.06078525 0.060018644 0.2536797 0.15399006 0.114297226
0.20380247 0.011091357 -0.07675969 0.09732878 0.16088715 0.1861509 0.19098236 0.057016406
