generate_forecasts/output/Local_Forecasts/Dairy products and eggs/2023/models/SimpleFeedForward/W0/gluon_ts/prediction-net-state.pt (torch, 34030 bytes, 7 tensors)

model.nn.0.weight f4 [20, 32]
0.095700644 0.049955104 -0.001471005 0.07265072 0.10963498 0.1100211 0.09619186 0.04517422
0.048533753 0.065078825 0.1245359 0.007805546 0.031460278 0.09401856 0.06243434 0.10390783
0.10821359 0.02259606 0.0019358194 0.034822013 0.098325126 0.09118774 0.016136829 0.097988866
0.09901755 0.10106679 -0.0058712307 0.04347134 0.031841107 -0.006527694 0.09466859 -0.020471072
-0.01105521 -0.03481062 0.043400906 0.0115962755 0.059593245 0.03432501 0.03579425 -0.046870224
-0.007017708 0.08777666 -2.1945036e-05 -0.051168095 -0.04256321 0.034984365 -0.04511029 -0.024425281
0.038608294 -0.055566594 -0.063068815 0.02986553 0.023015525 0.042605612 0.09317864 0.0007226706
0.051579848 0.061663445 0.014807774 0.03083461 0.016507085 0.10278551 0.04531717 0.10412477
-0.04876539 -0.003027311 -0.090982154 -0.019164197 -0.024938203 -0.08796645 -0.091501094 -0.018887307
-0.09444648 -0.045291103 -0.08558451 0.0035976076 -0.10257956 -0.023950558 -0.05316415 -0.023560137
0.042762466 -0.019616116 0.06187553 -0.027610054 0.021833852 0.03543365 0.08143831 0.07741412
0.00049076346 0.033549722 0.090222344 0.02932205 0.12306257 0.08641964 0.09837256 0.1798464
-0.033895455 -0.07251197 -0.025982017 0.031247532 -0.027829455 -0.038543057 -0.07240377 -0.02454251
0.02834203 0.0025125865 -0.07885718 -0.014046927 -0.06439343 -0.052125953 -0.041380547 -0.050561495
-0.09458047 -0.0104718255 -0.015595369 -0.053616956 -0.0026825236 -0.03072443 0.014150775 0.11174229
0.10115657 0.04506205 0.10292122 0.06812055 0.123998694 0.12026639 0.08133869 0.113785304
0.011349901 0.103834435 0.10903839 0.032602362 0.032882977 0.05813938 0.010720713 0.006675405
0.03424505 0.04264658 0.016589606 0.12502892 0.12598883 0.086984955 0.0286457 0.009444255
-0.0017785963 0.10950895 -0.016932849 0.028181894 0.108126685 0.007361395 0.059616115 0.07671458
-0.008840278 0.02097098 0.1152473 0.001496537 0.03567958 0.08642776 0.04804898 -0.011004255
0.06687677 0.10092782 0.043234836 0.04894773 0.09329596 0.11506375 0.033009004 0.017164802
0.0043185293 0.07100584 0.09498798 0.032486714 0.102236964 0.021886675 0.07012923 0.023751374
0.099027425 0.08162432 0.058692507 0.08193308 0.014077235 0.019669851 0.051206738 0.0467548
0.112497784 0.035877336 0.035419844 0.08080267 0.014686185 0.03862542 0.026178984 0.05484107
-0.002133252 -0.003581531 0.1120211 0.10903777 0.035433564 0.10887574 0.019279666 0.13790236
0.07409015 0.1364544 0.08393791 0.052172184 0.0386206 0.010574858 0.03960908 -0.0045719435
0.11297693 0.06619257 0.03915403 0.06583603 0.12168799 0.03934265 0.09179995 0.12538695
0.118023515 0.084792316 0.024431549 0.032242008 0.08023951 -0.0055873594 0.03879548 -0.047217473
0.05258789 0.034659263 0.02432796 0.024811897 -0.006457897 0.08261625 0.053238887 0.12069726
0.044939954 0.08788791 0.031601127 0.055841997 0.028181536 -0.00039388845 -0.007718003 0.09164754
0.07558114 0.02461753 0.00069767 0.105348624 0.020622775 0.13321446 0.13328196 0.030480629
0.058672853 0.1339008 0.06327288 0.030554464 -0.004467296 0.08207517 0.035359185 -0.019113276
00000000: b3fe c33d b99d 4c3d bdce c0ba e7c9 943d
00000010: 4e88 e03d be52 e13d 3d00 c53d 9a08 393d
00000020: 54cb 463d 0c48 853d ae0c ff3d aac5 ff3b
00000030: 7edc 003d ce8c c03d 27bb 7f3d a1cd d43d
00000040: 169f dd3d 5f1b b93c 52bb fd3a 87a1 0e3d
00000050: af5e c93d a3c0 ba3d 6231 843c 63ae c83d
00000060: b7c9 ca3d 1bfc ce3d 7463 c0bb 010f 323d
00000070: d26b 023d 44e6 d5bb 9be1 c13d f3b2 a7bc
00000080: e920 35bc 9595 0ebd 26c5 313d 4efe 3d3c
00000090: 0c18 743d 6298 0c3d fe9c 123d fefa 3fbd
000000a0: cdf4 e5bb 40c4 b33d 9b16 b8b7 a395 51bd
000000b0: c356 2ebd c44b 0f3d 91c5 38bd 8717 c8bc
000000c0: bb23 1e3d cc99 63bd 392a 81bd 8ea8 f43c
000000d0: 0e8b bc3c 3983 2e3d 71d4 be3d 9a71 3d3a
000000e0: 6445 533d cf92 7c3d 4e9c 723c dd98 fc3c
000000f0: de39 873c 3681 d23d 7f9e 393d 5e3f d53d
00000100: 38be 47bd da65 46bb da54 babd 3cfe 9cbc
00000110: 344b ccbc c127 b4bd ed64 bbbd 8eb9 9abc
00000120: 286d c1bd 2a83 39bd ee46 afbd d7c5 6b3b
00000130: 3b15 d2bd f633 c4bc a7c2 59bd 3001 c1bc
00000140: b227 2f3d fab1 a0bc 3271 7d3d 7b2e e2bc
00000150: e8dc b23c e022 113d 21c9 a63d 4b8b 9e3d
00000160: 94a6 003a 6f6b 093d 7ec6 b83d cc34 f03c
00000170: 3b08 fc3d c8fc b03d 8e77 c93d a829 383e
00000180: f6d5 0abd 2881 94bd 3dd8 d4bc d3fa ff3c
00000190: 99fa e3bc 53df 1dbd 6e48 94bd 600d c9bc
000001a0: 8b2d e83c 35aa 243b e07f a1bd 1525 66bc
000001b0: b4e0 83bd 0682 55bd a67e 29bd 9219 4fbd
000001c0: 68b3 c1bd 0592 2bbc b883 7fbc 749d 5bbd
000001d0: 47cd 2fbb cdb1 fbbc a7d8 673c 24d9 e43d
000001e0: 2d2b cf3d fc92 383d 5cc8 d23d c982 8b3d
000001f0: 07f3 fd3d 3a4e f63d e694 a63d 4508 e93d
00000200: eff4 393c 26a7 d43d 854f df3d 0e8a 053d
00000210: 4db0 063d 8f23 6e3d eea5 2f3c 5bbd da3b
00000220: 8a44 0c3d 2eae 2e3d ede6 873c 9507 003e
00000230: 3703 013e 2b25 b23d 63aa ea3c 14bc 1a3c
00000240: ca1f e9ba 3a46 e03d c2b6 8abc b7dd e63c
00000250: 8671 dd3d db37 f13b 0730 743d 891c 9d3d
00000260: d0d6 10bc 55cb ab3c c706 ec3d 7327 c43a
00000270: c024 123d 0a01 b13d 02cf 443d 314b 34bc
00000280: b0f6 883d 3fb3 ce3d 0317 313d 6a7d 483d
00000290: f411 bf3d 8ba6 eb3d 7334 073d 339d 8c3c
000002a0: 7382 8d3b 836b 913d 0f89 c23d ca10 053d
000002b0: 9d61 d13d af4b b33c ea9f 8f3d 3e92 c23c
000002c0: e4ce ca3d a72a a73d 8e67 703d 88cc a73d
000002d0: 34a4 663c ab22 a13c 28be 513d f681 3f3d
000002e0: 3d65 e63d 1df4 123d 6614 113d df7b a53d
000002f0: 539e 703c b035 1e3d 4f75 d63c 08a1 603d
00000300: 08ce 0bbb 1fb8 6abb 526b e53d 324f df3d
00000310: c922 113d 3efa de3d 64f0 9d3c 4736 0d3e
00000320: 94bc 973d b4ba 0b3e a4e7 ab3d 80b2 553d
00000330: a230 1e3d 2b42 2d3c 213d 223d 3ed0 95bb
00000340: 7360 e73d f88f 873d fa5f 203d 0ad5 863d
00000350: 8e37 f93d c225 213d 9d01 bc3d 7065 003e
00000360: 50b6 f13d 98a7 ad3d ac24 c83c 3210 043d
00000370: 9d54 a43d 2b16 b7bb 02e8 1e3d 1c67 41bd
00000380: 6666 573d dff6 0d3d 6e4b c73c 5242 cb3c
00000390: c49c d3bb b532 a93d 0511 5a3d 2030 f73d
000003a0: f512 383d 94fe b33d 2f70 013d 94ba 643d
000003b0: f7dc e63c d082 ceb9 4de7 fcbb b5b1 bb3d
000003c0: 49ca 9a3d b4aa c93c d7e3 363a 05c1 d73d
000003d0: 18f1 a83c 5f69 083e 117b 083e 83b2 f93c
000003e0: f252 703d 4b1d 093e 3695 813d 5b4d fa3c
000003f0: 6562 92bb 0717 a83d cbd4 103d 7293 9cbc

model.nn.0.bias f4 [20]
0.050409023 0.02674072 0.07230433 0.045615986 0.044868834 0.04946336 0.05317603 0.06243678
0.044088952 0.053606432 -0.0073268116 0.03996052 0.07574336 0.0 0.050691526 0.022591341
-0.005877994 0.042053558 0.050929513 0.043954782
00000000: b179 4e3d 5b0f db3c 4b14 943d d4d7 3a3d
00000010: 62c8 373d 189a 4a3d 1ccf 593d b6bd 7f3d
00000020: 9e96 343d 6b92 5b3d c015 f0bb a4ad 233d
00000030: 561f 9b3d 0000 0000 eba1 4f3d 7a11 b93c
00000040: 309c c0bb 5a40 2c3d 779b 503d ee09 343d

model.nn.2.weight f4 [320, 20]
-0.11939333 -0.10144843 0.211832 0.16681702 -0.10740507 -0.091230065 -0.012816718 -0.10200058
-0.1284027 -0.055673953 -0.046592783 -0.08107196 0.2710057 -0.0074349367 -0.04834141 -0.055475034
-0.0570241 -0.055725906 -0.11493694 -0.06716103 0.13687831 0.0474017 -0.19388022 -0.23920552
0.12912393 0.11399937 0.16496018 0.025441024 0.14340551 0.048812408 -0.06200121 0.16572817
-0.2843576 0.021132309 0.10357676 -0.019427633 -0.0427215 0.033180464 0.17180446 0.15635665
-0.10539655 -0.067085505 -0.07441134 -0.08964909 -0.07759166 -0.047570147 -0.13969025 -0.12059151
-0.051049095 -0.052734107 -0.02784367 -0.09575852 -0.052907333 0.0055109384 -0.06589002 -0.021901317
0.011662113 -0.12859003 -0.0328894 -0.06693582 -0.10854532 -0.1101601 0.00967974 -0.043760184
-0.026619287 -0.03337768 -0.10983242 -0.03512129 -0.037602708 -0.060893085 0.062826075 -0.1295804
0.011982524 0.0037079025 -0.090570115 -0.06167547 -0.0080816755 -0.054089807 -0.026897065 -0.096222825
-0.01189207 -0.032544896 -0.059862506 -0.16608986 0.07376585 0.09525604 0.09076426 0.032907277
0.029090146 0.0791455 -0.033803515 0.05069441 -0.22221737 -0.019306492 0.087009594 -0.011322079
-0.028148826 -0.026079757 0.027574897 0.051114716 -0.0010500916 0.08398735 0.08811602 0.02934285
0.02753278 0.010383531 0.010156737 0.036110517 -0.02513296 -0.022355804 0.07484254 0.0026737072
0.04000786 -0.019530639 -0.03308066 0.04409299 -0.01889021 0.009214357 0.08810638 0.012834758
-0.018371917 0.031200774 0.14858603 0.18043558 -0.03268157 -0.038085893 0.04540075 -0.019277137
-0.059471067 -0.062127613 0.011642595 -0.046928436 0.15219185 -0.0014013405 -0.06368476 -0.024361018
0.07522921 0.021087082 0.06034739 -0.043343633 -0.040237725 -0.06659427 -0.050835118 -0.16264854
0.032440692 0.01698812 0.07190357 0.08384964 0.053718537 -0.020990858 -0.034348767 -0.0050916835
-0.16099007 0.0072819465 0.0611662 -0.09205684 0.019004893 0.02049 -0.056327045 -0.05033595
0.09908361 0.05326963 -0.09180158 -0.15318793 0.09229996 0.024739187 0.08101294 0.08618715
0.08737931 0.024647266 -0.035621732 0.04019171 -0.20282906 -0.024823662 0.15334955 -0.041083246
-0.05512523 0.08535094 0.031867903 0.02271092 0.12285458 0.1152426 0.09582873 0.03653158
0.07965632 0.009614599 0.0027202726 0.100190274 0.028174423 0.07822791 0.035789948 0.049379706
0.08387776 -0.004589177 0.008335955 0.0812905 0.04807293 0.12799996 0.06664668 0.061748363
0.030055577 -0.019975886 -0.08479426 -0.088606246 0.029031573 0.043962203 0.041767534 0.046569683
0.081137374 -0.03584121 0.042995945 0.0047633047 -0.09577806 -0.02458612 0.025354987 -0.017452784
0.009798642 0.06954368 -0.011345418 0.08479321 0.033971217 0.026885118 -0.14736009 -0.14251204
0.07486886 0.03247086 -0.011123579 0.10091701 0.090932816 0.012141583 -0.074879535 0.0031593312
-0.15448123 -0.012853097 0.05247587 -0.030423451 0.06274336 -0.015329792 -4.9544724e-05 0.07565477
0.012694225 -0.10024233 -0.101176046 -0.11512029 -0.09793457 -0.08084632 -0.09679243 -0.12089705
-0.076178074 -0.109646045 0.056660198 -0.09631417 -0.14004019 0.015005856 -0.08296497 -0.12877049
00000000: 7d84 f4bd 32c4 cfbd 7dea 583e 15d2 2a3e
00000010: 30f7 dbbd d4d6 babd 36fd 51bc aee5 d0bd
00000020: ff7b 03be 5f0a 64bd 13d8 3ebd 0e09 a6bd
00000030: 42c1 8a3e c5a0 f3bb a401 46bd ca39 63bd
00000040: 1a92 69bd d940 64bd 0f64 ebbd b98b 89bd
00000050: d429 0c3e 4928 423d 8988 46be 4bf2 74be
00000060: 1039 043e 8078 e93d 52eb 283e b269 d03c
00000070: e5d8 123e 85ef 473d fbf4 7dbd a5b4 293e
00000080: 5297 91be aa1d ad3c 0d20 d43d b326 9fbc
00000090: bdfc 2ebd 3de8 073d 82ed 2f3e f51b 203e
000000a0: 25da d7bd 2064 89bd f964 98bd f199 b7bd
000000b0: 60e8 9ebd ead8 42bd f60a 0fbe aef8 f6bd
000000c0: db18 51bd b8ff 57bd 6918 e4bc 0b1d c4bd
000000d0: 5cb5 58bd 1a95 b43b 59f1 86bd 646a b3bc
000000e0: 7212 3f3c 1bad 03be 09b7 06bd a615 89bd
000000f0: 024d debd 9e9b e1bd c697 1e3c e13d 33bd
00000100: b110 dabc 09b7 08bd d2ef e0bd 57db 0fbd
00000110: 4c05 1abd 076b 79bd f5aa 803d b9b0 04be
00000120: 5952 443c 4800 733b d37c b9bd 6b9f 7cbd
00000130: 0169 04bc 468d 5dbd 3c57 dcbc 7910 c5bd
00000140: f5d6 42bc cc4d 05bd 6332 75bd 7613 2abe
00000150: 8d12 973d 9915 c33d 9de2 b93d c8c9 063d
00000160: 754e ee3c 0917 a23d 8e75 0abd f1a4 4f3d
00000170: f38c 63be a628 9ebc 1632 b23d 3e80 39bc
00000180: 5e98 e6bc 37a5 d5bc c0e4 e13c aa5d 513d
00000190: 3aa3 89ba 8f01 ac3d 2c76 b43d 6b60 f03c
000001a0: 6d8c e13c b01f 2a3c 7168 263c 9fe8 133d
000001b0: a3e3 cdbc 8523 b7bc 0c47 993d 5d39 2f3b
000001c0: 48df 233d b8fe 9fbc 967f 07bd da9a 343d
000001d0: a4bf 9abc d0f7 163c 1e71 b43d e048 523c
000001e0: b480 96bc c498 ff3c f026 183e 1bc4 383e
000001f0: 1cdd 05bd f4ff 1bbd 23f6 393d 16eb 9dbc
00000200: ef97 73bd 8679 7ebd 95c0 3e3c 0838 40bd
00000210: 2ed8 1b3e 2fad b7ba 286d 82bd c290 c7bc
00000220: c611 9a3d d1be ac3c d32e 773d 1889 31bd
00000230: 50d0 24bd 9462 88bd 7c38 50bd 578d 26be
00000240: 88e0 043d ab2a 8b3c 2e42 933d 5cb9 ab3d
00000250: f807 5c3d 05f5 abbc 4bb1 0cbd 23d8 a6bb
00000260: 95da 24be 659d ee3b 6989 7a3d 4c88 bcbd
00000270: 26b0 9b3c a5da a73c 30b7 66bd 122d 4ebd
00000280: 59ec ca3d 4131 5a3d 7702 bcbd 4cdd 1cbe
00000290: c307 bd3d d6a9 ca3c 1dea a53d e382 b03d
000002a0: ecf3 b23d 10e9 c93c 18e8 11bd 10a0 243d
000002b0: 6cb2 4fbe fe5a cbbc aa07 1d3e e846 28bd
000002c0: feca 61bd 79cc ae3d eb87 023d 400c ba3c
000002d0: 2f9b fb3d 5004 ec3d da41 c43d 23a2 153d
000002e0: da22 a33d 8d86 1d3c 9a46 323b 8f30 cd3d
000002f0: 0cce e63c f435 a03d 7b98 123d 6042 4a3d
00000300: 1ac8 ab3d cf60 96bb 8893 083c a27b a63d
00000310: 1fe8 443d 6c12 033e 0e7e 883d daeb 7c3d
00000320: 1d37 f63c 78a4 a3bc 9da8 adbd 3177 b5bd
00000330: 9fd3 ed3c b611 343d 6f14 2b3d dabf 3e3d
00000340: 5a2b a63d 3cce 12bd 841c 303d 7f15 9c3b
00000350: 4a27 c4bd d568 c9bc 43b5 cf3c 24f9 8ebc
00000360: 7c8a 203c eb6c 8e3d 22e2 39bc 10a8 ad3d
00000370: 6725 0b3d 2e3e dc3c 90e5 16be adee 11be
00000380: d854 993d 2a00 053d ac3f 36bc 94ad ce3d
00000390: fc3a ba3d 7ded 463c 715a 99bd c80c 4f3b
000003a0: 5430 1ebe cc95 52bc f0f0 563d 9a3a f9bc
000003b0: 977f 803d cf29 7bbc 3ece 4fb8 e3f0 9a3d
000003c0: 70fb 4f3c da4b cdbd 6335 cfbd 30c4 ebbd
000003d0: eb91 c8bd c192 a5bd 1c3b c6bd df98 f7bd
000003e0: 4003 9cbd 1b8e e0bd 8614 683d 5d40 c5bd
000003f0: b266 0fbe 1fdb 753c 8ae9 a9bd 69dc 03be

model.nn.2.bias f4 [320]
-0.052971285 0.09830635 -0.05996591 -0.05529299 0.011312269 0.0232571 0.00931921 -0.017205695
0.05271646 0.048154466 -0.007003921 0.005635052 -0.049691077 0.05844862 0.0016943073 0.013758304
-0.0799306 -0.01192027 -0.07576664 -0.009745544 -0.05648551 0.10396165 -0.06263772 -0.057579853
0.011640976 0.024603808 0.01028467 -0.018249797 0.05507674 0.04993039 -0.0074898703 0.005430598
-0.051703088 0.06334718 0.0013177987 0.014684802 -0.084227465 -0.012230131 -0.07991887 -0.010492562
-0.058375143 0.10346297 -0.057316322 -0.052644756 0.015695395 0.019919312 0.005421462 -0.013671396
0.06113443 0.04547616 -0.0032059185 0.009883604 -0.04698477 0.063351944 0.005762253 0.010205126
-0.077283256 -0.01635563 -0.073072396 -0.0059603318 -0.051694594 0.09495621 -0.059907496 -0.055403512
0.010726516 0.023884453 0.009727654 -0.01764265 0.053119507 0.048314594 -0.0074284174 0.0051061073
-0.049839128 0.056803845 0.0010797695 0.01422185 -0.0793079 -0.011314871 -0.075349174 -0.010274713
-0.053683314 0.097393654 -0.060118064 -0.055463053 0.011892616 0.023228694 0.008832121 -0.016860697
0.05509135 0.048323017 -0.006582808 0.006203551 -0.049904395 0.058424935 0.0022622016 0.013439841
-0.07995402 -0.012525712 -0.07575463 -0.009460693 -0.062715136 0.10179433 -0.053823404 -0.049020864
0.020573556 0.014782674 -0.00038618234 -0.008297679 0.06822347 0.042134557 0.001664515 0.015154277
-0.04360396 0.06506454 0.011277086 0.0052108117 -0.073902525 -0.021356283 -0.068876445 -0.00076392747
-0.050016437 0.08474604 -0.056734517 -0.052167088 0.010618793 0.021078946 0.007602307 -0.015541144
0.050359294 0.045718707 -0.0065029957 0.0059493845 -0.047237925 0.052337423 0.0025257568 0.012876199
-0.07613532 -0.011281795 -0.07123987 -0.00892734 -0.05155017 0.08628789 -0.05523749 -0.05065924
0.01190372 0.019500168 0.0060851895 -0.014313834 0.05357749 0.04435913 -0.0051924125 0.007392018
-0.04587066 0.053451 0.003961949 0.011480842 -0.074549235 -0.012615683 -0.06954253 -0.0076386738
-0.0542796 0.093205884 -0.061256263 -0.05613408 0.012383871 0.022430826 0.00785939 -0.016002964
0.054730892 0.048623327 -0.0059559373 0.0068817516 -0.050439052 0.058322117 0.003135186 0.012951072
-0.08282966 -0.013019948 -0.07800453 -0.008808391 -0.052501176 0.087832674 -0.059059907 -0.054215312
0.012898411 0.020994753 0.006453821 -0.014698511 0.05519566 0.047024656 -0.004740894 0.0078123785
-0.048681665 0.05542159 0.0041175745 0.011469024 -0.07954168 -0.013601648 -0.074826024 -0.007438689
-0.049832582 0.08238334 -0.05457586 -0.049967065 0.011881589 0.018827802 0.005505438 -0.01332328
0.051996775 0.043465216 -0.004534654 0.007442401 -0.0449391 0.051779084 0.0041504204 0.010770612
-0.07413675 -0.012587266 -0.06933914 -0.0069182077 -0.046461623 0.07726984 -0.054351926 -0.04997057
0.009693548 0.019876923 0.0072312863 -0.014749349 0.04825661 0.043617275 -0.006411902 0.0053542573
-0.044958886 0.04839723 0.0021477153 0.012207446 -0.07339127 -0.01023357 -0.06884642 -0.008535527
-0.048993792 0.08033862 -0.05372831 -0.049214803 0.013132456 0.017552769 0.004026779 -0.011831998
0.055467233 0.042455133 -0.0029434795 0.00864226 -0.043836344 0.050701965 0.0053017163 0.009050034
00000000: 6bf8 58bd d754 c93d d09e 75bd e77a 62bd
00000010: 1857 393c ac85 be3c 9aaf 183c f5f2 8cbc
00000020: 37ed 573d 9e3d 453d 2681 e5bb 3ea6 b83b
00000030: df88 4bbd d267 6f3d 8513 de3a 826a 613c
00000040: a8b2 a3bd 3c4d 43bc 8a2b 9bbd c6ab 1fbc
00000050: 5a5d 67bd d8e9 d43d 3448 80bd dad8 6bbd
00000060: cbb9 3e3c ed8d c93c 0881 283c 9980 95bc
00000070: 2698 613d cf83 4c3d 966d f5bb 28f3 b13b
00000080: 9ec6 53bd 2bbc 813d fdb9 ac3a 8698 703c
00000090: 737f acbd e360 48bc 81ac a3bd ffe8 2bbc
000000a0: c61a 6fbd 65e4 d33d 85c4 6abd 07a2 57bd
000000b0: a193 803c d32d a33c 85a6 b13b fefd 5fbc
000000c0: 1968 7a3d 3645 3a3d 631a 52bb d7ee 213c
000000d0: 1a73 40bd aabe 813d 48d1 bc3b 6733 273c
000000e0: af46 9ebd 3efc 85bc fba6 95bd e34e c3bb
000000f0: b6bd 53bd 6778 c23d 9061 75bd cbee 62bd
00000100: 45be 2f3c 54a9 c33c bd60 1f3c 5287 90bc
00000110: d793 593d 86e5 453d 156a f3bb 2251 a73b
00000120: 1d24 4cbd 26ab 683d 0d87 8d3a c302 693c
00000130: 2e6c a2bd 0262 39bc ab50 9abd 4557 28bc
00000140: 09e3 5bbd 5376 c73d 5c3e 76bd 3a2d 63bd
00000150: 3fd9 423c 1a4a be3c 9ab4 103c 721f 8abc
00000160: 78a7 613d 5bee 453d 99b4 d7bb 2847 cb3b
00000170: 8d68 4cbd fc4e 6f3d 7241 143b c732 5c3c
00000180: efbe a3bd a538 4dbc 3e25 9bbd 0601 1bbc
00000190: cb70 80bd 8c79 d03d ee75 5cbd 1aca 48bd
000001a0: e089 a83c 0733 723c 8478 cab9 fdf2 07bc
000001b0: bfb8 8b3d 4995 2c3d db2b da3a a549 783c
000001c0: 119a 32bd 8f40 853d 87c3 383c 75bf aa3b
000001d0: 355a 97bd 5ff3 aebc 180f 8dbd 4e42 48ba
000001e0: 09de 4cbd 558f ad3d 7462 68bd 28ad 55bd
000001f0: 72fa 2d3c c1ad ac3c c61c f93b 48a0 7ebc
00000200: 8c45 4e3d 8a43 3b3d 1517 d5bb 0ef3 c23b
00000210: 8e7c 41bd c45f 563d 2b87 253b b1f6 523c
00000220: d6ec 9bbd 47d7 38bc 35e6 91bd fa43 12bc
00000230: 4526 53bd b5b7 b03d b540 62bd 1080 4fbd
00000240: d207 433c d1be 9f3c 4566 c73b 9284 6abc
00000250: 1274 5b3d ebb1 353d 1d25 aabb be38 f23b
00000260: e0e2 3bbd 70ef 5a3d 3dd3 813b 241a 3c3c
00000270: 45ad 98bd 02b2 4ebc 506c 8ebd d74d fabb
00000280: 4954 5ebd bae2 be3d d9e7 7abd d9ec 65bd
00000290: b8e5 4a3c dac0 b73c acc4 003c a618 83bc
000002a0: 802d 603d 4129 473d 062a c3bb 5180 e13b
000002b0: 2e99 4ebd 2ce3 6e3d b177 4d3b bc30 543c
000002c0: 99a2 a9bd 9f51 55bc d7c0 9fbd 1251 10bc
000002d0: 790b 57bd 9ee1 b33d cde8 71bd e010 5ebd
000002e0: db53 533c 30fd ab3c 937a d33b 06d2 70bc
000002f0: d814 623d ed9c 403d 8059 9bbb fbfe ff3b
00000300: 6d66 47bd c001 633d b8ec 863b 93e8 3b3c
00000310: c0e6 a2bd 72d9 5ebc 633e 99bd 3fc0 f3bb
00000320: 401d 4cbd 99b8 a83d f08a 5fbd 44aa 4cbd
00000330: ffaa 423c c33c 9a3c f666 b43b e349 5abc
00000340: 92fa 543d 9508 323d 6f97 94bb 62df f33b
00000350: 1012 38bd 4e16 543d 4000 883b 3977 303c
00000360: 02d5 97bd d23a 4ebc ae01 8ebd 22b2 e2bb
00000370: 8b4e 3ebd a63f 9e3d 20a0 5ebd f1ad 4cbd
00000380: b0d1 1e3c eed4 a23c 6df4 ec3b 41a7 71bc
00000390: b9a8 453d 07a8 323d ef1a d2bb c472 af3b
000003a0: cf26 38bd 2d3c 463d afc0 0c3b bd01 483c
000003b0: 2a4e 96bd b4aa 27bc 5aff 8cbd 98d8 0bbc
000003c0: b7ad 48bd 9388 a43d 3712 5cbd 7695 49bd
000003d0: 8329 573c d3ca 8f3c 12f3 833b ffda 41bc
000003e0: 9c31 633d 6fe5 2d3d 64e7 40bb 4498 0d3c
000003f0: bd8d 33bd ddac 4f3d 05ba ad3b 9846 143c

model.args_proj.proj.0.weight f4 [1, 20]
0.008035816 0.28086427 -0.031716306 -0.14119242 0.44098487 0.15636022 -0.058105316 0.2360747
0.38473228 -0.16170101 0.3846973 0.1934358 0.1747289 0.22033425 0.08971741 -0.3106097
0.079262614 -0.42000747 -0.29772252 0.33683354
00000000: a8a8 033c 71cd 8f3e f5e8 01bd bf94 10be
00000010: c5c8 e13e e51c 203e d7ff 6dbd 91bd 713e
00000020: a1fb c43e f394 25be 0bf7 c43e 0914 463e
00000030: 22ec 323e 4d9f 613e c3bd b73d 3c08 9fbe
00000040: 7054 a23d 380b d7be 166f 98be 7275 ac3e

model.args_proj.proj.1.weight f4 [1, 20]
0.034724914 0.0109898625 -0.18451601 -0.24409896 -0.11147822 0.19191892 0.12860282 -0.10945033
-0.040505648 0.2418639 -0.111017354 -0.16594988 -0.18338966 -0.028081432 -0.1859081 0.13156226
-0.102648795 0.106052116 -0.13623635 -0.11427744
00000000: b63b 0e3d d30e 343c c4f1 3cbe 14f5 79be
00000010: b14e e4bd 6586 443e 75b0 033e 7f27 e0bd
00000020: 40e9 25bd 2cab 773e 115d e3bd c4ee 29be
00000030: 80ca 3bbe 080b e6bc b15e 3ebe 42b8 063e
00000040: 8839 d2bd da31 d93d 8b81 0bbe 4a0a eabd

model.args_proj.proj.2.weight f4 [1, 20]
0.23005195 -0.22479343 0.16553454 0.1781226 -0.22968845 0.012229348 0.101875424 -0.067679025
-0.13995703 -0.12410485 -0.13301578 -0.25685513 0.11029467 -0.23273443 -0.2378773 0.096319295
0.15530452 0.22280553 0.20104632 -0.1048956
00000000: bd92 6b3e 4030 66be e381 293e c565 363e
00000010: 7333 6bbe 9a5d 483c 10a4 d03d 4d9b 8abd
00000020: e550 0fbe af2a febd 4a35 08be 8482 83be
00000030: 2ce2 e13d ef51 6ebe 1b96 73be 0d43 c53d
00000040: 2608 1f3e 2227 643e 16df 4d3e 81d3 d6bd
