generate_forecasts/output/Local_Forecasts/Vegetables and vegetable preparations/2023/models/SimpleFeedForward/W0/gluon_ts/prediction-net-state.pt (torch, 34030 bytes, 7 tensors)

model.nn.0.weight f4 [20, 32]
0	0x3e0ebe86	0.13939866
1	0x3db2bf88	0.08727938
2	0x3c9902f8	0.018678173
3	0x3d8df2bf	0.06931066
4	0x3db42a3b	0.08797117
5	0x3d44a3d2	0.048007794
6	0x3be3f053	0.006956139
7	0xbd20f99a	-0.03930054
8	0x3b9fc6f6	0.004876013
9	0x3d84e82c	0.06489596
10	0x3e0976fb	0.13424294
11	0x3bf28b8c	0.007401889
12	0x3d1b76e1	0.03795517
13	0x3dc72dec	0.09725556
14	0x3d842b0b	0.06453522
15	0x3dcacccf	0.099023454
16	0x3da9366d	0.08262334
17	0xbd156743	-0.03647543
18	0xbda2249b	-0.07917138
19	0xbcfe6a67	-0.031056596
20	0x3d88f4d6	0.06687324
21	0x3dbd27c5	0.09236101
22	0x3c45e607	0.012078769
23	0x3d9d104b	0.07669123
24	0x3d9a4eca	0.07534559
25	0x3dab9e19	0.08379764
26	0xbd0c31c6	-0.034227155
27	0x3c8b82f5	0.017030219
28	0x3c9d3135	0.019188503
29	0xbcb2c46b	-0.021822175
30	0x3dd7fcad	0.10546241
31	0x3d8f56ec	0.06999001
32	0xbd84099b	-0.064471446
33	0xbd812266	-0.06305389
34	0x3d03d43f	0.032184836
35	0x3c8211d7	0.015877647
36	0x3d9bcaa4	0.0760701
37	0x3d1f2c31	0.038860504
38	0x3d5eec33	0.054424476
39	0xbb28e2e2	-0.0025769998
40	0x3d51059b	0.051030736
41	0x3de8682d	0.11347995
42	0xbc73ac91	-0.014872686
43	0xbdb26a97	-0.08711737
44	0xbdb131c7	-0.086520724
45	0xbcf5e6d6	-0.030017298
46	0xbdb20ca9	-0.08693821
47	0xbcef3e32	-0.029204462
48	0x3d7148c6	0.058907293
49	0xbc96f54f	-0.01842752
50	0xbca60789	-0.020267265
51	0x3d9eb3c3	0.077491306
52	0x3dc18b0d	0.0945035
53	0x3d74de2f	0.059782203
54	0x3cfdd383	0.030984646
55	0xbdeb7810	-0.114975095
56	0xbda6a83d	-0.08137558
57	0xbd43432f	-0.047671493
58	0xbd32ddea	-0.043668665
59	0x3ac78e11	0.0015224834
60	0x3c22d406	0.009938246
61	0x3dd02a68	0.10164338
62	0x3dd8c1c5	0.105838336
63	0x3ea0b022	0.3138438
64	0xbed9a3a6	-0.42507666
65	0xbe195548	-0.14973938
66	0xbe0495db	-0.1294779
67	0xbd4c0432	-0.04980869
68	0x3d070d76	0.03297182
69	0x3dcfe725	0.10151509
70	0x3deaefd1	0.114715226
71	0x3d6efe07	0.058347728
72	0xbe18d76d	-0.14925928
73	0xbe370a54	-0.17875034
74	0xbe0eab45	-0.13932522
75	0xbd274ca5	-0.04084458
76	0xbc481f8c	-0.012214553
77	0xbd2ffab9	-0.042963717
78	0xbdaa8214	-0.08325592
79	0xbd53a5f0	-0.051671922
80	0xba45b98b	-0.00075426017
81	0xbce1a903	-0.027546411
82	0x3d2ac62d	0.0416929
83	0x3caffd84	0.02148319
84	0x3ccd63d6	0.02507202
85	0x3cf9e167	0.030502988
86	0x3d743f4b	0.059630673
87	0x3cfecb2d	0.031102741
88	0xbb60d88e	-0.0034308764
89	0x3d17d91f	0.037072297
90	0x3d8e3467	0.06943589
91	0xbc113e5b	-0.008864964
92	0x3d604c95	0.054760534
93	0xbc8e8534	-0.0173975
94	0xbcbb75d9	-0.022883343
95	0x3e93ca00	0.2886505
96	0x3bffc343	0.0078052594
97	0xbce5054d	-0.02795663
98	0x3c2adfd1	0.010429339
99	0x3d3fe051	0.046844784
100	0xbce0851a	-0.027407218
101	0xbd8c575f	-0.06852602
102	0xbdeb0c85	-0.11476997
103	0xbd85af85	-0.06527618
104	0x3c014482	0.007889869
105	0x3c08d84d	0.008352351
106	0xbd697c72	-0.057003446
107	0x3c85b01b	0.016319325
108	0xbcc59172	-0.024117205
109	0xbce7456f	-0.02823135
110	0xbcb0f848	-0.021602765
111	0xbd0f6d96	-0.03501662
112	0xbdc43956	-0.095812485
113	0xbd2cb5c0	-0.042165518
114	0xbd6b1fb3	-0.057403278
115	0xbdabd260	-0.08389735
116	0xbc0398bf	-0.008032023
117	0xbce639f7	-0.028103812
118	0x3c0ee25f	0.008720963
119	0x3db79dad	0.08965621
120	0x3d9c8461	0.07642437
121	0x3cb0cde1	0.021582546
122	0x3da4b63d	0.08042572
123	0x3d2172b4	0.03941603
124	0x3dbc9a80	0.09209156
125	0x3db3cba2	0.08779074
126	0x3dc4feb0	0.0961889
127	0x3e8c2470	0.2737155
128	0x3d01829f	0.03161871
129	0x3e018345	0.12647732
130	0x3e02bb35	0.12766726
131	0x3ce0253a	0.027361501
132	0x3c0b2389	0.008492359
133	0x3a04ed65	0.0005070775
134	0xbd991038	-0.074737966
135	0xbdc8cd3b	-0.098047696
136	0xbd574639	-0.052557204
137	0x3a35633f	0.0006919391
138	0x3bd7e073	0.0065880357
139	0x3e055883	0.13022046
140	0x3e1cd0f7	0.15314089
141	0x3df6bc62	0.1204765
142	0x3d805962	0.062670484
143	0x3cf34196	0.02969436
144	0xbc9ab3c4	-0.018884547
145	0x3d0f8667	0.035040285
146	0xbdf86742	-0.1212907
147	0xbd8ab6bd	-0.06773136
148	0x3cb55ff9	0.02214049
149	0xbd11c3b5	-0.03558703
150	0x3d574539	0.05255625
151	0x3da0f944	0.07860044
152	0x3bf3f0a8	0.00744446
153	0x3d32e3ce	0.043674283
154	0x3e05ff66	0.13085708
155	0x3c173e0f	0.0092311045
156	0x3d4552ca	0.048174657
157	0x3dc4d811	0.09611524
158	0x3d8fd17e	0.07022379
159	0x3ce926f9	0.028460966
160	0x3d2394b0	0.03993672
161	0x3d59257e	0.05301427
162	0x3cef3911	0.029202016
163	0x3da7dac7	0.08196025
164	0x3e1768dd	0.14786096
165	0x3dff110a	0.12454422
166	0xbd13ad31	-0.03605384
167	0xbde4ca8d	-0.11171446
168	0xbdcfe0dc	-0.101503104
169	0x3d27b853	0.04094727
170	0x3df84982	0.121233955
171	0x3d63668b	0.055517714
172	0x3db6f80c	0.0893403
173	0xbc885e86	-0.016646635
174	0x3d652f8b	0.055953544
175	0x3d5d9924	0.054101124
176	0x3e15ce3c	0.14629453
177	0x3db64c07	0.0890122
178	0xbb21e9d5	-0.0024706025
179	0xbcfded07	-0.030996813
180	0xbdcedc58	-0.10100621
181	0xbcba50a4	-0.02274353
182	0x3da2c2ac	0.07947287
183	0x3d9c5ad3	0.07634511
184	0x3de617b7	0.11234992
185	0x3c26bce2	0.010176869
186	0x3c98c4e9	0.018648582
187	0x3dd3f28a	0.10348995
188	0x3d9edc90	0.07756913
189	0x3dbadb68	0.0912388
190	0x3d2ba7d7	0.04190811
191	0x3d05ef1e	0.032698743
192	0xbdce491a	-0.10072537
193	0xbd8cf066	-0.0688179
194	0x3dd39107	0.10330396
195	0x3e14f6eb	0.14547317
196	0x3d7131db	0.058885437
197	0x3d604228	0.05475059
198	0xbd981de7	-0.074275784
199	0x3db902f6	0.09033768
200	0x3dd7a982	0.10530378
201	0x3e4065a3	0.18788771
202	0x3da06a31	0.078327544
203	0xbd0aa5a3	-0.03384937
204	0xbdae8242	-0.085209385
205	0xbdd17854	-0.10228029
206	0xba5d92a6	-0.0008452333
207	0x3d1d96cf	0.0384739
208	0x3e3985da	0.18117467
209	0x3dc12167	0.09430199
210	0x3c07f7e6	0.00829885
211	0x3cddccf1	0.027075263
212	0x3e0780a8	0.13232672
213	0x3d4506f4	0.048102334
214	0x3d337c7e	0.043819897
215	0x3cf0f3ef	0.029413192
216	0xbc574f27	-0.01314143
217	0xbd073dbc	-0.03301786
218	0xbc8d46f4	-0.017245747
219	0x3dad69f7	0.08467477
220	0x3e1789b6	0.14798626
221	0x3cd1d71b	0.025615266
222	0x3d7a6356	0.06112989
223	0x3d78fdd2	0.060788937
224	0x3e1dfc0a	0.15428177
225	0x3d6f3b56	0.058406197
226	0xbbd238f2	-0.00641548
227	0xbcddf6f2	-0.027095292
228	0xbd8f60c1	-0.07000876
229	0x3becdd51	0.0072285314
230	0xbc8c91ca	-0.017159361
231	0x3db8fc4d	0.090324976
232	0x3d81a987	0.06331163
233	0x3e02541b	0.12727396
234	0x3dabbe3e	0.08385895
235	0x3dc409c7	0.095721774
236	0x3d415a32	0.047205158
237	0xbd0409da	-0.032235958
238	0xbd94280f	-0.07234203
239	0x3bb4a9b7	0.0055133956
240	0xbc94f60d	-0.018183732
241	0xbd4f93cc	-0.05067806
242	0xbd55bdb0	-0.052182853
243	0x3dbf4fc7	0.09341388
244	0x3d396e7f	0.045271393
245	0x3e34d056	0.17657599
246	0x3e212b48	0.15739167
247	0x3ccf5566	0.025309276
248	0x3caf61c6	0.021408927
249	0x3d8bbaa5	0.06822709
250	0xbd30709b	-0.04307614
251	0xbd9affb6	-0.07568304
252	0xbd8b424b	-0.06799754
253	0x3d2ca69c	0.04215108
254	0x3d4a6a09	0.04941753
255	0x3db9a05f	0.090637915

model.nn.0.bias f4 [20]
0	0xbc069f3d	-0.008216676
1	0x3ca3b3a3	0.019983118
2	0x3ebe73cd	0.37197724
3	0x3d91f4c0	0.071267605
4	0xbc2c401a	-0.01051333
5	0xbbfd8e08	-0.0077378787
6	0xbc6a428d	-0.0142980935
7	0xbbeaa389	-0.007160608
8	0xbc25149e	-0.010075716
9	0xbacc4adb	-0.0015586274
10	0xbc11b696	-0.00889363
11	0xbbaafbbf	-0.0052179988
12	0x3f1f94de	0.6233653
13	0x00000000	0.0
14	0xbc9441a0	-0.018097699
15	0x3ca758ce	0.020428088
16	0xbab8c193	-0.0014095776
17	0xbb9bcfb4	-0.0047549848
18	0xbb8d49ed	-0.004311791
19	0xbb4ac7cb	-0.003094184

model.nn.2.weight f4 [320, 20]
0	0xbe02b58d	-0.12764569
1	0xbd419d2d	-0.047269035
2	0x3ec87b05	0.39156356
3	0x3e27db33	0.16392212
4	0xbdf90198	-0.12158507
5	0xbdef2c49	-0.116783686
6	0xbcb65543	-0.022257453
7	0xbda26a06	-0.079303786
8	0xbe13a1fa	-0.14417258
9	0xbd08fc7a	-0.033443905
10	0xbd1d9cea	-0.038479723
11	0xbd616fcc	-0.05503826
12	0x3d88c4ca	0.066781595
13	0xbaa079a7	-0.0012243286
14	0xbd93fb5c	-0.07225677
15	0x3d84c768	0.06483346
16	0xbd467e53	-0.048460316
17	0xbd4e7579	-0.050405
18	0xbdda5d4e	-0.10662328
19	0xbdc16d7c	-0.094447106
20	0x3e4ffdc8	0.20311654
21	0x3e778049	0.2417003
22	0xbed86c8d	-0.42270318
23	0xbb4ceab6	-0.0031267828
24	0x3e564255	0.20923741
25	0x3e371a76	0.17881188
26	0x3e888126	0.26661032
27	0x3d2b2b5b	0.041789394
28	0x3e8148b1	0.25250772
29	0x3dd9ac86	0.10628609
30	0xbd5ad597	-0.05342635
31	0x3e822e64	0.25426018
32	0xbde37824	-0.111068994
33	0x3b69ac09	0.003565552
34	0x3e3841f9	0.17993917
35	0xbe079ab5	-0.1324261
36	0xbce20a38	-0.027592763
37	0x3e10e25a	0.14148846
38	0x3e6ca7dc	0.23110908
39	0x3e75a935	0.23990329
40	0xbdc6f94e	-0.0971552
41	0xbe29f646	-0.16597852
42	0x3d90214e	0.07037602
43	0xbe2f43b9	-0.17115678
44	0xbd7f36d4	-0.062308148
45	0xbc9eef5b	-0.019401243
46	0xbe0f9de5	-0.14025076
47	0xbe00acd8	-0.12565935
48	0xbd426623	-0.047460686
49	0xbd927b93	-0.07152476
50	0xbca003f9	-0.019533144
51	0xbe021c46	-0.12706098
52	0xbe3c7548	-0.18404114
53	0x3a6d10b4	0.00090433215
54	0xbd336736	-0.0437996
55	0xbdc01750	-0.093794465
56	0x3c30d63e	0.010793267
57	0xbe104ba0	-0.14091349
58	0xbd21b03a	-0.039474703
59	0xbd389195	-0.045060713
60	0xbdd07993	-0.101794384
61	0xbe56b3a7	-0.2096697
62	0x3e156b07	0.14591609
63	0xbe00a06a	-0.12561193
64	0xbc543cbe	-0.012953935
65	0xbbde648f	-0.00678689
66	0xbde4eee3	-0.111783765
67	0xbd2ce01c	-0.042205915
68	0xbd1072a7	-0.03526559
69	0xbda68458	-0.08130711
70	0x3d427683	0.047476303
71	0xbe264190	-0.16235948
72	0xbdc61b57	-0.096731834
73	0x3a1efa77	0.0006064544
74	0xbd8f6e22	-0.07003428
75	0xbe0b3740	-0.13595295
76	0xbbf98913	-0.0076152175
77	0xbd89d479	-0.06729979
78	0xbd0f7e00	-0.035032272
79	0xbd98a605	-0.07453541
80	0xbc02d780	-0.0079859495
81	0xbdfd0c20	-0.12355828
82	0xbdf941b2	-0.121707335
83	0xbe5915e2	-0.21199754
84	0x3dab0a0f	0.08351528
85	0x3df1ad21	0.118006
86	0x3db613de	0.08890508
87	0x3c7595f7	0.014989368
88	0x3d069019	0.032852266
89	0x3d59fdc6	0.053220533
90	0xbd07b935	-0.03313561
91	0x3c7a29b4	0.015268732
92	0xbe8c48aa	-0.27399188
93	0xbb54cdf5	-0.0032471393
94	0x3dd74896	0.105118915
95	0xbdc90352	-0.098150864
96	0xbcd9f913	-0.026608026
97	0xbd36f3ee	-0.044666223
98	0x3c8099dd	0.015698368
99	0x3d95e751	0.07319511
100	0xbb509ed2	-0.0031832946
101	0x3e3e8e53	0.1860898
102	0x3c23685c	0.009973612
103	0x3de7a79e	0.11311267
104	0x3c9a0f27	0.018806053
105	0xbc3b95d3	-0.011449295
106	0x3c85fd6b	0.01635619
107	0x3d547d84	0.051877514
108	0xbcc52b47	-0.024068488
109	0x3b8576a9	0.0040729833
110	0x3d864ae3	0.06557252
111	0x3d26f1a5	0.040757794
112	0x3debd922	0.11516024
113	0xbb575c05	-0.0032861244
114	0xbd4924ac	-0.04910724
115	0x3e00b117	0.12567554
116	0xbc933af3	-0.017972445
117	0x3d002bd3	0.031291794
118	0x3dcfb87c	0.101426095
119	0xbc0b5075	-0.008503069
120	0xbc9ef106	-0.019402038
121	0x3e0c2267	0.13684998
122	0x3de2ac96	0.110680744
123	0x3e83615f	0.25660226
124	0xbd259dc0	-0.040433645
125	0xbd7284f9	-0.059208844
126	0x3d55de59	0.052214
127	0xbad24665	-0.0016042708
128	0xbd6e168a	-0.058126964
129	0xbd076204	-0.03305246
130	0x3c42cc8b	0.011889587
131	0xbbccaa1e	-0.0062458655
132	0x3e820866	0.25397032
133	0xb96f50aa	-0.00022822866
134	0xbda1c992	-0.078997746
135	0x3d7dc259	0.061952922
136	0x3d91141a	0.07083912
137	0x3d36cf60	0.044631362
138	0x3d9a245f	0.075264685
139	0xbd81fe08	-0.06347281
140	0xbd136c04	-0.035991684
141	0xbe2f21dd	-0.17102762
142	0xbb85379b	-0.0040654666
143	0xbe72a5ee	-0.2369611
144	0x3d333e3e	0.04376053
145	0x3d2c5ad2	0.0420788
146	0x3d8b5cbe	0.068047985
147	0x3d8df2ac	0.069310516
148	0x3d6280a2	0.055298455
149	0xbd4128f9	-0.047158215
150	0xbd043052	-0.032272644
151	0xbd319ff0	-0.04336542
152	0xbea60148	-0.32422853
153	0x3a9d2129	0.0011988032
154	0x3da46308	0.08026701
155	0xbe320ef3	-0.17388515
156	0x3c912a15	0.017720262
157	0xba35864b	-0.0006924613
158	0xbd8bd792	-0.06828226
159	0xbcd28f6a	-0.02570315
160	0x3ddc913a	0.10769887
161	0xbcc978bc	-0.024593703
162	0xbe70b804	-0.23507696
163	0xbe29f677	-0.16597925
164	0x3ddd48a5	0.108048715
165	0x3d5528c4	0.05204083
166	0x3daf1809	0.08549506
167	0x3d8df666	0.069317624
168	0x3dcbba3e	0.09947632
169	0x3b43028d	0.002975616
170	0xbcf77b32	-0.030210111
171	0x3c33e171	0.010979042
172	0xbea6674e	-0.3250069
173	0xbb8a1fae	-0.0042152023
174	0x3e35fbeb	0.1777188
175	0xbe07611d	-0.1322064
176	0xbca56de4	-0.020194001
177	0x3d94e855	0.07270876
178	0x3cbfa90d	0.02339604
179	0x3d5f2f91	0.054488722
180	0x3decc00b	0.11560067
181	0x3e59f9af	0.21286653
182	0xbc748d94	-0.014926333
183	0x3def3458	0.11679906
184	0x3d84d560	0.064860106
185	0xbc8fbba9	-0.017545538
186	0x3b83c9a6	0.004021841
187	0x3ddd4ede	0.10806058
188	0x3ccc424f	0.024933962
189	0x3dc99ec9	0.09844739
190	0x3cfb3ab8	0.030667648
191	0x3da72ea1	0.08163191
192	0x3e79a626	0.24379787
193	0xba4514ae	-0.0007518035
194	0xbc51ef9a	-0.012813473
195	0x3e1f5ac4	0.15561968
196	0x3d3b0366	0.045657538
197	0x3e13b7cd	0.14425583
198	0x3d98459f	0.07435154
199	0x3d0957e1	0.033531073
200	0x3d07ea81	0.033182625
201	0xbdeeca54	-0.11659685
202	0xbdc1a0be	-0.09454487
203	0xbe188d69	-0.14897694
204	0x3d1f1c8a	0.038845576
205	0x3d88c461	0.06678081
206	0x3d1b8588	0.037969142
207	0x3cf7ccd2	0.030249033
208	0x3da963fa	0.08271022
209	0xbd7e36a1	-0.062063817
210	0x3d1bf8f7	0.03807923
211	0xbd03337b	-0.032031517
212	0xbe7f890a	-0.2495462
213	0xbb88bee7	-0.004173148
214	0x3d2f25e2	0.042760737
215	0xbdcab1ce	-0.09897195
216	0x3c15fb1d	0.009154108
217	0x3d493c9e	0.049130075
218	0xbcc31115	-0.023811856
219	0x3ddb5c2e	0.10710941
220	0x3d11c64d	0.035589505
221	0xbd89d931	-0.06730879
222	0xbe384388	-0.17994511
223	0xbe4e5893	-0.20150976
224	0x3da866a7	0.082227044
225	0x3d5891e4	0.052873507
226	0xbc81597c	-0.01578974
227	0x3da8402d	0.082153656
228	0x3dbbce3d	0.09170196
229	0xbc7d1821	-0.015447647
230	0xbd9410ea	-0.072297886
231	0xbd0c2de9	-0.03422347
232	0xbe2e8826	-0.17044124
233	0xbb0c115a	-0.0021372647
234	0x3d8b4fbe	0.06802319
235	0xbdf2a70c	-0.11848268
236	0x3d771d25	0.06033053
237	0xbd13f278	-0.036119908
238	0xbc65d09a	-0.014026785
239	0x3dc29306	0.09500699
240	0x3caa1c8f	0.02076557
241	0xbe4a836a	-0.19776693
242	0x3c5d71c0	0.01351589
243	0xbe4801da	-0.19531956
244	0xbda8a18e	-0.08233939
245	0xbd586242	-0.05282808
246	0xbdc76d89	-0.09737689
247	0xbe02d223	-0.12775473
248	0xbd93ffb6	-0.07226507
249	0xbe0420ae	-0.12903091
250	0x3d34d339	0.04414675
251	0xbe02ee4c	-0.12786216
252	0xbe9f93b8	-0.31167388
253	0x3b242780	0.0025047958
254	0xbd79c28d	-0.060976554
255	0xbe4e8775	-0.2016886

model.nn.2.bias f4 [320]
0	0xbc93f7b0	-0.018062443
1	0xbe03efe1	-0.12884475
2	0xbd63f79f	-0.05565607
3	0xbd51b265	-0.05119552
4	0xbcc2614c	-0.023728035
5	0x3cc91de4	0.024550386
6	0x3cb0c4c5	0.021578202
7	0xbd04ef7e	-0.03245496
8	0xbcf8537b	-0.030313244
9	0x3d526e2f	0.05137461
10	0xbd174b9a	-0.036937334
11	0xbc6f4680	-0.014604211
12	0xbd57ec99	-0.05271587
13	0xbca085d7	-0.01959507
14	0xbc6dad83	-0.0145067
15	0x3d092d6b	0.03349058
16	0xbd96897d	-0.073504426
17	0x3cc3c137	0.023895843
18	0xbd6d9c80	-0.05801058
19	0xbd0b1578	-0.03395602
20	0xbc3a7077	-0.011379353
21	0xbe21e6ae	-0.15810654
22	0xbd5035c0	-0.05083251
23	0xbd3cdd09	-0.046109233
24	0xbcbb77ca	-0.022884268
25	0x3c9c988d	0.01911571
26	0x3c8b1863	0.016979402
27	0xbce90f6d	-0.028449738
28	0xbd0aa2f9	-0.03384683
29	0x3d3fd9f6	0.046838723
30	0xbd0f039b	-0.034915548
31	0xbc45be67	-0.012069321
32	0xbd462d42	-0.048383005
33	0xbd0782c5	-0.033083696
34	0xbc3920f4	-0.011299361
35	0x3cf372ec	0.029717885
36	0xbd8eead0	-0.06978381
37	0x3cc4358c	0.023951314
38	0xbd56c3e2	-0.052432902
39	0xbd00d74c	-0.031455323
40	0xbc6d525d	-0.014484969
41	0xbdfcbdbb	-0.12340876
42	0xbd382782	-0.044959553
43	0xbd2702cd	-0.040774155
44	0xbc99372f	-0.018703071
45	0x3c732760	0.014840931
46	0x3c444497	0.011979244
47	0xbcbf7c0b	-0.023374578
48	0xbcc22650	-0.02369991
49	0x3d2b61c0	0.04184127
50	0xbcf468a9	-0.029835062
51	0xbc06a6f8	-0.008218519
52	0xbd30ac46	-0.043133043
53	0xbcec9e92	-0.028884206
54	0xbbfaa509	-0.0076490683
55	0x3ccae650	0.024768025
56	0xbd7d43b1	-0.061832134
57	0x3ca2698a	0.019825716
58	0xbd393d4b	-0.04522447
59	0xbce0a3d1	-0.027421864
60	0xbb881585	-0.004152956
61	0xbdff8e17	-0.12478273
62	0xbd470ded	-0.048597265
63	0xbd369c14	-0.04458244
64	0xbcd87114	-0.026421107
65	0x3ca588fc	0.02020692
66	0x3c9201b7	0.017823083
67	0xbcec4d5e	-0.028845485
68	0xbd152b5f	-0.036418315
69	0x3d3c6dfc	0.046003327
70	0xbd14ffc2	-0.036376722
71	0xbc7b9a2a	-0.01535658
72	0xbd41cfa2	-0.047317155
73	0xbd1e0a26	-0.038583897
74	0xbc6b7c58	-0.014372908
75	0x3cf7ff52	0.030273113
76	0xbd84afd4	-0.06478849
77	0x3ce0e044	0.027450688
78	0xbd44d54f	-0.04805499
79	0xbd0d38ec	-0.034478113
80	0xbb5f20dd	-0.0034046688
81	0xbdfe7d85	-0.12426285
82	0xbd60840f	-0.05481344
83	0xbd4eca7d	-0.050486077
84	0xbd00ba85	-0.03142788
85	0x3ccc3e09	0.024931924
86	0x3cb635e5	0.022242496
87	0xbd0d98cc	-0.034569547
88	0xbd3010a0	-0.042984605
89	0x3d55a161	0.052155856
90	0xbd2cd0cc	-0.04219131
91	0xbca0cb2b	-0.019628128
92	0xbd5bac61	-0.05363119
93	0xbd2a77c3	-0.04161812
94	0xbc956eed	-0.01824137
95	0x3d1264a8	0.035740525
96	0xbd933e83	-0.071896575
97	0x3d03639a	0.03207741
98	0xbd5cf851	-0.05394775
99	0xbd22d77b	-0.03975628
100	0xbc47bca6	-0.012190973
101	0xbdfb0a5c	-0.12257835
102	0xbd497784	-0.049186245
103	0xbd36a8ff	-0.04459476
104	0xbcd06942	-0.025440816
105	0x3c8c8460	0.017152965
106	0x3c6612f7	0.0140426075
107	0xbce37bd7	-0.027769012
108	0xbd12c916	-0.0358363
109	0x3d408cef	0.047009405
110	0xbd15e9a4	-0.03659977
111	0xbc44c6a6	-0.012010252
112	0xbd468ef9	-0.048476193
113	0xbd21c84d	-0.039497662
114	0xbc246dc9	-0.01003594
115	0x3cf9d203	0.03049565
116	0xbd88c42f	-0.06678044
117	0x3cd3637d	0.025804276
118	0xbd408efc	-0.04701136
119	0xbd057c8f	-0.03258949
120	0x3b88322f	0.004156373
121	0xbe102766	-0.1407753
122	0xbd5c7c2f	-0.05382937
123	0xbd4b2e5e	-0.049604766
124	0xbd163be1	-0.0366782
125	0x3cd06327	0.025437905
126	0x3cc1ecd1	0.023672493
127	0xbd16c180	-0.03680563
128	0xbd5cff5e	-0.053954475
129	0x3d55a857	0.052162495
130	0xbd3b4fdf	-0.045730468
131	0xbcbb840f	-0.022890119
132	0xbd5bc178	-0.053651303
133	0xbd5d24b7	-0.053990092
134	0xbca823c4	-0.020524867
135	0x3d258cfb	0.040417653
136	0xbd902287	-0.070378356
137	0x3d182661	0.037145976
138	0xbd52f492	-0.05150277
139	0xbd292899	-0.041298483
140	0x3c0dbe71	0.008651362
141	0xbe0d8098	-0.13818586
142	0xbd65f76c	-0.056144163
143	0xbd55b066	-0.05217018
144	0xbd1f57c9	-0.038902078
145	0x3cebe645	0.028796325
146	0x3cdc8a6e	0.026921477
147	0xbd22586c	-0.039635107
148	0xbd557c9c	-0.05212079
149	0x3d5f7430	0.054554164
150	0xbd43a038	-0.04776022
151	0xbcd41dbe	-0.025893088
152	0xbd64f7b5	-0.055900294
153	0xbd668936	-0.0562832
154	0xbcc201c5	-0.023682484
155	0x3d314a3c	0.043283686
156	0xbd92d544	-0.071695834
157	0x3d21b5e5	0.03948011
158	0xbd5d59f4	-0.054040864
159	0xbd339a8e	-0.043848567
160	0x3c995e81	0.01872182
161	0xbe21bd5d	-0.15794893
162	0xbd7e1877	-0.06203505
163	0xbd6d6d1c	-0.057965383
164	0xbd2862f4	-0.041109994
165	0x3d07f171	0.03318924
166	0x3cfb70cc	0.030693434
167	0xbd2c16f1	-0.042014066
168	0xbd59fc98	-0.053219408
169	0x3d72300c	0.059127852
170	0xbd4c1e13	-0.04983337
171	0xbcf13f00	-0.029448986
172	0xbd77aa68	-0.060465246
173	0xbd8245fc	-0.06361005
174	0xbcdf6681	-0.027270557
175	0x3d3aa5e4	0.045568362
176	0xbda0b47d	-0.078469254
177	0x3d2cdbd0	0.042201817
178	0xbd7ecc98	-0.062206835
179	0xbd3de262	-0.046358474
180	0x3cb93a06	0.022610676
181	0xbe24d050	-0.1609509
182	0xbd7bde3b	-0.061491232
183	0xbd6c3c4f	-0.057674702
184	0xbd2f953b	-0.042866927
185	0x3d0a9f9a	0.033843614
186	0x3d02a455	0.031895
187	0xbd2e50f2	-0.042557664
188	0xbd617a0a	-0.055048026
189	0x3d729e96	0.05923327
190	0xbd4e42bd	-0.050356615
191	0xbcfe59d4	-0.031048693
192	0xbd77319a	-0.060350038
193	0xbd8ce674	-0.06879893
194	0xbcebcfe2	-0.02878565
195	0x3d3b6fbf	0.045760866
196	0xbd9d36fc	-0.07676503
197	0x3d33a062	0.043854125
198	0xbd78afee	-0.060714655
199	0xbd3ed652	-0.04659111
200	0x3ca711b9	0.020394193
201	0xbdfe3719	-0.12412853
202	0xbd73eea7	-0.05955377
203	0xbd655658	-0.055990547
204	0xbd2a9747	-0.041648176
205	0x3d0ab793	0.033866476
206	0x3d03094d	0.03199129
207	0xbd2d01e1	-0.04223812
208	0xbd4843a1	-0.04889262
209	0x3d6b5d7b	0.057462197
210	0xbd46f656	-0.048574768
211	0xbd001ca0	-0.0312773
212	0xbd6f2def	-0.058393415
213	0xbd74346d	-0.05962031
214	0xbcf14907	-0.029453767
215	0x3d370e5f	0.04469144
216	0xbd978302	-0.07398035
217	0x3d2c9b13	0.042140078
218	0xbd724a21	-0.059152726
219	0xbd3970ec	-0.045273706
220	0x3c8ed856	0.017437141
221	0xbe017c07	-0.12644969
222	0xbd68021c	-0.056642637
223	0xbd597d54	-0.053098038
224	0xbd21728a	-0.039415874
225	0x3d00732a	0.03135983
226	0x3cf1e7be	0.029529449
227	0xbd26efaf	-0.040755924
228	0xbd4587ce	-0.048225217
229	0x3d5f3b59	0.054499958
230	0xbd3e835f	-0.046512004
231	0xbcedee76	-0.029044371
232	0xbd6315f0	-0.055440843
233	0xbd67c4f1	-0.056584302
234	0xbce08586	-0.027407419
235	0x3d2d8c4a	0.04237012
236	0xbd91c457	-0.07117527
237	0x3d233735	0.03984757
238	0xbd670663	-0.056402575
239	0xbd2fb6fd	-0.04289912
240	0x3bf02131	0.0073281755
241	0xbde510bf	-0.11184835
242	0xbd4f3345	-0.050586004
243	0xbd40da1f	-0.047083016
244	0xbcea5104	-0.028603084
245	0x3cc416ae	0.023936596
246	0x3ca5794c	0.02019944
247	0xbd047fc6	-0.032348417
248	0xbcef6062	-0.029220764
249	0x3d42fb45	0.04760291
250	0xbd13a9e0	-0.036050677
251	0xbca0b42f	-0.019617168
252	0xbd46c142	-0.04852415
253	0xbd32a1a4	-0.043611184
254	0xbc970607	-0.018435491
255	0x3d074353	0.03302319

model.args_proj.proj.0.weight f4 [1, 20]
0	0xbf1fd9e1	-0.6244183
1	0x3f8fbda3	1.1229748
2	0xbedd132c	-0.4317869
3	0xbf11b333	-0.5691406
4	0x3f9202c9	1.14071
5	0x3e617c06	0.22019967
6	0xbeb9834b	-0.3623298
7	0x3f115bf2	0.5678092
8	0x3f9814f1	1.1881391
9	0x3d8a36d8	0.06748742
10	0x3f7f053a	0.9961735
11	0x3f50afee	0.8151845
12	0xbd96ae73	-0.07357492
13	0x3f776b52	0.9664813
14	0x3f2e02a5	0.67972785
15	0xbf448109	-0.7675939
16	0xbea55cfa	-0.32297498
17	0xbf901255	-1.1255594
18	0xbf62fd26	-0.88667524
19	0x3f537f0d	0.8261574

model.args_proj.proj.1.weight f4 [1, 20]
0	0x3ce1f6be	0.027583476
1	0x3badddd1	0.0053059836
2	0xbe4ad12d	-0.19806357
3	0xbe83a454	-0.2571131
4	0xbdf27046	-0.11837821
5	0x3e693c7f	0.22776984
6	0x3e4fccc1	0.20292951
7	0xbe619dd5	-0.22032864
8	0xbd17ed20	-0.037091374
9	0x3e84b512	0.25919396
10	0xbe07ff90	-0.13281083
11	0xbe29d7cc	-0.16586226
12	0xbe4c1e6d	-0.19933482
13	0xbcadd7a8	-0.021220997
14	0xbe4db762	-0.20089486
15	0x3e566e92	0.20940617
16	0xbde53f73	-0.111937426
17	0x3dd54021	0.10412622
18	0xbe12d1fd	-0.14337917
19	0xbe1a90a2	-0.15094236

model.args_proj.proj.2.weight f4 [1, 20]
0	0x3e849d22	0.25901133
1	0xbe7c730d	-0.24653263
2	0x3e4042eb	0.18775527
3	0x3e469966	0.19394454
4	0xbe73a48f	-0.23793243
5	0xbc68935a	-0.014195288
6	0x3db51824	0.08842495
7	0xbd2b1c28	-0.0417749
8	0xbe1e7486	-0.15474138
9	0xbe171b07	-0.14756404
10	0xbdf6b34f	-0.12045919
11	0xbe853275	-0.26015058
12	0x3e0ba4c3	0.1363707
13	0xbe866f05	-0.26256576
14	0xbe80f647	-0.25187895
15	0x3d974d47	0.07387786
16	0x3e331514	0.1748851
17	0x3e73272e	0.23745415
18	0x3e50d646	0.20394239
19	0xbd76b996	-0.060235582
