generate_forecasts/output/Final_2026_Forecasts/Food purchased from restaurants/models/DeepAR/W0/gluon_ts/prediction-net-state.pt (torch, 97628 bytes, 11 tensors)

model.param_proj.proj.0.weight f4 [1, 40]
00000000: d64f a63d 13d0 123e cec6 1b3e e923 21bd
00000010: 1726 1c3e 8be7 bebd bb37 fabc fa11 a7bb
00000020: 2053 c1bc a89d 85bc 31e2 a9bd 7361 d73c
00000030: b111 3e3c 48ee 1bbd e790 293d 74d5 413e
00000040: e740 c63d 0c70 75bd d92d 163d deb3 56be
00000050: 1a8b eebc a5d1 4ebd e612 1e3b 91cb b43d
00000060: 60b6 2d3e 300e 96bb eebd 67be bb22 c53d
00000070: 92ec ecbd 1597 8739 51c0 ed3d fc03 da3d
00000080: f41d 193e 6b5c 7bbe d63f 46bd dc86 acbd
00000090: 32e5 b73c 88a8 20bc d0af ccbc 5473 383d
0.08120696 0.14337187 0.15212557 -0.039340887 0.15248905 -0.09321507 -0.030544152 -0.0050985785
-0.023599207 -0.016310528 -0.08295096 0.026291585 0.011600898 -0.03806904 0.041397955 0.18929082
0.09680348 -0.05992131 0.036664817 -0.20967051 -0.029119063 -0.0504929 0.002412015 0.0882789
0.16964102 -0.004579328 -0.22631046 0.09625765 -0.1156856 0.0002586177 0.11608947 0.10645291
0.14952832 -0.24546973 -0.048400722 -0.0842416 0.022448156 -0.009805806 -0.024986178 0.04503186

model.param_proj.proj.1.weight f4 [1, 40]
00000000: 2c45 25be d6ea 113e 74e4 013e 6217 05be
00000010: 7f53 cdbc b71e 27be e528 133d 49e6 673d
00000020: 4be9 05be 8dc6 7f3c 9cc2 e03d db6b 703c
00000030: 4f23 663d c7e0 e63d e173 e6bd d724 d53d
00000040: 79ea 193e 9f45 c73c 512e abbd a76e dfbd
00000050: dd62 c53d 70b2 b53d b305 753c a828 573d
00000060: 1092 fd3d c23e 203d e393 8cbd 43dd 653b
00000070: ea41 bebd 5753 d5bc 3c45 753d fe2f f13d
00000080: 16e4 cb3c 0b52 b7bc a876 b73b c787 45ba
00000090: 8d61 02be 8759 ceba 4b4d 983d e8ed c2bc
-0.16139668 0.14249739 0.12684804 -0.12997201 -0.025064228 -0.1632031 0.035927672 0.0566161
-0.13077275 0.015611303 0.10974619 0.014674152 0.056186017 0.112733416 -0.11252571 0.10407417
0.1503085 0.02432519 -0.083584435 -0.10909777 0.09637997 0.08871925 0.014954972 0.052529007
0.12381375 0.03912235 -0.06864145 0.003507451 -0.09289916 -0.026040716 0.05988048 0.11776732
0.024889033 -0.022377988 0.0055988617 -0.0007535186 -0.12732525 -0.0015743234 0.074366175 -0.023795083

model.param_proj.proj.2.weight f4 [1, 40]
00000000: 7ee4 3f3e 14d5 01be f19a bd3c 1309 c93d
00000010: 163f 2b3e 4ade 6b3e e7d7 de3d 2089 1abe
00000020: 1d2e 84bd a84a 0d3e d8cf 453d 6bb2 f53d
00000030: 6705 073e 84ac ccbd 7b8c acbd a1b5 8cbc
00000040: c05a 23bd 38cc 0cbe f528 23be fe67 e3bd
00000050: b71f 093e 8e68 843b 45ed 2d3e 9e95 1fbe
00000060: 0d35 79be b219 423e a8c0 65be 5cc4 92bd
00000070: 2e81 d83d 199e 573e 8643 3ebe 9957 17be
00000080: a549 c3bd d31e 5bbe 982c b4bd 246b fc3d
00000090: 5295 8c3e 17db bc3d 531f 68be 64b0 53be
0.18739507 -0.12678939 0.02314517 0.09816184 0.16723284 0.23034015 0.10881024 -0.15091372
-0.06454108 0.1379801 0.04829392 0.11996921 0.13185655 -0.09993842 -0.08425232 -0.017176451
-0.039881468 -0.13749778 -0.15933593 -0.11103819 0.13391005 0.004040784 0.16985042 -0.15584418
-0.24336644 0.18955114 -0.22436774 -0.07166359 0.10571514 0.21056403 -0.18580446 -0.1477951
-0.09535531 -0.21398477 -0.08797568 0.12325123 0.27457672 0.092214756 -0.22668199 -0.20672756

model.rnn.weight_ih_l0 f4 [160, 21]
00000000: 7980 113e d79a 613c 06d8 103e 629b db3d
00000010: 0cb2 e9bc 119b 96bc c96a 693e 7b1b 9d3d
00000020: 2388 6e3d 7909 313e efb9 1b3e 9433 5d3e
00000030: 3b65 fa3d b4f2 6a3e 41a1 4b3d dfeb 643e
00000040: d179 5cbd 47d5 983d e745 dbbb 39fb 44bd
00000050: 23c5 073d 2ed3 193d 7d28 e03d 4764 3a3e
00000060: ac64 a43d 6b4f 263b 982b 1abd f636 893d
00000070: 73c3 093e 8d18 293e a69b 69bd 2ebf 203e
00000080: 5ec7 9ebd 0de3 cebc 5ce6 5bbb 58f4 b3bd
00000090: 9cd5 20b9 c76f 1c3d c32a eabc b8f9 9c3d
000000a0: b320 afbd 94f5 e03d 95f6 0d3e 2ad7 763d
000000b0: 89e5 b5bc 6b8d 303e a120 e83d 9fcc 1c3e
000000c0: 5390 153b 5388 20bd de7d 093e 86dd e83d
000000d0: 6f12 6e3c 60a4 393e 082f 4cbd 790f b8bd
000000e0: 916b ba3d 0fd4 403e 0c79 0c3e 2905 32bd
000000f0: e40c 093d 51ef 1abe c4b2 fb3d dec6 253e
00000100: 8ea9 05bd cf8a 4a3e 42d0 80bd dd38 4a3e
00000110: 92e7 a7bd 40f4 f7bc 8e45 0d3e fc73 fa3d
00000120: 7805 01bd 7c4c 6abd 477f ed3c adff 2dbd
00000130: 50ec 2b3e 772c aabd 8bcd bebd d004 0d3d
00000140: eeaf ce3d b609 063e ba76 b53d a7c1 ecbc
00000150: 5133 f73d a7c9 393e ee43 2f3d b2b4 e63d
00000160: 0906 1b3e fca6 053e 80df 113e 8ad3 393e
00000170: 7fd8 b0bd a28c 1b3e c852 e93d 734a 95bd
00000180: 6c0e de3d aab8 f93d 2095 df3d e3b8 5c3e
00000190: b8dc 9d3d 5929 b63c 5f38 15bd 568c 50bd
000001a0: 994c 343d f8d4 fa3d c6d6 9fbc 2b7f fb3d
000001b0: d856 4abd 8087 923d d790 443d 159f 923c
000001c0: a68a 7dbd 50ba 29bd db27 153e 88f2 0dbd
000001d0: 7e6f 253d 792e 543e 233b d63d 7f65 95bd
000001e0: d549 b63d 1718 c23d 095b d13c 7108 74bd
000001f0: 1a97 0ebd ed4a 163e 18af b7bc 7553 3b3c
00000200: 7582 213e 8b22 2a3e c560 693e 59da 5a3a
00000210: 904d dfbc be78 043e be91 ef3c c715 4b3e
00000220: 69db 2c3e 8d46 03bd 129c c93c c63d 9bbc
00000230: a49d 363e 58d7 3bbc 8e11 6f3e 576f 9e3c
00000240: 0a30 bebc 2fa2 a8bd e87d 013d 821d 063e
00000250: e077 2c3c c6d9 85bc ed5a 46bd dd8c 90bc
00000260: ac55 c0bd be34 7bbd d843 86bd cb35 063e
00000270: ee27 013e 870c 8a3d 3ef8 03bd 1cb7 2bbd
00000280: 0414 103e f060 393e 52d0 0f3d 642c 7abc
00000290: 7a5c 693d 5808 cb3d 3a0b 38bd 84c1 67bd
000002a0: b17c da3a 326b 393e 93ce 573d 6398 233e
000002b0: 6989 5e3d b813 813d 721c c03c 3811 db3c
000002c0: f850 7b3e 581e d93d 6d60 0d3e 290e 84bd
000002d0: f01c aebb 60e1 8b3c ba70 2d3e b239 37bd
000002e0: d101 653e e6d3 a73d 7f86 71bd 0aa4 983c
000002f0: 763f e63d 3915 06bd e36b 86bd 8146 5a3e
00000300: 917c 79bd 4123 493e 0aa7 03bd 34d2 923c
00000310: aecb 45bd 52c8 373e 6916 9bbd 1858 0f3e
00000320: 1e25 eabc 5398 1cbd 28bf d6bc a7e9 083e
00000330: b70b 173e 6441 8c3d 7089 a73d d542 b63d
00000340: d0c7 2abe 04c3 e1bc f06f 5d3e 1b50 263e
00000350: e87d 3e3e e3ed 403e 27e1 863d 7e58 87bd
00000360: ca7c 793d 1b56 643d 2ac3 833c dbca 91bd
00000370: c923 19bc d8e1 69bd ca8d 763d 6f6c d23d
00000380: b771 0f3e 5408 0a3e 850f 5cbd 5ea8 b0bd
00000390: 3cd9 a33d da19 e6bc d436 4fbc 4651 3abd
000003a0: 3adc 103e f5b2 023e 6d08 1f3e c55b 543e
000003b0: a00b fbbc 1398 7a3d 4bc4 483d 8652 f0bb
000003c0: 5cb9 04bd aa96 443e 4b39 c63c ec78 303e
000003d0: d39d 133e d7be da3d 52aa c83b f347 253d
000003e0: 464d f43c 925a 1f3e b9bf da3b 8743 9a3b
000003f0: 229d a63d e9db cb3d 4297 2f3e 3806 6d3e
0.14209165 0.013769827 0.14144906 0.10722996 -0.028527282 -0.018384488 0.22794642 0.07671257
0.0582353 0.1728877 0.15207647 0.21601707 0.122263394 0.22944146 0.04971433 0.22355603
-0.05382711 0.074625544 -0.0066916826 -0.048091147 0.03314699 0.037554912 0.109452225 0.18202315
0.08027014 0.0025376927 -0.03763923 0.06699936 0.13453464 0.16513272 -0.057033204 0.1569793
-0.0775287 -0.02525475 -0.0033554053 -0.08786839 -0.00015338365 0.038192537 -0.028584844 0.076648176
-0.08551159 0.1098434 0.13863595 0.06026379 -0.022204177 0.17241447 0.113343485 0.15312432
0.002282162 -0.03919251 0.13426921 0.11370377 0.014530762 0.1812911 -0.04984954 -0.08987326
0.09102548 0.18830894 0.1371805 -0.043461952 0.03345956 -0.15130354 0.12289956 0.16189143
-0.032632403 0.19779514 -0.06289722 0.19748254 -0.081984654 -0.030267835 0.13796064 0.122291535
-0.031499356 -0.057201847 0.028991355 -0.04248016 0.16789365 -0.08309262 -0.09316548 0.034428418
0.1009215 0.13089642 0.08860536 -0.028900934 0.12070335 0.1814333 0.042789392 0.11264934
0.15139021 0.1305198 0.14245415 0.18147102 -0.08635043 0.15190366 0.113927424 -0.07289591
0.108425945 0.12193425 0.10917115 0.21554904 0.077081144 0.022236513 -0.036430713 -0.050915085
0.04401836 0.12247652 -0.019511592 0.12280115 -0.049399227 0.07154751 0.047989693 0.017898122
-0.061899804 -0.041437447 0.14565985 -0.034655124 0.04038953 0.20720853 0.10460498 -0.072947495
0.08900801 0.09477251 0.025556104 -0.059578363 -0.03481207 0.1467702 -0.022422358 0.011433472
0.15772422 0.1661474 0.22790821 0.00083485764 -0.027258664 0.12936684 0.0292443 0.19832526
0.16880573 -0.032049704 0.024610553 -0.018950354 0.17833573 -0.011464916 0.2334654 0.0193402
-0.023216266 -0.08234059 0.031614214 0.13097194 0.010526627 -0.016339194 -0.048426557 -0.017645294
-0.093913406 -0.061329596 -0.06555909 0.13106458 0.12612888 0.06740671 -0.032219164 -0.041922674
0.14070135 0.18103385 0.03511078 -0.015269373 0.05697296 0.09913701 -0.04493258 -0.056581035
0.0016669241 0.18107298 0.05268724 0.159761 0.054330263 0.06302589 0.023451064 0.026741609
0.24542606 0.10601491 0.13806315 -0.06448013 -0.005313508 0.01707524 0.16937533 -0.044732757
0.22363974 0.08194713 -0.058966156 0.018632907 0.11242573 -0.032735083 -0.065635465 0.21315958
-0.06090981 0.19642355 -0.032141723 0.017922498 -0.048289947 0.1794751 -0.07572634 0.13998449
-0.028582152 -0.038231205 -0.026214197 0.13370381 0.14750563 0.0684841 0.08180511 0.08899466
-0.16677785 -0.027558811 0.21624732 0.16241495 0.18602717 0.18840747 0.06585913 -0.066086754
0.060910024 0.05574618 0.016084272 -0.0711877 -0.009346911 -0.057100147 0.060193814 0.10274588
0.14008223 0.1347974 -0.053725738 -0.086258635 0.080004185 -0.028088499 -0.012647349 -0.045487665
0.1414651 0.12763579 0.15530558 0.20738132 -0.030645192 0.061180186 0.049015325 -0.0073340563
-0.032403335 0.19198099 0.024197241 0.17233628 0.14415674 0.10680931 0.0061238194 0.04035182
0.029822003 0.15561894 0.006675687 0.004707757 0.081354395 0.09954054 0.17147544 0.23146904

model.rnn.weight_hh_l0 f4 [160, 40]
00000000: 9b87 abbd 9315 0abe 9738 ab3d 78c8 4d3d
00000010: 051e 49be 9a17 343e 4a2d 6a3d dd15 27be
00000020: 71e5 efbd 0489 363d 1143 90bd 84ba 18be
00000030: 33bb 34be 2cae 833d 94b4 c8bd 754f 38be
00000040: 8c8d 0e3e 5de0 14bd 9dc4 da3d 25b4 9bbd
00000050: 0de1 8ebd 2c12 ad3d 5320 6a3d e013 4c3c
00000060: 4861 fdbd 8490 a53d 25ba 433e 8550 a4bd
00000070: 2ff9 db3d acd5 a43c b197 823d d4e5 4a3c
00000080: 7930 6cbd bcfb 093e 50a3 3a3d 8ddd d8bd
00000090: 2728 e5bd 2236 f1bd a5d0 b93d fc2b 183d
000000a0: 57a9 b5bc e4ad adbd d183 5f3d 784c 9f3d
000000b0: 9f12 173e e2c0 12be 5108 7d3d 031f 17bd
000000c0: df6d 133d 9e30 083d 0642 233c dbf0 163d
000000d0: 2d97 efbd e14c 95bd 6434 22bd 1790 c9bb
000000e0: 52e3 25be 2e47 133d d5a0 31be 9928 ee3d
000000f0: c56e 183d c1f0 863d 8156 9a3d 8121 b0bd
00000100: c3e5 71bd b7ce e6bd d6a5 90bd 3ecd db3d
00000110: 6be7 033e 837e a93d 494e dcbd 9241 3a3d
00000120: e128 ef3d eb14 77bd 0eff 59bb 037b 993d
00000130: a33d bcbc 484a d6bc 49fe cc3d 04ed 82bd
00000140: e789 fa3c ea62 e03d 4984 c3bc 09a2 8b3d
00000150: 21c3 febc 599f f9bd a104 813d c457 28bd
00000160: 9725 a4bd 263f e83d 429a 273e 87e3 23bd
00000170: bd7c d4bd bf09 98bc 8178 cabd 5c74 0d3d
00000180: c335 b33d acc0 89bc a11b fc3d 1673 35bb
00000190: bf7e 523d 31fc 0a3e fd38 5fbd 654b f5bd
000001a0: 424d f8bd eecc 81bd 4cae 993d 871c f13c
000001b0: ce04 3bbd 301a 7e3d 0de9 98bb dffb 363e
000001c0: b953 f33a 3eb3 013e a29c b1bd 6809 3abc
000001d0: ec23 113e b31b 453c 8a6d 8fbb 2a4b 35bd
000001e0: e2da 2ebe 4cf1 eb3d 6e6e ff3d 3b37 adbd
000001f0: c102 51be d21f 19bc 18d2 0b3d 2acd ae3d
00000200: b913 07bd d15e 9d3d 7706 343e 8c63 df3d
00000210: 5bed 163d b7be 633c ed4d 4f3d 1590 47be
00000220: 4fce 2ebc e6bf 203e 4b52 f73b e0ed ddbd
00000230: 9fbc 0ebe a92b d4bd 135e b03c 6b36 f33d
00000240: 3f3d 81bd 5fe5 e93d 1466 3e3e 1144 43bc
00000250: 5393 3b3e 5ad0 b1bd c347 da3d 0f31 9a3d
00000260: aa75 5cbe 859f db3d fa39 23be 4850 993c
00000270: 8a50 e5bd f955 01bd 8a40 7bbc d1c0 9a3d
00000280: 5df0 41be 45e8 53be 6ecd 0ebd 2047 323e
00000290: 0315 87bc 4f94 5cbd a5cd b1bc fd74 aebd
000002a0: fc1c b2bd ba2f 3a3e 5d52 d13c f4c4 64bd
000002b0: c75e 9b3d b956 3ebe 58cb 3d3d 81ef 41be
000002c0: 9322 be3d 221b 24be e5f2 ca3c 80d3 2cbe
000002d0: 393c 55bd c28a 5f3d 3f0b 63bd bd9b 9dbd
000002e0: e445 35be 16c9 81bb 2497 21bd e4a9 74bd
000002f0: b88d 193e 943c 8dbd 02f5 d4bd f7ec 403e
00000300: 2e56 abbd 8622 2abd b73b 11be 7603 9bbd
00000310: 5939 11bd ab30 bbbd dec6 4ebe 2078 d0bd
00000320: c1de 5dbd 9d17 293c af0b 523d a007 9b3d
00000330: 9f82 51bd cca3 57bd 86b0 36be 0618 2c3d
00000340: 42f8 e43c ceb2 d83c c8ef 363d 4ca1 4a3d
00000350: ff66 873d 86b2 97bc 9697 e3bd ba3c 1dbe
00000360: 72e2 28bd ec6b f83d 53b2 c8bd d153 b2bc
00000370: 285d d23d 08c6 413e 55e0 5dbd d61a 42bc
00000380: e20d c5bd 4624 30be fe37 2fbb 820a 223e
00000390: 0214 21bd a25c 113e 737c 05be 2e92 a13d
000003a0: 1435 28be 4ec8 893d 8790 18bd e5f0 24be
000003b0: c8d0 6abc 2218 fcbb c871 a9bd 4ffb ffbd
000003c0: b528 573d ca90 adbd 56ef ae3d 33c1 a4bc
000003d0: f415 ab3c 264d 3bbc eb32 6bbd 6adb 05bd
000003e0: a3e7 23be 7fe5 a0bd c0b0 96bd 68a8 f0bd
000003f0: a827 733d 9d70 32be 8a26 933b 203b 09be
-0.08375474 -0.13484792 0.08360403 0.05024001 -0.19640358 0.17587128 0.057172097 -0.16316934
-0.11713684 0.044564262 -0.07044042 -0.149149 -0.17649536 0.06429705 -0.098000675 -0.1799906
0.13921183 -0.036346782 0.10682032 -0.07602719 -0.06976519 0.08450732 0.057159733 0.01245591
-0.123720706 0.08084205 0.19113977 -0.080231704 0.107408874 0.020121418 0.06376589 0.012383897
-0.057663415 0.13474935 0.045565903 -0.105891325 -0.11189299 -0.11777903 0.09072999 0.03715132
-0.022175474 -0.08480433 0.05456907 0.07778257 0.14753197 -0.14331391 0.06177551 -0.03689481
0.035993453 0.03324949 0.009964472 0.03685079 -0.11698756 -0.07290054 -0.039600745 -0.00615121
-0.16199997 0.035956554 -0.17346509 0.11628837 0.037215013 0.06588889 0.075360306 -0.0860014
-0.05905701 -0.112698965 -0.07062881 0.10732506 0.12881248 0.08276083 -0.10757119 0.04547269
0.11677719 -0.060322683 -0.0033263597 0.07494166 -0.02297861 -0.026158467 0.100094385 -0.063928634
0.030583335 0.10956366 -0.02386679 0.06818015 -0.031098904 -0.12188596 0.06299711 -0.041099325
-0.08014982 0.113401696 0.16367438 -0.04001191 -0.103753544 -0.018559335 -0.098862655 0.034534797
0.087504886 -0.016815506 0.12309957 -0.0027687005 0.051390406 0.13572766 -0.054497708 -0.11977271
-0.12124111 -0.06337915 0.075039476 0.029432548 -0.04565888 0.062036693 -0.0046664537 0.17869519
0.001856438 0.12666032 -0.086724535 -0.011354782 0.1417386 0.01203053 -0.0043770717 -0.044261135
-0.17075685 0.11520633 0.12472235 -0.084578 -0.20411207 -0.009345965 0.034135908 0.08535226
-0.032977793 0.076841004 0.17580591 0.10907659 0.036847454 0.01390045 0.050611425 -0.19488557
-0.010669305 0.15698203 0.007547652 -0.10836387 -0.1393914 -0.1035989 0.021529233 0.11875614
-0.0631051 0.11420702 0.18593627 -0.011918084 0.18317918 -0.08682318 0.10658219 0.075288884
-0.2152926 0.10723785 -0.15940085 0.018715039 -0.11197002 -0.03157613 -0.0153352115 0.07556308
-0.18939348 -0.20694073 -0.03486388 0.17409945 -0.016489511 -0.053852376 -0.021704504 -0.085184075
-0.086969346 0.18182269 0.02555197 -0.05585189 0.07586437 -0.1858777 0.0463365 -0.1893902
0.09283938 -0.16025975 0.024774024 -0.16877556 -0.052059386 0.05457569 -0.055430647 -0.0769572
-0.17702442 -0.003960739 -0.03945078 -0.059732333 0.14995468 -0.0689632 -0.10398294 0.18840395
-0.08366047 -0.04153683 -0.14182936 -0.075690195 -0.03545508 -0.09140142 -0.2019305 -0.10179162
-0.054167513 0.010320571 0.051280674 0.07569814 -0.05114996 -0.052646443 -0.17840776 0.042015098
0.02795041 0.026452448 0.044662267 0.04947023 0.06611442 -0.018517744 -0.11112897 -0.15355197
-0.04123158 0.121299595 -0.09799638 -0.021768482 0.102716744 0.18923199 -0.054169018 -0.0118472185
-0.096217886 -0.17201337 -0.0026736255 0.15824321 -0.03932572 0.14195493 -0.13035755 0.0788921
-0.16426498 0.06727658 -0.037247207 -0.16107519 -0.014332004 -0.0076933065 -0.08273655 -0.12499105
0.052529056 -0.08474882 0.085417435 -0.020111656 0.020884492 -0.011431968 -0.057421606 -0.032679953
-0.16006331 -0.07856273 -0.07357931 -0.11750871 0.05936399 -0.17425771 0.004490678 -0.1340146

model.rnn.bias_ih_l0 f4 [160]
00000000: 3955 e73d b413 313d aa13 39bd 0945 69bd
00000010: b407 acbd 509e 653e 47d9 05bd 908d 3e3c
00000020: a3a4 4b3c 3f0f 81bd 8983 863c 972b 613e
00000030: 13c1 9a3d 76df 0d3e 16f2 79bc bc45 bb3d
00000040: 22c5 4a3d ef68 bdbd 1b70 b0bd 7d1c 3d3e
00000050: 4c19 f2bc fbfb 9a3d 23b9 03be 723d e4bd
00000060: 4733 463e 7a51 e53b 8acf 123e f43e d7bd
00000070: e6eb 273e f837 0c3e a360 1b3e fc41 95bc
00000080: 8cfa 2c3d e9ed c13d df43 47bd 142d 3dbd
00000090: 5ff7 cc3d ce0b 9b3d fb13 98bd 52db 6fbc
000000a0: 1b97 9e3d 1628 d03d 8a02 983d f7c5 b9bd
000000b0: 289f 553e 802f 123e 89f6 c03d e464 f93d
000000c0: 938b 103c b9e0 033e fa94 983d 1c7e cd3d
000000d0: f14d 67bd 80cc ef3d d45a 78bd 119b 85bd
000000e0: 86d6 6ebd 90c3 05bd d102 08be 1922 323e
000000f0: 66e0 e4bb a125 edbd 8496 4f3e 97d8 0c3e
00000100: 0f0d 383e 2454 1b3e 024e 043d 1f33 113e
00000110: 0c72 0b3e 1f74 373c 9292 b3bd 0d73 5abd
00000120: ee22 cebd 36f8 1d3e cae9 e93d 3cd4 4fbd
00000130: 460f 42bc fcd2 09be 375d 2d3d b966 0fbb
00000140: 7808 6dbd 7d39 96bd 17c3 5c3b 7a6e 393d
00000150: 1b83 8a3d d8d6 0a3e 38b0 c1bd a4a2 23be
00000160: 7109 913b afb4 b3bc 6dde 0c3e 81d2 9f3c
00000170: ab3e 703c 4bf5 c23d 7a41 f73d 801a 553d
00000180: 9572 663c f254 f0bb 3889 a33d 8d3e 583d
00000190: 17bd b6bd c2d6 693d dd8b d5bb 029e 003e
000001a0: 48d9 043e 4209 093d d311 edbd 283b 24be
000001b0: 08c1 8fbd 6523 db3d b736 6ebd 2f43 7ebc
000001c0: 1c01 9ebd de4f aaba 285e 1bbe 56da 02bd
000001d0: 6914 60bd 959a 95bc 1c0a b03d 546e 553d
000001e0: de55 f43d 77f2 4ebd 535f 2e3d a13e ccbd
000001f0: 52b0 1b3e f7ce 133e 1527 033e d175 9dbd
00000200: 4389 a23d 0eff 50bc 223d 5c3d bd70 2fbb
00000210: ab66 de3d 249d ec3d f702 be3d ff8e 043d
00000220: bfa7 b63d 6154 c8bd 8031 123e c45f e3bb
00000230: af0b 1d3e 9549 e13c 17bb 613d 5b98 48bd
00000240: f367 473c 2c99 513e 6a74 c5bd dc45 0b3d
00000250: 59f5 023e b5bb 923c 8429 61bd 4a69 f6bd
00000260: e55f 4b3e a7ca 003d 5554 243e 4808 21bd
00000270: 76b0 2cbd 6b1c b5bd bd45 553d 6e73 513d
0.11295552 0.04323168 -0.04518477 -0.056950603 -0.08399907 0.22423673 -0.032677915 0.011630431
0.012429389 -0.06301736 0.016420143 0.21989284 0.07556357 0.13854775 -0.015255472 0.0914416
0.049504407 -0.0924853 -0.086151324 0.18467899 -0.029553078 0.07567593 -0.12863593 -0.11144532
0.19355498 0.006998238 0.14336982 -0.10510054 0.16398582 0.13693225 0.15173583 -0.01821994
0.042231128 0.09469206 -0.04864871 -0.046185568 0.1000812 0.07570611 -0.07425686 -0.014639692
0.07743665 0.10163896 0.07422359 -0.09070962 0.20861495 0.14275932 0.09422023 0.121774465
0.00882234 0.12878694 0.0745029 0.10033819 -0.056470815 0.11708927 -0.060633495 -0.06523717
-0.058310054 -0.032657206 -0.13282324 0.1739582 -0.006984758 -0.11579443 0.20272261 0.13754497
0.17973731 0.15168816 0.032300957 0.14179657 0.13617724 0.011197119 -0.087681904 -0.053332377
-0.10065256 0.15426716 0.11421545 -0.05073951 -0.011844462 -0.1345939 0.042325225 -0.0021881296
-0.057869405 -0.07335184 0.0033685619 0.045271374 0.06763288 0.13558519 -0.09457439 -0.15980011
0.0044261743 -0.021936743 0.13756724 0.019509556 0.014663379 0.09519442 0.120730355 0.052027225
0.014065404 -0.007334345 0.07985157 0.052794028 -0.08922785 0.057089575 -0.006516917 0.12560275
0.12973511 0.033456095 -0.11575665 -0.16038191 -0.0701924 0.1070011 -0.05815765 -0.0155189475
-0.07715055 -0.0012993773 -0.15172637 -0.031946503 -0.054706965 -0.018262187 0.08595678 0.05210717
0.1193044 -0.0505242 0.042571377 -0.09972883 0.1520398 0.1443442 0.12807877 -0.07688487
0.07936337 -0.012756122 0.05376924 -0.0026770078 0.10859426 0.1155341 0.09277909 0.032362934
0.08918714 -0.09781719 0.14276695 -0.0069389064 0.15336488 0.027500907 0.055110063 -0.048973422
0.0121707795 0.20468587 -0.09641345 0.03400217 0.12788905 0.017911771 -0.054971233 -0.12031801
0.198608 0.031443264 0.16047795 -0.03931454 -0.042160474 -0.08843311 0.05206846 0.051135473

model.rnn.bias_hh_l0 f4 [160]
00000000: c1d6 f53d d10f e43c 5e27 063e b601 203e
00000010: e1bc 56bd abf8 303e 8833 6b3e be8d 91bd
00000020: 4e80 793e 28b7 8dbd bf9b 1d3e 9ab5 c03c
00000030: b372 923d 446f 4e3e beee bf3d e813 653e
00000040: d4ca 473e 9e79 13be 5397 5fbd 8f80 e73d
00000050: 2dee 023d 95e7 f2bd 3a5d 12be 154a aabd
00000060: 68a3 d9bc 43bf 6f3c 5dcd c33d ca7c d33b
00000070: 5414 ce3d 1fa4 5abc 4d98 693d 86b8 a1bd
00000080: 581d 223e 0086 3e3d 4f1d b7bb 5daa 06bc
00000090: 47f6 6bbd 6ac8 193d e557 b3bc 0a6d ba3d
000000a0: b349 acbd 16b2 22bd 3aec a73d 7c99 903d
000000b0: e875 413e e5ac e2bd 23e7 1d3e 8cdb 323e
000000c0: 6ab0 1d3e bc9a 4abd 5446 243e 5330 d2bc
000000d0: 3e5b 35bd cc9b 323e 317f f9ba 90a9 99bc
000000e0: bf61 d0bd 9ec2 9a3d 606a d3bc 305d 9fbc
000000f0: 2cfc 0d3e f630 a83b 9a38 303c 1b37 913d
00000100: feca 8bbd 8ee0 acba afd8 e13d 1cbe a13d
00000110: 0c74 d93d 27d5 9a3c 442d 80bc 76df e1bc
00000120: 5cfa 143d 032a e8bd 80b9 77bd 5e28 d2bd
00000130: 19c3 69bc 2225 16be c91e 073e 32f0 203e
00000140: 69fe 953c 68b9 e43d 05e1 373e 6a9a 273d
00000150: 1dcb c6bb d68b 9bbb 5cfb 2bbe 827a 01bd
00000160: 1f2f 52be e4b1 8e3d 176c 20bc a900 57bd
00000170: 47f7 103d 55d5 0ebe 7f3e fdbc 019a 84bd
00000180: dfa9 a7bd fd27 dfba c959 493c c803 b63d
00000190: 8644 5c3c 00ac babd 6342 993d 399f 933d
000001a0: 8728 b0bd 1414 31be 98b2 003a 3cf4 883d
000001b0: 7994 5c3c 143e dd3d 23a0 54bd fd42 e13d
000001c0: 6319 9f3d 2877 28bd aef7 87bd 8c3a eabd
000001d0: 02f4 90bd 27c7 c83b b827 b83d 8cf1 70bd
000001e0: da08 363e 04b8 453e c72c 2f3e 710a 923d
000001f0: 1634 e0bc bc21 543e 4c2a 133e ef4c 7dbd
00000200: 0b74 f4bc 075f cdbd 5ad7 fa3d 01e3 b53d
00000210: 93bb a7bd 3393 7bbd 14a4 af3d 2396 6d3e
00000220: a2b4 ad3d 550f 04be 6965 573d 9e45 b1bd
00000230: 240a e33c 8e65 223e 6958 7ebd b1d7 873d
00000240: 18b8 283d c886 343d 33d6 babd 639c 8dbd
00000250: 7d83 bc3c e03b 82bd ab7d 4e3d cef3 35bd
00000260: 7fa3 c43d fe4f 313e 4abf 60bb d3b2 153e
00000270: e9e0 1a3e 6ffe 3c3e 7255 4f3d 8eca cdbb
0.12003852 0.027839573 0.13100955 0.15625653 -0.052426223 0.1728236 0.22968876 -0.07107113
0.2436535 -0.069197 0.15391444 0.023524094 0.071507834 0.20159632 0.09371708 0.22370875
0.19510967 -0.14401862 -0.054587673 0.113038175 0.031965423 -0.11860577 -0.14293376 -0.08314911
-0.026567176 0.014633003 0.09560654 0.006454085 0.10062471 -0.013344794 0.05703001 -0.07896523
0.15831506 0.04651451 -0.0055882107 -0.008219329 -0.057607915 0.037544645 -0.021892497 0.09102829
-0.084124945 -0.039720617 0.081993535 0.07060525 0.18892634 -0.11068133 0.15420203 0.17466563
0.15399328 -0.049463972 0.16042453 -0.025657808 -0.04427647 0.17442244 -0.0019035098 -0.018757612
-0.101748936 0.075566515 -0.02580756 -0.019453615 0.13865727 0.0051327897 0.010755682 0.07090589
-0.06825827 -0.0013189481 0.11027657 0.078975886 0.10617837 0.018900467 -0.015646584 -0.027572375
0.036371574 -0.11336138 -0.06047964 -0.10261606 -0.014267706 -0.14662603 0.13195337 0.15716627
0.018309789 0.11168176 0.17956932 0.040918745 -0.0060666935 -0.0047468944 -0.16795105 -0.031610973
-0.20525788 0.06967524 -0.009791396 -0.052490864 0.035392072 -0.13948567 -0.03091359 -0.064746864
-0.08186697 -0.0017025467 0.012289473 0.0888744 0.013444072 -0.09114838 0.074833654 0.07208104
-0.0860148 -0.17292815 0.0004909425 0.06687209 0.013463133 0.10802856 -0.05191053 0.10999105
0.07768514 -0.04112926 -0.06639038 -0.11436948 -0.07077791 0.0061272564 0.08991951 -0.058824107
0.17776814 0.19308478 0.17106925 0.07130898 -0.027368587 0.20715994 0.14371604 -0.061840948
-0.02984049 -0.10027891 0.12248106 0.08881188 -0.08190074 -0.061419677 0.08576217 0.23201804
0.084817186 -0.12896474 0.052586947 -0.086558565 0.027714796 0.15859053 -0.062096033 0.06632937
0.04119119 0.04407385 -0.091228865 -0.06914594 0.023011917 -0.063590765 0.050412815 -0.044421963
0.09601497 0.17315671 -0.0034293705 0.14618997 0.15124859 0.18456434 0.050618596 -0.00628025

model.rnn.weight_ih_l1 f4 [160, 40]
00000000: 2e5d d63c 5e16 f33c 490c 8fbd 29ed 8d3d
00000010: c1fd 383c 762c 4f3e 40a7 30be 06e0 4dbe
00000020: a2a3 3ebe cac7 b13c df1a c83d 3c18 80bc
00000030: a371 27be ccfd ef3a 7f6a 1c3d 2208 01bd
00000040: eff5 c5bd a4b2 3dbd c8c4 ccbb 237f 0abe
00000050: d7f9 953d 8e93 4c3d 5825 0b39 d641 9dbd
00000060: 8d31 863a 383a cfbd 0db7 37bd 0a96 133e
00000070: 6413 8fbd 3833 b33c b862 983d 41ca 823d
00000080: 8624 d4bd 27ce debd 31b3 a73d 9ee5 ca3d
00000090: 493a 9e3c 96c5 11bd 0517 c1bc 3bc7 af3d
000000a0: ee87 99bd 361c 30be 181c 903d 4c8a 503e
000000b0: b4a9 7ebd b610 07bd 0fb0 8dbe 5bd4 1d3d
000000c0: f637 8ebe aef9 a03d ff1b 453d b397 2a3d
000000d0: 96d3 67be aaf9 31be 7f5c 113e 39e2 95be
000000e0: 5294 f2bd 116a 3ebd eb38 29be ed92 52be
000000f0: 8bde 17be 1ab6 7ebd 619a 10be c70d 3e3d
00000100: 1d1c 24bd 75f8 1f3d a5c3 06bc 362f edbd
00000110: 2125 fd3d aa7d a43d 4316 55be 6d7e c03d
00000120: abaf 24bd 7d3e 263e 763a 3ebe 31ac 983c
00000130: bbb8 2b3d 18c6 1cbe 8221 36be 93eb 273d
00000140: 6ff0 dc3c 1d69 21bc 8630 2f3d d745 953d
00000150: e123 a1bd 9743 b7bd 7237 cdbd fd87 22be
00000160: 0e02 9abd 4504 19be 3bc9 18be d345 2cbe
00000170: a119 07bc adbe f0bc 585f 65bd fc8c 803d
00000180: bb03 caba dca7 503d cbb1 a83c acbc 94bd
00000190: 3ff0 023e 7580 b03c bff9 3fbd 567d 8fbd
000001a0: c80f 4c3d e6d1 16be a5f3 eb3d 40c1 da3d
000001b0: 7ab8 d53d 7b1b f23d f92a b23d f1d4 f6bd
000001c0: 96eb 703d 623e 233e f58e c83d 442e b3bd
000001d0: 4102 0a3e 8383 25be a4be df3d 2354 d6bd
000001e0: 3c95 4abd 5426 eb3c 88c0 ccbd 44d4 b2bd
000001f0: 8a62 623d 2ad6 203e 5135 053e 227b e83d
00000200: a359 8dbb 170b edbc 0031 d23d 0d65 16be
00000210: 40ad e3bd 9b9b 84bd 5d5d 8cbd 15d0 b6bd
00000220: 8386 af3b f855 12be 465c f53d cd6d 21be
00000230: f64a 4abc 2db4 5b3d 0ac5 c6bd e1be 1d3e
00000240: 03b8 973d 4c6b f6bc 8f4e 313d a41b dc3d
00000250: b878 eb3d 80ce 76bd d50f 873d fd65 b43d
00000260: 2ecd fdbc 7519 193e 8848 e4bd 6bbd 18be
00000270: 1f6a 9b3d 7ea6 28be 613f 5a3d 909c f5bd
00000280: 8546 03be 8260 00be 5361 1ebe 1a11 d2bd
00000290: 11f8 cd3d d595 f13d edfb 2b3d ab1c c23b
000002a0: a6dc 093e 8c7f 36be 5432 833d 9a57 153e
000002b0: d931 3dbd c3aa 03be 4883 8abc 39ca a63d
000002c0: bf01 463d ec7e 883d e172 d93d 7816 ac3d
000002d0: f92e 103d 0af1 1ebe dc6d 143e a6fe 02bd
000002e0: 3dc8 043e c404 f43d 035d ec3d b7e9 dc3d
000002f0: 36c7 15be 2d2e 26be 5dde e63d 0386 49bd
00000300: 80aa e03d 72d8 86be 895d 8abc 46fd 773d
00000310: f974 1bbe b4e3 1c3d e6ed 633d 4e40 be3c
00000320: c0fc 81be 6058 37be a6bf 723e a490 333e
00000330: 8853 25be 84d6 46bc 9bb7 2abe 02df 453d
00000340: 63a2 49be 7911 04bd 377c 21bd 325e e0bd
00000350: e1e5 54bd a542 d3bd 18ce 413e d286 2cbe
00000360: 1835 5dbe fc2c 023e 832c 12bd 32fa b83c
00000370: 0a57 0abe 46f5 a13d 5650 793d 6971 a73d
00000380: a1a3 2cbd 9581 37be c148 623e ece3 efbc
00000390: 849d 693e d6ac a33d 68e9 e938 acf3 58bd
000003a0: 6c86 f3bc beb4 093e 85d9 033c 3937 3bbe
000003b0: 37ed 613e 10d5 97bc 6d16 84be 5735 abbd
000003c0: 1dd4 dc3b 3d10 22bd 634e 843d 0090 423d
000003d0: 6651 33bc 712f 4b3d 7469 373d e1c8 f33d
000003e0: 950f b2bc ba6e 3a3e b9b5 b93d 9fd4 3ebc
000003f0: c662 03be 95b2 fdbb 0095 fabd 58a1 41bd
0.026167478 0.029673751 -0.06984765 0.0693 0.011290968 0.20231804 -0.17251301 -0.2010499
-0.18617108 0.021701712 0.0977075 -0.015636556 -0.16351943 0.001830989 0.0381875 -0.031501897
-0.09666049 -0.046312943 -0.006249044 -0.13525061 0.07323044 0.049945407 0.00013269985 -0.07678573
0.0010238156 -0.10118526 -0.044852305 0.14412704 -0.0698612 0.021875009 0.07440704 0.06386233
-0.10358529 -0.10879164 0.08188475 0.09907077 0.019314902 -0.035588823 -0.023570547 0.08582922
-0.0749663 -0.17198262 0.070366085 0.20365256 -0.06217356 -0.03297492 -0.27673385 0.038532596
-0.2777707 0.078601226 0.048122402 0.041648578 -0.22639307 -0.17380396 0.1419544 -0.29274157
-0.11844696 -0.04648787 -0.16525619 -0.2056386 -0.14830987 -0.062185384 -0.14121391 0.046399858
-0.040065873 0.039055306 -0.008225356 -0.115812704 0.123605974 0.08031781 -0.20809273 0.09399114
-0.040206593 0.16234775 -0.18576989 0.018636795 0.04192422 -0.15309942 -0.1778622 0.040996145
0.026970116 -0.009851721 0.042770885 0.072887115 -0.078681715 -0.089484386 -0.10020341 -0.15872188
-0.07519923 -0.14943035 -0.14920513 -0.16823511 -0.0082458565 -0.029387796 -0.05599913 0.06276891
-0.0015412489 0.050941333 0.02059259 -0.07262549 0.12786959 0.021545628 -0.046869036 -0.07006328
0.049819738 -0.14728507 0.11521081 0.10681391 0.10435577 0.11821648 0.08699603 -0.12052334
0.058818422 0.15941766 0.09792892 -0.08749059 0.13477422 -0.16163449 0.10925034 -0.104652666
-0.049458727 0.0287048 -0.0999766 -0.08731893 0.055269755 0.15706697 0.1300862 0.11351611
-0.004313664 -0.028935952 0.10263252 -0.14686985 -0.11117029 -0.06474992 -0.06853745 -0.08926407
0.005356611 -0.14290607 0.119804904 -0.15764542 -0.012346974 0.053638626 -0.09705551 0.15404846
0.07408144 -0.03008046 0.04328781 0.107474595 0.11497635 -0.060255527 0.065948166 0.08808515
-0.030981626 0.14951117 -0.11146647 -0.14916007 0.075886 -0.16469762 0.0532831 -0.119927526
-0.1281987 -0.12536815 -0.15466814 -0.10257168 0.100570805 0.11796156 0.041988302 0.0059238276
0.13463077 -0.17822093 0.06406084 0.14584199 -0.046190117 -0.12858109 -0.016908303 0.0814404
0.04834151 0.066648334 0.106176145 0.08402723 0.035201047 -0.15521637 0.14495033 -0.031981133
0.1296701 0.119149715 0.11541178 0.10786765 -0.14626774 -0.16228552 0.11272881 -0.04920007
0.1097002 -0.2633701 -0.016890304 0.060544275 -0.1518134 0.038303092 0.0556468 0.023224022
-0.25388145 -0.17904806 0.2370592 0.17535645 -0.16145146 -0.012136105 -0.16671602 0.04830838
-0.19690852 -0.032243226 -0.0394251 -0.10955466 -0.051977042 -0.10315446 0.18926275 -0.16848305
-0.21602285 0.12712473 -0.03568698 0.02258024 -0.13509765 0.0790811 0.06086763 0.08175928
-0.042148236 -0.17920525 0.22098066 -0.029283486 0.22813994 0.0799195 0.00011153781 -0.05296676
-0.029727183 0.13447854 0.008047466 -0.18282785 0.22063147 -0.018534213 -0.2579836 -0.08359783
0.006739153 -0.039566267 0.064602636 0.04750061 -0.0109447 0.04960579 0.044778302 0.11903549
-0.021735946 0.18206301 0.09067864 -0.0116473725 -0.12830648 -0.007742236 -0.12235451 -0.04727301

model.rnn.weight_hh_l1 f4 [160, 40]
00000000: 2680 983c eae9 793d 7d72 083e 572b 1fbe
00000010: ccf4 693c 6a08 3dbd 9319 743d 5a8e 4f3d
00000020: 27e6 863d a137 ccbd 61f7 843d 3620 e93c
00000030: 16e6 f93d d7c1 1b3e 61e7 1cbe 1001 193e
00000040: 0874 b63d 4b59 843d 8df9 213e 011c 96bd
00000050: d634 f33d 3e94 fabb 4ab6 b73d 804d 80bd
00000060: 858c 75bd e6bc ba3d e6a6 04be 6602 9d3d
00000070: ba06 1a3d c131 013e b986 1ebd 844a 123e
00000080: 4dec 0e3e 2ff1 973d 811e bc3d 6595 003e
00000090: 9f32 ccbc 01ab f0bc b485 793b 5adb b8bd
000000a0: 5739 eb3d ff05 303d 9469 30bd 3382 7f3c
000000b0: b47d be3d 3a7c 00be 26d7 923d f4d3 b33c
000000c0: 3ca6 c93d 4d11 02be e44b 83bd 3abd ff3d
000000d0: 1d80 03be 59ec f13d c657 ec3d 8dd5 eebc
000000e0: 6eca b7bd 3c61 af3d f92d 6ebd 57d5 31bd
000000f0: acfe 993d a2b4 c039 1111 973d b015 1ebd
00000100: 76bc 4ebd 9dc7 3fbd de63 f53d 7f47 c0bd
00000110: c0a6 f83d 19a6 c1bd a5f0 df3d cb44 c73d
00000120: d65d 3ebd bf08 83bd 0266 283d 66c5 e0bd
00000130: ee2b f9bd 73ce ffbd 9b75 053e 6aeb 2d3e
00000140: 2741 ec3b 9ab2 f3bd b234 1d3e b6e2 0abe
00000150: 14b2 e63c 5451 f3bd 83a9 483c f8c2 233d
00000160: 936c 68bd b666 abbd 7829 d8bd 464c fe3d
00000170: 1d63 dabd b9b9 65bd b3bf 23bd 62a8 29be
00000180: 48ce 08be 1f0f 0bbe 25d6 ee3d 5828 90bd
00000190: c749 ff3d f412 8d3d 016d bbbd e709 0abd
000001a0: 7507 d03d 8a53 74bd ac3f 1ebe 4f93 9abd
000001b0: 884b 93bc 7da5 613d 245f 9abd baae f63d
000001c0: 4a6a 2fbe 9c63 4e3c df92 c0bc 4fe1 2abd
000001d0: 923b 013e c9ff 07be 4435 b03d 2206 24bd
000001e0: c613 b8bd ec81 bd3d 3db9 d2bd c62d 2b3d
000001f0: ea64 0fbe 37b3 013e 95bf c1bd b5a5 46bd
00000200: 835e 443c 0ae0 c53d a324 0c3d bde6 833d
00000210: fa6c 983b 430f 233e 6d26 27be 42eb 98bd
00000220: 4085 283e 60e6 9d3d 663c 01be 131d 02be
00000230: a766 11be 4a38 2bbd 8029 303e 6992 2abe
00000240: 1f6e 7dbd 930f 3f3e c4df ed3d 52d1 033e
00000250: 3a0e d9bd a0c0 023e 5afe 9e3c 8e3f a13d
00000260: d509 d3bd 0ac1 f83c bc41 b83d 2e5b 023e
00000270: 1968 8abd e399 2ebd 7f0f 23be e7eb 84b9
00000280: 84ad 6e3d f204 0cbe 1ac1 5b3c c241 edbd
00000290: a4c4 86bd c511 0f3d f9e4 963d 2993 6b3c
000002a0: e6f6 093e e431 23be a9c4 173d 5fae b7bd
000002b0: eede d2bd 5baa 803d 9f5f 483e 5053 18be
000002c0: 9219 053e ddb3 753d c049 3b3e f5a4 b83d
000002d0: 9bd6 51be d97c eabd 4224 59be 2bdf 54bd
000002e0: ffec e5bc 8774 07be 329a 123e 9a86 393e
000002f0: 332b 873c 13fc ec3c caeb 0d3e a698 3f3c
00000300: c8b1 763d f757 053e 7068 88bc deed 1b3e
00000310: 1258 1b3b 6d76 b2bd c80e a8bd 81a2 e23d
00000320: 6703 8fbd 4305 8bba de3e 36bc f4f9 883c
00000330: ffee a93d 5485 5cbd 4b0f 52be 7fa5 06be
00000340: 7b84 01bd e563 83bd 67f4 edbc 0445 3cbd
00000350: 0b5c af3d eab2 f43d d6d2 36bd 141a 303e
00000360: 13de 173e b10d 4d3e c0a5 283e 5085 c4bd
00000370: 2205 2cbd bba0 3c3e 98e9 f33d 0bbc 173e
00000380: 3f3c 473e 8edf abbd e6ee 5cbd 2fe1 dbbd
00000390: 7a0b b1bd 1778 4b3d f208 f63c 18c6 9ebc
000003a0: 4862 3cbd d3ed bfbd 0bd9 063e be71 373d
000003b0: 2b51 fe3a b544 1ebe d840 3ebd ce97 6fbd
000003c0: c190 2ebe 3cd1 83bc d58b ff3d 0820 843d
000003d0: c0a5 1cbd aa14 f8bd 396a 863d 0612 2d3d
000003e0: fed4 0dbe d6f1 4e3d e9e7 823d 9d11 663d
000003f0: 6129 3cbd 48b7 3a3e d407 393e 8610 2f3e
0.018615793 0.061014093 0.13324924 -0.15543877 0.0142795555 -0.046150602 0.059594702 0.050672866
0.06586867 -0.09971548 0.06492496 0.028457742 0.122020885 0.15210663 -0.15322639 0.14941812
0.0890885 0.06462344 0.15817852 -0.0732956 0.11875312 -0.0076470664 0.08970316 -0.06264782
-0.059948463 0.09118061 -0.12954292 0.07666473 0.03760407 0.12616636 -0.0387027 0.14286238
0.13957329 0.07419049 0.09185506 0.1255699 -0.024926482 -0.029378416 0.0038074078 -0.09026213
0.11485546 0.04297447 -0.043069437 0.015595007 0.0930132 -0.12547389 0.071699426 0.021951653
0.0984616 -0.12701912 -0.06410959 0.12487264 -0.1284184 0.11812658 0.11540179 -0.029154563
-0.08974157 0.08563468 -0.05814931 -0.043416347 0.07519278 0.00036755676 0.07376302 -0.0385949
-0.0504727 -0.046821225 0.11981939 -0.09388637 0.1214118 -0.09455509 0.10934571 0.09729918
-0.046476208 -0.063981526 0.041112907 -0.10975151 -0.12166582 -0.12490549 0.13033144 0.16984335
0.007209915 -0.118993 0.15352133 -0.13563046 0.028161086 -0.118807465 0.012247446 0.03998086
-0.05674417 -0.083692 -0.105547845 0.12416892 -0.106634356 -0.056085322 -0.03997774 -0.16568139
-0.1335994 -0.13579987 0.116619386 -0.07038945 0.12465244 0.06888381 -0.0915165 -0.03370085
0.10157672 -0.05964998 -0.15453976 -0.07547628 -0.017980352 0.055089463 -0.07537678 0.12045045
-0.1713039 0.012596991 -0.023507534 -0.041718777 0.1262038 -0.13281168 0.086039096 -0.04004491
-0.089881465 0.09253296 -0.10289238 0.0417917 -0.1400334 0.12666021 -0.094603695 -0.048497874
0.011985424 0.09661873 0.034214627 0.06440494 0.004651663 0.1592379 -0.16323252 -0.07466747
0.16457081 0.07709956 -0.12620696 -0.12706403 -0.14199315 -0.04180173 0.17203331 -0.16657414
-0.061872598 0.18658285 0.116149455 0.12872818 -0.105984166 0.12768793 0.019408394 0.0787345
-0.1030461 0.030365486 0.08996913 0.12730095 -0.06758136 -0.042627227 -0.1592388 -0.00025352763
0.058270946 -0.13673761 0.013412738 -0.11584808 -0.06580475 0.034929056 0.07367892 0.014378347
0.1347309 -0.15937 0.037052784 -0.089688055 -0.10296427 0.06282493 0.19567727 -0.14875531
0.12998036 0.059985984 0.18289852 0.09015838 -0.20492022 -0.11449594 -0.21205238 -0.051970642
-0.02806711 -0.13228045 0.14316633 0.18117753 0.016500091 0.028928792 0.13859478 0.011694109
0.06022814 0.13021837 -0.016651362 0.15227458 0.0023703617 -0.08713994 -0.08205944 0.110661514
-0.06983071 -0.0010606427 -0.011123387 0.01672075 0.08297538 -0.05383809 -0.20513646 -0.13149069
-0.031620484 -0.06415538 -0.029047204 -0.045964256 0.08562478 0.11948188 -0.044634663 0.17197448
0.14830808 0.20024754 0.16469479 -0.0959574 -0.041997083 0.18420689 0.11909789 0.14817826
0.19456576 -0.08392249 -0.05393877 -0.1073631 -0.08644767 0.049675073 0.030033562 -0.019381568
-0.045992166 -0.09371533 0.13168733 0.044786207 0.0019402852 -0.15455897 -0.04644856 -0.05849438
-0.17047407 -0.016090982 0.12477843 0.06451422 -0.03824401 -0.12113316 0.06563229 0.042253517
-0.13850781 0.0505236 0.063918896 0.05616914 -0.0459379 0.18233979 0.18069392 0.17096147

model.rnn.bias_ih_l1 f4 [160]
00000000: 63f4 1d3c 9f17 003d 880d a03c 5527 3d3e
00000010: 8fb0 a63d d7dd 843d c06a b4bc eb6e cb3d
00000020: 112a b1bc 3a3c eebd 98c6 ad3d f481 093e
00000030: 125f ebbd e11d 683d a1db febd 247b 863c
00000040: 38b9 8b3c 70ef 13bd c980 d33d 73db 523d
00000050: ed80 8f3d 28ee db3d cd5a a73c c2c2 1ebd
00000060: 949c a53b 172b a63c 0a00 833d 000a 2fbc
00000070: 9d13 623e f225 333e 8268 85bd eab2 b7bc
00000080: d54e 563e ad62 0dbe ef58 053e d583 6a3c
00000090: 67c5 e13d 961c 293e a5ae 543d d5c1 013e
000000a0: 677e 1b3e 4cd6 adbd d0f6 1d3e bc6d 543d
000000b0: ef1c 42bc d21d 833d 64b6 efbb f887 103e
000000c0: 9054 21be 4e88 bbbd 06ef a7bd 31cb 47bd
000000d0: cdb1 933d d86b 73bd 92ec e5bd d54f 033e
000000e0: b550 b93d 604b 8dbd 7fe5 983d 8e70 4cbd
000000f0: c61f 9a3d df7e cbbd 5793 ddbd ff01 2f3e
00000100: 722c 88bc 2615 05bd e15e ddbd 6769 03be
00000110: 0d17 2cbd 2d5f 7c3c 541e 03be 8b85 a0bd
00000120: 6001 6f3c f080 a4bd d366 353e bd0d 7d3d
00000130: f332 c83d 1cc2 013c 402a b1bd 32b6 1d3e
00000140: e3fe 3dbe 5061 b3bd 717a 263d 2bdb 03be
00000150: d464 453d 6883 0e3c 1de9 163e 8995 123d
00000160: c6c2 f13d 6040 3ebd 6420 fc3d 4c4e 6d3d
00000170: ea69 92bd 1c29 013e 3478 f9bd 6255 043e
00000180: 696c 153e e2d1 afbc 7633 c23d 6263 0abe
00000190: b48f bf3d 55f9 153e 434f 95bd 012a 763d
000001a0: 7c51 3ebd 51ee 58bd 81cb a53a 5106 16be
000001b0: 6b71 dc3c 4e9a c1bd 74b7 5a3e f691 c33c
000001c0: c75a cebd 1c23 213d ab4e d73d cd6e 36be
000001d0: 8d21 26bd f391 023e 96cc ca3b 2634 aa3d
000001e0: 881f 953d 4290 4c3e b322 1fbe 27eb eebb
000001f0: c71b f5bd 35e2 7d3d ca3b 87bd 6e8d 8fbd
00000200: 3530 f93a dd66 b5bc da6e 20be 2965 abbd
00000210: 7008 2cbd d803 a7bd ea1e 563d 826d d6bd
00000220: c7c2 003d 451f ad3d 9af1 6f3d 2fb6 efbc
00000230: 348b a33d 7d27 38bc 1b67 3bbc 5a93 9ebc
00000240: 3608 c53d 0390 8e3b 3b55 283e 3e63 27bd
00000250: e27d e23d 64d1 9f3d 1074 083e ab35 55bd
00000260: 127a 073e 1390 52bd 2f32 4f3d 17f6 f0bc
00000270: 2d4d 153e 0627 d53d 4da2 0ebd 25e9 813c
0.009640786 0.031272527 0.019537702 0.18472035 0.08139145 0.06487625 -0.022023559 0.09933265
-0.021626504 -0.11632581 0.084851444 0.1342848 -0.114927426 0.05666912 -0.12444235 0.01641614
0.017056093 -0.036117017 0.10327298 0.051478814 0.070070125 0.10738784 0.02042904 -0.038759954
0.005054066 0.020284219 0.06396492 -0.0106835365 0.22077794 0.17494944 -0.06514074 -0.02242418
0.2092851 -0.13807173 0.13022207 0.014313658 0.1102398 0.16514811 0.051924367 0.12671597
0.15184937 -0.084881395 0.15426183 0.051862463 -0.011847719 0.06402172 -0.007315444 0.14114368
-0.15754914 -0.091568574 -0.08199887 -0.048777763 0.07211647 -0.05942902 -0.11226763 0.12823422
0.09048597 -0.06899142 0.07465648 -0.049912028 0.075255916 -0.09936308 -0.108191185 0.17090605
-0.016622756 -0.03249087 -0.10809112 -0.12833177 -0.04201417 0.015403551 -0.12804538 -0.07837971
0.01458773 -0.080324054 0.17715006 0.06178068 0.09775343 0.007919814 -0.08650637 0.15401533
-0.18554263 -0.08758795 0.040644113 -0.12876575 0.04819186 0.008698322 0.14737363 0.03578714
0.11804728 -0.04644811 0.123108655 0.057935998 -0.07149108 0.12613338 -0.1218113 0.12923196
0.14592136 -0.021462385 0.09482472 -0.13514474 0.09353581 0.14645894 -0.072905086 0.06009865
-0.04646443 -0.05296165 0.001264915 -0.14650847 0.02690955 -0.094532594 0.21359044 0.02387331
-0.10075908 0.039340124 0.105130516 -0.17815705 -0.04055934 0.12750988 0.0061889393 0.08310728
0.07281405 0.19976905 -0.1554058 -0.007291216 -0.11968189 0.061983306 -0.06603201 -0.070093974
0.0019011559 -0.022143776 -0.15667287 -0.08368904 -0.042000234 -0.0815503 0.052275576 -0.10470106
0.031435754 0.0845323 0.05858002 -0.029261677 0.07985535 -0.0112398835 -0.0114381565 -0.019357372
0.09620707 0.0043506636 0.16438763 -0.04086613 0.110591665 0.0780361 0.13325524 -0.052053135
0.1323016 -0.05140693 0.05058497 -0.02941422 0.14580221 0.10407834 -0.03482275 0.015858242

model.rnn.bias_hh_l1 f4 [160]
00000000: 37c2 e03d 5e26 2a3e aeda 9c3d 2e27 aabd
00000010: d04f a13d 63c2 1c3d efe9 aaba ca11 8fbd
00000020: 0a4a b93d 0d82 d5bc 17ac c7bd 2bed 39bd
00000030: a5d6 80bd 397f 23be f2d3 1b3c 2658 2bbc
00000040: 15a0 243e da00 043e 6a6d fc3d 7431 b93d
00000050: b638 01bb cf1b a4bd 45d6 8ebc bc86 c23d
00000060: 3188 cbbc cf3b 133d 219e d53c 8b81 023e
00000070: 2123 873d bf6c b83d 8777 523e df46 b73d
00000080: 31c4 67bd f9e1 7abd c608 7ebd 0296 04bd
00000090: 669b 6d3d 2ddc 6a3c 0e6e a23d 33bf cc3d
000000a0: 020d a6bd de42 a93d 88cb bfbd 9837 c2bc
000000b0: 9df9 f43d 673a 253e afc5 82bd be08 d13d
000000c0: 613b 63bb 814c ac3b ab9a 67bd 0608 ea3c
000000d0: 4ca5 66bd 110c e43d 034d d23d e171 1abe
000000e0: d3eb 50bd 632b bbbc a461 603d 01b0 503d
000000f0: 3975 19be 97f2 02bd 6299 603d 701c 82bc
00000100: d4d0 a5bd 4cd0 a83c ceef 203e ff04 17be
00000110: 3d88 d8bc f4a6 24bc fb93 1a3c c08c 853d
00000120: 22e6 67bd e15d 153d df5f 3f3d 41f2 0fbc
00000130: 898a 72bc 942b c93d d9f1 613d 2d36 83bd
00000140: 1a1a c53c 63bf 743d 7929 293b 5e4e a73a
00000150: 5306 d1bd 1384 e9bd 6fb5 0dbe 8008 bcbd
00000160: 7181 f43d 5bbd c5bc faae 083e 8739 fcbd
00000170: 5685 2d3e 6540 e83d dd62 f0bc 91b4 f6bd
00000180: 6792 263d 40fc a3bd 1ea2 a13d 19d1 88bd
00000190: aeaf fcbd e6f2 ccbc 5288 f1bc 9123 8c3d
000001a0: cfd4 f03b 20a5 92bd bd69 ffbd 9309 9ebd
000001b0: 77ac 47be dd21 4c3d cd43 fa3c e188 043e
000001c0: 39b5 493e 0e14 d93d 5fa7 0f3e 702b 38be
000001d0: b4ad 23be 3e2c 8fbd bf21 d73c b417 d13d
000001e0: 7340 5a3e 944f 693d f703 4ebd 25ae 2a3e
000001f0: 1924 243e 2c6c 473e 3d36 063e b14a 183c
00000200: 4c25 e33d cea5 163e 22b9 563d 8a9d 2dbd
00000210: 530e 753c 5ec0 abbd b2e9 ff3d 435f aabd
00000220: 1526 0f3e dd0d 483e fc41 e33d c411 1ebb
00000230: eb24 07bd c12b f5bd e8d8 363e 4c61 91bd
00000240: bb6a 8d3d c8aa 0e3b 55a6 343e d5f2 8dbd
00000250: e3a6 423c 2a2b 503e aec7 cc3d 1acd 603d
00000260: 5b77 073e a0cd 803c 4881 89bd c3c2 aa3d
00000270: d8e3 e93d 3541 163e b7a1 0f3e 6b85 803d
0.109745435 0.16616198 0.07658897 -0.08308254 0.07876551 0.03827132 -0.0013039688 -0.06985815
0.09047325 -0.02606299 -0.097496204 -0.045392197 -0.0629094 -0.159665 0.009510981 -0.010458028
0.16076691 0.1289095 0.123255566 0.090426356 -0.001971764 -0.080131166 -0.017436156 0.09498355
-0.024845215 0.03594571 0.026076378 0.12744729 0.06598497 0.09005117 0.20553409 0.089490645
-0.056583587 -0.06125066 -0.062020086 -0.03236962 0.058009528 0.014334721 0.079311475 0.09997406
-0.0810795 0.08264707 -0.093649924 -0.02370815 0.119616725 0.1613556 -0.063853614 0.102067456
-0.0034672844 0.0052581434 -0.056543987 0.028568279 -0.056309983 0.11135114 0.10268595 -0.15082504
-0.05100615 -0.022847837 0.054780617 0.0509491 -0.14986123 -0.031969633 0.054833777 -0.0158827
-0.080964714 0.020607136 0.15716478 -0.14748 -0.026432151 -0.01004957 0.009434695 0.065209866
-0.056615956 0.036466483 0.04672229 -0.008785785 -0.014803537 0.09822765 0.055162285 -0.064068176
0.024060298 0.059752833 0.0025812073 0.0012764444 -0.102062844 -0.11402144 -0.13838743 -0.09181309
0.119387515 -0.024138143 0.13347998 -0.1231566 0.16945395 0.11340407 -0.029344017 -0.12046159
0.040666964 -0.08007097 0.078922495 -0.06680507 -0.12338196 -0.025018167 -0.029483948 0.06842721
0.0073495875 -0.07160401 -0.1247134 -0.0771667 -0.19499384 0.049836982 0.030549908 0.1294284
0.19698037 0.10599528 0.14028691 -0.1798532 -0.15984231 -0.069908604 0.026261209 0.10209599
0.21313648 0.056960657 -0.05029675 0.16667993 0.16029395 0.19474858 0.13106628 0.009295152
0.11091098 0.14711687 0.05242265 -0.04238657 0.014957028 -0.083863005 0.12495746 -0.08318951
0.13979371 0.19536538 0.1109657 -0.0024119476 -0.032994192 -0.11971236 0.1785618 -0.07098636
0.06905123 0.0021769274 0.17641576 -0.06931082 0.011880609 0.20328966 0.099990234 0.0548831
0.13229124 0.01572305 -0.067141116 0.08337929 0.11420411 0.14673312 0.14026533 0.062754475
