generate_forecasts/output/Local_Forecasts/Other food products and non-alcoholic beverages/2025/models/SimpleFeedForward/W0/gluon_ts/prediction-net-state.pt (torch, 34030 bytes, 7 tensors)

model.nn.0.weight f4 [20, 32]
00000000: abe0 ba3d ac10 3e3d 7c04 d0bb f615 893d
00000010: b036 d23d 086b ce3d 7adf af3d f87c 0f3d
00000020: 136f 263d c379 6e3d 2c51 f53d f9ee 4c3b
00000030: 7623 f13c b023 be3d bb4b 7b3d 4040 d53d
00000040: b8dd da3d 752b 9e3c 480e 7bbb 88a8 e03c
00000050: cdd2 b93d 81da ab3d 2b15 303c 4ba2 bf3d
00000060: 8c91 c53d 5639 cb3d 310a d3bb 662a 3a3d
00000070: fadd 143d 1e3f 423b d3c6 db3d 57db e2bb
00000080: 37e3 c0bc 98d9 3bbd 444e 023d 6f4b 87b9
00000090: 6145 3e3d 79a5 9b3c 5e9c a03c 0ea7 80bd
000000a0: 3e2f aabc b74e 943d e862 57bc 0699 82bd
000000b0: c68c 51bd 22e1 ea3c f884 54bd dbe4 00bd
000000c0: 2bbc f43c c3df 85bd 1de3 9ebd 76bd 453c
000000d0: 2663 983b 8593 d53c e389 9e3d a4ca 66bc
000000e0: 77ea 223d 58f9 4d3d 8989 dc3a d46a a93c
000000f0: 66aa 3e3c 3ec9 d63d 6037 6c3d 9f61 033e
00000100: 297e 49bd 0663 a7ba ec42 b9bd b190 84bc
00000110: ba61 94bc c712 a5bd b3d1 a9bd 7728 58bc
00000120: 239b b3bd 6cad 17bd 6fe6 9ebd e172 ef3b
00000130: c549 c6bd 023b e2bc 4efc 82bd bacc 24bd
00000140: 8364 9a3c c3cd 2abd 2073 033d 6bab 68bd
00000150: 9344 3bba dfe4 553c fa91 803d f332 773d
00000160: 3f2e cfbb 3411 dc3c f206 ae3d 326d db3c
00000170: 68c6 023e 502f d33d d66f f73d 5631 573e
00000180: 3b7d 17bd 6865 96bd 498a d9bc d73e fc3c
00000190: b28d e7bc 94c3 29bd a823 9bbd 2aa4 eebc
000001a0: 721a da3c 61b5 003b c2f0 9cbd 7ed5 32bc
000001b0: 30ef 6dbd 792c 3dbd c04f 19bd 2307 50bd
000001c0: eeb5 c9bd b6b9 febb f293 b0bc f948 86bd
000001d0: 65c9 6dbc 4b45 2abd b73d 803b e9eb cf3d
000001e0: bde6 ca3d d8be 323d e6e9 c63d 5628 843d
000001f0: 3f57 003e 6e5d 003e 7d87 b83d 4562 033e
00000200: e3b6 b1bb cffe b53d e236 c13d 0d46 963c
00000210: 3bee 913c 71dd 293d 7095 cfbb e8c5 19bc
00000220: cd80 983c 91e1 e33c 6f3a 7d3b 9b8d e43d
00000230: adc7 ef3d d53c a23d a4e7 af3c 860e 913b
00000240: 7562 f1bb ae4e d23d 1155 d4bc 6d41 903c
00000250: 2446 c63d e872 07bb 194c 573d 7465 923d
00000260: edda 3cbc 2988 a23c d2c6 ef3d 2035 c53b
00000270: f755 363d acf4 d03d 5e8f 923d 01d6 823c
00000280: b470 6c3d 7e28 bf3d 7822 133d 7345 2b3d
00000290: a6c2 ae3d 2743 d63d 2468 b03c 5be4 cb3b
000002a0: 10b3 9bbb 886e 813d 9772 b73d b5dc e13c
000002b0: 8408 cd3d fecd a83c efdc 8d3d f170 cc3c
000002c0: 186b cb3d e0c4 a33d b21e 5e3d 0a57 9a3d
000002d0: 728a e53b 2323 4d3c 5eb6 3b3d abea 2c3d
000002e0: e079 e03d a94c 093d 3c6f 0d3d 27a3 a83d
000002f0: caf7 8c3c 6b59 3b3d 695e 163d 39ca 8c3d
00000300: cb3b 16bc dda1 20bc 7f9c d73d 7222 cf3d
00000310: 3932 d43c ddba c73d b981 f13b 62a0 013e
00000320: ea45 843d 8789 023e 1fd3 9a3d 2040 323d
00000330: a5ee 023d 4364 a93b 5bad 0f3d bd35 fdbb
00000340: a6cd de3d 6e1b 773d 3fc6 013d 9f51 6d3d
00000350: 3b18 e93d e79e 033d 7da1 b23d e54b fa3d
00000360: 885f ef3d f38a ae3d bd22 e63c 883d 223d
00000370: e126 bb3d eeea 453c dcd4 723d c62a e1bc
00000380: fd38 2c3d 48a8 c83c 043e 603c 6839 563c
00000390: 1b1d 96bc bc0a 903d b6d8 153d fe19 d53d
000003a0: 5bd0 fe3c 5b0c 9a3d 18b4 a33c 414d 363d
000003b0: 5235 9a3c f45e 02bc 3780 82bc c60d a53d
000003c0: 0d11 823d 59bb 593c e7a6 edbb ea7d c43d
000003d0: 9c89 323c 2671 f83d 1b9f ff3d 2d4a b93c
000003e0: eee3 563d 8379 033e 4aab 793d 9807 fe3c
000003f0: cd15 67b9 6dd7 b53d 373c 393d ee44 3ebc
0.09124883 0.04640262 -0.006348191 0.06693642 0.10264337 0.10079008 0.08587547 0.03503129
0.040633272 0.05822159 0.11978373 0.0031270368 0.029435854 0.092841506 0.06135152 0.10412645
0.10686821 0.019307831 -0.0038308073 0.027424112 0.0907341 0.08391286 0.010747234 0.09357127
0.096469015 0.09923045 -0.006440424 0.04545059 0.036344506 0.0029639672 0.10731282 -0.00692312
-0.023545844 -0.04586181 0.03181292 -0.0002580541 0.046452884 0.018999802 0.019605812 -0.06281863
-0.02077448 0.07241576 -0.01314614 -0.06376843 -0.051159643 0.028671805 -0.05188462 -0.031468254
0.029874882 -0.0653682 -0.07758162 0.012069097 0.0046504913 0.02607132 0.077411436 -0.014086399
0.039774384 0.05028662 0.0016825657 0.020680822 0.011637306 0.10487603 0.057669997 0.12830208
-0.04919258 -0.00127706 -0.090459675 -0.016182275 -0.018113006 -0.08060222 -0.0829195 -0.013193241
-0.08769824 -0.037030622 -0.077587955 0.007307396 -0.09682039 -0.027616028 -0.063957796 -0.040234305
0.018846756 -0.041700136 0.032092214 -0.056804102 -0.0007143702 0.013055055 0.06277843 0.060351323
-0.0063226516 0.026863672 0.084974185 0.026785467 0.12770998 0.103117585 0.12081878 0.21014914
-0.036984663 -0.073435605 -0.026555197 0.030791683 -0.028265808 -0.041446283 -0.0757516 -0.029131014
0.026623938 0.001963936 -0.076631084 -0.010915158 -0.058089435 -0.04618499 -0.03742957 -0.050788056
-0.098491535 -0.0077736033 -0.02155492 -0.06556887 -0.014513348 -0.04156999 0.003913607 0.10152418
0.09907291 0.043639034 0.09712581 0.06453006 0.12533282 0.1253564 0.09010217 0.12830456
-0.005423413 0.088864915 0.09434296 0.01834395 0.017813792 0.04147095 -0.006334953 -0.009385563
0.018616104 0.02781752 0.0038639565 0.111598216 0.11708007 0.07921759 0.02147276 0.00442678
-0.0073664733 0.10268913 -0.02591947 0.017609322 0.09681347 -0.0020667855 0.052562807 0.07148257
-0.011526805 0.019840317 0.11707844 0.006018296 0.044515576 0.102029175 0.07156251 0.015971186
0.05772467 0.09333895 0.035921544 0.04181428 0.0853322 0.10462027 0.021534033 0.0062222905
-0.0047515705 0.0631991 0.08957403 0.027571062 0.1001139 0.020606037 0.06926905 0.024956198
0.09932536 0.07996535 0.054228492 0.07536133 0.0070050294 0.012520584 0.045828216 0.042215984
0.10960746 0.033520374 0.03452991 0.08234244 0.017207999 0.045739572 0.03671113 0.068745084
-0.009169529 -0.009804216 0.10527896 0.10113992 0.025902854 0.09752438 0.0073702005 0.12658837
0.064586475 0.12747775 0.075597994 0.043518186 0.03196587 0.005169423 0.035077434 -0.0077273534
0.10879068 0.060328893 0.031683203 0.057939168 0.11381575 0.032133963 0.08722208 0.12221507
0.11688143 0.08522596 0.028092736 0.039609462 0.09138275 0.012079937 0.05928503 -0.027486216
0.042046536 0.024494305 0.013686661 0.01307521 -0.018324425 0.070332974 0.036583625 0.10405348
0.031105211 0.07521888 0.019983336 0.04450727 0.018824253 -0.007957209 -0.015930278 0.08059268
0.063509084 0.013289296 -0.0072525623 0.09594329 0.010897066 0.12130956 0.12481519 0.022618378
0.052463464 0.12839322 0.06095437 0.03100948 -0.00022037998 0.0887898 0.04522344 -0.011613114

model.nn.0.bias f4 [20]
00000000: 7f5a 433d 124f a03c ed19 a03d 28c9 523d
00000010: 3b65 243d 3050 3f3d 297a 4d3d 8be0 5b3d
00000020: ad99 283d c53a 513d 5a75 0cbc 3f70 103d
00000030: 5af6 9d3d 0000 0000 0f8e 443d 4809 a43c
00000040: 2433 693d 1fd8 183d 1d7e 483d d9a5 183d
0.047693726 0.019568954 0.07817445 0.05146137 0.040135603 0.046707332 0.05016533 0.053680938
0.04116218 0.051081438 -0.008572901 0.035263296 0.077130035 0.0 0.04798704 0.020023957
0.056933537 0.037315484 0.048948396 0.03726754

model.nn.2.weight f4 [320, 20]
00000000: 820a f6bd cc4d a4bd fe80 993e 8bf2 3c3e
00000010: 1497 d5bd 1ce3 bcbd 3ba0 66bc e282 d0bd
00000020: 28f0 03be 4fd3 6abd 81a3 3abd 8d10 a5bd
00000030: 4b39 aa3e f879 dcbb 13e5 44bd d65b 04bb
00000040: aec0 1abe a25b 64bd 3acf eebd fab5 7cbd
00000050: 3222 0b3e b1c3 d23c b26f 4dbe 926c 56be
00000060: f569 033e 1243 e43d a1b4 263e 7183 c93c
00000070: c714 113e 2604 4e3d c221 7fbd 9aab 283e
00000080: 7790 84be f9f8 9c3c b621 ce3d 8ffd 9abd
00000090: b8da b73d fbd6 143d 7c0d 2f3e af01 1b3e
000000a0: 6f6d d5bd bbdc 66bd 025b f2bc 00e6 aebd
000000b0: 1bdc 96bd 5530 3fbd 19f4 0cbe acb6 cbbd
000000c0: d04f 4fbd c5ad 53bd 4e57 c6bc 3ec9 b8bd
000000d0: b58a a1bc 1a60 a33b 18d1 82bd 32dd a03c
000000e0: 8b08 6dbd 6811 f7bd 968b 03bd 6c17 82bd
000000f0: 6c86 dbbd 21d3 cdbd ea7a 4a3d a4a6 27bd
00000100: 54c8 babc 1461 04bd 0b95 dcbd 907d 47bc
00000110: e199 17bd bb76 74bd 6b43 583d 4782 fdbd
00000120: 2638 173d 7ec9 5b3b b925 b5bd b3c1 a6bc
00000130: e106 92bd 13b3 3ebd c385 d4bc 2254 bebd
00000140: d4d5 5abc a879 46bd b616 c4bd 650b 30be
00000150: c69d 8c3d 1dda c03d ecfe b63d 34e9 f83c
00000160: 8c3f e13c cb28 a03d ec8c 0dbd e053 453d
00000170: 604d 88be ae5f 8fbc 2241 ac3d ee95 22bd
00000180: 7dfb 173d b34c e6bc b4c5 db3c 576b 353d
00000190: fb04 f93a 9682 b83d 85b9 aa3d 86a3 043d
000001a0: 33eb 093d 08c5 5e3c 197f 693c 563f 383d
000001b0: c3b7 b2bc bd4e 9bbc 529c 9a3d cf29 cf3b
000001c0: 33e8 893d f80a 91bc 313c e8bc c81e 183d
000001d0: e85b bebc 768f 633c 8e09 ba3d d4be a03c
000001e0: cd5d 7abc 679f 333d 6085 273e 3769 3c3e
000001f0: 88cd d0bc f644 0fbd 593d 493d a026 46bc
00000200: 2168 66bd bc31 71bd 826c 4c3c 91a2 2ebd
00000210: 7ac9 3f3e 6c12 a6ba 4665 71bd de49 85bc
00000220: 84b3 243d 3b3b d33c d6f8 803d f95e 10bd
00000230: 8e30 2cbd 30ab 9fbd ce9a 7fbd b2b3 28be
00000240: e6bc d93c 8b42 793c 7158 8e3d 75f1 9e3d
00000250: 3c05 553d ade8 bbbc 28aa 0fbd 615f 07bc
00000260: 24c5 45be 4fef d73b 08fd 6b3d 396d c4bd
00000270: 9284 423d 0b89 8c3c 08fd 6bbd 0be6 6abd
00000280: 9b78 d03d fd34 003d 2e70 13be 6b68 26be
00000290: 7b32 b83d bef6 c43c bf62 ae3d f219 aa3d
000002a0: 30af af3d c050 d43c aae8 13bd ab8c 273d
000002b0: b3ba 80be 787c b8bc eee1 1d3e bc8a b9bd
000002c0: 029c d23c a5a1 af3d d796 003d 9e20 8b3c
000002d0: 8226 fb3d 68b0 ed3d 8998 aa3d 8ce7 183d
000002e0: 1ded a33d 8830 1d3c 8f83 033b c1db c33d
000002f0: 20d5 e83c 5f11 a03d 0441 153d 8288 493d
00000300: c339 ce3d cb07 88bb 0232 033c f92f 5c3d
00000310: fd23 c43d 9b84 023e 495a 883d 472e 833d
00000320: 7e86 e13c 5bb9 0dbd 7606 d9bd c01f bbbd
00000330: 097e b83c f47c 2a3d 2c74 1f3d 7d37 283d
00000340: 9a21 a13d a4d5 1cbd 513b 2c3d 92c9 673a
00000350: 743c 08be fcb6 b6bc 7370 ad3c 77c7 00bd
00000360: eefa 603d 51ca 863d b525 59bc 5697 9d3d
00000370: 73ce 003d a06f 423c f07b 35be b126 18be
00000380: c863 8c3d 6fb2 f63c a3a4 61bc 9ba1 c63d
00000390: 1ca6 b43d 469a 213c 5fd3 9abd 6c3a 04ba
000003a0: 1ce2 4abe 6db9 3ebc b6c8 463d 6876 59bd
000003b0: 52e6 f43d 0d09 9abc 6849 03bb 8a31 8b3d
000003c0: f801 503c 3c02 cebd 3fd1 b1bd cfda ebbd
000003d0: a9f1 c9bd e0ea a5bd 7c11 c5bd 820f eebd
000003e0: 87dd 9cbd 90cc e0bd 815c 633d a168 c5bd
000003f0: 454a 1ebe c3bc 5e3c e9ae a9bd b15d ccbd
-0.12013723 -0.08022651 0.29981226 0.18451898 -0.104292065 -0.09223005 -0.014076288 -0.10181214
-0.12884581 -0.057330426 -0.045566086 -0.080597974 0.33246836 -0.006728407 -0.048070025 -0.002019634
-0.15112564 -0.05575145 -0.11660619 -0.061696984 0.13587263 0.025728079 -0.2006214 -0.20939854
0.12833388 0.11145605 0.16279842 0.024598809 0.14168082 0.050296925 -0.062288053 0.16471711
-0.25891468 0.019161688 0.100650236 -0.07567894 0.08977264 0.036337834 0.17094988 0.15137361
-0.104212634 -0.05636285 -0.029584412 -0.08539963 -0.073662005 -0.046676952 -0.13764991 -0.09946951
-0.050613225 -0.05167939 -0.024211552 -0.09022759 -0.019719461 0.0049858214 -0.06387538 0.019636724
-0.057869475 -0.12063867 -0.03211554 -0.063521236 -0.10718998 -0.10050035 0.049433626 -0.040930405
-0.022800602 -0.032319143 -0.10770615 -0.0121759325 -0.037011985 -0.059683543 0.05279867 -0.12378364
0.03691878 0.0033536847 -0.08845086 -0.020356035 -0.07130218 -0.046557497 -0.025942689 -0.09293391
-0.013356645 -0.048455864 -0.09574644 -0.17191847 0.068660304 0.09416602 0.08935341 0.030384637
0.027496122 0.07820281 -0.03455822 0.048175693 -0.26621532 -0.017501678 0.084108606 -0.039693765
0.037105072 -0.028112745 0.02682767 0.04429182 0.0018998677 0.09009282 0.08336166 0.03238251
0.03367157 0.013596781 0.014251494 0.044982277 -0.02181614 -0.018958444 0.07549347 0.0063221226
0.067337416 -0.017705426 -0.028349014 0.03713873 -0.023237184 0.013889184 0.09083854 0.019622244
-0.015281153 0.04385319 0.16359472 0.18399511 -0.02548863 -0.034977876 0.04913077 -0.01209417
-0.05625165 -0.05888532 0.012477042 -0.042635504 0.18729201 -0.0012670285 -0.058934473 -0.016270574
0.040210262 0.02578508 0.06297462 -0.035246823 -0.042038493 -0.07796323 -0.062403493 -0.16474798
0.026579332 0.015213619 0.069504626 0.07760898 0.052006945 -0.022938097 -0.035074383 -0.008262486
-0.19313484 0.006589807 0.057614356 -0.09591145 0.04748971 0.01715519 -0.057614356 -0.057348292
0.10179254 0.031300534 -0.14398262 -0.1625077 0.089940034 0.024043437 0.08514928 0.0830573
0.08578336 0.02591741 -0.036110558 0.040905636 -0.2514244 -0.022520289 0.15418217 -0.090596646
0.025709156 0.08575753 0.031393852 0.016983327 0.12263204 0.116059124 0.08329875 0.037330195
0.0800421 0.00959409 0.0020067429 0.09563399 0.028421938 0.07815813 0.036438957 0.04920245
0.10069611 -0.0041513196 0.008007528 0.053756688 0.09577177 0.12745897 0.066578455 0.06405311
0.027529951 -0.034600597 -0.105969355 -0.09136915 0.022521036 0.04162307 0.03892915 0.041068543
0.07867737 -0.03828968 0.042048756 0.0008841987 -0.13304311 -0.02230405 0.021171784 -0.031440224
0.054926805 0.065815575 -0.013253619 0.07694881 0.031446885 0.011867434 -0.1772306 -0.1485851
0.06854969 0.03011438 -0.013772163 0.096987925 0.08820745 0.009863442 -0.07559847 -0.0005044106
-0.19812816 -0.011640889 0.048531257 -0.053091437 0.119579926 -0.018803144 -0.0020032767 0.06796558
0.012695782 -0.1005902 -0.08682489 -0.11516344 -0.09860546 -0.081014395 -0.096224755 -0.11624052
-0.076594405 -0.10976517 0.05550814 -0.09639097 -0.15458019 0.013594809 -0.082853146 -0.09978808

model.nn.2.bias f4 [320]
00000000: c2c3 5fbd ef5e d03d a41a 76bd a620 62bd
00000010: 43f7 363c d4bf cb3c f25d 2e3c d96a 90bc
00000020: 8453 443d f350 463d 0133 00bc a0bb 963b
00000030: 39e1 4cbd 14d7 7e3d fbb7 043a 85e0 7f3c
00000040: 64bd a0bd efcc 37bc c17a 9abd f7d8 2fbc
00000050: d2f9 6bbd 108b e13d f3bf 7cbd 2623 67bd
00000060: 2b03 393c 5a9f ce3c 5ff6 353c bc60 90bc
00000070: 7eb6 4b3d 6a56 493d 5eef f3bb f831 903b
00000080: cbaa 50bd 1547 893d 5ccc 4f39 4b00 7d3c
00000090: a927 a7bd 03ff 36bc 29f5 a0bd 0762 2ebc
000000a0: 87d1 72bd 1ec0 d53d cb10 6bbd 4fea 56bd
000000b0: 4906 7a3c a284 af3c ed2c df3b 7cae 61bc
000000c0: 354b 6e3d 4033 3b3d 1ea1 72bb 0a6b 0e3c
000000d0: c6d8 41bd e030 893d 6685 8d3b 5f07 403c
000000e0: 1d76 9bbd 774a 7abc 329e 94bd 981c e4bb
000000f0: 71ed 56bd 3cc8 c93d b68c 70bd c744 5dbd
00000100: 4917 243c bd48 c73c 9652 2b3c d77e 8bbc
00000110: 795e 3c3d 075b 423d 01c9 02bc 00f2 823b
00000120: 0eae 48bd b528 723d 8e3f 27b8 7ee7 783c
00000130: b218 9dbd 1ba8 25bc 9398 96bd 41b1 35bc
00000140: f1e7 56bd 5f12 bf3d b5b7 75bd e4fc 61bd
00000150: eaf3 1e3c dbc8 cc3c 7ff4 363c ab60 95bc
00000160: 42d4 3a3d 35ce 473d 3fcd 13bc 3945 7d3b
00000170: fc7e 4ebd b2bc 693d d32a edb8 ba37 843c
00000180: 5a13 a0bd 26b6 20bc 3f85 98bd 5004 44bc
00000190: ae98 76bd 612f c43d 3b31 5ebd e505 4abd
000001a0: 22fe 973c 7044 8e3c 4c53 193b 30af 23bc
000001b0: cd24 873d bdb1 303d 952c 3dba 469b 4e3c
000001c0: 18eb 36bd beca 823d 7c83 0d3c 10ac 073c
000001d0: 0c6a 94bd 1e2a 9abc 7568 8bbd cd45 5bbb
000001e0: cbaa 44bd 2e56 a63d 2098 60bd 10e3 4dbd
000001f0: 0272 113c 31c9 b13c 7cc1 133c b394 82bc
00000200: eb1e 293d b9de 363d 14ad 04bc 4811 883b
00000210: b0b6 3cbd d8d4 4b3d 061d 4d3a 019b 6f3c
00000220: d1f7 93bd aaa9 13bc 3761 8bbd 6def 2abc
00000230: 74f4 5abd c06b b73d c689 6dbd 6973 59bd
00000240: 73a7 263c a416 bd3c cabb 1a3c 9177 8dbc
00000250: 1077 3a3d 4104 423d 5f45 09bc 535b a73b
00000260: 79f0 48bd 84ed 643d d9a8 b53a 140b 7e3c
00000270: 89fe 9bbd 21b9 2abc 4954 92bd 617b 36bc
00000280: 9fed 50bd 9851 b23d 0645 77bd fa02 62bd
00000290: f2ee 143c 9fd4 c43c 3ece 283c c383 90bc
000002a0: e02b 333d a774 473d 24f6 11bc c8d6 7f3b
000002b0: 62bc 4ebd a257 5b3d 5da3 a539 6479 833c
000002c0: a777 a3bd df31 17bc 7d85 9abd 19e2 3ebc
000002d0: 59c8 5bbd 2518 b93d 5e0f 78bd 6747 63bd
000002e0: 4244 273c c7fa c53c e9ef 213c a2b3 8fbc
000002f0: 8a7a 3b3d 345d 493d 2073 0abc 72a9 a03b
00000300: 779a 50bd aeed 663d 5c6f 8c3a b5a1 803c
00000310: 29cf a2bd 3acb 2abc 93a0 99bd c4c6 38bc
00000320: a8f2 50bd 6630 b23d 380e 5fbd b92e 4bbd
00000330: a62b 303c e951 a53c efcd e23b 09db 67bc
00000340: e95d 383d 8d5b 333d f722 c0bb 7d6b c23b
00000350: b484 39bd 6279 5c3d aa96 273b 01a7 4d3c
00000360: 3bac 94bd d44f 35bc a5df 8bbd 5645 09bc
00000370: 6f8c 42bd 40ef a33d 3536 5fbd daef 4bbd
00000380: e494 003c 4bfa ae3c 28f1 133c 5252 85bc
00000390: 167e 213d eb63 353d 3f0b 0bbc 446b 6a3b
000003a0: 2463 3bbd 0676 473d eea8 cb39 0869 703c
000003b0: 8723 94bd 3e3f 04bc 7de5 8abd ce6d 31bc
000003c0: 0b41 4fbd cb98 a83d 03d5 5bbd 5ff4 47bd
000003d0: 8873 453c 0455 9a3c bf30 b53b 0cd0 52bc
000003e0: ad18 4a3d 27b9 2f3d 686e 94bb ef2b f33b
000003f0: 83d2 35bd 6843 543d c062 843b 42b8 353c
-0.05463005 0.10174357 -0.060084 -0.055206917 0.01116735 0.024871744 0.0106425155 -0.017629074
0.04793121 0.048417043 -0.00782466 0.0046000034 -0.050019477 0.062216833 0.00050628156 0.0156174945
-0.078486234 -0.011218294 -0.07542945 -0.010732881 -0.057611294 0.11012852 -0.061706495 -0.056430005
0.011292259 0.02522247 0.011106103 -0.017624252 0.049734585 0.049154676 -0.0074443063 0.004400488
-0.05094413 0.06703011 0.00019817188 0.015441964 -0.081618614 -0.011169198 -0.078592606 -0.010643489
-0.059281852 0.10437034 -0.057389062 -0.052469548 0.015260288 0.021425549 0.0068107755 -0.0137745105
0.05817719 0.045703173 -0.0037022303 0.008692512 -0.047325872 0.06698775 0.004318881 0.011720507
-0.07590888 -0.015276543 -0.07256736 -0.0069614165 -0.052472536 0.09852645 -0.058727942 -0.05402067
0.010015317 0.024326677 0.010456702 -0.017028255 0.045988534 0.04745009 -0.007982493 0.003996134
-0.048994116 0.059120853 -3.9875093e-05 0.015191911 -0.07670726 -0.01011088 -0.0735332 -0.011089624
-0.05246729 0.09329676 -0.05998965 -0.055172816 0.009701708 0.02499812 0.011166691 -0.018234571
0.04561258 0.04878064 -0.009021102 0.0038645996 -0.05041407 0.05706472 -0.00011309017 0.016139854
-0.07816191 -0.009809053 -0.0744729 -0.011963919 -0.0602042 0.09579349 -0.05424617 -0.049322028
0.018553797 0.017366618 0.0023395596 -0.009990498 0.06598816 0.043138254 -0.0007216421 0.012610262
-0.044657797 0.06386326 0.008637305 0.008280769 -0.07246789 -0.018818911 -0.06807033 -0.0033458353
-0.048014443 0.08121906 -0.054832578 -0.05026537 0.008877279 0.02170238 0.009018298 -0.015940046
0.04128925 0.044646 -0.008097906 0.0041524507 -0.046072662 0.04976353 0.0007824454 0.014624358
-0.072250016 -0.009012619 -0.06805652 -0.01043306 -0.053455785 0.089560986 -0.05799272 -0.05308858
0.010171759 0.023082085 0.009444186 -0.017268928 0.045523703 0.047367338 -0.008378356 0.0051073222
-0.049057458 0.055890575 0.0013859525 0.015505571 -0.07616908 -0.010420115 -0.07144982 -0.011137814
-0.051007863 0.08706969 -0.06036856 -0.05517862 0.009090172 0.024027167 0.010303078 -0.017640954
0.043743014 0.048695233 -0.008908782 0.0039037932 -0.050472625 0.05355037 0.00031592968 0.016049094
-0.07981806 -0.009228199 -0.07544992 -0.011650586 -0.053657863 0.09037808 -0.06056153 -0.055488016
0.010209145 0.024167432 0.009883859 -0.01754171 0.04577116 0.04916115 -0.0084502995 0.004903012
-0.05092856 0.056379013 0.001071434 0.015702108 -0.07949669 -0.01042443 -0.0750133 -0.011277858
-0.051012665 0.087006375 -0.05445692 -0.049605105 0.010752594 0.02018066 0.006921522 -0.014151343
0.045011435 0.04378848 -0.005863543 0.0059332238 -0.04529257 0.053826697 0.002557198 0.012552024
-0.07259413 -0.011066396 -0.06829766 -0.008378347 -0.04749721 0.08004618 -0.054495055 -0.049789287
0.007847998 0.021359583 0.009029664 -0.016274605 0.039426886 0.044284742 -0.008486568 0.0035769502
-0.045748845 0.04869654 0.0003884504 0.014673479 -0.07233339 -0.008071719 -0.06782053 -0.010829402
-0.05059914 0.08232268 -0.05366994 -0.048817035 0.012051471 0.018839367 0.0055294926 -0.012866985
0.04933994 0.042901184 -0.004529763 0.007421009 -0.044390213 0.051822096 0.004040092 0.011091294

model.args_proj.proj.0.weight f4 [1, 20]
00000000: 427a 353d 7a58 863e e7e9 2cbd acef 19be
00000010: fc90 af3e 832e 173e 4853 57bd eecd 723e
00000020: ebcc ad3e a85c 2ebe 6a66 b53e f595 0c3e
00000030: 0b5b 2c3e e357 3d3e c562 4d3d 6bb6 90be
00000040: 77b3 b83d f80b 9fbe 6c36 91be b16f a93e
0.044306047 0.26239377 -0.042215254 -0.15032834 0.34290302 0.14763837 -0.052569658 0.23711368
0.33945403 -0.17027533 0.35429698 0.13729079 0.16831605 0.18490557 0.050143022 -0.28264174
0.09018605 -0.3106382 -0.28361833 0.33093026

model.args_proj.proj.1.weight f4 [1, 20]
00000000: f7ed fa3c 9e65 753c 0ae5 3dbe 7444 7bbe
00000010: 6e10 dbbd f8ae 413e 99ec ef3d 5ac1 c3bd
00000020: b0ab 0dbd d05c 793e f462 d8bd ecab 25be
00000030: 334b 3dbe 30c1 b8bc da1f 39be d737 e93d
00000040: 1e14 d8bd 4fe6 cd3d a503 0fbe 7215 e5bd
0.030631049 0.014977841 -0.18544403 -0.24537832 -0.10696493 0.18914402 0.11715049 -0.09558363
-0.034587562 0.24351811 -0.10565749 -0.16178864 -0.18485717 -0.022553056 -0.18078557 0.11387604
-0.10550712 0.100536935 -0.13966234 -0.11185731

model.args_proj.proj.2.weight f4 [1, 20]
00000000: ca63 743e b563 68be 30c9 353e 2a4d 3f3e
00000010: 3e68 71be 2f16 ba3b feb8 bf3d 2512 84bd
00000020: cd0b 14be cfc5 09be 1b40 07be f894 84be
00000030: c9bf f93d f76a 78be ef9b 77be a2a6 a13d
00000040: 5e1f 293e 0fe6 663e becd 543e 33b0 d4bd
0.23866192 -0.22694285 0.17752528 0.1868178 -0.23574921 0.005678914 0.09361456 -0.06448773
-0.14457627 -0.13454364 -0.13208048 -0.25894904 0.12194783 -0.24259554 -0.24180578 0.07893111
0.16515872 0.22548698 0.2078161 -0.1038517
