generate_forecasts/output/Local_Forecasts/Fruit, fruit preparations and nuts/2025/models/DeepAR/W0/gluon_ts/prediction-net-state.pt (torch, 97628 bytes, 11 tensors)

model.param_proj.proj.0.weight f4 [1, 40]
-0.04873396 0.27646247 0.24963336 -0.14210308 -0.060255345 -0.22176465 -0.15715595 0.23276533
-0.102467224 -0.037350737 0.13763599 -0.13867944 -0.14237031 0.08107654 0.06523327 0.25171724
0.17134593 0.070310116 0.16625078 -0.18650827 -0.049633533 0.0024905961 -0.16871929 0.24683765
0.28524825 -0.19358854 -0.06680014 0.18125477 -0.24535482 -0.21711673 0.28254792 0.2165929
0.3030684 0.10397012 0.079809815 -0.21507771 -0.10253067 -0.17831098 0.10518912 0.1900935
00000000: 439d 47bd 7d8c 8d3e e39f 7f3e 7883 11be
00000010: 4fce 76bd 4616 63be 7ded 20be 095a 6e3e
00000020: 56da d1bd 16fd 18bd 73f0 0c3e fc01 0ebe
00000030: 86c9 11be 750b a63d 0599 853d 15e1 803e
00000040: 4f75 2f3e c0fe 8f3d a53d 2a3e 06fc 3ebe
00000050: 884c 4bbd 4539 233b c0c4 2cbe 02c3 7c3e
00000060: 0f0c 923e 133c 46be 83ce 88bd da9a 393e
00000070: 4b3e 7bbe d953 5ebe 1faa 903e 87ca 5d3e
00000080: c82b 9b3e 49ee d43d 5473 a33d 553d 5cbe
00000090: 9afb d1bd 2797 36be 656d d73d dfa7 423e

model.param_proj.proj.1.weight f4 [1, 40]
-0.1600065 0.1414478 0.14444637 -0.13281953 -0.046717286 -0.1622132 0.04310639 0.051792122
-0.13860968 0.040925156 0.17902227 0.022679284 0.06607081 0.10906733 -0.122240975 0.119281285
0.18101819 0.02216866 -0.089750566 -0.156913 0.10309673 0.10312525 0.020189939 0.050702512
0.123692736 0.05296488 -0.0731917 0.000818053 -0.09094606 -0.025576374 0.056545753 0.11706919
0.024845015 -0.03168145 0.007135968 0.001177259 -0.12623551 -0.0003058125 0.07344412 -0.026463471
00000000: bed8 23be b1d7 103e c0e9 133e d801 08be
00000010: a05a 3fbd 381b 26be 5390 303d fa23 543d
00000020: b2ef 0dbe 23a1 273d 9d51 373e e8c9 b93c
00000030: 2250 873d b15e df3d 7a59 fabd bf49 f43d
00000040: d55c 393e 0d9b b53c 25cf b7bd cdad 20be
00000050: 6124 d33d 5533 d33d 5f65 a53c 70ad 4f3d
00000060: 9e52 fd3d b4f1 583d 88e5 95bd 9c72 563a
00000070: ee41 babd 8b85 d1bc 859c 673d f9c1 ef3d
00000080: c687 cb3c 68c4 01bd d7d4 e93b 424e 9a3a
00000090: e243 01be 7555 a0b9 df69 963d ecc9 d8bc

model.param_proj.proj.2.weight f4 [1, 40]
0.21574564 -0.15663621 -0.019981813 0.1058834 0.09173431 0.2617316 0.12040678 -0.18887189
0.06206405 0.082221314 -0.057970867 0.13124618 0.18975204 -0.11717743 -0.00033320513 -0.060116444
-0.079250105 -0.17160968 -0.16358952 -0.16210514 0.09593363 -0.06414239 0.19785139 -0.19470996
-0.27628034 0.19935745 -0.2118672 -0.18308504 0.13346775 0.24111252 -0.22153449 -0.1790709
-0.13695312 -0.19545913 -0.061797332 0.15390325 0.30833673 0.15117289 -0.26086286 -0.22484167
00000000: 6dec 5c3e 3e65 20be e6b0 a3bc 65d9 d83d
00000010: 33df bb3d af01 863e d497 f63d a267 41be
00000020: e036 7e3d a663 a83d dc72 6dbd 6665 063e
00000030: 5c4e 423e b8fa efbd 09b2 aeb9 a93c 76bd
00000040: e14d a2bd 73ba 2fbe 0384 27be e4fe 25be
00000050: da78 c43d 165d 83bd 8e99 4a3e 0c62 47be
00000060: 9e74 8dbe 5c24 4c3e b7f3 58be a57a 3bbe
00000070: c5ab 083e 33e6 763e f0d9 62be 5d5e 37be
00000080: 703d 0cbe 7026 48be 331f 7dbd d098 1d3e
00000090: 50de 9d3e 11cd 1a3e d18f 85be e53c 66be

model.rnn.weight_ih_l0 f4 [160, 21]
0.31394544 0.16864872 0.28563297 0.24006864 0.08915143 0.08474201 0.32005635 0.15537924
0.13534366 0.25472835 0.20316032 0.26381928 0.17457882 0.27042812 0.090767264 0.26323727
0.18423781 0.001583536 0.20210215 -0.4459627 0.15635233 0.13794072 0.22448994 0.29300627
0.15084232 0.0049272925 -0.041207686 0.094512716 0.18165934 0.23411076 -0.03545593 0.08686935
-0.123657316 -0.08583909 -0.111473076 -0.20252205 -0.10041087 0.055250034 -0.00055033714 0.082802385
-0.24100114 0.05149764 0.25329024 0.1634605 0.07799327 0.27764356 0.24035534 0.28296527
0.12302211 0.08076851 0.25795254 0.23708095 0.080172785 0.24261472 -0.0017228881 -0.0028652607
0.17197062 0.24531548 0.24377096 -0.00086399383 0.14389442 0.35664153 0.26155964 0.18034734
0.032544848 0.29173478 0.028320786 0.21753241 -0.020623913 0.08462154 0.21464573 0.18831901
0.033857834 0.0012104072 0.116182975 0.038226306 0.1804855 -0.05762336 -0.0777402 0.1194509
0.0022587485 0.18840946 0.12218486 -0.03262379 0.22868252 0.29329646 0.1955326 0.25528443
0.24481075 0.24377693 0.28178158 0.24448405 -0.05244046 0.2014717 0.13154285 -0.05697269
0.1218099 0.09211673 0.080733985 0.18583022 0.22900467 0.000422225 0.081770405 0.50966865
0.05935155 0.15989238 0.025068179 0.15066077 -0.041952956 0.07475855 0.06933506 0.05384069
-0.1271105 -0.09555164 0.09263349 -0.12814508 -0.029625148 0.14811358 0.05132754 -0.115202405
0.04531931 0.123334 0.0004887914 -0.05939154 -0.0070843496 0.05759114 -0.014336989 0.054642335
0.21714759 0.21816769 0.22857526 0.045782063 0.08324148 0.2249987 0.05143543 0.21223201
0.19066887 0.0052417633 0.071059056 0.06497097 0.28912187 0.09910654 0.38067895 0.00036490263
0.11448168 0.026539959 0.098605506 0.26505625 0.14767858 0.11844056 0.08378608 0.12174677
0.059061166 0.102687575 0.028750315 0.22414164 0.20165749 0.17081161 0.08509802 0.075148344
0.24732451 0.2949771 0.14983967 0.14086409 0.0011654218 0.22802117 0.36291775 0.04404457
0.124427356 0.29192588 0.155194 0.25351676 0.14281279 0.16370964 0.13934696 0.08085645
0.2954916 0.15407392 0.17470105 -0.022873728 0.0322234 0.06739716 0.22549766 0.008754077
0.41248012 0.0017651676 0.09826243 0.4394853 0.17162845 -0.09587223 -0.21872309 0.07111257
-0.12256973 0.19635719 -0.087013 -0.12579113 -0.1119023 0.13598222 -0.09512492 0.13960303
-0.082175605 -0.15797472 -0.06488015 7.523013e-05 -0.16706908 0.061676014 0.0017615969 0.123324364
0.36497766 0.10334923 0.2934387 0.24363819 0.25638774 0.24828638 0.1362323 0.03295144
0.17922068 0.08908846 0.06326489 -0.0309479 0.04988179 0.027328689 0.13579452 0.20422986
0.25606197 0.26236466 0.020479543 -0.0018744051 0.12762512 0.048808694 -0.0016178288 -0.03199272
0.17154816 0.1564174 0.1662532 0.21356416 0.005000262 0.123400204 0.01879615 -0.034151223
-0.061382767 0.14263031 -0.012454843 0.1314249 0.12591149 0.10102466 -0.009861893 0.060080826
0.0005757015 0.16420515 0.18714489 -0.041855816 0.066544645 0.06460497 0.14143018 0.2291542
00000000: 75bd a03e 40b2 2c3e 7c3e 923e 8ed4 753e
00000010: 0695 b63d 388d ad3d 6dde a33e bc1b 1f3e
00000020: 8797 0a3e c16b 823e 4209 503e 5213 873e
00000030: cac4 323e 8e75 8a3e 30e4 b93d 09c7 863e
00000040: d6a8 3c3e a78e cf3a def3 4e3e 3955 e4be
00000050: d31a 203e 5540 0d3e b1e0 653e eb04 963e
00000060: 6976 1a3e 2075 a13b 64c9 28bd e28f c13d
00000070: e804 3a3e bbba 6f3e 3d3a 11bd 8fe8 b13d
00000080: 0c40 fdbd 68cc afbd ff4b e4bd f161 4fbe
00000090: 37a4 cdbd dc4d 623d 8044 10ba 4c94 a93d
000000a0: 01c9 76be 30ef 523d 42af 813e 3062 273e
000000b0: efba 9f3d 4c27 8e3e b61f 763e d3e0 903e
000000c0: 04f3 fb3d f669 a53d 5b12 843e 59c5 723e
000000d0: a131 a43d fe6f 783e 88d2 e1ba 19c7 3bbb
000000e0: 1119 303e fb33 7b3e 189f 793e a57d 62ba
000000f0: 0f59 133e b899 b63e 25eb 853e f9ac 383e
00000100: bf4d 053d 435e 953e fe00 e83c d1c0 5e3e
00000110: 7bf3 a8bc 0f4e ad3d 17cc 5b3e b3d6 403e
00000120: 83ae 0a3d 87a6 9e3a 57f1 ed3d 3093 1c3d
00000130: 31d1 383e 7906 6cbd 4136 9fbd aca2 f43d
00000140: 8307 143b 69ee 403e 0e3c fa3d 86a0 05bd
00000150: c02b 6a3e f42a 963e b339 483e a4b4 823e
00000160: abaf 7a3e a9a0 793e ad45 903e 075a 7a3e
00000170: cfcb 56bd 994e 4e3e 2bb3 063e 325c 69bd
00000180: 7877 f93d b2a7 bc3d dc57 a53d 474a 3e3e
00000190: 3380 6a3e 155e dd39 3e77 a73d a579 023f
000001a0: 9c1a 733d d4ba 233e c85b cd3c d146 1a3e
000001b0: ddd6 2bbd 031b 993d 8aff 8d3d 0e88 5c3d
000001c0: 4129 02be 94b0 c3bd a1b6 bd3d 7738 03be
000001d0: 70b0 f2bc 16ab 173e d43c 523d 3def ebbd
000001e0: bea0 393d 8996 fc3d 3c22 003a 8b44 73bd
000001f0: d523 e8bb b0e4 6b3d b1e5 6abc a4d0 5f3d
00000200: f05b 5e3e 5a67 5f3e a20f 6a3e f985 3b3d
00000210: 827a aa3d 0f66 663e f5ad 523d 5953 593e
00000220: b33e 433e 19c3 ab3b 6987 913d 800f 853d
00000230: c807 943e 5ff8 ca3d 5ae8 c23e 6750 bf39
00000240: 5f75 ea3d 546a d93c aff1 c93d 74b5 873e
00000250: 0e39 173e f790 f23d 0998 ab3d 5f56 f93d
00000260: 1fea 713d dd4d d23d c885 eb3c 6385 653e
00000270: 4d7f 4e3e 3de9 2e3e df47 ae3d 60e7 993d
00000280: a342 7d3e 3d07 973e 926f 193e ad3e 103e
00000290: 11c1 983a 627e 693e 5bd0 b93e 1468 343d
000002a0: c5d3 fe3d 4f77 953e 2deb 1e3e f3cc 813e
000002b0: 843d 123e 80a3 273e f8b0 0e3e 1198 a53d
000002c0: ad4a 973e 8ec5 1d3e d5e4 323e af61 bbbc
000002d0: affc 033d 8607 8a3d dce8 663e 436d 0f3c
000002e0: 9830 d33e 325d e73a d03d c93d 3804 e13e
000002f0: 5ebf 2f3e a958 c4bd f2f8 5fbe 78a3 913d
00000300: d705 fbbd dc11 493e df33 b2bd 64cf 00be
00000310: 082d e5bd ec3e 0b3e dbd0 c2bd 19f4 0e3e
00000320: af4b a8bd 20c4 21be e2df 84bd dec4 9d38
00000330: 2814 2bbe fd9f 7c3d 62e5 e63a 7c91 fc3d
00000340: 5ade ba3e c3a8 d33d 993d 963e 4a7c 793e
00000350: 4145 833e c93e 7e3e 7b80 0b3e 17f8 063d
00000360: a085 373e 0374 b63d 0691 813d 7386 fdbc
00000370: d950 4c3d 6ae0 df3c b80d 0b3e a221 513e
00000380: 8e1a 833e a954 863e b7c4 a73c 99ae f5ba
00000390: 29b0 023e a0eb 473d 540d d4ba cc0a 03bd
000003a0: 52aa 2f3e e22b 203e 473e 2a3e 90b0 5a3e
000003b0: 3dd9 a33b 3fb9 fc3d 62fa 993c 27e2 0bbd
000003c0: 7f6c 7bbd ae0d 123e 660f 4cbc 4094 063e
000003d0: f1ee 003e 04e6 ce3d c793 21bc 5017 763d
000003e0: acea 163a 6525 283e e9a2 3f3e 0171 2bbd
000003f0: 8f48 883d 9c4f 843d 13d3 103e 66a7 6a3e

model.rnn.weight_hh_l0 f4 [160, 40]
-0.12294474 -0.16455756 0.10221203 0.12191925 -0.22662449 0.19503811 -0.021187015 -0.18262431
-0.18914063 0.071336634 -0.052478142 -0.17322244 -0.2028141 0.03816958 -0.07717801 -0.2865619
0.08215183 -0.043257598 0.08100206 -0.10222977 -0.089261435 0.111071065 0.032111775 0.024174528
-0.1423277 0.05206913 0.19890295 -0.07926842 0.126045 0.022979528 0.013529239 0.0338506
-0.060021706 0.16405387 -0.061869532 -0.13768229 -0.10157183 -0.23453034 0.05083067 0.020768262
-0.0069361646 -0.03632176 0.10217339 0.07023186 0.16234906 -0.1440074 0.08301075 -0.025938703
0.04618847 0.042153332 0.0010752309 0.040455338 -0.11923952 -0.054407492 0.02405075 0.0012758034
-0.15271704 0.3603208 -0.09318075 0.13434935 0.07709016 0.09254273 0.10171614 0.023536379
-0.05270607 -0.11087448 -0.07657205 0.38369924 0.12806223 0.07947784 0.12522472 0.045419857
0.12016991 0.17635092 -0.012293759 0.08240274 -0.05873762 -0.53628105 0.11675554 -0.040282927
-0.04493268 0.041956004 0.07676263 0.14356914 -0.12204003 -0.07516986 -0.019973075 -0.100632526
-0.165516 0.17844175 0.22402349 -0.10687069 -0.19208805 -0.016523108 -0.06691393 -0.041001208
0.19271508 0.06459846 -0.033822645 -0.0753969 0.030672159 0.17258292 0.15849507 -0.0919279
-0.15850388 -0.11317161 0.11313196 0.12574567 0.008770421 -0.081948794 0.00046152674 0.22134544
-0.124137275 0.048722886 -0.2804807 -0.07012778 0.18538272 -0.027468638 -0.07854836 -0.11745299
-0.17666957 0.13252161 0.14712103 -0.08942076 -0.22057469 -9.47326e-05 0.04463208 0.0740187
-0.044051886 0.09076893 0.18566366 0.09794531 0.03383937 0.042041503 0.10704687 -0.19762714
0.048665073 0.059971783 -0.065710895 -0.11285313 -0.13226245 -0.10599963 0.11067743 0.12780227
0.029292902 0.11042543 0.18832934 0.15192924 0.18235563 -0.12117946 0.21657147 0.10603395
-0.24627903 0.017054984 -0.15374331 0.010574027 -0.11214771 -0.16325869 -0.022148695 0.050671298
-0.19892599 -0.19209714 -0.0017634523 0.16617101 -0.047259938 -0.029976448 -0.022177588 -0.11301617
-0.07599847 0.23909223 0.05101293 -0.10030438 0.034159325 -0.20640191 0.09889998 -0.14214747
0.12120336 -0.1617697 -0.12633443 -0.1913042 -0.060957566 0.076681614 -0.051588725 -0.06477614
-0.17832232 -0.02848686 -0.021904657 -0.011696226 0.16150928 -0.14066614 -0.229055 0.22414954
-0.110110395 -0.0464496 -0.07979861 -0.10326486 -0.02108695 -0.15919851 -0.2255557 -0.12914619
-0.026158674 0.06485248 0.04855531 0.03387753 -0.008267781 -0.053965617 -0.089851625 0.046357118
0.13369577 0.040404677 0.03407027 0.059548344 0.13264199 -0.024504993 -0.10916967 -0.00036018557
0.016673975 0.20924681 -0.084191814 0.009436481 0.10965962 0.16987179 -0.077812806 -0.049540427
0.0024786766 -0.17216066 -0.014995813 0.31979817 -0.0714045 0.15202463 -0.10634703 0.073252834
-0.053153355 -0.06576096 0.1307573 -0.14466834 -0.034791235 0.12776192 -0.051942933 -0.12675142
0.07544298 0.04379998 0.07453578 -0.045390762 0.041168105 -0.027138403 -0.023710422 -0.017668294
-0.14457719 -0.084082894 -0.089032225 -0.101498164 0.08476104 -0.18270108 0.03239699 -0.122686796
00000000: 74ca fbbd c781 28be 8a54 d13d cdb0 f93d
00000010: 4010 68be 12b8 473e 6490 adbc de01 3bbe
00000020: 15ae 41be f118 923d 52f3 56bd 3961 31be
00000030: 80ae 4fbe b557 1c3d 810f 9ebd 3eb8 92be
00000040: 383f a83d e12e 31bd 68e4 a53d d75d d1bd
00000050: b3ce b6bd 3a79 e33d a387 033d a909 c63c
00000060: 5abe 11be 7146 553d 37ad 4b3e 7b57 a2bd
00000070: f111 013e 903f bc3c bea9 5d3c eda6 0a3d
00000080: 52d9 75bd bdfd 273e e86a 7dbd 96fc 0cbe
00000090: e404 d0bd b928 70be d233 503d 3422 aa3c
000000a0: c448 e3bb 20c6 14bd 4840 d13d b9d5 8f3d
000000b0: d53e 263e ad76 13be 8a01 aa3d 677d d4bc
000000c0: 1f30 3d3d f9a8 2c3d c3ee 8c3a 7fb4 253d
000000d0: d933 f4bd 64da 5ebd 1406 c53c dc38 a73a
000000e0: db61 1cbe f87b b83e 8dd5 bebd e092 093e
000000f0: 72e1 9d3d 0b87 bd3d 8d50 d03d 5dcf c03c
00000100: 52e2 57bd 2912 e3bd cfd1 9cbd 3a74 c43e
00000110: bf22 033e 47c5 a23d e93a 003e 2c0a 3a3d
00000120: a41b f63d 5695 343e c36b 49bc c5c2 a83d
00000130: dc96 70bd b749 09bf 871d ef3d b6ff 24bd
00000140: 540b 38bd 0fda 2b3d ba35 9d3d ca03 133e
00000150: 20f0 f9bd a8f2 99bd 939e a3bc 6d18 cebd
00000160: 077d 29be 6fb9 363e 6a66 653e 05df dabd
00000170: bbb2 44be 785b 87bc 2c0a 89bd e2f0 27bd
00000180: 1a57 453e 334c 843d 9d89 0abd b169 9abd
00000190: 2e44 fb3c 94b9 303e 884c 223e b244 bcbd
000001a0: d74e 22be 84c6 e7bd bbb1 e73d 79c3 003e
000001b0: d0b1 0f3c c5d4 a7bd 12f9 f139 61a8 623e
000001c0: af3b febd a691 473d 2b9b 8fbe 279f 8fbd
000001d0: f8d4 3d3e e905 e1bc f6dd a0bd 318b f0bd
000001e0: dee8 34be bfb3 073e e5a6 163e 3b22 b7bd
000001f0: 55de 61be 2dab c6b8 21d0 363d 1e97 973d
00000200: c06f 34bd 10e5 b93d 9d1e 3e3e 8d97 c83d
00000210: 279b 0a3d b633 2c3d 643b db3d c55e 4abe
00000220: 0755 473d f9a4 753d 6f93 86bd 8b1f e7bd
00000230: cf6f 07be 5616 d9bd d9aa e23d 99de 023e
00000240: abf7 ef3c ba26 e23d 68d9 403e 5793 1b3e
00000250: 6fbb 3a3e f02c f8bd e9c4 5d3e 5428 d93d
00000260: 9230 7cbe e5b6 8b3c e36e 1dbe af3e 2d3c
00000270: b3ad e5bd 492d 27be 2e71 b5bc b58c 4f3d
00000280: 41b3 4bbe 1db5 44be a423 e7ba bc28 2a3e
00000290: a393 41bd 2b91 f5bc c6ad b5bc 0675 e7bd
000002a0: 16a5 9bbd 98d4 743e eff2 503d 626c cdbd
000002b0: a6ea 0b3d 065b 53be 138c ca3d 1b8f 11be
000002c0: 7839 f83d f5a6 25be d05d 01be 40e5 43be
000002d0: a4ae 79bd 400b 9d3d b34e 53bd 5aa9 84bd
000002e0: 209a 36be 475d e9bc 6571 b3bc 87a1 3fbc
000002f0: b062 253e c90a 10be 658d 6abe 7587 653e
00000300: 8f81 e1bd f041 3ebd 746d a3bd 877c d3bd
00000310: 8abe acbc ef04 23be 13f8 66be e63e 04be
00000320: b74a d6bc 61d1 843d efe1 463d 2ac3 0a3d
00000330: 9675 07bc 0d0b 5dbd 2104 b8bd f6e0 3d3d
00000340: 8be7 083e 607f 253d 448d 0b3d f7e8 733d
00000350: 4dd3 073e b2be c8bc 5994 dfbd 4ad7 bcb9
00000360: dc97 883c cc44 563e c26c acbd 789b 1a3c
00000370: 3995 e03d dff2 2d3e 525c 9fbd e7ea 4abd
00000380: 4b71 223b e24a 30be 00b1 75bc 96bc a33e
00000390: 863c 92bd 58ac 1b3e 79cc d9bd 9505 963d
000003a0: 55b7 59bd afad 86bd 3ee5 053e f023 14be
000003b0: 4181 0ebd 05d4 023e 1dc2 54bd 20cb 01be
000003c0: d981 9a3d 9c67 333d 37a6 983d aaeb 39bd
000003d0: e39f 283d 5b51 debc 5c3c c2bc 19bd 90bc
000003e0: 0b0c 14be a733 acbd 8756 b6bd 45de cfbd
000003f0: 3297 ad3d fe15 3bbe b5b2 043d 3743 fbbd

model.rnn.bias_ih_l0 f4 [160]
0.32268578 0.058546253 0.054180548 0.019580936 0.04966125 0.24727973 0.11265866 0.14917637
0.18184857 -0.072902575 0.082543105 0.2371694 0.08463272 0.21585673 -0.007843657 0.21302645
0.17586435 -0.122518644 -0.011197172 0.32771364 0.07095912 0.039534252 -0.15674162 -0.13100961
0.3790816 0.048950274 0.19145668 -0.093311645 0.11973346 0.19802523 0.19918522 -0.02158449
0.050073374 0.16812593 0.18091942 -0.049208827 0.11539241 0.2432194 0.0072849635 0.039005015
0.12201256 0.11190649 0.09428467 -0.1466743 0.17832977 0.15892313 0.045941 0.124326736
-0.0042885635 0.113991395 0.06314643 0.08291017 -0.04792604 0.07130566 -0.12050474 -0.115613
-0.10981844 -0.11845218 -0.1363429 0.19166152 0.0085378075 -0.09549665 0.15999685 0.14896211
0.20023367 0.10874849 0.020052504 0.14944357 0.16230565 2.8402335e-05 -0.10017887 -0.04727043
-0.13435201 0.110497974 0.112003624 0.017159387 -0.030052561 -0.23062965 0.004559469 -0.026134597
-0.18160908 -0.041322738 -0.017037293 0.07235305 0.042018395 0.17720011 -0.27077845 -0.21941316
-0.10043157 0.03609726 0.18709503 -0.012168356 0.018871317 0.056165174 0.10069845 -0.047964394
-0.009141355 -0.07238001 0.07409306 -0.048969924 -0.13730723 0.14589418 0.0010155737 0.0932302
0.12751116 -0.0605457 -0.08510842 -0.15690793 -0.035548195 0.06881973 -0.0523606 -0.040781755
-0.025670055 0.007818942 -0.1475411 -0.01343306 0.01773388 0.037434716 0.052559253 0.0116812335
0.111827455 -0.031716604 0.04758045 -0.053246558 0.25967675 0.17981786 0.26094133 0.02726615
0.23515199 0.03366557 0.11267091 0.057268936 0.04248992 0.09566927 0.092712775 0.04022081
0.20420769 -0.31089738 0.121780045 0.0013265309 0.12495736 -0.0058160466 0.013383238 -0.055785824
-0.018915499 0.36007577 -0.09190136 -0.025455754 0.059900384 0.10928828 -0.04580807 -0.091163166
0.27964082 0.03329041 0.23678987 -0.016572472 -0.046793316 -0.12987395 0.10568684 0.031561274
00000000: 1237 a53e 32ce 6f3d 6cec 5d3d 3368 a03c
00000010: 9869 4b3d e636 7d3e 95b9 e63d b1c1 183e
00000020: 8336 3a3e f24d 95bd 5c0c a93d 89dc 723e
00000030: eb53 ad3d 8c09 5d3e af82 00bc 9b23 5a3e
00000040: c915 343e 0eeb fabd 5874 37bc 15ca a73e
00000050: 0453 913d abee 213d e080 20be 6227 06be
00000060: fc16 c23e 1580 483d 380d 443e 2d1a bfbd
00000070: d136 f53d 20c7 4a3e 36f7 4b3e f5d1 b0bc
00000080: bd19 4d3d 3429 2c3e f142 393e 328f 49bd
00000090: db52 ec3d 820e 793e b4b6 ee3b b9c3 1f3d
000000a0: b9e1 f93d 3b2f e53d 5218 c13d ca31 16be
000000b0: 149c 363e bfbc 223e a12c 3c3d 049f fe3d
000000c0: 1487 8cbb 5274 e93d ea52 813d cfcc a93d
000000d0: 184e 44bd b408 923d 30cb f6bd 82c6 ecbd
000000e0: 7ee8 e0bd 0e97 f2bd 799d 0bbe eb42 443e
000000f0: 29e2 0b3c bf93 c3bd 37d6 233e 8689 183e
00000100: 0e0a 4d3e 87b7 de3d 2645 a43c bc07 193e
00000110: 7433 263e 8d41 ee37 942a cdbd a39e 41bd
00000120: 9393 09be c34c e23d 2862 e53d d891 8c3c
00000130: ca30 f6bc 2e2a 6cbe 9967 953b 3918 d6bc
00000140: bbf7 39be 0842 29bd cb91 8bbc d62d 943d
00000150: 7b1b 2c3d f273 353e 79a3 8abe d8ad 60be
00000160: 11af cdbd b8da 133d d795 3f3e c95d 47bc
00000170: 0598 9a3c 740d 663d fd3a ce3d 5076 44bd
00000180: 9fc5 15bc f83b 94bd 1abe 973d b094 48bd
00000190: 449a 0cbe 4965 153e 001d 853a 7aef be3d
000001a0: 4992 023e c5fe 77bd 534d aebd 79ac 20be
000001b0: fc9a 11bd 5cf1 8c3d 1278 56bd c50a 27bd
000001c0: 024a d2bc 051b 003c 0415 17be 5616 5cbc
000001d0: a446 913c 2555 193d 5f48 573d a562 3f3c
000001e0: cb05 e53d 45e9 01bd b8e3 423d 1019 5abd
000001f0: 5af4 843e 2c22 383e 1a9a 853e 435d df3c
00000200: afcb 703e e9e4 093d 02c0 e63d d592 6a3d
00000210: e909 2e3d 40ee c33d 32e0 bd3d 93be 243d
00000220: d21b 513e f12d 9fbe d167 f93d fede ad3a
00000230: a5e9 ff3d 8994 bebb 5e45 5b3c ad7f 64bd
00000240: adf4 9abc da5b b83e c836 bcbd 9688 d0bc
00000250: 1b5a 753d 89d2 df3d 3ea1 3bbd c1b3 babd
00000260: 152d 8f3e 865b 083d 0b79 723e fec2 87bc
00000270: 59aa 3fbd adfd 04be 5872 d83d 6546 013d

model.rnn.bias_hh_l0 f4 [160]
0.3297646 0.043154236 0.2303486 0.23276998 0.081226975 0.1958701 0.37499836 0.06648707
0.41301778 -0.07908196 0.22000998 0.040818054 0.08057748 0.27889875 0.101126984 0.34519908
0.32144094 -0.17404914 0.020366073 0.2561124 0.13246457 -0.15473936 -0.17103963 -0.10271367
0.15898432 0.056583412 0.14369942 0.018242529 0.056379832 0.047750887 0.10448095 -0.08232957
0.16615188 0.11994985 0.22395326 -0.011247123 -0.04229344 0.20506623 0.059643004 0.14467187
-0.03945264 -0.029451095 0.10205453 0.014637557 0.15864152 -0.094498254 0.105918676 0.17721558
0.14087544 -0.064252734 0.14906143 -0.043082695 -0.03573231 0.12863487 -0.061776534 -0.069140255
-0.1532567 -0.010229941 -0.029327605 -0.0016740542 0.15415083 0.025427643 -0.03196154 0.08232382
-0.04775389 -0.044247363 0.09802479 0.08662412 0.13231257 0.0077315867 -0.028144041 -0.021510243
0.0026706767 -0.15712658 -0.06267937 -0.03470294 -0.032475725 -0.24266139 0.094184 0.13321845
-0.10544328 0.1437097 0.159163 0.068000704 -0.031677593 0.036874846 -0.3441433 -0.09123028
-0.31002012 0.12767348 0.03974935 -0.08416379 0.039599434 -0.17850393 -0.05094186 -0.16470408
-0.10507312 -0.06674818 0.0065309783 -0.01289352 -0.034644846 -0.0023255832 0.08236595 0.0397136
-0.088236764 -0.26688802 0.031135844 0.070346385 0.048094507 0.0698471 -0.046113443 0.08469144
0.12916401 -0.0320108 -0.06220647 -0.095854625 0.0016634742 0.061824113 0.05652196 -0.09924917
0.17029062 0.21188387 0.17607483 0.11778498 0.08028298 0.2426315 0.2765779 0.042308994
0.12595998 -0.053853475 0.18137807 0.14875557 -0.14800291 -0.081281714 0.085696094 0.23987426
0.19983853 -0.3420421 0.031600952 -0.07829249 -0.0006920547 0.12527278 -0.103819825 0.059516605
0.010104915 0.19951983 -0.086716786 -0.12860304 -0.04497016 0.027789403 0.059568014 -0.0152676655
0.17705712 0.17499769 0.07289686 0.16893148 0.14661288 0.14308977 0.10423701 -0.02585433
00000000: e8d6 a83e 7fc2 303d 81e0 6b3e 415b 6e3e
00000010: 545a a63d 2c92 483e c9ff bf3e 5f2a 883d
00000020: 1177 d33e b9f5 a1bd 4c4a 613e d530 273d
00000030: ce05 a53d d1cb 8e3e aa1b cf3d efbd b03e
00000040: e893 a43e f039 32be c0d6 a63c 2a21 833e
00000050: cba4 073e ff73 1ebe 0325 2fbe 8b5b d2bd
00000060: c9cc 223e 02c4 673d f125 133e 5b71 953c
00000070: 8aee 663d 6f96 433d 1cfa d53d 689c a8bd
00000080: b823 2a3e 44a8 f53d 0154 653e da45 38bc
00000090: e33b 2dbd e2fc 513e 394c 743d dd24 143e
000000a0: 1799 21bd 6c43 f1bc f701 d13d 5dd2 6f3c
000000b0: ec72 223e 4d88 c1bd e4eb d83d 0078 353e
000000c0: a741 103e f096 83bd 8fa3 183e 7b77 30bd
000000d0: 0b5c 12bd dcb8 033e 6409 7dbd 6899 8dbd
000000e0: 53ef 1cbe 7c9b 27bc 7240 f0bc f06b dbba
000000f0: b7d9 1d3e a24d d03c 1bea 02bd 6499 a83d
00000100: 9599 43bd b93c 35bd 39c1 c83d fd67 b13d
00000110: f27c 073e 4059 fd3b 558e e6bc 4036 b0bc
00000120: 8506 2f3b cae5 20be 0b5e 80bd ac24 0ebd
00000130: 4405 05bd 3a7c 78be 8ae3 c03d 6b6a 083e
00000140: a5f2 d7bd a328 133e a0fb 223e f443 8b3d
00000150: 5dc0 01bd 140a 173d 8d33 b0be f1d6 babd
00000160: f5ba 9ebe d6bc 023e 37d0 223d 115e acbd
00000170: 0433 223d bcc9 36be 69a8 50bd 30a8 28be
00000180: 9330 d7bd 45b3 88bd d101 d63b 583f 53bc
00000190: c1e7 0dbd d068 18bb 7baf a83d baaa 223d
000001a0: 7ab5 b4bd 8ca5 88be 9910 ff3c c411 903d
000001b0: bffe 443d ff0b 8f3d 73e1 3cbd b572 ad3d
000001c0: 9243 043e c21d 03bd 36cc 7ebd 6e4f c4bd
000001d0: ef08 da3a 483b 7d3d 9283 673d 2643 cbbd
000001e0: aa60 2e3e 16f8 583e f64c 343e 4039 f13d
000001f0: 676b a43d 6474 783e 9e9b 8d3e 324c 2d3d
00000200: a7fb 003e 7695 5cbd 2cbb 393e 6153 183e
00000210: 138e 17be 0777 a6bd 6f81 af3d 99a1 753e
00000220: 79a2 4c3e 2420 afbe 0070 013d d057 a0bd
00000230: 016b 35ba 8247 003e 7d9f d4bd afc7 733d
00000240: 168f 253c ed4e 4c3e 9298 b1bd 84b0 03be
00000250: a132 38bd 9aa6 e33c 97fd 733d 3b25 7abc
00000260: 764e 353e 9832 333e f34a 953d 60fc 2c3e
00000270: b021 163e 2086 123e 377a d53d 76cc d3bc

model.rnn.weight_ih_l1 f4 [160, 40]
-0.13689137 -0.081039146 0.04422015 0.2664593 -0.1160283 0.27554464 -0.386222 -0.32046127
-0.38900393 0.12770844 0.22333634 -0.1317035 -0.27488703 -0.084640935 0.12097176 -0.23040713
-0.2568865 -0.017958645 -0.13977998 -0.23413725 -0.013058416 0.14557621 -0.013275075 -0.03130669
-0.07875599 -0.18974562 0.014510516 0.1362945 0.009553809 -0.071259946 -0.03370351 0.1397189
-0.23146603 -0.03992216 -0.13005921 -0.032879088 0.08280628 0.06908463 -0.18869196 -0.00072224205
-0.2222812 -0.2520585 0.14502767 0.39777765 -0.17710301 0.023561882 -0.5368879 -0.05318707
-0.48208082 0.15632011 0.14503007 -0.04582967 -0.3170266 -0.2413962 0.20248298 -0.478192
-0.28563234 -0.01941925 -0.2619921 -0.2934339 -0.20631108 0.013182022 -0.15099142 0.07807618
-0.093704805 -0.032788992 0.036259804 -0.11348861 0.18260531 -0.03810597 -0.3024477 0.14693253
-0.13166033 0.23376733 -0.40246168 -0.08924781 0.08883126 -0.18329225 -0.32090402 -0.022803295
-0.008748151 -0.0037210342 0.07184954 0.11272578 -0.086177655 -0.058443766 -0.14823678 -0.20116338
-0.12844947 -0.11226142 -0.11276897 -0.16552754 -0.035190865 -0.023000227 -0.06909671 0.019186847
0.024578694 -0.477623 0.03927738 -0.1078933 0.09089229 0.019767815 0.012228535 -0.04890386
0.052349497 -0.15844078 0.1443795 0.25343663 0.10336959 0.08994716 -0.0068302313 -0.10830345
0.019053822 0.025417954 0.0778777 -0.09014059 0.1365417 0.52242464 0.06951093 -0.12454265
-0.07307913 0.0032456461 -0.034704883 -0.052894983 0.043028716 0.1761942 0.108343184 0.07423413
-0.04123704 0.010639238 0.132991 -0.18032564 -0.13011998 -0.09567101 -0.05257466 -0.123252325
0.017220665 -0.1868888 0.03345098 -0.16092338 -0.043955274 0.06679423 -0.0759966 0.16285425
0.032887474 -0.042210784 0.0559675 0.123593606 0.13387753 -0.06622507 0.09011175 0.1067037
-0.061267775 0.06017031 -0.15702106 -0.18698937 0.07753484 0.3141133 0.016760822 -0.1463907
-0.12789395 -0.11444698 -0.15313165 -0.1112822 0.08663444 0.11332328 0.040078726 0.012072024
0.137605 -0.19418259 0.056649845 0.14386894 -0.040915314 -0.1258809 0.006886445 0.081232235
0.027780259 0.6623516 0.06698013 0.0921488 0.04636777 -0.15800275 0.12194697 -0.016507527
0.1242838 0.10885316 0.10994692 0.075562514 -0.12551606 -0.12064364 -0.110758334 -0.06066509
0.10768962 -0.07261164 0.0034869784 0.04801252 -0.156833 -0.45572472 0.080497645 0.044303674
-0.41102216 -0.2703882 0.32158226 0.38960847 -0.2851635 0.05506566 -0.43797478 -0.051773634
-0.41166636 0.05651447 0.06827699 -0.21010946 -0.15750411 -0.18005113 0.260744 -0.3815965
-0.42187566 0.1556303 -0.13399234 -0.08513656 -0.2021708 0.16511753 0.053729437 0.12148594
-0.10673534 -0.2603673 0.2742116 -0.02487369 0.29734063 -0.056805007 -0.112180576 0.008502145
-0.13657485 0.23763348 -0.22440733 -0.30451545 0.2765919 -0.23200022 -0.4126479 -0.15187146
-0.10088251 -0.13777149 0.12362714 0.30828908 -0.11741571 0.120014876 -0.24718975 0.05180432
-0.13264152 0.24622035 0.16748552 -0.09806664 -0.22426477 -0.05679168 0.016185518 -0.20901965
00000000: 402d 0cbe daf7 a5bd 3020 353d 5a6d 883e
00000010: 3fa0 edbd 3014 8d3e e4be c5be 8013 a4be
00000020: 862b c7be 00c6 023e 48b2 643e 48dd 06be
00000030: febd 8cbe 3a58 adbd 0bc0 f73d d9ef 6bbe
00000040: a186 83be 021e 93bc 7c22 0fbe adc1 6fbe
00000050: f7f2 55bc ee11 153e b37f 59bc 723b 00bd
00000060: d24a a1bd ad4c 42be 84bd 6d3c c990 0b3e
00000070: 9487 1c3c bcf0 91bd b10c 0abd 7912 0f3e
00000080: 6e05 6dbe 6b85 23bd 3e2e 05be 39ac 06bd
00000090: 5796 a93d 3e7c 8d3d 7738 41be d854 3dba
000000a0: af9d 63be d00d 81be 2282 143e 83a9 cb3e
000000b0: 7e5a 35be d904 c13c 7c71 09bf afda 59bd
000000c0: 4cd3 f6be 6112 203e c382 143e e4b7 3bbd
000000d0: 4f51 a2be 9130 77be b357 4f3e 95d5 f4be
000000e0: 673e 92be 1e15 9fbc d423 86be f83c 96be
000000f0: 3643 53be 68f9 573c 7f9d 1abe 67e6 9f3d
00000100: 4ee8 bfbd c04d 06bd 2985 143d b76c e8bd
00000110: e3fc 3a3e 0115 1cbd 6dda 9abe 7b75 163e
00000120: f7d1 06be b460 6f3e 750f cebe 8ec7 b6bd
00000130: 2aed b53d f7b0 3bbe 884d a4be facd babc
00000140: 6854 0fbc 98dc 73bb da25 933d c6dc e63d
00000150: e97d b0bd bb62 6fbd 62cb 17be c6fd 4dbe
00000160: 4288 03be 51e9 e5bd 6bf3 e6bd 0d80 29be
00000170: 4c24 10bd f96a bcbc 9382 8dbd bc2d 9d3c
00000180: 4259 c93c 008b f4be 51e1 203d 2af7 dcbd
00000190: bd25 ba3d 1df0 a13c 315a 483c 6a4f 48bd
000001a0: 6d6c 563d 4d3e 22be 38d8 133e 72c2 813e
000001b0: 70b3 d33d 3736 b83d 22d0 dfbb 33ce ddbd
000001c0: c316 9c3c 5039 d03c 587e 9f3d a19b b8bd
000001d0: 96d1 0b3e 9fbd 053f bf5b 8e3d 3810 ffbd
000001e0: 83aa 95bd e8b4 543b b526 0ebd 69a8 58bd
000001f0: e13e 303d 416c 343e 08e3 dd3d 1008 983d
00000200: 2ce8 28bd 3350 2e3c cb2e 083e 49a7 38be
00000210: 2c3e 05be 2aef c3bd 8758 57bd b76b fcbd
00000220: 5a12 8d3c c75f 3fbe e503 093d 19c9 24be
00000230: 720a 34bd 6acb 883d 1ba4 9bbd 44c3 263e
00000240: 04b5 063d 37e5 2cbd 2d3e 653d a51e fd3d
00000250: 3117 093e 02a1 87bd 828c b83d 7887 da3d
00000260: ebf3 7abd 2575 763d 21ca 20be 247a 3fbe
00000270: 96ca 9e3d 75d3 a03e fe4d 893c 72e7 15be
00000280: a2f6 02be 2e63 eabd 8bce 1cbe ece7 e3bd
00000290: 666d b13d 0916 e83d 9729 243d bdc9 453c
000002a0: 53e8 0c3e cdd7 46be ab09 683d 6152 133e
000002b0: d196 27bd ece6 00be b0a7 e13b 165d a63d
000002c0: 6d93 e33c e08f 293f e12c 893d 83b8 bc3d
000002d0: 21ec 3d3d 79cb 21be 55bf f93d cb3a 87bc
000002e0: 8188 fe3d 68ee de3d da2b e13d 85c0 9a3d
000002f0: 4887 00be 0314 f7bd 44d5 e2bd f57b 78bd
00000300: 608c dc3d 69b5 94bd ca85 643b c7a8 443d
00000310: d498 20be c054 e9be f3db a43d c577 353d
00000320: 7f71 d2be 5270 8abe 6ea6 a43e c37a c73e
00000330: f300 92be 888c 613d 3b3e e0be 9710 54bd
00000340: efc5 d2be b87b 673d ced4 8b3d ef26 57be
00000350: c248 21be 535f 38be 3d80 853e 9e60 c3be
00000360: 1600 d8be 8d5d 1f3e 4a35 09be 145c aebd
00000370: dd05 4fbe 9214 293e 6613 5c3d 9fcd f83d
00000380: 0f98 dabd dd4e 85be 7665 8c3e e9c3 cbbc
00000390: 083d 983e 5eac 68bd eebe e5bd 954c 0b3c
000003a0: 47da 0bbe 3156 733e 09cb 65be 73e9 9bbe
000003b0: 749d 8d3e 7791 6dbe 9646 d3be 3184 1bbe
000003c0: 7d9b cebd f813 0dbe 3a30 fd3d 11d8 9d3e
000003d0: a677 f0bd 5cca f53d 4f1f 7dbe c430 543d
000003e0: 2ed3 07be 3021 7c3e 5381 2b3e 2ad7 c8bd
000003f0: aaa5 65be 659e 68bd 7e97 843c 3f09 56be

model.rnn.weight_hh_l1 f4 [160, 40]
-0.0039294683 0.08256368 0.12882572 -0.16774595 0.008916615 -0.06991339 0.02169472 0.0699402
0.06423565 -0.1084046 0.06952997 -0.0046138405 0.10615933 0.17398784 -0.13895744 0.16095787
0.09884482 0.09794599 0.2177244 -0.06825229 0.108960815 -0.0026079218 0.05643546 -0.030166252
-0.0346359 0.05747746 -0.102006584 0.08359909 0.0152680185 0.0930175 -0.0040819934 0.16455582
0.17225702 0.10831235 0.11482288 0.09014259 -0.05792149 -0.053532716 0.036521554 -0.052693844
0.10000972 0.05655031 -0.044535343 0.0086227385 0.087098695 -0.14075914 0.044436056 0.06646203
0.09567964 -0.13100167 -0.05959095 0.06196307 -0.13498494 0.13433395 0.121937834 -0.023613205
-0.08410077 0.1321303 0.043455392 -0.04251277 0.07288707 0.0029941215 0.045496687 0.022417324
-0.03330636 -0.06473769 0.1342919 -0.09022452 0.10803841 -0.13269179 0.1731023 0.11049651
0.00456192 -0.037283905 0.053867303 -0.14198732 -0.15999664 -0.13817273 0.16467556 0.19970079
-0.010435771 -0.101213984 0.14239563 -0.15767972 -0.035957936 -0.13706818 -0.011709249 0.057307392
-0.07318503 -0.08767512 -0.13232574 0.10145694 -0.13498355 -0.0404909 -0.0072777146 -0.17646018
-0.12176563 -0.11758248 0.13637666 -0.05940917 0.1121444 0.06172636 -0.11225177 -0.014135937
0.117613606 -0.08109622 -0.13488398 -0.12026108 -0.036443397 0.03738523 -0.05547576 0.13738768
-0.15383455 0.015422192 0.005004812 -0.061089914 0.10933535 -0.14950296 0.10384041 -0.022975044
-0.1048525 0.107174315 -0.15690838 0.030669155 -0.14317688 0.111203484 -0.12761332 -0.03524005
0.013737249 0.059864443 0.01373944 0.041377544 -0.04024944 0.17504737 -0.12975618 -0.06249165
0.16984232 0.093964785 -0.0884173 -0.076346636 -0.17170939 -0.03515135 0.14781667 -0.14984071
-0.04622267 0.14709866 0.14765221 0.16090326 -0.12272999 0.109234184 0.03771156 0.094203375
-0.08745515 0.070942186 0.1101368 0.10625631 -0.08445572 -0.06257733 -0.14165515 0.023984209
0.06693528 -0.14465967 -0.008068808 -0.11094808 0.013206945 0.043487124 0.08871746 -0.0005122336
0.18608691 -0.15163076 0.021183655 -0.071995296 -0.053604428 0.053800672 0.18434955 -0.13600637
0.12895353 0.045776524 0.14894104 0.103723265 -0.19252796 -0.13480757 -0.19065948 -0.067340255
-0.03409255 -0.113657184 0.1293906 0.19621336 0.024267906 0.04633156 0.11993013 0.0058662854
0.046588093 0.1162401 -0.03238447 0.16588725 0.014054025 -0.081354946 -0.09372251 0.08901955
-0.08182076 0.00963089 -0.012273616 0.011139575 0.07551834 -0.06559598 -0.22566003 -0.09541619
-0.03468147 -0.06588213 -0.023685891 -0.08530546 0.067502245 0.13307486 -0.041178703 0.176589
0.15326774 0.23570482 0.2487203 -0.09437529 -0.040983476 0.18744361 0.09641636 0.18900347
0.20783257 -0.0989116 -0.042981792 -0.10361608 -0.096934214 0.021077514 0.07798969 -0.0090402635
-0.008570332 -0.07407281 0.14046901 0.02243571 -0.026632227 -0.16476174 -0.02132491 -0.0372728
-0.19854052 0.01064859 0.13557252 0.043232474 -0.029772824 -0.14895752 0.058246206 0.09210213
-0.17914796 0.06778394 0.08602025 0.012811342 -0.03151412 0.21250342 0.16772592 0.18696767
00000000: c5c2 80bb 2617 a93d e4ea 033e 98c5 2bbe
00000010: fe16 123c c02e 8fbd 20b9 b13c cf3c 8f3d
00000020: fb8d 833d 3b03 debd bb65 8e3d b32f 97bb
00000030: 106a d93d de29 323e dc4a 0ebe 24d2 243e
00000040: 276f ca3d e897 c83d 25f3 5e3e dbc7 8bbd
00000050: d926 df3d abe9 2abb de28 673d 371f f7bc
00000060: 60de 0dbd 7c6d 6b3d d4e8 d0bd 0036 ab3d
00000070: b626 7a3c f67f be3d 3ec2 85bb 5281 283e
00000080: 2564 303e ded2 dd3d 4228 eb3d ae9c b83d
00000090: 163f 6dbd 1f45 5bbd a097 153d 80d5 57bd
000000a0: e5d1 cc3d 4ca1 673d b16a 36bd 6346 0d3c
000000b0: cd60 b23d 2a23 10be 9502 363d 3f1d 883d
000000c0: b0f3 c33d 4d25 06be a415 74bd fdcc 7d3d
000000d0: 7e39 0abe d78e 093e 8bba f93d 7b70 c1bc
000000e0: 063d acbd 2a4d 073e 48fe 313d df21 2ebd
000000f0: d145 953d 0639 443b bc5a 3a3d 89a4 b73c
00000100: 406c 08bd 3295 84bd d183 093e a2c7 b8bd
00000110: 3e43 dd3d 5be0 07be bb41 313e ff4b e23d
00000120: 297c 953b 02b7 18bd f6a3 5c3d 2065 11be
00000130: 29d6 23be 277d 0dbe b6a0 283e 5d7e 4c3e
00000140: ccfa 2abc 4749 cfbd 29d0 113e cb76 21be
00000150: a148 13bd 9a5b 0cbe 26d8 3fbc 28bb 6a3d
00000160: 08e2 95bd 038f b3bd 6680 07be a8c8 cf3d
00000170: 2139 0abe c9d9 25bd e579 eebb fab1 34be
00000180: 4260 f9bd 15cf f0bd 53a6 0b3e 0857 73bd
00000190: f7ab e53d c8d4 7c3d 42e4 e5bd 6b9a 67bc
000001a0: 67df f03d c615 a6bd 071f 0abe 714b f6bd
000001b0: ac45 15bd 4121 193d 8d3a 63bd 5baf 0c3e
000001c0: ce86 1dbe 5dad 7c3c 68ff a33b 6b39 7abd
000001d0: 36eb df3d 4e17 19be 48aa d43d 2936 bcbc
000001e0: e8bc d6bd 357e db3d 97ac 20be e13d fb3c
000001f0: f69c 12be a7be e33d 11ad 02be df57 10bd
00000200: 3312 613c 6b34 753d 631b 613c 807b 293d
00000210: 99dc 24bd 9e3f 333e cede 04be 3ff7 7fbd
00000220: 25eb 2d3e 9c70 c03d 2114 b5bd a05b 9cbd
00000230: 96d4 2fbe ddfa 0fbd 415d 173e d86f 19be
00000240: fb53 3dbd 08a1 163e 2432 173e d3c3 243e
00000250: dc59 fbbd 2cb6 df3d 7077 1a3d b3ed c03d
00000260: b01b b3bd 234a 913d 678f e13d e99c d93d
00000270: 1ff7 acbd 8b28 80bd 0c0e 11be 887a c43c
00000280: 5d15 893d aa21 14be 0933 04bc bf38 e3bd
00000290: f161 583c 8e1f 323d 80b1 b53d 6a47 06ba
000002a0: 918d 3e3e 1845 1bbe 5889 ad3c 4572 93bd
000002b0: 5190 5bbd 185e 5c3d 21c6 3c3e 4145 0bbe
000002c0: 650c 043e 2a80 3b3d 0084 183e dd6c d43d
000002d0: 0d26 45be ff0a 0abe 3d3c 43be b0e9 89bd
000002e0: a1a4 0bbd 19c5 e8bd f87e 043e 28ec 483e
000002f0: 7dcd c63c 29c6 3d3d ee9d f53d f839 c03b
00000300: 28d3 3e3d 4a0f ee3d 94a5 04bd 59de 293e
00000310: da42 663c 6c9d a6bd 96f1 bfbd e24f b63d
00000320: a591 a7bd e1ca 1d3c 4717 49bc c482 363c
00000330: 5ca9 9a3d 2f57 86bd 6c13 67be 9069 c3bd
00000340: 280e 0ebd 36ed 86bd ea08 c2bc a1b4 aebd
00000350: 9e3e 8a3d c744 083e 00ab 28bd bfd3 343e
00000360: 38f2 1c3e 9b5c 713e 89b0 7e3e d547 c1bd
00000370: 4ade 27bd 38f1 3f3e f175 c53d 208a 413e
00000380: 10d2 543e 2a92 cabd ad0d 30bd ab34 d4bd
00000390: 7285 c6bd c0aa ac3c 0fb9 9f3d 9d1d 14bc
000003a0: 946a 0cbc 7cb3 97bd 1cd7 0f3e 18cb b73c
000003b0: d42b dabc 4db7 28be 94b1 aebc 5dab 18bd
000003c0: 354e 4bbe 6c77 2e3c 86d3 0a3e 8914 313d
000003d0: 23e6 f3bc 5288 18be 9393 6e3d 0ba0 bc3d
000003e0: 9072 37be 4ed2 8a3d 632b b03d aae6 513c
000003f0: f314 01bd 7f9a 593e 58c0 2b3e 7474 3f3e

model.rnn.bias_ih_l1 f4 [160]
0.11893122 0.10898008 0.036102585 0.24288191 0.09133461 0.15269911 0.037682526 0.18115512
-0.013260158 -0.1159807 0.1528724 0.14062767 -0.092880026 0.09476104 -0.11870286 0.019654684
0.027971992 0.05118421 -0.009333257 0.09200369 0.06511025 0.1285285 0.044871412 0.07550471
0.104514726 0.056417104 0.08956415 0.026870016 0.32528996 0.2560717 0.05276393 0.06261653
0.31289995 -0.1542335 0.21811692 0.063205734 0.18915436 0.24754268 0.14205256 0.17409457
0.15722668 -0.07732148 0.15146603 0.056884106 -0.04552708 0.05554477 -0.022791943 0.1355028
-0.15989609 -0.10031786 -0.077933535 -0.04341218 0.064065106 -0.059345327 -0.11905496 0.12612249
0.090927586 -0.067732066 0.06654808 -0.038177717 0.068063535 -0.09763986 -0.11770075 0.16115728
-0.019117346 -0.046546925 -0.11111728 -0.14091145 -0.039494418 0.007430101 -0.12794021 -0.07770058
-0.049219556 -0.1095042 0.17639646 0.062389243 0.10453274 0.0062215775 -0.08804404 0.15423025
-0.21401507 -0.061539266 0.050289795 -0.16034871 -0.020861188 -0.019016294 0.24170764 0.068208545
0.07857686 -0.038368877 0.14161812 0.05027629 -0.044251543 0.1695728 -0.11915262 0.15101853
0.17934534 0.01808958 0.055346914 -0.16715463 0.11037945 0.18667899 -0.0828688 0.093229145
-0.015023957 -0.023798835 -0.03457734 -0.1141041 0.00073828653 -0.12517834 0.25516364 0.053814087
-0.067676306 0.03755989 0.1732546 -0.20067489 -0.073994316 0.104195856 0.03557928 0.09015141
0.09413672 0.20328759 -0.13336317 -0.023347193 -0.15353554 0.08660392 -0.09067336 -0.0800012
0.009410861 -0.032695364 -0.10744364 -0.13552088 -0.045787685 -0.057993464 0.046817206 -0.08346186
0.03985112 0.1697154 0.0766139 -0.00019286848 0.07845445 0.0015079553 -0.004839701 0.06874089
0.18288831 -0.01189454 0.15806903 0.009434451 0.15887426 0.07425597 0.20235062 0.05122638
0.23150675 -0.06704968 0.03266387 0.011880276 0.2412597 0.073486954 0.052105013 0.016724624
00000000: 3692 f33d f330 df3d 4ee0 133d 09b6 783e
00000010: a40d bb3d 285d 1c3e fe58 1a3d ba80 393e
00000020: 2241 59bc 4a87 edbd 958a 1c3e b300 103e
00000030: e237 bebd 1312 c23d 7c1a f3bd dc02 a13c
00000040: 8525 e53c 89a6 513d 84ea 18bc 6e6c bc3d
00000050: 8658 853d fa9c 033e 16cb 373d 37a2 9a3d
00000060: d10b d63d 9f15 673d 696d b73d 821e dc3c
00000070: 688c a63e d41b 833e fe1e 583d 183d 803d
00000080: 6c34 a03e 63ef 1dbe 0b5a 5f3e 0272 813d
00000090: aeb1 413e d47b 7d3e 3a76 113e d945 323e
000000a0: 0800 213e b95a 9ebd e919 1b3e 4fff 683d
000000b0: 9a7a 3abd ea82 633d 2bb6 babc 3fc1 0a3e
000000c0: cdbb 23be 7373 cdbd 9e9b 9fbd f8d0 31bd
000000d0: 9134 833d 1614 73bd 16d3 f3bd 4126 013e
000000e0: 3e38 ba3d 1cb7 8abd 5c4a 883d 3d60 1cbd
000000f0: e564 8b3d 68f7 c7bd 170d f1bd 6a06 253e
00000100: fb9b 9cbc fda7 3ebd 7591 e3bd 174b 10be
00000110: e6c4 21bd 3478 f33b c202 03be 7b21 9fbd
00000120: 729a 49bd bd43 e0bd 46a1 343e dd8b 7f3d
00000130: 4315 d63d 60de cb3b 6f50 b4bd 89ee 1d3e
00000140: c426 5bbe 9910 7cbd acfc 4d3d 7432 24be
00000150: 15e5 aabc 0fc8 9bbc 3582 773e ecb0 8b3d
00000160: e8ec a03d af28 1dbd 5704 113e 83ee 4d3d
00000170: 1b41 35bd 7ea4 2d3e 4a06 f4bd 9aa4 1a3e
00000180: 4ea6 373e 9930 943c 72b3 623d 952a 2bbe
00000190: 9f0e e23d c728 3f3e 1eb7 a9bd ecee be3d
000001a0: 0b27 76bc c6f5 c2bc f8a0 0dbd 69af e9bd
000001b0: 9289 413a c02e 00be cfa4 823e 296c 5c3d
000001c0: e099 8abd 66d8 193d a769 313e b87d 4dbe
000001d0: 558a 97bd a364 d53d 94bb 113d 4da1 b83d
000001e0: c1ca c03d 9f2a 503e 5b90 08be 9d42 bfbc
000001f0: 6c38 1dbe 655d b13d f4b2 b9bd abd7 a3bd
00000200: 0330 1a3c 93eb 05bd 690b dcbd fcc5 0abe
00000210: de8b 3bbd 8e8a 6dbd 66c3 3f3d 0dee aabd
00000220: ee3a 233d e0c9 2d3e c0e7 9c3d bd3c 4ab9
00000230: baac a03d 95a6 c53a 5b96 9ebb 06c8 8c3d
00000240: 1347 3b3e 51e1 42bc d9dc 213e f592 1a3c
00000250: efaf 223e 8413 983d 0035 4f3e c1d2 513d
00000260: 1b10 6d3e 5851 89bd 8dca 053d 7da5 423c
00000270: c80c 773e 5480 963d 116c 553d 1402 893c

model.rnn.bias_hh_l1 f4 [160]
0.21903098 0.24385874 0.093153104 -0.02491525 0.08870868 0.1260963 0.058395352 0.011999477
0.09883829 -0.025718644 -0.029474447 -0.039009713 -0.04086242 -0.12157197 0.015250359 -0.007219459
0.17168202 0.21617302 0.010646479 0.13095096 -0.00693122 -0.05898803 0.007013122 0.20922036
0.07461905 0.072078034 0.051677838 0.16498946 0.17050655 0.17118004 0.32340723 0.17452258
0.047181632 -0.077412784 0.02589707 0.016528945 0.13692728 0.09676722 0.16943496 0.14735542
-0.07569764 0.09019817 -0.096442655 -0.018685877 0.08593598 0.1528766 -0.07931575 0.09643298
-0.0058226455 -0.003492383 -0.052478924 0.03391721 -0.064360894 0.111434385 0.095897734 -0.15293352
-0.050564427 -0.021596149 0.04667515 0.06268194 -0.15705134 -0.03024764 0.045295786 -0.025611324
-0.083454534 0.006550748 0.15412587 -0.16005749 -0.023912732 -0.018020513 0.009527962 0.06588678
-0.120409064 0.0072851437 0.04597675 -0.00816858 -0.00801759 0.09651017 0.0536078 -0.063830994
-0.004414876 0.085799254 0.012226951 -0.03030852 -0.17110564 -0.14173442 -0.04403232 -0.05938806
0.07991707 -0.016058868 0.15198943 -0.13080607 0.19669294 0.1568437 -0.02668529 -0.09867193
0.07409269 -0.04051569 0.039445207 -0.098816164 -0.106537476 0.015205026 -0.039451383 0.10155732
0.038788967 -0.04244081 -0.16055405 -0.044766698 -0.22116141 0.019183945 0.07212816 0.15936744
0.23004536 0.104214594 0.20840906 -0.20237099 -0.1932757 -0.09321293 0.055650868 0.10913938
0.23445861 0.060479954 -0.02825414 0.15062383 0.1264378 0.2193683 0.106424384 -0.0006124319
0.11841921 0.13656357 0.10165042 -0.09421899 0.011169372 -0.060306314 0.11949856 -0.06195036
0.14820929 0.28053686 0.1289996 0.026656944 -0.034394547 -0.10696372 0.18515822 0.017114012
0.15573382 -0.014068262 0.17009714 -0.01900826 0.060164027 0.19950432 0.16908641 0.15815632
0.2314964 7.9663485e-05 -0.08506181 0.12466199 0.20966274 0.116138324 0.2271881 0.06362018
00000000: a849 603e 1bb6 793e 0ec7 be3d 111b ccbc
00000010: e5ac b53d 631f 013e f72f 6f3d 7499 443c
00000020: bb6b ca3d e8af d2bc 6574 f1bc a6c8 1fbd
00000030: 5a5f 27bd bafa f8bd a4dc 793c 3691 ecbb
00000040: 69cd 2f3e 765c 5d3e 926e 2e3c 0218 063e
00000050: 4a1f e3bb 6f9d 71bd 55ce e53b dd3d 563e
00000060: dfd1 983d a69d 933d 24ac 533d fff2 283e
00000070: 4599 2e3e d249 2f3e a295 a53e 0cb6 323e
00000080: 8741 413d 988a 9ebd 1826 d43c b667 873c
00000090: aa36 0c3e e42d c63d 5c80 2d3e 57e4 163e
000000a0: 5d07 9bbd d1b9 b83d ba83 c5bd 2013 99bc
000000b0: 34ff af3d af8b 1c3e 4c70 a2bd a77e c53d
000000c0: e4cb bebb 77e0 64bb 24f4 56bd c6ec 0a3d
000000d0: a5cf 83bd b637 e43d 0866 c43d 9b9a 1cbe
000000e0: a51c 4fbd 68ea b0bc 712e 3f3d 645f 803d
000000f0: 11d2 20be e6c9 f7bc 1388 393d d7ce d1bc
00000100: 36ea aabd a8a7 d63b 2cd3 1d3e 1ce6 23be
00000110: a2e4 c3bc c19f 93bc 2b1b 1c3c a6ef 863d
00000120: 0799 f6bd 37b8 ee3b 1e52 3c3d 82d5 05bc
00000130: 365c 03bc 20a7 c53d da93 5b3d d3b9 82bd
00000140: aaaa 90bb 85b7 af3d 8d53 483c 9349 f8bc
00000150: 5136 2fbe d422 11be 3c5b 34bd e540 73bd
00000160: 90ab a33d e38d 83bc 1ea3 1b3e 07f2 05be
00000170: e069 493e a39b 203e 1c9b dabc 8214 cabd
00000180: e9bd 973d c8f3 25bd 4c91 213d 2160 cabd
00000190: 5230 dabd 801e 793c c697 21bd 49fd cf3d
000001a0: 2ee1 1e3d 6ad6 2dbd 4868 24be 495d 37bd
000001b0: 2378 62be a627 9d3c eeb7 933d 3831 233e
000001c0: 0391 6b3e 766e d53d 2f69 553e 573a 4fbe
000001d0: 11ea 45be 6ce6 bebd 2af2 633d 7884 df3d
000001e0: eb15 703e d4b9 773d 3a75 e7bc 223d 1a3e
000001f0: e978 013e 15a2 603e 07f5 d93d 9c8b 20ba
00000200: c585 f23d 52d7 0b3e 182e d03d e3f5 c0bd
00000210: beff 363c c103 77bd a9bb f43d a9bf 7dbd
00000220: 2dc4 173e 87a2 8f3e 7918 043e aa5f da3c
00000230: 4ce1 0cbd cb0f dbbd 1e9a 3d3e af32 8c3c
00000240: b078 1f3e 917e 66bc f22d 2e3e 36b7 9bbc
00000250: 8e6e 763d dc4a 4c3e fd24 2d3e bbf3 213e
00000260: 640d 6d3e 0211 a738 e334 aebd c94e ff3d
00000270: d4b1 563e eed9 ed3d ffa3 683e 4c4b 823d
