generate_forecasts/output/Local_Forecasts/Food/2024/models/DeepAR/W0/gluon_ts/prediction-net-state.pt (torch, 97628 bytes, 11 tensors)

model.param_proj.proj.0.weight f4 [1, 40]
000000 fa ca d9 3c a0 f5 4a 3e d6 c3 1a 3e 66 04 c5 bd
       0.026586045 0.19820261 0.15113768 -0.096199796
000010 fc e1 c6 bc 13 11 16 be 07 77 c6 bd a5 87 a9 3d
       -0.02427768 -0.14654951 -0.096906714 0.08277825
000020 d5 d3 c0 bc 1b 2e 8c bd e3 a3 a9 bd a3 c3 49 bd
       -0.02353851 -0.068447314 -0.08283212 -0.04925884
000030 41 a7 e9 bd 09 17 e1 3c 9a e7 ab 3d 6e 27 53 3e
       -0.11408854 0.027476804 0.08393784 0.2062051
000040 91 68 f4 3d d8 24 ac bb 18 aa e7 3d 3c 08 5a be
       0.11934007 -0.0052534156 0.1131174 -0.21292204
000050 58 c0 76 bd 1b db 38 bd a0 0c 9c bd f2 98 1d 3e
       -0.060242027 -0.04513083 -0.076195955 0.15390375
000060 14 b6 5d 3e 68 5c fc bd b2 9a 0d be 01 1d dc 3d
       0.21651489 -0.123223126 -0.13828543 0.107477196
000070 56 b4 2e be 20 31 b1 bd 00 04 40 3e 5b 33 1b 3e
       -0.1706098 -0.08651948 0.18751526 0.1515631
000080 8d 41 58 3e d7 f9 53 bd 24 75 cd 3c aa 23 10 be
       0.21118756 -0.051751938 0.025080271 -0.14076105
000090 83 7f ef bc 42 45 8a bd c8 b4 ee 3c 34 69 e0 3d
       -0.029235607 -0.06751491 0.029138938 0.10957566

model.param_proj.proj.1.weight f4 [1, 40]
000000 ce 14 24 be b8 ba 10 3e 0b b3 ff 3d 58 8d 09 be
       -0.16023561 0.14133728 0.124853216 -0.13432825
000010 60 2a 22 bc 36 af 25 be 62 ad 12 3d 55 b0 63 3d
       -0.009897798 -0.16180119 0.035809882 0.055588085
000020 33 4f 06 be 9d 34 9a 3c 22 81 ce 3d 41 56 7a 3c
       -0.1311615 0.018823916 0.10083224 0.015279354
000030 bd 4a 76 3d 46 56 e2 3d 5a b3 e0 bd 0d cb df 3d
       0.06012987 0.110516116 -0.109717086 0.10927401
000040 f1 4b 1f 3e 02 11 bb 3c a4 7d aa bd a3 0e c3 bd
       0.15556313 0.022835258 -0.08324745 -0.09524276
000050 c8 13 e2 3d 4b 40 a7 3d f8 b3 6e 3c 37 72 50 3d
       0.11038929 0.0816656 0.014569275 0.050890174
000060 d1 b7 f9 3d 8b 07 1a 3d c8 8c 8b bd 88 b7 a0 3a
       0.12193263 0.03760485 -0.06813961 0.0012261728
000070 36 c9 bb bd 16 4b cd bc 3f c7 6c 3d 25 a8 ed 3d
       -0.09169237 -0.025060218 0.057807203 0.11604337
000080 c3 10 be 3c bf 70 d0 bc 95 b6 b4 3b 84 15 98 39
       0.023201352 -0.025444387 0.0055149295 0.0002900773
000090 9c 83 00 be 96 37 28 ba 04 cf 95 3d 5a ae c1 bc
       -0.12550205 -0.00064169744 0.07314876 -0.023642708

model.param_proj.proj.2.weight f4 [1, 40]
000000 9d bb 2c 3e 33 ba dc bd 21 c8 b8 3c cd 7c ab 3d
       0.16868444 -0.10777702 0.022556366 0.08373413
000010 77 93 9d 3d e9 5c 58 3e 2f 89 a9 3d 10 e6 e9 bd
       0.07694142 0.21129192 0.08278119 -0.11420834
000020 c4 c2 89 bd a3 69 d3 3d f8 03 47 3d 7c 39 b5 3d
       -0.06726602 0.10322883 0.04858777 0.08848855
000030 51 e0 87 3d a6 05 bc bd d2 58 70 bd bf cc 19 bc
       0.06634582 -0.09180765 -0.058678456 -0.009387194
000040 00 00 08 bd 90 8f f1 bd 57 ae 08 be 60 d7 e3 bd
       -0.033203125 -0.117949605 -0.13347755 -0.11125064
000050 12 8b e1 3d 5b 6f c8 3b 92 0b 0e 3e 4e f1 05 be
       0.11012854 0.00611679 0.13871601 -0.13080332
000060 a1 57 68 be 81 74 0e 3e 78 13 3e be e3 93 88 bd
       -0.22689678 0.1391163 -0.18562114 -0.06668832
000070 0e 11 b0 3d 5d e4 31 3e 67 d8 21 be cf d8 06 be
       0.08597003 0.1737227 -0.15805207 -0.13168643
000080 01 a2 94 bd 2c 9d 09 be a1 02 7d bd a7 e4 d1 3d
       -0.07257462 -0.13438863 -0.061770085 0.1024869
000090 06 36 83 3e 92 33 90 3d f6 3e 54 be 5b 5d 3a be
       0.25627154 0.07041086 -0.20727143 -0.18199675

model.rnn.weight_ih_l0 f4 [160, 21]
000000 4a 46 e8 3d 72 f1 6d bc 0c 7f e7 3d 40 5e a0 3d
       0.113415316 -0.014522897 0.11303529 0.07830477
000010 68 27 6f bd d5 92 49 bd 9e 11 49 3e 73 7d 2e 3d
       -0.05838719 -0.049212296 0.19635627 0.042600106
000020 89 58 c2 3c 3f 6f 0d 3e 33 c9 f0 3d 24 15 3a 3e
       0.023723857 0.13811968 0.11757126 0.18172127
000030 95 63 b4 3d f0 d4 48 3e 24 5c 86 3c e0 eb 42 3e
       0.08808056 0.19612479 0.016401358 0.19035292
000040 cd 89 ae bd ca 92 d2 3d fa 66 14 bd df 8f 52 bc
       -0.08522377 0.10281904 -0.03623102 -0.012851684
000050 51 1c 3a ba 17 99 32 3d 9e 6f ed 3d ba ff 40 3e
       -0.00070995564 0.04360303 0.11593555 0.18847552
000060 74 cb b0 3d bf 93 00 3c fe a7 08 bd 34 83 8f 3d
       0.086325556 0.007847725 -0.033363335 0.07007447
000070 bd 50 06 3e 61 e1 23 3e fc 64 82 bd aa 6a 11 3e
       0.13116737 0.16003944 -0.063669175 0.14200845
000080 b5 c5 bc bd 82 63 21 bd ef 77 03 bc 01 4e bc bd
       -0.09217397 -0.03940154 -0.0080242 -0.091945656
000090 0f 9e 7f bb bf 09 36 3d 32 75 24 bd 30 87 9e 3d
       -0.0039004122 0.04444289 -0.04015083 0.07740629
0000a0 07 98 a0 bd e5 8d cc 3d 85 90 f8 3d 0a 79 33 3d
       -0.07841497 0.09988002 0.1213694 0.043816604
0000b0 46 3c 1b bd be f2 20 3e 0d 56 c9 3d a2 9d 0d 3e
       -0.037899278 0.15717599 0.09830866 0.13829663
0000c0 e0 eb 48 bc 1d 4f 57 bd 0d 86 f8 3d 39 1b cf 3d
       -0.012263268 -0.052565683 0.12134943 0.10112614
0000d0 c9 cc a2 3a 55 6f 2b 3e 30 b4 83 bd b9 69 e1 bd
       0.001242065 0.16741689 -0.064308524 -0.11006493
0000e0 ff dc 90 3d 8b f9 2b 3e 0f 5c eb 3d ae 6a 78 bd
       0.07073402 0.16794412 0.11492168 -0.060648613
0000f0 2f 3e 76 3c ea ff 1e be 23 fc de 3d ad ac 12 3e
       0.015029474 -0.15527311 0.10887935 0.14323683
000100 84 cc 4f bd 61 47 38 3e e6 70 a5 bd 1f b7 37 3e
       -0.05073215 0.17995979 -0.08078174 0.17940949
000110 f8 88 cd bd df b3 48 bd c3 26 f1 3d 0e 4c d0 3d
       -0.1003589 -0.048999663 0.11774971 0.10170756
000120 3c a8 56 bd 35 63 a1 bd 55 b8 f5 3b 9d e0 82 bd
       -0.052406535 -0.0788025 0.0074987807 -0.06390498
000130 7d f2 15 3e 14 c4 d6 bd 53 1f ec bd af 79 20 3c
       0.14643283 -0.10486618 -0.11529412 0.009794637
000140 37 ff 0c 3e 5a b1 d8 3d 80 0b a2 3d 6b 9e 61 bd
       0.13769232 0.10580702 0.0791235 -0.05508272
000150 ce 07 e0 3d d6 7a 2e 3e 1f a9 01 3d 1a e6 ce 3d
       0.109389886 0.17039046 0.031655427 0.10102482
000160 d5 6a 0e 3e 9a 9b f0 3d c6 d5 03 3e 1c 7e 29 3e
       0.1390794 0.11748429 0.12874517 0.16552013
000170 3b 58 d2 bd 14 68 0a 3e 46 36 c8 3d da b8 b5 bd
       -0.10270735 0.13516265 0.09775977 -0.08873148
000180 7d 1d be 3d 90 5e da 3d c1 8a bf 3d 42 64 4c 3e
       0.09282968 0.106625676 0.09352637 0.1996012
000190 e4 4a 75 3d 49 4e 00 3d a5 28 57 bd 16 e5 43 b9
       0.059885874 0.03132466 -0.052528996 -0.0001868199
0001a0 df 1d df 3c c3 85 d1 3d 7e fc 20 bd 3e c4 d3 3d
       0.027235923 0.10230591 -0.039303295 0.103401646
0001b0 0c 1a 8c bd ef ac 58 3d 95 53 f3 3c 50 30 e1 b7
       -0.068409055 0.052899297 0.029702941 -2.6844587e-05
0001c0 7c d4 a0 bd 55 20 6c bd 6a e6 04 3e bb 4a 4c bd
       -0.07853028 -0.05764802 0.12978521 -0.049875956
0001d0 fc 47 cd 3c be 63 44 3e 5b b1 b8 3d 47 48 b2 bd
       0.025058739 0.19178674 0.09018203 -0.08705192
0001e0 48 2b 9a 3d 4b 15 90 3d 28 3c 13 3d f9 24 a5 bd
       0.075277865 0.07035311 0.03594604 -0.080636926
0001f0 55 be 84 bc cb ec 03 3e 08 53 81 bd 90 c5 f5 bc
       -0.016204039 0.12883298 -0.06314665 -0.030001432
000200 37 a2 ec 3d 40 b3 fb 3d 36 03 3c 3e 1e 8f 35 bd
       0.115543775 0.122900486 0.183606 -0.04432594
000210 e8 25 96 bd ef 10 a5 3d 7e a9 9f bc dc 80 19 3e
       -0.07331449 0.080598705 -0.01949 0.14990562
000220 38 87 07 3e 48 43 89 bd 53 73 12 bc 76 0b 28 bd
       0.13235176 -0.06702286 -0.008938628 -0.041026555
000230 a8 bd 20 3e b2 f2 03 bd 13 b7 45 3e 16 7d df 3c
       0.15697348 -0.032213874 0.19308119 0.027281325
000240 a7 c0 8b bd ca 4f 2e bb 24 65 cd bc 58 b0 02 3e
       -0.06823855 -0.002659785 -0.025072642 0.12762582
000250 04 c3 e5 3b f6 65 a5 bc c1 2e 58 bd 78 41 b9 bc
       0.007011773 -0.02019022 -0.052778963 -0.022614226
000260 b9 06 cc bd 99 f8 8a bd c1 ad 9a bd 48 90 f6 3d
       -0.0996222 -0.067856975 -0.07552672 0.12039238
000270 ca 5f eb 3d a9 af 78 3d 77 56 1a bd 64 d5 3d bd
       0.1149288 0.060714398 -0.037680116 -0.046346083
000280 4f 4c 13 3e 81 a8 3c 3e 6b fc 1c 3d 49 1b 9e bc
       0.14384578 0.18423654 0.038326662 -0.01930012
000290 48 e6 a1 3d e6 4d bb 3d 9e b4 97 bc 2c 4b 93 bd
       0.07905251 0.09145717 -0.018518742 -0.07192072
0002a0 52 99 d7 bc 26 6b 1c 3e 18 f9 c2 3c b7 79 05 3e
       -0.026318226 0.15275249 0.023800418 0.13034712
0002b0 84 6f c8 3c 88 78 06 3d 11 f1 e7 bb f6 af ad bb
       0.024467237 0.03282979 -0.007078298 -0.005300517
0002c0 c2 6c 5a 3e 1d 64 97 3d 21 0b e3 3d ee 58 ba bd
       0.2133055 0.07392142 0.11086107 -0.09098993
0002d0 99 25 00 bd b8 f4 2d bb 84 c3 19 3e a5 ea 81 bd
       -0.031285856 -0.0026543569 0.1501599 -0.06343583
0002e0 57 93 49 3e 85 95 e6 3d be ad ae bd b5 a1 2c 3d
       0.19685112 0.11258987 -0.085292324 0.042146403
0002f0 f8 67 a0 3d 89 c6 fd bc b2 e2 82 bd c2 81 5b 3e
       0.078323305 -0.030978458 -0.06390895 0.21436217
000300 15 99 77 bd b3 ad 48 3e 4b 88 0a bd ef be 73 3c
       -0.060448725 0.19597511 -0.033821385 0.014877065
000310 af 08 6a bd 22 26 2d 3e f1 9c b2 bd 0f 0d 09 3e
       -0.057137188 0.16909078 -0.087213404 0.13383888
000320 32 26 06 bd bc 7e 27 bd f7 d7 84 bc 7c 72 13 3e
       -0.03275127 -0.040892348 -0.016216261 0.14399141
000330 e2 9e 21 3e d0 11 85 3d 7b 32 e6 3d bc 8c a4 3d
       0.15783265 0.06497538 0.11240097 0.080346555
000340 d1 68 0c be e5 ea 35 bd 97 04 45 3e 99 54 0e 3e
       -0.1371186 -0.044413466 0.19240032 0.13899459
000350 0b 02 27 3e f5 e8 29 3e 73 0f 33 3d 3b d8 b3 bd
       0.16309373 0.16592772 0.043715905 -0.08781477
000360 6c 96 22 3d 9c 7b 15 3d d9 fc 27 bb 6f f7 b6 bd
       0.039694235 0.036494836 -0.0025632887 -0.08933913
000370 9d 2e d9 bc 88 79 98 bd b2 d4 2e 3d 11 38 b1 3d
       -0.026511485 -0.07445055 0.04268331 0.08653272
000380 b8 f6 fe 3d ef 92 f5 3d b3 59 a9 bd 5b 52 f2 bd
       0.124494016 0.11990916 -0.08269062 -0.11832114
000390 dd a2 63 3d 58 13 0b bd c9 21 01 bd 2d dc a6 bd
       0.05557524 -0.033953995 -0.03152636 -0.08147464
0003a0 21 78 d9 3d 29 e2 be 3d 65 32 f9 3d 4c 90 32 3e
       0.10618616 0.093204804 0.12167815 0.17437857
0003b0 2c 27 81 bd 6e f0 f1 3c ba a7 a4 3c 4a ed 10 bd
       -0.063062996 0.029533591 0.02009951 -0.035382546
0003c0 37 2b 74 bd 71 e6 2c 3e 88 7a 99 3a 9c ea 18 3e
       -0.059611525 0.16884781 0.0011709491 0.14933246
0003d0 fa 3f 00 3e 02 d9 b5 3d 6a 9a 33 bc ee 5b b8 b9
       0.12524405 0.088792816 -0.010962108 -0.00035163708
0003e0 d2 7a 2b 3d 8c 4c f6 3d 21 e3 fc 3c 3b 58 cd bc
       0.041865177 0.12026319 0.030870022 -0.025066486
0003f0 ac 56 2a 3d 87 9a 78 3d 8c c3 08 3e 6e 11 47 3e
       0.041586563 0.060694244 0.13355845 0.19440243

model.rnn.weight_hh_l0 f4 [160, 40]
000000 da bd a0 bd e8 e0 07 be b5 dc ae 3d 7a 84 2f 3d
       -0.07848711 -0.13269389 0.0853819 0.04285095
000010 98 1e 45 be ab ef 31 3e f4 da 7d 3d 5f 32 24 be
       -0.19249952 0.17376582 0.061976388 -0.1603484
000020 37 14 e4 bd b6 41 2f 3d 26 36 99 bd ff a9 15 be
       -0.11136668 0.042787276 -0.07481031 -0.1461563
000030 44 49 32 be 7f 44 88 3d f6 aa cb bd 60 a9 30 be
       -0.17410761 0.066536896 -0.099447176 -0.17252111
000040 db ba 04 3e fa a1 13 bd 89 b8 e0 3d 89 4f 95 bd
       0.12961905 -0.036043145 0.10972697 -0.07290561
000050 0c 2a 8c bd 0e 4a a8 3d 17 41 3c 3d 69 04 35 3c
       -0.06843957 0.0821725 0.045960512 0.011048415
000060 c6 a7 f9 bd 7d fb aa 3d ca 01 41 3e ec c0 bb bd
       -0.12190203 0.08348749 0.18848339 -0.09167656
000070 56 d9 d4 3d 81 17 15 3d dc e6 6f 3d c9 c5 26 3c
       0.10393016 0.03639937 0.058569774 0.010178992
000080 86 87 6e bd af f5 0c 3e 3c 5c 56 3d 8b 67 da bd
       -0.058234714 0.13765596 0.052334055 -0.106642805
000090 6e ed e9 bd e0 47 fc bd 58 1b c2 3d 09 f8 26 3d
       -0.11422239 -0.123183966 0.09477872 0.04076389
0000a0 a6 7a 20 bd 35 70 ca bd e5 57 8d 3d 88 c5 bc 3d
       -0.039179467 -0.09884683 0.0690153 0.092173636
0000b0 8f 1c 06 3e f5 17 06 be 1f 88 34 3d c7 c5 4b bd
       0.13096832 -0.13095076 0.044075128 -0.049749162
0000c0 b9 23 79 3c 0e bf 3e 3d d6 49 ca 3c 96 eb b2 3c
       0.015206271 0.046568923 0.02469341 0.021840852
0000d0 bb 78 08 be 3b 20 b1 bd 71 16 e1 bc 88 00 c3 bc
       -0.13327305 -0.086487256 -0.027476521 -0.023803964
0000e0 db f5 21 be e3 f1 46 3d 2f fb 38 be b5 2c ce 3d
       -0.15816443 0.048570525 -0.18064569 0.10067121
0000f0 08 4c de 3c be 50 9f 3d 03 89 cd 3c cf 3f a3 bd
       0.027135864 0.07779072 0.025089746 -0.07971155
000100 23 24 89 bd e1 3a 02 be 1f b5 77 bd d9 e1 91 3d
       -0.06696346 -0.12717773 -0.060475465 0.07123155
000110 90 ee 11 3e 71 f6 a2 3d e9 8e 0a be 83 d7 5e 3d
       0.1425116 0.07957161 -0.13531078 0.054404747
000120 2e e6 be 3d 66 41 8b bd 3b fe c2 bc 23 da 7e 3d
       0.09321247 -0.06799583 -0.023802867 0.06221975
000130 26 e6 6c bc 88 91 42 bd 33 de ae 3d ec 0f 8b bd
       -0.014459169 -0.04750207 0.08538475 -0.06790146
000140 12 60 03 3d 05 8c e4 3d 93 6f b1 bc fb 31 85 3d
       0.03207404 0.11159519 -0.021659648 0.06503674
000150 1f b0 fa bc 0c fd fd bd 2e ac 5f 3d e4 80 23 bd
       -0.03060156 -0.124017805 0.054607563 -0.03991784
000160 6c a8 9f bd 24 b0 e6 3d e0 85 24 3e 7e 00 1a bd
       -0.07795796 0.11264065 0.16066694 -0.037598126
000170 4b 2c d8 bd 18 f0 5f bc 3f f5 cc bd f3 17 17 3d
       -0.10555323 -0.013668083 -0.100077145 0.036888074
000180 80 67 c3 3d f8 d6 47 bc 08 68 f2 3d bb bc cf ba
       0.095412254 -0.012197249 0.11836249 -0.0015849093
000190 6d 71 5a 3d bd 40 09 3e b6 8c a9 bc b7 8b f6 bd
       0.053330828 0.13403602 -0.020696979 -0.12038367
0001a0 fd f2 fa bd 9f 0a 75 bd c2 b4 97 3d 82 30 00 3d
       -0.122533776 -0.059824582 0.07407524 0.03129626
0001b0 95 50 45 bd ce d5 4c 3d a7 2f 17 3c b2 e3 34 3e
       -0.048172552 0.050008588 0.00922767 0.17664984
0001c0 75 97 e7 bb ee 97 f1 3d ae 73 c8 bd 1f bb 15 bc
       -0.0070676156 0.117965564 -0.09787689 -0.009138851
0001d0 48 8b 12 3e c0 c2 bc 3c 52 98 0e bb f6 11 3f bd
       0.14310944 0.023042083 -0.002175827 -0.04664799
0001e0 8e 35 2c be ad 99 f2 3d 71 b8 fb 3d 5c 34 bd bd
       -0.16817304 0.118457176 0.12291039 -0.092385024
0001f0 bc 07 4f be 68 09 5b bc d8 af 1b 3d ff ed b5 3d
       -0.20217794 -0.013368942 0.038009495 0.08883285
000200 20 2a 04 bd c9 24 96 3d 14 0b 31 3e 2e a4 e5 3d
       -0.032266736 0.07331235 0.17289382 0.112129554
000210 ad 65 22 3d e9 53 98 3c 9b b1 40 3d 3a 14 43 be
       0.039647747 0.018594699 0.047044378 -0.19050685
000220 17 71 a5 bc fa 9f 20 3e 48 11 4a 3c 59 df d7 bd
       -0.020195527 0.15686026 0.012333222 -0.10540647
000230 d7 10 0b be d2 84 d9 bd ed c6 1d 3c ee 88 ea 3d
       -0.13580643 -0.106210366 0.009629947 0.114518985
000240 8f 99 74 bd 37 c5 f0 3d e2 66 3a 3e 15 2e b8 bc
       -0.059716757 0.11756366 0.18203309 -0.022482911
000250 39 11 38 3e c1 3a a1 bd 01 5c dd 3d 43 45 91 3d
       0.1797532 -0.078725345 0.10808564 0.07093289
000260 3d 27 5d be fd f4 e0 3d d4 98 22 be ec a7 c1 3c
       -0.21597 0.10984228 -0.15878612 0.023639642
000270 46 86 e9 bd da 15 f2 bc ce e4 47 bc 71 aa a5 3d
       -0.11402564 -0.029551435 -0.012200547 0.0808915
000280 20 41 3e be 84 1c 52 be 07 ac 0c bd 6b 0f 2a 3e
       -0.1857953 -0.2051869 -0.034343746 0.16607444
000290 74 b8 6b bc 6b 0f 64 bd b1 d1 a7 bc ae 2b aa bd
       -0.014387239 -0.055678766 -0.02048573 -0.083091125
0002a0 bd a3 a5 bd 5e 45 38 3e 0e 2a be 3c 97 02 5d bd
       -0.08087871 0.17995211 0.023213413 -0.053957548
0002b0 6a a9 9d 3d 10 fa 3b be 48 f4 37 3d ee 7d 35 be
       0.07698329 -0.1835711 0.0449107 -0.1772382
0002c0 10 25 b3 3d 34 8a 22 be 20 0a d6 3c ac d0 2a be
       0.087473035 -0.15873033 0.026127875 -0.16681165
0002d0 79 61 4f bd c0 4f 58 3d 47 e5 5c bd 35 c4 9e bd
       -0.050630067 0.05281043 -0.053929593 -0.07752267
0002e0 d4 d2 33 be f2 71 f9 ba 51 c0 25 bd 36 00 7d bd
       -0.17560893 -0.0019031151 -0.04046661 -0.06176778
0002f0 8b 5d 17 3e ce fd 85 bd db d9 d4 bd 28 14 3f 3e
       0.14781778 -0.0654255 -0.10393115 0.18660033
000300 f2 22 b6 bd 24 6f 38 bd b8 7e 13 be 0d 8d 97 bd
       -0.08893384 -0.045027867 -0.14403808 -0.0739995
000310 96 99 12 bd 18 27 b8 bd 95 d1 4a be a0 9d cc bd
       -0.035791002 -0.089918315 -0.19806512 -0.09991002
000320 fd c6 28 bd e7 f7 85 3c b6 5d 37 3d 9d 25 78 3d
       -0.041205395 0.01635356 0.044767104 0.060582746
000330 bf c3 23 bd c8 63 69 bd 67 d0 22 be a6 0b 40 3d
       -0.0399816 -0.056979924 -0.15899812 0.04688611
000340 f2 0a ab 3d d8 de ae 3c 66 ca 18 3d 58 21 65 3d
       0.08351697 0.021346495 0.037302397 0.055940002
000350 87 de 97 3d a7 18 5d bc e9 e4 ec bd 0f a7 c6 bd
       0.074154906 -0.013494647 -0.11567099 -0.09699833
000360 b1 3c 0f bd 07 95 f5 3d e8 88 c0 bd 8c 8a 7e bc
       -0.03496999 0.11991315 -0.09401113 -0.015535962
000370 e0 91 da 3d 9c ba 3a 3e 61 58 51 bd 24 ae 72 bc
       0.10672355 0.18235248 -0.051109675 -0.014812026
000380 be 7e bd bd 96 aa 29 be 8d b8 b9 bb 88 2c 21 3e
       -0.0925269 -0.1656898 -0.005667752 0.15739644
000390 05 ad 37 bd e4 f6 0f 3e 52 6e fb bd 5d 7a 98 3d
       -0.04484274 0.14059025 -0.12276901 0.07445214
0003a0 14 fe 19 be 14 e4 85 3d f9 db 54 bc 81 c8 1d be
       -0.1503833 0.06537643 -0.012991899 -0.15408517
0003b0 27 4e 8a bc 1f 9d 1f 3a 1f ad 8f bd 01 6b fc bd
       -0.016882969 0.00060887815 -0.07015442 -0.12325097
0003c0 66 e0 75 3d 6e 75 a3 bd 23 5d 97 3d 8c 3d 0c bd
       0.060028456 -0.07981382 0.07390811 -0.034238383
0003d0 46 4d e4 3c b9 a7 50 bc 3e 95 2a bd 3a 40 dd bc
       0.027868878 -0.012735301 -0.041646235 -0.027008165
0003e0 0b a0 1a be bb 99 ad bd fd 5d 9f bd cc 1c e7 bd
       -0.15100114 -0.084765874 -0.07781599 -0.112847894
0003f0 ea 1e 8d 3d 44 4d 32 be a3 bd aa bb 1c b5 01 be
       0.06890662 -0.17412287 -0.0052105947 -0.12666744

model.rnn.bias_ih_l0 f4 [160]
000000 e2 e0 ac 3d 7b 3e 49 3d 65 d4 84 bd 52 3e a3 bd
       0.084413305 0.04913185 -0.064858235 -0.07970871
000010 41 5b cb bd 15 a4 4f 3e 0d 00 91 bd 1a 72 02 3c
       -0.09929515 0.20277436 -0.07080088 0.007961774
000020 b1 51 42 bc 2d ce 87 bd 80 06 19 bc 18 fc 3b 3e
       -0.011860297 -0.06631122 -0.009339929 0.18357885
000030 4c 47 0a 3d aa 1d e9 3d a0 92 ab bc a0 72 0e 3d
       0.0337594 0.11382611 -0.02094394 0.034777284
000040 78 55 a6 3c f5 5c d2 bd 64 04 80 bd a0 2a 3d 3e
       0.020304427 -0.102716364 -0.062508374 0.18473291
000050 ad df 65 bd 52 65 b7 3d 78 d3 a2 bd 7f a8 e8 bd
       -0.056121517 0.08954872 -0.07950491 -0.11360263
000060 c4 52 49 3e 55 4b e8 bb 98 32 0c 3e d0 18 9e bd
       0.19660479 -0.0070890584 0.13691175 -0.07719576
000070 ae 69 1a 3e c6 aa 20 3e d5 dc 08 3e 45 8d 75 3b
       0.15079376 0.15690145 0.1336549 0.0037468236
000080 e2 41 fb bb 0a 8d a2 3d 34 0c 4a bd c2 1a ac bd
       -0.007667766 0.07937057 -0.049328044 -0.08403541
000090 49 a4 f3 3d 0d 8e 0e 3d 7a eb c3 bd f3 8a 32 3c
       0.11896569 0.03480344 -0.09566398 0.010897386
0000a0 16 a6 9b 3d 89 74 d6 3d 6b bf a4 3d d1 f7 e2 bd
       0.07600038 0.10471446 0.080443226 -0.110824235
0000b0 2c ce 54 3e 72 c6 0f 3e 1a 4c 99 3d d3 ff 04 3e
       0.20781773 0.14040545 0.07485218 0.12988214
0000c0 97 a8 20 3c 4e 65 0d 3e 14 00 8a 3d 31 8b c0 3d
       0.00980582 0.13808176 0.06738296 0.09401549
0000d0 e0 ca 93 bd e6 70 de 3d 3b d3 70 bd 5f 3b b0 bd
       -0.0721643 0.108613774 -0.058795195 -0.08605074
0000e0 d2 52 a3 bd 1b db 3e bd 21 14 05 be f6 d2 39 3e
       -0.07974781 -0.046595674 -0.1299596 0.18146881
0000f0 2e a0 3c bc 43 06 d0 bd ce 4f fb 3d 08 f6 18 3e
       -0.011512799 -0.10157444 0.12271081 0.14937603
000100 ed b0 3d 3e 14 6d 1b 3e ce 97 08 3d b4 1f ed 3d
       0.18524523 0.15178329 0.033347897 0.115783125
000110 64 d3 0a 3e d2 f4 48 3a d8 1c d8 bd df 68 1f bd
       0.13557202 0.00076658756 -0.105523765 -0.038918372
000120 08 dc de bd 75 fb e2 3d 0b 3c 03 3e e0 9b 6e bd
       -0.108818114 0.11083118 0.12815873 -0.058254123
000130 b1 c7 c6 3a 48 32 11 be 95 c9 07 3d 36 d3 bb bc
       0.0015165714 -0.14179337 0.033151228 -0.022927862
000140 17 26 42 bd 94 9d 9e bd 87 85 29 bc e2 70 21 3d
       -0.047399607 -0.077448994 -0.010346777 0.039414294
000150 24 7d 99 3d d3 23 00 3e 38 ea ab bd 28 a1 22 be
       0.07494572 0.12513666 -0.08394283 -0.15881789
000160 82 32 bf 3c 4a 81 b3 bc c3 e9 f2 3d 4c 32 12 3d
       0.023339514 -0.021912236 0.11860993 0.035692498
000170 49 d2 09 3d 7b 34 da 3d 4c 5b dc 3d 15 5a b4 3d
       0.03364781 0.10654541 0.10759601 0.08806244
000180 ca 45 37 3d 3d 1a fd bc 6f 46 58 3d 41 44 3b 3d
       0.04474429 -0.0308963 0.052801546 0.04571939
000190 9e 79 9a bd 2e f7 34 3d 3d 7c ed 3b a9 56 d2 3d
       -0.07542728 0.04418104 0.0072474764 0.10270435
0001a0 b8 0f ef 3d 86 2e 2e 3d 3f 55 f3 bd a1 bc 0f be
       0.1167292 0.042524837 -0.11881494 -0.140368
0001b0 51 1a 9e bd 9a 90 88 3d 7b a1 8e bd 39 18 f9 bb
       -0.07719863 0.066682056 -0.06964394 -0.0076017645
0001c0 70 6e 64 bd 2e 77 49 bc 2f d7 26 be b1 c4 9c 3b
       -0.055769384 -0.012296481 -0.16293024 0.0047841896
0001d0 55 2c 66 bd 0e 18 08 bc b9 12 c3 3d 6b 24 08 3d
       -0.056194622 -0.008306516 0.095250554 0.033237856
0001e0 ad be c9 3d 01 10 50 bd 4f f4 04 3d 57 12 df bd
       0.09850822 -0.050796513 0.032459553 -0.1089217
0001f0 75 d5 11 3e 8e 13 fb 3d 77 0b ae 3d 81 37 99 bd
       0.14241584 0.12259589 0.084982805 -0.0748129
000200 2c 77 75 3d 00 cf 16 bc 9c 45 1c 3d b0 c5 e0 bc
       0.059928104 -0.009204626 0.038152322 -0.027438015
000210 16 5d a5 3d 3d fa dc 3d c5 98 9e 3d e9 89 54 3b
       0.08074395 0.10789917 0.07743982 0.0032430834
000220 cc 14 90 3d 7b 21 f0 bd c7 f8 17 3e 66 06 3d bc
       0.07035217 -0.11725136 0.14840995 -0.01153717
000230 8a d3 22 3e 64 d8 34 3d 55 98 19 3c c0 6f 4b bd
       0.15901008 0.04415168 0.009374698 -0.04966712
000240 d5 25 ec 3c 33 58 49 3e 34 71 c7 bd 84 34 c0 bb
       0.028826633 0.19662552 -0.09738389 -0.0058656354
000250 6e 7c ef 3d a3 b1 a0 3b e9 5d 95 bd 1e c1 e1 bd
       0.11693655 0.0049039884 -0.072933026 -0.11023162
000260 1a 4a 2f 3e 68 fa fd bb ae 39 27 3e 05 2c 4a bd
       0.17118111 -0.007750798 0.16330597 -0.049358387
000270 ad fe 41 bd d2 b7 0f be 67 47 07 3d eb 56 74 3d
       -0.04736202 -0.14034966 0.03302708 0.059653204

model.rnn.bias_hh_l0 f4 [160]
000000 70 62 bb 3d a2 32 0a 3d 69 04 e4 3d 06 b4 08 3e
       0.09149635 0.033739693 0.11133654 0.13349923
000010 f2 b1 8a bd 69 fe 1a 3e 59 2a 44 3e 45 11 99 bd
       -0.067722216 0.15136112 0.1915678 -0.07473997
000020 16 a1 60 3e 13 76 94 bd 01 3b 03 3e f8 91 51 bc
       0.2193645 -0.07249083 0.12815477 -0.012791149
000030 15 55 f3 3c b2 1e 35 3e 61 48 b4 3d 09 0e 2b 3e
       0.029703656 0.1768749 0.08802868 0.16704573
000040 84 e4 29 3e b7 f3 1d be f1 7f fd bc 8e 9c e7 3d
       0.16591078 -0.15425001 -0.030944796 0.11309157
000050 dc da b0 3b 53 7e d6 bd b6 1b c0 bd 16 b5 ae bd
       0.005397184 -0.10473313 -0.093802854 -0.08530633
000060 38 a8 c0 bc 7c 11 0f 3a 5b 93 b6 3d d9 bb 0c 3d
       -0.023517713 0.00054576225 0.089148246 0.034358833
000070 e3 0f b3 3d 6d 0f d9 3b 02 89 1f 3d 4f 77 69 bd
       0.087432645 0.0066241533 0.03894902 -0.056998547
000080 b5 09 de 3d 5b 88 ff 3c 8f 5e cd bb d7 b2 3c bd
       0.10841695 0.031192949 -0.006267376 -0.046068992
000090 e4 9c 1e bd f9 18 5c bb b2 5a 31 bd cb b9 ee 3d
       -0.03872384 -0.003358422 -0.043299384 0.11656531
0000a0 51 3b af bd 4e 19 16 bd 20 a9 b4 3d cc cf 4e 3d
       -0.085562356 -0.036645226 0.088213205 0.05049114
0000b0 e9 a4 40 3e 47 7f e7 bd 03 12 0a 3e f0 28 3b 3e
       0.18812908 -0.11303573 0.13483433 0.18277335
0000c0 69 b2 1e 3e 62 89 24 bd 05 fc 1c 3e ad fe 02 bd
       0.15497746 -0.04017008 0.15330513 -0.03198116
0000d0 fd a2 75 bd 09 ee 29 3e c3 8a 88 b8 b3 14 22 bd
       -0.05996989 0.1659471 -6.510832e-05 -0.03957052
0000e0 77 49 fc bd 32 6e 7c 3d c3 f4 bb bc 6c b0 43 bc
       -0.123187 0.061628528 -0.02294386 -0.011943918
0000f0 52 59 09 3e 1d 8a 9e 3c 45 d6 8d bd f5 71 a9 3d
       0.13412979 0.019352967 -0.06925634 0.08273689
000100 6a 83 80 bd df 8a a0 ba 9d fd e3 3d 0f ef 58 3d
       -0.06275065 -0.0012248418 0.11132357 0.05296236
000110 c4 36 d8 3d a7 c5 0a 3c 0d 2b 09 bd 38 96 57 bc
       0.10557321 0.008469976 -0.033488322 -0.013158374
000120 65 12 e7 3c a1 8f 20 be 2f 9e 3e bd 51 8c e1 bd
       0.028207013 -0.1567979 -0.046537574 -0.11013091
000130 83 ae 6d ba 7d 84 1d be 02 74 fb 3d 68 b3 0b 3e
       -0.0009066837 -0.15382572 0.12277986 0.13642657
000140 8e c3 eb 3c 86 55 dc 3d a8 d5 29 3e cf 9c 0f 3d
       0.028779771 0.107585 0.1658541 0.035061654
000150 72 53 a3 3a 6c f6 78 bc 74 18 21 be 09 e9 fa bc
       0.0012460782 -0.01519547 -0.15731984 -0.030628698
000160 7e d1 3e be 1c bf 8e 3d d2 82 eb bc ba b7 14 bd
       -0.18634602 0.06970045 -0.028748903 -0.036308028
000170 f1 b9 5e 3d cb 35 03 be 2a 6c 34 bd 79 35 eb bc
       0.054376546 -0.12813489 -0.044048466 -0.028712021
000180 e0 aa 51 bd 7c f7 ce bc 4e d6 71 bc ab 86 a7 3d
       -0.05118835 -0.025264494 -0.014760567 0.08179983
000190 83 30 df 3c ee 1b d5 bd e2 72 b5 3d 7b 73 49 3d
       0.027244812 -0.10405718 0.08859803 0.049182396
0001a0 66 cb ca bd e9 ca 27 be d0 41 28 bb 47 f1 b1 3d
       -0.099020764 -0.16385998 -0.0025673993 0.08688598
0001b0 27 97 d3 3b 49 ab 8a 3d 29 d6 81 bd 88 7a f1 3d
       0.0064572277 0.06770951 -0.06339676 0.11790949
0001c0 5e e3 ca 3d 75 82 55 bd bc e9 9e bd 4d 01 9f bd
       0.09906648 -0.052126367 -0.07759425 -0.0776392
0001d0 01 00 94 bd 75 c0 83 3c 54 30 cb 3d b0 1d 9f bd
       -0.07226563 0.016082982 0.09921327 -0.07769334
0001e0 53 bd 20 3e b0 70 45 3e 19 d2 24 3e c9 6d 7e 3d
       0.15697221 0.19281268 0.16095771 0.062116418
0001f0 d5 85 17 bd 91 dc 3d 3e 17 12 ce 3d 3a d0 74 bd
       -0.036992867 0.1854117 0.10062044 -0.059768893
000200 89 d5 49 bd 0a 19 c6 bd b5 db da 3d 2b 2d 83 3d
       -0.04927591 -0.096727446 0.10686437 0.064050995
000210 58 c5 e0 bd 86 6c 8d bd de 39 90 3d a3 c4 4f 3e
       -0.1097514 -0.06905465 0.07042287 0.20289855
000220 ac 21 87 3d e3 f5 17 be 46 82 6e 3d 82 b0 ba bd
       0.06598219 -0.14839892 0.058229707 -0.091156974
000230 75 a4 08 3d 94 72 33 3e d8 d6 dc bd 09 6c 86 3d
       0.033359963 0.17524177 -0.10783166 0.06563575
000240 0c f1 6c 3d 1b 82 13 3d fd d2 bc bd a3 42 df bd
       0.057847068 0.03601275 -0.0921993 -0.10901382
000250 a1 92 45 3c c6 df 9c bd c2 eb 04 3d 59 a3 0c bd
       0.012058885 -0.07659869 0.0324514 -0.034335468
000260 a8 77 8c 3d 92 2d 09 3e e7 c7 1d ba 01 6a 0b 3e
       0.0685876 0.1339629 -0.00060188625 0.13614656
000270 6c 8d 15 3e 62 d5 07 3e 1e 57 01 3d ad a1 12 3b
       0.1460473 0.13264993 0.031577222 0.0022374198

model.rnn.weight_ih_l1 f4 [160, 40]
000000 c1 c3 03 3d 0f 42 ee 3c 62 93 a1 bd 4f 14 79 3d
       0.032169107 0.029084234 -0.07889439 0.060810383
000010 2c 42 4e 3c c0 0a 46 3e 99 d8 21 be 56 4f 4c be
       0.012589019 0.19340038 -0.15805282 -0.1995214
000020 6f 74 2f be 06 1b a7 3c c2 d4 b0 3d 7d dc f4 bb
       -0.1713426 0.020398628 0.0863433 -0.0074725733
000030 d7 f1 1f be 08 08 6f 3c 17 6b e1 3c e9 84 63 bc
       -0.15619598 0.014589317 0.027516885 -0.013886669
000040 19 88 aa bd b9 dc 50 bd c9 1a 75 bc 29 2e 02 be
       -0.0832674 -0.050991748 -0.014959999 -0.12712921
000050 78 67 a5 3d 80 f4 2d 3d a1 93 55 b9 13 63 ae bd
       0.08076376 0.0424695 -0.00020368259 -0.08514991
000060 22 b8 01 3a 9b 83 ba bd a6 3c 5e bd 72 53 05 3e
       0.00049483974 -0.09107133 -0.054257058 0.13020113
000070 ad 0b ad bd d9 57 a8 3c 3b 20 bf 3d e2 e2 75 3d
       -0.084494926 0.020549702 0.09332319 0.060030825
000080 a0 26 c6 bd 00 9d f8 bd 9b 5c a0 3d 17 64 dc 3d
       -0.09675336 -0.121393204 0.07830163 0.10761278
000090 e2 ca 9b 3c b6 cc 58 39 2b 86 c1 bc 20 ff aa 3d
       0.01901764 0.00020675626 -0.023623547 0.083494425
0000a0 1a d3 ce bc 66 db 14 be 0e 16 20 3d a0 f2 10 3e
       -0.025247145 -0.14536819 0.039083533 0.14155054
0000b0 66 70 bf bc d5 ad 54 bd 9a ba 55 be 18 cf 70 3d
       -0.023369025 -0.05192359 -0.20871964 0.05879125
0000c0 fa d2 56 be 15 fd 6b 3d 09 a2 8d 3c 99 7e 8e 3d
       -0.20978919 0.057614405 0.017289178 0.0695774
0000d0 73 d7 44 be 3c 45 1e be d2 91 f0 3d 54 2c 5c be
       -0.19222812 -0.15456098 0.11746563 -0.21501285
0000e0 41 c9 a2 bd 4e c6 63 bd 02 2e 19 be c9 7b 33 be
       -0.079485424 -0.05560904 -0.14958957 -0.17527689
0000f0 cd ef 03 be ff 8e bd bd b9 26 0c be 3d c3 f9 3c
       -0.12884445 -0.0925579 -0.13686647 0.030488605
000100 b8 9d ba bc fe 01 87 3d a0 49 ca bc c5 63 f1 bd
       -0.022780284 0.06592177 -0.02469331 -0.11786608
000110 39 40 c7 3d e4 ef 9d 3d e4 3d 31 be e1 9c 97 3d
       0.097290464 0.07711771 -0.17308766 0.07402969
000120 99 0a 8c 3c 12 3e 0d 3e f5 21 05 be 78 47 49 3d
       0.017094897 0.13793209 -0.13001235 0.049140424
000130 31 dc cd 3c 9e e2 e2 bd 42 a3 09 be ce 5e 4e 3d
       0.02512941 -0.1107838 -0.13441184 0.05038338
000140 86 75 10 3d 8f 7c 05 39 95 a8 df 3c 9a 8c 94 3d
       0.03526833 0.0001273027 0.027302066 0.0725338
000150 ce 3c 96 bd 01 4e bb bd c4 2e ef bd 3c 28 14 be
       -0.07335816 -0.091457374 -0.11678842 -0.14468473
000160 f0 f4 8f bd 15 d6 21 be 03 fd 1b be fe 5e 1f be
       -0.0702914 -0.15804322 -0.15233235 -0.1556358
000170 77 15 22 b9 95 03 f8 bc 5c 0e 55 bd 50 c7 93 3d
       -0.0001545752 -0.030275146 -0.052015647 0.0721575
000180 d3 23 51 3c 69 3f 22 3d c6 be 15 3d 31 33 93 bd
       0.012764889 0.039611254 0.03655889 -0.07187498
000190 de 02 0f 3e 72 6d 90 3c 02 d5 9e bd 9b c0 aa bd
       0.13965937 0.017630313 -0.07755472 -0.08337518
0001a0 af 4a 93 3d ff 24 12 be e8 3e e6 3d 20 d2 60 3d
       0.07191979 -0.14271925 0.11242467 0.05488789
0001b0 bb f4 dc 3d 6f d6 ec 3d c3 77 e8 3d 0d 1e 13 be
       0.10788866 0.115643375 0.11350968 -0.14366932
0001c0 18 c0 90 3d af f2 11 3e d9 29 a9 3d 50 0f a1 bd
       0.07067889 0.14252733 0.08259935 -0.07864249
0001d0 0c d8 fa 3d 4e 7d 16 be 6b 75 07 3e 7f a5 cb bd
       0.12248239 -0.14696237 0.13228385 -0.09943675
0001e0 3d 10 6e bd 1b 0e 32 3c 58 73 c3 bd a3 a8 a9 bd
       -0.058120955 0.010867621 -0.095434844 -0.08284118
0001f0 6b af 30 3d 54 98 21 3e 9e 11 09 3e 82 40 d5 3d
       0.04313604 0.15780765 0.13385627 0.104126945
000200 dd 83 cf bb b3 87 8f bc bc c8 d5 3d 60 14 1b be
       -0.006332858 -0.017520761 0.10438678 -0.15144491
000210 c1 4e ea bd c5 67 82 bd 42 4b 8c bd 25 ab b8 bd
       -0.11440802 -0.06367449 -0.06850292 -0.09017018
000220 7f 27 ea 3b 46 cb 0f be e8 26 d6 3d 87 73 27 be
       0.0071458216 -0.14042386 0.104566395 -0.16352664
000230 bc 2e 8c bc 56 4b 76 3d 8f ed d3 bd e5 b5 1f 3e
       -0.017112128 0.06013044 -0.10348045 0.15596731
000240 2d 98 7c 3d bd 43 0d bd ee b1 2d 3d 79 c0 b5 3d
       0.061668564 -0.03448843 0.042406015 0.08874602
000250 79 eb e1 3d c1 81 6e bd ae ca 89 3d 83 76 ca 3d
       0.11031241 -0.05822921 0.06728111 0.098858856
000260 9b 60 eb bc 09 ef 13 3e dd f8 ef bd 8b ec 1d be
       -0.028732589 0.14446653 -0.11717389 -0.15422265
000270 64 26 b4 3d 9b e6 1b be fb 00 17 3d 43 8f 05 be
       0.08796385 -0.15224688 0.03686617 -0.13042931
000280 11 57 01 be 0b 36 03 be a1 3d 1f be cc d4 df bd
       -0.1263087 -0.12813585 -0.15550853 -0.1092926
000290 78 c0 c6 3d f3 21 f2 3d c1 e0 62 3d 82 e8 1f 3c
       0.09704679 0.118228815 0.055390123 0.009760024
0002a0 eb 39 15 3e fe 16 38 be 52 50 76 3d 26 0d 18 3e
       0.14572875 -0.17977521 0.060135193 0.14848766
0002b0 cd 4f 3b bd cb 52 00 be 19 b2 e6 bc 52 23 ad 3d
       -0.0457304 -0.12531583 -0.028161095 0.084540024
0002c0 6f 04 1f 3b 04 db 6e 3d e7 aa f3 3d 2e b9 b1 3d
       0.0024264117 0.05831434 0.118978314 0.08677898
0002d0 05 f9 05 3d 25 5d 1e be d2 7a eb 3d 3b 5f fe bc
       0.032708187 -0.1546522 0.114980355 -0.031051269
0002e0 9c 66 03 3e 8f 4a f5 3d 39 c9 e9 3d b7 b2 ad 3d
       0.12832111 0.119771115 0.11415333 0.08481353
0002f0 b6 3c 1d be 59 8d ff bd 96 15 c4 3d 9b 08 44 bd
       -0.1535519 -0.12478132 0.0957443 -0.04785977
000300 90 c6 01 3e ac d1 3b be b9 2e 8b 3a 38 86 7f 3d
       0.12673402 -0.18341702 0.0010618783 0.06238386
000310 6b ef 15 be 25 5f 56 3c 8c e0 62 3d 21 2e 31 3d
       -0.14642112 0.013084208 0.055389926 0.043256883
000320 35 68 4e be 89 d1 19 be 50 52 52 3e 4c e9 e0 3d
       -0.2015694 -0.15021338 0.20539212 0.10981998
000330 48 f5 f6 bd fc fd 04 bd 49 c3 bb bd af ca 90 3d
       -0.120585024 -0.03246878 -0.09168107 0.07069909
000340 cc 04 03 be ed 33 63 bd 0c 01 93 bd 57 5e a3 bd
       -0.12794799 -0.055469442 -0.07177934 -0.07976978
000350 ad a9 79 bc 99 dd aa bd 94 07 28 3e d4 99 b6 bd
       -0.015238208 -0.08343048 0.16409141 -0.08916059
000360 a4 8b 32 be 3b 85 f0 3d c1 9a 80 bc 0c 94 60 3d
       -0.17436081 0.11744162 -0.015698792 0.05482869
000370 ad 44 ea bd 8e d0 43 3d 12 26 8e 3d 58 f9 85 3d
       -0.1143888 0.047806315 0.06940855 0.06541699
000380 ab c8 bb bc 86 eb 1a be 9e 91 50 3e 1a c8 c7 bc
       -0.022922834 -0.15128908 0.20368049 -0.024387408
000390 e2 e4 4d 3e ec cd 9e 3d a7 29 0e 3d 9f d2 97 bd
       0.20106843 0.0775412 0.03470769 -0.0741322
0003a0 e8 1b 0a 3d ed 8c df 3d 51 23 a2 3d 10 2a 1b be
       0.03371802 0.10915551 0.07916892 -0.15152764
0003b0 7b ab 4e 3e 7f 56 ba 3c 3d f4 58 be db 97 95 bd
       0.20182602 0.022746323 -0.2118692 -0.07304355
0003c0 58 47 12 3c 5b da 18 bd b3 29 87 3d ab 7d 26 3d
       0.0089281425 -0.037317615 0.0659975 0.04064719
0003d0 88 dc e1 bb 28 90 3f 3d df 34 65 3d c0 d7 f8 3d
       -0.0068927445 0.046768337 0.055958625 0.12150526
0003e0 aa 28 cf bc a6 78 38 3e 48 64 bb 3d 86 38 23 bc
       -0.025287945 0.18014774 0.091499865 -0.009962207
0003f0 47 91 fb bd c0 a7 1b bc 46 3f f7 bd 1e 9a 64 bd
       -0.12283569 -0.009500444 -0.12072615 -0.05581104

model.rnn.weight_hh_l1 f4 [160, 40]
000000 d9 6f 5b 3c 41 ca 87 3d b2 5f 0c 3e d8 99 21 be
       0.013393366 0.06630374 0.1370838 -0.15781343
000010 35 b7 ce 3c da 4b 58 bd c5 22 5b 3d 7c ee 62 3d
       0.025233844 -0.052806713 0.053499956 0.055403218
000020 2f 35 84 3d 1d b1 c6 bd d3 c6 84 3d a5 58 b5 3c
       0.064554565 -0.097017504 0.06483235 0.022136996
000030 79 8b 06 3e 84 e0 23 3e ad 62 20 be 16 3e 1e 3e
       0.13139142 0.16003615 -0.15662642 0.15453371
000040 02 aa bb 3d 74 44 98 3d db ec 2b 3e df c4 98 bd
       0.09163286 0.074349314 0.16789572 -0.07459425
000050 6e 38 f4 3d e3 77 e8 bb 6b 30 a9 3d 39 d8 57 bd
       0.119248256 -0.0070943697 0.08261188 -0.05269644
000060 e7 34 59 bd f5 60 b9 3d e9 ad 02 be ec 22 9d 3d
       -0.053028967 0.09051696 -0.12761654 0.076726764
000070 35 99 03 3d c8 cb f1 3d dc 2a f0 bc e3 6e 18 3e
       0.03212853 0.11806446 -0.029317312 0.1488605
000080 c2 71 18 3e 1d 01 8f 3d 48 99 c1 3d 98 97 ef 3d
       0.14887145 0.06982634 0.09453064 0.11698836
000090 d8 ed 08 bd 16 56 0e bd 70 99 4d 3c 72 47 ab bd
       -0.03342995 -0.034750067 0.012548789 -0.083632365
0000a0 c5 1c f0 3d a3 d6 23 3d b0 44 32 bd c1 4c 90 3c
       0.11724237 0.039999615 -0.043522537 0.017614724
0000b0 c0 1f c7 3d 8a 8c fb bd 34 f9 93 3d 10 f2 b7 3c
       0.09722853 -0.12282665 0.07225266 0.022454292
0000c0 dd bb c8 3d 98 39 02 be bc 1a 87 bd 50 ca fd 3d
       0.09801457 -0.12717283 -0.06596896 0.12392104
0000d0 3c c3 f9 bd d3 3e ee 3d 78 f7 f0 3d a5 63 fb bc
       -0.12195441 0.116330765 0.11765951 -0.030687163
0000e0 29 87 bc bd d8 4a b1 3d 68 fb 48 bd 7f 53 2b bd
       -0.09205467 0.086568534 -0.049067885 -0.041827675
0000f0 16 d5 99 3d e1 62 ff ba 63 cd 8e 3d 4f 2d 1e bd
       0.07511346 -0.0019484424 0.06972768 -0.03861743
000100 b4 9e 5b bd 56 49 41 bd 95 56 f7 3d 3a b1 bf bd
       -0.053618148 -0.04718908 0.12077061 -0.09359975
000110 24 a4 fb 3d 75 58 be bd 94 f4 e1 3d 98 56 c3 3d
       0.12287167 -0.092942156 0.11032978 0.09538001
000120 46 54 47 bd b7 00 94 bd a1 67 23 3d d2 1d dc bd
       -0.048664354 -0.07226699 0.03989375 -0.10747875
000130 05 4f f0 bd cc b0 fd bd 7b b3 02 3e 1c 6d 2e 3e
       -0.11733822 -0.12387237 0.12763779 0.1703381
000140 84 33 4b 3b 6a 67 eb bd 0c ef 1b 3e c3 d5 0c be
       0.0031006048 -0.11494334 0.15227908 -0.13753419
000150 77 64 89 3c 8b de fb bd 64 cb d6 3b 88 5f 44 3d
       0.016771538 -0.12298306 0.006555008 0.04794267
000160 4e 5d 69 bd ae aa bc bd a6 6a d9 bd 1c c0 ed 3d
       -0.056973748 -0.09212242 -0.10616045 0.116089076
000170 d1 a6 eb bd b2 11 75 bd 25 42 f3 bc 99 aa 27 be
       -0.11506427 -0.05983133 -0.029694626 -0.16373672
000180 96 95 08 be 28 4d 05 be d4 72 f8 3d 93 44 8f bd
       -0.13338313 -0.13017714 0.12131277 -0.06995501
000190 79 88 f6 3d dc 48 8a 3d 06 ee c7 bd 7e 84 da bc
       0.12037749 0.06752178 -0.09762196 -0.026674505
0001a0 8a 39 d8 3d 5f 65 84 bd 78 de 17 be 69 a7 95 bd
       0.1055785 -0.064646475 -0.14830959 -0.073073216
0001b0 fe fc b5 bc 7f 28 4a 3d 21 71 8d bd 44 b3 fe 3d
       -0.022215363 0.049355026 -0.06906343 0.12436536
0001c0 24 53 29 be 50 92 a7 3c 8c ec a3 bc a8 01 40 bd
       -0.16535622 0.02045551 -0.020010255 -0.04687658
0001d0 0d 99 f8 3d 50 f8 0b be dc e1 ba 3d 5f c9 0d bd
       0.12138567 -0.13668942 0.091251105 -0.03461587
0001e0 8f 21 c0 bd ba 6c c6 3d 34 20 b5 bd 2c 8c 1e 3d
       -0.09381401 0.09688707 -0.08844033 0.038707897
0001f0 22 f1 09 be b4 d0 f8 3d ed e1 c8 bd 95 82 3a bd
       -0.13470891 0.12149182 -0.09808717 -0.04553469
000200 79 97 27 3c a2 80 c6 3d 14 ba 20 3d b3 18 6d 3d
       0.010228985 0.096925035 0.039239958 0.057884883
000210 ee 2f c2 3b 39 64 29 3e f2 a7 29 be bc 19 87 bd
       0.005926124 0.16542138 -0.16567972 -0.06596705
000220 aa fe 2d 3e bb 8b a8 3d 17 36 f7 bd 29 88 0a be
       0.16991678 0.082297765 -0.12070864 -0.13528503
000230 27 2a 11 be c2 fd 09 bd fa 30 2d 3e ae 56 23 be
       -0.14176236 -0.033689268 0.16913214 -0.15951034
000240 26 9d 67 bd f1 03 3d 3e 96 25 ee 3d d1 be 02 3e
       -0.056546353 0.18458535 0.11628263 0.12768103
000250 e3 e1 e1 bd ac f4 fa 3d ec 3f d6 3c 13 ad ab 3d
       -0.110294126 0.12253699 0.026153527 0.08382621
000260 3f a5 c6 bd 25 bc 02 3d e4 23 bc 3d 80 87 f9 3d
       -0.09699487 0.03191771 0.09186533 0.12184048
000270 48 27 96 bd c0 08 3f bd 4f 38 1d be 8b fe 39 3b
       -0.07331711 -0.046639204 -0.15353511 0.002838048
000280 90 97 91 3d ef 65 18 be d8 78 b3 3c 21 74 d8 bd
       0.071089864 -0.14882635 0.021908209 -0.10569025
000290 c0 8c 5a bc 6f 4f 3d 3d 36 c8 c3 3d 28 0f 37 bb
       -0.0133392215 0.046218332 0.095596716 -0.0027932618
0002a0 b3 00 06 3e 31 c9 0a be 4b a2 2d 3d dc f2 8b bd
       0.13086204 -0.13553311 0.042391103 -0.06833431
0002b0 65 99 5c bd 98 b6 4a 3d e8 c1 2f 3e 64 75 17 be
       -0.053857226 0.04949054 0.17163813 -0.14790875
0002c0 0b 90 02 3e 9f 5d 38 3d f6 1a 13 3e fb c2 a7 3d
       0.1275026 0.04501116 0.14365754 0.081914864
0002d0 68 d7 3e be 17 bb e2 bd e2 a3 40 be 40 2a 89 bd
       -0.18636858 -0.11070841 -0.18812516 -0.06697512
0002e0 8f be 1a bd 00 fe d1 bd 76 19 ee 3d 5b 43 36 3e
       -0.037779387 -0.10253525 0.1162595 0.17799132
0002f0 33 cd ea 3c 10 bb 41 3d 48 62 f4 3d b1 69 ff 3a
       0.0286623 0.047297537 0.11932808 0.0019486455
000300 27 4c 3e 3d 3a 14 cf 3d a2 50 18 bd 2d 5f 2c 3e
       0.046459343 0.1011128 -0.037186272 0.16833182
000310 83 5b 72 3c 40 42 93 bd 59 18 c3 bd ce e6 ad 3d
       0.014792326 -0.071903706 -0.09526128 0.08491288
000320 0e 0f 85 bd da 1a d5 bb 5a 22 40 bc 8f 62 a0 3c
       -0.06497012 -0.006503445 -0.01172694 0.019578246
000330 f8 55 ad 3d 01 0e 44 bd d9 34 4d be 37 cc 0f be
       0.08463663 -0.047864918 -0.20039691 -0.14042746
000340 f9 9f 02 bd cb 7a 82 bd ab 2a fd bc 4b 58 e0 bc
       -0.031890843 -0.06371077 -0.030904135 -0.027385851
000350 05 bb ad 3d 3e 54 ee 3d de d3 2d bd 03 2c 2d 3e
       0.08482937 0.11637162 -0.04243838 0.1691132
000360 59 ac 14 3e 7a 81 41 3e 7a 21 24 3e 12 f3 c0 bd
       0.1451887 0.18897048 0.16028395 -0.09421362
000370 3e 14 2a bd c4 f6 39 3e f4 fe f1 3d b4 6d 01 3e
       -0.04152321 0.1816054 0.118162066 0.12639505
000380 3d 5e 40 3e 8d 7e ac bd d5 35 5d bd 44 c6 db bd
       0.18785949 -0.08422575 -0.054006416 -0.107311755
000390 85 79 a9 bd a5 4c 73 3d 00 03 4c 3c 62 d0 c3 bc
       -0.08275131 0.059399266 0.012451887 -0.023903076
0003a0 72 e8 82 bd 50 66 cc bd c2 68 04 3e c6 a0 5f 3d
       -0.06391992 -0.09980452 0.12930587 0.054596685
0003b0 7b 13 85 3c 09 f8 1a be e2 ad 6b bd 7f 95 80 bd
       0.01624464 -0.1513368 -0.057538874 -0.06278514
0003c0 9c fe 19 be 7e 96 17 bd 49 3a f3 3d f0 0e a8 3d
       -0.15038532 -0.037008755 0.118763514 0.08205974
0003d0 46 31 8e 3c 90 e7 cb bd 16 06 b8 3d 97 bc 23 bc
       0.01735748 -0.099562764 0.08985536 -0.009993694
0003e0 ab 70 04 be 4e fb 95 3d 48 d4 75 3d 1e 62 cc 3d
       -0.12933604 0.07323323 0.0600169 0.09979652
0003f0 39 88 99 3a ba c8 31 3e e1 0a 2b 3e 02 05 23 3e
       0.0011713571 0.17361727 0.16703369 0.15919879

model.rnn.bias_ih_l1 f4 [160]
000000 1a c6 0b bc 8a 04 e9 3b 81 3b 68 3c 79 43 38 3e
       -0.008531118 0.007111137 0.014174343 0.17994489
000010 82 cc 9d 3d de 66 26 3d 01 48 0c bc 9e 76 8a 3d
       0.077050224 0.040625446 -0.008562089 0.06760906
000020 68 10 a7 bc 61 6e 03 be 55 58 9e 3d 06 58 0e 3e
       -0.020393565 -0.12835075 0.07731692 0.13900766
000030 06 55 e3 bd a9 6f b4 3d ca 06 01 be e4 85 8f 3c
       -0.11100201 0.0881036 -0.12600246 0.017519899
000040 c6 a5 6b 3c 3a cc 6c bd fb 69 ba 3d 6a ff 1e 3d
       0.014382785 -0.057811953 0.091022454 0.0388178
000050 e8 6f a0 3d e3 e7 cc 3d 32 8e ac 3b d8 6b 86 bd
       0.078338444 0.100051664 0.0052659744 -0.06563538
000060 a0 46 d7 bc d4 ad 8c 3c 41 aa 6d 3d 82 67 48 bc
       -0.026278794 0.017172731 0.058023695 -0.012231709
000070 48 7c 4e 3e 31 32 22 3e a9 b8 b3 bd 14 33 4a bd
       0.20164597 0.15839459 -0.087754555 -0.04936512
000080 36 e2 3b 3e 78 1d 19 be 54 23 12 3e b2 2c 3b 3c
       0.18348011 -0.14952648 0.14271289 0.01142423
000090 bc fb b8 3d 38 3a 29 3e e1 65 de 3c b4 4a 04 3e
       0.090323895 0.16526115 0.027148189 0.12919122
0000a0 21 7e 15 3e 24 a8 b7 bd 57 73 20 3e ca 00 2e 3d
       0.14598896 -0.08967617 0.15668999 0.04248122
0000b0 fc 27 1d bd 0a 81 80 3d 85 62 72 bc 43 82 0c 3e
       -0.03836821 0.06274612 -0.014793997 0.13721566
0000c0 73 a8 20 be ca c4 c3 bd eb 3c a3 bd 92 0b 55 bd
       -0.15689258 -0.09559019 -0.079706036 -0.052012987
0000d0 c1 9a 8d 3d 26 66 a0 bd 9f 3b e8 bd c2 02 08 3e
       0.069142826 -0.07831983 -0.11339497 0.13282302
0000e0 25 ed c2 3d d1 1c 92 bd d2 02 8c 3d 23 dc 40 bd
       0.09517888 -0.071344025 0.068364754 -0.04708494
0000f0 a4 1f 9e 3d 2c 17 cf bd a0 e4 e5 bd 80 aa 29 3e
       0.07720879 -0.101118416 -0.112252474 0.16568947
000100 4a 70 a3 bc 1e 0d 29 bd 62 98 e7 bd 42 1e 04 be
       -0.019951005 -0.041272275 -0.113083616 -0.12902167
000110 b4 c4 47 bd 2a 3b 1e 3c 7e e9 02 be 36 8e aa bd
       -0.048771575 0.0096576605 -0.12784383 -0.08327906
000120 6a 95 00 3c 3a b8 c4 bd 1e ca 2c 3e 68 e3 76 3d
       0.007848123 -0.09605451 0.16873977 0.060275465
000130 4a 66 c3 3d 33 09 b1 3b cd 48 ba bd 49 73 1b 3e
       0.095409945 0.005402708 -0.09095917 0.15180697
000140 4e ab 36 be ea 87 c5 bd 14 2b 00 3d 20 b4 f5 bd
       -0.17838785 -0.09645064 0.031291083 -0.11997247
000150 88 82 4f 3d d3 54 8f 3c 68 22 01 3e 6b cd a3 3c
       0.050661594 0.017496502 0.12610781 0.019995412
000160 e7 b3 fe 3d fa e0 3e bd d7 44 e6 3d 9b 4d 5a 3d
       0.124366574 -0.046601273 0.11243599 0.053296667
000170 26 44 96 bd 38 cb 00 3e 70 a8 ea bd ee 05 fd 3d
       -0.07337217 0.12577522 -0.11457908 0.123546466
000180 5a 99 0c 3e 1a 16 0b bd 40 42 d7 3d 3d 45 fa bd
       0.13730374 -0.033956625 0.10510683 -0.122202374
000190 9f 7e aa 3d e5 49 0c 3e cb c5 97 bd 7a c1 4d 3d
       0.08324932 0.13700064 -0.07410773 0.05023334
0001a0 8e 4b 6a bd fc a1 7c bd 49 0d ea 3b 95 84 12 be
       -0.05720096 -0.061677918 0.007142697 -0.14308389
0001b0 7d d6 08 3d b3 c8 ad bd cf cf 4e 3e ae 42 78 3c
       0.033407677 -0.08485546 0.2019646 0.015152616
0001c0 a5 8b df bd 16 95 26 3d 28 34 e0 3d 1e f9 34 be
       -0.10915307 0.040669523 0.10947448 -0.17673156
0001d0 e1 e0 fa bc 98 d5 00 3e 59 0a 83 bb 60 5a c0 3d
       -0.030624809 0.1258148 -0.0039990363 0.09392238
0001e0 da 22 69 3d 50 b1 3e 3e af 94 1e be 51 41 8a bc
       0.056918003 0.18622327 -0.15486406 -0.016876848
0001f0 65 b6 1e be 01 0a 3b 3d 6c 7a 62 bd b8 69 be bd
       -0.15499265 0.045663837 -0.05529253 -0.09297508
000200 dc 4a 59 3b 2d 75 fc bc d4 f2 26 be 85 d3 ab bd
       0.0033156192 -0.030817593 -0.16303569 -0.083899535
000210 67 48 46 bd 42 73 b8 bd a3 8e 4d 3d 34 72 e0 bd
       -0.048408892 -0.09006359 0.050184857 -0.109592825
000220 e7 0b 0c 3d 57 76 94 3d 81 99 8d 3d 41 3d 24 bd
       0.03419104 0.07249134 0.06914044 -0.04009748
000230 0b be b3 3d 4c 71 8d bc be e2 86 bc 81 39 0f bd
       0.08776482 -0.017265938 -0.016465541 -0.03496695
000240 51 ee a6 3d f0 c1 30 ba 39 8e 21 3e 69 9e 2a bd
       0.08150924 -0.0006742766 0.1577691 -0.041654978
000250 dd 6c bc 3d c9 0a 72 3d e9 8f f5 3d 47 c1 91 bd
       0.092004515 0.059092317 0.11990339 -0.07116943
000260 31 03 ef 3d bc a8 56 bd 7d e5 2e 3d af c7 0b bd
       0.116705306 -0.05240701 0.042699326 -0.03412598
000270 81 63 08 3e 78 78 d0 3d 15 01 48 bd 64 3a 84 3c
       0.13319208 0.101792276 -0.048829157 0.016141124

model.rnn.bias_hh_l1 f4 [160]
000000 eb 8a bb 3d a3 68 11 3e b8 de 91 3d f5 ee b3 bd
       0.09157356 0.14200072 0.07122558 -0.08785812
000010 c1 6b 98 3d 4b b6 65 3c 76 30 47 3c 57 0a d0 bd
       0.074424274 0.014020513 0.01215755 -0.10158222
000020 7b d0 bb 3d 14 02 1c bd 79 1a d7 bd 96 95 26 bd
       0.09170624 -0.03808792 -0.10503096 -0.04067
000030 2e 99 71 bd d3 4e 03 be d7 44 02 3c ae 42 19 bc
       -0.058983974 -0.12823038 0.007950983 -0.009354277
000040 4d e3 21 3e 89 93 db 3d a3 56 e3 3d 77 43 9f 3d
       0.15809365 0.107214995 0.11100509 0.0777654
000050 43 53 ce 3b 28 22 b3 bd e4 86 05 bd 6d 7c 8b 3d
       0.0062965467 -0.08746749 -0.032599345 0.06810842
000060 05 1b 66 bd 30 7d 06 3d 7c f2 a4 3c c0 eb 00 3e
       -0.05617811 0.03283423 0.020135157 0.12589931
000070 c6 e8 3f 3d 2b 85 96 3d 95 4f 3b 3e 1c 1a 80 3d
       0.04685285 0.073496185 0.18292077 0.0625498
000080 7c bc a8 bd 97 e6 94 bd 08 e0 4a bd dc 6b 10 bd
       -0.082390755 -0.07270544 -0.04953006 -0.035259113
000090 12 08 1c 3d 86 b3 6c 3c 64 60 5f 3d e0 d0 d1 3d
       0.038093634 0.014447099 0.054535285 0.10244918
0000a0 c8 0d b2 bd 23 71 9f 3d b0 d2 ba bd c8 88 07 bd
       -0.08694035 0.07785251 -0.09122217 -0.03308943
0000b0 93 a9 be 3d 15 ec 23 3e ab 16 92 bd 4c fd c8 3d
       0.093096875 0.16008027 -0.0713323 0.098139375
0000c0 a4 30 38 bb 8f 15 a2 3a 6e 36 5e bd c0 87 cf 3c
       -0.0028105164 0.0012366044 -0.054251127 0.025333285
0000d0 7e d3 72 bd d3 5b bd 3d 05 fe cf 3d 00 bf 15 be
       -0.059283726 0.0924603 0.10155872 -0.14623642
0000e0 f2 b2 3d bd d2 70 ce bc 32 9c 46 3d 83 44 5c 3d
       -0.046313234 -0.025200281 0.048488803 0.053776275
0000f0 50 75 17 be 08 23 0a bd 38 f7 4f 3d 6f d9 ac bc
       -0.14790845 -0.033724815 0.050772876 -0.021099774
000100 d8 a1 ac bd b8 c0 41 3c 19 d3 1b 3e db b9 17 be
       -0.08429307 0.011825733 0.15217246 -0.14816992
000110 d2 f1 07 bd 8c 65 81 bc de e1 1d 3c 56 08 77 3d
       -0.033189602 -0.015795492 0.00963637 0.060310684
000120 ca c0 81 bd b7 de a9 3c 79 ec 1c 3d 11 9c 28 bc
       -0.063356 0.020736082 0.038311455 -0.010291115
000130 29 78 8c bc 02 04 c4 3d 12 b5 4f 3d 2c bc 87 bd
       -0.01714714 0.09571077 0.05070979 -0.06627688
000140 28 b7 ff 3c 32 72 50 3d 3f e6 dd bb e1 fb 24 3c
       0.031215265 0.050890155 -0.0067718322 0.010069818
000150 98 f7 cb bd 53 7f d7 bd 42 7c 23 be df 5f dc bd
       -0.09959334 -0.10522332 -0.1596537 -0.107604735
000160 46 b9 00 3e 95 fe c6 bc 5f 82 fb 3d f7 dc 02 be
       0.12570676 -0.024291316 0.12280726 -0.12779604
000170 3f 98 2b 3e a8 84 e7 3d c9 23 b5 bc b4 2c 01 be
       0.16757296 0.11304599 -0.02211179 -0.12614709
000180 57 46 03 3d de 92 bd bd e8 b0 b6 3d f8 9e 5c bd
       0.032049503 -0.09256528 0.08920461 -0.053862542
000190 5d e0 08 be 3a 37 0d bd 98 62 fb bc 90 de 6f 3d
       -0.13366838 -0.034476496 -0.030686662 0.05856186
0001a0 1e f8 5d bb f6 7e a4 bd 1c 60 f3 bd 28 06 97 bd
       -0.0033869813 -0.080320284 -0.11883566 -0.07374221
0001b0 0d 05 41 be 32 c5 73 3d 9e 06 9b 3c 92 35 f7 3d
       -0.18849583 0.059514232 0.018924054 0.120707646
0001c0 e0 1c 41 3e 0a cd db 3d 1f 1a 14 3e c1 b5 36 be
       0.18858671 0.107324675 0.1446309 -0.17842771
0001d0 7d 81 19 be 20 a5 92 bd 0a ac 83 3c f5 3d e7 3d
       -0.14990802 -0.07160401 0.016073246 0.11291114
0001e0 68 f9 49 3e e2 d3 31 3d d6 cb 4b bd 5f dd 20 3e
       0.19724047 0.043414958 -0.04975494 0.15709446
0001f0 31 f7 ff 3d 25 b6 36 3e 98 35 11 3e be 97 5e bc
       0.1249832 0.1784292 0.141806 -0.013585983
000200 e8 0a e6 3d 14 c4 0d 3e 69 a9 3c 3d 14 7a 2e bd
       0.11232549 0.13844329 0.04606 -0.04259689
000210 7a 0e 0c 3c d0 2f bd bd 92 a1 fb 3d f2 63 b4 bd
       0.008548373 -0.09237635 0.122866765 -0.088081256
000220 5d f8 11 3e 84 b9 3b 3e b1 e2 f8 3d 28 0d 59 bc
       0.142549 0.18332487 0.12152613 -0.013247766
000230 64 7e cd bc 93 c1 00 be 05 b3 31 3e 4b 59 b1 bd
       -0.025084682 -0.12573843 0.17353447 -0.086596094
000240 a8 a1 5e 3d a1 a5 3a bb 52 df 2d 3e 63 90 8f bd
       0.054353386 -0.002848007 0.16979721 -0.070099615
000250 4e c3 db bb 3c c5 3c 3e 74 6f b1 3d 44 80 12 3d
       -0.0067066317 0.18434614 0.08663836 0.035766855
000260 c4 fd ee 3d de 38 71 3c ba a7 99 bd 8b 1c a1 3d
       0.11669496 0.014723031 -0.075026944 0.07866772
000270 8c 10 d0 3d e9 e9 13 3e 11 4a 01 3e bf 19 81 3d
       0.10159406 0.14444698 0.1262591 0.06303739
