generate_forecasts/output/Final_2026_Forecasts/Fish, seafood and other marine products/models/DeepAR/W0/gluon_ts/prediction-net-state.pt (torch, 97628 bytes, 11 tensors)

model.param_proj.proj.0.weight f4 [1, 40]
-0.060479585 0.28767478 0.18359788 -0.16052803 -0.13214888 -0.23639137 -0.19145508 0.21759681
-0.06322506 -0.101761125 -0.060993098 -0.16076224 -0.26707277 0.0840644 0.17398296 0.24850884
0.1625314 0.08644214 0.20112814 -0.23994644 -0.07119095 -0.029655274 -0.1896724 0.2626693
0.29911834 -0.25218907 -0.035217118 0.12328724 -0.25820562 -0.2165035 0.29842934 0.23052363
0.3170379 0.14061187 0.10684937 -0.2308884 -0.11832301 -0.15770526 0.12162556 0.20391046
00000000: 71b9 77bd 1c4a 933e 1501 3c3e 7661 24be
00000010: 0952 07be 9410 72be cd0c 44be b3d1 5e3e
00000020: 247c 81bd 2368 d0bd e6d3 79bd db9e 24be
00000030: c3bd 88be f529 ac3d 9728 323e 1a79 7e3e
00000040: a26e 263e 9408 b13d 89f4 4d3e 85b4 75be
00000050: 90cc 91bd 9eef f2bc 7b39 42be 977c 863e
00000060: 0a26 993e ed1e 81be d33f 10bd 057e fc3d
00000070: 8733 84be 18b3 5dbe bbcb 983e 630e 6c3e
00000080: cb52 a23e 8ffc 0f3e d8d3 da3d 026e 6cbe
00000090: 5653 f2bd 7d7d 21be d216 f93d e7cd 503e

model.param_proj.proj.1.weight f4 [1, 40]
-0.16013917 0.14067207 0.121756636 -0.12591605 -0.02744549 -0.16232513 0.04004617 0.052786686
-0.18865108 0.016332539 0.1797685 0.017901644 0.050077066 0.11104793 -0.106971584 0.10554125
0.1532713 0.023076514 -0.08984639 -0.15928221 0.09010334 0.12090643 0.019039229 0.05146746
0.12351959 0.042049713 -0.07371246 0.009969418 -0.09079709 -0.023693545 0.057612617 0.117210895
0.02462787 -0.02027959 0.0024068686 0.0016692191 -0.12562242 0.0014558538 0.07339368 -0.027567951
00000000: 86fb 23be 570c 103e 8b5b f93d 23f0 00be
00000010: 5dd5 e0bc 8f38 26be 7407 243d da36 583d
00000020: c02d 41be d1cb 853c 3c15 383e 78a6 923c
00000030: 9c1d 4d3d 196d e33d eb13 dbbd 0326 d83d
00000040: 27f3 1c3e f50a bd3c 6201 b8bd e01a 23be
00000050: 1a88 b83d ca9d f73d 28f8 9b3c 8bcf 523d
00000060: d7f7 fc3d 523c 2c3d 8ff6 96bd c556 233c
00000070: d3f3 b9bd f718 c2bc 35fb 6b3d 440c f03d
00000080: 63c0 c93c 6221 a6bc 8ebc 1d3b b3c9 da3a
00000090: 2aa3 00be 59d2 be3a 6d4f 963d 2fd6 e1bc

model.param_proj.proj.2.weight f4 [1, 40]
0.19481765 -0.13445616 0.04502443 0.09177116 0.0840657 0.23952332 0.10942641 -0.16285609
-0.011943511 0.15686779 0.02848331 0.12674178 0.13119279 -0.08878202 -0.10567072 -0.026453977
-0.04570726 -0.14792286 -0.15347308 -0.089211 0.12265026 -0.005523026 0.18031316 -0.16841587
-0.2532808 0.19455022 -0.21651988 -0.09104332 0.113007106 0.22501169 -0.19742346 -0.15729134
-0.10820918 -0.23069865 -0.0709393 0.13112812 0.2860039 0.09890395 -0.23775938 -0.21128112
00000000: 477e 473e e0ae 09be 896b 383d 85f2 bb3d
00000010: a32a ac3d 9a45 753e f41a e03d bfc3 26be
00000020: b7ae 43bc f3a1 203e d555 e93c 99c8 013e
00000030: 6757 063e 59d3 b5bd e469 d8bd 03b6 d8bc
00000040: 8937 3bbd 1779 17be 0c28 1dbe 42b4 b6bd
00000050: 0f30 fb3d 80fa b4bb 03a4 383e 3675 2cbe
00000060: 05ae 81be 2c38 473e 63b7 5dbe ec74 babd
00000070: 4570 e73d 7769 663e 6029 4abe fb10 21be
00000080: c69c ddbd 443c 6cbe a048 91bd 7346 063e
00000090: 1a6f 923e 278e ca3d 3277 73be 145a 58be

model.rnn.weight_ih_l0 f4 [160, 21]
0.103045665 -0.04570715 0.07262845 0.038266405 -0.09170322 -0.06650723 0.2012134 0.106947
0.10353492 0.2371289 0.20242602 0.30917576 0.2707948 0.35771707 0.17776051 0.33610073
-0.09893774 0.012560793 -0.048626214 -0.5327214 0.03835898 0.098964565 0.16797455 0.2420195
0.1431165 0.06811775 0.029298445 0.13366792 0.1999831 0.23122497 0.009501613 0.21791284
-0.017579209 0.03342133 0.057313077 -0.026957156 0.061171994 0.10108313 -0.0045003346 0.131772
-0.039110884 0.16847649 0.11372339 0.038742922 -0.04403845 0.14935997 0.0878783 0.12600313
-0.022734888 -0.07815247 0.08952731 0.06590759 0.0065025217 0.1772445 -0.049006015 -0.08722651
0.09274946 0.18684198 0.02927622 -0.006995981 -0.063167125 -0.47598913 0.09188675 0.2510042
0.05605163 0.28766942 0.02804998 0.288382 0.008470387 0.0594369 0.22896624 0.21415728
0.060675867 0.03210742 0.11799804 0.045380283 0.2624896 0.012159345 0.0030334832 0.14584136
0.017608332 0.23326659 0.17666127 0.070079446 0.15516664 0.21108614 0.071862936 0.1470587
0.19436046 0.18327904 0.20322455 0.2488496 -0.015807517 0.22860105 0.18422717 0.0072169933
0.19607778 0.18974479 0.16750172 0.26585516 0.12967052 0.0034672683 0.013237886 -0.36298916
0.10149697 0.17610596 0.033334114 0.17516539 0.0025590966 0.12291084 0.09900704 0.068719886
-0.009754336 0.01130174 0.19854225 0.016655173 0.091266334 0.2573166 0.15850545 -0.018515551
0.14404778 0.16929832 0.0040050815 0.0043172403 0.078234196 0.20261577 0.029360883 0.071753286
0.22769497 0.24484125 0.31084505 0.084301785 0.05339693 0.21740924 0.12258829 0.2941389
0.28177422 0.08401706 0.1385315 0.09239047 0.2838607 0.09214589 0.31744546 0.0030023018
0.061999485 -0.04380143 0.13927402 0.20664482 0.08722082 0.06238475 0.032174602 0.06378603
-0.013129245 0.01784627 0.0153973885 0.2142814 0.21104981 0.1518911 0.051752485 0.040244512
0.233522 0.27537492 0.13109104 0.07654713 0.009352767 0.17912368 0.18331964 0.023112683
0.07612558 0.25280127 0.12695116 0.236376 0.13132654 0.13725503 0.09344049 0.09773343
0.3196991 0.18296863 0.21513455 0.011471114 0.06849064 0.10640112 0.2604166 0.048212893
0.3022689 0.013933969 0.016345715 0.20471191 0.19427426 -0.010479548 -0.04715696 0.23107477
-0.040981356 0.21711837 -0.012449427 0.039170086 -0.031801656 0.18754953 -0.075987644 0.1359493
-0.045095574 -0.050481826 -0.04102187 0.14123026 0.16262685 0.09015465 0.013907079 0.121877894
0.005591319 -0.00038257198 0.28045753 0.22701658 0.25144327 0.2536758 0.13006316 -0.0037953982
0.120663665 0.113599546 0.074317805 -0.012923283 0.04354525 -0.004186456 0.11229457 0.16208245
0.20080088 0.19702986 0.03189436 -0.014754238 0.15450726 -0.0918354 0.054175265 0.028814213
0.21746218 0.20667699 0.23461494 0.28476807 0.043654736 0.13180703 0.119438216 0.06422519
0.039731804 0.2588499 0.09004121 0.23595025 0.22924428 0.19413649 0.09585323 0.123259336
0.004703887 0.23285551 0.26193136 0.09048357 0.12229688 0.13683102 0.20886993 0.27045214
00000000: 9b09 d33d 6c37 3bbd 3abe 943d 3cbd 1c3d
00000010: e6ce bbbd f134 88bd e30a 4e3e 0707 db3d
00000020: 1e0a d43d ebd1 723e c448 4f3e 494c 9e3e
00000030: 9ea5 8a3e b126 b73e da06 363e 6515 ac3e
00000040: df9f cabd c9cb 4d3c 482c 47bd 6e60 08bf
00000050: 4e1e 1d3d efad ca3d 8501 2c3e f6d3 773e
00000060: 228d 123e 5281 8b3d 4b03 f03c 3ee0 083e
00000070: 5fc8 4c3e 3dc6 6c3e a7ac 1b3c 8b24 5f3e
00000080: 4602 90bc cee4 083d 1ec1 6a3d 41d5 dcbc
00000090: 7c8f 7a3d ac04 cf3d 8b77 93bb 3def 063e
000000a0: bc32 20bd 1a85 2c3e cfe7 e83d e6b0 1e3d
000000b0: a961 34bd d2f1 183e 8af9 b33d f706 013e
000000c0: 843e babc 670e a0bd 185a b73d 8ffa 863d
000000d0: 1b13 d53b 957f 353e 88ba 48bd d0a3 b2bd
000000e0: 6ef3 bd3d 8153 3f3e afd4 ef3c 8b3e e5bb
000000f0: c45d 81bd d9b4 f3be 1f2f bc3d 9f83 803e
00000100: 6596 653d 6849 933e 12c9 e53c cea6 933e
00000110: 61c7 0a3c 1b74 733d 2076 6a3e 0c4c 5b3e
00000120: 4287 783d 1283 033d f5a8 f13d ade0 393d
00000130: 0965 863e fd37 473c 67cd 463b 7057 153e
00000140: 593f 903c 70dd 6e3e b1e6 343e d085 8f3d
00000150: 01e4 1e3e f726 583e e02c 933d 8e96 163e
00000160: 6e06 473e 80ad 3b3e 191a 503e 6ed2 7e3e
00000170: c47e 81bc 6516 6a3e 0ca6 3c3e 877c ec3b
00000180: 9dc8 483e 754c 423e 9285 2b3e 2b1e 883e
00000190: 59c8 043e 1c3b 633b b8e3 583c b7d9 b9be
000001a0: a5dd cf3d 1f55 343e 5a89 083d 8e5e 333e
000001b0: 84b6 273b aeb8 fb3d 34c4 ca3d 03bd 8c3d
000001c0: a7d0 1fbc ef2a 393c a94e 4b3e 6e70 883c
000001d0: d8e9 ba3d 00bf 833e 414f 223e edad 97bc
000001e0: 4381 133e 8a5c 2d3e 0f3d 833b a377 8d3b
000001f0: 4039 a03d 827a 4f3e 3c86 f03c 63f3 923d
00000200: df28 693e aab7 7a3e 1527 9f3e 6aa6 ac3d
00000210: bdb6 5a3d 87a0 5e3e 920f fb3d 6099 963e
00000220: b644 903e 2311 ac3d 34db 0d3e 3737 bd3d
00000230: 3156 913e fcb6 bc3d 3688 a23e 44c2 443b
00000240: 2cf3 7d3d 2169 33bd d99d 0e3e b39a 533e
00000250: d4a0 b23d 2787 7f3d 84c9 033d 40a2 823d
00000260: 0b1c 57bc 5732 923c 5445 7c3c 956c 5b3e
00000270: 711d 583e 5789 1b3e 6afa 533d 6ed7 243d
00000280: 6420 6f3e f1fd 8c3e bb3c 063e bec4 9c3d
00000290: 593c 193c 336c 373e 25b8 3b3e cf56 bd3c
000002a0: bae7 9b3d 2b6f 813e 7cff 013e 8d0c 723e
000002b0: 777a 063e 958c 0c3e ba5d bf3d 7728 c83d
000002c0: 9aaf a33e 215c 3b3e 3b4c 5c3e 57f1 3b3c
000002d0: d244 8c3d d5e8 d93d 5355 853e e27a 453d
000002e0: fdc2 9a3e 4d4b 643c 73e7 853c 00a0 513e
000002f0: d5ef 463e 69b2 2bbc a827 41bd dd9e 6c3e
00000300: 11dc 27bd 4754 5e3e aef8 4bbc d070 203d
00000310: 7442 02bd fc0c 403e 699f 9bbd 4b36 0b3e
00000320: 23b6 38bd 08c6 4ebd 8c06 28bd aa9e 103e
00000330: a787 263e 00a3 b83d 84da 633c 1e9b f93d
00000340: 6237 b73b f193 c8b9 2198 8f3e 0977 683e
00000350: 2cbd 803e cbe1 813e 472f 053e 37bc 78bb
00000360: 831e f73d e1a6 e83d ef33 983d 2dbc 53bc
00000370: 815c 323d 8a2e 89bb b2fa e53d f1f8 253e
00000380: bf9e 4d3e 32c2 493e a9a3 023d c2bb 71bc
00000390: 2737 1e3e 3314 bcbd e2e6 5d3d c90b ec3c
000003a0: 68ae 5e3e 22a3 533e e63e 703e 1fcd 913e
000003b0: 4fcf 323d 6cf8 063e 069c f43d 7f88 833d
000003c0: d1bd 223d f987 843e 8767 b83d f19c 713e
000003d0: 03bf 6a3e b7cb 463e b34e c43d 646f fc3d
000003e0: 1023 9a3b ad71 6e3e de1b 863e 734f b93d
000003f0: c976 fa3d 6e1d 0c3e 00e2 553e b478 8a3e

model.rnn.weight_hh_l0 f4 [160, 40]
-0.006359441 -0.03538168 0.118329115 -0.060056597 -0.09804481 0.08644005 0.16899632 -0.06389755
0.016233562 -0.12255159 -0.16833477 -0.050585676 -0.066783145 0.13903008 -0.19907533 -0.053577684
0.085557565 -0.040138744 0.25369224 0.030195504 -0.010391409 -0.005327459 0.049548466 -0.05660853
-0.051074877 0.17330104 0.111381344 -0.18573773 0.0116173 0.06983064 0.16258244 -0.05049134
0.07148156 0.25177667 0.18218744 -0.02269372 -0.03620782 0.035159934 0.2013696 0.17484497
-0.03928993 -0.10241898 0.043657005 0.09754629 0.1316984 -0.12751548 0.025017595 -0.05242334
0.013222371 0.04718622 0.031065831 0.018497646 -0.14242543 -0.08911544 -0.026164146 -0.019146532
-0.12749286 0.036736973 -0.18890879 0.093798324 0.029487276 0.07957665 0.10111267 -0.07869566
-0.06718207 -0.12969118 -0.057308514 0.12876938 0.1463266 0.054295883 -0.12334941 0.04679967
0.097565524 -0.08535124 -0.0361279 0.08471567 -0.017505683 -0.033148855 0.08217989 -0.08373143
-0.1483395 -0.034313377 -0.074177876 0.19138986 -0.18745631 -0.022589799 -0.10213433 -0.16944678
-0.20436656 0.25845814 0.2781978 -0.15692891 -0.25614792 -0.029967265 0.020350512 -0.0855868
0.032387935 0.12649931 -0.037897952 -0.16751297 -0.017490847 0.23292874 0.20731284 -0.07550696
-0.23015279 -0.15420601 0.16361874 -0.033430573 0.0590867 -0.21756315 0.009790811 0.23668225
-0.17650571 -0.10144267 -0.27920097 -0.14382799 0.18877228 0.15848668 -0.15769418 -0.21542995
-0.17356913 0.10780165 0.1205607 -0.074618295 -0.20924181 -0.0024503588 0.016208045 0.07846758
-0.045172844 0.07761023 0.18406786 0.101574086 0.025434753 0.0051473295 0.057107452 -0.20334776
-0.009746483 0.13626713 0.0067210617 -0.11601671 -0.14200783 -0.095726274 0.050587814 0.12256568
-0.06473338 0.10647223 0.19080633 0.026488975 0.18988787 -0.089107946 0.09398991 0.07648852
-0.22237031 0.11194567 -0.17110793 0.016158378 -0.11339172 -0.0605316 -0.022198733 0.070888914
-0.17371945 -0.1841308 -0.04961166 0.13700487 0.014768934 -0.06645483 0.019739846 -0.06428233
0.005312245 0.17870307 0.0019198713 -0.034371413 0.10531651 -0.180882 0.018718282 -0.101650275
0.052490246 -0.17152663 0.06382677 -0.1547112 -0.046900377 0.04406139 0.016037375 -0.08523185
-0.18391563 0.011547866 -0.05294304 -0.043253556 0.13049099 -0.08644161 -0.11167081 0.16921052
0.035838723 -0.003546785 -0.10039374 -0.04239722 -0.04752345 0.009049681 -0.1574046 -0.057327155
-0.059915528 0.0005017421 0.048721645 0.0949942 -0.060320586 -0.045037013 -0.20280758 0.032050766
-0.05489321 0.027942922 0.057321936 0.03915518 0.050697155 -0.027889118 -0.10513715 -0.22671293
-0.040384836 0.10195075 -0.099755794 -0.028532702 0.09782486 0.20010333 -0.06918582 -0.008626877
-0.09957559 -0.18110642 0.0007195607 0.1573923 -0.030721284 0.15023948 -0.13907658 0.08283676
-0.18434812 0.072549604 -0.071917556 -0.16867426 -0.016344685 -0.025064683 -0.09975472 -0.1281612
0.054233517 -0.1028036 0.071133204 -0.0063147647 0.0132433865 0.0074860347 -0.0813281 -0.048853885
-0.18034005 -0.08657015 -0.05215165 -0.134917 0.040014625 -0.19904907 0.012062399 -0.15361032
00000000: dc62 d0bb 61ec 10bd 8956 f23d e8fd 75bd
00000010: b8cb c8bd 7b07 b13d 5f0d 2d3e b8dc 82bd
00000020: 3ffc 843c 54fc fabd f35f 2cbe ed32 4fbd
00000030: 9ac5 88bd e75d 0e3e 67da 4bbe 4674 5bbd
00000040: ce38 af3d 8668 24bd f3e3 813e 905c f73c
00000050: ba40 2abc f791 aebb 55f3 4a3d 59de 67bd
00000060: e433 51bd d475 313e e71b e43d 0832 3ebe
00000070: 7d56 3e3c 5e03 8f3d 037c 263e 02d0 4ebd
00000080: ed64 923d dfe8 803e 588f 3a3e 2ee8 b9bc
00000090: a74e 14bd dd03 103d d533 4e3e 8f0a 333e
000000a0: 7aee 20bd 0bc1 d1bd b0d1 323d 59c6 c73d
000000b0: f2db 063e 6b93 02be b3f1 cc3c dbb9 56bd
000000c0: a5a2 583c 5646 413d c57d fe3c 6088 973c
000000d0: f9d7 11be 2882 b6bd 3156 d6bc 30d9 9cbc
000000e0: 7d8d 02be 8279 163d 4e71 41be 5619 c03d
000000f0: 4d8f f13c 15f9 a23d 2914 cf3d 312b a1bd
00000100: c196 89bd c4cd 04be 55bc 6abd 1fdc 033e
00000110: a4d6 153e 5c65 5e3d 9e9e fcbd 03b1 3f3d
00000120: 6fd0 c73d a2cc aebd d9fa 13bd 697f ad3d
00000130: 1468 8fbc 18c7 07bd ee4d a83d 627b abbd
00000140: 4fe6 17be 2f8c 0cbd 92ea 97bd b4fb 433e
00000150: 8cf4 3fbe 3e0e b9bc ce2b d1bd 7583 2dbe
00000160: 7845 51be a054 843e f16f 8e3e f9b1 20be
00000170: d225 83be e97d f5bc 1eb6 a63c 2248 afbd
00000180: 36a9 043d 0989 013e e23a 1bbd 8588 2bbe
00000190: f748 8fbc df84 6e3e d149 543e 65a3 9abd
000001a0: 2cad 6bbe 2ee8 1dbe ac8b 273e 7fee 08bd
000001b0: e504 723d e0c8 5ebe a369 203c d55c 723e
000001c0: eabd 34be 2dc1 cfbd 6ef3 8ebe a547 13be
000001d0: 854d 413e 554a 223e 957a 21be ab99 5cbe
000001e0: 1bbc 31be 1dc7 dc3d 87e8 f63d 7ad1 98bd
000001f0: 7c43 56be 3396 20bb bcc6 843c 9cb3 a03d
00000200: 2907 39bd 1df2 9e3d 497c 3c3e 1306 d03d
00000210: 8b5c d03c eeaa a83b 81e9 693d 653a 50be
00000220: b6af 1fbc 9c89 0b3e 5a3c dc3b 2b9a edbd
00000230: 806a 11be 230c c4bd 2b35 4f3d b703 fb3d
00000240: ef92 84bd 1d0e da3d bc62 433e 68ff d83c
00000250: f771 423e 3a7e b6bd c87d c03d 03a6 9c3d
00000260: 0bb5 63be c543 e53d eb36 2fbe 935e 843c
00000270: eb39 e8bd fcef 77bd 1eda b5bc 352e 913d
00000280: 83e3 31be c98c 3cbe 9935 4bbd 014b 0c3e
00000290: 66f9 713c 7819 88bd 75b5 a13c 74a6 83bd
000002a0: 5712 ae3b f0fd 363e 31a4 fb3a 0ac9 0cbd
000002b0: 2fb0 d73d 2239 39be 1557 993c 052e d0bd
000002c0: 0300 573d ada4 2fbe 9cb7 823d 9d6c 1ebe
000002d0: 9c1a 40bd b779 343d d060 833c 098e aebd
000002e0: 6154 3cbe 4333 3d3c cdda 58bd a42a 31bd
000002f0: 6e9f 053e 4c08 b1bd aab3 e4bd 8645 2d3e
00000300: a0cb 123d 2e71 68bb 3c9b cdbd b5a8 2dbd
00000310: f3a7 42bd 1d45 143c ac2e 21be e1cf 6abd
00000320: fc69 75bd 5887 033a 5990 473d 528c c23d
00000330: b812 77bd bb78 38bd caac 4fbe aa47 033d
00000340: b4d7 60bd 8ee8 e43c 68ca 6a3d 2f61 203d
00000350: d2a7 4f3d b877 e4bc 2552 d7bd 6f27 68be
00000360: 926a 25bd 8ecb d03d c44c ccbd 6abd e9bc
00000370: 6658 c83d e3e7 4c3e 4cb1 8dbd bf57 0dbc
00000380: 49ee cbbd f673 39be e7a0 3c3a 722b 213e
00000390: 34ab fbbc 61d8 193e 176a 0ebe 52a6 a93d
000003a0: c1c5 3cbe e394 943d 8349 93bd f2b8 2cbe
000003b0: 4ae5 85bc 7354 cdbc 344c ccbd b13c 03be
000003c0: f723 5e3d b28a d2bd 49ae 913d 16ec cebb
000003d0: cafa 583c 694d f53b 598f a6bd 031b 48bd
000003e0: 10ab 38be b14b b1bd f89c 55bd af27 0abe
000003f0: 60e6 233d 85d3 4bbe 5ea1 453c 064c 1dbe

model.rnn.bias_ih_l0 f4 [160]
0.07003002 0.100682 -0.14785814 0.044130545 -0.036128197 0.28804052 0.04910506 0.0926645
0.08517501 -0.04095966 0.09085744 0.29327968 0.13052954 0.18226448 -0.0054550963 0.21270244
-0.10286681 0.009006666 -0.095139526 0.22755085 -0.0036324726 0.09819475 -0.1118611 -0.10521806
0.20843133 0.076857075 0.17150538 -0.14080015 0.21261352 0.2583069 0.18764539 -0.018710354
0.14717607 0.08072085 0.051248718 -0.039425828 0.14578721 0.109511174 -0.05014065 -0.02014992
0.05142469 0.113897845 0.054117437 -0.07186473 0.18961471 0.14849913 0.07626157 0.13299714
0.015983947 0.10794534 0.09209302 0.11560886 -0.04301604 0.13202134 -0.06253333 -0.030663174
-0.05110602 -0.05673011 -0.14211352 0.19838145 0.0010080257 -0.12862995 0.23442836 0.1303486
0.17105429 0.1722106 0.027918218 0.18817677 0.1293487 0.0849288 -0.10730918 -0.080830365
-0.082021125 0.103611626 0.1278459 -0.08983374 -0.025635907 -0.17697155 0.043642126 0.008852967
-0.03948448 -0.098595954 -0.053551286 0.09049886 0.054257046 0.16354914 -0.11217162 -0.19084963
-0.034681413 -0.08873055 0.18070708 -0.0006881279 -0.012376629 0.07653699 0.123406745 -0.005275779
0.03515442 -0.07899958 0.08700289 0.053611867 -0.10084803 0.12294538 -0.029451823 0.17133163
0.13028692 -0.004093946 -0.103540696 -0.16326118 -0.058322012 0.12630397 -0.06589451 -0.06036588
-0.084645435 0.010870573 -0.14694291 0.0032900693 -0.09096099 0.010221827 0.076503344 0.05929377
0.082359515 0.0015047061 -0.020526364 -0.103086345 0.14842285 0.19587137 0.22353032 -0.019246208
0.15100613 0.01062367 0.11110604 0.05699098 0.1451901 0.11799049 0.09918807 0.04661149
-0.019056337 -0.084982954 0.12553419 0.044028766 0.14138575 0.07364832 0.06859125 -0.06840664
0.011259013 0.27993685 -0.10450736 0.028470373 0.19533937 0.02898059 -0.008378645 -0.116564006
0.30533192 0.010818029 0.26505253 -0.011555961 -0.011027967 -0.08455569 0.06115627 0.047797985
00000000: e66b 8f3d 5d32 ce3d 2068 17be 3bc2 343d
00000010: 29fb 13bd 0c7a 933e 6322 493d e3c6 bd3d
00000020: 3c70 ae3d 51c5 27bd 7713 ba3d c128 963e
00000030: 89a9 053e 8aa3 3a3e aac0 b2bb abce 593e
00000040: d6ab d2bd b290 133c 83d8 c2bd 1703 693e
00000050: c70e 6ebb 541a c93d 6f17 e5bd 917c d7bd
00000060: 066f 553e 3e67 9d3d 1b9f 2f3e ea2d 10be
00000070: 5cb7 593e cd40 843e 1d26 403e 7546 99bc
00000080: 53b5 163e f950 a53d 2dea 513d fa7c 21bd
00000090: 3e49 153e 6547 e03d 4860 4dbd 7211 a5bc
000000a0: b2a2 523d 4643 e93d 3faa 5d3d d12d 93bd
000000b0: 5c2a 423e 2810 183e 072f 9c3d 6730 083e
000000c0: c4f0 823c 7212 dd3d 449b bc3d 57c4 ec3d
000000d0: 9631 30bd 9a30 073e 7911 80bd 5631 fbbc
000000e0: 8c54 51bd d55d 68bd 3586 11be 8224 4b3e
000000f0: bb1f 843a 92b7 03be fd0d 703e 1a7a 053e
00000100: db28 2f3e fa57 303e bfb4 e43c 69b1 403e
00000110: fc73 043e 27ef ad3d eac4 dbbd 648a a5bd
00000120: b1fa a7bd 5532 d43d 09ea 023e c0fa b7bd
00000130: 6502 d2bc 0838 35be 16c2 323d 090c 113c
00000140: 7aba 21bd adec c9bd 9858 5bbd 7757 b93d
00000150: a33c 5e3d 6d79 273e 3cba e5bd 166e 43be
00000160: 190e 0ebd 5db8 b5bd 470b 393e 7b63 34ba
00000170: 58c7 4abc 6dbf 9c3d adbc fc3d 71e0 acbb
00000180: 15fe 0f3d 88ca a1bd 922e b23d 1e98 5b3d
00000190: 6989 cebd caca fb3d f344 f1bc 8f71 2f3e
000001a0: ef69 053e 8226 86bb 250d d4bd f02d 27be
000001b0: 10e3 6ebd d455 013e b3f3 86bd 3742 77bd
000001c0: 965a adbd 7d1a 323c 3478 16be 349e 573b
000001d0: c149 babd 7379 273c c9ad 9c3d 06de 723d
000001e0: 1bac a83d 8f39 c53a e826 a8bc ef1e d3bd
000001f0: 29fc 173e 8192 483e 22e5 643e 39aa 9dbc
00000200: 5aa1 1a3e e70e 2e3c 908b e33d 606f 693d
00000210: b7ac 143e ffa4 f13d 1d23 cb3d b1eb 3e3d
00000220: 091c 9cbc 8b0b aebd 098c 003e 8257 343d
00000230: 6dc7 103e eed4 963d 9279 8c3d c818 8cbd
00000240: b977 383c e253 8f3e f407 d6bd b33a e93c
00000250: 0b07 483e b468 ed3c 9646 09bc 1cb9 eebd
00000260: 7754 9c3e 1a3e 313c f7b4 873e 3755 3dbc
00000270: a5ae 34bc 892b adbd ff7e 7a3d d2c7 433d

model.rnn.bias_hh_l0 f4 [160]
0.07711287 0.08529036 0.028332643 0.25732616 -0.0045569246 0.23662892 0.3114626 0.009965949
0.3163893 -0.047139056 0.22834334 0.09692824 0.12647389 0.24531052 0.103517324 0.34494296
0.042737868 -0.042526234 -0.06357604 0.15591332 0.05788379 -0.09608625 -0.12615922 -0.07692216
-0.011689776 0.08449108 0.12374322 -0.029245432 0.14925455 0.10803549 0.09294039 -0.079455584
0.26325062 0.032543473 0.09430657 -0.0014598101 -0.011897437 0.07135159 0.0022199487 0.08551794
-0.110133655 -0.027457654 0.061887335 0.089442626 0.16992661 -0.10493512 0.13624246 0.185886
0.16114752 -0.070303515 0.17800957 -0.010376401 -0.030822188 0.18935238 -0.0038034283 0.015805671
-0.09454506 0.05149361 -0.03509782 0.004977083 0.14664401 -0.0077031893 0.042462293 0.06371012
-0.07694044 0.019215792 0.10589248 0.12535651 0.09935073 0.09263189 -0.035274923 -0.055070475
0.054995615 -0.16401589 -0.04683553 -0.14171015 -0.02805912 -0.18900366 0.13326617 0.16820669
0.036693793 0.08643274 0.122649245 0.08614638 -0.01944115 0.023218837 -0.18554763 -0.06266216
-0.24434976 0.0028816175 0.033351596 -0.07268628 0.008351931 -0.15814026 -0.028230915 -0.12204253
-0.06077838 -0.073367834 0.019440887 0.08969197 0.0018217304 -0.025288427 0.051898755 0.11781233
-0.08546252 -0.21046926 0.0127062565 0.063992955 0.02533065 0.12733124 -0.05964748 0.065139085
0.07018924 -0.028959276 -0.061606847 -0.079132795 -0.10703199 0.034611236 0.08046598 -0.05163741
0.14082278 0.2451109 0.1079697 0.067950666 -0.0309834 0.25868502 0.23916753 -0.004202633
0.0418054 -0.07689847 0.17981476 0.14847872 -0.04530289 -0.058962356 0.09217114 0.24626541
-0.023426091 -0.11612968 0.035354037 -0.035590313 0.015736375 0.20473671 -0.04861431 0.046895657
0.040279288 0.11933716 -0.099322796 -0.074677154 0.09046618 -0.0525213 0.097003534 -0.040667947
0.20274502 0.15253104 0.10114847 0.17394643 0.18237773 0.18843424 0.059706405 -0.009617322
00000000: 5aed 9d3d b6ac ae3d dc19 e83c 41c0 833e
00000010: 4152 95bb da4e 723e 0778 9f3e 3848 233c
00000020: c7fd a13e e214 41bd d6d2 693e 5082 c63d
00000030: 5f82 013e ae32 7b3e e400 d43d 5d9c b03e
00000040: e70d 2f3d fd2f 2ebd 2834 82bd bea7 1f3e
00000050: 8e17 6d3d dec8 c4bd e22f 01be 5e89 9dbd
00000060: 7986 3fbc a909 ad3d 166d fd3d 1e94 efbc
00000070: 2fd6 183e b641 dd3d 8857 be3d 9cb9 a2bd
00000080: c9c8 863e 4e4c 053d ce23 c13d 1957 bfba
00000090: 78ed 42bc c820 923d 8f7c 113b 0824 af3d
000000a0: c18d e1bd e0ee e0bc 937d 7d3d b22d b73d
000000b0: 3e01 2e3e 39e8 d6bd 2583 0b3e e658 3e3e
000000c0: db03 253e 4afb 8fbd 2448 363e c801 2abc
000000d0: d07e fcbc 97e5 413e f042 79bb e57a 813c
000000e0: d7a0 c1bd f7ea 523d bbc2 0fbd cc16 a33b
000000f0: d929 163e 096b fcbb f1ec 2d3d 747a 823d
00000100: f392 9dbd 706a 9d3c 28de d83d 755d 003e
00000110: 6578 cb3d cab5 bd3d 707c 10bd 9491 61bd
00000120: 1543 613d c8f3 27be 9dd6 3fbd 771c 11be
00000130: 3ddc e5bc 2d8a 41be ed76 083e 603e 2c3e
00000140: 3b4c 163d a603 b13d 872f fb3d 836d b03d
00000150: 0c43 9fbc 6e35 be3c 3300 3ebe 0555 80bd
00000160: d336 7abe 85d9 3c3b af9b 083d 8bdc 94bd
00000170: 8ad6 083c 85ef 21be 8544 e7bc 6ff1 f9bd
00000180: c0f2 78bd e041 96bd 7f42 9f3c 6cb0 b73d
00000190: 21c7 ee3a ad29 cfbc ca93 543d 9747 f13d
000001a0: f906 afbd 4185 57be e72d 503c bd0e 833d
000001b0: 3982 cf3c 1f63 023e ea50 74bd a467 853d
000001c0: 60bf 8f3d 013c edbc 7657 7cbd 6010 a2bd
000001d0: 9733 dbbd 83c4 0d3d 59cb a43d c081 53bd
000001e0: d933 103e 5afe 7a3e 381f dd3d b829 8b3d
000001f0: e6d0 fdbc 5d72 843e 55e8 743e 3eb6 89bb
00000200: 243c 2b3d f27c 9dbd 5c21 383e ce0a 183e
00000210: 868f 39bd 8382 71bd 39c4 bc3d 002d 7c3e
00000220: 13e8 bfbc 66d5 edbd 65cf 103d 26c7 11bd
00000230: 92e9 803c 80a6 513e cc1f 47bd a915 403d
00000240: e5fb 243d 0a67 f43d c069 cbbd 56f0 98bd
00000250: 5546 b93d 9320 57bd caa9 c63d 6f93 26bd
00000260: 649c 4f3e 1931 1c3e ee26 cf3d 031f 323e
00000270: 3ac1 3a3e e8f4 403e b48e 743d f991 1dbc

model.rnn.weight_ih_l1 f4 [160, 40]
-0.038586855 -0.020236164 -0.05983764 0.13795471 -0.035004362 0.24253839 -0.24549185 -0.25212306
-0.2581818 0.08992292 0.16006464 -0.0712148 -0.21526517 -0.040403623 0.084275424 -0.109885976
-0.09040458 -0.06044772 -0.02421453 -0.17259358 0.014530031 0.102432795 0.018558193 -0.03244745
-0.037895232 -0.14615364 -0.0127277775 0.13460258 -0.018724542 -0.016040264 0.00046991903 0.10414768
-0.18656181 -0.055481955 0.0022676021 0.051754452 0.052900933 -0.104734994 -0.078674845 0.07634319
-0.15582693 -0.23772916 0.110624515 0.32671103 -0.13332175 0.008619638 -0.45102432 -0.018130489
-0.42176476 0.1145597 0.116553485 -0.01935186 -0.30779916 -0.21369936 0.19087003 -0.44680896
-0.16434918 -0.06858168 -0.18883298 -0.2658428 -0.18759935 0.0033930284 -0.16099174 0.076087564
-0.070186496 -0.012846217 0.022492642 -0.121202834 0.17870186 0.07199531 -0.27786267 0.12918639
-0.144029 0.21314554 -0.36113507 -0.04472525 0.06789516 -0.41683722 -0.26408073 0.02538313
-0.03250681 -0.022144454 0.08899263 0.1389695 -0.10141002 -0.06806429 -0.14243697 -0.2327979
-0.13283369 -0.061493404 -0.08362319 -0.17212878 -0.03647618 -0.020208392 -0.03490646 -0.009370903
-0.09054381 0.37636375 -0.025586782 -0.117446534 0.06952 0.03411511 0.08575068 -0.021962637
0.0015710304 -0.16197942 0.14637947 0.017272929 0.10507352 0.07742537 -0.0019291551 -0.07428642
0.011669455 0.12519474 0.07408038 -0.15644208 0.32752514 -0.3995951 0.050276503 -0.18810812
-0.07620887 0.022247707 -0.14614913 -0.06881092 0.049757395 0.16110413 0.11794954 0.10214853
-0.019851033 0.02226392 0.12190781 -0.16075487 -0.11973863 -0.059436265 -0.057242367 -0.108450174
0.027189195 -0.112978995 0.112123 -0.15442139 -0.03490596 0.055222712 -0.050206594 0.16470475
0.058883775 -0.030740459 0.040661465 0.12707315 0.12173573 -0.111834936 0.0639683 0.09055135
-0.055324562 0.14344123 -0.115278095 -0.15172079 0.0793218 -0.046212636 0.038894884 -0.11771361
-0.124251194 -0.09654163 -0.24849963 -0.10103088 0.12020916 0.11161928 0.05258321 0.024245687
0.13675988 -0.16347124 0.06526576 0.15213779 -0.03648354 -0.109364234 -0.0309573 0.06458949
0.059310846 0.04411084 0.13363706 0.108251356 0.030382771 -0.18107337 0.17145422 -0.03954021
0.13858017 0.13803393 0.09969023 0.10699047 -0.15628324 -0.16388544 0.11924589 -0.076104134
0.105722316 -0.20381385 0.023232551 0.077373855 -0.18018207 0.21526414 0.075097874 0.056068685
-0.34564215 -0.25633496 0.28193673 0.3120002 -0.24190688 0.03935345 -0.35504264 -0.017884556
-0.35007924 0.014775108 0.040019006 -0.18340701 -0.14789435 -0.15184678 0.24865492 -0.33281964
-0.26985595 0.09373273 -0.058618665 -0.05023093 -0.18206613 0.15594791 0.03711878 0.11763378
-0.07838222 -0.24064611 0.2575207 -0.03468868 0.29375383 0.06136951 -0.084034726 -0.010698958
-0.13804433 0.19707519 -0.16412917 -0.25774354 0.2505613 -0.32822442 -0.3545881 -0.10086845
-0.024246303 -0.083655536 0.11278273 0.13559675 -0.052226737 0.086261004 -0.083273545 0.09127395
-0.07322005 0.20053844 0.119344175 -0.05502768 -0.17555161 -0.02782632 -0.05165167 -0.103495434
00000000: 400d 1ebd 50c6 a5bc 5018 75bd 0044 0d3e
00000010: bc60 0fbd fc5b 783e 3762 7bbe 4616 81be
00000020: 6830 84be 8229 b83d fce7 233e 11d9 91bd
00000030: 796e 5cbe 457e 25bd 9898 ac3d e60b e1bd
00000040: 0926 b9bd 0798 77bd 8d5d c6bc 5fbc 30be
00000050: 5e0f 6e3c 49c8 d13d 5a07 983c 9ee7 04bd
00000060: 0838 1bbd 4da9 15be 2b88 50bc 42d5 093e
00000070: 3664 99bc df66 83bc 775f f639 614b d53d
00000080: 0f0a 3fbe 0c41 63bd 0d9c 143b 7afc 533d
00000090: a6ae 583d 4d7f d6bd 4720 a1bd d259 9c3d
000000a0: 1891 1fbe 466f 73be 1b8f e23d ab46 a73e
000000b0: 7f85 08be 6239 0d3c a9ec e6be 6486 94bc
000000c0: 8df1 d7be 479e ea3d 98b3 ee3d cb87 9ebc
000000d0: da97 9dbe 01d4 5abe 6f73 433e 25c4 e4be
000000e0: 274b 28be 8d74 8cbd 6f5d 41be 8c1c 88be
000000f0: 0b1a 40be 925d 5e3b 05db 24be ccd3 9b3d
00000100: f0bd 8fbd f078 52bc 7d42 b83c 3139 f8bd
00000110: 9ffd 363e 4772 933d 0444 8ebe 7049 043e
00000120: 577c 13be d342 5a3e b2e6 b8be d331 37bd
00000130: 9e0c 8b3d b06b d5be 9735 87be 48f0 cf3c
00000140: dc25 05bd 4968 b5bc c541 b63d 054e 0e3e
00000150: 0eb0 cfbd 4a65 8bbd ffda 11be 9362 6ebe
00000160: 8e05 08be 82e0 7bbd a342 abbd 8742 30be
00000170: 0c68 15bd 128c a5bc 14fa 0ebd 6a88 19bc
00000180: 086f b9bd c0b2 c03e 5f9b d1bc cf87 f0bd
00000190: 8060 8e3d 49bc 0b3d 0d9e af3d fdea b3bc
000001a0: 08eb cd3a efdd 25be 80e4 153e f57f 8d3c
000001b0: c930 d73d 3191 9e3d b4db fcba 7b23 98bd
000001c0: 3e31 3f3c 0d33 003e 74b7 973d 5a32 20be
000001d0: 60b1 a73e bb97 ccbe bcee 4d3d 6a9f 40be
000001e0: 6513 9cbd d340 b63c 1ea8 15be bdec 8cbd
000001f0: 69ce 4b3d 7bf8 243e 878f f13d 4033 d13d
00000200: a29e a2bc d362 b63c cdaa f93d ed9c 24be
00000210: 8739 f5bd 7173 73bd f976 6abd 201b debd
00000220: e0bb de3c 8861 e7bd bea0 e53d a420 1ebe
00000230: 8df9 0ebd 3631 623d 6ea5 4dbd 5da8 283e
00000240: 1d30 713d 6ad3 fbbc a38c 263d 771f 023e
00000250: 9550 f93d b709 e5bd d001 833d fc72 b93d
00000260: 029c 62bd 42e2 123e ec16 ecbd b25c 1bbe
00000270: 7873 a23d 7649 3dbd 3e50 1f3d d513 f1bd
00000280: 6977 febd 9eb7 c5bd b076 7ebe 47e9 cebd
00000290: 3830 f63d a698 e43d 7e61 573d e49e c63c
000002a0: c80a 0c3e 0165 27be 0eaa 853d 02ca 1b3e
000002b0: c46f 15bd 5bfa dfbd 2a9a fdbc 7f47 843d
000002c0: eeef 723d 91ad 343d 27d8 083e e3b2 dd3d
000002d0: 4ae5 f83c 4c6b 39be b291 2f3e eaf4 21bd
000002e0: f6e7 0d3e c458 0d3e 642a cc3d d21d db3d
000002f0: b708 20be 96d1 27be 3037 f43d 7cdc 9bbd
00000300: f184 d83d 94b4 50be 3152 be3c 2f76 9e3d
00000310: a681 38be 346e 5c3e eacc 993d 47a8 653d
00000320: 02f8 b0be 563e 83be 035a 903e 7dbe 9f3e
00000330: 70b6 77be 1531 213d 26c8 b5be a282 92bc
00000340: 963d b3be 4b13 723c f8ea 233d 0ccf 3bbe
00000350: 9e71 17be b97d 1bbe 659f 7e3e 5667 aabe
00000360: 8f2a 8abe f2f6 bf3d 201a 70bd f3be 4dbd
00000370: 8b6f 3abe cfb0 1f3e dd09 183d fbe9 f03d
00000380: db86 a0bd ef6b 76be c1d9 833e b815 0ebd
00000390: e766 963e 985e 7b3d 661a acbd af4a 2fbc
000003a0: 7e5b 0dbe 14ce 493e 7a11 28be f6f6 83be
000003b0: 9249 803e 080d a8be 928c b5be 1e94 cebd
000003c0: 2fa0 c6bc 9853 abbd a2fa e63d e0d9 0a3e
000003d0: b4eb 55bd 9ca9 b03d 528b aabd d6ed ba3d
000003e0: 65f4 95bd f359 4d3e b86a f43d b464 61bd
000003f0: cdc3 33be 06f4 e3bc b490 53bd 6af5 d3bd

model.rnn.weight_hh_l1 f4 [160, 40]
0.025350232 0.052321922 0.09590215 -0.1522644 0.010618637 -0.0375995 0.05360672 0.041008092
0.077352226 -0.117103696 0.046361543 0.028065084 0.11209268 0.15568289 -0.12823337 0.13816175
0.07556729 0.05750706 0.1780313 -0.05739436 0.102731094 -0.017404286 0.089665204 -0.07167881
-0.06989267 0.07631517 -0.121274404 0.07605952 0.04307802 0.1329582 -0.044421736 0.134305
0.12960654 0.06991874 0.09521317 0.12870665 -0.016002825 -0.026598096 -0.004094603 -0.08511381
0.11112293 0.04626545 -0.046923026 0.013315667 0.09017679 -0.12882094 0.061315715 0.030472625
0.09866108 -0.13040447 -0.06591649 0.10453486 -0.13998637 0.12317206 0.12213041 -0.028589962
-0.08921962 0.096243665 -0.01950732 -0.042970445 0.07367981 8.9437235e-05 0.06455555 -0.024228713
-0.04705828 -0.055713817 0.12547262 -0.09313085 0.11794225 -0.10301154 0.12561607 0.100193314
-0.03347508 -0.054348346 0.046199504 -0.11840819 -0.13185422 -0.12775499 0.13913131 0.18149315
-0.013172439 -0.0985545 0.25882053 -0.16594175 -0.027648134 -0.13714887 -0.018236345 0.06394754
-0.014128152 -0.041490324 -0.13618211 0.095180005 -0.12108439 -0.01858626 -0.043690138 -0.17198057
-0.11980139 -0.116368175 0.14818957 -0.017814081 0.13969992 0.034832858 -0.11719952 -0.013431103
0.11588687 -0.07836284 -0.12353407 -0.11799038 -0.039027862 0.033597838 -0.054013383 0.13516256
-0.1529717 0.021481479 0.012684718 -0.06435851 0.11020173 -0.15689452 0.1036622 -0.013607893
-0.08729378 0.08794051 -0.18318966 0.040215097 -0.14825541 0.13107102 -0.1042982 -0.04957509
0.031779755 0.07122678 -0.009932087 0.05810769 -0.014494642 0.16430959 -0.13876444 -0.08966686
0.1496431 0.074433595 -0.10729609 -0.087112345 -0.16339853 -0.06867939 0.16648017 -0.17072442
-0.06816859 0.1675249 0.12929258 0.12618494 -0.104796425 0.12853098 0.017696856 0.07392876
-0.10833604 0.03946152 0.09499993 0.12685433 -0.062201627 -0.045032214 -0.16308373 0.0075942953
0.07325124 -0.15267834 -0.07138983 -0.10340746 -0.025909552 0.05031812 0.089202635 -0.0013825595
0.15585181 -0.15881237 0.017374292 -0.07435251 -0.07388788 0.04432652 0.19818777 -0.16011424
0.1152714 0.04314938 0.1574364 0.10192877 -0.197139 -0.1275228 -0.19206509 -0.06932034
-0.042724036 -0.119116634 0.12631415 0.17895897 0.030758161 0.0460592 0.12023484 -0.0020590862
0.042961825 0.11300272 -0.038341165 0.16868602 0.01773055 -0.07236964 -0.098048866 0.09187558
-0.076947115 0.005749861 -0.01514599 0.012576557 0.07724267 -0.060995206 -0.21706207 -0.10830172
-0.0311259 -0.06784981 -0.029716132 -0.0705513 0.06491126 0.12689073 -0.037943438 0.17343663
0.15045173 0.21869546 0.22918794 -0.09740971 -0.04251164 0.1853238 0.105461985 0.17127791
0.2023381 -0.095698066 -0.048484195 -0.10673795 -0.0928214 0.032776706 0.05944435 -0.013289977
-0.022178777 -0.07002929 0.1377561 0.032977648 -0.018479845 -0.15822665 -0.03072644 -0.043656375
-0.21528001 0.032507926 0.17016199 0.031594824 -0.028163647 -0.16998982 0.038008295 0.13998123
-0.20821662 0.07992554 0.11262863 -0.00914175 -0.024788506 0.20690022 0.14618891 0.200473
00000000: 4aab cf3c 834f 563d 5968 c43d 33eb 1bbe
00000010: cbf9 2d3c ef01 1abd b892 5b3d 1af8 273d
00000020: d86a 9e3d 10d4 efbd 9ae5 3d3d bfe8 e53c
00000030: d990 e53d 566b 1f3e 9c4f 03be 467a 0d3e
00000040: 06c3 9a3d 868c 6b3d d64d 363e 5916 6bbd
00000050: ae64 d23d 6f93 8ebc 64a2 b73d 57cc 92bd
00000060: e323 8fbd 214b 9c3d b75e f8bd 18c5 9b3d
00000070: 9472 303d 3226 083e 91f3 35bd 4087 093e
00000080: 94b7 043e 8e31 8f3d 1fff c23d adcb 033e
00000090: 5b18 83bc 40e4 d9bc 052c 86bb 2650 aebd
000000a0: 6b94 e33d d780 3d3d 5c32 40bd f529 5a3c
000000b0: 9cae b83d a3e9 03be 3026 7b3d baa1 f93c
000000c0: d20e ca3d c088 05be 3aff 86bd 5f16 d63d
000000d0: 9658 0fbe a241 fc3d 821f fa3d 7f35 eabc
000000e0: c7b8 b6bd 661b c53d d1cd 9fbc c701 30bd
000000f0: 71e5 963d 4090 bb38 b335 843d 4b7b c6bc
00000100: 2fc0 40bd 2c34 64bd e57b 003e 63bb bebd
00000110: b58b f13d b7f7 d2bd 80a1 003e 2732 cd3d
00000120: 2a1d 09bd 5f9c 5ebd b13b 3d3d fe7f f2bd
00000130: cb04 07be 34d2 02be 7078 0e3e 57d9 393e
00000140: 37d1 57bc f1d6 c9bd 2084 843e a2ec 29be
00000150: 577e e2bc c170 0cbe 6364 95bc eef6 823d
00000160: c479 67bc c2f1 29bd 5373 0bbe bced c23d
00000170: 18fb f7bd 3642 98bc 6ef4 32bd ad1b 30be
00000180: 6e5a f5bd 7052 eebd 02bf 173e d6ee 91bc
00000190: 7f0d 0f3e e6ac 0e3d 4d06 f0bd 210e 5cbc
000001a0: 1856 ed3d b27c a0bd 6eff fcbd f1a4 f1bd
000001b0: aedb 1fbd e39d 093d 233d 5dbd 0e68 0a3e
000001c0: 9da4 1cbe edf9 af3c 90d3 4f3c 65ce 83bd
000001d0: 72b1 e13d f5a8 20be d94c d43d a4f3 5ebc
000001e0: 15c7 b2bd 271a b43d 1296 3bbe 96b8 243d
000001f0: 44d0 17be 7b37 063e 4b9a d5bd 400f 4bbd
00000200: 7d2b 023d 59df 913d 31ba 22bc 5402 6e3d
00000210: ef7a 6dbc c640 283e 4418 0ebe 42a3 b7bd
00000220: 0a3c 193e a470 983d 0dbe dbbd f567 b2bd
00000230: f251 27be c8a7 8cbd c779 2a3e 62d2 2ebe
00000240: f99b 8bbd a68b 2b3e 4665 043e a036 013e
00000250: 829f d6bd a09d 033e fff8 903c f667 973d
00000260: 49df ddbd 67a2 213d 538f c23d 1ae6 013e
00000270: 22c7 7ebd b373 38bd 6cff 26be 91d9 f83b
00000280: bf04 963d b657 1cbe d534 92bd 4ac7 d3bd
00000290: 4540 d4bc 5f1a 4e3d dfaf b63d 0037 b5ba
000002a0: 9e97 1f3e b69f 22be 8854 8e3c 2146 98bd
000002b0: 8752 97bd ba8f 353d bcf1 4a3e fdf4 23be
000002c0: 6913 ec3d 67bd 303d 0237 213e 08c0 d03d
000002d0: cede 49be 5695 02be b6ac 44be d3f7 8dbd
000002e0: 66ff 2ebd 6cf3 f3bd 7f58 013e 0541 373e
000002f0: 8af8 fb3c 92a8 3c3d af3d f63d bcf1 06bb
00000300: bdf8 2f3d f86d e73d a00b 1dbd 07bc 2c3e
00000310: a93f 913c 8936 94bd d8cd c8bd 4429 bc3d
00000320: 7396 9dbd 5469 bc3b e326 78bc e70d 4e3c
00000330: 6831 9e3d 1cd6 79bd 8545 5ebe 4bcd ddbd
00000340: befb febc d7f4 8abd 3f6f f3bc 337d 90bd
00000350: 32f0 843d a5ef 013e 946a 1bbd 5f99 313e
00000360: 0510 1a3e b4f1 5f3e 3eb0 6a3e be7e c7bd
00000370: af20 2ebd 86c5 3d3e 74fc d73d 7a63 2f3e
00000380: b831 4f3e 59fd c3bd 5d97 46bd 6d99 dabd
00000390: 2519 bebd de40 063d eb7b 733d 34be 59bc
000003a0: 44b0 b5bc 846b 8fbd ef0f 0d3e 9213 073d
000003b0: 0b63 97bc 2b06 22be 04b6 fbbc 07d1 32bd
000003c0: 5d72 5cbe 0827 053d f23e 2e3e 9369 013d
000003d0: 73b7 e6bc d011 2ebe 96ae 1b3d 3d57 0f3e
000003e0: bd36 55be 00b0 a33d d7a9 e63d 47c7 15bc
000003f0: 4411 cbbc a7dd 533e 8cb2 153e cb48 4d3e

model.rnn.bias_ih_l1 f4 [160]
0.07515452 0.07718057 0.03988163 0.20266534 0.07486701 0.12050177 -0.0045611635 0.15831062
0.022681443 -0.11601714 0.121708795 0.17050618 -0.12137516 0.07641294 -0.12284811 0.010969902
0.025795672 0.025374502 0.119295165 0.08501529 0.060528684 0.12965351 0.067200795 0.04182835
0.06561065 0.028911354 0.08183975 0.005139989 0.2803913 0.23777355 0.011692775 0.032164436
0.2894639 -0.1318346 0.13183907 0.042648 0.15787166 0.22515412 0.11033896 0.15957233
0.1478034 -0.088434905 0.14093274 0.057074968 -0.009214326 0.056219455 0.0029600563 0.13507372
-0.16237758 -0.099168316 -0.093798555 -0.03670002 0.05051519 -0.06673306 -0.12478847 0.1105586
0.08097377 -0.06807645 0.07175375 -0.06721882 0.05930633 -0.117151335 -0.10449574 0.16717164
-0.024392558 -0.047846418 -0.10468603 -0.13209502 -0.040686414 0.017736284 -0.12916008 -0.06775524
0.010138898 -0.09606302 0.1811998 0.0650138 0.0940637 0.005137446 -0.09131065 0.15913226
-0.2016116 -0.07469828 0.045442693 -0.1472822 0.027848346 -0.006485134 0.15200065 0.056589577
0.08811684 -0.040049277 0.13559367 0.04620265 -0.061702162 0.1471073 -0.12148669 0.13962774
0.1632688 0.004546307 0.0818857 -0.16101725 0.116352014 0.17171802 -0.12206358 0.08219887
-0.029224461 -0.06188413 6.284598e-05 -0.121495105 0.012868782 -0.11480737 0.23891516 0.041738573
-0.077534705 0.043920174 0.11419964 -0.18878514 -0.059592996 0.115555294 0.025107438 0.09300909
0.09941884 0.22417742 -0.14275143 -0.0074434057 -0.14924589 0.1047273 -0.059953675 -0.031287923
0.049237553 -0.027184121 -0.095711485 -0.090345636 -0.045865778 -0.058352787 0.054850366 -0.08224672
0.031684514 0.13660866 0.07523747 0.008161257 0.072293654 0.016267529 0.013394981 0.051283382
0.14561255 0.008100578 0.16511284 -0.027078182 0.15769503 0.13604923 0.18862994 0.01224799
0.20815238 -0.05048477 0.041969568 -0.01012777 0.1945094 0.12939578 0.018086111 0.018653518
00000000: 9dea 993d d910 9e3d ec5a 233d 8187 4f3e
00000010: e053 993d a2c9 f63d d075 95bb 2e1c 223e
00000020: 6fce b93c 659a edbd 7642 f93d 2c99 2e3e
00000030: 8a93 f8bd 637e 9c3d ca97 fbbd 1bbb 333c
00000040: 7251 d33c 30de cf3c 0651 f43d 7f1c ae3d
00000050: edec 773d e4c3 043e 92a0 893d 3454 2b3d
00000060: e05e 863d 81d7 ec3c 999b a73d 5a6d a83b
00000070: 738f 8f3e e97a 733e 0e93 3f3c dbbe 033d
00000080: 9d34 943e a6ff 06be d200 073e abaf 2e3d
00000090: 1ca9 213e cd8e 663e 65f9 e13d ee66 233e
000000a0: c659 173e 5c1d b5bd ac50 103e 71c7 693d
000000b0: aff7 16bc 5f46 663d 81fd 413b c450 0a3e
000000c0: 4f46 26be c218 cbbd 7519 c0bd c352 16bd
000000d0: 04e9 4e3d 58ab 88bd 1991 ffbd 8c6c e23d
000000e0: 93d5 a53d aa6b 8bbd a1f3 923d 05aa 89bd
000000f0: 32eb 723d 0aed efbd dd01 d6bd 0b2f 2b3e
00000100: e7d2 c7bc 9bfa 43bd a165 d6bd eb43 07be
00000110: cca6 26bd af4b 913c 8a42 04be 42c3 8abd
00000120: 9f1d 263c b0bc c4bd 718c 393e f525 853d
00000130: 78a4 c03d 0558 a83b 1401 bbbd 91f3 223e
00000140: 4573 4ebe 69fb 98bd 1e22 3a3d 25d1 16be
00000150: 3722 e43c 3f81 d4bb 0fa6 1b3e 79ca 673d
00000160: 9a76 b43d b60a 24bd 11d9 0a3e fd3e 3d3d
00000170: 68bb 7cbd 4ca3 163e 04ce f8bd 93fa 0e3e
00000180: f02f 273e 30f9 943b b1b3 a73d b5e1 24be
00000190: f749 ee3d d9d6 2f3e 78fc f9bd e257 a83d
000001a0: 2368 efbc 377a 7dbd 2ecc 8338 6dd2 f8bd
000001b0: 95d7 523c 2020 ebbd 2da6 743e 11f6 2a3d
000001c0: 84ca 9ebd a4e5 333d 80e1 e93d e450 41be
000001d0: c917 74bd 41a8 ec3d 1dae cd3c 8d7b be3d
000001e0: 1b9c cb3d c48e 653e 6e2d 12be d0e7 f3bb
000001f0: ead3 18be 447b d63d fc91 75bd c427 00bd
00000200: 51ad 493d 3cb1 debc 6204 c4bd 2207 b9bd
00000210: c1dd 3bbd 5503 6fbd c7aa 603d f870 a8bd
00000220: 9fc7 013d 24e3 0b3e 1a16 9a3d cbb6 053c
00000230: b20e 943d 7b43 853c 9f76 5b3c 860e 523d
00000240: 751b 153e 49b8 043c 5713 293e 10d3 ddbc
00000250: ce7a 213e 7d50 0b3e 3528 413e cbab 483c
00000260: e625 553e 1ec9 4ebd 48e8 2b3d f2ee 25bc
00000270: 792d 473e 5480 043e 5329 943c 43cf 983c

model.rnn.bias_hh_l1 f4 [160]
0.17525856 0.2120677 0.09693225 -0.06513601 0.0722411 0.093897484 0.016156962 -0.01087234
0.13477962 -0.025754604 -0.060636856 -0.00916199 -0.0693571 -0.1399208 0.011105212 -0.015904285
0.16950636 0.19039242 0.13927706 0.12396269 -0.011512956 -0.057863936 0.029337011 0.17556553
0.035712108 0.044572696 0.043951664 0.14326763 0.12560001 0.15287685 0.2823605 0.14407721
0.023628403 -0.05501397 -0.060399737 -0.004033772 0.10564201 0.07434764 0.13772489 0.1328311
-0.08512479 0.07909178 -0.10697819 -0.01849542 0.122247495 0.15355264 -0.053574897 0.09599928
-0.008298429 -0.0023421128 -0.06834415 0.04064225 -0.077910855 0.10404676 0.09016486 -0.1684985
-0.060517948 -0.021934511 0.051878627 0.03364084 -0.16580911 -0.04975901 0.058522563 -0.019608825
-0.08873318 0.005251525 0.1605671 -0.1512426 -0.025104461 -0.0077163074 0.0083165215 0.075832814
-0.061058152 0.020727107 0.050775245 -0.005550518 -0.0184919 0.09544107 0.050353996 -0.058946315
0.007990828 0.0726418 0.007379878 -0.01724013 -0.12240489 -0.12920448 -0.13375473 -0.07100977
0.089457 -0.01773931 0.14596456 -0.13488786 0.17924239 0.13437805 -0.029019104 -0.110064566
0.058015086 -0.05406152 0.06598368 -0.09267799 -0.10056525 0.00024167105 -0.078643374 0.09052739
0.024589278 -0.080526456 -0.12591478 -0.052154474 -0.20903347 0.029560566 0.055875815 0.1472934
0.22020043 0.11057462 0.14935559 -0.19048126 -0.17887603 -0.08186119 0.045179628 0.11199761
0.23974119 0.08136887 -0.037642784 0.16652766 0.13072959 0.23749243 0.13714334 0.048100896
0.1582458 0.14207609 0.11338184 -0.04904417 0.011091327 -0.060665533 0.12753254 -0.060735054
0.14004208 0.24743943 0.1276231 0.035010837 -0.040555447 -0.09220433 0.20339343 -0.0003447836
0.118456855 0.0059268414 0.17714092 -0.055522367 0.05898437 0.26130122 0.15536547 0.11918274
0.20814203 0.016644632 -0.07575609 0.10266286 0.16291146 0.17204891 0.1931727 0.065549426
00000000: fb76 333e 4628 593e 6a84 c63d 0766 85bd
00000010: 24f3 933d 534d c03d 9b5b 843c e621 32bc
00000020: ab03 0a3e 52fb d2bc 5a5e 78bd 2c1c 16bc
00000030: 180b 8ebd 6647 0fbe a3f2 353c b449 82bc
00000040: 1393 2d3e 3bf6 423e a59e 0e3e 27e0 fd3d
00000050: d6a0 3cbc bc02 6dbd 2c54 f03c 73c7 333e
00000060: dc46 123d dc91 363d a906 343d c0b4 123e
00000070: 4a9d 003e c08b 1c3e 8e91 903e fa88 133e
00000080: 5a90 c13c 5456 61bd b765 77bd bb2d 84bb
00000090: d75a d83d 9343 983d c107 0d3e e004 083e
000000a0: e855 aebd dffa a13d 6217 dbbd b583 97bc
000000b0: e55c fa3d e73c 1d3e 5a71 5bbd 459b c43d
000000c0: 22f6 07bc 227e 19bb 05f8 8bbd 7d78 263d
000000d0: ba8f 9fbd 7816 d53d 5ba8 b83d df8a 2cbe
000000e0: abe1 77bd 01b0 b3bc af7e 543d faca 093d
000000f0: ddc9 29be 1bd0 4bbd 5bb5 6f3d b0a2 a0bc
00000100: beb9 b5bd fc14 ac3b b46b 243e 57df 1abe
00000110: dfa7 cdbc 14d9 fcbb 0542 083c 3c4e 9b3d
00000120: 1d18 7abd e5cb a93c b4f9 4f3d 1fe1 b5bb
00000130: 537c 97bc 9c76 c33d fe3f 4e3d b171 71bd
00000140: f6eb 023c 39c5 943d e7d2 f13b 2c3b 8dbc
00000150: 6aaf fabd 2e4e 04be 00f7 08be 926d 91bd
00000160: 3b35 b73d 0852 91bc bc77 153e 0b20 0abe
00000170: 518b 373e 669a 093e 79b9 edbc 8869 e1bd
00000180: 3aa1 6d3d 9d6f 5dbd 7422 873d f5cd bdbd
00000190: 27f5 cdbd 1469 7d39 c70f a1bd 6d66 b93d
000001a0: 746f c93c 0eeb a4bd ceef 00be ee9f 55bd
000001b0: df0c 56be 0029 f23c 0ade 643d 15d4 163e
000001c0: 397c 613e f274 e23d acf0 183e 850d 43be
000001d0: 472b 37be d7a6 a7bd 460e 393d 015f e53d
000001e0: b77e 753e b9a4 a63d 522f 1abd 3a86 2a3e
000001f0: fadd 053e 3731 733e 4e6f 0c3e 7205 453d
00000200: 300b 223e 657c 113e bd34 e83d 8ae2 48bd
00000210: 66b8 353c 6c7c 78bd e497 023e 52c5 78bd
00000220: 3167 0f3e c360 7d3e a1af 023e 8667 0f3d
00000230: 781d 26bd a0d5 bcbd 5e46 503e 12c4 b4b9
00000240: 8299 f23d f335 c23b 6e64 353e 6c6b 63bd
00000250: 9899 713d 46c9 853e 2018 1f3e 1516 f43d
00000260: 2f23 553e 535a 883c 0226 9bbd e840 d23d
00000270: 43d2 263e 972d 303e 10cf 453e c73e 863d
