generate_forecasts/output/Local_Forecasts/Dairy products and eggs/2025/models/DeepAR/W0/gluon_ts/prediction-net-state.pt (torch, 97628 bytes, 11 tensors)

model.param_proj.proj.0.weight f4 [1, 40]
000000 8d 95 e5 bc da 4f 81 3e 90 e9 32 3e 01 a0 0d be
       -0.028025413 0.25256234 0.1747191 -0.13830568
000010 46 77 cf 3e 32 96 4f be 44 d1 1a be de 96 1e 3e
       0.40520686 -0.20272139 -0.15118891 0.15487239
000020 a3 10 d1 bd 5b 9e f4 bd 28 12 24 bd 46 51 c9 bd
       -0.10208251 -0.119442664 -0.040056378 -0.09829955
000030 b3 c1 1b be 41 da 7b 3d 19 78 c8 3d 05 eb 61 3e
       -0.15210609 0.06148744 0.09788532 0.22062309
000040 73 0f 10 3e 49 c0 55 3d 02 d1 1a 3e d3 53 80 be
       0.14068393 0.05218533 0.15118793 -0.25063953
000050 db 5d 4c bd cb ac e2 bc f6 9e 0d be 78 5d 60 3e
       -0.049894195 -0.027670285 -0.1383017 0.21910655
000060 26 f4 89 3e aa 9b 0d be 37 bd c4 bd 7c 63 e8 3d
       0.26944083 -0.13828912 -0.09606402 0.113471
000070 30 48 65 be 98 3f 21 be 46 3e 80 3e 8f 0d 4f 3e
       -0.22390819 -0.15746915 0.2504751 0.20220016
000080 77 42 8d 3e 7f 5b fe bc af d5 73 3d 01 20 4a be
       0.2758977 -0.031049488 0.059529956 -0.19738771
000090 a4 58 af bd e5 66 f3 bd b8 0c b1 3d 6a cf 1e 3e
       -0.08561829 -0.1188486 0.08645004 0.1550881

model.param_proj.proj.1.weight f4 [1, 40]
000000 13 f4 24 be b3 66 11 3e 43 52 04 3e 69 6c ff bd
       -0.16108732 0.14199333 0.12922005 -0.124718495
000010 dd 0e 5b bc ab 28 27 be 2c 48 20 3d 37 42 5b 3d
       -0.013370243 -0.16324107 0.03913133 0.053529944
000020 2e 5e 29 be cc 0b cc 3c aa a7 2f 3e 4d a5 91 3c
       -0.16539833 0.024907969 0.17153803 0.017779017
000030 51 71 3b 3d 02 a8 e0 3d 84 c0 d7 bd 71 eb c6 3d
       0.045762364 0.10969545 -0.10534766 0.09712876
000040 87 4d 1b 3e 5c 30 bd 3c 40 55 b4 bd cd 89 27 be
       0.15166293 0.023094349 -0.08805323 -0.1636116
000050 5b 5d b5 3d 2f c7 e8 3d 77 34 95 3c db be 54 3d
       0.08855697 0.11366116 0.018213494 0.051939826
000060 60 cc fe 3d df cf 38 3d 13 19 94 bd 97 69 a4 3b
       0.12441325 0.045120116 -0.07231345 0.00501747
000070 89 32 bd bd e7 ce c8 bc 82 a3 6f 3d 5c 0c f2 3d
       -0.092381544 -0.024512721 0.058505543 0.118187636
000080 8a 36 ca 3c 82 05 b6 bc 6e a2 d1 3a 07 1c 96 39
       0.02468421 -0.022219423 0.0015993842 0.00028631111
000090 23 c7 02 be 4a f7 11 ba 84 7b 98 3d bc 6e d7 bc
       -0.12771277 -0.000556816 0.07445434 -0.02629792

model.param_proj.proj.2.weight f4 [1, 40]
000000 73 5e 5b 3e ab 65 1c be d4 fd 8f ba 95 f2 e9 3d
       0.21422748 -0.15273158 -0.0010985681 0.11423222
000010 ce 75 7b be fc 8c 83 3e fe cc fe 3d 97 d3 3e be
       -0.24556658 0.256935 0.12441443 -0.18635403
000020 4c 0a cf 3c 6d 0e 21 3e 35 49 a4 bb 54 3e 0d 3e
       0.025273465 0.15728159 -0.00501361 0.13793308
000030 7e 62 1b 3e 47 6d 08 be 08 56 30 bd bb 3c 10 bd
       0.1517429 -0.13322936 -0.043050796 -0.035214167
000040 18 b6 6f bd e7 16 28 be ed a1 2c be 1a bb 8e bd
       -0.058523268 -0.16414987 -0.16858645 -0.069692805
000050 2d fb 04 3e 0b 97 8c bc ac ea 49 3e cd c1 3f be
       0.12986441 -0.017161867 0.19718426 -0.18726273
000060 d2 5e 89 be cb b2 5a 3e f6 49 74 be 3d c0 bb bd
       -0.26830155 0.21357267 -0.23856339 -0.09167526
000070 33 97 07 3e 7f 4a 7c 3e 8b f8 5d be dd 08 31 be
       0.13241272 0.24637793 -0.21676843 -0.17288537
000080 bf bc 00 be 5d 53 92 be 67 9f d3 bd 3b 32 19 3e
       -0.12572001 -0.28579226 -0.10333138 0.14960568
000090 a4 ae 99 3e c8 69 f4 3d a5 cd 81 be 60 2c 67 be
       0.30016053 0.11934239 -0.25352207 -0.22575521

model.rnn.weight_ih_l0 f4 [160, 21]
000000 23 03 fe 3d b9 42 ad bc 88 97 b8 3d 8d 5d 47 3d
       0.12402942 -0.02114998 0.09013277 0.0486732
000010 20 38 bb bd 87 09 a5 bd cd bf 23 3e 64 22 e1 bc
       -0.09141564 -0.08058458 0.15991135 -0.027482219
000020 2c b6 1b bd 6b 07 c3 3d 52 77 39 3e a9 67 7f 3e
       -0.03801553 0.09522899 0.18111923 0.24941887
000030 64 79 28 3e e0 9e a8 3e 61 1f 30 3e e7 36 b7 3e
       0.16452557 0.32933712 0.1719947 0.35784075
000040 18 3a ba bd a3 f1 bb 3b 2e 3d b2 bc bc e7 27 be
       -0.09093112 0.0057355925 -0.021757688 -0.16396993
000050 9f 36 9a 3c e1 65 e3 3d ad 46 39 3e ff df 80 3e
       0.018824873 0.11103416 0.18093367 0.25170895
000060 80 81 17 3e 76 cc 8b 3d 10 f7 d8 3c 09 9a 04 3e
       0.14795494 0.06826107 0.026484996 0.12949385
000070 02 be 43 3e 3b 01 63 3e 01 ff d1 3a 0d 9a 61 3e
       0.19115451 0.22168438 0.0016021432 0.22031422
000080 1b dd 43 bc 1e 34 21 3d 35 6b 8e 3d 41 22 5e bc
       -0.011954571 0.039356343 0.06954042 -0.013557971
000090 38 69 99 3d 1a 20 df 3d 0c 16 05 bb f1 ee 10 3e
       0.07490772 0.10894795 -0.002030733 0.14153649
0000a0 91 77 b8 be 62 e7 60 3e da 14 01 3e ff 9a 28 3d
       -0.36028722 0.21963266 0.1260561 0.04116344
0000b0 02 0f 3f bd 63 93 13 3e 71 fd ad 3d b6 b3 00 3e
       -0.046645172 0.14411692 0.08495606 0.12568554
0000c0 1c 2b c2 bc eb 51 9f bd 22 b6 bb 3d f5 5e 8b 3d
       -0.023702197 -0.077792965 0.091655985 0.06805221
0000d0 70 6e 1d bd 2f 81 06 3e 9d 0a c0 bd 9c a0 0a be
       -0.0384354 0.13135217 -0.09377024 -0.1353783
0000e0 3e 02 3c 3d 36 f1 11 3e f6 8c c9 3d a7 ae 4f bb
       0.045900576 0.14252171 0.09841339 -0.0031689794
0000f0 3a cc d2 3b ed 06 4e be bf a5 a1 3d 88 5e 8e 3e
       0.006433037 -0.2011983 0.07892942 0.27806497
000100 cb 0c a8 3d 20 43 9f 3e 25 a0 47 3d 48 63 9d 3e
       0.08205565 0.311059 0.04873671 0.30739808
000110 96 13 db 3c b3 98 9e 3d 3c 9f 78 3e 07 e0 67 3e
       0.026742738 0.07743969 0.24279493 0.22644053
000120 9b ad 94 3d f9 44 4f 3d 44 66 0b 3e 36 56 82 3d
       0.07259675 0.050602887 0.1361323 0.063641
000130 c3 32 89 3e ed b4 77 3c d4 f6 5e 3b c7 88 3a 3e
       0.2679654 0.01511882 0.0034021633 0.18216239
000140 17 a2 04 3c 32 65 82 3e ba 12 a5 3c fc bb b1 3d
       0.008095286 0.2546783 0.020150531 0.08678433
000150 ea cf 6b 3e 5a be 94 3e 31 80 1a 3e 3d ce 61 3e
       0.23028532 0.29051477 0.15087964 0.2205133
000160 03 8d 84 3e 33 1d 73 3e dd 94 7e 3e 3e 05 91 3e
       0.25888833 0.23741607 0.24861474 0.28324312
000170 6d 45 67 3c 2a 20 81 3e 4f 4b 5f 3e 26 e7 f5 3c
       0.0141156735 0.25219852 0.21806072 0.030017447
000180 b9 1b 56 3e ab e7 58 3e e7 4c 49 3e 8f 39 9a 3e
       0.20909013 0.21182124 0.19658242 0.3012204
000190 e1 f7 4d 3e b2 bc cc 3a 58 cf 88 3d 18 17 5d 3d
       0.2011409 0.00156202 0.06680173 0.053977102
0001a0 90 35 18 3e bc 21 2f 3e 25 55 e1 3c 4e 13 2d 3e
       0.14864182 0.17102712 0.02750642 0.16901895
0001b0 51 0a 4a bb 16 a8 f2 3d 22 f3 c3 3d 0d 96 88 3d
       -0.0030828903 0.11848466 0.09567858 0.06669245
0001c0 19 ab 20 bc ca 0f 31 3c 5a b1 4b 3e d0 34 eb 3c
       -0.009806418 0.010806987 0.19891873 0.028711706
0001d0 b5 86 d1 3d f1 f5 88 3e 2c 5c 22 3e ee ab ac bc
       0.102307715 0.26750138 0.15855473 -0.021078076
0001e0 fb be 0e 3e 1b 12 1e 3e 01 b2 ec 3a a1 35 3c bc
       0.13940041 0.15436594 0.001805842 -0.0114873955
0001f0 00 54 9b bc 7d 5b 55 3e 40 8a d6 3d 7b 19 09 3e
       -0.018960953 0.20835681 0.10475588 0.13388626
000200 48 be 8c 3e cf 5f 8f 3e ef 35 ad 3e e1 ab de 3d
       0.27488923 0.28002784 0.3383021 0.10872627
000210 66 8f a0 3d 33 0e 6f 3e 54 23 07 3e 00 12 9a 3e
       0.07839851 0.2334526 0.1319707 0.30091858
000220 3f a5 8a 3e fb e2 8f 3d 9b 07 02 3e 5a 66 b1 3d
       0.27079198 0.07025715 0.12698214 0.086621
000230 df 21 90 3e a4 c7 b8 3d c1 b5 c5 3e 2e 26 b1 3a
       0.28150842 0.090224534 0.3861523 0.0013515407
000240 55 71 db 3d 74 36 80 bc 0f 2d 28 3e 74 ee 66 3e
       0.10714976 -0.015650965 0.16423438 0.225519
000250 8c 29 d5 3d a1 c0 9c 3d 71 a0 38 3d 4f 22 9d 3d
       0.10408315 0.076539285 0.045074884 0.076725595
000260 01 d2 98 3a e4 39 0e 3d 10 d9 08 3d a8 10 6b 3e
       0.0011659266 0.034723178 0.033410132 0.22955573
000270 d4 92 67 3e d4 d5 3e 3e 16 41 af 3d e0 a2 96 3d
       0.22614604 0.18636256 0.08557336 0.07355285
000280 4b 8f 7a 3e 45 8f 8f 3e ad f2 06 3e 9d 4b e1 3d
       0.24468724 0.28038993 0.13178511 0.1100075
000290 8d 4e 8b 3b 62 b2 4d 3e 85 98 45 3d 6a 82 75 3d
       0.0042513073 0.20087579 0.048241157 0.059938826
0002a0 64 4c ce 3d bc 71 8e 3e 01 df 17 3e 8b 9e 82 3e
       0.10073164 0.27821147 0.14831163 0.25511584
0002b0 ac ae 19 3e 31 87 22 3e 41 b4 f3 3d c3 17 f7 3d
       0.15008038 0.15871884 0.11899615 0.12065079
0002c0 23 63 ad 3e e7 70 4c 3e e7 b6 70 3e 10 c2 02 3d
       0.33864698 0.19964944 0.23507272 0.031923354
0002d0 79 3e b8 3d 1d b4 ce 3d 96 7b 80 3e 88 3e 12 3d
       0.08996291 0.10092948 0.2509429 0.035704166
0002e0 be 8b b3 3e 83 e2 d0 3b a0 77 40 3d fd f5 95 3d
       0.35067552 0.0063746586 0.046989083 0.07322309
0002f0 68 a9 58 3e c0 ce de bc 60 bb 91 bd a5 13 4c 3e
       0.21158373 -0.027198195 -0.07115817 0.19929369
000300 ce b8 a2 bd 16 36 34 3e bd 67 5e bd 7a 9b 03 bc
       -0.07945405 0.17598757 -0.05429815 -0.008032674
000310 d7 61 01 be 60 6f b9 3d a9 5b 30 be 6d 57 72 3d
       -0.12634979 0.09054446 -0.17222466 0.059165407
000320 69 11 b4 bd 8a f6 87 bd 08 a1 20 3d 94 6e 4f 3e
       -0.08792383 -0.066388205 0.03921607 0.20257026
000330 12 ff 57 3e 2a e1 8e 3d 4f 79 d0 3b 00 8e ce 3d
       0.21093395 0.069765404 0.0063621174 0.10085678
000340 62 a6 90 3d 61 57 5a bd 1b 72 9d 3e 1c d0 83 3e
       0.07062985 -0.053305987 0.30751118 0.25744712
000350 a1 1c 91 3e ae 49 93 3e d5 5a 2a 3e 70 5c 12 3d
       0.28342155 0.2876715 0.16636212 0.035732687
000360 30 1f 28 3e a7 94 24 3e 78 77 f6 3d 6b 06 09 3d
       0.16418147 0.16072331 0.120345056 0.033453386
000370 6d 80 c3 3d c5 82 3b 3d 8b 63 24 3e ad d6 3d 3e
       0.0954598 0.04577901 0.16053598 0.18538924
000380 97 26 5f 3e 04 9a 56 3e 86 68 8b 3d a5 6d dd bb
       0.21792065 0.2095719 0.06807046 -0.0067574554
000390 dd cd 38 3e e1 d8 6d 3c 81 18 bc 3d fe 3d 87 3c
       0.1804728 0.01451704 0.09184361 0.016509052
0003a0 4e 08 50 3e 18 8e 41 3e 85 c3 62 3e 7f d6 8e 3e
       0.20315668 0.1890186 0.22144897 0.27898023
0003b0 87 6a 39 3d 5f e8 10 3e 0c 29 08 3e 58 1c 9b 3d
       0.045267608 0.14151143 0.13296908 0.075737655
0003c0 fc c2 58 3d 41 c5 99 3e e8 ee 04 3e 4f 9c 8c 3e
       0.052920327 0.30033305 0.1298176 0.27463004
0003d0 a9 cb 6f 3e 6b e1 46 3e 67 a6 bc 3d f8 08 b7 3d
       0.23417534 0.19421928 0.09211426 0.089372575
0003e0 5b 26 0b 3b 8b ad 4b 3e ac 26 09 3e 8f 66 c9 3d
       0.0021232578 0.1989042 0.13393658 0.098340146
0003f0 a7 e6 06 3e e8 87 0f 3e 9f 89 52 3e 27 08 86 3e
       0.13173924 0.14016688 0.20560311 0.26178095

model.rnn.weight_hh_l0 f4 [160, 40]
000000 0f 51 c9 bc f5 15 23 be ba d9 b6 3c 55 c7 1d bb
       -0.024574785 -0.15926345 0.022320617 -0.002407511
000010 76 d8 0c be 3e 89 0f 3e 14 34 16 3e d9 78 ef bd
       -0.13754448 0.14017197 0.14668304 -0.11692972
000020 c8 21 75 bd 7b 49 d1 bc 67 95 f7 bd 57 d8 cd bd
       -0.05984667 -0.025547734 -0.12089043 -0.10051029
000030 b6 d9 d3 bd 13 ff 85 3d 1e c1 1d be 2b 7f 06 be
       -0.103442594 0.06542792 -0.154057 -0.13134448
000040 f2 91 4c 3d 96 62 90 be a5 c0 01 3e e4 c1 cc bc
       0.04994387 -0.28200215 0.12671144 -0.024994798
000050 f0 50 29 bd a3 7e c2 3d 75 69 58 3b 72 b0 72 3d
       -0.041336954 0.0949681 0.0033021842 0.059250303
000060 ab 9f b0 bd f1 b5 f1 3d 7b a7 20 3e d1 44 4f be
       -0.08624204 0.11802281 0.15688889 -0.20241095
000070 17 6e 86 3d bb c1 11 3e 8a fe 66 bc b8 cd a0 3c
       0.06563967 0.14234059 -0.014098773 0.019629344
000080 32 26 9c 3d 79 5c a7 3e cc 98 f6 3d 0a b8 8d bd
       0.07624473 0.3268774 0.120408624 -0.06919868
000090 69 7e 1a be 26 68 28 3e 27 05 14 3e 11 89 c6 3d
       -0.15087284 0.1644598 0.1445509 0.09694112
0000a0 44 ae 16 bd df c0 f4 bd 97 89 b1 3d 3f 63 d8 3d
       -0.036787286 -0.1195085 0.08668821 0.10565805
0000b0 e5 16 f3 3d bd 02 e3 bd 3e c9 03 3d cf c2 87 bd
       0.11869601 -0.11084507 0.03217434 -0.06628954
0000c0 18 88 b4 3b d5 63 6a 3d 20 c8 23 3d 57 9e c7 3b
       0.0055093877 0.057224113 0.039985776 0.0060918736
0000d0 67 cd 1f be 01 42 d5 bd 5c 37 6a bc f2 68 21 bd
       -0.15605699 -0.1041298 -0.014295425 -0.039406724
0000e0 48 e9 3e be 62 70 1e be a9 8b 4a be 81 63 ae 3d
       -0.18643677 -0.15472558 -0.19779839 0.085150726
0000f0 65 de 44 3c 2a 7e cf 3d 1e 17 81 3c ce 82 23 bd
       0.012015914 0.10131486 0.015758093 -0.039919667
000100 ca 82 b2 bd f1 4d 14 be 12 41 13 bd d3 90 09 bd
       -0.08716352 -0.14482857 -0.035950728 -0.03358538
000110 d7 61 21 3e 76 bd 68 3d 82 17 d3 bd 31 5f a5 3d
       0.15759979 0.05682131 -0.10307218 0.08074797
000120 9d ca a6 3d e7 3d ec bb 64 ee 10 bd c2 d5 32 3d
       0.08144114 -0.007209528 -0.035383597 0.043660887
000130 fb c2 ae 3b ba 83 2e 3d d4 be 97 3d 92 50 a2 bd
       0.005333302 0.042606093 0.074094445 -0.07925524
000140 36 d1 7c bc 74 83 f1 3d 8b bb 2e bd 33 36 6f 3d
       -0.015430739 0.11792651 -0.042659324 0.058401298
000150 86 92 b4 bc d4 50 03 be 8a a4 c4 3d 9b 8b 0a bd
       -0.022042524 -0.12823802 0.09601696 -0.033824544
000160 74 f3 a1 bd f7 04 f8 3d fc 50 1d 3e df b0 f6 bc
       -0.07907763 0.12110322 0.15362924 -0.030113636
000170 34 17 a5 bd ff 45 34 bc bc 66 e5 bd e0 0f 1d 3d
       -0.08061066 -0.0110030165 -0.11201236 0.038345218
000180 a1 91 44 3e b5 1b 4b bd 54 44 f2 3d b3 af 4c 3c
       0.19196178 -0.04958697 0.11829439 0.012493062
000190 7b a2 6b 3d c7 1e e9 3d ff 02 5c bd e6 c2 11 be
       0.057528 0.113828234 -0.053713795 -0.14234504
0001a0 b2 fb f3 bd 8f 17 65 bd b8 f4 89 3d 8e b5 b6 3d
       -0.119132414 -0.05593067 0.067361295 0.089213476
0001b0 7e 75 43 bd d6 97 e5 3d d8 d6 ae 3d 81 98 2f 3e
       -0.04771947 0.11210601 0.08537072 0.1714802
0001c0 93 9a 91 3d db 82 11 3d e1 61 b7 bd 09 26 38 3a
       0.07109561 0.035525184 -0.08954216 0.00070247106
0001d0 22 6c 01 3e ed af 32 3e 20 31 1f bc 1b e3 74 bd
       0.12638906 0.17449923 -0.009716302 -0.059786897
0001e0 af 4d 39 be bf 8e d6 3d a3 89 09 3e d5 c9 87 bd
       -0.1809604 0.104764454 0.1343141 -0.06630293
0001f0 3c 85 5c be d5 63 15 ba d5 a3 5b 3c 2c 72 9a 3d
       -0.215352 -0.0005698775 0.01340576 0.07541308
000200 d0 5f 38 bd 1e e5 af 3d b7 9f 3e 3e 8c af c6 3d
       -0.04501325 0.085886225 0.18615614 0.09701452
000210 3a 0a f8 3c 39 92 b4 3b 55 04 7f 3d a1 4e 55 be
       0.030278314 0.005510595 0.06225999 -0.20830776
000220 da 96 b7 bb a5 18 0f 3e 3f 38 f7 3a fc 19 f6 bd
       -0.0056026997 0.13974245 0.0018861367 -0.12016675
000230 08 ae 15 be 71 3d c0 bd 97 7f 6e 3c 55 a3 fc 3d
       -0.14617169 -0.09386719 0.014556787 0.123358406
000240 05 3f 8f bd de ef d4 3d 18 34 47 3e 2d 95 8f 3c
       -0.06994442 0.103973135 0.19453466 0.017527187
000250 ea 11 46 3e b2 38 d2 bd 82 5c be 3d 72 31 a9 3d
       0.19342771 -0.1026472 0.09294988 0.08261384
000260 66 3b 6e be 0a 74 e7 3d 7a 83 34 be be 31 bc 3b
       -0.23264846 0.113014296 -0.1762828 0.0057432344
000270 4d 5e d7 bd 4f 4c 96 bd c3 34 df bc 7b dd 8f 3d
       -0.10516033 -0.073387735 -0.027246838 0.07024666
000280 c2 4a 53 be 4e d3 5e be 78 1f c8 bc ac 92 52 3e
       -0.20633987 -0.21760294 -0.024429068 0.20563763
000290 f8 00 01 bd 64 17 42 bd ec b4 50 bd a9 3f be bd
       -0.031495064 -0.04738559 -0.05095379 -0.09289486
0002a0 b5 2b 02 be 38 8a 42 3e 2e 98 11 3d 61 7f 88 bd
       -0.12711985 0.18998039 0.03554552 -0.066649206
0002b0 c0 d0 89 3d 88 84 44 be 2d 4e 64 3d 75 36 80 be
       0.06729269 -0.19191182 0.055738617 -0.25041547
0002c0 9c 59 a7 3d 5f f7 27 be 6e a5 61 3c 61 f9 37 be
       0.081713885 -0.16402958 0.013772352 -0.17966224
0002d0 29 32 6d bd 64 12 85 3d cf cf 81 bd bc 60 95 bd
       -0.057909165 0.06497648 -0.063384645 -0.07293841
0002e0 97 8b 3b be d8 fa 51 bc 95 11 0b bd d2 7e 74 bd
       -0.18314968 -0.0128161535 -0.033952314 -0.059691258
0002f0 a1 ed 22 3e e5 d3 9d bd 70 68 ef bd ee cd 47 3e
       0.1591096 -0.07706431 -0.11689842 0.1951215
000300 85 54 e5 bd 9a 13 fa bc ca e1 6c be 7a 0e b5 bd
       -0.111977614 -0.030526925 -0.23133007 -0.08840652
000310 ee d7 f5 bc 51 28 08 be d6 26 60 be 7d bb dd bd
       -0.03001019 -0.1329663 -0.21889815 -0.10826776
000320 85 f8 46 bd e2 d3 3f 3c 6d 96 4c 3d d6 78 85 3d
       -0.04857685 0.011708232 0.049948145 0.06517188
000330 a3 b4 31 bd e9 df 63 bd df 11 2c be 5a f8 3b 3d
       -0.04338516 -0.05563346 -0.16803692 0.045891143
000340 25 b8 59 3d 84 23 c2 3c 89 30 21 3d 51 1a 57 3d
       0.05315413 0.023698576 0.039352927 0.05251533
000350 90 48 88 3d 32 d3 60 bc d4 2e e7 bd 5d d3 0d be
       0.06654465 -0.013722228 -0.11288229 -0.1385016
000360 b2 ca 33 bd 97 15 03 3e 4d 61 c3 bd b2 47 9d bc
       -0.043894477 0.12801205 -0.09540043 -0.019199226
000370 02 1e d6 3d 90 f4 3d 3e ef ec 47 bd 9f 36 5d bc
       0.10454942 0.18550324 -0.04880994 -0.013501792
000380 33 b1 c3 bd a0 70 2b be b5 d1 97 bb 65 72 1e 3e
       -0.095552824 -0.16742182 -0.0046331533 0.15473326
000390 99 6f 2b bd 40 fc 04 3e 2a 40 07 be 9c 3e 9c 3d
       -0.041854475 0.1298685 -0.1320807 0.07629129
0003a0 b5 28 3c be 80 e6 8c 3d e5 08 20 bd a0 fe 1e be
       -0.18374904 0.06879902 -0.039070982 -0.15526819
0003b0 d5 d3 81 bc 57 8c b0 bc cf b4 9d bd c4 c1 fb bd
       -0.01584808 -0.021551294 -0.07700502 -0.12292817
0003c0 3b ff 39 3d d1 d0 c3 bd 5a 85 e3 3d 77 f1 ca 3c
       0.045409422 -0.09561313 0.11109419 0.024773343
0003d0 55 53 9e bc 36 36 cf 3c 42 a4 d2 bd 6c f2 8d bd
       -0.019326845 0.025294404 -0.10285236 -0.06931004
0003e0 18 e3 50 be 2e b4 5a bd 60 9e 05 bd 34 48 21 be
       -0.2039913 -0.05339449 -0.03262174 -0.157502
0003f0 d1 20 32 3d 2c ba 59 be 32 69 fc 3c 22 ac 3a be
       0.043488327 -0.21262425 0.03081188 -0.18229726

model.rnn.bias_ih_l0 f4 [160]
000000 c3 c3 9d 3d 02 22 e3 3d ff 34 a3 bd 63 a9 96 3d
       0.07703354 0.11090471 -0.079690926 0.07356527
000010 e1 de b4 3c d1 8d 8c 3e 7f 0d e1 3d d6 5a f9 3d
       0.022078933 0.27451947 0.10988902 0.12175529
000020 27 39 ff 3d e5 c2 86 bd fb cb fc 3d 71 07 86 3e
       0.12462073 -0.06580142 0.12343594 0.26177552
000030 6e bf bb 3c 54 96 66 3e 55 b5 96 bc 3e cb 40 3e
       0.02291843 0.22518283 -0.018397013 0.1882753
000040 e4 bd 92 3d 8d 3f 1e be ac 3e 97 bd 94 b4 90 3e
       0.07165125 -0.1545393 -0.073850006 0.2826277
000050 9f 37 28 bd 84 a6 e9 3d 89 2e 02 be e0 20 da bd
       -0.04106867 0.114087135 -0.12713064 -0.10650802
000060 84 21 61 3e 58 e4 03 3e e7 93 62 3e 51 f2 04 be
       0.21985441 0.12880075 0.22126733 -0.12983061
000070 88 e7 39 3e 9f 9e ab 3e c5 93 0c 3e b2 a8 e7 3d
       0.18154728 0.33519456 0.13728245 0.11311473
000080 05 c8 78 3e 69 8c 23 3e 2d 29 d0 3d 5f 54 94 3d
       0.24295051 0.15971531 0.10164104 0.07242655
000090 5c 0e 0a 3e b1 7b 12 3e ee c5 79 bd 77 25 b2 3c
       0.1348204 0.14304997 -0.060979776 0.02174638
0000a0 4f 55 00 3d ca 1f ee 3d 2d 13 ac 3d 05 8d 3b bd
       0.031331357 0.11627157 0.08402095 -0.045788784
0000b0 1c 45 70 3e c2 25 0f 3e 84 28 af 3d ec 90 0c 3e
       0.23463863 0.13979247 0.085526496 0.13727158
0000c0 ad 3a bb 3c 48 88 fd 3d 17 bd a8 3d 38 63 e0 3d
       0.022855127 0.12379509 0.08239191 0.109564245
0000d0 39 13 c4 bd 41 83 04 3e be 7c 8b bd 08 39 86 bd
       -0.09573979 0.12940694 -0.06810902 -0.065538466
0000e0 5f b5 dc bd 5b 73 96 bd a1 2c 26 be ad 13 49 3e
       -0.10776781 -0.07346221 -0.16227962 0.19636412
0000f0 72 c6 6b 3b a6 67 fa bd b0 bf 32 3e 33 f5 ec 3d
       0.0035976437 -0.122268006 0.17455935 0.115702055
000100 14 8a 43 3e 0a 8d 3a 3e 78 1b 00 3d 08 28 30 3e
       0.19095641 0.18217865 0.031276196 0.1720277
000110 c8 1f 1c 3e cf b7 61 3d c5 ee d4 bd 36 01 96 bc
       0.15246499 0.055106934 -0.10397104 -0.018311124
000120 e2 f6 cb bd 40 ac 05 3e 14 f4 f1 3d f3 1e 09 bd
       -0.099591985 0.1305399 0.11814132 -0.03347678
000130 d7 d8 c6 3b 96 da 1c be 6e 1c 8b 3d 3d 83 17 3c
       0.00606833 -0.15317759 0.06792532 0.009247598
000140 e8 0c 94 bc 8a 29 48 bd 92 33 b7 bb 82 ee d7 3d
       -0.01807256 -0.04886774 -0.0055908645 0.10543539
000150 51 22 b4 3c 0c cc 27 3e aa a3 30 be 25 e1 53 be
       0.02198902 0.16386431 -0.17249933 -0.20691355
000160 7c 2c 6c bd 9e 4b 8f 3c c6 cc 3b 3e 6e 10 8a 3d
       -0.05765961 0.017492112 0.18339834 0.06741415
000170 bb 64 25 3d c9 f1 67 3d 3a 30 1b 3e 7a ab cd 3c
       0.040379267 0.05662707 0.15155116 0.02510618
000180 66 aa c2 3c 07 29 b7 bd 95 99 c8 3c c9 5e a7 ba
       0.023762893 -0.08943372 0.024487296 -0.0012769337
000190 ff 81 7e bd 02 24 f1 3d 49 4d 92 bc e9 4d 58 3e
       -0.062135693 0.11774446 -0.017859118 0.2112347
0001a0 27 cc e0 3d 91 4b e3 bc 11 e0 94 bd 66 d8 23 be
       0.10976439 -0.027745994 -0.072693 -0.16000518
0001b0 f6 9a 7e bd 3d d3 e3 3d de 3b 15 bd e8 a1 65 3d
       -0.0621595 0.11124275 -0.036434047 0.05606261
0001c0 39 90 ef ba fd f6 86 3a f9 87 6a be 06 46 23 bd
       -0.0018277235 0.0010296997 -0.22903432 -0.0398617
0001d0 ea 9b 8c 3c 04 61 b9 3a db 43 ac 3d 58 06 66 3d
       0.01716419 0.0014143293 0.0841138 0.056158394
0001e0 dd 1d 8e 3d c4 80 00 bc 38 07 71 bc f0 96 42 3d
       0.0693929 -0.0078432 -0.014711194 0.047507226
0001f0 bd de 85 3e 80 bb 1d 3e a4 5d 90 3e cf 42 6b 3c
       0.26146498 0.15403557 0.28196442 0.01435919
000200 a9 49 48 3e 36 53 b7 bc 50 4e 12 3e 1e f8 a3 3d
       0.19559349 -0.022378545 0.14287686 0.08006309
000210 1f 7d 53 3d 62 58 10 3e 0e 1a 96 3d 08 a1 19 3e
       0.051632997 0.14096215 0.07329188 0.15002835
000220 94 a2 e3 3d 65 5c 72 be bd 18 37 3e db d2 a3 3c
       0.11114994 -0.23668058 0.1788053 0.019998005
000230 82 4c 0a 3e 57 79 85 3d 82 19 aa 3d 92 2b b1 bc
       0.13505748 0.06517284 0.083056465 -0.021627221
000240 1b 51 5a 3b ff 4b 99 3e 43 0b 86 bd 45 36 79 bc
       0.0033312503 0.29940793 -0.06545117 -0.015210693
000250 a6 84 b7 3d 26 11 12 3e 4f e1 99 bd f7 f7 d4 bd
       0.089608476 0.14264354 -0.07513677 -0.10398858
000260 fc b7 be 3e 47 0b a4 3d cd 59 87 3e 89 91 31 3d
       0.37249744 0.080099635 0.264357 0.043351684
000270 51 2d a7 3c 87 18 0b bd 7a ad 07 3d 8c 4a ee 3c
       0.02040735 -0.033958938 0.033124425 0.029088281

model.rnn.bias_hh_l0 f4 [160]
000000 2a 45 ac 3d 62 9c c3 3d 37 9c c5 3d 4b d0 92 3e
       0.084116295 0.09551312 0.09648936 0.2867454
000010 56 bd 5b 3d ab 76 64 3e 87 92 be 3e 45 fd 1f 3d
       0.05364736 0.22310893 0.37221166 0.039059896
000020 57 2d b6 3e 83 6a 93 bd 93 96 85 3e d6 08 86 3d
       0.35581467 -0.0719805 0.26091442 0.06544654
000030 22 86 9a 3c 60 92 93 3e eb 7e b9 3d ee 16 a4 3e
       0.018862788 0.28822613 0.09057411 0.32048744
000040 9c 71 5e 3e 81 04 53 be cb 34 2d bd a7 12 58 3e
       0.21723026 -0.20607187 -0.042286675 0.21100865
000050 a0 7d a7 3c 69 3b a4 bd 9b d2 10 be ac 2d a0 bd
       0.020445645 -0.08019144 -0.1414284 -0.07821211
000060 26 48 87 b9 21 b5 0b 3e f1 ab 31 3e dc b7 95 bc
       -0.0002580296 0.13643314 0.17350747 -0.018276148
000070 ad 0d f2 3d 81 5d 3d 3e 80 65 2e 3d 1b 88 56 3d
       0.11819015 0.184927 0.042577267 0.052375894
000080 43 d0 b7 3e 72 6e e4 3d 6b 29 14 3e 4c 13 e2 3d
       0.3590108 0.11153878 0.14468925 0.11038837
000090 25 50 bb bc ca d0 d6 3d 60 48 0d bc a9 78 02 3e
       -0.022865364 0.10489042 -0.008623213 0.1274134
0000a0 a7 59 05 be eb 82 cd bc 93 fc bb 3d 47 8d ec 3d
       -0.13022481 -0.02508684 0.09179034 0.11550384
0000b0 b0 1c 5c 3e 6f b8 e8 bd 6f ff 14 3e b0 b8 42 3e
       0.21495318 -0.11363303 0.14550565 0.19015765
0000c0 5e 09 2c 3e 05 f9 5e bd 4f 57 2c 3e e6 68 86 bc
       0.16800448 -0.054436702 0.1683018 -0.016407441
0000d0 e5 19 ab bd 61 37 3f 3e c2 ad 19 bc d1 4c 9c bc
       -0.08354548 0.18673469 -0.009379806 -0.019079598
0000e0 73 d5 1a be f9 61 0e 3d 8e 5d 62 bd 8e 35 44 3b
       -0.15120487 0.034761403 -0.055265002 0.0029939148
0000f0 8f ce 18 3e 5c 25 b0 ba 15 91 8e bc 86 f7 48 3d
       0.14922546 -0.0013438868 -0.017403165 0.04906418
000100 9a 96 69 bd d0 35 ef 3c 76 bd df 3d 13 a8 df 3d
       -0.05702839 0.029200464 0.10924809 0.109207295
000110 50 d1 fa 3d 40 a2 80 3d 8f cf 02 bd 74 04 f4 3b
       0.122469544 0.06280947 -0.031936225 0.00744682
000120 dc 43 19 3d 98 60 0c be 16 6e 67 bd e0 c8 ae bd
       0.03741823 -0.13708723 -0.05650147 -0.085344076
000130 e5 e2 6e 3b 8b 2c 29 be 01 52 21 3e f2 a4 2c 3e
       0.0036451158 -0.16520898 0.15753938 0.16859797
000140 43 ff 6d 3d 8c 6e 0b 3e 2d b3 2e 3e b5 04 cf 3d
       0.058104765 0.13616389 0.17060538 0.1010832
000150 d2 ca 53 bd 88 ce c0 3c 91 c5 7b be ef 3b a1 bd
       -0.051707096 0.023535982 -0.24587084 -0.078727596
000160 d6 da 88 be 90 64 df 3d 85 a5 13 3d dc 26 96 bb
       -0.2672946 0.10907853 0.036046524 -0.004582269
000170 36 4c 7a 3d 1d 52 36 be 15 73 9f b8 22 b4 bb bd
       0.061107837 -0.17804761 -7.6031465e-05 -0.09165217
000180 6f cd 93 bd 56 a0 ab bd 5f 6c 30 bd df 8b 0e 3d
       -0.07216918 -0.08380191 -0.0430721 0.03480136
000190 f2 04 26 3d 82 b9 f9 bc af 07 82 3d 0d 81 21 3e
       0.04053206 -0.030483965 0.06349122 0.15771885
0001a0 eb 0c d9 bd 6b ba 6f be 99 64 32 3d 7d b9 89 3d
       -0.10598167 -0.23410957 0.04355297 0.06724832
0001b0 1d 04 b0 3c e9 ed e5 3d 64 4a f7 bc ea e1 39 3e
       0.021486336 0.112270184 -0.03018684 0.18152586
0001c0 9b ad 1c 3e dc ec 1e bd a6 27 13 be b1 67 fa bd
       0.153006 -0.038800105 -0.14370593 -0.12226809
0001d0 79 56 8f 3a 49 62 d3 3c 61 61 b4 3d d5 58 60 bd
       0.0010935805 0.025803702 0.08807636 -0.054772217
0001e0 cb ec 02 3e bc 6b 71 3e 0c 08 e9 3d 16 c6 5f 3e
       0.12785642 0.23576254 0.11378488 0.21852908
0001f0 01 13 a8 3d 77 0d 5e 3e 03 5f 98 3e 4e dc f0 3c
       0.0820675 0.21684824 0.29759988 0.029401924
000200 a4 f2 b0 3d 91 13 e1 bd 36 a9 58 3e fc a9 2f 3e
       0.0864003 -0.1099006 0.21158299 0.17154688
000210 d2 30 0e be 24 69 13 bd 38 bb 87 3d c1 07 b3 3e
       -0.13885811 -0.03598894 0.06627506 0.34966853
000220 b4 af da 3d 90 20 89 be 3f 82 b5 3d 85 34 74 bd
       0.10678044 -0.26782656 0.08862733 -0.0596204
000230 68 24 1a 3c 59 f8 48 3e 84 d9 0b bd 6a d8 bf 3d
       0.009408094 0.19625987 -0.034142986 0.093674496
000240 dc 82 04 3d b1 28 0e 3e 38 da 76 bd d9 65 f2 bd
       0.03235136 0.1388271 -0.060266703 -0.11835832
000250 49 15 7a bc 8c 73 7a 3d eb c2 f7 3c 20 22 e6 bc
       -0.015263864 0.06114535 0.030244311 -0.028092444
000260 fe 32 8a 3e ae 21 63 3e 2f c1 cd 3d 40 58 6a 3e
       0.2699203 0.22180817 0.100466125 0.22885227
000270 d8 f0 5a 3e 88 c1 74 3e 33 bd 01 3d b9 0e e8 bc
       0.21380937 0.23901951 0.031674575 -0.028327333

model.rnn.weight_ih_l1 f4 [160, 40]
000000 d3 58 85 bd ad e8 64 bd 64 e3 30 3c f7 71 6c 3e
       -0.065110825 -0.05588596 0.010796402 0.23090349
000010 04 8b cd bd 51 74 89 3e 88 ac a6 be a1 79 94 be
       -0.10036281 0.26846555 -0.32553506 -0.28999045
000020 19 00 ab be bb 50 c8 3d 44 ad 4f 3e 22 75 d7 bd
       -0.33398512 0.09781023 0.2028094 -0.10520388
000030 d0 e4 68 be e7 18 98 bd d0 4e e4 3d 4f 6e 4c be
       -0.22743535 -0.07426625 0.11147845 -0.19963954
000040 13 50 6e be 89 95 97 3c 99 a3 97 bd cd 66 65 be
       -0.23272733 0.018503921 -0.07404251 -0.22402497
000050 af d4 d1 3b a0 c7 17 3e 2a 9d 66 bd 4f c1 c9 bc
       0.0064035277 0.14822245 -0.056302227 -0.02462831
000060 de 3b 64 bd 60 94 32 be 5d 7b 9a 3b 9f 24 1b 3e
       -0.055721156 -0.17439413 0.004714413 0.15150689
000070 ec 6d db 3a c3 de ad 3b 07 92 97 bc 5a 02 07 3e
       0.0016741133 0.0053060963 -0.018502248 0.13184491
000080 a6 89 4a be 9f 30 04 bd 64 27 a6 bd 71 f5 22 bc
       -0.19779071 -0.03227293 -0.08112982 -0.009946213
000090 37 17 9d 3d 83 d9 7f be 98 17 0e be f9 a4 23 3d
       0.076704435 -0.24985318 -0.13876188 0.039952252
0000a0 d4 b5 17 be dc 3a 71 be 1e 9b 03 3e f5 a3 b9 3e
       -0.14815456 -0.2355761 0.12852141 0.36257902
0000b0 f5 3f 24 be ea d1 3d 3c 3b b1 f4 be cd a1 d9 bc
       -0.16040023 0.011585692 -0.47791466 -0.02656641
0000c0 e4 2c d7 be 59 ff 02 3e 19 4d ff 3d e4 cf bf bc
       -0.42026436 0.1279272 0.12465877 -0.02341456
0000d0 19 fb 92 be 56 f4 61 be 00 c6 47 3e af 1f ec be
       -0.28707197 -0.22065863 0.19509125 -0.46117923
0000e0 87 80 72 be 48 7c 25 3b c6 ee 61 be ce ad 8e be
       -0.23681842 0.002525108 -0.22063741 -0.27866977
0000f0 47 f2 3f be 64 9f f5 3b 42 d4 25 be 63 67 9f 3d
       -0.18744765 0.0074958075 -0.16194251 0.07783391
000100 3f f8 a6 bd 15 c8 77 bc 3b 89 f0 3c 52 22 f4 bd
       -0.08152818 -0.015123387 0.029362312 -0.119206086
000110 2a 0b 33 3e 89 48 d4 3c b1 68 93 be 3d 29 0b 3e
       0.17484728 0.025913494 -0.2879081 0.1358995
000120 1a 78 0f be 28 af 7e 3e a3 15 cb be 90 98 92 bd
       -0.14010659 0.24871504 -0.39664945 -0.07158005
000130 12 c6 a7 3d 30 a1 c9 be 6f ba 8b be 0f 7a ab 3b
       0.08192076 -0.3938079 -0.27290675 0.0052330564
000140 40 ad 40 bc 92 e6 42 bd ea 3f 32 3d d3 e5 aa 3d
       -0.011760056 -0.04758317 0.043517984 0.08344617
000150 74 c6 be bd dd b5 74 bd 7d 50 db bd b8 ba 39 be
       -0.09315196 -0.05974375 -0.10708711 -0.18137634
000160 f9 4e ec bd d1 f5 0a be 8d f8 de bd 55 c0 2a be
       -0.115385 -0.13570334 -0.10887251 -0.16674931
000170 6c 2a 23 bd 36 4b 03 bd dd 25 42 bd 47 2f c6 3c
       -0.03983538 -0.03205415 -0.04739939 0.024192465
000180 83 9e 06 bc 55 ce 13 3e 57 fb 1f 3b 74 a5 a9 bd
       -0.008216503 0.14434178 0.0024411285 -0.08283511
000190 22 14 db 3d 26 7e 90 3c 05 59 b6 3d 60 e5 49 bd
       0.106971994 0.017638277 0.08903698 -0.049291015
0001a0 36 b9 59 3d 16 a5 f4 bd b7 89 c4 3d 95 09 69 bd
       0.053155147 -0.1194555 0.095965795 -0.056893904
0001b0 7f 9d c9 3d 86 95 d1 3d 4e 77 9c bd 05 47 e1 bd
       0.09844493 0.102335975 -0.07639943 -0.10999874
0001c0 64 9c 2c 3d 5c c6 71 3e ae d6 a3 3d 7a 8c 9d bd
       0.042141333 0.23610824 0.07999931 -0.076928094
0001d0 6b 5b cb 3d 73 48 8e be 45 5e a3 3d 79 1d 07 be
       0.09929546 -0.2778965 0.07976965 -0.13194837
0001e0 f0 1f 57 bd 9b 02 08 3d 91 42 b6 bd 78 63 65 bd
       -0.052520692 0.03320561 -0.08899415 -0.056003064
0001f0 18 e2 3e 3d 34 02 2d 3e fe 7f 02 3e 47 94 d5 3d
       0.04660234 0.16895372 0.12744138 0.10428672
000200 1c e3 06 bd 81 2b 23 bc 5b 43 fe 3d 96 31 24 be
       -0.032931432 -0.009959103 0.12415191 -0.1603454
000210 c0 0c bc bd 29 d4 d1 bd b1 3b 86 bd 8d 9b f0 bd
       -0.09182119 -0.102455445 -0.06554354 -0.11748419
000220 1e 94 f0 bc a4 39 24 be 90 76 da 3d 18 ec 28 be
       -0.029367503 -0.16037613 0.10667145 -0.16496313
000230 35 a0 f9 bc 75 08 9b 3d 87 6e 0f be 44 ee 29 3e
       -0.0304719 0.075699724 -0.14007007 0.16594797
000240 34 2b ab 3d ec 4b c9 bc 1e 6e 20 3d 09 40 11 3e
       0.0835785 -0.024572335 0.039167516 0.14184584
000250 50 d4 fe 3d 5a 44 0d bd 46 aa d7 3d 09 72 c7 3d
       0.12442839 -0.034489013 0.10530524 0.09738547
000260 45 f3 cb bc a9 3f 57 3d ff 0e 02 be f2 4d 21 be
       -0.024896273 0.052550945 -0.12701033 -0.1575239
000270 0c 8b 90 3d 04 ec d6 bc 06 c1 0d 3d 4c e2 f3 bd
       0.07057771 -0.026235588 0.03460791 -0.11908397
000280 29 48 9f bd 1c a6 a3 bd 86 a0 3c be 5a 58 0f be
       -0.07777435 -0.07990667 -0.1842061 -0.13998547
000290 37 e7 fd 3d e4 87 6f 3d 64 73 b9 3d c9 b3 85 3d
       0.12397616 0.058479205 0.09055212 0.06528432
0002a0 7c 50 30 3e 04 cf 57 be 73 a9 94 3c be 8c 46 3e
       0.17218202 -0.21075064 0.018147206 0.19389626
0002b0 8b 6e 29 bc b8 11 49 bd ff af a3 bd 9b f1 fc 3d
       -0.010341297 -0.049089164 -0.07992553 0.1235077
0002c0 a8 b9 cf bc ed 22 33 be 51 64 14 3e f3 fa ef 3d
       -0.025357082 -0.17493792 0.14491393 0.11717787
0002d0 2c 23 cd 3d ff 1b 46 be ce fc 71 3e 5c 6f 87 bd
       0.10016474 -0.19346617 0.23631594 -0.06613037
0002e0 2c 4e 2e 3e 58 42 25 3e 51 d3 82 3d 90 17 08 3e
       0.17022008 0.1613859 0.06387962 0.13290238
0002f0 b0 44 2a be 93 fd c7 bd 62 2f 76 3e 4d 37 a8 bd
       -0.16627765 -0.09765162 0.24041513 -0.08213673
000300 64 5e 0b 3e 3b 43 80 be c6 6f 29 3d c4 5a e7 3d
       0.13610226 -0.25051293 0.04136636 0.11296609
000310 19 3d 58 be 6e e9 f6 3e 21 fb cf 3d 59 8f 94 3d
       -0.21117057 0.48224968 0.10155321 0.07253904
000320 83 2c a9 be 50 34 7f be 94 8b 99 3e e7 34 b2 3e
       -0.33041772 -0.249223 0.29989302 0.34805986
000330 2c 80 88 be 4f ee 22 3d 51 44 c4 be 6c 87 be bc
       -0.26660287 0.03977805 -0.3833337 -0.023257934
000340 87 07 b2 be b0 3b cd 3c fd 1c 37 3d db ee 3a be
       -0.34771368 0.025052875 0.04470538 -0.18255179
000350 57 ac ed bd c6 b5 21 be b5 15 81 3e 8d e3 b2 be
       -0.11605137 -0.15791997 0.25211874 -0.34939232
000360 35 5b b8 be a2 f2 31 3e 7f b4 c1 bd d6 81 77 bd
       -0.36007085 0.17377713 -0.09458255 -0.060426556
000370 d6 fe 37 be b1 1a 21 3e a4 f0 db 3c a2 13 f3 3d
       -0.17968306 0.15732838 0.026848145 0.11868979
000380 b7 fe b2 bd 08 71 76 be 88 b0 86 3e e1 6a 04 bd
       -0.08739989 -0.24066556 0.26306558 -0.03232849
000390 46 3b 92 3e e8 61 ce 3c f2 d8 c0 bd a5 ff 82 bb
       0.28560847 0.02519317 -0.09416379 -0.0039977604
0003a0 ea 7b ff bd 51 9c 75 3e 95 c5 54 be dd 96 91 be
       -0.124748066 0.23985411 -0.20778497 -0.28435412
0003b0 1b c2 87 3e b2 76 a9 be 84 d4 b7 be 4b b6 fb bd
       0.26515278 -0.3309837 -0.35904324 -0.12290629
0003c0 b1 b3 b8 bc af 9e bf bd 11 f7 f4 3d 52 a7 1a 3e
       -0.022546621 -0.09356438 0.11961187 0.1510289
0003d0 38 b1 86 bd 9c 50 b6 3d 29 b4 9b bd 56 e3 af 3d
       -0.065767705 0.08902094 -0.07602722 0.08588283
0003e0 86 74 a0 bd 94 e5 5c 3e cd 3c ff 3d 6e 42 8e bd
       -0.07834725 0.21571952 0.12462769 -0.06946264
0003f0 3d d9 3e be 22 00 04 bd 3e 4b 48 bd 6b 50 d4 bd
       -0.18637557 -0.03222669 -0.04889988 -0.10366901

model.rnn.weight_hh_l1 f4 [160, 40]
000000 21 fc fe 3b a1 e3 91 3d 34 8b 07 3e 66 36 25 be
       0.007781521 0.07123495 0.13236696 -0.16134033
000010 23 e4 c6 3b d8 e5 6d bd 4b 24 43 3d 87 e2 64 3d
       0.0060696765 -0.058080524 0.047642034 0.055880096
000020 94 65 88 3d 4b a5 fd bd b1 ce 87 3d fe 32 71 3c
       0.066599995 -0.12385043 0.0663122 0.01472163
000030 c9 98 e8 3d f5 ba 28 3e c4 1d 1b be 38 fe 20 3e
       0.113572665 0.16477568 -0.15148073 0.15721977
000040 03 30 c1 3d c3 ee a0 3d 4d a4 3c 3e 2c d4 9c bd
       0.09432986 0.0785804 0.18422051 -0.07657656
000050 d6 ab db 3d 64 37 e3 ba a3 af a5 3d 60 1c 46 bd
       0.107261345 -0.0017335233 0.08090141 -0.048366904
000060 fb db 3f bd fc aa a0 3d 2f 73 fe bd be c5 9f 3d
       -0.04684065 0.07845113 -0.12424313 0.07801388
000070 09 68 dd 3c 98 1d e9 3d ae 03 c0 bc 33 68 1d 3e
       0.027027147 0.11382598 -0.023439255 0.1537178
000080 f6 5c 1e 3e 1f c9 b4 3d da e3 c9 3d db 4b e3 3d
       0.1546515 0.08827423 0.09857912 0.11098453
000090 3b ae 2e bd 6d 01 1b bd 47 4b a4 3c fc b8 94 bd
       -0.042646628 -0.037843157 0.020055426 -0.072618455
0000a0 79 0c d3 3d 0d 1b 5c 3d fa 16 30 bd 09 ae 1e 3c
       0.10305113 0.053736735 -0.042990662 0.009685048
0000b0 2c 27 b7 3d ba 09 0d be af 6c 64 3d c2 c2 4b 3d
       0.08943018 -0.13773242 0.05576771 0.049746282
0000c0 fb 01 c5 3d 62 1c 08 be 5f 62 7f bd 11 2c b4 3d
       0.09619518 -0.13292077 -0.062349673 0.087974675
0000d0 7d 05 12 be dc d9 05 3e 30 04 f3 3d 7b 67 d2 bc
       -0.14259906 0.13071388 0.11866033 -0.025684109
0000e0 ba 9f b0 bd 39 4c ee 3d fe 8a 1c bc 3d 67 3a bd
       -0.086242154 0.11635632 -0.009554623 -0.045508612
0000f0 34 ee 92 3d 40 2d 32 3b 5f f2 6f 3d 8f de 98 3a
       0.0717434 0.0027187616 0.058580752 0.0011663007
000100 eb 29 18 bd 2d af 68 bd de 2e 02 3e b6 20 be bd
       -0.03714935 -0.056807686 0.12713191 -0.09283583
000110 65 a9 e3 3d c3 7e f4 bd f0 d4 17 3e 3b 25 dc 3d
       0.11116294 -0.119382404 0.14827323 0.10749289
000120 69 38 3c bc 8c c5 45 bd 9b 85 46 3d d3 05 06 be
       -0.011488059 -0.0482841 0.04846726 -0.1308816
000130 29 2f 1a be 8c ea 08 be 99 5a 1f 3e 78 74 42 3e
       -0.15057053 -0.13370723 0.15561904 0.18989742
000140 da d3 b8 3c 05 d4 08 be 7f 92 0a 3e 99 f9 05 be
       0.022561956 -0.13362129 0.13532446 -0.13083495
000150 da 6d 69 be 1f b2 d2 bd c4 10 81 3c 46 89 e4 3c
       -0.22795811 -0.1028788 0.015755065 0.027897488
000160 28 59 a6 bb af ec af 3c fc d6 18 be 54 97 06 3e
       -0.005076546 0.021475164 -0.1492576 0.13143665
000170 34 b2 b9 bd 54 42 89 bd e4 1a 9a bc c1 66 43 be
       -0.09067193 -0.06702104 -0.01881165 -0.19082166
000180 d0 f7 15 be b4 a3 1a be e3 76 f0 3d 68 ad c6 bc
       -0.14645314 -0.1510151 0.11741426 -0.024252608
000190 e6 4a 0b 3e e4 f2 1d 3d f6 a6 a9 bd d5 31 47 bd
       0.1360279 0.038561717 -0.082837984 -0.048631508
0001a0 d8 f0 ad 3d a0 be 0e bd b8 51 1f be 99 57 c3 bd
       0.08493203 -0.034849763 -0.15558517 -0.09538192
0001b0 d9 4e 64 bb ef c8 8e 3d 25 8f b6 bd 25 5a d2 3d
       -0.0034837036 0.06971919 -0.089140214 0.102711
0001c0 d7 7a 40 be 05 e0 44 bd d7 0f be bc 78 12 f1 bc
       -0.1879686 -0.048065204 -0.023200912 -0.029427752
0001d0 d6 d0 11 3e 31 fe f3 bd 94 be 90 3d a6 6c 48 bd
       0.14239821 -0.119137175 0.070676 -0.04893174
0001e0 67 ad b3 bd ff f2 b7 3d 4f a2 2d be ee 3a 37 3d
       -0.08773308 0.08981895 -0.16956447 0.044733934
0001f0 b5 d2 38 be e4 4c 03 3e 9b 91 c3 bd 90 c8 5f bd
       -0.18049128 0.128223 -0.095492564 -0.05463463
000200 b0 10 48 3d 89 71 b0 3b 80 73 ef 3a 5f 6c 7e 3d
       0.04884404 0.005384628 0.0018268675 0.06211507
000210 76 44 49 bc 83 fe 22 3e 35 39 16 be 72 c3 9f bd
       -0.012284389 0.15917401 -0.1467026 -0.0780095
000220 a0 9c 19 3e 69 66 99 3d 07 69 ed bd b4 ec d7 bd
       0.15001154 0.07490236 -0.11592298 -0.105431944
000230 22 c6 34 be 75 ef 2a bd 2e cd 31 3e d1 f1 2c be
       -0.17653707 -0.04173227 0.17363426 -0.1688912
000240 9c 1b 81 bd 96 e0 30 3e ac 14 f0 3d a0 49 06 3e
       -0.06304094 0.17273173 0.11722693 0.13114023
000250 90 3f d7 bd 6d c0 04 3e f0 1c 92 3c 77 f9 9d 3d
       -0.105101705 0.1296403 0.017836064 0.07713597
000260 bc 0b d8 bd bc 48 6c 3d f2 86 b5 3d c2 c1 02 3e
       -0.10549113 0.057686552 0.088636294 0.12769225
000270 55 a9 8a bd ce 2a 26 bd 66 7b 23 be 7c 6b 71 3b
       -0.06770579 -0.040568165 -0.15965042 0.0036837747
000280 6b d9 e8 3d 9d af 44 be e8 01 14 be c5 f2 88 bd
       0.11369594 -0.19207616 -0.14453852 -0.066869296
000290 c9 f1 d0 bd b8 b9 ba 3d 0a 8c 09 3e 8b ac 2e bd
       -0.10202367 0.09117454 0.13432327 -0.04264502
0002a0 aa c4 8b 3e ee d4 27 be c7 a7 bf bd 9d d7 f7 bc
       0.2729848 -0.1638982 -0.09358173 -0.03025418
0002b0 ea 14 18 bd 38 6c 95 3c 13 20 17 3e 35 fd 59 be
       -0.03712932 0.01824008 0.14758329 -0.21287997
0002c0 b6 d4 4a 3d f6 f5 e5 3a 2b b9 e7 3d 69 47 3f 3e
       0.049519263 0.0017544616 0.11314615 0.18679585
0002d0 c3 b3 3e be 78 36 3a be 5b 3e 1c be 92 b1 e0 bd
       -0.18623261 -0.1818484 -0.15258162 -0.10971369
0002e0 d7 65 aa bd 2e fb a5 bd 1b 62 aa 3d a0 32 1a 3e
       -0.08320206 -0.08104549 0.083194934 0.15058374
0002f0 7a 41 90 3d f0 6d b5 3d b6 34 a1 3d a3 c4 2f bd
       0.07043739 0.088588595 0.07871382 -0.042912137
000300 e9 1c 1f 3b e9 bc c1 3d 19 96 99 bd 51 17 5a 3e
       0.0024278706 0.0945986 -0.07499332 0.21297957
000310 72 5f 77 3d ec 9c ff bc d5 5f 0f be 3a 02 3f 3d
       0.060393758 -0.031202756 -0.14001401 0.046632983
000320 80 19 a7 bd bf fb 1e 3c 2c 19 2d bc fe 46 30 3c
       -0.081591606 0.009703576 -0.0105650835 0.010759113
000330 7e 29 ad 3d 07 a6 86 bd 47 1d 5e be 57 6f bb bd
       0.0845518 -0.06574636 -0.21690856 -0.09152096
000340 63 8d 0a bd e9 0b 8f bd c9 82 d9 bc 47 df a2 bd
       -0.033826243 -0.069846936 -0.026551621 -0.07952743
000350 56 50 82 3d 79 41 08 3e a0 93 2d bd 13 3b 33 3e
       0.06362979 0.13306226 -0.042377114 0.17503004
000360 a8 5c 1b 3e 8a b5 6d 3e 96 89 61 3e a2 78 ca bd
       0.15172064 0.23213783 0.22025141 -0.0988629
000370 e2 c2 37 bd aa 8d 3f 3e b3 82 d8 3d d6 78 42 3e
       -0.04486359 0.18706384 0.10571804 0.18991408
000380 bc 32 54 3e 88 ac bd bd 77 f5 45 bd a3 2c da bd
       0.20722479 -0.09261423 -0.048329797 -0.10653045
000390 44 61 c5 bd 4e a4 bd 3c 8b 35 9a 3d df 47 1d bc
       -0.096376926 0.023149636 0.07529744 -0.009599655
0003a0 56 01 18 bc 46 5e 9d bd 77 c5 0d 3e 7b 5e de 3c
       -0.009277662 -0.07683997 0.13844858 0.027144661
0003b0 ad 83 d5 bc ce 75 26 be ec 4d b8 bc f8 55 29 bd
       -0.026063764 -0.16255876 -0.022498094 -0.04134175
0003c0 f5 40 44 be 05 de b2 3b de 93 0f 3e 7d 46 43 3d
       -0.19165404 0.0054585957 0.1402125 0.047674645
0003d0 9f bd bf 3c f3 ca 11 be cf 59 7b 3d 71 60 af 3d
       0.023405848 -0.14237575 0.061364945 0.085633166
0003e0 4b be 33 be 78 d6 c9 3d ff 82 b6 3d d9 55 11 3d
       -0.1755306 0.0985536 0.08911704 0.03548226
0003f0 b0 f0 6d bc 83 f8 52 3e 4b f3 20 3e b5 86 3c 3e
       -0.014522716 0.20602612 0.15717809 0.18410762

model.rnn.bias_ih_l1 f4 [160]
000000 bf ec bd 3d f8 f2 a8 3d d4 8c 13 3d a0 d5 5c 3e
       0.09273671 0.082494676 0.036022976 0.21565866
000010 2f 95 c2 3c e6 ca 00 3e cd 32 02 3c c4 1f 18 3e
       0.023752777 0.125774 0.007946682 0.14855868
000020 99 d2 c1 3b 5a bb c8 bd 4a 6b 0e 3e 1f 1f 2b 3e
       0.005914998 -0.098013595 0.13908115 0.1671109
000030 96 6a ca bd 9d cb bf 3d 04 f7 02 be 91 c1 d9 3b
       -0.09883611 0.09365008 -0.12789541 0.0066453894
000040 3f 05 98 3c 0a 4d c2 3c cc 47 9f 3d 6a cb a0 3d
       0.018557189 0.023718376 0.07777366 0.07851298
000050 b7 da 8c 3d 3a f1 fb 3d dc df 04 3d bd 2b 0d 3d
       0.06877654 0.1230187 0.03244005 0.03446554
000060 58 30 90 3d 3d 23 cd bb be 7b 9c 3d 3f 67 f2 3a
       0.07040471 -0.0062603042 0.076407894 0.0018493904
000070 bf af 97 3e 81 1e 69 3e 01 6c d2 3b 9e 81 13 3d
       0.2962627 0.22765543 0.0064215665 0.036012284
000080 3e a8 84 3e 64 8b ea bd 9f 6b 03 3e dd 0b 3e 3d
       0.2590961 -0.11452368 0.12834023 0.046398032
000090 63 f9 23 3e 2b e7 6e 3e 17 24 de 3d df c1 28 3e
       0.16013102 0.23330371 0.10846727 0.16480206
0000a0 81 da 19 3e 5c 9c b2 bd 09 a1 23 3e 8e da 77 3d
       0.15024759 -0.087212294 0.15979399 0.060511164
0000b0 89 55 84 3d b7 91 82 3d 78 1a 8e bc b9 cc fd 3d
       0.06461627 0.06375449 -0.017346606 0.123925634
0000c0 6e 56 24 be d0 ad 89 bd 80 09 98 bd d3 2e 62 bd
       -0.16048595 -0.06722605 -0.07423687 -0.055220436
0000d0 bf c9 4b 3d dd f6 4c bd 3f 89 05 be 92 0a fb 3d
       0.049752947 -0.050040115 -0.13040636 0.122578755
0000e0 6b 6b a5 3d 31 d8 90 bd 67 5d 4f 3d 8d bb 77 bd
       0.08077129 -0.07072485 0.050626185 -0.060481597
0000f0 2a e6 7f 3d 30 b6 eb bd b7 b9 00 be cb 40 1b 3e
       0.06247536 -0.11509359 -0.12570845 0.15161435
000100 51 9b d6 bc a9 ad 14 bd 2b 3b e2 bd 62 de 07 be
       -0.026197108 -0.036298428 -0.11046442 -0.13268426
000110 53 d5 3d bd 0e 75 8f 3b 75 9d 13 be b8 4e b1 bd
       -0.04634602 0.0043779677 -0.14415534 -0.086575925
000120 7e c0 ec bb e9 02 84 bd 04 9d 18 3e eb 08 82 3d
       -0.0072250953 -0.064458676 0.14903647 0.06349357
000130 ac b5 c1 3d d4 26 19 3c 9a d9 ce bd 58 33 1e 3e
       0.09458479 0.009347636 -0.10100098 0.15449274
000140 3a 1d 52 be 73 7e 92 bd 68 f0 76 3d b4 de 21 be
       -0.20518962 -0.071530245 0.060287863 -0.15807611
000150 9a f9 a5 3d 7e c9 16 bc 40 78 11 3e 2f 67 4d 3d
       0.08104248 -0.009203313 0.14206028 0.05014723
000160 eb 96 ab 3d 57 70 37 bd 1e fe 13 3e 3a 17 7b 3d
       0.08378395 -0.04478487 0.14452407 0.061301447
000170 97 6a 86 bd 5e e0 31 3e b0 b5 f6 bd 83 a9 0d 3e
       -0.06563299 0.17370746 -0.12046373 0.13834195
000180 da 11 26 3e 8d 35 89 ba 81 d5 ae 3d 2b 34 25 be
       0.16217747 -0.001046823 0.085368164 -0.16133182
000190 f3 cb e1 3d 99 53 32 3e 3b 22 87 bd 10 80 9f 3d
       0.11025228 0.17414702 -0.06598326 0.07788098
0001a0 69 47 e3 bc 85 49 63 bd 29 6b 66 bc 37 e2 fa bd
       -0.027744012 -0.055490036 -0.014063635 -0.12250178
0001b0 63 08 10 3c a8 65 bb bd 12 4f 73 3e 0d f5 3a 3d
       0.008791062 -0.09150249 0.23760632 0.045643855
0001c0 34 75 b8 bd 46 c0 fa 3c e3 5e 0e 3e 3c de 42 be
       -0.0900673 0.030609261 0.13903384 -0.19030088
0001d0 3f 56 76 bd ab b7 d0 3d 8d ef b8 3c 90 32 c8 3d
       -0.060140844 0.10191282 0.022575164 0.09775269
0001e0 90 bc eb 3d 37 ad 72 3e 35 78 29 be 43 42 18 3c
       0.11510575 0.23698889 -0.16549762 0.009293142
0001f0 d0 c0 d3 bd 77 03 d9 3d 67 ef 85 bd 76 9c 34 bc
       -0.103395104 0.10596364 -0.06539803 -0.011023631
000200 d4 9d f4 3c 15 6b bc bc 1c 4a b9 bd 0b 3d c7 bd
       0.029860415 -0.02300028 -0.09047338 -0.0972844
000210 b1 c3 18 bd 8e 2b 08 bd 49 f1 3a 3d e6 d6 bd bd
       -0.037296 -0.033244662 0.045640264 -0.09269504
000220 f1 dd f9 3c 22 7f 0e 3e b7 e6 91 3d 77 b7 00 3c
       0.030501338 0.13915685 0.071240835 0.007856241
000230 6b 01 a2 3d 0a 4c 0c 3c 15 8a a2 bb af 99 37 3d
       0.07910427 0.008563051 -0.0049603083 0.0448243
000240 32 f0 16 3e 96 38 7d 3c e3 01 34 3e 20 2f e7 bc
       0.14740065 0.015455386 0.17578845 -0.028220713
000250 75 77 32 3e 62 2b 02 3e 5f 84 48 3e 28 5b 1c 3c
       0.17428382 0.12711862 0.19581746 0.009543218
000260 e9 9e 4b 3e 4a 7d 7b bd 1d 06 20 3d a8 5f 65 bd
       0.19884838 -0.06139878 0.03906833 -0.055999428
000270 c1 d6 4e 3e 71 c6 b1 3d f9 fc a3 3c 9c 25 ce 3c
       0.2019911 0.08680428 0.020018088 0.025164418

model.rnn.bias_hh_l1 f4 [160]
000000 93 77 45 3e 8b 98 5e 3e 0d 9d be 3d d7 93 55 bd
       0.19283895 0.21737878 0.09307299 -0.052142944
000010 24 12 ad 3c a9 19 cb 3d 95 cf ea 3c ef df a8 bc
       0.021126814 0.09917004 0.028663436 -0.020614592
000020 ba b0 f1 3d c1 01 fe bb b5 33 31 bd bf 93 4d bc
       0.11801286 -0.007751674 -0.043262202 -0.012547432
000030 56 c4 3f bd 6f 41 fb bd cc 80 c6 3b f2 b6 a5 bc
       -0.0468181 -0.1226834 0.0060578343 -0.020228837
000040 89 29 26 3e 54 41 41 3e 9c 33 c8 3d 02 8f f0 3d
       0.16226782 0.18872577 0.09775469 0.117460266
000050 1a fe 55 bb 91 17 84 bd ae a8 b1 bb 4d 3b 2c 3e
       -0.0032652677 -0.064498074 -0.0054217195 0.16819496
000060 c8 ea 25 3d d5 06 1a 3c ab c7 1d 3d d1 54 0f 3e
       0.040507108 0.009401043 0.038520496 0.13997199
000070 b6 de 10 3e ee 2f 12 3e a7 dd 8d 3e 22 79 17 3e
       0.14147457 0.14276096 0.2770817 0.14792302
000080 1e 76 db bb a3 6e 1a bd 6b db 82 bd 5c ce 93 b9
       -0.0066974303 -0.037703168 -0.06389507 -0.00028191775
000090 45 fc dc 3d 22 fa a8 3d cc 1c 0b 3e 21 60 0d 3e
       0.10790304 0.08250834 0.13585204 0.13806202
0000a0 de 53 a9 bd 36 7b a4 3d a0 72 b4 bd 3a bb 76 bc
       -0.082679495 0.08031313 -0.088109255 -0.015059287
0000b0 cc c8 48 3e d1 f3 24 3e 23 4d 97 bd 97 c6 ad 3d
       0.19607848 0.16108634 -0.073877595 0.08485144
0000c0 d2 0c d2 bb 34 7c f2 3c 9e d0 47 bd 95 30 b5 3c
       -0.0064102197 0.02960024 -0.048782937 0.022117892
0000d0 67 1f a1 bd 5a 46 f7 3d 10 27 ad 3d 44 3b 20 be
       -0.07867318 0.12073965 0.08454716 -0.15647608
0000e0 a4 b5 78 bd 8a 66 c9 bc af ea fb 3c dd 61 25 3d
       -0.0607201 -0.024585027 0.030751554 0.040376533
0000f0 2a 8b 26 be 92 63 43 bd 5a ca 18 3d 47 08 10 bd
       -0.16264024 -0.04770238 0.037302352 -0.035164144
000100 d7 6b b9 bd 0c 9f 89 3c eb 7f 1e 3e a5 79 1b be
       -0.09053772 0.016799472 0.15478484 -0.15183122
000110 4b 05 fc bc 5f a3 ac bc 77 d3 da bb 63 86 69 3d
       -0.030764243 -0.021073995 -0.0066780406 0.057012927
000120 bd 98 a0 bd 83 59 56 3d 51 77 98 3c 49 9e e7 bb
       -0.078416325 0.05233146 0.018611582 -0.0070684296
000130 a4 33 93 bc 21 13 cc 3d b6 8d 26 3d ea 35 82 bd
       -0.01796896 0.09964586 0.04066249 -0.063579395
000140 94 97 90 3b f2 41 9b 3d 20 11 b6 3c f7 a7 e5 bc
       0.004412601 0.075809374 0.022224963 -0.028034193
000150 41 bf 8d bd c5 16 07 be 28 23 13 be c7 9e 9e bd
       -0.069212444 -0.1319228 -0.1436888 -0.07745128
000160 8d 55 ae 3d 46 1d b8 bc db 9c 1e 3e 4f 52 f5 bd
       0.08512411 -0.022474896 0.15489523 -0.1197859
000170 95 84 33 3e 7d d7 24 3e a9 58 e5 bc 99 0b e4 bd
       0.17531045 0.16097827 -0.027996378 -0.111350246
000180 20 29 69 3d 5f 57 74 bd 51 44 8e 3d dc 72 be bd
       0.056923985 -0.059653636 0.06946624 -0.092992514
000190 1c 73 da bd 55 1c 2f 3b d8 d6 b8 bc 8a 8e b0 3d
       -0.106664866 0.0026719768 -0.022563383 0.08620937
0001a0 8d 8f d5 3c be d2 97 bd e5 66 0f be b8 c0 59 bd
       0.026069427 -0.07413243 -0.14004095 -0.053162307
0001b0 9b 39 5a be 25 87 58 3d e1 82 5f 3d b5 d3 1a 3e
       -0.21311037 0.05286326 0.054568175 0.15119822
0001c0 b8 a5 54 3e 6f 32 c7 3d b4 5e 32 3e db 9a 44 be
       0.20766342 0.09726416 0.17418939 -0.19199698
0001d0 c7 ba 37 be c3 95 c3 bd bb ae 2e 3d f4 15 ef 3d
       -0.17942344 -0.09550049 0.042647105 0.11674109
0001e0 5f c7 82 3e e8 e1 c0 3d fa 5a 77 bd ad a9 3b 3e
       0.25542733 0.09418088 -0.060389496 0.18326445
0001f0 1b d1 34 3e 3f 75 74 3e 09 dc 06 3e bc 02 8c 3d
       0.17657892 0.23872851 0.13169874 0.06836459
000200 aa 33 0e 3e d2 c4 15 3e 05 ee f2 3d 26 4e 65 bd
       0.13886896 0.14625862 0.11861805 -0.05598273
000210 55 10 a1 3c b0 a4 11 bd b1 52 f2 3d a6 c8 91 bd
       0.019661108 -0.03555745 0.118321784 -0.07118349
000220 21 31 0e 3e ce fb 7f 3e c8 2f fd 3d 71 27 0e 3d
       0.13885929 0.249984 0.12362629 0.034705583
000230 fb 37 0a bd e1 9c cc bd 51 7a 3d 3e 25 ed de bb
       -0.033744793 -0.0999086 0.18503691 -0.006803172
000240 69 43 f6 3d 48 9b 59 3c ff 52 40 3e d3 18 68 bd
       0.12024576 0.013281651 0.1878166 -0.0566643
000250 57 c6 9a 3d 72 36 81 3e 53 74 26 3e f3 8a ee 3d
       0.075573616 0.2523685 0.16255312 0.11647596
000260 32 9c 4b 3e 56 c9 bb 3b 94 16 a1 bd 38 9b 68 3d
       0.19883803 0.005730788 -0.078656346 0.056788653
000270 ae 7b 2e 3e 4b 90 04 3e 23 c9 47 3e 68 94 93 3d
       0.17039368 0.12945668 0.19510321 0.072060406
