generate_forecasts/output/Local_Forecasts/Bakery and cereal products (excluding baby food)/2025/models/SimpleFeedForward/W0/gluon_ts/prediction-net-state.pt (torch, 34030 bytes, 7 tensors)

model.nn.0.weight f4 [20, 32]
000000 30 45 ae 3d 12 57 23 3d 32 a7 58 bc d0 70 70 3d
       0.0850929 0.03987796 -0.013223456 0.058701336
000010 a7 e4 cb 3d 88 a9 cc 3d da 9d b0 3d c8 dd ff 3c
       0.09955721 0.09993273 0.08623858 0.031233683
000020 4c 26 0f 3d 92 7b 5b 3d 29 9d f2 3d 6d 5d fb ba
       0.034948632 0.053584643 0.11846382 -0.0019177623
000030 7b 40 d2 3c b2 95 b1 3d 25 b4 66 3d 53 2e cc 3d
       0.025665512 0.0867113 0.056324143 0.09969773
000040 8b ce d4 3d a1 fb 86 3c 1c 0d d3 bb 5d 52 c8 3c
       0.103909574 0.016477408 -0.0064407717 0.024453336
000050 0f c6 b0 3d 03 6f a4 3d 78 c8 09 3c 18 fd bf 3d
       0.08631527 0.08028986 0.008409612 0.09374446
000060 62 a1 c9 3d 32 f2 cf 3d e9 8d 71 bb d1 53 45 3d
       0.098452345 0.10153617 -0.0036858267 0.048175637
000070 be c8 23 3d 4a 8e b9 3b b4 48 da 3d e9 46 de bb
       0.039986365 0.005662714 0.10658398 -0.0067833555
000080 cd 91 cb bc 15 10 43 bd 19 4e ee 3c 2b 77 a2 bb
       -0.024849797 -0.04762276 0.029089974 -0.0049580536
000090 ea b0 42 3d 21 e6 b8 3c f4 e0 c9 3c 20 1d 80 bd
       0.047532 0.022570672 0.024643399 -0.06255555
0000a0 a7 c4 b9 bc bf eb 92 3d 21 3e 29 bc 16 99 87 bd
       -0.022676779 0.07173871 -0.010329754 -0.06620996
0000b0 0d 31 56 bd ea 21 c8 3c f4 14 63 bd ed e9 10 bd
       -0.052292872 0.024430234 -0.055439904 -0.03537934
0000c0 e5 b8 dc 3c a6 07 8e bd 90 24 a8 bd ef 48 dc 3b
       0.026943633 -0.069350526 -0.08210099 0.0067225615
0000d0 5d 60 da ba c8 b2 a6 3c c9 55 95 3d ec 86 86 bc
       -0.0016660799 0.020348921 0.07291753 -0.016421758
0000e0 22 4b 23 3d 42 87 53 3d 6a 33 a8 3b 31 60 d3 3c
       0.039866574 0.051642664 0.005133082 0.025802704
0000f0 21 7b 9d 3c d4 74 e8 3d 29 a3 8a 3d c2 67 0e 3e
       0.019223752 0.11350408 0.067694016 0.13906768
000100 35 5b 45 bd 3c 11 4c ba 30 cb b9 bd e1 4f a0 bc
       -0.048182685 -0.00077845505 -0.09071958 -0.01956934
000110 a0 fa a6 bc c3 8b a9 bd 1e fb aa bd ac ed 85 bc
       -0.02038318 -0.082786106 -0.08348678 -0.016348682
000120 bc a0 bd bd 24 a8 22 bd 54 34 99 bd be 2d 23 3c
       -0.09259173 -0.039711133 -0.07480684 0.009959636
000130 c0 b6 ba bd 91 e2 aa bc 09 3d 58 bd 20 b6 df bc
       -0.09116888 -0.020859988 -0.052792583 -0.027308524
000140 62 79 0b 3d 9e cf f3 bc 6e bc 1f 3d 80 ee 63 bd
       0.034051307 -0.029762086 0.03899806 -0.055647373
000150 d7 0b 6e bb c3 64 dd 3b ed 02 68 3d de b5 59 3d
       -0.0036322975 0.0067563965 0.056643415 0.053151958
000160 bf fc 46 bc fd 99 a3 3c 5f bd a3 3d 86 83 bc 3c
       -0.01214522 0.019970888 0.07995104 0.023011934
000170 72 a4 00 3e 5c 7d d0 3d 05 b0 fa 3d 52 c8 5c 3e
       0.12562731 0.101801604 0.12240604 0.21560791
000180 07 86 19 bd 4d 6b 99 bd 6f 14 f4 bc cf 97 cd 3c
       -0.037481334 -0.07491169 -0.0297949 0.025096802
000190 e2 97 ec bc 13 38 22 bd eb fe 93 bd fb e1 f5 bc
       -0.028881017 -0.039604258 -0.07226356 -0.030014982
0001a0 2e 3c c2 3c 3a 34 33 39 f2 ec 98 bd aa 75 5c bc
       0.023710337 0.00017090226 -0.07467069 -0.013455788
0001b0 02 2f 70 bd 43 e6 48 bd 17 09 1d bd 59 0d 50 bd
       -0.05863858 -0.04904772 -0.038338747 -0.05079398
0001c0 28 dc c5 bd a0 00 da bb 27 7f b1 bc 1c 80 8c bd
       -0.09661132 -0.0066529065 -0.021667076 -0.068603724
0001d0 f4 81 9e bc 23 52 40 bd d8 3e a1 ba 57 61 c8 3d
       -0.019349076 -0.04695333 -0.0012302054 0.09784191
0001e0 f5 ab c6 3d eb a6 2e 3d c8 b2 ca 3d db a6 8a 3d
       0.09700767 0.042639654 0.09897381 0.067701064
0001f0 cc 38 06 3e 8d 90 08 3e 3a 38 d1 3d 17 5b 13 3e
       0.13107604 0.13336392 0.102158025 0.14390217
000200 bb 39 55 bc 43 9f a5 3d e2 4c ae 3d 3a a6 dc 3b
       -0.013014252 0.080870174 0.08510758 0.006733683
000210 01 5a 44 3c a2 22 1d 3d bb 64 00 bc 4f ec 6d bc
       0.011984349 0.038363107 -0.007836516 -0.014521672
000220 cc 61 48 3c 6a 53 bc 3c 84 78 2d 3b ea 47 d9 3d
       0.012230348 0.022988994 0.0026469538 0.1060942
000230 ea d1 e7 3d c5 c2 95 3d 3c 75 87 3c 2c 3f 90 b9
       0.11319335 0.0731254 0.016535394 -0.00027512887
000240 11 dc 2f bc e8 b9 ca 3d 03 b7 ee bc 94 97 65 3c
       -0.01073362 0.0989874 -0.029140001 0.01401319
000250 fb e7 bb 3d e9 8c d9 bb ca 7f 49 3d 08 d5 90 3d
       0.09175106 -0.0066391123 0.049194135 0.070718825
000260 93 4c 29 bc a6 1d ae 3c 43 31 f3 3d 3a b3 f0 3b
       -0.010333198 0.021254372 0.1187463 0.007345584
000270 d5 73 3d 3d b1 4c d1 3d 14 69 88 3d 5a 15 c0 3b
       0.046253044 0.10219706 0.06660667 0.0058619203
000280 ea 86 52 3d 2a 96 b1 3d ee 47 e8 3c ca e6 02 3d
       0.051398195 0.0867122 0.028354611 0.03195838
000290 40 07 a5 3d 6f 9d d2 3d 83 39 b3 3c 6d c9 4e 3b
       0.080580235 0.10283934 0.02187801 0.0031553165
0002a0 e0 ad 1b bc 7b 90 74 3d 22 82 b6 3d 25 56 bb 3c
       -0.009501904 0.0597081 0.089115396 0.022868225
0002b0 3d bc c6 3d e9 fb 77 3c 93 32 84 3d 67 4b a7 3c
       0.09703872 0.015135744 0.06454959 0.020421697
0002c0 37 54 c5 3d ff 59 9d 3d 4b 68 53 3d f8 fe 93 3d
       0.09635203 0.07683181 0.051613133 0.07226366
0002d0 9a 31 2b 3b 53 5b 0b 3c 31 1d 30 3d 2f 93 2a 3d
       0.0026122094 0.00850566 0.04299659 0.04164427
0002e0 4d 86 e3 3d 35 f1 10 3d 94 e3 17 3d 68 5a a9 3d
       0.111096 0.035386283 0.03708227 0.08269197
0002f0 9d 2c a6 3c 44 b3 43 3d 75 74 10 3d 1c a5 81 3d
       0.020284945 0.047778383 0.035267312 0.0633032
000300 ff dc 87 bc 2e df 94 bc ab ed c4 3d 8b 8e ba 3d
       -0.016584871 -0.018172827 0.09615644 0.09109219
000310 32 9b a8 3c 3e 29 c1 3d 03 ab aa 3b 86 93 f7 3d
       0.020581815 0.094316944 0.0052083745 0.12088685
000320 db 60 6b 3d d0 09 fa 3d 6e 8c 97 3d c7 68 20 3d
       0.057465415 0.12208903 0.07399832 0.039162423
000330 bc 16 e9 3c 1c 90 51 b9 6d 12 00 3d a9 09 30 bc
       0.028453223 -0.00019985478 0.031267572 -0.010744491
000340 93 13 dc 3d a7 ff 72 3d c4 fc ff 3c 71 99 69 3d
       0.10745921 0.05932584 0.031248458 0.0570311
000350 dd f3 e3 3d 7c 83 f9 3c 78 31 b2 3d 91 47 ff 3d
       0.111304976 0.030458204 0.08700842 0.12464822
000360 2d 21 f7 3d ae 11 b5 3d 7b 77 fb 3c 52 8f 28 3d
       0.12066875 0.08841263 0.030696621 0.041152306
000370 40 27 bf 3d 0e 54 47 3c 8d 14 5c 3d 8a 9c fc bc
       0.09333658 0.012166036 0.053730536 -0.030836362
000380 7c dd 13 3d 88 43 98 3c bd 36 03 3c a2 72 cf 3b
       0.036099896 0.018586889 0.008008656 0.006330804
000390 40 70 aa bc 2d 48 90 3d d1 fd 1a 3d ec 1a cf 3d
       -0.020805478 0.070450164 0.037839714 0.10112557
0003a0 19 55 d2 3c b9 60 90 3d 3b 3a 9b 3c 45 6d 26 3d
       0.025675343 0.070496984 0.018948665 0.04063155
0003b0 09 81 87 3c 5a 68 41 bc 00 db 97 bc 71 8c a1 3d
       0.016541021 -0.0118046645 -0.018537045 0.07888115
0003c0 18 27 83 3d e3 a4 70 3c 75 88 af bb 59 ce c7 3d
       0.06403941 0.01468775 -0.005356843 0.097561546
0003d0 d0 6a 2f 3c 7f 6f f9 3d c2 9d 01 3e 16 a3 de 3c
       0.010706618 0.12179469 0.12657836 0.027177375
0003e0 10 2a 6f 3d 0f f0 08 3e d1 9b 85 3d 15 4f 09 3d
       0.058389723 0.13372825 0.0652386 0.033522684
0003f0 67 f4 05 3b c2 49 b6 3d 86 32 20 3d b2 d4 81 bc
       0.0020439865 0.08900787 0.039110683 -0.015848491

model.nn.0.bias f4 [20]
000000 e2 45 32 3d 51 1c a4 3c 30 23 91 3d 2e 4b 56 3d
       0.043523677 0.020033034 0.070867896 0.05231779
000010 87 6f 0b 3d 01 e0 2c 3d d9 48 36 3d de 9c 4a 3d
       0.034041908 0.042205814 0.044503067 0.049466006
000020 75 fc 13 3d 7e 35 43 3d 2e 07 0a bc 91 31 02 3d
       0.036129434 0.047658436 -0.008424563 0.03178555
000030 c9 3b 7d 3d 00 00 00 00 6f 42 1d 3d b2 76 47 3c
       0.061824594 0.0 0.038393434 0.012174295
000040 36 1c 3c 3d 09 db 0b 3d 51 b7 3c 3d 68 99 0a 3d
       0.04592534 0.034144435 0.04607326 0.033837706

model.nn.2.weight f4 [320, 20]
000000 10 7e ee bd f0 88 9f bd f8 4a 82 3e 94 4c 41 3e
       -0.11645138 -0.07789791 0.25447822 0.18876868
000010 fc fc ce bd b7 0a b4 bd 61 c1 36 bc 2c 82 cc bd
       -0.10106847 -0.08791106 -0.011154504 -0.09985766
000020 53 58 ff bd d8 f7 5b bd 4c 81 39 bd b4 19 9d bd
       -0.124680184 -0.05370316 -0.045289323 -0.07670918
000030 4f 2d 5e 3e 24 bc d1 bb 4a 89 37 bd 00 f6 f9 3d
       0.21696971 -0.006400602 -0.044808663 0.12205124
000040 7a 48 18 be d6 1b 54 bd b9 6c e7 bd ca 48 6c bd
       -0.14871398 -0.05178436 -0.11300034 -0.057686605
000050 12 64 10 3e 91 4e b6 bb b4 71 69 be f1 37 87 be
       0.14100674 -0.005563565 -0.2279728 -0.26409867
000060 d8 48 05 3e bd 85 ea 3d 67 9d 2e 3e 14 b7 0b 3d
       0.13016069 0.1145129 0.17052232 0.034110144
000070 e6 b8 15 3e f6 d6 4f 3d d5 cc 7e bd 02 6c 27 3e
       0.14621314 0.050742112 -0.06220706 0.16349795
000080 a2 36 85 be 6a 77 95 3c 42 5f e1 3d d8 af 0f be
       -0.26018244 0.018245418 0.11004497 -0.14031923
000090 25 e9 d1 3d a6 b5 0e 3d de c4 32 3e 60 5e 16 3e
       0.10249547 0.034841202 0.17457911 0.14684439
0000a0 e3 fa d3 bd 04 1c 78 bd 55 a3 96 bd 37 0f db bd
       -0.10350587 -0.060573593 -0.07355372 -0.106962614
0000b0 27 e6 94 bd b8 9c 3f bd cf 81 0b be fd b2 ca bd
       -0.072704606 -0.046780318 -0.13623737 -0.098974206
0000c0 2d 24 4d bd b3 b6 50 bd 09 42 b5 bc 74 22 b9 bd
       -0.050083328 -0.050955486 -0.022126215 -0.090397745
0000d0 6d 36 4a bd fe 64 9b 3b b4 a2 80 bd ce ee 1a bd
       -0.04936831 0.004742264 -0.06281033 -0.0378254
0000e0 2f fc 65 bd 93 7d f7 bd 7f 77 01 bd 63 16 81 bd
       -0.056148704 -0.12084498 -0.0316081 -0.06303098
0000f0 28 56 da bd 89 4f d6 bd 26 3c 07 3c 61 ec 7d bd
       -0.10660964 -0.10464389 0.008254087 -0.061993007
000100 dd 30 b4 bc 34 54 05 bd 35 fb d9 bd 0b 6a 42 bc
       -0.021995956 -0.032551005 -0.10643617 -0.011866103
000110 18 ea 15 bd d5 13 72 bd 88 16 4c 3d 63 74 fd bd
       -0.036600202 -0.059100945 0.049826175 -0.12375715
000120 a0 64 52 3c f7 05 51 3b eb 3b b3 bd a9 1f aa bd
       0.012841374 0.0031894424 -0.08751663 -0.0830682
000130 c8 c6 8e bd 5f 16 40 bd 7c 68 d1 bc 1a 91 bd bd
       -0.06971508 -0.046896335 -0.025562517 -0.092561916
000140 b4 b1 7c bc c1 0c 4a bd 5f 45 a2 bd 37 69 37 be
       -0.015423227 -0.04932857 -0.07923388 -0.1791123
000150 71 46 89 3d 60 5a bb 3d ea 00 b4 3d c3 51 f1 3c
       0.06702889 0.09148097 0.08789237 0.029457932
000160 af 81 cd 3c f3 06 9c 3d 7f dd 0d bd d7 f4 3b 3d
       0.025086252 0.07618513 -0.034635063 0.045887794
000170 f5 49 4b be 48 80 88 bc b8 e4 a8 3d c1 5c 27 be
       -0.19852431 -0.016662732 0.0824675 -0.16343977
000180 5d 64 14 3d 17 53 fb bc 0b 11 ca 3c be db 2c 3d
       0.036228526 -0.030679269 0.02466633 0.04220175
000190 39 20 21 3b b5 01 be 3d b7 4b db 3d 8b 89 42 3d
       0.0024585857 0.09277669 0.10707801 0.047494452
0001a0 a1 19 0c 3d 4c 7c 74 3c da 1d 6e 3c 1d f8 3a 3d
       0.03420413 0.014922213 0.014533484 0.045646776
0001b0 63 96 ac bc 69 cc 95 bc 1e 81 9a 3d 49 75 f1 3b
       -0.021067804 -0.018285947 0.075441584 0.007368718
0001c0 17 2e 82 3d a1 17 8a bc 87 6b e5 bc 36 f6 fc 3d
       0.06356447 -0.01685697 -0.028005375 0.123516485
0001d0 e8 81 bf bc 27 1c 7d 3c 5c 9b bb 3d cc b4 a6 3c
       -0.023377374 0.015448607 0.09160492 0.020349883
0001e0 8d de 69 bc 86 53 3a 3d 92 3d 2f 3e 98 af 47 3e
       -0.014274252 0.04548981 0.17113331 0.19500577
0001f0 86 18 ca bc 89 69 08 bd 0e 0c 4c 3d bf 6e 39 bc
       -0.024669897 -0.03330377 0.049816184 -0.011317908
000200 ab 5e 61 bd 13 ba 6c bd ce 19 4e 3c 9c f2 28 bd
       -0.055021923 -0.05779464 0.0125793945 -0.041246995
000210 6c 2f 22 3e 8c e9 9d ba 23 90 6e bd f2 dd a8 3d
       0.15838403 -0.0012047752 -0.05824293 0.08245458
000220 8d eb 24 3d 6c 95 e2 3c 1d 69 83 3d 2a 03 0c bd
       0.0402637 0.02765914 0.06416533 -0.034182705
000230 4f 9e 34 bd d8 5f a4 bd 79 0e 8e bd 43 79 33 be
       -0.044096287 -0.08026093 -0.06936354 -0.17526726
000240 b1 96 c9 3c b5 95 4c 3c f0 69 8a 3d 75 b5 9a 3d
       0.024607988 0.012486865 0.06758487 0.075541414
000250 39 ba 4b 3d a5 db cd bc cf db 0f bd 49 0b 2f bc
       0.049738143 -0.025129149 -0.035121735 -0.010683843
000260 01 cf 28 be 92 69 cd 3b 89 79 64 3d 1f 75 42 be
       -0.16485216 0.0062686885 0.055779967 -0.1898999
000270 ad 34 3d 3d 31 d6 66 3c bf 2f 75 bd a0 7d 73 bd
       0.046192814 0.014089153 -0.059859987 -0.059445977
000280 14 c3 c7 3d d7 2b 02 3d e9 9a ed bd 39 b6 2b be
       0.09754005 0.03178009 -0.116018124 -0.16768731
000290 90 87 b2 3d 59 e0 a3 3c 7f 65 a7 3d e8 a0 a7 3d
       0.08717263 0.020004438 0.08173656 0.08184987
0002a0 d7 4f a5 3d 95 aa b9 3c f3 ea 13 bd 30 c9 18 3d
       0.08071869 0.022664348 -0.036112737 0.037301242
0002b0 4d a5 26 be 27 b5 af bc f1 fc 19 3e a3 0b 6f be
       -0.16273995 -0.021448685 0.15037896 -0.23344283
0002c0 a8 b3 c2 3c 23 29 a8 3d 4a c1 e2 3c 22 4e 5d 3c
       0.023767307 0.08210971 0.027680058 0.013507398
0002d0 75 ad fa 3d bd ea f3 3d 19 c1 ea 3d 98 86 5a 3d
       0.122401156 0.11910007 0.11462612 0.053351015
0002e0 99 3a a3 3d 5b 65 26 3c 1f b3 96 3a 25 b7 c3 3d
       0.07970161 0.010156001 0.0011497474 0.095564164
0002f0 49 56 e8 3c d2 96 9f 3d 21 5e 15 3d 63 a3 4a 3d
       0.028361456 0.077924386 0.03646672 0.049472224
000300 0b d3 e4 3d 73 60 81 bb d4 cf f3 3b d1 1f 00 3e
       0.11173066 -0.003948265 0.0074405465 0.12512137
000310 de d1 c1 3d 0e 1a 03 3e 6f 46 88 3d fd 2c 83 3d
       0.09463857 0.12802908 0.06654059 0.06405065
000320 be 83 d6 3c d6 d6 11 bd b6 cb d1 bd 21 62 cd bd
       0.026185866 -0.035605274 -0.10243933 -0.10028482
000330 42 c3 af 3c e2 57 22 3d 1e 9d 1b 3d 81 01 25 3d
       0.02145541 0.039634593 0.037991636 0.040284637
000340 ae d4 9d 3d 21 84 22 bd 88 63 2b 3d 8f 55 4c ba
       0.07706581 -0.03967679 0.041842967 -0.00077947316
000350 c8 64 b0 bd 8e 04 ae bc 08 7e a5 3c b7 53 15 be
       -0.086129725 -0.021242406 0.020201698 -0.14582716
000360 6d a7 5f 3d 70 6f 82 3d 63 d8 71 bc ef c6 9a 3d
       0.05460303 0.06368911 -0.014761063 0.07557475
000370 bd 43 f3 3c 57 04 2c 3c 71 ee 2c be 60 d2 20 be
       0.029695386 0.010499082 -0.16887833 -0.15705252
000380 87 8f 89 3d d1 1b e3 3c ba 8b 75 bc 3f b7 c4 3d
       0.06716829 0.027723225 -0.014986927 0.09605264
000390 04 6f b0 3d 0c 1c 05 3c c1 e4 9a bd fd 0b 26 bb
       0.086149246 0.008124363 -0.075631626 -0.0025336735
0003a0 f6 0f 13 be 60 80 35 bc 4e 40 41 3d f8 be 2e be
       -0.14361557 -0.01107797 0.047180466 -0.17065036
0003b0 72 b1 f3 3d d0 51 ad bc 09 61 7e bb da 8c 87 3d
       0.118990794 -0.021157175 -0.0038815162 0.06618662
0003c0 cc d4 55 3c 04 27 d4 bd 6d bb f3 bd 21 6a 06 be
       0.013051223 -0.10359004 -0.11900983 -0.13126422
0003d0 91 fa c8 bd f7 cf a6 bd 50 05 c3 bd 10 8b ed bd
       -0.09813417 -0.08145135 -0.09522498 -0.1159879
0003e0 3a 7c 9c bd 00 0f e0 bd 64 c5 61 3d 22 b7 c5 bd
       -0.07640882 -0.10940361 0.055119887 -0.096540704
0003f0 d0 7d 2b be 83 ff 53 3c 93 3b a8 bd 69 9e 2c be
       -0.16747212 0.012939337 -0.08214488 -0.16857304

model.nn.2.bias f4 [320]
000000 2a fa 52 bd 88 21 c0 3d 2c b4 72 bd b9 00 5f bd
       -0.051508106 0.093813956 -0.059253857 -0.05444405
000010 d0 39 13 3c e7 53 cd 3c be b3 3a 3c 52 8b 9d bc
       0.008985952 0.025064422 0.011395393 -0.019231472
000020 7a 20 32 3d 11 d6 44 3d b8 b9 15 bc 28 15 46 3b
       0.043488003 0.048055712 -0.009138517 0.0030225012
000030 cf 18 4b bd ae ac 6b 3d e5 7d 23 ba 87 59 85 3c
       -0.049584206 0.057537727 -0.0006236716 0.016278042
000040 e9 57 9e bd 67 9d 17 bc be 73 97 bd b1 1a 3d bc
       -0.07731611 -0.009253836 -0.07395123 -0.011542008
000050 9b 41 69 bd 36 bc d7 3d 40 4a 7d bd fd 6d 67 bd
       -0.056947332 0.10533945 -0.06183839 -0.056501377
000060 50 c0 23 3c 90 7a d0 3c d8 95 42 3c 33 25 9a bc
       0.009994581 0.025449067 0.011876546 -0.018816566
000070 60 64 3d 3d 48 b9 4a 3d 6f d7 0c bc ae 3e 6d 3b
       0.046238303 0.049493104 -0.008596285 0.003620069
000080 bd 0f 52 bd b5 03 84 3d e8 00 ed b9 95 55 80 3c
       -0.05128454 0.064460196 -0.00045204838 0.015665809
000090 bd e2 a7 bd 5a d4 22 bc 56 85 a0 bd 67 09 3c bc
       -0.08197544 -0.009938324 -0.07837932 -0.011476851
0000a0 90 0b 7e bd 19 20 e6 3d da 1e 70 bd d6 3b 5b bd
       -0.062022746 0.11236591 -0.058623172 -0.05352386
0000b0 72 48 6d 3c 4b 93 b5 3c 33 9e ec 3b 9b 90 7b bc
       0.014482604 0.022164961 0.0072210073 -0.015354301
0000c0 e2 a1 59 3d b3 13 40 3d 4d 7a a0 bb dd 18 07 3c
       0.0531329 0.046893787 -0.004897392 0.008245674
0000d0 2a 47 47 bd ad 7b 8c 3d b4 67 7a 3b a5 cb 56 3c
       -0.04865185 0.06859527 0.0038208785 0.013110076
0000e0 0f 5b 9f bd 41 95 6f bc 37 23 97 bd 2d 63 07 bc
       -0.0778104 -0.014622987 -0.073797636 -0.008263391
0000f0 ca 34 59 bd f0 1c ae 3d 50 10 71 bd 70 0f 5d bd
       -0.05302886 0.08501613 -0.058853447 -0.0539698
000100 3e 4d 0e 3c 77 9b c6 3c e5 0c 29 3c 45 c0 92 bc
       0.008685408 0.024244053 0.010318016 -0.017913947
000110 28 99 2d 3d fd 9e 43 3d b0 49 13 bc a4 e5 68 3b
       0.04238239 0.047759045 -0.008989736 0.0035537267
000120 20 a2 4a bd 49 35 69 3d 9e 43 c9 b9 dc 62 83 3c
       -0.04947102 0.056935582 -0.00038388086 0.01603835
000130 7d c7 9e bd 20 9b 12 bc 70 10 96 bd 74 08 4a bc
       -0.07752893 -0.0089481175 -0.07327354 -0.012331117
000140 05 30 5e bd d6 eb bd 3d 42 7c 76 bd 37 1d 62 bd
       -0.054245014 0.09273498 -0.060177095 -0.055203643
000150 5c f2 19 3c fa 58 cc 3c a5 a6 37 3c f1 46 98 bc
       0.009396162 0.024944771 0.011209165 -0.018588515
000160 08 65 35 3d 14 86 48 3d 24 42 14 bc c0 2d 77 3b
       0.044285804 0.048955992 -0.009048972 0.0037716478
000170 c9 6f 4f bd f4 23 6f 3d 5e 66 98 b5 35 10 80 3c
       -0.050643716 0.058383897 -1.1354675e-06 0.015632728
000180 7b 85 a1 bd 73 35 1d bc cb e9 98 bd 88 0c 43 bc
       -0.078867875 -0.009595263 -0.074664675 -0.011904843
000190 60 d0 81 bd ef 7d bf 3d 1e 64 5e bd 13 dd 49 bd
       -0.063385725 0.09350192 -0.054294698 -0.0492831
0001a0 39 62 8d 3c e7 f4 90 3c f2 be 46 3b 27 7b 36 bc
       0.01725875 0.017694904 0.0030326215 -0.01113776
0001b0 8d 94 7a 3d 41 2d 32 3d 2e 45 06 bb 9a 21 42 3c
       0.061176825 0.04350019 -0.0020488012 0.011848832
0001c0 5c ac 38 bd da b5 86 3d da fd 02 3c 2f 38 14 3c
       -0.04508625 0.06577654 0.007995093 0.009046598
0001d0 61 3b 95 bd 03 e1 8f bc f9 97 8a bd b5 6f 94 bb
       -0.07286716 -0.017563349 -0.06767268 -0.004529918
0001e0 75 d5 49 bd ab cf 90 3d 6a b4 61 bd 1f 0c 4e bd
       -0.049275834 0.070708595 -0.055103697 -0.05030453
0001f0 27 85 e3 3b 82 a9 b3 3c 8b f7 1a 3c 37 f4 8a bc
       0.006943363 0.021931414 0.009458433 -0.016962154
000200 c3 5f 17 3d 17 30 39 3d 26 49 1c bc 24 51 55 3b
       0.03695656 0.045211878 -0.009538924 0.0032549584
000210 ea bd 3f bd 3d 82 45 3d 15 fc 58 39 31 b6 81 3c
       -0.046811976 0.048219908 0.00020693273 0.015833946
000220 36 d4 95 bd b0 d1 ed bb c5 c9 8a bd 35 a3 41 bc
       -0.07315867 -0.0072576627 -0.06776766 -0.011818697
000230 aa 36 66 bd 96 80 b6 3d b5 a7 6f bd 33 af 5a bd
       -0.056204475 0.089112446 -0.058509547 -0.05338974
000240 1f bd 17 3c fd 5c be 3c c6 56 1b 3c fc 02 94 bc
       0.009261399 0.0232377 0.009481138 -0.01806783
000250 24 54 31 3d e1 59 44 3d 04 b1 13 bc 95 8b 9d 3b
       0.043293133 0.047937278 -0.009014372 0.0048078992
000260 19 ea 4b bd 3d e9 69 3d a2 f3 9d 3a 1b af 84 3c
       -0.0497838 0.0571072 0.0012050758 0.016196778
000270 b1 82 9e bd 89 c0 1d bc 45 09 93 bd 8f f6 40 bc
       -0.07739771 -0.0096284235 -0.071795024 -0.011777534
000280 79 ae 59 bd eb e5 b3 3d 15 46 77 bd fd 77 61 bd
       -0.053144906 0.08784088 -0.06036957 -0.05504607
000290 5d f2 ff 3b e4 aa c6 3c 8a ef 2c 3c 42 45 96 bc
       0.0078108744 0.024251409 0.010555157 -0.018343572
0002a0 6d 21 29 3d 8c 46 48 3d f8 d8 1f bc 20 e1 4e 3b
       0.041291643 0.048895404 -0.009756319 0.003156729
0002b0 b9 f2 4f bd ad 4d 60 3d 8f 4e 3a b9 97 85 89 3c
       -0.050768588 0.054761577 -0.00017767608 0.016787333
0002c0 ba 3e a4 bd 11 f2 03 bc 02 ef 99 bd cb 46 4d bc
       -0.08019777 -0.008053319 -0.0751629 -0.012529085
0002d0 16 16 65 bd 6e 81 af 3d 23 a2 7b bd 77 4a 65 bd
       -0.055929266 0.08569609 -0.061433922 -0.05597922
0002e0 2d dc 0f 3c fd e2 c6 3c 84 10 26 3c 83 6f 99 bc
       0.008780521 0.024278158 0.010135774 -0.01872993
0002f0 4c 36 2e 3d c2 40 4d 3d f5 aa 1c bc e6 67 8f 3b
       0.04253225 0.050110586 -0.009562244 0.0043763993
000300 81 48 55 bd 8b 2b 64 3d b9 dc 65 3a 09 60 88 3c
       -0.0520711 0.05570559 0.0008768547 0.016647356
000310 52 d4 a6 bd e3 76 15 bc b9 cf 9a bd 00 42 48 bc
       -0.08145966 -0.009122583 -0.07559151 -0.012222767
000320 eb 87 5f bd 2a 4c a6 3d 19 d5 5f bd 12 8d 4a bd
       -0.05457298 0.08119996 -0.054646585 -0.04945094
000330 46 66 12 3c fa 6e a3 3c fa 7e f0 3b b9 ac 7c bc
       0.008935517 0.019950379 0.0073393555 -0.01542204
000340 f1 bc 22 3d a7 e4 35 3d 0a ab fd bb be 75 b1 3b
       0.03973097 0.044407513 -0.0077413367 0.0054156473
000350 ee d8 3c bd 20 68 5a 3d bd 30 1c 3b 3c bf 63 3c
       -0.046105318 0.053321958 0.0023832761 0.013900574
000360 dc 43 97 bd b8 3e 19 bc c3 a5 8a bd d2 38 25 bc
       -0.0738599 -0.009353332 -0.06769898 -0.010084348
000370 66 02 50 bd 1b 6c 9c 3d 29 07 60 bd 0a ac 4b bd
       -0.050783537 0.07637807 -0.05469433 -0.049724616
000380 e4 02 cd 3b 99 88 af 3c b5 d4 18 3c e7 4c 90 bc
       0.006256448 0.02142744 0.009328057 -0.017614795
000390 b2 7a 10 3d 69 a0 37 3d d7 b9 22 bc 71 68 40 3b
       0.03527326 0.044830713 -0.009932003 0.0029359127
0003a0 e9 4b 3e bd 16 23 4b 3d dc 48 c3 38 10 4b 80 3c
       -0.046459112 0.049594007 9.311896e-05 0.015660793
0003b0 bd 35 96 bd 3f 81 db bb 42 0a 8a bd 2b 0b 47 bc
       -0.073344685 -0.006698757 -0.06740238 -0.012148659
0003c0 ce d1 60 bd c4 9f 9d 3d 35 71 5c bd 07 31 47 bd
       -0.054887585 0.076964885 -0.0538189 -0.04863074
0003d0 fd 02 1d 3c 12 93 9a 3c 35 17 c9 3b 1c 0a 75 bc
       0.009583232 0.018868957 0.0061367997 -0.014956024
0003e0 c9 8f 26 3d 27 ce 32 3d f9 97 e6 bb 5f 2d d3 3b
       0.040664468 0.043653633 -0.0070371595 0.0064446176
0003f0 97 e0 39 bd 28 51 56 3d 49 d4 5f 3b 48 dc 5a 3c
       -0.0453802 0.05232349 0.0034153631 0.013358183

model.args_proj.proj.0.weight f4 [1, 20]
000000 b6 58 c1 3d 93 d4 55 3e a2 7a c8 3b b1 52 cf bd
       0.094407484 0.20881872 0.0061181346 -0.10123194
000010 9f e8 ac 3e 12 30 ff 3d 66 ef 82 bd 7c 25 7c 3e
       0.33771226 0.124603406 -0.06393318 0.24623674
000020 d7 fc 97 3e 0c 8b 51 be cb 3b b8 3e db 61 06 3e
       0.2968509 -0.20463198 0.35983118 0.13123266
000030 4a 4f 52 3e ea 40 02 3e ef 2d 48 3d f3 b9 93 be
       0.20538059 0.12720075 0.04887193 -0.28852805
000040 ee 67 0c 3e e9 22 9e be 1c 7e 63 be 27 d8 ae 3e
       0.13711521 -0.3088601 -0.22216076 0.34149286

model.args_proj.proj.1.weight f4 [1, 20]
000000 7e 35 f8 3c 42 9e 9d 3b be b2 3e be 7d b0 7b be
       0.030298945 0.0048101256 -0.18622872 -0.24579044
000010 0a 12 dc bd 00 a3 44 3e 15 48 f0 3d a4 a1 cc bd
       -0.10745628 0.19202805 0.117324986 -0.09991768
000020 c7 be 0a bd 99 42 7b 3e 4c 2c d9 bd 7e ba 25 be
       -0.033873346 0.24537124 -0.10604152 -0.16184422
000030 27 2f 3f be 68 79 b6 bc 1b fb 38 be 08 fc ef 3d
       -0.18670331 -0.022274688 -0.18064539 0.11717993
000040 2e 61 da bd c0 4c ce 3d b4 66 0e be db f4 e5 bd
       -0.10663067 0.10073233 -0.13906366 -0.11228343

model.args_proj.proj.2.weight f4 [1, 20]
000000 3a 15 82 3e 89 0a 76 be 82 45 3f 3e 1c 83 48 3e
       0.2540682 -0.24027456 0.18678859 0.19581264
000010 e0 56 81 be d7 b5 70 3b 72 e4 c9 3d 7b 35 84 bd
       -0.25261593 0.0036729479 0.098580256 -0.06455513
000020 96 08 22 be a0 35 12 be ff 9f 14 be db db 8b be
       -0.15823588 -0.14278269 -0.14514159 -0.27316174
000030 c0 40 05 3e 9f f2 83 be e1 21 81 be 98 db a7 3d
       0.13012981 -0.25771043 -0.2522116 0.08196181
000040 fc 6a 33 3e cf 7a 78 3e d4 e0 5e 3e c9 1b e3 bd
       0.1752128 0.24265598 0.21765453 -0.11089284
