generate_forecasts/output/Local_Forecasts/Fish, seafood and other marine products/2022/models/DeepAR/W0/gluon_ts/prediction-net-state.pt (torch, 97628 bytes, 11 tensors)

model.param_proj.proj.0.weight f4 [1, 40]
000000 f8 4c 1d bd fc dd 87 3e f1 5e 1f 3e 8e 3e 17 be
       -0.03840348 0.26536548 0.15563561 -0.14769956
000010 fc 28 e1 bd b7 5e 5b be 38 66 2f be b0 ec 3d 3e
       -0.10994145 -0.2142285 -0.17128837 0.1854732
000020 44 1b 02 bd 5d 96 d9 bd 1d c5 96 bd 64 66 0a be
       -0.031764284 -0.10624383 -0.07361815 -0.13515621
000030 33 04 69 be a8 bc 9a 3d f8 6c 29 3e cf 3c 6e 3e
       -0.22755508 0.075555146 0.16545475 0.23265384
000040 57 63 18 3e 23 f8 81 3d ae 5d 3e 3e 55 cd 67 be
       0.14881645 0.063461564 0.18590423 -0.22636922
000050 b3 6e b2 bd 2d 30 1f bd 71 7d 26 be c0 a6 71 3e
       -0.087125205 -0.038864303 -0.1625879 0.23598766
000060 8b 6f 8e 3e b0 c8 6a be 96 7c 5a bd c4 2d ec 3d
       0.27819476 -0.22928119 -0.05334147 0.115321666
000070 54 1a 72 be f1 ae 3e be 22 03 8b 3e 17 5d 57 3e
       -0.23642856 -0.18621422 0.27150828 0.21031605
000080 d9 37 95 3e 2b 7b d4 3d 4f a1 b9 3d 8c 10 56 be
       0.2914417 0.10375055 0.0906397 -0.2090475
000090 91 aa c4 bd 94 12 09 be 26 fd c9 3d 84 11 3a 3e
       -0.096028455 -0.13385993 0.09862737 0.18170744

model.param_proj.proj.1.weight f4 [1, 40]
000000 3a ab 24 be 77 cc 10 3e c8 e5 05 3e d1 d8 04 be
       -0.16080943 0.14140497 0.13075936 -0.12973334
000010 89 d9 df bc e3 b7 26 be f7 19 1e 3d d3 5b 5c 3d
       -0.027325409 -0.16281085 0.03859898 0.053798508
000020 f6 a0 12 be e5 77 b3 3c c3 1a 14 3e a8 06 89 3c
       -0.14319214 0.021907756 0.14463334 0.016726807
000030 d0 fb 5f 3d 47 bb e9 3d 01 c3 e6 bd ff 50 da 3d
       0.054683506 0.114126734 -0.11267663 0.1065998
000040 e0 b0 1f 3e 16 09 c2 3c d7 25 b3 bd 26 04 09 be
       0.15594816 0.023685973 -0.08747452 -0.13380489
000050 4f 7f c5 3d 8d 6b d4 3d c3 2b 94 3c 17 ce 54 3d
       0.09643423 0.10372076 0.018087273 0.051954355
000060 ba fb fc 3d 48 ae 29 3d 4b 79 93 bd ff 61 5c 3b
       0.123527005 0.041425973 -0.07200869 0.0033627746
000070 a8 ce bb bd 0f 60 c5 bc e9 5d 6d 3d d4 34 f0 3d
       -0.09170276 -0.024093656 0.057950888 0.11728826
000080 02 47 cd 3c ec b9 c7 bc 34 27 a3 3b 26 3f 3c 3a
       0.025058273 -0.024380647 0.0049790386 0.0007181041
000090 11 a2 00 be a1 9f 4a 39 7f 15 97 3d e4 58 d8 bc
       -0.12561823 0.00019323688 0.07377147 -0.026409574

model.param_proj.proj.2.weight f4 [1, 40]
000000 45 dd 3d 3e af 4e 00 be 97 e3 0f 3d 79 cc bb 3d
       0.18541439 -0.12530015 0.035129156 0.091698594
000010 52 ea de 3d 8a dc 6a 3e 68 77 db 3d de ef 18 be
       0.10884537 0.22935691 0.10716134 -0.14935252
000020 d4 d6 84 bd d0 fb 0a 3e d4 a4 4c 3d a6 8b f3 3d
       -0.06486288 0.13572621 0.04996188 0.1189187
000030 b2 eb 01 3e b5 93 c4 bd 3f 43 e1 bd 06 56 6f bc
       0.12687567 -0.095984854 -0.10999154 -0.014607912
000040 ec 12 18 bd a3 08 0c be e8 6a 23 be df 7c e1 bd
       -0.03712742 -0.1367517 -0.1595875 -0.110101454
000050 70 5b 07 3e 0b 72 0c 3c 45 aa 2d 3e e7 6b 1e be
       0.13218474 0.008572112 0.16959484 -0.15470849
000060 4b 60 78 be 29 df 4b 3e 56 4a 61 be f3 57 9a bd
       -0.24255483 0.19909348 -0.22001013 -0.07536306
000070 46 ec d4 3d 3b d1 56 3e 53 12 3d be 1f 6d 16 be
       0.10396628 0.20978253 -0.18464021 -0.14690064
000080 0f f4 c1 bd 1c 04 65 be 87 e2 9f bd 0f f5 f9 3d
       -0.094703786 -0.22364849 -0.078068785 0.12204944
000090 b6 cd 8c 3e 2b 33 b8 3d f7 b7 67 be da 6b 52 be
       0.27500695 0.089941345 -0.22628771 -0.20548955

model.rnn.weight_ih_l0 f4 [160, 21]
000000 27 f2 f9 3d 54 81 b1 bc 32 5d c7 3d b2 da 7e 3d
       0.1220439 -0.021668114 0.097345725 0.062220283
000010 cc 61 8b bd 8d b6 39 bd d2 db 5e 3e e9 73 cd 3d
       -0.06805763 -0.04534011 0.21763542 0.10031874
000020 b3 0a ba 3d 7e 46 5f 3e 17 fd 69 3e 5d aa 98 3e
       0.09084072 0.21804234 0.22850452 0.29817477
000030 08 23 56 3e 34 88 8f 3e 94 4b c7 3d b1 2e 89 3e
       0.20911801 0.28033602 0.09731212 0.26793435
000040 f2 f2 a2 bd 06 a8 2e 3d 2a 38 ff bc b7 be 6f be
       -0.079564944 0.04264071 -0.03115471 -0.23412596
000050 87 dc 03 3d 85 13 ac 3d 8f 64 1d 3e 2c d8 66 3e
       0.032192733 0.084021606 0.15370391 0.225434
000060 5f bb fd 3d 98 12 40 3d b5 3e e9 3b 5f c0 e5 3d
       0.12389254 0.046892732 0.007118071 0.112183325
000070 ee 96 38 3e 56 db 57 3e 02 66 38 bc c8 81 48 3e
       0.18026325 0.21079764 -0.011254789 0.19580758
000080 0c d4 20 bd 9d 3c 50 3c 43 4d 24 3d 26 c3 33 bd
       -0.039264724 0.012709764 0.040112745 -0.04388728
000090 a1 30 35 3d 4e 17 ae 3d 88 2e 82 bc b8 5d ec 3d
       0.04423583 0.08500539 -0.015891328 0.11541313
0000a0 0b d0 a1 bd c1 18 19 3e f6 e7 16 3e 82 4c 95 3d
       -0.07901009 0.14950849 0.14736924 0.07289983
0000b0 fe e2 08 bc 2e 36 3e 3e cd 57 fe 3d 9b c3 25 3e
       -0.0083549 0.18575355 0.124190904 0.16187899
0000c0 5b e6 29 3c bd e1 2c bd f3 4d 02 3e f9 e0 d5 3d
       0.010369862 -0.04220747 0.12725048 0.10443301
0000d0 6d 28 db 3c c6 ea 46 3e 1c ec 14 bd 10 ee b3 bd
       0.026752675 0.19425496 -0.036357984 -0.08785641
0000e0 3e 60 ba 3d ff 06 3e 3e 85 25 c2 3d f6 c3 c7 bc
       0.09100388 0.18557356 0.094798125 -0.024385434
0000f0 63 2d 65 bb bb eb 75 be 56 91 f6 3d 3e f2 63 3e
       -0.003496968 -0.24015705 0.120394394 0.22260377
000100 60 1f e5 3c 2a 82 84 3e d4 75 9d ba 01 08 85 3e
       0.027969062 0.25880557 -0.0012013265 0.2598267
000110 65 14 9d bc 33 76 07 3d da f5 50 3e 58 4a 41 3e
       -0.019174764 0.033071708 0.20406285 0.18876016
000120 95 ae 10 3d 6e 73 28 3c 61 34 c5 3d 08 66 c9 3c
       0.035322744 0.010281427 0.09629131 0.024584785
000130 8e 21 77 3e a5 4b 17 bc 9f b9 99 bc 88 b0 db 3d
       0.24133894 -0.009234344 -0.018765269 0.1072703
000140 49 9f 6f 3d e2 aa 4b 3e c5 ed 47 3e f0 0d 37 3d
       0.058501516 0.19889405 0.19524296 0.044691026
000150 90 d1 0c 3e bb 73 49 3e ed 8e 6e 3d d7 38 05 3e
       0.13751817 0.19673054 0.058241773 0.13009964
000160 0a cf 2f 3e b3 bf 1c 3e ff 71 2a 3e c8 18 55 3e
       0.17168823 0.15307502 0.16645049 0.20810235
000170 b5 ab 6e bd ca c2 3a 3e 62 65 1a 3e 7c d8 11 bd
       -0.05826922 0.18238369 0.15077737 -0.035606846
000180 9a 0b 15 3e a8 8f 0f 3e 6d 24 00 3e 1e 0c 6b 3e
       0.14555207 0.14019644 0.12513895 0.22953841
000190 6a 40 c3 3d 8e b9 49 3c b8 7e be bc 53 83 85 be
       0.095337704 0.012312306 -0.023253784 -0.26076755
0001a0 3a 4a 5f 3d 96 11 1a 3e 05 e7 fe 3b 80 51 19 3e
       0.054514147 0.15045771 0.0077790045 0.14972496
0001b0 73 c2 b7 bc 9a 5c ca 3d a3 b9 9a 3d e0 07 3c 3d
       -0.022431588 0.098809436 0.07554939 0.045905948
0001c0 70 f4 01 bd 2b 95 30 bc 41 0d 35 3e 5e 62 69 bb
       -0.031727254 -0.010777752 0.17680837 -0.003561161
0001d0 d3 ea 91 3d c1 a8 73 3e 4b 27 0e 3e 33 5d 1c bd
       0.07124867 0.23794843 0.13882177 -0.03817482
0001e0 f0 c0 fe 3d a8 74 08 3e bb 54 68 3c 95 cc d2 bc
       0.12439144 0.13325751 0.014180358 -0.025732318
0001f0 18 c8 d8 3d 86 b9 38 3e 46 87 b7 bb 07 0a 06 3d
       0.1058504 0.18039522 -0.0056008426 0.032724407
000200 72 7e 3b 3e ec 94 47 3e 72 d4 84 3e 7a 95 0c 3d
       0.18309954 0.19490403 0.25943333 0.03432224
000210 c7 05 fc 3b 03 4d 3a 3e f9 d8 af 3d 09 11 84 3e
       0.0076911184 0.1819344 0.08586306 0.25794247
000220 39 4b 79 3e 20 b9 32 3d 4e 07 cd 3d 7a 9e 93 3d
       0.24345101 0.04363358 0.10011159 0.072079614
000230 16 74 8a 3e 83 5b a8 3d f2 ae 93 3e a0 1f 2f 3c
       0.27041692 0.082205795 0.2884441 0.010688692
000240 e7 a8 02 3d bc 42 15 bd 69 49 de 3d 6c 8a 39 3e
       0.03189936 -0.036440596 0.108538456 0.1811921
000250 52 e7 76 3d c5 3c 08 3d 62 92 cb 3a 60 9a 07 3d
       0.060279198 0.03326108 0.0015531296 0.033106208
000260 46 24 30 bd c4 c7 25 bc 80 8e 24 bc 7c b5 40 3e
       -0.043003343 -0.010118429 -0.01004374 0.18819231
000270 9e c7 3d 3e 50 69 04 3e c9 7a f3 3c be 0f a5 3c
       0.18533179 0.12930799 0.029721634 0.020149108
000280 20 80 5e 3e d0 95 84 3e 88 f8 e9 3d 31 3d 36 3d
       0.21728563 0.25895548 0.11424357 0.04449195
000290 86 fe 03 3d 99 f8 1a 3e c5 53 10 3e d2 55 51 3a
       0.032225154 0.15133895 0.14094456 0.00079855055
0002a0 40 7c 59 3d 94 c1 69 3e 69 a2 c7 3d f2 2c 51 3e
       0.05309701 0.2282775 0.09747774 0.20427302
0002b0 39 6f cc 3d 36 f7 dd 3d a5 e9 8d 3d 97 66 a0 3d
       0.099821515 0.10838167 0.0692933 0.078320675
0002c0 6c 20 99 3e c7 0b 26 3e 20 c9 46 3e 91 54 10 bc
       0.29907548 0.1621543 0.1941266 -0.008809225
0002d0 dd 59 4d 3d b1 b5 ad 3d 30 3f 74 3e 8c 86 d3 3c
       0.05013453 0.084819205 0.23852229 0.025820993
0002e0 85 34 8d 3e 21 94 40 3d 55 15 1c bc 86 d6 08 3e
       0.27579132 0.047016267 -0.00952657 0.13363084
0002f0 bd 1f 2f 3e bd f9 32 bd bc a9 a4 bd 23 82 49 3e
       0.17101951 -0.0436952 -0.08040187 0.1967855
000300 a3 8b 9d bd 70 67 39 3e 7e 43 43 bd a6 03 59 3b
       -0.07692649 0.18105865 -0.047671787 0.0033113747
000310 03 1d 83 bd c1 12 26 3e 0a 7d c1 bd 2a ba 34 3e
       -0.06402018 0.16218092 -0.094476774 0.17649141
000320 b3 4a 23 3c 27 8b 52 3b f3 81 af ba af 31 24 3e
       0.00996654 0.0032126398 -0.0013390168 0.16034578
000330 3b 4e 32 3e 95 f6 58 3d bd 3a 40 3d e0 fa 97 3d
       0.17412655 0.052969534 0.046931017 0.074208975
000340 b8 8e 46 be 21 cc 3a bd ac ba 80 3e 14 13 4a 3e
       -0.1939038 -0.04560483 0.2514242 0.1973384
000350 f8 29 62 3e f7 7b 64 3e 23 e2 cd 3d 11 4d 02 bd
       0.22086322 0.22312914 0.10052898 -0.031811778
000360 db 85 c2 3d d8 30 b9 3d f8 55 4f 3d 75 d3 16 bd
       0.09498187 0.09042519 0.050619096 -0.036822755
000370 f3 2b af 3c f2 18 db bc 14 de b8 3d 3d 3c 12 3e
       0.021383261 -0.026745293 0.09026733 0.14280792
000380 dc e0 39 3e eb fd 35 3e d1 fd fb bb 6f 31 4b bd
       0.18152183 0.17772643 -0.0076901694 -0.04960769
000390 7c 31 f9 3d 88 99 e0 3d c1 a1 f5 3c 50 87 90 3a
       0.121676415 0.10966784 0.029984357 0.0011026654
0003a0 22 75 3f 3e 7f c4 30 3e f8 03 4d 3e df 5c 81 3e
       0.18697026 0.17262457 0.20021045 0.25266168
0003b0 15 bc 6a 3c 4e 6d d9 3d c5 98 c6 3d 35 51 28 3d
       0.014327069 0.10616551 0.09697107 0.04109307
0003c0 c7 99 88 3c 56 b5 74 3e 6b 91 91 3d c8 89 60 3e
       0.01667489 0.23897299 0.071078144 0.2192756
0003d0 cb 6e 55 3e f7 30 31 3e c3 34 98 3d 99 02 bc 3d
       0.20843045 0.17303835 0.074319385 0.09180183
0003e0 0b ec 87 3c fc c0 50 3e 87 96 2f 3e 0a 9b 84 3d
       0.016592046 0.20386118 0.17147265 0.06474884
0003f0 2e 19 e7 3d 6a 99 02 3e 0b 7a 4a 3e bc d5 83 3e
       0.112840995 0.12753835 0.19773118 0.25749004

model.rnn.weight_hh_l0 f4 [160, 40]
000000 b5 4e a7 bc e4 17 a3 bd 01 e0 48 3d 23 32 bc bc
       -0.020423273 -0.07963541 0.04904175 -0.022973126
000010 54 fe 08 be 27 1d 01 3e a0 43 fb 3d fb d2 d7 bd
       -0.13378268 0.12608777 0.12268758 -0.10538288
000020 de 43 08 bd fb cc b2 3c 28 53 02 be 77 e6 b9 bd
       -0.03326785 0.021826258 -0.12727034 -0.09077161
000030 62 20 e3 bd dc 0c e3 3d 7c 0e 1c be a0 21 ae bd
       -0.11090161 0.11086437 -0.152399 -0.08502507
000040 b5 8c 12 3e e6 42 c9 bc 91 f8 33 3e ff 4a 5b bc
       0.14311488 -0.024568032 0.1757529 -0.01338458
000050 59 68 eb bc 25 6d e6 3c e3 5d 76 3e 5c 66 b1 bc
       -0.02873628 0.028128216 0.24059252 -0.021655254
000060 fb 34 bd bd 91 ef 09 3e f5 b6 13 3e 73 11 55 bd
       -0.09238621 0.13470294 0.14425261 -0.052018594
000070 76 86 56 3d 05 d8 a9 3c 62 cc e6 3d e8 d6 e9 bc
       0.052374326 0.020732889 0.11269452 -0.028544858
000080 07 cb 3a 3c dd 82 39 3e 92 36 f8 3d 95 c8 06 bd
       0.011400945 0.18116327 0.121197835 -0.032906134
000090 64 91 a7 bd b6 ff e4 bd d1 ca 20 3e 10 44 a7 3d
       -0.08182028 -0.111815855 0.15702368 0.08167279
0000a0 51 b2 4d bd 2c 51 d8 bd 8c 3d 6c 3d f4 aa cd 3d
       -0.050218884 -0.10562357 0.057675883 0.10042372
0000b0 16 17 f7 3d 4c 28 01 be 6f 84 a3 3c 3a dd 61 bd
       0.1206495 -0.12613028 0.01996061 -0.05514262
0000c0 fb 82 05 3c 52 8a 48 3d 7f f4 08 3d 9b e4 7f 3c
       0.008148904 0.048960038 0.033436295 0.015618469
0000d0 1d 92 14 be 55 5c b5 bd cd 74 bb bc 36 b0 b7 bc
       -0.14508863 -0.088555016 -0.022882843 -0.022422891
0000e0 cd 60 0c be ae af 30 3d 59 98 42 be b0 c6 b6 3d
       -0.13708802 0.04313629 -0.19003429 0.089246154
0000f0 47 af d4 3c df 04 a8 3d 7e ff b7 3d 85 fc 9c bd
       0.025962485 0.08204054 0.08984278 -0.07665352
000100 d3 f1 92 bd f0 ab 06 be 13 4c 5e bd a2 6c 02 3e
       -0.071750306 -0.13151526 -0.05427177 0.12736753
000110 e3 e1 17 3e f3 55 65 3d 07 6a 0a be 84 ea 65 3d
       0.14832263 0.05599017 -0.13517009 0.056131855
000120 aa c7 9d 3d 5d 22 a6 bd 31 ef 4e bd c7 b5 91 3d
       0.077040985 -0.08112023 -0.05052108 0.071147494
000130 15 ff 14 bc 0e ee 51 bd 15 37 9e 3d ea bf 9f bd
       -0.009094019 -0.051252417 0.0772535 -0.078002766
000140 a7 6f 90 bd 70 2d dd 3c 9d 5b fc bb 95 b1 1d 3e
       -0.07052546 0.026999205 -0.007701351 0.15399773
000150 51 ee 01 be c7 0f 87 bd e0 aa 51 bd 90 40 ed bd
       -0.12688567 -0.06594806 -0.05118835 -0.1158458
000160 bb 0c 1f be 6c 4f 50 3e d4 d3 6c 3e 0d c7 df bd
       -0.155322 0.20342797 0.23127681 -0.10926638
000170 80 41 4e be dc 7b d8 bc 34 39 d2 bc dd 3d 1e bd
       -0.20142174 -0.026426248 -0.025662042 -0.038633216
000180 43 20 28 3d 19 69 d5 3d 1e d6 06 3d 93 05 c8 bd
       0.041046392 0.104204364 0.03291904 -0.09766688
000190 c0 da 61 3c 1e ff 47 3e 67 4d 01 3e cd b9 b6 bd
       0.013785064 0.19530913 0.12627183 -0.089221574
0001a0 88 c0 38 be f8 2e ea bd bb 0b 04 3e ef 49 86 3a
       -0.18042195 -0.1143474 0.128951 0.0010245423
0001b0 1d d1 5f 3c e4 f1 cc bd 16 83 79 bd e0 24 5c 3e
       0.013660696 -0.100070745 -0.06091603 0.21498442
0001c0 3a a8 e0 bd 08 56 83 bc cd 61 57 be ff 18 df bd
       -0.10969587 -0.016032234 -0.21033402 -0.108934395
0001d0 8d 77 54 3e d4 88 86 3d 4f 0e c3 bd b4 e4 15 be
       0.2074873 0.06569067 -0.095242135 -0.14638025
0001e0 54 69 32 be 8d 9b e1 3d 2b d0 ea 3d b8 1e a5 bd
       -0.17422992 0.11015997 0.11465486 -0.080625
0001f0 58 e2 55 be b3 eb b0 bb 56 b4 aa 3c 2d 1c a4 3d
       -0.20887125 -0.0053991913 0.020837944 0.080131866
000200 56 d0 2f bd d4 5b 9b 3d 94 d5 39 3e 75 e8 d5 3d
       -0.042923294 0.07585874 0.1814788 0.10444728
000210 d4 f0 e1 3c 20 0b 09 3c 45 ba 67 3d 52 ff 4a be
       0.027580656 0.008364469 0.056574125 -0.1982396
000220 ed 08 56 bc ed d3 1a 3e 80 c2 dd 3b 44 a3 ec bd
       -0.0130636515 0.15119906 0.006767571 -0.11554578
000230 dc 98 0d be 1f 8d c8 bd 25 1c 8d 3d 8a 96 f7 3d
       -0.13827842 -0.09792542 0.06890134 0.1208926
000240 02 9b 83 bd bb d4 e0 3d 2e bc 42 3e 95 eb ff 3c
       -0.0642605 0.10978075 0.19017097 0.031240264
000250 f2 06 40 3e 9b 5d bd bd 8f a5 c9 3d ae f9 99 3d
       0.1875265 -0.092463695 0.09846031 0.07518326
000260 74 c7 64 be 7b bb de 3d 3e 38 2f be 1f a2 a1 3c
       -0.2234171 0.10875603 -0.17111298 0.019730626
000270 56 8e e1 bd 34 38 85 bd cf 03 a8 bc d4 f9 8e 3d
       -0.110134766 -0.065048605 -0.020509629 0.06981245
000280 df b5 2b be 2b 02 44 be 51 72 33 bd e5 75 0d 3e
       -0.16768597 -0.19141452 -0.043810192 0.13814504
000290 58 af 33 3b 17 22 85 bd b5 43 b0 3b 6b bd 90 bd
       0.0027417745 -0.06500643 0.005379165 -0.070673786
0002a0 f8 57 06 bd 06 3e 36 3e eb 78 02 3c a6 21 24 bd
       -0.032798737 0.17797098 0.007963399 -0.040071152
0002b0 27 7d c2 3d 63 f1 31 be 0d c6 06 3d b5 d6 f1 bd
       0.09496527 -0.17377238 0.03290372 -0.1180853
0002c0 cf 7d ca 3d a0 e1 1c be a4 40 26 3d 84 9f 1d be
       0.09887277 -0.15320444 0.04058899 -0.15392882
0002d0 4f 37 38 bd a4 c0 26 3d ce cc 90 3b 9a d5 a7 bd
       -0.04497462 0.04071106 0.004418946 -0.08195038
0002e0 7f b2 2f be 45 05 21 3c db bb 45 bd 9f c4 52 bd
       -0.17157935 0.0098279165 -0.048274856 -0.051457044
0002f0 de 11 0a 3e 42 f7 b9 bd db 59 c0 bd e7 09 39 3e
       0.13483378 -0.09080364 -0.093921386 0.18070184
000300 c8 45 7b bd f9 b8 21 bd 72 da f1 bd 68 b9 7a bd
       -0.061345845 -0.039483044 -0.11809243 -0.061211973
000310 43 df 0a bd dd 45 be bd ea f3 35 be 64 62 b7 bd
       -0.033904325 -0.09290669 -0.17768827 -0.089543134
000320 b3 c8 67 bd bd 7e ca 3b 92 59 44 3d ce 15 ab 3d
       -0.056587886 0.006179659 0.047936983 0.08353768
000330 6b b1 5e bd 8e c4 4a bd f2 48 40 be e7 cf 1a 3d
       -0.054368418 -0.049503855 -0.18777826 0.037795927
000340 e2 ad 3e bc fb 65 d8 3c d0 99 4c 3d c4 c2 3b 3d
       -0.011638137 0.026415816 0.049951375 0.04584004
000350 b9 a2 72 3d 55 5f b9 bc 76 c8 dd bd 3a 72 39 be
       0.059237216 -0.022628466 -0.108292505 -0.1810998
000360 b8 75 23 bd 79 84 e1 3d d3 46 c8 bd d7 82 d0 bc
       -0.039907187 0.11011595 -0.09779134 -0.025453014
000370 b4 e7 ce 3d 10 09 46 3e 58 2e 7c bd af b8 2f bc
       0.101027876 0.19339395 -0.061567634 -0.010725184
000380 5a 90 c8 bd 4b a7 33 be 42 32 82 ba c3 7a 20 3e
       -0.09793158 -0.17544286 -0.0009933191 0.1567183
000390 c1 75 12 bd 91 0a 14 3e c1 6b 09 be a5 fc a4 3d
       -0.03575683 0.14457156 -0.13420011 0.080560006
0003a0 92 65 30 be d5 a5 90 3d 74 2d 8a bd 9f 2e 27 be
       -0.17226246 0.0706288 -0.06746951 -0.16326378
0003b0 58 57 7b bc 09 ca 4b bc bc aa b6 bd 5c 76 01 be
       -0.015340649 -0.012438306 -0.08919284 -0.12642807
0003c0 74 5a 3f 3d 1d ce cd bd 76 54 89 3d 90 dc 73 bc
       0.046717122 -0.100490786 0.06705563 -0.014884129
0003d0 a2 fe 14 3c 58 d3 aa 3b 53 a9 91 bd fe 3e 36 bd
       0.009093912 0.0052131824 -0.07112374 -0.044493668
0003e0 3a 67 32 be ec 82 b7 bd d0 cf 62 bd 4f 14 07 be
       -0.1742219 -0.08960518 -0.055373967 -0.13191341
0003f0 7f 39 37 3d f3 a2 4a be cd 6e 2a 3c 47 09 1e be
       0.044732567 -0.19788723 0.0104023935 -0.15433227

model.rnn.bias_ih_l0 f4 [160]
000000 2a 8e b6 3d 95 d3 ae 3d a5 82 ac bd fa bb 14 3c
       0.089138344 0.0853645 -0.08423356 0.00907802
000010 79 c1 8b bd f3 93 83 3e 54 36 ac 3c aa bc 82 3d
       -0.06824011 0.25698814 0.021022 0.06383641
000020 58 2a 75 3d b0 d2 9e bd c3 0e 66 3d a4 63 87 3e
       0.059854835 -0.07755029 0.05616642 0.26443207
000030 cc 18 ef 3d 39 a5 28 3e 60 c2 e9 3b 02 3e 2e 3e
       0.116746515 0.16469277 0.007133767 0.17015842
000040 b5 83 99 bd 67 55 cf bc 2f 14 c1 bd 00 1d 5d 3e
       -0.07495824 -0.025309278 -0.09427678 0.21593094
000050 3b f5 c3 bc 89 cc ca 3d a5 61 eb bd fb be d8 bd
       -0.023920646 0.09902293 -0.114932336 -0.10583302
000060 95 34 51 3e 91 a2 2f 3d fe f6 26 3e 32 ae 06 be
       0.20430215 0.042879645 0.16305158 -0.13152388
000070 c9 c4 50 3e d2 fa 4a 3e 6c 12 26 3e a6 11 61 bc
       0.20387568 0.19822243 0.16217965 -0.013737118
000080 b9 bf db 3d d6 95 b1 3d 9c 58 10 3d 82 1f 60 bd
       0.107299276 0.08671157 0.035240754 -0.05471755
000090 9e bc 02 3e 98 88 dc 3d 9c 1f 6e bd 44 62 87 bc
       0.12767264 0.10768241 -0.058135614 -0.016526349
0000a0 fe 33 60 3d 5c 84 f3 3d 0a 57 82 3d 17 8d b1 bd
       0.054737084 0.1189048 0.06364258 -0.08669489
0000b0 a0 44 42 3e f9 4d 14 3e 15 b6 a2 3d 88 17 09 3e
       0.18971491 0.14482869 0.07944886 0.13387883
0000c0 76 cd 9c 3c 75 7c ef 3d 1e 42 ad 3d 66 0f e5 3d
       0.01914094 0.1169366 0.084598765 0.11184578
0000d0 31 7e 2e bd c6 39 02 3e e8 b4 77 bd ad 95 32 bd
       -0.042600814 0.12717351 -0.06047526 -0.043599773
0000e0 f4 9b 90 bd f6 95 37 bd e0 99 0c be ca 72 46 3e
       -0.07060996 -0.04482075 -0.13730574 0.19379726
0000f0 11 5e c7 bb 1f b3 f8 bd 79 c9 66 3e 63 ed 0d 3e
       -0.0060842116 -0.1214354 0.22537793 0.13860087
000100 ec 81 23 3e 85 68 28 3e b5 73 e5 3c d0 98 34 3e
       0.1596753 0.16446121 0.028009275 0.17636418
000110 7d 7f 11 3e e5 f0 4c 3d 1e 42 d8 bd b8 8c 8b bd
       0.14208789 0.050034422 -0.10559486 -0.06813949
000120 76 e8 a3 bd 25 b3 e8 3d 95 1c 04 3e cb 09 a1 bd
       -0.08003323 0.11362294 0.12901528 -0.07863196
000130 e6 2d 06 bd 7f 6d 2b be 4a fb 38 3d 8e 2b 57 bb
       -0.032758616 -0.16740988 0.045161523 -0.0032832357
000140 dd f2 59 bd 85 ba b5 bd e9 b6 35 bd d5 bb 8f 3d
       -0.053210128 -0.088734664 -0.04436389 0.07018248
000150 7e 3e 73 3d 04 3b 19 3e e3 1e dd bd a2 c4 37 be
       0.05938577 0.14963919 -0.10796907 -0.17946103
000160 40 f2 88 bc db 52 90 bd 02 9e 1f 3e 61 43 56 3c
       -0.016717076 -0.070470534 0.15587619 0.013077588
000170 2f 86 93 bb 3b 14 ad 3d 37 54 0e 3e bc de a9 3c
       -0.00450208 0.08451124 0.13899313 0.02073609
000180 ac 06 f9 3c 1e 64 8e bd cc 9a ab 3d 9a 74 6b 3d
       0.03039869 -0.069526896 0.083791345 0.057484247
000190 23 cb c2 bd ab 24 cb 3d a4 d7 bb bc 7c b1 24 3e
       -0.095114015 0.09919103 -0.022929974 0.1608333
0001a0 d0 c5 03 3e d5 42 23 3c a1 94 df bd 08 b6 27 be
       0.12868428 0.0099646645 -0.109170206 -0.16378033
0001b0 68 cb 75 bd 88 b7 f7 3d f4 e9 be bd 28 98 4a bc
       -0.060008436 0.12095553 -0.09321967 -0.012365378
0001c0 09 30 94 bd d2 af 0b 3c a5 a2 22 be dd 43 04 bc
       -0.072357245 0.008525806 -0.15882356 -0.0080728205
0001d0 cf 2f a9 bd d0 2d a3 b9 23 23 a2 3d ae 9d 5d 3d
       -0.08261072 -0.00031123916 0.07916858 0.054105453
0001e0 66 ab cd 3d f3 a4 82 bc cf 5c 68 3c 62 f3 af bd
       0.10042457 -0.015947795 0.014182284 -0.085913435
0001f0 ad 9a 0d 3e e9 9d 29 3e d3 a7 3d 3e ba fb 29 bd
       0.13828535 0.16564144 0.18521051 -0.04149983
000200 07 20 fd 3d 2d 9f 76 bc 2e 51 af 3d c7 aa 05 3d
       0.12359624 -0.015052599 0.08560406 0.03263357
000210 0a 03 02 3e 3d 3e f5 3d d2 6e cc 3d b1 b9 08 3d
       0.12696472 0.11974762 0.09982075 0.033380214
000220 d2 e4 64 3d db 17 a5 bd 3d 03 03 3e 92 7e 22 3d
       0.055882283 -0.08061191 0.12794204 0.039671488
000230 a3 be 0c 3e a5 4f 98 3d 72 10 74 3d 91 a8 7e bd
       0.13744597 0.07437066 0.059585996 -0.062172476
000240 f2 3b c4 3c 87 97 7c 3e a8 26 cc bd 81 e4 01 3d
       0.023954365 0.24667178 -0.099683106 0.03171206
000250 e2 a8 30 3e eb 32 f1 3c 92 52 81 bd a8 8d 00 be
       0.17251924 0.029443225 -0.06314577 -0.12554038
000260 6f d4 85 3e 42 dc 7d 3c a2 d4 6e 3e c1 9a 61 bc
       0.26138636 0.015494408 0.233233 -0.013769806
000270 5f 1b f3 bc 84 b3 83 bd 65 ce 43 3d 73 16 46 3d
       -0.029676137 -0.06430724 0.047804255 0.048361253

model.rnn.bias_hh_l0 f4 [160]
000000 ac 0f c5 3d b8 4d 8f 3d 5c 55 bc 3d 0b 9e 63 3e
       0.0962213 0.069972456 0.091959685 0.22228257
000010 00 31 16 bd 57 82 52 3e 20 18 91 3e bc 89 9a bc
       -0.036667824 0.20557533 0.28338718 -0.018864505
000020 f1 07 95 3e 8c 7a ab bd 82 4e 46 3e d1 66 8b 3d
       0.2910762 -0.08372983 0.19365886 0.0680672
000030 6f ca e6 3d d7 34 69 3e 1d c9 ed 3d c6 d6 9a 3e
       0.1126908 0.22774063 0.11610625 0.30241984
000040 3f af 90 3d b6 5f 9d bd c0 6f 80 bd 07 c1 13 3e
       0.070646755 -0.07684271 -0.062713146 0.14429103
000050 94 ff 19 3d ee 16 c3 bd f6 54 04 be b1 cb 9e bd
       0.037597254 -0.09525858 -0.12923035 -0.07753695
000060 fb 97 81 bc 03 e8 4e 3d 55 1c ec 3d d6 96 a3 bc
       -0.01581954 0.050514232 0.115288414 -0.019969385
000070 34 e3 0f 3e 06 64 44 3d be 2f 8a 3d 1f 8a 98 bd
       0.14051515 0.047946952 0.06747387 -0.074482195
000080 f0 bd 64 3e 0c d6 1d 3d 06 5c a0 3d 72 3a 89 bc
       0.2233808 0.03853421 0.07830052 -0.016751502
000090 2a e3 f5 bc 6f 61 8e 3d d4 22 bd bb d7 8f b6 3d
       -0.030015547 0.06952178 -0.005771974 0.08914154
0000a0 3e c6 da bd dd f0 b7 bc b6 40 92 3d eb d1 98 3d
       -0.10682343 -0.02245372 0.07141249 0.07461914
0000b0 76 1b 2e 3e 63 6f de bd d7 c6 0e 3e 79 40 3f 3e
       0.17002663 -0.10861089 0.13943039 0.18676938
0000c0 df 40 28 3e 40 24 7b bd b7 9c 2e 3e 94 cd 67 bc
       0.16430996 -0.061313868 0.1705197 -0.014148135
0000d0 30 17 f9 bc 2e ef 3c 3e 45 c3 e4 ba 2f 94 3c 3b
       -0.030406564 0.18450615 -0.0017453214 0.0028774848
0000e0 85 92 e9 bd 85 d9 81 3d d7 22 f8 bc 47 30 cb 39
       -0.114048995 0.06340317 -0.03029005 0.00038755147
0000f0 f5 e7 0e 3e 9d 3e 05 ba 32 da 08 3d e0 60 93 3d
       0.13955672 -0.00050828775 0.033411212 0.07196212
000100 f4 e0 b4 bd 59 b3 3b 3c 6c 0e d9 3d 59 89 e8 3d
       -0.08831969 0.011456334 0.10598454 0.11354322
000110 13 8f e5 3d 57 7e 6c 3d 0b 76 09 bd 3a 96 2d bd
       0.1120893 0.057737675 -0.03355984 -0.042379595
000120 3e 6d 69 3d 87 b3 1d be ff 17 3b bd 0e a4 05 be
       0.056988947 -0.15400515 -0.04567718 -0.13050863
000130 d9 1a 10 bd 9c bf 37 be 03 06 0a 3e fb d0 1f 3e
       -0.035181854 -0.17944187 0.13478856 0.15607063
000140 cd 28 bc 3c 88 37 c5 3d 4c 00 07 3e d6 d1 86 3d
       0.022968674 0.09629732 0.13183707 0.06582992
000150 9d 83 6a bc 25 7e 18 3c b6 b2 39 be b4 02 52 bd
       -0.014313606 0.009307419 -0.18134579 -0.05127211
000160 e2 d4 67 be 16 31 ad 3c 42 90 0b 3c 92 58 71 bd
       -0.22639802 0.02114157 0.00851828 -0.058922358
000170 ac ed 84 3c b6 c5 19 be ed 3f 4f bc c7 ae c4 bd
       0.016226612 -0.15016827 -0.012649518 -0.09603649
000180 ac 36 86 bd 6a db 82 bd 51 f3 84 3c aa 9e bf 3d
       -0.065533966 -0.06389506 0.016229304 0.09356435
000190 c0 a5 f7 3b a8 e4 48 bd 51 4a 6f 3d 56 c6 db 3d
       0.0075576007 -0.04904619 0.058420483 0.10731189
0001a0 47 4f b2 bd c1 21 49 be 69 e8 e7 3b 6a fe 81 3d
       -0.08706527 -0.19641782 0.007077266 0.06347354
0001b0 f2 b5 c1 3c 37 d2 f9 3d a7 1e b2 bd e2 b6 e7 3d
       0.023646329 0.121982984 -0.08697253 0.11314179
0001c0 45 ea a8 3d c9 38 00 bd cc 80 96 bd ea 55 b9 bd
       0.08247808 -0.031304155 -0.07348785 -0.0904959
0001d0 a2 19 ca bd b8 3f c5 3c bd 40 aa 3d 2a c2 68 bd
       -0.0986817 0.024078235 0.08313129 -0.056825794
0001e0 a4 b3 22 3e e2 1f 69 3e 8a 1a 12 3e 50 55 ae 3d
       0.1588884 0.22766069 0.14267936 0.08512366
0001f0 11 70 28 bd 81 f0 69 3e 18 ab 4d 3e 50 ba d8 bc
       -0.0411225 0.22845651 0.20084798 -0.026456028
000200 c3 d1 6b 3c ee 12 d2 bd d9 04 1e 3e c2 33 fe 3d
       0.014393273 -0.10257517 0.15431537 0.12412216
000210 e0 1b 82 bd cb 50 6a bd e8 0f be 3d b3 a0 6e 3e
       -0.06352973 -0.057205956 0.092803776 0.2330349
000220 b0 fe 52 3d 00 e2 e4 bd 75 ac 1a 3d 7f a0 23 bd
       0.05151242 -0.111759186 0.037762124 -0.039947983
000230 54 44 41 3c 0e 64 52 3e fb 02 6c bd f5 9e 59 3d
       0.011796076 0.2054598 -0.05762003 0.05313011
000240 02 fc 58 3d 8a 41 b0 3d 72 88 c1 bd ea 4c 92 bd
       0.05297471 0.086062506 -0.09449853 -0.071435764
000250 54 88 8a 3d db 3b 55 bd 91 01 2d 3d f6 57 4b bd
       0.06764284 -0.052059036 0.042237822 -0.049644433
000260 fd 9a 22 3e 05 fb 20 3e fb fa 8d 3d 15 db 2f 3e
       0.15879436 0.15720756 0.06932636 0.17173417
000270 81 a9 27 3e d8 b1 55 3e 1a de 3d 3d 92 58 14 bc
       0.16373254 0.20868623 0.04635439 -0.00905432

model.rnn.weight_ih_l1 f4 [160, 40]
000000 2a f1 f4 3a 36 07 70 3c ca 0e b1 bd fd 6f bb 3d
       0.0018687595 0.014650157 -0.08645399 0.091522194
000010 07 0d 69 ba d8 16 58 3e 93 14 4f be bd 24 5d be
       -0.0008890186 0.21102464 -0.20222692 -0.21596046
000020 a7 65 5a be 37 53 2b 3d cf 9e ef 3d 23 e3 ee bc
       -0.2132784 0.041827407 0.11700212 -0.029161042
000030 a6 4e 35 be 32 2b 14 bc e2 53 5b 3d 0d 63 5e bd
       -0.17705783 -0.009043502 0.053546794 -0.05429368
000040 5d a7 b6 bd 8e 43 0c bd 9a 62 68 bc 4b 9b 0c be
       -0.08918641 -0.034244113 -0.014183665 -0.13731115
000050 30 7d 56 3d b3 9f 8a 3d 7a cb cf 3c 91 f5 7b bd
       0.05236548 0.067687415 0.02536558 -0.061513487
000060 fd 5b 0b bc 5a ca e5 bd bd 6c 2a bd 60 25 1e 3e
       -0.008505818 -0.11220236 -0.041607607 0.15443945
000070 e2 a5 69 bd 36 84 93 3c 5a d2 66 3d a2 1f 9b 3d
       -0.057042964 0.018007379 0.05635295 0.07574393
000080 ea 07 12 be 85 91 b1 bd de c7 13 3d 03 d0 bb 3d
       -0.14260831 -0.08670334 0.03607928 0.091705345
000090 14 97 ca 3c 07 fc 8c bc d2 12 30 bd 59 c9 a2 3d
       0.024730243 -0.01721002 -0.0429867 0.0794856
0000a0 19 f9 fb bd 05 9d 55 be ab a8 c2 3d ea 4d 90 3e
       -0.12303371 -0.2086068 0.09504827 0.28184444
0000b0 20 c4 d0 bd 4b 94 22 bc bb 3e c0 be 5f e8 f3 3b
       -0.10193658 -0.009923051 -0.3754786 0.0074434723
0000c0 87 79 ba be a1 00 c7 3d 7c 43 b1 3d c4 4d 04 3c
       -0.36420843 0.09716917 0.0865545 0.008075181
0000d0 fa ef 8b be f3 00 4a be f4 f4 30 3e a1 bd c8 be
       -0.27331525 -0.19726925 0.17280942 -0.39207175
0000e0 3e e3 25 be a6 f1 6e bd 55 bc 37 be 5c b9 76 be
       -0.16199967 -0.058335923 -0.17942937 -0.24094146
0000f0 2c fd 2e be 76 69 bd bc c2 f1 16 be 0b 27 83 3d
       -0.17088765 -0.023121577 -0.14740661 0.06403931
000100 cf 09 6c bd 8e 62 0f 3c a2 46 1f 3c e2 88 f3 bd
       -0.05762654 0.008751525 0.00972143 -0.11891343
000110 ff d1 1e 3e 14 51 a1 3d c9 3c 7d be 1f fd ea 3d
       0.15509795 0.078767926 -0.24730219 0.1147406
000120 40 50 bd bd e8 7c 48 3e 42 f8 99 be 37 d2 84 bc
       -0.09243822 0.19578898 -0.30072218 -0.01621352
000130 7c a4 70 3d b9 56 a2 be 6b bb 67 be 17 47 ee 3c
       0.058750615 -0.3170679 -0.22630088 0.029086633
000140 d5 31 6e bc a2 ca 0c bd f8 54 a7 3d 0d ef ef 3d
       -0.014538248 -0.034372933 0.081705034 0.11715517
000150 ea 60 d0 bd 98 0a 82 bd ec c1 0d be d4 c8 56 be
       -0.10174735 -0.06349677 -0.13843507 -0.20975047
000160 e9 7e e9 bd af b8 c0 bd 47 e8 d7 bd cf 0f 48 be
       -0.11401159 -0.094102256 -0.1054235 -0.1953728
000170 86 2f 29 bd 50 3f 0f bd dc a3 dc bc 7a 7a 22 3c
       -0.041305088 -0.03497249 -0.026933603 0.009916896
000180 fe 78 26 bd aa 18 60 3e ae 53 84 bc 88 1e e9 bd
       -0.04064273 0.21884409 -0.016153183 -0.113827765
000190 26 86 bb 3d 43 95 2e 3d 13 dc 68 3d 02 ed 08 bd
       0.09156446 0.042622816 0.056850504 -0.033429153
0001a0 2b e4 57 3c c1 24 2f be 32 7e 14 3e 95 a8 f0 bb
       0.013176958 -0.17103864 0.14501265 -0.0073443153
0001b0 f1 4b fd 3d 8c 2f a4 3d d8 b4 47 3d 9c 0b b5 bd
       0.12368 0.08016881 0.04875645 -0.08840105
0001c0 d9 f4 00 3d f2 1c ef 3d 93 db 95 3d 23 09 0b be
       0.031483505 0.11675443 0.07317271 -0.13577704
0001d0 39 66 5b 3e 15 12 90 be fa b4 86 3d 4f b0 21 be
       0.21425714 -0.28138795 0.06577487 -0.15789913
0001e0 20 0a 6e bd 7a 38 e8 3c 83 75 12 be 35 79 b0 bd
       -0.058115125 0.028347243 -0.1430264 -0.086168684
0001f0 71 40 6b 3d 1e 9f 1a 3e 6d 2a 04 3e 5f 95 e9 3d
       0.057434503 0.15099761 0.12906809 0.114054434
000200 c1 53 cf bb 28 72 72 bc c0 53 d3 3d 98 90 12 be
       -0.006327123 -0.014797725 0.103187084 -0.1431297
000210 b9 ac dd bd 71 d7 52 bd b8 98 87 bd 98 aa ac bd
       -0.1082396 -0.051474992 -0.06620926 -0.08430976
000220 47 d9 97 3c 71 94 c3 bd 91 29 e3 3d de d1 15 be
       0.018536223 -0.09549797 0.110919125 -0.14630839
000230 87 c3 8a bc 84 f6 4b 3d 2d a2 4d bd ad e2 1d 3e
       -0.016938938 0.049795642 -0.05020349 0.15418501
000240 da 34 9b 3d 3f d0 b6 bc 1c fd 00 3d cd b3 17 3e
       0.0757844 -0.022316096 0.031491384 0.14814682
000250 f4 3f e0 3d 1a 17 98 bd e6 ee 8c 3d bd 46 ae 3d
       0.10949698 -0.07426281 0.06881504 0.08509586
000260 2a fc 13 bd 59 f7 0a 3e f9 91 e5 bd d4 9c 10 be
       -0.036129154 0.13570918 -0.11209483 -0.14122325
000270 2e b2 85 3d 51 10 52 bc 46 0b 48 3d ff 6f 02 be
       0.06528126 -0.012821273 0.048838876 -0.12738036
000280 4d f5 04 be ab 8f e9 bd 85 d2 45 be 1f 35 da bd
       -0.129842 -0.114043556 -0.19318588 -0.10654663
000290 1d b0 d1 3d 56 24 f4 3d 52 0a 35 3d 37 d7 4b 3c
       0.10238669 0.11920993 0.044199295 0.012441448
0002a0 d7 e9 05 3e ef ca 36 be 50 92 88 3d bb 0e 1d 3e
       0.13077484 -0.1785085 0.06668532 0.1533765
0002b0 b5 3f 31 bd 5e 50 fa bd c2 ae 98 bc 91 28 85 3d
       -0.043273646 -0.1222236 -0.018638019 0.06501878
0002c0 97 8a a2 3b 39 dd e5 3d 6b 58 fd 3d 29 61 bf 3d
       0.004960369 0.112238355 0.1237038 0.09344704
0002d0 9b 68 09 3d 41 34 25 be 0e 1d 0b 3e f9 ba fb bc
       0.033547025 -0.16133215 0.13585302 -0.030728804
0002e0 49 4f 10 3e da 95 ff 3d 36 69 e3 3d c5 64 02 3e
       0.14092745 0.12479754 0.11104052 0.12733753
0002f0 02 aa 13 be e8 21 0e be 47 f6 c0 3d 94 6a 76 bd
       -0.14420322 -0.13880122 0.09421974 -0.060160235
000300 71 5d ec 3d 86 bc 4c be 12 82 1a 3c 38 db 89 3d
       0.1154126 -0.19993791 0.009430425 0.06731266
000310 ce 06 26 be f9 1a 43 3e 03 c1 83 3d f5 89 21 3d
       -0.16213533 0.19053258 0.064332984 0.039438207
000320 17 31 9d be ba a0 62 be cc 15 87 3e 1c 09 86 3e
       -0.30701515 -0.22131625 0.26383817 0.26178825
000330 bb 26 53 be c9 a8 82 3c 2f d4 8a be 8b a3 4d 3c
       -0.20620243 0.015949624 -0.27115008 0.012551199
000340 87 c4 94 be 6d a8 1d bc e1 22 9e 3b fa 94 19 be
       -0.29056188 -0.009622675 0.0048259352 -0.14998236
000350 29 2e d9 bd 21 3f 07 be 95 92 67 3e b3 ae 8c be
       -0.106045075 -0.13207676 0.2261451 -0.27477035
000360 6c 45 88 be c0 d2 d8 3d 35 8e 46 bd 70 5f 9f bc
       -0.26615465 0.10587072 -0.048475463 -0.019454688
000370 97 26 25 be 99 cd fd 3d 2a a0 3e 3d ed b2 d1 3d
       -0.16128002 0.1239273 0.046539463 0.102392055
000380 0a 31 7f bd f0 32 5c be e3 d6 77 3e 2d 91 03 bd
       -0.062302627 -0.21503806 0.24203067 -0.032120872
000390 d7 a6 87 3e cc 25 9f 3d 6b e9 3e bd 09 9f e7 bc
       0.26494476 0.07770881 -0.046609323 -0.028274076
0003a0 9f 1f a9 bd c7 5a 2f 3e 4f 9d d2 bd 46 1a 65 be
       -0.08257984 0.17124473 -0.102839105 -0.22373304
0003b0 5d 71 74 3e 6f 73 55 be 4c 39 a0 be 2d 4e c6 bd
       0.2387137 -0.20844816 -0.31293714 -0.096828796
0003c0 d3 cb 37 bc b0 9b 7e bd 36 33 ae 3d 4e da a8 3d
       -0.011218029 -0.062160194 0.085058615 0.08244763
0003d0 ec c1 f7 bc 64 32 89 3d 5a 28 93 3b 8a a8 d6 3d
       -0.030243836 0.066990644 0.0044908943 0.10481365
0003e0 5e aa 36 bd 8c 6a 43 3e 05 cb d4 3d 3a c1 00 bd
       -0.04459607 0.19083613 0.103902854 -0.031434275
0003f0 9e ec 19 be 4e 33 6b bc 7d 09 ab bd c3 84 9a bd
       -0.15031669 -0.014355494 -0.08351419 -0.075448535

model.rnn.weight_hh_l1 f4 [160, 40]
000000 c8 26 01 3d c8 f0 3b 3d 05 19 ca 3d c2 77 16 be
       0.031531125 0.045883924 0.09868053 -0.14694121
000010 4f 96 86 3c 33 b0 fe bc 2d b5 7d 3d 23 62 04 3d
       0.016429095 -0.031089878 0.06194036 0.032320153
000020 22 39 a1 3d 96 19 e4 bd 19 c9 2d 3d 65 de 15 3d
       0.07872225 -0.11137693 0.04242811 0.036589045
000030 e4 be f6 3d 99 13 1d 3e c8 9c 0a be bd 3f 08 3e
       0.12048128 0.15339507 -0.1353637 0.13305564
000040 cb 82 92 3d f7 6c 50 3d cc b7 2d 3e ff 9a 5b bd
       0.07153853 0.050885167 0.16964644 -0.053614613
000050 69 97 da 3d f2 1d a6 bc 22 d7 c7 3d 5c f1 a0 bd
       0.106734104 -0.02027795 0.0975783 -0.07858536
000060 7d 48 9c bd 51 b9 a8 3d bf 2b 03 be f4 c4 9a 3d
       -0.076310135 0.08238471 -0.12809657 0.07557097
000070 a4 67 4b 3d ad a1 0e 3e 6c 19 4f bd 33 c7 02 3e
       0.049659386 0.13928862 -0.050561354 0.12771301
000080 79 50 fa 3d fb 95 80 3d a1 40 ba 3d 32 0f 0b 3e
       0.1222238 0.062786065 0.09094358 0.13580015
000090 83 00 0b bc e9 26 b5 bc 05 06 37 bc c0 40 bd bd
       -0.008484009 -0.02211328 -0.011170869 -0.09240866
0000a0 cf a0 ed 3d 1c 65 29 3d a6 15 3e bd 56 6d 83 3c
       0.116029374 0.04135619 -0.046407364 0.016043346
0000b0 4d 02 c0 3d 46 17 fd bd 35 d9 8d 3d e5 c8 81 3c
       0.09375439 -0.12357955 0.069261946 0.015842864
0000c0 61 8d cc 3d 34 1e 04 be 00 62 88 bd 0a 61 f4 3d
       0.099879034 -0.12902147 -0.06659317 0.11932571
0000d0 d1 48 06 be c3 d5 f5 3d 34 14 f6 3d 75 28 f4 bc
       -0.13113715 0.120036624 0.12015572 -0.029804448
0000e0 04 e4 b9 bd 4f 34 ae 3d 33 a4 1a bd 09 a9 2b bd
       -0.09076694 0.08506071 -0.03775425 -0.04190925
0000f0 8f 93 97 3d ab 8f 97 ba 3e cf 94 3d 39 5b 21 bd
       0.074011914 -0.0011563202 0.07266091 -0.039393637
000100 7f d8 57 bd 9b cd 51 bd ab 5a f9 3d e0 c6 bf bd
       -0.0526967 -0.05122147 0.12175497 -0.09364104
000110 c3 ae fa 3d 2d 25 bd bd c3 dc e4 3d e1 de c3 3d
       0.122403644 -0.09235606 0.111749195 0.09563995
000120 0d bf 43 bd c3 5c 88 bd 81 d1 2f 3d 03 72 df bd
       -0.047789622 -0.06658318 0.042924408 -0.10910418
000130 0c bf f3 bd 7f c3 fe bd bd e7 03 3e 21 c6 31 3e
       -0.11901674 -0.12439632 0.1288137 0.17360736
000140 73 0c a8 bc b5 0b bc bd a1 3b 39 3e 38 ac 2c be
       -0.020513749 -0.091819204 0.18089153 -0.16862571
000150 86 cb dd bc ee 57 14 be ca b1 b8 bc f3 9b 91 3d
       -0.027074587 -0.14486668 -0.022545714 0.07109823
000160 40 15 32 bd fa 39 b5 bd 2e 70 03 be 28 c7 b7 3d
       -0.043477297 -0.08848949 -0.12835762 0.08973533
000170 e7 d1 0d be 60 a0 aa bc 10 7d db bc ce e3 26 be
       -0.13849603 -0.020828426 -0.026793033 -0.16297838
000180 27 6f f0 bd 6a ae dd bd 91 45 19 3e c4 46 32 bd
       -0.117399506 -0.108242825 0.14967944 -0.04352452
000190 bb c6 e9 3d 95 21 61 3d a6 a3 fc bd b3 4a a6 bb
       0.11414858 0.054963667 -0.12335901 -0.005074823
0001a0 e2 c0 ff 3d f8 65 af bd d5 1c f2 bd 6f 6d b1 bd
       0.12487961 -0.08564371 -0.118219055 -0.08663451
0001b0 02 52 3e bd 96 fe e0 3c a0 f5 40 bd 77 bf 13 3e
       -0.046464927 0.027465146 -0.047109246 0.14428507
0001c0 b8 77 13 be 84 3f 1d 3d d1 5d 80 3c 1b 86 91 bd
       -0.14401138 0.03839065 0.015669735 -0.07105657
0001d0 8d 21 d1 3d 88 6c 27 be 4b 45 e5 3d 86 ec 00 bc
       0.102114774 -0.16349995 0.11194857 -0.007868892
0001e0 56 22 ae bd 86 82 af 3d c8 d2 3b be ed 80 29 3d
       -0.08502643 0.08569817 -0.18342125 0.04138272
0001f0 25 d0 18 be 7f c6 08 3e 98 f5 ca bd 37 ff 59 bd
       -0.14923151 0.1335697 -0.099101245 -0.053221907
000200 e3 4b fd 3c 31 a0 99 3d fc e7 8c bc 71 ae 7f 3d
       0.030919975 0.07501257 -0.017200463 0.06242222
000210 1f 0d f0 bb ef 69 2c 3e 9b 93 14 be 0f 9a bc bd
       -0.007325783 0.16837285 -0.14509432 -0.09209072
000220 a8 51 19 3e 44 3b 92 3d 99 18 e8 bd db a3 ae bd
       0.14972556 0.0714021 -0.11332817 -0.08527347
000230 32 75 21 be 86 74 8d bd b7 dd 2e 3e fc 8e 31 be
       -0.15767363 -0.06906991 0.17076765 -0.173397
000240 96 6c 90 bd b0 ce 2e 3e f5 9f ff 3d 5b 6d 04 3e
       -0.07051961 0.17071033 0.12481681 0.12932341
000250 db 0a d1 bd fb 0e 06 3e cf f8 72 3c c2 50 92 3d
       -0.10207149 0.13091652 0.014829828 0.071443096
000260 92 a5 e3 bd 50 e9 23 3d 17 eb c1 3d 7f 81 05 3e
       -0.111155644 0.040017426 0.09468668 0.1303768
000270 a9 ef 70 bd 1c ba 32 bd 47 26 2a be 55 b8 53 3b
       -0.058822308 -0.04363452 -0.16616164 0.0032305915
000280 df fb 83 3d 3d ee 12 be ea fa d0 bc 53 07 eb bd
       0.06444525 -0.14348693 -0.02551027 -0.11476006
000290 8c 42 ef bc c9 d6 28 3d d6 26 a8 3d 1e 24 69 3b
       -0.029206537 0.04122046 0.08210532 0.0035574506
0002a0 18 72 26 3e 6d 72 22 be 48 3e 7b 3c 96 1d a2 bd
       0.16254461 -0.15863962 0.015334673 -0.07915799
0002b0 85 0b 8d bd 72 49 7c 3d 5d 15 4c 3e d3 91 1f be
       -0.06886963 0.06159348 0.19930024 -0.15582971
0002c0 ad 37 fe 3d fa 8c 4e 3d 6d a0 20 3e 5a 60 d6 3d
       0.12412963 0.050427414 0.15686198 0.10467596
0002d0 15 1c 51 be c2 6b 01 be bf fb 48 be ec 18 81 bd
       -0.20420869 -0.12638763 -0.19627284 -0.063035816
0002e0 ff 3b 0a bd 27 ea fd bd df d0 06 3e 07 fb 38 3e
       -0.033748623 -0.12398177 0.13165615 0.1806451
0002f0 61 46 b4 3c 5e 7c 27 3d 76 f6 fd 3d 3e 82 d1 3b
       0.022006216 0.04089009 0.12400524 0.0063937
000300 80 77 4c 3d 6a a4 f2 3d 35 40 c4 bc 91 df 24 3e
       0.04991865 0.11847766 -0.023956398 0.16100909
000310 27 c5 1f 3c 3a cf a6 bd f3 ee b8 bd 09 6e c7 3d
       0.009751595 -0.08144994 -0.09029951 0.097377844
000320 e2 cc 92 bd 88 3a f6 39 92 2e 63 bc a3 44 7d 3c
       -0.071679845 0.00046964386 -0.013866084 0.015458259
000330 d7 b2 a3 3d 24 d6 62 bd 57 1a 56 be 7d 31 02 be
       0.07993095 -0.05538 -0.20908485 -0.12714191
000340 2a 82 f4 bc 3a 28 87 bd e9 7e f6 bc 7b 95 52 bd
       -0.029847223 -0.065994695 -0.030089812 -0.051412087
000350 20 94 99 3d 14 7d fb 3d c3 85 21 bd bc 28 30 3e
       0.07498956 0.12279716 -0.039434206 0.17203039
000360 d5 8d 18 3e cd d3 50 3e 6d b3 4c 3e b3 28 c5 bd
       0.14897855 0.20393296 0.1999032 -0.096269034
000370 0f bf 2f bd e6 26 3c 3e f7 8a ea 3d 71 4e 1a 3e
       -0.042906817 0.18374214 0.11452287 0.15068986
000380 1c 11 49 3e aa 5a ba bd 59 b8 54 bd b6 f1 db bd
       0.19635433 -0.09099324 -0.05193362 -0.10739462
000390 d9 a9 b4 bd 34 e8 36 3d fa a8 22 3d a9 02 95 bc
       -0.08821458 0.04465504 0.03971193 -0.018189745
0003a0 a7 26 28 bd 6a ee 9d bd f7 b2 09 3e b4 5b 2f 3d
       -0.041052487 -0.077114895 0.13447176 0.042812064
0003b0 8e d3 8a bb 72 b0 1e be f0 a2 2e bd 8c 4a 56 bd
       -0.004236645 -0.15496996 -0.042635858 -0.052317187
0003c0 f8 bd 53 be 05 e5 cd 3c 07 b9 1c 3e 45 0d 16 3d
       -0.20677936 0.02513362 0.15304957 0.03663375
0003d0 47 0f 80 bd 04 fe 25 be 40 c5 27 3d 39 a1 fd 3d
       -0.06252914 -0.1621018 0.040959597 0.123842664
0003e0 2d 3b 32 be 43 ee 8f 3d bb 9a cf 3d 52 85 91 39
       -0.17405386 0.07027867 0.10136934 0.00027755887
0003f0 0c 60 21 bd 99 d6 4e 3e da 2f 27 3e 92 06 47 3e
       -0.039398238 0.2019905 0.16326848 0.194361

model.rnn.bias_ih_l1 f4 [160]
000000 c3 5b 05 3d d3 f9 6d 3d a7 3d 33 3d fb 5e 3c 3e
       0.032558214 0.05809958 0.043759968 0.18395607
000010 ce 02 a8 3d 09 26 c6 3d fa 8a af bc 84 02 0c 3e
       0.0820366 0.096752234 -0.021428574 0.13672835
000020 72 9d 0b bc a1 4c f5 bd 85 68 e7 3d b7 d7 14 3e
       -0.008521425 -0.119775064 0.112992324 0.14535414
000030 07 5e f5 bd 3d 08 98 3d 74 5a f0 bd 43 92 60 3c
       -0.11980825 0.07423446 -0.117360026 0.0137067465
000040 e1 2a d2 3c 83 5c 85 bb 00 c4 fc 3d 63 13 96 3d
       0.025655212 -0.004069866 0.123420715 0.073279165
000050 38 e5 8b 3d c5 6a f1 3d 32 fa 2f 3d 83 5d 59 3c
       0.068308294 0.11787943 0.042963214 0.013266924
000060 41 93 2a 3d 1c 9a f9 3c 8f 7f 9a 3d 67 f1 de bb
       0.04164434 0.030468993 0.07543861 -0.0068036797
000070 f2 2e 7a 3e 3e d4 55 3e d3 6a cf bc 75 0a 41 3c
       0.2443197 0.20881745 -0.025319492 0.011782278
000080 a9 89 88 3e d3 49 01 be eb 25 e7 3d b4 b2 a7 3c
       0.26667526 -0.12625818 0.11286529 0.020470954
000090 70 01 0b 3e 19 e0 37 3e a9 f3 b2 3d a0 66 0d 3e
       0.13574767 0.1795658 0.08737881 0.1380868
0000a0 96 05 15 3e 4b f6 c3 bd df 4b 1e 3e 4c 0a 63 3d
       0.14552912 -0.09568461 0.1545863 0.05542974
0000b0 22 97 36 bc d2 31 61 3d 42 4f 47 3b dd f5 0b 3e
       -0.011144431 0.054979153 0.0030412232 0.13668008
0000c0 4a 65 23 be a1 65 c7 bd bf a7 c3 bd 3e 65 20 bd
       -0.15956607 -0.09736181 -0.095534794 -0.039159052
0000d0 75 06 70 3d 5d 02 85 bd 1e 07 f5 bd 50 1f ed 3d
       0.058599908 -0.064945914 -0.11964248 0.11578238
0000e0 38 37 b7 3d 9d 53 91 bd a6 35 9f 3d d1 13 79 bd
       0.08946079 -0.07096026 0.077739045 -0.060809914
0000f0 e0 e3 85 3d f6 57 e0 bd 09 f3 d3 bd 05 e3 2a 3e
       0.06537604 -0.10954277 -0.1034909 0.16688164
000100 09 69 d7 bc 8a 1c 3b bd c8 e7 d5 bd ee b2 04 be
       -0.026295202 -0.045681514 -0.104445994 -0.12958881
000110 f9 31 43 bd d4 3a 9b 3c 17 95 0a be cb ac 9b bd
       -0.04765508 0.01894895 -0.13533436 -0.07601317
000120 13 0b 72 3c ac 1e b1 bd e3 d0 37 3e c8 0d 82 3d
       0.014773148 -0.08648428 0.17950778 0.06350285
000130 cb 04 c0 3d 5e 19 18 3c 2a 45 b9 bd 2f f9 21 3e
       0.09375914 0.009283392 -0.09046395 0.15817712
000140 5f 24 47 be 7c 4f a2 bd 62 19 34 3d e7 d6 0b be
       -0.19447468 -0.07925317 0.04396952 -0.13656197
000150 af d8 25 3d d0 3e b2 b9 a8 a7 2a 3e 55 d9 4e 3d
       0.04048985 -0.00033997605 0.16665518 0.050500233
000160 74 78 d6 3d 6a 91 2c bd 13 c8 04 3e 05 a0 72 3d
       0.10472193 -0.042130865 0.12966947 0.059234638
000170 50 18 82 bd fe fd 08 3e f0 54 f2 bd c9 c3 0a 3e
       -0.063522935 0.1337814 -0.11832607 0.13551249
000180 e8 3a 1f 3e b6 10 dd bb 13 9e 9a 3d 99 5b 1c be
       0.15549815 -0.006746377 0.075496815 -0.15269317
000190 98 39 da 3d 54 30 21 3e 92 39 d5 bd 3c 4a 9b 3d
       0.106555164 0.15741092 -0.10411371 0.075825185
0001a0 84 aa 14 bd fd ab 61 bd d8 8a 9d bb 7c 8c 0d be
       -0.03629543 -0.05509566 -0.004807811 -0.13823122
0001b0 e2 08 97 3c 6a 83 dd bd 60 6a 6a 3e ed 10 0f 3d
       0.018436853 -0.10816081 0.22892141 0.03492825
0001c0 ef 00 a9 bd c3 be 01 3d bd b6 b6 3d a3 fc 37 be
       -0.08252131 0.031676065 0.08921573 -0.17967467
0001d0 51 73 56 bd 66 1f fd 3d 2a 20 92 3c 39 75 a3 3d
       -0.052356068 0.123595044 0.017837603 0.07981343
0001e0 3e 28 a4 3d 43 84 58 3e 9b e6 14 be b6 88 1b bc
       0.08015488 0.21144204 -0.14541094 -0.009493044
0001f0 2a 1e 17 be 91 99 a1 3d 60 2e 82 bd 50 2a 4c bd
       -0.147576 0.078906186 -0.063565016 -0.04984504
000200 61 b3 6e 3c ae d8 c4 bc 62 cd fb bd 09 3f bd bd
       0.014569134 -0.024029102 -0.12295033 -0.092405386
000210 f1 c7 38 bd 80 bb 8e bd 74 a8 6d 3d 0f 92 b9 bd
       -0.045112554 -0.069693565 0.058021978 -0.090610616
000220 7c 4a 0f 3d 1b b3 da 3d 8a 0e 94 3d 91 5d d2 bb
       0.034983143 0.10678693 0.072293356 -0.0064198454
000230 07 76 a3 3d 70 a6 b3 3a 1a 03 d9 3a 9a 2f 8e 3c
       0.07981496 0.0013706218 0.001655671 0.017356683
000240 c9 72 f7 3d 61 bf 08 3c 4f 4c 25 3e d7 02 1b bd
       0.120824404 0.00834641 0.1614239 -0.037844505
000250 ca ef 05 3e 69 e5 d8 3d 98 e8 1f 3e 75 57 7c bc
       0.13079754 0.105906315 0.15616071 -0.015401711
000260 1a bd 35 3e 16 21 4c bd bb 99 39 3d e6 28 d9 bc
       0.17747918 -0.04983624 0.045312624 -0.02650876
000270 97 e8 2c 3e f0 f0 df 3d c8 69 fe bb 3b 06 54 3c
       0.16885601 0.10934627 -0.007764075 0.012940939

model.rnn.bias_hh_l1 f4 [160]
000000 c3 d8 07 3e c0 9e 45 3e 01 76 ce 3d ac b7 ab bd
       0.13266282 0.1929884 0.10081101 -0.08384642
000010 0f a2 a2 3d 70 a9 8f 3d d0 ef 39 ba cb f5 04 bd
       0.079410665 0.070147395 -0.0007092925 -0.03246097
000020 a0 20 d4 3d e6 c3 f1 bc db 09 8e bd 0f 94 0c bd
       0.10357785 -0.029512357 -0.069354735 -0.034320887
000030 a6 d5 8a bd 7a 82 11 be ee ee 87 3c 2c bc 57 bc
       -0.067790315 -0.14209929 0.016593423 -0.013167422
000040 41 6e 2d 3e 6a d1 24 3e 4c d8 12 3e 15 d7 e5 3d
       0.1693659 0.1609551 0.14340323 0.11222664
000050 7b ad 74 bb ee 9e 8e bd 7d 0f a7 3b 9a 89 16 3e
       -0.0037334848 -0.06963907 0.005098282 0.14700928
000060 f0 6e 40 3c 3e f3 3c 3d 2a ce 19 3d 6e 7a 06 3e
       0.0117452 0.04613041 0.03755013 0.1313264
000070 e9 59 b7 3d 5c c9 fd 3d 20 3e 7b 3e bb 54 fd 3d
       0.08952696 0.12391922 0.24535418 0.12369677
000080 bc 02 55 3a ac 7e 4a bd dc 8f a2 bd 82 ba d6 bc
       0.00081257126 -0.04943721 -0.07937595 -0.02621198
000090 3a 0b ab 3d 30 8d eb 3c 3c 0a eb 3d c7 08 e4 3d
       0.08351751 0.028753847 0.114765614 0.11134487
0000a0 9e fe b2 bd b2 22 93 3d 65 21 bf bd 6e fe a4 bc
       -0.087399706 0.07184352 -0.093325414 -0.020140853
0000b0 2f 6a f6 3d e9 f7 1b 3e e0 1e 5b bd bf e4 c7 3d
       0.12031972 0.15231289 -0.05349624 0.09760427
0000c0 eb b9 b3 bb 44 51 0c ba 05 86 8f bd 37 69 1c 3d
       -0.0054848096 -0.00053526857 -0.07007984 0.03818628
0000d0 35 01 8f bd 92 bf d8 3d 7b 32 c3 3d e0 31 27 be
       -0.06982652 0.10583414 0.09531113 -0.1632762
0000e0 c7 1e 55 bd 22 4d cb bc 0f 02 6d 3d 84 0c 24 3d
       -0.052031305 -0.024817053 0.05786329 0.040051
0000f0 0f 93 23 be 00 a5 2c bd a8 d8 73 3d 9b 10 a3 bc
       -0.15974067 -0.042149544 0.05953279 -0.019905379
000100 d8 9f b9 bd 67 06 f3 3b 45 ab 24 3e 7e 4e 18 be
       -0.09063691 0.0074165347 0.16080959 -0.14873692
000110 1e 5f 03 bd 0b 20 d5 bb 82 94 0c 3b 6f 65 8a 3d
       -0.032073133 -0.006504064 0.0021450822 0.06757628
000120 72 22 67 bd 9f 44 f8 3c a1 08 49 3d d5 72 e7 bb
       -0.056429334 0.030306159 0.049080495 -0.0070632496
000130 4f fd 99 bc 0d f6 cb 3d 3a bb 51 3d 50 5f 75 bd
       -0.018797545 0.0995904 0.051203944 -0.05990535
000140 10 dd 77 3c 75 71 8b 3d 6d 8c c1 3b 81 a2 d5 bb
       0.015128389 0.068087496 0.0059066326 -0.006519616
000150 22 cc e0 bd bd 06 fc bd 41 ed f3 bd 64 e6 9d bd
       -0.10976435 -0.12305973 -0.11910487 -0.07709959
000160 13 37 d9 3d 7c 5f a2 bc da 66 0f 3e 6b 90 f9 bd
       0.10606208 -0.019820921 0.14004079 -0.12185749
000170 15 ae 35 3e 06 ea f7 3d 00 d6 d3 bc a1 d7 e9 bd
       0.17742188 0.12105183 -0.02585888 -0.11418081
000180 7c cc 4d 3d cd d8 85 bd 74 19 74 3d 71 c1 ac bd
       0.05024384 -0.06535492 0.059594586 -0.084353335
000190 c8 05 e2 bd 19 76 66 bc 17 99 78 bd c0 58 ac 3d
       -0.11036259 -0.014066243 -0.060692873 0.08415365
0001a0 0d 83 8f 3c fd 03 97 bd c2 ec 05 be 20 16 8d bd
       0.017518545 -0.073738076 -0.13078597 -0.06888986
0001b0 89 59 50 be 77 4f 14 3d fa ed 3b 3d d2 da 0f 3e
       -0.20346655 0.036208596 0.04588125 0.14048317
0001c0 f8 61 5c 3e d5 61 c9 3d c9 b6 fe 3d 45 b9 39 be
       0.21521747 0.09833113 0.12437207 -0.18137081
0001d0 39 c2 2f be 8d 30 97 bd 4c 47 1b 3d c6 58 ca 3d
       -0.17163934 -0.07382307 0.03790979 0.098802134
0001e0 e0 c4 61 3e d7 8f 8c 3d b9 13 25 bd fe 6c 28 3e
       0.22047758 0.06863373 -0.040302012 0.16447827
0001f0 aa 93 07 3e 5f c0 58 3e e5 bc 08 3e 3e 06 f2 3c
       0.13239923 0.21167134 0.13353308 0.029543992
000200 cf 16 fd 3d 88 b7 14 3e b2 6c b0 3d 9e 51 51 bd
       0.12357866 0.14523137 0.08614482 -0.051103227
000210 1a 10 42 3c 0f 78 93 bd 2b d7 05 3e cd 83 8d bd
       0.011844659 -0.07200634 0.13070361 -0.06909905
000220 11 c8 12 3e 94 d7 5e 3e b0 57 ff 3d 70 5c a7 3c
       0.14334132 0.21761924 0.12467897 0.02042982
000230 13 4f 07 bd 21 58 db bd 46 41 44 3e 03 61 0c bd
       -0.033034395 -0.10710169 0.19165525 -0.034272205
000240 56 d5 bf 3d 0d 44 ca 3b 68 9d 31 3e 8b c2 87 bd
       0.093668625 0.006172663 0.17345202 -0.06628903
000250 2a 6d 03 3d 1b b5 6c 3e d2 b0 fb 3d 49 76 bb 3d
       0.03208653 0.23115961 0.12289585 0.091534205
000260 63 ba 35 3e 4d ab 8d 3c 77 4d 94 bd c0 b5 b0 3d
       0.17746882 0.017293597 -0.07241338 0.08628416
000270 68 8d 0c 3e 0c a6 1b 3e db 56 2b 3e b6 17 75 3d
       0.13725817 0.1520006 0.16732351 0.059837066
