generate_forecasts/output/Local_Forecasts/Food/2021/models/SimpleFeedForward/W0/gluon_ts/prediction-net-state.pt (torch, 34030 bytes, 7 tensors)

model.nn.0.weight f4 [20, 32]
000000 f0 92 c5 3d 68 94 4c 3d 42 6a 0c ba c2 6f 97 3d
       0.09647167 0.04994622 -0.000535641 0.07394363
000010 73 7f dd 3d b6 9a d8 3d ec 57 ba 3d 6a 56 26 3d
       0.10815325 0.10576384 0.09098801 0.040609755
000020 ef 12 39 3d d9 92 79 3d 87 e3 f6 3d 5a 70 93 3b
       0.045184072 0.06093106 0.12055116 0.0044994773
000030 13 47 ec 3c af ea ba 3d eb 3b 76 3d f7 e8 d7 3d
       0.028842485 0.091267936 0.060115736 0.105424814
000040 63 95 e9 3d 1d 1c fe 3c 84 b8 2d 3c f1 13 27 3d
       0.114054464 0.031019265 0.010603074 0.040790502
000050 b5 d7 d3 3d 6b 41 bf 3d 31 ad 84 3c 71 5e c5 3d
       0.10343877 0.09338649 0.016195865 0.09637154
000060 05 2b c5 3d 4b 57 c9 3d 4c 18 f0 bb 5e 11 35 3d
       0.09627346 0.09831103 -0.007327115 0.044206016
000070 44 9c 04 3d 8f 0c 03 39 c8 2d cc 3d 4e 1b 5d bc
       0.03237559 0.00012497812 0.099696696 -0.0134952795
000080 e8 eb 98 bc c3 63 2f bd 9e 93 19 3d 39 d9 d4 3b
       -0.018667176 -0.04281975 0.037494294 0.0064956215
000090 9e 33 54 3d 5d 55 c2 3c e4 d5 c8 3c 0b 16 6c bd
       0.05180704 0.023722345 0.024516053 -0.05763821
0000a0 86 9b 85 bc ee 5e 9d 3d f7 d4 2d bc 01 9b 78 bd
       -0.01630951 0.07684122 -0.010609857 -0.0606947
0000b0 d9 a7 4e bd 7d 03 ed 3c b7 a4 51 bd b3 a9 e3 bc
       -0.05045304 0.028932327 -0.051182475 -0.02779088
0000c0 99 b3 27 3d ed 08 4b bd 33 25 6a bd b6 45 06 3d
       0.040942762 -0.04956906 -0.057164382 0.032781325
0000d0 ab b0 e0 3c 31 29 37 3d c1 ed be 3d 29 a9 47 ba
       0.027427992 0.044717018 0.09322692 -0.00076164544
0000e0 73 c1 47 3d 66 cd 6e 3d a1 31 06 3c ca 74 d4 3c
       0.048768472 0.058301352 0.008190543 0.025934596
0000f0 b9 da 2e 3c 1c 18 d0 3d 9e 68 41 3d c9 b2 e9 3d
       0.010672265 0.101608485 0.04721891 0.11411054
000100 b4 5d 7e bd f2 48 83 bc 79 17 d4 bd 52 49 eb bc
       -0.06210108 -0.016025994 -0.103560396 -0.028721485
000110 1a e8 12 bd 32 a2 ce bd 45 65 d2 bd 9c fb f2 bc
       -0.03586588 -0.1008953 -0.10273222 -0.029660992
000120 e4 16 d3 bd fb fc 60 bd 44 34 c2 bd 5f 92 b5 bb
       -0.103071004 -0.05492876 -0.09482625 -0.0055411304
000130 80 37 dd bd cc 75 09 bd de 05 86 bd b7 32 11 bd
       -0.108016014 -0.033559605 -0.06544088 -0.035448756
000140 eb f5 20 3d 40 c7 89 bc 65 c6 81 3d d2 30 e1 bc
       0.039297026 -0.016818643 0.06336669 -0.0274891
000150 27 76 04 3d 03 8c 20 3d 5b 07 a9 3d f8 23 9e 3d
       0.03233924 0.039196026 0.08253356 0.07721704
000160 f5 c0 10 3b bd 71 04 3d c9 d0 b2 3d 5d ef 00 3d
       0.0022087668 0.03233503 0.08731229 0.031478275
000170 3e 5a 01 3e a6 1b ad 3d 07 34 c9 3d 3b 6b 33 3e
       0.12632081 0.08452539 0.098243766 0.17521374
000180 d4 0a 0f bd 2c e6 97 bd b7 c2 cf bc 4b 12 07 3d
       -0.034922436 -0.07416949 -0.025361402 0.03297643
000190 ec 64 eb bc 4e 24 2e bd 21 e5 9d bd c6 6c ec bc
       -0.028734647 -0.04251509 -0.077097185 -0.028860461
0001a0 ca 50 d9 3c a1 84 47 ba 86 97 a8 bd 9b 78 87 bc
       0.026527781 -0.0007611011 -0.08232026 -0.016537001
0001b0 d6 f2 84 bd f4 69 5d bd 68 00 3a bd 5c bd 62 bd
       -0.0649163 -0.054056123 -0.045410544 -0.05535637
0001c0 e0 f1 b4 bd 0f c9 6d ba 0d 47 fc bb 51 73 55 bd
       -0.088351965 -0.00090707926 -0.0076988996 -0.052111927
0001d0 ab 75 57 3b 32 7b f2 bc cc b4 2a 3c c9 ba d5 3d
       0.0032876532 -0.02959976 0.010419082 0.10436017
0001e0 fd 5a bc 3d de 49 0c 3d 86 84 a9 3d b0 e6 48 3d
       0.09197042 0.034250133 0.0827723 0.049048126
0001f0 f7 a7 d4 3d a6 96 cf 3d 4e 3b 86 3d aa e0 cb 3d
       0.10383599 0.10136156 0.0655428 0.09954961
000200 af b0 0d 3c 76 8f cd 3d 5f aa da 3d 2d 3c fc 3c
       0.008648082 0.100371286 0.10677027 0.030790413
000210 83 da e5 3c b3 00 4f 3d f8 32 28 3b dd 63 92 b9
       0.028058296 0.050537776 0.0025665145 -0.00027921694
000220 4a fe d3 3c f1 85 09 3d fb a7 12 3c c5 32 f2 3d
       0.02587809 0.033575002 0.0089511825 0.1182609
000230 6a e4 f5 3d bf fc a6 3d 64 01 c4 3c b1 30 11 3c
       0.12006457 0.08153676 0.023926444 0.008861707
000240 b8 20 fb 3a f3 c8 ec 3d cf 63 29 bc 60 22 09 3d
       0.0019159531 0.115617655 -0.010338738 0.03348005
000250 9f 64 e0 3d 4c b8 2e 3c 7b 75 7a 3d 4c ab 9b 3d
       0.10956692 0.010664057 0.061147194 0.07601032
000260 b8 3f 26 bc d6 e6 a8 3c 4a c7 f0 3d d5 8d 01 3c
       -0.010147028 0.020617884 0.11756761 0.007907351
000270 c7 80 2b 3d 7e 76 d0 3d 7a ee 85 3d 69 0a 6f 3c
       0.04187086 0.101788506 0.065396264 0.014589884
000280 71 6d 8c 3d ab aa d0 3d 65 9e 39 3d 7b 1b 52 3d
       0.06856812 0.10188802 0.045317072 0.05129574
000290 f3 03 be 3d b4 9e e4 3d dc 5f eb 3c 2c 9b 60 3c
       0.09278097 0.11163083 0.028732233 0.013708871
0002a0 bf 87 f8 3a 49 e3 8a 3d 05 76 bc 3d 9d ee fa 3c
       0.0018961354 0.067816325 0.09202198 0.030631358
0002b0 d4 89 d0 3d 29 d9 b1 3c 0a ee 8f 3d a0 48 e1 3c
       0.10182539 0.021709995 0.07027824 0.02750045
0002c0 63 fd da 3d 5f 6e bd 3d 17 f3 8e 3d a8 fa b8 3d
       0.10692861 0.09249567 0.069799595 0.09032184
0002d0 fd 31 b0 3c 6f d6 c3 3c cc 8b 59 3d 35 3a 3f 3d
       0.021508211 0.02390596 0.053111836 0.04668637
0002e0 f5 a7 e3 3d 9b 0c 0d 3d 88 a0 10 3d fc 32 a9 3d
       0.1111602 0.03443585 0.035309345 0.082616776
0002f0 1c 60 63 3c 21 55 31 3d 12 4c ef 3c aa be 85 3d
       0.013877895 0.043294076 0.029211078 0.06530507
000300 f5 e7 ba ba ca a1 5e bb 85 f8 e7 3d 7f 65 e2 3d
       -0.0014259802 -0.0033970946 0.11326698 0.11054515
000310 e7 a7 0b 3d 2a b9 d6 3d 68 a2 70 3c 50 3c 09 3e
       0.03409567 0.10484536 0.014687158 0.13401914
000320 04 f0 91 3d e8 4d 08 3e f0 4e a4 3d 02 4a 47 3d
       0.071258575 0.13310969 0.08022869 0.048654564
000330 11 52 0e 3d 04 c8 dc 3b 58 32 16 3d 57 ce 77 bb
       0.034746233 0.006737711 0.036669105 -0.0037812197
000340 a2 1f f0 3d b8 0c 94 3d fe 49 37 3d 22 66 8d 3d
       0.117247835 0.072289884 0.0447483 0.06904246
000350 d8 9c fd 3d 2c c1 1e 3d 08 48 b7 3d 4b 30 fa 3d
       0.12383431 0.03875844 0.08949286 0.122162424
000360 7d 57 ea 3d 0f 19 a9 3d 87 85 d9 3c 2c 2d 1f 3d
       0.11442468 0.08256733 0.026552929 0.03886144
000370 84 9a b5 3d f6 f3 4f 3c 9a fc 63 3d d6 ea e7 bc
       0.08867362 0.012692442 0.05566082 -0.02831022
000380 09 61 3b 3d d0 4a dd 3c e2 a5 93 3c b7 2d 9a 3c
       0.045746837 0.027013212 0.018023435 0.018820627
000390 5e 56 60 bc 9d 3a 97 3d 47 7b 2c 3d 69 bd e0 3d
       -0.013692467 0.073842265 0.042109754 0.10973627
0003a0 8a 3d 0e 3d ec 94 9c 3d 68 7c a1 3c a1 9c 35 3d
       0.034726657 0.07645592 0.019712642 0.044338826
0003b0 a4 fc 8b 3c 3f 0c 30 bc 0b 9c ab bc 29 66 a6 3d
       0.017088242 -0.010745107 -0.02094843 0.08124954
0003c0 44 9a 93 3d 67 8b bc 3c fc 60 7f 3b af 9d d5 3d
       0.07207158 0.023015691 0.003896772 0.104304664
0003d0 ab 15 74 3c 84 68 01 3e 9a ed 00 3e 25 5f af 3c
       0.014897744 0.12637526 0.12590638 0.021407673
0003e0 10 a6 4b 3d d8 87 01 3e 94 07 77 3d f3 50 02 3d
       0.049718916 0.12649477 0.06030996 0.03181548
0003f0 e2 e8 2d ba fa 33 c2 3d ca 32 47 3d f4 58 7e ba
       -0.00066341285 0.0948257 0.04863242 -0.0009702586

model.nn.0.bias f4 [20]
000000 b4 e5 55 3d ec 53 b7 3c 35 65 7b 3d f5 87 ed 3c
       0.052221015 0.022378884 0.061375815 0.028995493
000010 37 df 43 3d ac 41 59 3d f6 95 69 3d bd c3 6a 3d
       0.047820296 0.053041145 0.05702778 0.057315577
000020 c9 8b 3e 3d 5d 3c 5e 3d 1a 79 f0 bb bf a4 22 3d
       0.04652003 0.054256786 -0.007338655 0.039707895
000030 2f 60 5a 3d 00 00 00 00 8b b6 76 3d d4 0b fd 3c
       0.053314384 0.0 0.06023268 0.03088943
000040 ef fe 86 3d ea 07 2c 3d d0 28 53 3d 67 fb 30 3d
       0.065915935 0.041999735 0.051552594 0.043208506

model.nn.2.weight f4 [320, 20]
000000 f7 bc f8 bd b8 b4 d8 bd 9f ba 57 3e a9 3f ea 3d
       -0.12145417 -0.10581344 0.21067284 0.114379235
000010 d5 d6 dd bd 8c 15 c2 bd 10 4a 56 bc ce 35 c8 bd
       -0.108319916 -0.09476766 -0.013079181 -0.097758874
000020 ce fa 05 be fa 6c 72 bd 27 c5 43 bd ac 7b aa bd
       -0.13083956 -0.05918596 -0.04779544 -0.0832437
000030 aa cd 6f 3e b6 bb 52 bc 24 74 47 bd cc 2e cc bd
       0.23418298 -0.012862137 -0.048694745 -0.09969863
000040 cd 5d 13 be 94 5c 69 bd 15 43 f1 bd a2 83 89 bd
       -0.14391251 -0.056973055 -0.11780373 -0.0671456
000050 76 82 1e 3e d5 1f 88 3d 2f 6d 02 be d5 6d 0b be
       0.15479454 0.066466965 -0.12736963 -0.13616116
000060 c1 89 1c 3e 4b ff 0c 3e b4 b3 3a 3e 5e f8 53 3d
       0.15286924 0.13769262 0.18232614 0.051750533
000070 88 3f 25 3e 78 21 8e 3d 6f 34 82 bd 21 a4 41 3e
       0.16137516 0.069399774 -0.06357657 0.18910266
000080 3b bb 33 be 23 df 13 3d 3c 04 fb 3d 24 e5 d9 3d
       -0.17551892 0.03610147 0.12256667 0.10639408
000090 5a 7e eb 3d 48 eb 71 3d 3c 76 40 3e 88 cb 35 3e
       0.11498709 0.059062272 0.18795103 0.17753422
0000a0 f9 46 d0 bd c0 6c 84 bd 03 65 96 bd 3a 7c b0 bd
       -0.10169787 -0.06466055 -0.07343485 -0.08617444
0000b0 7e 4f 90 bd 28 47 34 bd b1 a0 0b be b5 94 dd bd
       -0.07046412 -0.044013172 -0.13635518 -0.10819379
0000c0 0d 23 40 bd 96 5a 48 bd cc f3 13 bd 18 cc b8 bd
       -0.046908427 -0.048914514 -0.036121175 -0.09023303
0000d0 18 38 32 bc ea 7c 1c 3c ba e0 7c bd fd 38 2a bd
       -0.010877632 0.009551266 -0.061737753 -0.041558255
0000e0 8a c7 67 bd c5 f7 fe bd 69 b4 f2 bc 80 8b 81 bd
       -0.05658678 -0.12449602 -0.029627042 -0.06325436
0000f0 a2 9e d6 bd 87 08 db bd 18 b7 4e 3c 74 a8 1a bd
       -0.104794756 -0.10694986 0.012616895 -0.037758306
000100 46 a5 a0 bc d5 21 f3 bc 30 28 da bd 23 71 ab bc
       -0.019610059 -0.029679218 -0.106521964 -0.020927971
000110 44 00 09 bd 86 60 69 bd ff c3 92 3d 3d 02 fe bd
       -0.03344752 -0.056976818 0.071662895 -0.12402771
000120 11 65 5a 3d 26 f2 d2 3b 73 b6 b0 bd bf 7a a6 bd
       0.05331904 0.0064375577 -0.086285494 -0.08128881
000130 b8 ef 8f bd e9 bb 4b bd 27 61 c1 bc 26 ad bd bd
       -0.070281446 -0.049739752 -0.023605896 -0.09261541
000140 e1 01 73 bc 3e 1a 13 bd 04 29 8d bd 7a 65 0f be
       -0.014831991 -0.0359137 -0.06892589 -0.14003554
000150 2d 1c 8e 3d 50 19 c0 3d c4 d9 af 3d 5c 59 b3 3c
       0.06938968 0.09379828 0.08586457 0.021893196
000160 7e 04 da 3c 3d 4c 9d 3d 80 24 0b bd 18 fd 40 3d
       0.02661347 0.07680557 -0.033970356 0.04711637
000170 6a ae 58 be 9c 50 07 bd e2 b2 a9 3d 10 45 26 3c
       -0.21160284 -0.03303586 0.08286072 0.010148302
000180 57 18 e3 3c 2e 1c 00 bd 9f 01 cf 3c 0f c2 37 3d
       0.027721567 -0.031276874 0.025269328 0.044862803
000190 d8 04 84 b9 f3 5b b4 3d af 3e e9 3d 6b 7e cf 3c
       -0.0002518061 0.088066004 0.11388909 0.025328835
0001a0 25 59 f8 3c 54 2d 30 3c 52 64 45 3c 14 7a 33 3d
       0.030315945 0.010752995 0.012047844 0.043817595
0001b0 1b 0c cc bc 26 8a af bc d8 38 9c 3d 31 6f 9f 3b
       -0.024908116 -0.021428179 0.076280296 0.00486555
0001c0 16 9b 3e 3d ce db 08 bd d5 4b 05 bd 26 8e 3f 3d
       0.04653462 -0.033412747 -0.032543022 0.046766423
0001d0 bd 37 a2 bc b1 98 52 3c ce 87 b6 3d 99 0c 8b 3c
       -0.019801969 0.012853787 0.089126214 0.01697378
0001e0 14 b7 86 bc d4 95 11 3d 9b a0 23 3e 13 b4 2b 3e
       -0.01644472 0.035543278 0.15979235 0.16767912
0001f0 66 93 ed bc d7 88 17 bd cf b2 47 3d 8d b6 0a bc
       -0.02900095 -0.036995735 0.04875451 -0.008466375
000200 e1 2e 6e bd 25 74 76 bd 9a 4f 3f 3c 4c 6e 32 bd
       -0.058150176 -0.060169358 0.011676693 -0.04356222
000210 a9 eb 1b 3e af ce 1f bb 87 c6 7b bd 77 a7 fe bc
       0.15226616 -0.0024384668 -0.061468627 -0.031085713
000220 da 67 3e 3d d6 6b d6 3c ea 98 7e 3d a0 06 1a bd
       0.04648576 0.026174467 0.06215755 -0.037603974
000230 c5 9d 25 bd 80 32 8f bd 8f 33 7d bd a7 11 1c be
       -0.040433664 -0.06992054 -0.06181675 -0.15241109
000240 1b bb f6 3c af 2d 91 3c 08 6a 90 3d b7 45 97 3d
       0.030118516 0.017721979 0.07051474 0.07386344
000250 f7 8e 5e 3d 58 77 ae bc f2 4c 0e bd 48 09 e7 bb
       0.05433556 -0.021297142 -0.03474135 -0.007050667
000260 37 bb 23 be 52 6d 4e 3c 8e d9 79 3d 2d 87 ac bd
       -0.15989386 0.012599306 0.060998492 -0.0842422
000270 48 f4 2c 3d a6 0c 8e 3c a9 b8 66 bd 6f 73 5f bd
       0.042225152 0.017340016 -0.05632845 -0.054553445
000280 5f b8 c8 3d e5 69 4f 3d 97 1a c9 bd 34 c4 f2 bd
       0.09800791 0.0506381 -0.09819525 -0.11853829
000290 a6 5e b3 3d 6a 00 b0 3c 20 9f 90 3d 05 f3 9d 3d
       0.08758287 0.021484572 0.07061601 0.07712368
0002a0 04 e3 a5 3d bd 88 b4 3c 5e 21 16 bd 7c f6 15 3d
       0.080999404 0.022037858 -0.036652915 0.03661202
0002b0 93 50 38 be ff 23 2d bd 63 ee 19 3e 5f ce b0 bb
       -0.17999487 -0.042270657 0.15032344 -0.005395695
0002c0 d4 23 87 3c e1 2b a7 3d b2 bd d3 3c 0c 18 8c 3c
       0.016496576 0.08162666 0.02584729 0.01710131
0002d0 e1 26 f7 3d 64 1e eb 3d 44 19 da 3d 5b 38 ee 3c
       0.120679624 0.11480406 0.1064935 0.029079607
0002e0 0c 50 a1 3d bc 5a f3 3b fd 1f 8b 3a 57 ea cb 3d
       0.07876596 0.007426588 0.0010614392 0.09956806
0002f0 64 27 cf 3c aa cf 9b 3d 8f 39 16 3d e1 96 45 3d
       0.025287338 0.07607968 0.036675986 0.048239592
000300 d4 30 af 3d fe 6d 02 bc 48 d8 b7 3b 82 87 b9 3d
       0.08554235 -0.0079607945 0.0056104995 0.09059049
000310 22 22 c4 3d 89 4e 01 3e 4c 91 84 3d df bc 7a 3d
       0.09576823 0.12627615 0.06473026 0.061215278
000320 20 78 e1 3c d4 fd ca bc 89 89 c1 bd e4 21 94 bd
       0.0275231 -0.024779238 -0.09450061 -0.072330266
000330 0e 83 c9 3c d2 f8 2e 3d 72 83 1a 3d f2 38 0e 3d
       0.024598625 0.042717762 0.037723012 0.034722276
000340 ab 7b a2 3d d7 98 1c bd 4f 03 33 3d b4 89 56 3a
       0.07933744 -0.038231697 0.043704327 0.00081839715
000350 4b b7 b9 bd f1 84 2b bd 48 39 b7 3c 92 25 90 bb
       -0.090681635 -0.04187483 0.022366181 -0.00439901
000360 48 f5 42 3d 77 69 83 3d d3 f3 5b bc df 9e a0 3d
       0.0475972 0.064166 -0.013424831 0.07842802
000370 50 6d fc 3c f8 86 b9 3c 3c b8 21 be 34 96 f8 bd
       0.030813843 0.022647366 -0.15792936 -0.12138024
000380 85 e1 8f 3d 89 55 f9 3c 3a da 83 bc 3b b8 b7 3d
       0.07025436 0.030436294 -0.01609527 0.08970686
000390 35 af b4 3d 56 a5 18 3c cf 48 9a bd f4 ce 6a ba
       0.088224806 0.009316763 -0.075334184 -0.000895723
0003a0 56 3b 1a be 70 3a b5 bc 1b 0c 46 3d 78 71 7b bc
       -0.15061697 -0.022122592 0.04835139 -0.015346877
0003b0 59 1b e3 3d 52 ef ad bc 27 38 39 bb 10 3e 8d 3d
       0.110892005 -0.02123228 -0.002826223 0.06896603
0003c0 41 78 6e 3c 0f 28 cd bd a8 37 e7 bd 50 44 dc bd
       0.014555038 -0.10017406 -0.112899125 -0.10755217
0003d0 fc 8d c7 bd 7c d6 a1 bd f5 79 c3 bd f1 4f f7 bd
       -0.09743878 -0.07902238 -0.09544746 -0.120757945
0003e0 cc 9e 96 bd 58 e7 dc bd 98 54 70 3d 00 cc c3 bd
       -0.07354507 -0.10786313 0.058674425 -0.09560394
0003f0 48 46 10 be 07 2a d3 3c 90 1a a5 bd 36 df 0d be
       -0.1408931 0.025776876 -0.08061707 -0.1385468

model.nn.2.bias f4 [320]
000000 78 cd 6d bd 4d 57 ec 3d 1a 12 69 bd 5d 4e 57 bd
       -0.05805728 0.11540089 -0.05690203 -0.052564967
000010 01 8b 59 3c 26 2a bf 3c 97 50 0c 3c 39 c6 67 bc
       0.01327777 0.023335528 0.008564136 -0.014146381
000020 1a d4 53 3d 40 7e 38 3d 9b 32 95 bb d5 69 ce 3b
       0.051715948 0.045042276 -0.004553152 0.0062992373
000030 cb 00 3e bd 6c da 88 3d cc 1f ff 3a f4 e0 44 3c
       -0.046387475 0.06682286 0.0019464432 0.012016524
000040 ac cc 99 bd 31 d8 5c bc 41 99 96 bd 8a e2 f1 bb
       -0.07509741 -0.013479278 -0.073534496 -0.007381742
000050 1c 22 65 bd 47 db d7 3d f0 3a 72 bd d3 b2 5e bd
       -0.055940732 0.10539871 -0.05913824 -0.05436976
000060 5c 34 53 3c d0 19 c3 3c e2 fe 14 3c ea 84 6d bc
       0.012890901 0.02381602 0.009093972 -0.014497021
000070 96 4b 57 3d e4 fd 3d 3d c1 e8 9c bb a7 82 bf 3b
       0.05256232 0.046384707 -0.0047884886 0.0058444324
000080 34 47 44 bd a3 26 82 3d d8 81 d4 3a 39 11 4a 3c
       -0.047919467 0.063550256 0.0016213013 0.012333208
000090 9a dc a1 bd 48 4e 53 bc 73 e3 9d bd 4c d6 f6 bb
       -0.079034045 -0.012897082 -0.07709398 -0.0075328704
0000a0 6d d1 6e bd f1 d5 e0 3d e4 ba 61 bd 6d 7b 4f bd
       -0.058305193 0.10978306 -0.055109873 -0.050654817
0000b0 87 71 84 3c 59 16 a5 3c 99 8a a3 3b 38 52 30 bc
       0.016167415 0.020152258 0.0049908874 -0.01076179
0000c0 ca 98 68 3d c1 6d 30 3d f8 38 a8 ba 64 28 1c 3c
       0.056786336 0.04307342 -0.0012834361 0.009531114
0000d0 eb 08 36 bd 32 d2 84 3d eb 75 ac 3b 1a df 0e 3c
       -0.0444421 0.06485404 0.0052630804 0.008720184
0000e0 c2 c0 96 bd 9f 71 86 bc 2e b2 92 bd 94 37 83 bb
       -0.073609844 -0.0164116 -0.07162891 -0.004004428
0000f0 c6 94 60 bd e8 4b d6 3d 31 97 67 bd ff 38 56 bd
       -0.05482938 0.10463697 -0.05654067 -0.05230045
000100 52 e1 52 3c 32 39 bd 3c 8b 9c 07 3c 2b 56 62 bc
       0.012871103 0.023098562 0.008277069 -0.013814489
000110 f2 3b 54 3d 61 40 37 3d 09 75 8c bb 55 aa c6 3b
       0.05181498 0.04473913 -0.0042864126 0.0060627856
000120 aa 97 3c bd 24 b2 7f 3d 74 e7 e8 3a dd e6 3d 3c
       -0.046043076 0.062425748 0.0017769174 0.011590687
000130 0a 8d 98 bd 2a f4 55 bc 16 67 95 bd 5b 4d eb bb
       -0.07448776 -0.0130587015 -0.07295053 -0.0071808523
000140 dd af 64 bd ed 10 d6 3d 01 f5 6b bd 93 1d 5a bd
       -0.05583178 0.10452447 -0.0576067 -0.05325086
000150 6d a2 52 3c ca 1f c1 3c ce 9d 0d 3c 0d 59 6c bc
       0.012856108 0.023574729 0.008643581 -0.014425528
000160 61 98 55 3d 19 26 3b 3d 24 11 97 bb 5d 95 c5 3b
       0.052147273 0.04569063 -0.0046101976 0.0060297684
000170 b8 cd 40 bd 4e 26 81 3d c3 14 e7 3a 58 fa 42 3c
       -0.04707119 0.06306134 0.0017630089 0.011900507
000180 9e 5c 9b bd 9f 40 56 bc 0e c0 97 bd 70 ed f7 bb
       -0.07586025 -0.01307693 -0.074096784 -0.0075661466
000190 fc cc 74 bd e7 d6 b9 3d 95 c1 52 bd 6e a4 40 bd
       -0.0597658 0.090741925 -0.051454145 -0.047031812
0001a0 f9 b1 a8 3c 2f fd 7e 3c b1 c6 92 b8 cb 0e cc bb
       0.020592676 0.015563293 -6.998832e-05 -0.0062273494
0001b0 72 84 7b 3d cf 74 22 3d 1e e4 44 3b af d9 68 3c
       0.061405607 0.03966218 0.0030043195 0.014212056
0001c0 aa 92 27 bd ad 98 82 3d 4f 62 26 3c ec fb 8f 3b
       -0.040911354 0.06376777 0.0101552745 0.004394045
0001d0 5b 3a 8e bd e3 7f ab bc d1 03 8a bd 7b f5 26 3a
       -0.06944724 -0.020935005 -0.06739009 0.0006368977
0001e0 f5 a5 54 bd 97 56 b2 3d 1f 7f 5c bd 83 e2 4a bd
       -0.05191608 0.08707922 -0.05383217 -0.049532425
0001f0 5f 79 54 3c 99 ea a7 3c c9 dd d3 3b b8 82 46 bc
       0.01296839 0.020497607 0.006465648 -0.012116127
000200 14 6a 4b 3d 06 35 2e 3d 7a da 68 bb 3e ed e7 3b
       0.04966171 0.042531036 -0.0035530613 0.007077842
000210 b7 65 33 bd 7e 41 66 3d f2 28 57 3b 01 11 2b 3c
       -0.043798175 0.056214802 0.0032830802 0.010441066
000220 44 c7 92 bd 51 4c 58 bc e8 56 8e bd 5c 94 c1 bb
       -0.07166913 -0.013201789 -0.0695017 -0.0059075784
000230 26 5c 41 bd 1b 84 8e 3d ca 00 60 bd bc 85 4e bd
       -0.04720702 0.06958791 -0.054688253 -0.050420508
000240 be 2a 33 3c 9e cc b0 3c 36 9d f2 3b c0 a2 60 bc
       0.0109354835 0.021581944 0.007403995 -0.013710678
000250 88 ae 45 3d 9b 79 32 3d 46 3c a1 bb 4c 47 b7 3b
       0.04826215 0.043573003 -0.004920515 0.005593216
000260 4a 18 38 bd ce 61 4a 3d 8b 7f 00 3b de db 3f 3c
       -0.04494504 0.04940968 0.0019607272 0.011710135
000270 00 da 93 bd 7e 96 3a bc 3e d8 8e bd 9c 2a f0 bb
       -0.072193146 -0.011388419 -0.06974839 -0.007329298
000280 44 ff 5d bd fa b4 c4 3d 04 c2 6c bd c7 dd 59 bd
       -0.05419852 0.09604831 -0.057802215 -0.05319002
000290 6e 52 59 3c 75 f4 b8 3c d8 84 fb 3b a4 1a 5e bc
       0.013264282 0.022577504 0.0076757483 -0.013556156
0002a0 c8 68 56 3d 01 9f 39 3d 04 58 7d bb 68 c3 d6 3b
       0.05234602 0.045317654 -0.0038657198 0.006554056
0002b0 2f 98 3f bd 23 8e 77 3d 38 87 25 3b 69 ca 39 3c
       -0.046775993 0.060438287 0.0025257599 0.011339762
0002c0 8c 9f 9d bd 6b 81 5a bc 31 ce 99 bd 2a 36 d8 bb
       -0.07696447 -0.01333652 -0.07510031 -0.0065982537
0002d0 d7 7b 69 bd 18 26 d1 3d 75 0b 73 bd 11 99 5f bd
       -0.05700287 0.10212344 -0.0593371 -0.054589335
0002e0 c8 a4 77 3c e9 e6 b9 3c 35 4a e4 3b 41 f8 55 bc
       0.0151149705 0.022693114 0.006966854 -0.013059677
0002f0 c7 9f 64 3d 3a b8 3e 3d 5c ba 3a bb 61 71 05 3c
       0.055816438 0.04656241 -0.0028492426 0.008144707
000300 7d f4 44 bd f4 8e 81 3d c5 aa 7d 3b 73 8a 2d 3c
       -0.048084725 0.06326094 0.0038706523 0.010592091
000310 2c 56 a1 bd e4 f0 79 bc e6 15 9d bd 72 ad ba bb
       -0.07877764 -0.015255187 -0.076701924 -0.005696946
000320 56 27 5d bd 12 54 b6 3d 2d 36 57 bd 2e be 44 bd
       -0.05399259 0.08902754 -0.0525419 -0.048032932
000330 b4 43 77 3c 4e d2 94 3c b0 ba 80 3b ec 77 1f bc
       0.015091825 0.018166687 0.003928505 -0.009733181
000340 48 8d 56 3d 7c 1c 27 3d 22 af 96 ba 27 63 18 3c
       0.05238083 0.04079865 -0.0011496285 0.0093009835
000350 d6 67 2c bd b0 c4 6e 3d fc c6 b5 3b 21 76 02 3c
       -0.042091213 0.058293045 0.0055474024 0.007962734
000360 19 93 91 bd e3 bd 7c bc 05 2c 8d bd c5 24 6a bb
       -0.07108135 -0.015426132 -0.06893162 -0.0035727483
000370 b0 4b 58 bd 71 e9 c0 3d 13 1e 5e bd 2e f3 4b bd
       -0.052806556 0.094195254 -0.0542279 -0.04979246
000380 17 43 5a 3c 77 96 a6 3c 04 c9 c9 3b f1 f7 43 bc
       0.0133216595 0.02033542 0.006157996 -0.011960969
000390 26 cc 50 3d 8e f8 2d 3d 7c 2f 3f bb 65 98 eb 3b
       0.05097594 0.04247337 -0.002917259 0.0071897977
0003a0 b5 31 33 bd e2 9f 6e 3d a0 75 5d 3b 6e 81 20 3c
       -0.043748576 0.058257945 0.0033792034 0.009796483
0003b0 ee d2 94 bd 69 2b 5d bc 23 e0 90 bd 2b 96 b5 bb
       -0.07266794 -0.013499119 -0.07074001 -0.005541583
0003c0 3c 9d 61 bd 32 25 b7 3d 93 28 58 bd 18 a6 45 bd
       -0.05508159 0.08942641 -0.05277307 -0.048254102
0003d0 93 d9 8c 3c fb 09 8e 3c 82 d7 27 3b 61 1c 0b bc
       0.017193591 0.017338743 0.002561063 -0.008490653
0003e0 3f 31 67 3d f3 0e 26 3d ab c6 47 3a d5 64 33 3c
       0.05644345 0.0405416 0.00076208514 0.010949333
0003f0 de 41 2b bd 40 6e 74 3d 98 5b e8 3b ff 73 ce 3b
       -0.041810863 0.059675455 0.007090997 0.006300449

model.args_proj.proj.0.weight f4 [1, 20]
000000 61 5a 2e 3e ad 74 23 3e e0 53 d5 3c 02 a8 ad bd
       0.17026664 0.15962477 0.026040971 -0.084793106
000010 55 c3 8e 3e 5d 4c 00 3e cf 8d 0b bd 3f fa 63 3e
       0.27883402 0.1252913 -0.034070786 0.2226343
000020 53 c7 6e 3e 5f 17 5a be 79 64 9c 3e d3 11 96 3d
       0.23318224 -0.21297978 0.30545405 0.073276184
000030 92 7d 60 3e 41 45 84 3d ff 80 55 bc 38 7f 8a be
       0.21922901 0.06458522 -0.013031243 -0.27050185
000040 6e 40 0d 3e df 63 69 be 8e 46 55 be 0d 36 9a 3e
       0.13794109 -0.22792004 -0.20827696 0.30119362

model.args_proj.proj.1.weight f4 [1, 20]
000000 57 d7 05 3d 01 c3 98 3b ab fc 3b be b4 c4 78 be
       0.032676067 0.004661918 -0.18358104 -0.24293786
000010 39 65 e0 bd 64 7d 45 3e 22 f2 02 3e 83 3a e2 bd
       -0.10956807 0.19286114 0.12787679 -0.110463165
000020 b9 33 13 bd 0a db 77 3e bc 4d e0 bd 2b 63 28 be
       -0.035938 0.2420465 -0.10952327 -0.1644408
000030 6e b3 3b be 8f c4 ce bc d3 a2 3b be d5 38 04 3e
       -0.18330166 -0.02524021 -0.18323831 0.12912305
000040 5e 4a d0 bd 2d cd d0 3d d3 a7 0a be f5 f6 ed bd
       -0.101704344 0.10195384 -0.13540582 -0.11619369

model.args_proj.proj.2.weight f4 [1, 20]
000000 c2 ce 5f 3e a2 5b 5d be 0a 27 2f 3e b1 40 3a 3e
       0.21856216 -0.21616986 0.17104736 0.1818874
000010 0f b1 5d be 79 70 96 3b b6 b5 ac 3d a7 d4 5e bd
       -0.21649574 0.0045910445 0.08433096 -0.05440202
000020 a5 4b 01 be 29 31 07 be 14 c9 e8 bd f4 df 7a be
       -0.12626512 -0.13202347 -0.113664776 -0.24499494
000030 79 3f f5 3d 46 81 64 be 03 fd 67 be b6 6c 8d 3d
       0.11974997 -0.22314939 -0.2265511 0.069055006
000040 ab ee 25 3e 25 49 52 3e ce 0e 4e 3e 6a 27 c0 bd
       0.16204326 0.20535715 0.20122835 -0.09382518
