generate_forecasts/output/Local_Forecasts/Bakery and cereal products (excluding baby food)/2022/models/DeepAR/W0/gluon_ts/prediction-net-state.pt (torch, 97628 bytes, 11 tensors)

model.param_proj.proj.0.weight f4 [1, 40]
0	0xbb832f4a	-0.00400344
1	0x3e681c9c	0.22667164
2	0x3d9b2335	0.075750746
3	0xbdc814d3	-0.09769597
4	0x3da9a201	0.08282853
5	0xbe37bf0c	-0.17943972
6	0xbde21e7a	-0.11040969
7	0x3ddd5bf3	0.108085535
8	0xbde9949e	-0.114052996
9	0xbe168379	-0.1469859
10	0xbcb8c287	-0.022553695
11	0xbd7c5f2c	-0.0616142
12	0xbdc848d9	-0.097795196
13	0xba8f8f64	-0.0010952768
14	0x3db8ff52	0.090330735
15	0x3e77e2b5	0.24207576
16	0x3e15faef	0.14646505
17	0x3ce7a3ad	0.028276289
18	0x3dd8847d	0.10572145
19	0xbe8e094e	-0.27741474
20	0xbd355b5a	-0.044276573
21	0xbc1b88cf	-0.009493067
22	0xbdc09045	-0.09402517
23	0x3e3fdfa1	0.18737651
24	0x3e812e79	0.25230768
25	0xbe2c970f	-0.168545
26	0xbe18b23c	-0.14911741
27	0x3e0c24c3	0.13685898
28	0xbe4c863e	-0.19973084
29	0xbde056ac	-0.10954031
30	0x3e5d55b2	0.21614721
31	0x3e3f27de	0.18667552
32	0x3e7e6fba	0.24847308
33	0xbdbede2f	-0.09319722
34	0xbbb9f13a	-0.0056745084
35	0xbdb97080	-0.09054661
36	0xbd864275	-0.065556444
37	0xbd760ab1	-0.06006879
38	0x3d81ce0e	0.0633813
39	0x3df52503	0.1196995

model.param_proj.proj.1.weight f4 [1, 40]
0	0xbe228fc5	-0.15875156
1	0x3e0f055f	0.13966893
2	0x3de99ee0	0.11407256
3	0xbdfb487d	-0.122696854
4	0xbc913f1a	-0.017730284
5	0xbe24db20	-0.16099215
6	0x3d25fc60	0.040523887
7	0x3d537d8d	0.051633406
8	0xbe1fec11	-0.15617396
9	0x3cbb74b0	0.02288279
10	0x3e26dd84	0.16295439
11	0x3c9c6da2	0.019095246
12	0x3d2c9a96	0.042139612
13	0x3ddfabd9	0.10921449
14	0xbdd2fd1d	-0.10302184
15	0x3dc05661	0.093914755
16	0x3e1b9cfb	0.15196602
17	0x3caaeb35	0.020864109
18	0xbdb7f5cc	-0.08982429
19	0xbe1f6352	-0.15565231
20	0x3d9ceb4a	0.07662065
21	0x3dd25e62	0.10271908
22	0x3c9e5f5e	0.019332584
23	0x3d4a7e1e	0.04943668
24	0x3dfa485f	0.12220835
25	0x3d266ac1	0.040629152
26	0xbd952d21	-0.07283998
27	0x3c09b440	0.008404791
28	0xbdb857fa	-0.09001155
29	0xbcb9d6dd	-0.022685463
30	0x3d675de0	0.05648601
31	0x3ded5f75	0.115904726
32	0x3cb5d46e	0.02219602
33	0xbc7f901f	-0.015598326
34	0xb817b06c	-3.616551e-05
35	0xba7f5d72	-0.00097414025
36	0xbe0138a8	-0.12619269
37	0x3a46f117	0.0007589026
38	0x3d94062b	0.07227739
39	0xbce02f51	-0.027366312

model.param_proj.proj.2.weight f4 [1, 40]
0	0x3e60bae3	0.21946292
1	0xbe237d77	-0.1596583
2	0x3d0eaf96	0.03483542
3	0x3deacdd8	0.11465043
4	0x3e2eca9f	0.17069481
5	0x3e8698d1	0.26288465
6	0x3e06a2ee	0.1314809
7	0xbe4619bf	-0.19345759
8	0x3ce5f7ea	0.028072316
9	0x3e394c14	0.18095428
10	0xbcccdc02	-0.025007252
11	0x3e180419	0.14845313
12	0x3df06cbe	0.11739491
13	0xbdde6443	-0.10858967
14	0xbc9a8c4f	-0.018865732
15	0xbd2fd076	-0.042923413
16	0xbd76904b	-0.060196202
17	0xbe2fe782	-0.17178157
18	0xbe3044c4	-0.17213732
19	0xbd4cc3b4	-0.049991325
20	0x3e197f49	0.14989962
21	0xbcf5897f	-0.02997279
22	0x3e51146d	0.20417948
23	0xbe476beb	-0.19474761
24	0xbe8cba43	-0.27485856
25	0x3e714bb8	0.2356404
26	0xbe780d09	-0.24223723
27	0xbde9fc8c	-0.114251226
28	0x3e0cf3c4	0.13764864
29	0x3e81eac0	0.25374413
30	0xbe65ac0e	-0.22428915
31	0xbe36ee8d	-0.17864437
32	0xbe08bd7b	-0.13353531
33	0xbe4f40e6	-0.202396
34	0xbd9a06a5	-0.075207986
35	0x3e16e86c	0.147371
36	0x3e9cf751	0.30657437
37	0x3de70675	0.112805285
38	0xbe85253f	-0.2600498
39	0xbe6c971e	-0.23104522

model.rnn.weight_ih_l0 f4 [160, 21]
0	0x3e5acbe2	0.21366838
1	0x3d91a2f6	0.071111605
2	0x3e427283	0.18988995
3	0x3e1ca3fd	0.15296932
4	0x3c9a0a6f	0.018803803
5	0x3d09dcd4	0.033657864
6	0x3e9283c3	0.2861615
7	0x3e1b0c76	0.15141472
8	0x3e0a183f	0.13485812
9	0x3e7e9336	0.24860844
10	0x3e56c46b	0.20973365
11	0x3e8c90d7	0.27454254
12	0x3e392d10	0.18083596
13	0x3e976c54	0.29574835
14	0x3df77677	0.12083142
15	0x3e97b52e	0.29630417
16	0x3d14617f	0.036225792
17	0x3b553dc7	0.0032538043
18	0x3d9b35bb	0.07578608
19	0xbefb2c81	-0.4905739
20	0x3dbc2f4c	0.09188709
21	0x3dc5264a	0.09626444
22	0x3e248daa	0.16069666
23	0x3e6aa996	0.22916254
24	0x3e01ffae	0.1269519
25	0x3d4c2fc6	0.049850248
26	0x3c0fa691	0.00876774
27	0x3de4eb44	0.11177686
28	0x3e332678	0.17495143
29	0x3e50ae08	0.20378888
30	0xbca04f75	-0.019569138
31	0x3e44b297	0.19208752
32	0xbd25ee84	-0.04051067
33	0x3c613f6e	0.013748033
34	0x3d444882	0.04792071
35	0xbd1d1c42	-0.038357027
36	0x3d44e555	0.04807027
37	0x3dd5cd41	0.1043954
38	0xba954d46	-0.0011390827
39	0x3e05cc97	0.13066326
40	0xbea7469a	-0.32671052
41	0x3e24f797	0.16110073
42	0x3e29abf8	0.16569507
43	0x3dc9b89c	0.098496646
44	0x3c9168c8	0.017750159
45	0x3e572587	0.2101041
46	0x3e12ea5d	0.14347215
47	0x3e389c55	0.18028386
48	0x3ced1029	0.02893837
49	0xbae72140	-0.0017633811
50	0x3e30a9f3	0.1725233
51	0x3e1f7139	0.15570535
52	0x3d402348	0.046908647
53	0x3e57d960	0.21079016
54	0xbc96167c	-0.018321268
55	0xbd914fc3	-0.070952915
56	0x3dd62ae4	0.104573995
57	0x3e4b3be7	0.1984707
58	0x3e1ca813	0.1529849
59	0xbae9d88b	-0.0017841024
60	0x3d899a0e	0.06718837
61	0xbf17cf1d	-0.59300405
62	0x3e36baa5	0.17844637
63	0x3e9307a1	0.28716758
64	0x3dc29f5b	0.09503051
65	0x3ea74079	0.32666376
66	0x3d82250b	0.06354722
67	0x3ea430e7	0.3206856
68	0x3d1e8f0a	0.03871063
69	0x3db2153b	0.08695456
70	0x3e7bb9dd	0.2458262
71	0x3e6a53c2	0.22883514
72	0x3d982327	0.0742858
73	0x3d471d2f	0.048611816
74	0x3e0a4cd0	0.13505864
75	0x3d8220b4	0.06353894
76	0x3e884f59	0.26623037
77	0x3c413acb	0.0117938025
78	0xbac7d688	-0.001524643
79	0x3e3e2315	0.1856807
80	0x3b97720a	0.004621749
81	0x3e84f484	0.259678
82	0x3e12f668	0.14351809
83	0x3dc8efcd	0.09811363
84	0x3e7e159a	0.24812928
85	0x3e9d7d86	0.3075983
86	0x3e2bfee7	0.16796456
87	0x3e7228de	0.23648402
88	0x3e8d5ac0	0.276083
89	0x3e835b42	0.25655562
90	0x3e8a211f	0.26978394
91	0x3e9ca7ed	0.30596867
92	0x3d1178d5	0.035515625
93	0x3e8aacfe	0.27085108
94	0x3e67a4ea	0.22621503
95	0x3d21dcac	0.03951709
96	0x3e606ce5	0.2191654
97	0x3e68061c	0.2265858
98	0x3e5b4817	0.21414219
99	0x3ea3d0a6	0.31995124
100	0x3e6b9970	0.2300775
101	0x3a655218	0.00087478897
102	0x3dbf3ad5	0.09337393
103	0xbdb6210b	-0.08893021
104	0x3e1e99f1	0.15488411
105	0x3e57dff8	0.21081531
106	0x3d8e26f8	0.069410264
107	0x3e5989a1	0.21243908
108	0x3d2694c6	0.040669225
109	0x3e254cfd	0.1614265
110	0x3e0c38b5	0.13693507
111	0x3dd8d8e8	0.105882466
112	0x3cb757a3	0.022380656
113	0x3d29acd2	0.04142458
114	0x3e695ccb	0.22789304
115	0x3d4af50f	0.049550112
116	0x3dff90d5	0.124787964
117	0x3e9515c2	0.29118162
118	0x3e3d44b8	0.18483245
119	0x3bad39f6	0.0052864505
120	0x3e29cf9c	0.16583103
121	0x3e511359	0.20417537
122	0x3a84ab08	0.0010121772
123	0x3cf3e90e	0.029774215
124	0x3d692af5	0.056925733
125	0x3e6e9cc0	0.23301983
126	0x3dd085c4	0.10181764
127	0x3e0a73e4	0.13520771
128	0x3e907eeb	0.2822183
129	0x3e941f6e	0.2893023
130	0x3eb4d86a	0.3532136
131	0x3e03a6b7	0.12856565
132	0x3dcd64ae	0.10028969
133	0x3e74eb67	0.23917924
134	0x3e079505	0.1324044
135	0x3e9818c4	0.29706395
136	0x3e8f2759	0.27959707
137	0x3dada04f	0.08477842
138	0x3e117fe6	0.14208946
139	0x3e01c81f	0.12673996
140	0x3ea37471	0.31924775
141	0x3e013f55	0.12621816
142	0x3ec0eef5	0.3768231
143	0x3a464711	0.00075636903
144	0x3dd3b0b8	0.10336441
145	0xbca8e999	-0.0206192
146	0x3e407336	0.1879395
147	0x3e82cd1b	0.25547108
148	0x3e0ba44b	0.13636892
149	0x3de44443	0.111458324
150	0x3da65904	0.08122447
151	0x3de727ba	0.11286874
152	0x3d0d1290	0.03444153
153	0x3d84c812	0.06483473
154	0x3d4bbbdd	0.049739707
155	0x3e78b084	0.24286085
156	0x3e72fc6d	0.23729105
157	0x3e4716ba	0.19442263
158	0x3dc6004e	0.09668027
159	0x3db49ae8	0.088186085
160	0x3e8c7c90	0.27438784
161	0x3e9e76b7	0.30949947
162	0x3e2439d1	0.1603768
163	0x3e0d96cb	0.13827054
164	0x3b1d60c9	0.0024013987
165	0x3e653b39	0.22385873
166	0x3dd25a26	0.10271101
167	0x3d7e62b6	0.062105857
168	0x3e0f9388	0.14021122
169	0x3ea55a64	0.32295525
170	0x3e4a9b3b	0.19785778
171	0x3e9cb437	0.30606243
172	0x3e4bdf9a	0.19909516
173	0x3e4fe14f	0.20300792
174	0x3e23435a	0.15943661
175	0x3e19b28f	0.15009521
176	0x3ebb8c2f	0.3663039
177	0x3e6845fb	0.22682945
178	0x3e89588b	0.26825365
179	0x3d89569b	0.06705972
180	0x3e02524a	0.12726703
181	0x3e19651a	0.14979973
182	0x3e9835b9	0.29728487
183	0x3da55990	0.08073723
184	0x3ebfb27c	0.3744086
185	0x3b6d6c4d	0.0036227882
186	0x3d9339ec	0.07188782
187	0x3e2bafa6	0.16766223
188	0x3e82c4b5	0.255407
189	0x3db0657c	0.086131066
190	0x3d4d1654	0.050070122
191	0x3ea638ab	0.3246511
192	0x3d40b9a7	0.047052052
193	0x3e99204a	0.29907447
194	0x3d85fe4f	0.06542646
195	0x3de2bf98	0.110717
196	0x3d0213e3	0.031757247
197	0x3e8418cd	0.25800171
198	0x3b5deb63	0.0033862225
199	0x3e684eb5	0.22686274
200	0x3d729467	0.05922356
201	0x3d54a2a9	0.051912937
202	0x3d8d5962	0.06901814
203	0x3e61728a	0.2201635
204	0x3e6b8dcc	0.2300331
205	0x3e5ba13a	0.21448222
206	0x3b6cf2a7	0.0036155374
207	0x3e559af9	0.20859899
208	0xbe0c0d24	-0.13676888
209	0x3d902f14	0.070402294
210	0x3e9e99f9	0.30976847
211	0x3e84b652	0.2592035
212	0x3e91feee	0.28514808
213	0x3e93c1d7	0.28858826
214	0x3e2ae0b0	0.16687274
215	0x3d0b5255	0.034014065
216	0x3e23c773	0.15994053
217	0x3e18ddf9	0.14928426
218	0x3ddd106a	0.10794146
219	0x3ca43d57	0.02004878
220	0x3dad7ae7	0.084707074
221	0x3d150902	0.036385544
222	0x3e1bc07e	0.15210149
223	0x3e4206bb	0.1894788
224	0x3e664055	0.22485478
225	0x3e5f9121	0.21832706
226	0x3d6b9392	0.05751378
227	0xbb7bf155	-0.0038443406
228	0x3e2fe99d	0.1717896
229	0x3e0a5c41	0.13511755
230	0x3d9c761b	0.07639714
231	0x3dbf7020	0.09347558
232	0x3e936d8f	0.28794524
233	0x3e8e3e38	0.27781844
234	0x3e9b1f0a	0.30297118
235	0x3eb469cc	0.35236967
236	0x3de03c13	0.10948958
237	0x3e4935e7	0.19649468
238	0x3e2fc71f	0.17165802
239	0x3de7ded7	0.113218
240	0x3db4756b	0.08811458
241	0x3ea4c975	0.3218495
242	0x3e1eab9f	0.15495156
243	0x3e9b68d9	0.3035343
244	0x3e8aa924	0.2708217
245	0x3e6aa449	0.22914232
246	0x3e00eb27	0.12589704
247	0x3e2a879b	0.16653292
248	0x3a9c270e	0.0011913495
249	0x3e87fba5	0.26559177
250	0x3e8547c8	0.26031327
251	0x3e1adc0a	0.15123
252	0x3dfcdb28	0.12346488
253	0x3e0e1dbc	0.1387853
254	0x3e576216	0.2103351
255	0x3e8ad89d	0.27118388

model.rnn.weight_hh_l0 f4 [160, 40]
0	0xbddf149f	-0.10892605
1	0xbe21fb3c	-0.15818495
2	0x3dafdae1	0.0858667
3	0x3dcd46ae	0.10023247
4	0xbe5f9b36	-0.21836552
5	0x3e492532	0.19643095
6	0x3d3386c0	0.04382968
7	0xbe3bb246	-0.18329725
8	0xbe217c46	-0.15770063
9	0x3d91c91c	0.07118437
10	0xbd48d74b	-0.049033444
11	0xbe215590	-0.15755296
12	0xbe431389	-0.19050421
13	0x3d1be08f	0.038055953
14	0xbd96e681	-0.07368184
15	0xbe74743e	-0.23872468
16	0x3e2181bb	0.15772144
17	0xbdaf372a	-0.085554436
18	0x3dc77bf4	0.09740439
19	0xbdc0a718	-0.094068706
20	0xbdb1a508	-0.08674055
21	0x3debcbf9	0.11513514
22	0x3d69c1ce	0.057069592
23	0x3cca54d5	0.024698654
24	0xbe0d7793	-0.13815145
25	0x3d610065	0.054932017
26	0x3e4dbe2a	0.20092073
27	0xbdb02241	-0.086002834
28	0x3e01fc1a	0.12693825
29	0x3d8e8874	0.0695962
30	0x3d35e3b2	0.0444066
31	0x3d1ae447	0.03781536
32	0x3d163b02	0.036677368
33	0x3e405e0e	0.18785879
34	0x3d167e34	0.03674145
35	0xbe101ab2	-0.14072683
36	0xbdd064c5	-0.1017547
37	0xbe090b8a	-0.13383308
38	0x3d713233	0.058885764
39	0x3ccab550	0.02474466
40	0xbd45a78e	-0.048255496
41	0xbded45dc	-0.1158559
42	0x3d8edf04	0.069761306
43	0x3de659a5	0.11247567
44	0x3ded2db0	0.1158098
45	0xbde89bb2	-0.113578215
46	0x3d1051f1	0.035234395
47	0xbd88a415	-0.06671921
48	0x3b1b34d6	0.0023682616
49	0x3d81f6f4	0.06345931
50	0x3d29dac4	0.041468397
51	0x3c76d54b	0.015065501
52	0xbe1645cc	-0.14675063
53	0xbdce270c	-0.10066041
54	0xbc3cc809	-0.0115223015
55	0xbd277140	-0.040879488
56	0xbe0f0445	-0.13966472
57	0x3ceb8c7d	0.028753513
58	0xbe439999	-0.19101562
59	0x3daf0bf6	0.08547203
60	0x3ca0b4e5	0.019617507
61	0x3dbdd8ad	0.09269843
62	0x3db273a2	0.087134615
63	0xbd90c5f2	-0.07069005
64	0xbd884f5b	-0.06655761
65	0xbe13ca79	-0.14432706
66	0xbd348bed	-0.044078756
67	0x3dd693ea	0.10477431
68	0x3e23035b	0.15919249
69	0x3d82b540	0.06382227
70	0xbdfc7c07	-0.12328344
71	0x3d8e9267	0.06961518
72	0x3de0a19d	0.10968325
73	0xbd6318f4	-0.05544372
74	0xbccba44f	-0.024858622
75	0x3d328b47	0.043589856
76	0xbc3bf283	-0.0114713935
77	0xbc864730	-0.016391367
78	0x3d8b9e86	0.06817345
79	0xbdbb6b84	-0.09151366
80	0x3d225aa6	0.03963723
81	0x3dd0af88	0.1018973
82	0xbd9ff1f2	-0.07809819
83	0x3d873a07	0.06602865
84	0xbce88756	-0.028384846
85	0xbdef2729	-0.11677391
86	0x3dad0945	0.08449034
87	0xbd2ae7e9	-0.041725073
88	0xbd939394	-0.07205883
89	0x3e056b19	0.13029136
90	0x3e25ac46	0.16178998
91	0xbd4a58f6	-0.049401246
92	0xbdd6751f	-0.10471558
93	0x3c8d869b	0.017276099
94	0xbdbdea0c	-0.092731565
95	0x3d363cad	0.04449146
96	0xbcebd989	-0.028790252
97	0x3e5178ac	0.20456189
98	0x3db594d6	0.08866279
99	0xbbe4762e	-0.006972096
100	0x3db7e3fc	0.089790314
101	0x3dc6f95e	0.09715532
102	0x3d64af9b	0.055831533
103	0xbe056492	-0.13026646
104	0xbe3b3f7b	-0.18285935
105	0xbd81e478	-0.06342405
106	0x3dae616f	0.08514678
107	0x3e27b4d2	0.16377571
108	0xbd291b27	-0.04128566
109	0x3d3150e5	0.043290038
110	0xbe14edc3	-0.14543824
111	0x3e366bb5	0.17814524
112	0x3b08d2b9	0.0020877554
113	0xbd6c79fb	-0.057733517
114	0xbd88d225	-0.06680707
115	0xbc2699fc	-0.010168549
116	0x3e368169	0.17822804
117	0xbd27787e	-0.040886395
118	0xbb902d15	-0.0043999054
119	0xbdca4159	-0.09875745
120	0xbe4089ba	-0.18802539
121	0x3dc3fc63	0.09569623
122	0x3e0fef69	0.14056171
123	0xbd698601	-0.05701256
124	0xbe656486	-0.22401628
125	0x3c08d114	0.008350629
126	0xbb55eb5d	-0.0032641508
127	0x3d8a136f	0.06741988
128	0xbd5e5571	-0.054280702
129	0x3dbe1648	0.092815936
130	0x3e47da27	0.19516812
131	0x3daa7264	0.083225995
132	0x3c816c66	0.015798759
133	0x39e8c49d	0.00044396977
134	0x3d890460	0.066902876
135	0xbe5d9a78	-0.21640956
136	0xbccb694f	-0.024830488
137	0x3e559077	0.2085589
138	0xbbc54798	-0.0060204975
139	0xbe04aff1	-0.12957741
140	0xbe1c4d1a	-0.15263787
141	0xbdbbde6f	-0.09173285
142	0x3ca1c87c	0.019748919
143	0x3e069b2d	0.13145132
144	0xbd939676	-0.072064325
145	0x3dc2af29	0.095060654
146	0x3e509658	0.20369852
147	0x3d11e3bb	0.03561757
148	0x3e4eb51d	0.20186277
149	0xbde4faf2	-0.111806765
150	0x3d903183	0.070406936
151	0x3db0fed1	0.08642352
152	0xbe7cbed2	-0.24682167
153	0x3df38671	0.11890877
154	0xbe43c21f	-0.1911702
155	0xb988ac94	-0.00026068522
156	0xbdd1fdd2	-0.102534905
157	0xbde71c5d	-0.11284707
158	0xbd153ccf	-0.036434945
159	0x3d8041bd	0.062625386
160	0xbe585530	-0.21126246
161	0xbe61aa66	-0.22037658
162	0xbce18245	-0.027527938
163	0x3e5f5c50	0.21812558
164	0xbd0bec37	-0.03416082
165	0xbd3645c7	-0.04450014
166	0xbd6783c8	-0.05652216
167	0xbdc4661e	-0.0958979
168	0xbe0b9e6d	-0.13634653
169	0x3e4621c6	0.19348821
170	0x3d1dac0c	0.038494155
171	0xbd8d6e68	-0.06905824
172	0x3d805555	0.06266276
173	0xbe482360	-0.19544744
174	0x3d6d2dc6	0.05790498
175	0xbe86798c	-0.26264608
176	0x3dab720f	0.08371364
177	0xbe3496f1	-0.17635705
178	0x3c65e4fc	0.014031645
179	0xbe39e361	-0.18153144
180	0xbd759d2f	-0.059964355
181	0x3d87e34d	0.06635151
182	0xbd93e09e	-0.07220577
183	0xbd939fb3	-0.072081946
184	0xbe3bcb90	-0.18339372
185	0xbc83e4c7	-0.0161003
186	0xbd06c6eb	-0.032904547
187	0xbd700e48	-0.05860737
188	0x3e255217	0.16144596
189	0xbd992eab	-0.07479604
190	0xbdef1410	-0.116737485
191	0x3e4a774b	0.19772069
192	0xbdc4e6a0	-0.09614301
193	0xbca58c7a	-0.020208586
194	0xbe4e474e	-0.20144388
195	0xbdbd83f9	-0.092536874
196	0xbcff1122	-0.0311361
197	0xbe14fb54	-0.14548999
198	0xbe65be2f	-0.2243583
199	0xbddfd46e	-0.109291896
200	0xbd6bc1ac	-0.057557747
201	0x3c18d741	0.009328664
202	0x3d7114c1	0.058857683
203	0x3da372a3	0.079808496
204	0xbd689fc6	-0.056792997
205	0xbd556a96	-0.0521036
206	0xbe54b8dc	-0.20773643
207	0x3d2478c5	0.040154237
208	0x3c67449d	0.01411548
209	0x3cd9f584	0.026606329
210	0x3d41d705	0.0473242
211	0x3d35cc5f	0.044384357
212	0x3d7b79d0	0.061395466
213	0xbc854749	-0.016269343
214	0xbde1459c	-0.10999605
215	0xbe35eebe	-0.17766854
216	0xbd5729b7	-0.052530017
217	0x3e0cdbb5	0.13755687
218	0xbdcb5eea	-0.09930213
219	0xbcda6390	-0.026658803
220	0x3dcec21c	0.10095617
221	0x3e437f05	0.19091423
222	0xbd4a419b	-0.049378973
223	0xbc25ba44	-0.01011521
224	0xbdca3933	-0.09874191
225	0xbe308778	-0.17239177
226	0xba2a6364	-0.00064997957
227	0x3e1f928b	0.15583245
228	0xbd1a92d5	-0.037737686
229	0x3dee7ae2	0.11644532
230	0xbe1112f3	-0.14167385
231	0x3da34cf3	0.07973661
232	0xbe6ad3cf	-0.22932361
233	0x3d9d0043	0.076660655
234	0xbd8a2dcc	-0.06747016
235	0xbe279535	-0.16365512
236	0xbc4fd2bc	-0.01268452
237	0xbd633aba	-0.055475928
238	0xbdaf0268	-0.08545381
239	0xbdfccee4	-0.12344149
240	0x3d0714be	0.032978766
241	0xbdd6129e	-0.1045277
242	0x3dc94970	0.0982846
243	0x3bdc1ddb	0.0067174262
244	0xbb9bfbf8	-0.0047602616
245	0x3c54d169	0.01298938
246	0xbdb3be26	-0.08776502
247	0xbd5d9923	-0.05410112
248	0xbe3ea760	-0.18618536
249	0xbd7ea029	-0.06216446
250	0xbd3ae8ee	-0.045632295
251	0xbe13dee1	-0.1444049
252	0x3d09aab4	0.03361006
253	0xbe4eee42	-0.20208076
254	0x3cd1c3ff	0.025606154
255	0xbe211b64	-0.15733105

model.rnn.bias_ih_l0 f4 [160]
0	0x3e46b779	0.19405927
1	0x3dd558a2	0.10417296
2	0xbcf7dfda	-0.030258108
3	0x3da93f6e	0.082640514
4	0x3d4a9d76	0.049466573
5	0x3ea2faa8	0.3183186
6	0x3ddb04a6	0.10694246
7	0x3e170266	0.14747009
8	0x3e195cb9	0.14976777
9	0x3d8e87ef	0.06959521
10	0x3de82d4f	0.11336767
11	0x3eaa1a07	0.33222982
12	0x3e04b3cb	0.1295921
13	0x3e505506	0.20344934
14	0xbce70dcb	-0.02820482
15	0x3e29fdab	0.16600673
16	0xbe15177b	-0.14559738
17	0xbd45551a	-0.048176862
18	0xbdb21e00	-0.08697128
19	0x3e913bb4	0.28365862
20	0x3d3bb7ec	0.0458297
21	0x3da1e78d	0.07905493
22	0xbe014afe	-0.12626263
23	0xbdf9d2c3	-0.12198403
24	0x3e385e18	0.18004644
25	0x3e1902c1	0.14942457
26	0x3e5a4a98	0.21317518
27	0xbdf6d2e2	-0.120519415
28	0x3e69c73d	0.2282991
29	0x3ebe5376	0.3717305
30	0x3d6c27aa	0.057655014
31	0xbb220d5f	-0.0024727208
32	0x3e996435	0.29959264
33	0x3dce8161	0.10083271
34	0x3dd78629	0.10523636
35	0x3dd7c12f	0.10534894
36	0x3da38469	0.079842396
37	0x3e1ffefe	0.15624616
38	0x3c01d8cc	0.007925224
39	0x3c34fabf	0.011046111
40	0x3dc5e1ff	0.09662246
41	0x3e045d31	0.12926175
42	0x3d2b672a	0.04184643
43	0xbda3bfb5	-0.079955496
44	0x3e7a0d90	0.24419236
45	0x3e13d233	0.14435653
46	0x3da3b5df	0.079936735
47	0x3e14f071	0.14544846
48	0x3cebf124	0.028801508
49	0x3e036a3d	0.12833495
50	0x3da802d0	0.082036614
51	0x3df40153	0.11914315
52	0xbd2c5775	-0.042075593
53	0x3e093bed	0.13401766
54	0xbd975c95	-0.073907055
55	0xbdb8a18b	-0.09015187
56	0xbd82394f	-0.06358587
57	0xbd5e06c5	-0.054205675
58	0xbe167c11	-0.14695765
59	0x3e34cf3b	0.17657177
60	0x3bb15f3f	0.0054129655
61	0xbe050c10	-0.12992883
62	0x3e6e20e3	0.23254733
63	0x3df21277	0.11819928
64	0x3e40b365	0.18818434
65	0x3e3b1c45	0.18272503
66	0x3c9d2f17	0.019187493
67	0x3dc3f604	0.09568408
68	0x3e08fd4d	0.13377877
69	0x3bc8a916	0.0061236722
70	0xbe1a8991	-0.1509154
71	0xbd5f7a1d	-0.054559816
72	0xbdcf18e9	-0.10112173
73	0x3e0ccb5a	0.13749447
74	0x3e022439	0.1270913
75	0xbc7fa694	-0.01560368
76	0xbbada6da	-0.0052994313
77	0xbe8ae4a5	-0.27127567
78	0x3d9581e0	0.07300162
79	0x3b2c22dc	0.0026265895
80	0xbdda82d0	-0.10669482
81	0xbe0768ae	-0.13223526
82	0xbd072eab	-0.03300349
83	0x3df6abbf	0.12044477
84	0x3bf6ed6d	0.0075356276
85	0x3e3b3910	0.18283486
86	0xbe1d5fa5	-0.15368517
87	0xbe5e7085	-0.2172261
88	0xbd847571	-0.06467713
89	0x3d89cdff	0.06728744
90	0x3e3745c8	0.17897713
91	0x3d9ffc63	0.07811811
92	0xbc646f45	-0.013942544
93	0x3d8c7ccd	0.06859741
94	0x3e03230c	0.12806338
95	0x3c9a31c1	0.018822553
96	0x3d05ac86	0.032635234
97	0xbdc3dc55	-0.095635094
98	0x3db15c15	0.086601414
99	0xbc8241f8	-0.015900597
100	0xbdf8a5d3	-0.121410035
101	0x3e19749a	0.14985886
102	0xbc9caa60	-0.01912421
103	0x3e539a10	0.20664239
104	0x3e2370a8	0.15960944
105	0xbd2966cd	-0.041357804
106	0xbd989340	-0.07449961
107	0xbe1f147e	-0.15535161
108	0xbcc38ab3	-0.023869848
109	0x3da570a3	0.080781244
110	0xbc396c72	-0.011317359
111	0x3ba5c767	0.005059171
112	0x39fbcb27	0.0004802581
113	0x3b64e0ca	0.0034924024
114	0xbe468409	-0.19386305
115	0xbcb214d1	-0.021738442
116	0xbd620456	-0.055179916
117	0x3cb99b5b	0.022657087
118	0x3d3de513	0.04636104
119	0x3d87a183	0.06622603
120	0x3dab257f	0.08356761
121	0xbca5ba36	-0.020230394
122	0x3d4bcc15	0.049755175
123	0xbac35cfc	-0.0014905031
124	0x3e8e098d	0.27741662
125	0x3e510a26	0.20414028
126	0x3e880a12	0.26570183
127	0x3ce4437a	0.027864207
128	0x3e397aac	0.18113202
129	0x3bc4b043	0.0060024573
130	0x3e08a765	0.13345106
131	0x3e06a781	0.13149835
132	0x3e0bd121	0.13653995
133	0x3de61f06	0.11236386
134	0x3dad4c73	0.08461847
135	0x3d8d5c50	0.06902373
136	0xbcdbeea0	-0.026847184
137	0xbe286b15	-0.16447099
138	0x3df7f1ce	0.121066675
139	0x3d1edec4	0.038786665
140	0x3e14486e	0.14480755
141	0x3d75af22	0.059981473
142	0x3d3b979e	0.04579889
143	0xbd8b903d	-0.06814621
144	0x3ca64867	0.020298196
145	0x3ea4d88e	0.32196468
146	0xbd9d4163	-0.07678487
147	0xbca1ecd8	-0.019766256
148	0x3e33340e	0.17500326
149	0x3e356b2e	0.17716667
150	0xbdd2159c	-0.10258028
151	0xbdd5800f	-0.10424816
152	0x3ed7582c	0.42059457
153	0x3d4e4d37	0.050366607
154	0x3e37d6b0	0.1795299
155	0xbc959d62	-0.018263523
156	0xbd28e1d8	-0.041231006
157	0xbd2155aa	-0.039388336
158	0x3df0cb71	0.11757553
159	0x3d397c3b	0.04528449

model.rnn.bias_hh_l0 f4 [160]
0	0x3e4df7b1	0.20114018
1	0x3db5d36e	0.08878218
2	0x3e156d9c	0.14592594
3	0x3e97757f	0.2958183
4	0x3da5f4f4	0.08103362
5	0x3e88a86c	0.26690996
6	0x3ebd1251	0.36928037
7	0x3d84a9a8	0.06477672
8	0x3ec30ca4	0.38095582
9	0x3d81e0db	0.06341716
10	0x3e806df2	0.25083882
11	0x3e0b2c50	0.13591123
12	0x3e008cab	0.1255366
13	0x3e88718f	0.26649138
14	0x3da568fa	0.08076663
15	0x3e98af4b	0.29821238
16	0x36d313cb	6.2905942e-06
17	0xbdcc3421	-0.0997088
18	0xbd62f36d	-0.05540793
19	0x3e591f5e	0.21203372
20	0x3ddbd517	0.10734003
21	0xbdebfb74	-0.1152257
22	0xbe0fef04	-0.14056021
23	0xbdbfdfac	-0.09368834
24	0xbd2421be	-0.04007124
25	0x3e20d375	0.15705664
26	0x3e2962ec	0.16541642
27	0xbc12e240	-0.008965075
28	0x3e28e696	0.16494212
29	0x3e62c933	0.22147064
30	0xbd17c051	-0.03704864
31	0xbd817749	-0.0632158
32	0x3ed4cf8b	0.41564593
33	0x3d57add0	0.052655995
34	0x3e17d8f3	0.14828853
35	0x3e12bfad	0.14330931
36	0xbd9f6cf9	-0.07784457
37	0x3df1d80d	0.118087865
38	0x3d76e69f	0.06027853
39	0x3def072a	0.11671288
40	0xbd84ed18	-0.064905345
41	0xbc461c78	-0.012091748
42	0x3d4b3a6a	0.049616255
43	0x3da69d6d	0.08135495
44	0x3e65e551	0.22450759
45	0xbddf5dc8	-0.10906559
46	0x3e0f46a3	0.1399179
47	0x3e4b17f3	0.19833355
48	0x3e321ef5	0.17394622
49	0xbd4c4603	-0.049871456
50	0x3e2bf946	0.16794309
51	0xbbdfc04e	-0.0068283444
52	0xbcf4cc2c	-0.029882513
53	0x3e43efcc	0.19134444
54	0xbc78ac0f	-0.015177741
55	0xbd32f89a	-0.043694116
56	0xbddb2fe1	-0.107024916
57	0x3d5d41e0	0.0540179
58	0xbd239b4d	-0.03994303
59	0xbc89d0fd	-0.016823286
60	0x3e1aa95e	0.15103671
61	0xbc1380ea	-0.0090029035
62	0x3d263c07	0.04058459
63	0x3d5332d9	0.051562164
64	0xbd74f768	-0.059806257
65	0x3cf3b7bc	0.029750697
66	0x3dc6fb29	0.09715874
67	0x3d069c0a	0.032863654
68	0x3dd48baf	0.10378205
69	0x3c62879b	0.013826276
70	0xbda18c50	-0.078880906
71	0xbcebeeff	-0.028800486
72	0x3d12fdd4	0.0358866
73	0xbe0541a7	-0.13013326
74	0xbd42db4d	-0.047572423
75	0xbd8a2f86	-0.067473456
76	0xbbfd0e83	-0.007722677
77	0xbe910c8c	-0.28329885
78	0x3e268377	0.16261087
79	0x3e25dd5c	0.16197723
80	0xbcfa0bcd	-0.030523205
81	0x3d582b10	0.052775443
82	0x3e12a245	0.14319713
83	0x3dedc1f3	0.116092585
84	0xbd877ec0	-0.066159725
85	0x3d2e1cab	0.04250781
86	0xbe68824f	-0.22705959
87	0xbdb65b4b	-0.089041315
88	0xbe8c7134	-0.27430117
89	0x3e22acdd	0.15886255
90	0x3d018b67	0.031627085
91	0x3bc89230	0.0061209425
92	0x3bde5a0d	0.0067856372
93	0xbe2a0fad	-0.16607542
94	0xbcc10fb1	-0.023567053
95	0xbdc890bd	-0.09793232
96	0xbd81a1f1	-0.06329716
97	0xbdb853a2	-0.09000327
98	0x3c9bfa1c	0.01904016
99	0x3ca54bb9	0.020177709
100	0xbc998dfe	-0.018744465
101	0x3ad5f9fc	0.0016325112
102	0x3d7ee136	0.062226497
103	0x3e1ccd7c	0.15312761
104	0xbd65f281	-0.056139473
105	0xbe7da963	-0.24771647
106	0x3d2afdb0	0.04174584
107	0x3d934129	0.07190163
108	0x3d74d652	0.059774704
109	0x3da78b4f	0.08180868
110	0xbba6236a	-0.0050701397
111	0x3e05a70d	0.13052006
112	0x3e1f0a6c	0.1553132
113	0xbd14d697	-0.03633746
114	0xbdde4583	-0.10853102
115	0xbdd55021	-0.10415674
116	0xbd91ebee	-0.07125078
117	0x3d40b3c7	0.04704645
118	0x3d4e200a	0.050323524
119	0xbd371bd1	-0.044704262
120	0x3e117091	0.14203097
121	0x3e64bc97	0.22337566
122	0x3e368721	0.17824985
123	0x3e2d9c37	0.16954122
124	0x3dc8bfad	0.09802184
125	0x3e88adb0	0.26695013
126	0x3e900b93	0.2813383
127	0x3d2fbf43	0.04290701
128	0x3d935496	0.07193868
129	0xbda6f3cb	-0.081519686
130	0x3e4f01db	0.20215552
131	0x3e64552a	0.22298113
132	0xbd5cfa96	-0.053949915
133	0xbd8446b8	-0.06458801
134	0x3d9eed9d	0.07760165
135	0x3e898fb7	0.26867458
136	0xbcffba81	-0.031216862
137	0xbe484fb6	-0.19561657
138	0x3cfd0847	0.030887736
139	0xbd273f40	-0.040831804
140	0x3c9cf346	0.01915897
141	0x3e43a7a7	0.19106923
142	0xbd923cd3	-0.071405075
143	0x3d412597	0.04715499
144	0x3d4a021c	0.049318418
145	0x3e25437e	0.16139027
146	0xbd92a339	-0.071600385
147	0xbdfbba5b	-0.12291404
148	0x3d8fa259	0.07013387
149	0x3dc3eded	0.09566865
150	0x3b377b86	0.002799721
151	0xbce8439a	-0.028352547
152	0x3ea2d3d1	0.31802228
153	0x3e44afa9	0.19207634
154	0x3c7ff953	0.015623408
155	0x3e2b40d7	0.16723953
156	0x3e1bd2ca	0.15217128
157	0x3e6f3223	0.2335897
158	0x3dedd34e	0.11612569
159	0xbc46beb4	-0.012130428

model.rnn.weight_ih_l1 f4 [160, 40]
0	0xbd94f6a4	-0.072736055
1	0xbd7cee32	-0.0617506
2	0xbc3c5d9e	-0.011496929
3	0x3e465b7e	0.19370839
4	0xbdaa59f4	-0.083179384
5	0x3e8d8cfd	0.27646628
6	0xbe924055	-0.28564706
7	0xbe9567f9	-0.29180887
8	0xbe9f72e4	-0.31142342
9	0x3dd4d63a	0.10392423
10	0x3e49bac9	0.19700159
11	0xbddb7e21	-0.107174166
12	0xbe7f1d29	-0.24913467
13	0xbd9d247a	-0.07672973
14	0x3ddf3f35	0.10900728
15	0xbe25947e	-0.16169927
16	0xbda31796	-0.07963483
17	0xbd4f6bb7	-0.050639834
18	0xbd49bbd9	-0.04925141
19	0xbe551042	-0.20806983
20	0xbb3ba909	-0.0028634688
21	0x3e12ea44	0.14347178
22	0xbcd27fe9	-0.025695758
23	0xbcb96de4	-0.022635408
24	0xbd44e60b	-0.04807095
25	0xbe3806c4	-0.17971331
26	0x3c3f0fe2	0.011661502
27	0x3e1e6fde	0.15472361
28	0x3c240330	0.010010526
29	0xbc8e98eb	-0.017406901
30	0xbcd4ee2b	-0.025992474
31	0x3e0624cf	0.13099979
32	0xbe313664	-0.17305905
33	0xbc300eb5	-0.010745694
34	0xbca5d341	-0.020242335
35	0x3af727ca	0.0018856463
36	0x3d8b8f56	0.068144485
37	0xbead165e	-0.33806127
38	0xbe05fcf4	-0.13084775
39	0x3d347afa	0.044062592
40	0xbe3f5276	-0.186838
41	0xbe7d278c	-0.24722117
42	0x3df97185	0.12179855
43	0x3ebf0a38	0.37312484
44	0xbe2c5050	-0.16827512
45	0x3c987e3c	0.01861488
46	0xbf01dca2	-0.50727284
47	0xbd00ff93	-0.031493735
48	0xbee3fbac	-0.44527948
49	0x3e0f402f	0.13989328
50	0x3e05109e	0.1299462
51	0xbd05d627	-0.032674935
52	0xbea44629	-0.32084778
53	0xbe645c4e	-0.22300836
54	0x3e4aa523	0.19789557
55	0xbef0b58d	-0.47013512
56	0xbe2bb2b9	-0.16767396
57	0xbd1737f8	-0.03691861
58	0xbe57ba0c	-0.21067065
59	0xbe907011	-0.282105
60	0xbe461486	-0.19343767
61	0x3bf9bbd0	0.007621266
62	0xbe3164f7	-0.17323671
63	0x3da17039	0.07882733
64	0xbd9eeb9b	-0.07759782
65	0xbcb53f6d	-0.02212497
66	0x3d0a4173	0.033753823
67	0xbdf0e12f	-0.117617
68	0x3e3e4a5a	0.1858305
69	0xbb80c8c0	-0.0039301813
70	0xbe91823e	-0.2841968
71	0x3e0f689c	0.14004749
72	0xbe302567	-0.17201768
73	0x3e90bf6f	0.28271052
74	0xbecee13f	-0.40406224
75	0xbd8eeacf	-0.0697838
76	0x3d9a98bf	0.07548665
77	0xbed74a34	-0.420488
78	0xbe988cce	-0.29794925
79	0x3c48eec9	0.012263962
80	0xbb336f83	-0.0027379699
81	0x3bd60685	0.006531539
82	0x3e2b16cd	0.16707917
83	0x3d797d09	0.06091026
84	0xbd7c9a16	-0.061670385
85	0xbdb944b7	-0.090463094
86	0xbdd3f1ee	-0.10348879
87	0xbe525fcb	-0.20544355
88	0xbe11ed5c	-0.14250702
89	0xbde69a3a	-0.11259885
90	0xbdb02989	-0.08601672
91	0xbe1afda3	-0.15135817
92	0xb9d7ce95	-0.0004116191
93	0x3c6701fa	0.014099592
94	0xbd830430	-0.06397283
95	0x3c92b805	0.017910013
96	0xbe9c2e51	-0.30504087
97	0x3ebfbf9b	0.3745087
98	0xbc73991a	-0.014868045
99	0xbd82692c	-0.06367716
100	0x3ddc7bdc	0.10765812
101	0xbd058fc9	-0.032607827
102	0xbe11367b	-0.14180939
103	0xbd19fcc1	-0.03759456
104	0x3c6640b9	0.014053517
105	0xbe05a590	-0.13051438
106	0x3d991672	0.07474984
107	0x3df041e2	0.11731316
108	0x3dae2cca	0.085046366
109	0x3dc8f29f	0.09811901
110	0xbe61c3c9	-0.22047342
111	0xbde93172	-0.11386384
112	0x3caec776	0.021335345
113	0x3e9f8824	0.31158555
114	0x3da2ac78	0.07943052
115	0xbd87a942	-0.0662408
116	0x3e0baffe	0.13641354
117	0xbefa629b	-0.48903355
118	0x3da679a9	0.081286736
119	0xbe2235a5	-0.15840776
120	0xbd8d8d13	-0.069116734
121	0x3c296f9a	0.010341549
122	0xbde5db6e	-0.112234935
123	0xbd8599b9	-0.06523461
124	0x3d5c7441	0.053821806
125	0x3e3031f7	0.1720656
126	0x3e07dd77	0.13268076
127	0x3dc00a38	0.09376949
128	0xbce6885a	-0.02814119
129	0xbc06c732	-0.008226203
130	0x3e0201f6	0.1269606
131	0xbe274ebb	-0.16338627
132	0xbdeb9e52	-0.115048066
133	0xbdaf4c49	-0.08559472
134	0xbd6b385c	-0.057426795
135	0xbdec3330	-0.11533201
136	0x3dae53a8	0.0851205
137	0xbe05d4aa	-0.13069406
138	0x3de30d59	0.1108653
139	0xbe18f6df	-0.14937924
140	0xbd153800	-0.03643036
141	0x3d97ff78	0.07421774
142	0xbd7bf452	-0.0615123
143	0x3e29e48c	0.1659109
144	0x3d706743	0.058692228
145	0xbcfc565a	-0.030802894
146	0x3d2f71f4	0.042833284
147	0x3e2d8ce4	0.16948277
148	0x3e02d3e4	0.12776142
149	0xbd2236a1	-0.03960288
150	0x3da0b8ac	0.07847723
151	0x3dc8182d	0.09770236
152	0xbcbe494b	-0.023228308
153	0x3e0ff749	0.14059176
154	0xbdf33534	-0.11875382
155	0xbe2a4144	-0.1662646
156	0x3da64cb5	0.081200995
157	0xbdbd5c47	-0.09246116
158	0x3d224698	0.039618105
159	0xbe117c18	-0.14207494
160	0xbde8c4b4	-0.11365643
161	0xbdce49b2	-0.1007265
162	0xbe2cbee7	-0.16869698
163	0xbde82ef0	-0.113370776
164	0x3e02070a	0.12697998
165	0x3ddfcf7a	0.10928245
166	0x3d8ce3c1	0.06879378
167	0x3ce72bca	0.028219122
168	0x3e1ac2a4	0.15113312
169	0xbe455bcc	-0.19273299
170	0x3d686228	0.056734234
171	0x3e1fb2dd	0.15595575
172	0xbcd51eb2	-0.026015613
173	0xbde43f3c	-0.111448735
174	0xbd0f9dfc	-0.035062775
175	0x3dc96a18	0.09834689
176	0x3dfdd8e0	0.12394881
177	0xbdcbeb2d	-0.099569656
178	0x3e0de221	0.13855793
179	0x3ded2252	0.11578812
180	0x3d03de2f	0.032194313
181	0xbe256cfb	-0.16154854
182	0x3e0f0120	0.13965273
183	0xbd26b484	-0.040699497
184	0x3e16db4a	0.1473209
185	0x3e132de5	0.14372976
186	0x3dc78514	0.097421795
187	0x3e1ddecc	0.15417022
188	0xbe228964	-0.15872723
189	0xbddbb5f3	-0.107280634
190	0x3e2d0067	0.16894685
191	0xbd9c38b1	-0.076280005
192	0x3de72b05	0.11287502
193	0xbe7de6d5	-0.24795087
194	0x39e951ce	0.00044502172
195	0x3d8b12ed	0.06790719
196	0xbe333f0f	-0.17504524
197	0x3da9a1de	0.08282827
198	0x3db0ad26	0.086267754
199	0x3d68938a	0.05678133
200	0xbec1a349	-0.3781989
201	0xbe87cfa0	-0.26525593
202	0x3e95b352	0.29238373
203	0x3ebe999d	0.37226573
204	0xbe8e52d4	-0.27797568
205	0x3d485e33	0.04891796
206	0xbeda4128	-0.42627835
207	0xbd0014e4	-0.031269923
208	0xbec492cc	-0.38393247
209	0x3d25c907	0.040474918
210	0x3d55fa13	0.052240442
211	0xbe476d84	-0.1947537
212	0xbe220eb1	-0.15825917
213	0xbe256533	-0.16151886
214	0x3e83a7b0	0.25713873
215	0xbebddf0f	-0.37084243
216	0xbe90384f	-0.2816796
217	0x3dfb5182	0.12271406
218	0xbdadbc0b	-0.08483132
219	0xbd8aad2f	-0.067713134
220	0xbe40254b	-0.18764226
221	0x3e23114e	0.1592457
222	0x3ca5102f	0.020149319
223	0x3df53c28	0.119743645
224	0xbdad600d	-0.08465586
225	0xbe802fac	-0.2503637
226	0x3e89c426	0.26907462
227	0xbd007dca	-0.03136996
228	0x3e9977b7	0.29974148
229	0xbc83e927	-0.016102387
230	0xbdb4db8f	-0.0883094
231	0x3ac2a991	0.001485156
232	0xbe293347	-0.16523467
233	0x3e91c631	0.2847152
234	0xbe7fc20e	-0.2497637
235	0xbe91ec37	-0.2850053
236	0x3e84d3f8	0.2594297
237	0xbeb0d763	-0.34539327
238	0xbec8ed9d	-0.39243785
239	0xbdecd4b7	-0.1156401
240	0xbd18f353	-0.037341427
241	0xbdb6db73	-0.08928575
242	0x3e018af7	0.12650667
243	0x3e2b7b69	0.16746296
244	0xbd89a7d6	-0.06721465
245	0x3db09520	0.08622193
246	0xbdd2df3e	-0.10296486
247	0x3dab55b7	0.08365958
248	0xbd92d89c	-0.07170221
249	0x3e64f57e	0.22359273
250	0x3e013310	0.12617135
251	0xbd8d1712	-0.06889166
252	0xbe3a31ab	-0.1818301
253	0xbca7411f	-0.020416794
254	0xbd3e36f9	-0.046439145
255	0xbdda111b	-0.10647794

model.rnn.weight_hh_l1 f4 [160, 40]
0	0x3c3e3db7	0.011611394
1	0x3d8a2432	0.06745185
2	0x3df6b42d	0.120460846
3	0xbe253404	-0.16133124
4	0x3b9e52ee	0.0048316633
5	0xbd5c0903	-0.05371953
6	0x3d337718	0.04381475
7	0x3d546319	0.05185232
8	0x3d92dd04	0.07171062
9	0xbe0746a5	-0.13210543
10	0x3d7763f9	0.060398076
11	0x3c8859d1	0.01664439
12	0x3ddd02c7	0.10791545
13	0x3e2a8781	0.16653253
14	0xbe0aaf20	-0.13543367
15	0x3e19fbf6	0.15037522
16	0x3db367af	0.087600105
17	0x3d948fc6	0.07253985
18	0x3e3c9094	0.18414527
19	0xbd8e17db	-0.06938144
20	0x3dc616d5	0.096723236
21	0xbbc15489	-0.00589997
22	0x3da61a3f	0.08110475
23	0xbd667c15	-0.056270678
24	0xbd55b4e0	-0.05217445
25	0x3d8909b4	0.06691304
26	0xbdf2de0f	-0.118587606
27	0x3da34e68	0.07973939
28	0x3cf385a2	0.029726807
29	0x3df52bf5	0.11971275
30	0xbd001271	-0.031267587
31	0x3e1941df	0.14966534
32	0x3e1718bb	0.14755528
33	0x3dbfd016	0.09365861
34	0x3dcff2fb	0.10153767
35	0x3def854d	0.11695347
36	0xbd153382	-0.036426075
37	0xbd150b38	-0.036387652
38	0x3c60e65e	0.013726799
39	0xbd98563e	-0.074383244
40	0x3ddaa499	0.10675926
41	0x3d4dd045	0.05024745
42	0xbd356aba	-0.044291236
43	0x3c390b31	0.011294172
44	0x3db8bef2	0.09020795
45	0xbe09535b	-0.13410704
46	0x3d6b100b	0.057388347
47	0x3d228260	0.039675117
48	0x3dc75efa	0.09734912
49	0xbe0830e7	-0.13299905
50	0xbd813842	-0.063095585
51	0x3dc52ec7	0.09628063
52	0xbe0ce2d5	-0.13758405
53	0x3e02e9b0	0.12784457
54	0x3df51c54	0.11968294
55	0xbcdf586d	-0.027263844
56	0xbdb41f20	-0.08794999
57	0x3dda2c46	0.10652976
58	0xbc8e9494	-0.017404832
59	0xbd3611e2	-0.044450648
60	0x3d920ea2	0.07131697
61	0x3b116733	0.0022186756
62	0x3d8038cc	0.06260833
63	0xbc461ea5	-0.012092267
64	0xbd28f033	-0.041244697
65	0xbd5fc06a	-0.05462686
66	0x3e00a326	0.12562236
67	0xbdbde5e9	-0.092723675
68	0x3de96ae6	0.113973424
69	0xbde1c0bc	-0.11023089
70	0x3e0ab548	0.13545716
71	0x3dd607c5	0.10450701
72	0xbcb3e2e0	-0.021958768
73	0xbd533d62	-0.05157221
74	0x3d3eddf5	0.046598393
75	0xbdf9701d	-0.12179587
76	0xbe12180b	-0.14266984
77	0xbe0624f5	-0.13100035
78	0x3e17c27c	0.14820284
79	0x3e3d1f8d	0.18469067
80	0x3ca24179	0.01980661
81	0xbe07d48c	-0.13264674
82	0x3e424886	0.18972978
83	0xbe0f0fa7	-0.13970815
84	0x3ca99297	0.020699782
85	0xbdd4f171	-0.10397614
86	0x3c1c369f	0.009534507
87	0x3d05654d	0.03256731
88	0x3cd2b5e2	0.025721494
89	0xbc1e3353	-0.009655791
90	0xbe13242a	-0.14369264
91	0x3dff6f44	0.12472394
92	0xbdb92558	-0.09040326
93	0xbd3100f4	-0.0432138
94	0xbc851739	-0.016246425
95	0xbe48c3c3	-0.19605927
96	0xbe089742	-0.1333895
97	0xbe1988df	-0.14993618
98	0x3e0212a8	0.1270243
99	0x3ca1436b	0.019685468
100	0x3e6601b0	0.22461581
101	0x3a48d1dc	0.0007660666
102	0xbdb78420	-0.08960748
103	0xbd451acc	-0.04812126
104	0x3daacd9a	0.08339997
105	0xbd423bd3	-0.047420334
106	0xbe1c64da	-0.15272847
107	0xbe116e32	-0.14202192
108	0xbbc0fa8a	-0.0058892416
109	0x3d83f86f	0.06443869
110	0xbdb02857	-0.08601444
111	0x3dd2f994	0.103015095
112	0xbe4086f4	-0.1880148
113	0xbcb81140	-0.022469163
114	0xbc1cc345	-0.00956804
115	0xbc16492e	-0.009172721
116	0x3e11ed8d	0.14250775
117	0xbdf49bd8	-0.11943787
118	0x3d916e7f	0.071011536
119	0xbd3f0c80	-0.04664278
120	0xbdbdb6f1	-0.09263409
121	0x3dc152b7	0.09439605
122	0xbe49ca00	-0.19705963
123	0x3d0e3af8	0.034724206
124	0xbe220b67	-0.15824662
125	0x3dfe4ca0	0.12416959
126	0xbddebbbc	-0.10875651
127	0xbd47fc2d	-0.048824478
128	0x3d6296ff	0.055319782
129	0x3c6c953d	0.014439878
130	0xbce2d5ee	-0.0276899
131	0x3d5ee4f7	0.054417577
132	0xbcceca5d	-0.025242979
133	0x3e33df14	0.17565566
134	0xbdf86a56	-0.12129657
135	0xbdb313f7	-0.08744042
136	0x3e13b08e	0.14422819
137	0x3da2753b	0.07932516
138	0xbdcc3f15	-0.099729694
139	0xbd9780d5	-0.0739762
140	0xbe3d9a49	-0.18515886
141	0xbd835b14	-0.06413856
142	0x3e2952ce	0.16535494
143	0xbe2988ba	-0.16556063
144	0xbd755d3e	-0.059903376
145	0x3e169ec5	0.14709003
146	0x3e0687cb	0.13137738
147	0x3e089ba7	0.13340627
148	0xbde23102	-0.11044504
149	0x3e00f64d	0.12593956
150	0x3cb6d0a2	0.02231628
151	0x3da53bcf	0.08068048
152	0xbdd089ec	-0.101825565
153	0x3d60c6ff	0.054877277
154	0x3dd1b926	0.102403924
155	0x3dfc7e54	0.12328783
156	0xbd94401d	-0.07238791
157	0xbd427ffd	-0.04748534
158	0xbe1f5c92	-0.15562657
159	0x3c50153d	0.012700376
160	0x3da0900f	0.07839977
161	0xbe211e7f	-0.1573429
162	0xbdea8481	-0.11451054
163	0xbdc54d06	-0.09633832
164	0xbcfb5dc1	-0.030684354
165	0x3d60af06	0.054854415
166	0x3dc4f1ac	0.09616408
167	0xbc2a0f2a	-0.010379592
168	0x3e551628	0.20809233
169	0xbe6cc173	-0.2312067
170	0xbc80bf50	-0.015716225
171	0xbd882807	-0.066482596
172	0xbdb48010	-0.088134885
173	0x3d48fd61	0.049069766
174	0x3e4ddaee	0.20103046
175	0xbe2a2bdb	-0.16618292
176	0x3dc20fb2	0.0947565
177	0x3d1b45ee	0.037908487
178	0x3e239898	0.15976179
179	0x3e01f475	0.12690909
180	0xbe7df156	-0.24799094
181	0xbe11c30b	-0.14234559
182	0xbe3dc083	-0.18530469
183	0xbd9889fb	-0.07448193
184	0xbd406393	-0.04696996
185	0xbe112112	-0.14172772
186	0x3df9ae75	0.12191478
187	0x3e3efdaf	0.1865146
188	0x3d11dc34	0.035610393
189	0x3d5ef72b	0.054434936
190	0x3dea3db0	0.11437547
191	0xbbe16eca	-0.006879662
192	0x3d1ce369	0.038302813
193	0x3dfa08af	0.122086875
194	0xbd1c80f7	-0.038208928
195	0x3e2da907	0.1695901
196	0x3cbe1fc9	0.023208516
197	0xbd9083e4	-0.07056406
198	0xbdd33d1d	-0.10314391
199	0x3db09b76	0.08623402
200	0xbda6e614	-0.08149353
201	0x3c20934d	0.009800744
202	0xbc424c79	-0.011859053
203	0x3c2cafa7	0.010539926
204	0x3d9f94ae	0.0779203
205	0xbd878f5e	-0.06619142
206	0xbe617edb	-0.22021048
207	0xbdbe6ce9	-0.09298117
208	0xbd090ac1	-0.03345752
209	0xbd92080d	-0.07130442
210	0xbcdbbe48	-0.026824132
211	0xbdb2378b	-0.08702
212	0x3d8d112d	0.06888042
213	0x3e078740	0.13235188
214	0xbd25eb82	-0.0405078
215	0x3e328818	0.17434728
216	0x3e1a743c	0.15083402
217	0x3e6e3eac	0.23266095
218	0x3e6ece8e	0.23320982
219	0xbdc9de7c	-0.09856889
220	0xbd39482e	-0.04523485
221	0x3e3fe4ee	0.18739673
222	0x3dd6fc30	0.1049732
223	0x3e46506f	0.1936662
224	0x3e547f4b	0.20751683
225	0xbdb99fdc	-0.09063694
226	0xbd43ff21	-0.04785073
227	0xbdd8fb4f	-0.10594808
228	0xbdc63859	-0.09678716
229	0x3cd429ab	0.025898775
230	0x3d9e5d81	0.07732678
231	0xbc15bf89	-0.009139904
232	0xbbbef3f1	-0.00582742
233	0xbda704dc	-0.08155224
234	0x3e0ce2a4	0.13758332
235	0x3cf97fca	0.030456442
236	0xbce5b446	-0.028040063
237	0xbe2653cd	-0.16242905
238	0xbcaf2e1a	-0.021384288
239	0xbd26bf7d	-0.04070996
240	0xbe4a106a	-0.19732824
241	0x3c45e0c7	0.012077517
242	0x3e1b231a	0.15150109
243	0x3d35a471	0.044346277
244	0x3bd78922	0.006577627
245	0xbe188a48	-0.148965
246	0x3d724cc5	0.059155244
247	0x3dd9736e	0.106177196
248	0xbe311fe2	-0.17297319
249	0x3dcbd43b	0.09952589
250	0x3dbb8400	0.091560364
251	0x3caf1e34	0.021376707
252	0xbc693c95	-0.014235635
253	0x3e4c5392	0.19953755
254	0x3e14be46	0.14525709
255	0x3e41bce6	0.18919715

model.rnn.bias_ih_l1 f4 [160]
0	0x3ddb1cf9	0.106988855
1	0x3db2bafc	0.08727071
2	0x3c006abb	0.0078379465
3	0x3e608c51	0.21928526
4	0x3d95875c	0.073012084
5	0x3e072709	0.13198484
6	0xba1794ed	-0.00057823845
7	0x3e235057	0.15948616
8	0xbba34b4f	-0.0049833427
9	0xbdc5543b	-0.09635206
10	0x3e06fad5	0.13181622
11	0x3e3b2b74	0.18278295
12	0xbdf771eb	-0.12082275
13	0x3daf901c	0.085724086
14	0xbe0ac862	-0.13553002
15	0x3ae84dbf	0.0017723365
16	0x3c7ac32a	0.01530532
17	0x3ce4a713	0.027911698
18	0x3daffa25	0.08592633
19	0x3d9858b5	0.074387945
20	0x3d87bfda	0.0662839
21	0x3df38241	0.11890078
22	0x3d0ccf22	0.034377225
23	0x3d351a47	0.044214513
24	0x3d9caeeb	0.076505505
25	0xbba14088	-0.004921023
26	0x3da70043	0.08154347
27	0x3c7b4988	0.015337355
28	0x3e9b868b	0.30376086
29	0x3e763396	0.24043116
30	0x3ca48e35	0.02008734
31	0x3d2a5d2b	0.04159276
32	0x3e8ddce6	0.27707595
33	0xbe268699	-0.16262282
34	0x3dd2baf3	0.10289564
35	0x3d335986	0.043786548
36	0x3e2bcbf4	0.1677702
37	0x3e711add	0.23545404
38	0x3deb0251	0.11475051
39	0x3e2bf0bd	0.16791053
40	0x3e1c2a39	0.15250482
41	0xbda908f4	-0.08253661
42	0x3e0d0ad5	0.13773663
43	0x3d884d76	0.066553995
44	0xbb2bc20f	-0.0026208197
45	0x3d78bcfd	0.06072711
46	0xbb332750	-0.0027336664
47	0x3e0d8e1b	0.1382374
48	0xbe266a4f	-0.16251491
49	0xbdb66400	-0.08905792
50	0xbdb9e75a	-0.0907733
51	0xbd171f2a	-0.036894955
52	0x3d330cae	0.043713264
53	0xbd584eea	-0.052809633
54	0xbe0faed9	-0.14031543
55	0x3de87433	0.11350288
56	0x3d951246	0.07278876
57	0xbd81d18a	-0.063387945
58	0x3d9495e0	0.07255149
59	0xbd823b0c	-0.063589185
60	0x3d5b3313	0.053515505
61	0xbdf597f7	-0.119918756
62	0xbdf115c5	-0.1177173
63	0x3e334035	0.17504962
64	0xbc976372	-0.018480036
65	0xbd204fa5	-0.039138455
66	0xbdd4b822	-0.10386683
67	0xbe0cb7b5	-0.13741954
68	0xbd019f33	-0.031645965
69	0x3c95450b	0.018221399
70	0xbdfe8804	-0.12428287
71	0xbd896107	-0.067079596
72	0x3cd1ccf1	0.025610419
73	0xbde84218	-0.113407314
74	0x3e3d56db	0.18490164
75	0x3d86c9c3	0.06581452
76	0x3dca60d2	0.09881748
77	0x3c7740fe	0.015091179
78	0xbdb5dc7f	-0.08879947
79	0x3e235876	0.15951714
80	0xbe55b834	-0.20871049
81	0xbd925167	-0.071444325
82	0x3d55b33c	0.052172884
83	0xbe21d0ce	-0.15802309
84	0x3c8f8ddb	0.017523697
85	0xbc4664d4	-0.012109
86	0x3e19c9c8	0.1501838
87	0x3d599ac3	0.053126108
88	0x3dae93fc	0.085243195
89	0xbd22b585	-0.03972389
90	0x3e146a30	0.14493632
91	0x3d476b83	0.048686516
92	0xbd6b7394	-0.05748327
93	0x3e3221e7	0.17395745
94	0xbdfbb249	-0.122898646
95	0x3e10573c	0.14095777
96	0x3e298d9b	0.16557924
97	0x3b8d052f	0.0043035964
98	0x3d8f7e21	0.07006479
99	0xbe28c15c	-0.16480011
100	0x3ddf97d0	0.10917628
101	0x3e33997a	0.17539015
102	0xbd8d20ec	-0.06891045
103	0x3da62b2c	0.08113703
104	0xbccf291e	-0.02528816
105	0xbd4eac43	-0.05045725
106	0xbc4afd7d	-0.012389538
107	0xbdf64a80	-0.120259285
108	0x3c08bc99	0.008345746
109	0xbdc8bbde	-0.09801458
110	0x3e77898a	0.2417356
111	0x3d3cede9	0.046125326
112	0xbdaa95a2	-0.083293214
113	0x3d0a8172	0.033814855
114	0x3dddaa0c	0.108234495
115	0xbe41fc52	-0.18943909
116	0xbd80cee7	-0.062894635
117	0x3dd0b32c	0.10190424
118	0x3cd202db	0.025636127
119	0x3dc7f322	0.09763171
120	0x3dfb43b8	0.12268776
121	0x3e6aa88b	0.22915857
122	0xbe23f3fc	-0.16011041
123	0x3b4356e4	0.002980643
124	0xbe2717ec	-0.16317719
125	0x3e008dcf	0.12554096
126	0xbd6fd4eb	-0.058552664
127	0xbc877859	-0.016536878
128	0x3c9b787f	0.018978355
129	0xbcc1f294	-0.02367524
130	0xbdc91c79	-0.09819884
131	0xbda2f2e0	-0.07956481
132	0xbd5b3a4f	-0.053522404
133	0xbd1bfd5f	-0.03808343
134	0x3d3e9461	0.046528224
135	0xbdc7b10c	-0.09750566
136	0x3cd493c2	0.025949363
137	0x3e1248f8	0.14285648
138	0x3d9ae7fc	0.07563779
139	0x3b9d9030	0.0048084483
140	0x3d8ac692	0.067761555
141	0xba43763a	-0.0007456277
142	0x3bd60ecb	0.006532525
143	0x3d5ee20f	0.054414805
144	0x3e1da1df	0.1539378
145	0x3c0bfc10	0.008543983
146	0x3e2f1681	0.17098428
147	0xbc5c7863	-0.013456437
148	0x3e2e388b	0.17013757
149	0x3e068b9e	0.13139197
150	0x3e4a3138	0.19745338
151	0x3cabf9b6	0.020993095
152	0x3e523bba	0.20530596
153	0xbd9f8d76	-0.077906534
154	0x3cf9cd2a	0.030493338
155	0xbd842913	-0.06453147
156	0x3e5726f0	0.21010947
157	0x3d86b6c8	0.065778315
158	0x3cd644e9	0.026155906
159	0x3c0dad8d	0.008647335

model.rnn.bias_hh_l1 f4 [160]
0	0x3e540fa7	0.20709096
1	0x3e637c28	0.2221533
2	0x3d84e400	0.064888
3	0xbd46b6eb	-0.048514288
4	0x3d9026a9	0.07038624
5	0x3dd7d216	0.105381176
6	0x3ca4f73b	0.02013742
7	0xbc1ea29d	-0.009682325
8	0x3ddb5e89	0.107113905
9	0xbbc78f1a	-0.006090057
10	0xbd4ef63f	-0.050527807
11	0x3b4d2405	0.0031301987
12	0xbd8ce96d	-0.0688046
13	0xbe05be8c	-0.13060969
14	0xbacebc00	-0.0015772581
15	0xbccda27e	-0.025101896
16	0x3e22d4f2	0.15901545
17	0x3e458b2a	0.19291368
18	0x3dd8e5ba	0.10590692
19	0x3de81c4f	0.113335244
20	0xbbbcac88	-0.005757872
21	0xbd8c8685	-0.06861595
22	0xbb644e77	-0.0034836808
23	0x3e3635fc	0.17794031
24	0x3d3ee87f	0.046608444
25	0x3c2ff883	0.010740402
26	0x3d32d0da	0.043656208
27	0x3e1d2479	0.15345944
28	0x3e188cc0	0.14897442
29	0x3e1f44ee	0.15553638
30	0x3e94dc43	0.29074296
31	0x3e1d2f9e	0.15350196
32	0x3c3932c9	0.011303612
33	0xbdafb95a	-0.08580275
34	0xbdb6f6f2	-0.0893382
35	0xbb3d9269	-0.0028926379
36	0x3deca168	0.11554223
37	0x3dad63b4	0.084662825
38	0x3e118bbf	0.14213465
39	0x3e108eea	0.14117017
40	0xbda4b44e	-0.08042203
41	0x3dae0e01	0.08498765
42	0xbde1a12f	-0.110170715
43	0xbc13b7e8	-0.009016015
44	0x3e03edd7	0.12883697
45	0x3e21da72	0.15805987
46	0xbd72be05	-0.059263248
47	0x3dcb176e	0.09916578
48	0xbc0a4bfd	-0.008440969
49	0x3bfe8de1	0.007768378
50	0xbd85c641	-0.065319546
51	0x3d25a5ab	0.040441196
52	0xbdad7dcc	-0.084712595
53	0x3df19a2c	0.11796984
54	0x3d98dbd4	0.07463804
55	0xbe2985e6	-0.16554984
56	0xbd8cb40c	-0.06870279
57	0xbc8d4dc8	-0.017249003
58	0x3d57c436	0.052677356
59	0x3d18a680	0.03726816
60	0xbe2fb7d3	-0.17159967
61	0xbd5726da	-0.052527286
62	0x3d39818b	0.045289557
63	0xbc40046b	-0.011719803
64	0xbda99d38	-0.0828194
65	0x3c64b703	0.013959649
66	0x3e25412f	0.16138147
67	0xbe2052f4	-0.15656644
68	0xbc839940	-0.016064286
69	0xbbeceb60	-0.0072302073
70	0x3c5818f0	0.013189539
71	0x3d9caef6	0.07650559
72	0xbd3aac2f	-0.045574363
73	0x3b5da3c0	0.0033819526
74	0x3d5f28f0	0.0544824
75	0xbb9b86e0	-0.004746303
76	0xbc610938	-0.013735108
77	0x3dd7d554	0.10538736
78	0x3d588555	0.05286153
79	0xbd6fd49b	-0.058552366
80	0x3a6992bb	0.0008910109
81	0x3d9b6ee6	0.075895116
82	0x3c672d6c	0.0141099505
83	0xbce53a58	-0.027981922
84	0xbe07e97f	-0.13272665
85	0xbe0a1047	-0.13482772
86	0xbe0ad067	-0.13556062
87	0xbd9884ae	-0.07447182
88	0x3db152a1	0.08658338
89	0xbc8ea7d1	-0.017414005
90	0x3e1f08f0	0.15530753
91	0xbe0793bd	-0.13239951
92	0x3e3bdd1b	0.18346064
93	0x3e251901	0.1612282
94	0xbcf94b46	-0.030431401
95	0xbddeafa2	-0.10873343
96	0x3d771821	0.060325745
97	0xbd5e6cb0	-0.05430287
98	0x3d5dda14	0.054163054
99	0xbdc58d20	-0.09646058
100	0xbddca730	-0.10774076
101	0x3b804fbb	0.0039157546
102	0xbcd0d3b7	-0.025491579
103	0x3db739a7	0.08946543
104	0x3ce9adaa	0.028525192
105	0xbd8d841d	-0.06909964
106	0xbe0db00a	-0.13836685
107	0xbd5091f4	-0.05092044
108	0xbe5aae3d	-0.21355529
109	0x3d3dd9de	0.046350352
110	0x3d706d57	0.058698025
111	0x3e1b51bc	0.15167898
112	0x3e5b94b3	0.21443443
113	0x3dcdc2ee	0.100469455
114	0x3e12d4d2	0.14338997
115	0xbe43b8f0	-0.19113517
116	0xbe3a8c99	-0.18217696
117	0xbdc399c8	-0.09550816
118	0x3d3b3844	0.045707956
119	0x3deed66f	0.11661994
120	0x3e86a925	0.26300922
121	0x3db0d8e0	0.086351156
122	0xbd6149a7	-0.05500188
123	0x3e3532c3	0.17695145
124	0x3def3359	0.11679716
125	0x3e844096	0.25830525
126	0x3e0dde63	0.13854365
127	0x3d80b843	0.06285145
128	0x3e030ec7	0.12798606
129	0x3e1513ce	0.14558336
130	0x3de31bcc	0.11089286
131	0xbd1cba0b	-0.038263362
132	0x3b6117b2	0.00343464
133	0xbd257682	-0.04039622
134	0x3df4245b	0.11920997
135	0xbd9ba2cc	-0.075994104
136	0x3e0987d8	0.13430727
137	0x3e81e2a5	0.2536823
138	0x3e031889	0.12802328
139	0x3d01abb3	0.031657886
140	0xbd38ad9f	-0.045087453
141	0xbddfad15	-0.10921685
142	0x3e493f09	0.19652952
143	0x3b36b137	0.0027876624
144	0x3e01d358	0.12678277
145	0x3bd0bd7a	0.0063702436
146	0x3e3b679b	0.18301241
147	0xbd2b9f18	-0.04189977
148	0x3d924835	0.07142679
149	0x3e836647	0.2566397
150	0x3e282138	0.16418922
151	0x3e02fec8	0.12792504
152	0x3e523903	0.2052956
153	0xbc309472	-0.01077758
154	0xbdb2a657	-0.08723133
155	0x3d45ab54	0.048259094
156	0x3e36cbd9	0.17851199
157	0x3dde10de	0.10843061
158	0x3e4e1205	0.20124061
159	0x3d63814c	0.05554323
