generate_forecasts/output/Local_Forecasts/Fish, seafood and other marine products/2024/models/DeepAR/W0/gluon_ts/prediction-net-state.pt (torch, 97628 bytes, 11 tensors)

model.param_proj.proj.0.weight f4 [1, 40]
00000000: 5e3f 11bd b069 873e 9fba 533e 917f 10be
00000010: 6d47 fbbd 9116 59be 03ef 28be 9f01 3f3e
00000020: 3146 54bd 4ca6 a4bd 1bf1 79bd d9df 07be
00000030: 537f 6cbe 4cb5 473d 3ca5 263e f836 773e
00000040: 503a 213e 5e50 7a3d 5020 343e fa4b 73be
00000050: ece0 85bd adc3 00bd 35a0 24be 6e96 703e
00000060: 9798 8d3e cb0e 62be 5b97 86bd a000 f33d
00000070: 0ecc 70be 204d 3ebe fc21 8a3e 8c18 563e
00000080: dd97 943e ab6f dd3d 6b7b a53d 7094 52be
00000090: 3e7a c1bd 7a24 05be c737 c63d 796f 373e
-0.035460822 0.2644782 0.20676659 -0.14111163 -0.12269483 -0.21200015 -0.16497426 0.18652962
-0.051824752 -0.08039531 -0.06102095 -0.13268985 -0.23095445 0.048756883 0.1627397 0.24142063
0.157449 0.0611118 0.17590451 -0.23759452 -0.06537041 -0.03143661 -0.16076739 0.23494884
0.2765548 -0.22075956 -0.065718375 0.118653536 -0.2351534 -0.18584108 0.26979053 0.20907801
0.29022112 0.108123146 0.08080181 -0.20564437 -0.09447144 -0.13002196 0.096786074 0.17913617

model.param_proj.proj.1.weight f4 [1, 40]
00000000: f7be 24be 7f4a 113e 184f 023e c15e 04be
00000010: 6939 c7bc 2927 27be cd59 213d 620d 5c3d
00000020: 1798 2dbe e265 aa3c d4cb 3f3e 3d8c 8d3c
00000030: 6383 5b3d 1d2d e83d 133f d9bd d0bd d73d
00000040: a8d0 1d3e 9466 c03c f758 b5bd 4b71 20be
00000050: dc06 b93d 260a 063e fc34 953c 16f8 533d
00000060: ed0e fe3d db00 2e3d 61c5 93bd a7d1 d83b
00000070: 6966 bbbd 842c c9bc 03a1 6b3d a812 f13d
00000080: 4d29 cb3c 856d b9bc fbd1 893b d0ff 6a3a
00000090: 6920 01be 072e ea39 257b 973d c6ef d8bc
-0.16088472 0.14188574 0.12725484 -0.12926771 -0.024319367 -0.16323532 0.03939228 0.0537237
-0.16952549 0.020800535 0.18730098 0.017278785 0.053592097 0.1133673 -0.106077336 0.10534251
0.15411627 0.023486413 -0.08854859 -0.15668218 0.090345114 0.13089809 0.018213741 0.051750265
0.124051906 0.042481285 -0.072153814 0.0066167894 -0.091503926 -0.02455736 0.0575266 0.117711365
0.024799967 -0.02263523 0.00420594 0.00089645106 -0.1261002 0.0004466625 0.07396535 -0.02648152

model.param_proj.proj.2.weight f4 [1, 40]
00000000: 4e47 453e fb00 09be e220 0a3d 82c2 c23d
00000010: 09a9 143e 0ea0 733e 08b4 dd3d b349 26be
00000020: c89c e9bc 093d 0f3e c8c6 f23c 19fc 003e
00000030: 8af2 fa3d 068e afbd 8c17 d6bd e89a d2bc
00000040: 7a80 41bd 486b 15be f855 1fbe 3c8c bbbd
00000050: 5dba 033e b42b aabb 7b44 373e ade9 29be
00000060: ccbc 80be 0ac3 443e f8a3 5dbe 2892 b8bd
00000070: d13c e63d 2802 643e 7520 48be 577d 1fbe
00000080: 3c22 d9bd 91f5 6abe 6ae4 99bd 5589 043e
00000090: c781 913e 5583 c43d 9f85 71be 59d9 56be
0.19265482 -0.1337928 0.033722766 0.09509756 0.14517607 0.23791525 0.10825354 -0.16239052
-0.028517142 0.13988127 0.029635802 0.12596168 0.12253292 -0.08572011 -0.1045371 -0.02570863
-0.047241665 -0.14591706 -0.15560138 -0.09157607 0.1286406 -0.005193198 0.17897217 -0.16593046
-0.2514404 0.19215026 -0.2164458 -0.09012252 0.112420686 0.22266448 -0.19543631 -0.15575157
-0.10602233 -0.22945239 -0.0751427 0.12943013 0.28419325 0.09595362 -0.23586129 -0.20981349

model.rnn.weight_ih_l0 f4 [160, 21]
00000000: 54cd 3a3e cd99 d93c 765b 0f3e 36d7 d43d
00000010: 6a1f c1bc c066 7f3b 1616 8b3e a822 233e
00000020: a5c7 143e 5ab9 883e 2f71 863e 4d9f a43e
00000030: 9def 673e d008 a03e f4b5 053e cf42 9b3e
00000040: 9e46 0cbd 51fb 7f3c b64d 753c 6870 a0be
00000050: 68ba ca3d 39e1 d03d bf1c 2f3e 2e82 793e
00000060: a213 133e c4ed 8a3d aaff ea3c 29af 083e
00000070: 4d44 4c3e a2dd 6b3e bbbf 0c3c a47d 5a3e
00000080: 136e b4bc f75f f13c f987 703d 3d23 cabc
00000090: f7fb 823d caa4 e43d aa6c b8bb f680 0e3e
000000a0: 010f 42bd d092 2e3e 906b f43d 89b8 383d
000000b0: 9331 1cbd 2dee 1c3e b267 b53d b7fc fb3d
000000c0: 48c7 e6bc ff00 a1bd 4885 bc3d 819f 8b3d
000000d0: a92b 963c ad5e 403e 5767 22bd e609 97bd
000000e0: 62e0 e13d e94b 523e 8d6c 693c 6218 0fbc
000000f0: 53e5 a3bd 17a0 10bf 4cf4 a83d 714a 7c3e
00000100: b3fe 533d fd43 913e 66f7 c63c dae7 913e
00000110: 0ece b73b 2331 6b3d 8978 693e 3bea 593e
00000120: 1b2c 723d 64d2 fa3c 0dd0 ee3d 933b 343d
00000130: a639 853e 1c2b 2a3c c0a1 e33a bdac 1b3e
00000140: c4e1 b23c adba 733e ced5 233e c7b0 8d3d
00000150: a453 1c3e 9cb5 563e 5c58 943d 5b55 183e
00000160: 97dc 473e 676c 3a3e 6245 4b3e ac24 763e
00000170: 0dda c6bc 2979 613e f527 423e 9e86 273c
00000180: 858a 493e e7b9 3c3e 0f26 253e 2b8d 853e
00000190: 6412 003e 7f32 8e3b 39b2 f13b 0556 e3be
000001a0: d49c c03d ddcb 353e d98a 0d3d 5a85 343e
000001b0: 1625 7a3b a70f ff3d 5049 ce3d 60b0 903d
000001c0: 0d4f fbbb b15d 5c3c fba6 4d3e 7894 813c
000001d0: 9ab8 b83d 9517 833e f8c9 253e 2eb3 6bbc
000001e0: 7b3f 183e 639f 2e3e 3630 a43b a29e c73b
000001f0: 153f df3d ceb9 533e 5073 513b 661b 363d
00000200: 4411 4b3e 66d1 593e 94d0 8d3e 6993 4d3d
00000210: c9cc a73c 4077 4e3e 1dcd e23d f2fc 913e
00000220: b502 893e 3c4c 933d a17f 033e 4509 a73d
00000230: 2fac 8a3e d6b2 9d3d d6eb a13e 9a57 763b
00000240: 97a1 763d 76e6 2dbe 84c6 073e 1990 513e
00000250: de76 ad3d 4d11 713d ffd4 e43c cbc9 723d
00000260: 4e6b 90bc 7b66 633c c506 333c 1fc3 563e
00000270: 3707 543e 8b9e 153e 7641 3c3d 7207 0e3d
00000280: c8a3 6c3e 755a 8c3e d5a5 053e 159a 943d
00000290: 27ff 3e3c 9085 333e af44 333e b150 b13c
000002a0: 7e5a ac3d 5e40 843e 1581 023e adca 6f3e
000002b0: 50db 033e 6716 0b3e e4b6 c13d 2c2e c53d
000002c0: 9d68 a23e 8f72 383e c6b1 553e 7eb6 a83b
000002d0: 1c97 803d 1c3b d33d ec17 843e 81e3 3b3d
000002e0: a8cb a13e e6dc 8d3c 36f0 e63c dfc3 e63d
000002f0: 7e3d 4a3e 0d97 24bc 6747 4dbd a6aa 663e
00000300: 1fcb 49bd d913 543e a6df b9bc d84e f03c
00000310: 6133 ccbc 28c1 4e3e 2083 67bd 297e 343e
00000320: 4d3e 833a 720a b2bb 2869 86bc bc71 293e
00000330: f88a 3d3e b7c6 d53d 6497 8d3c f744 003e
00000340: ca79 4cbe 251b 35bb 6acf 8f3e d7aa 683e
00000350: 499d 803e dfb3 813e 095f 053e 9dae 62bb
00000360: 8f1f f93d c2f5 e93d 0b34 993d 4aa9 4cbc
00000370: 64c6 2b3d 87da c6bb 7652 e13d 62d3 293e
00000380: 414c 523e 0bc1 4e3e 9262 113d b523 96bc
00000390: 2c8e 223e d56e 643d 7a23 6b3d 65d1 103d
000003a0: a836 643e 7028 563e 7c2c 713e 6f53 923e
000003b0: 15f9 373d 0991 093e d7a1 f53d a3e0 823d
000003c0: 5db5 1d3d 329d 813e 6ec9 ad3d 00fe 6c3e
000003d0: d5e7 663e 7ae3 433e aae5 be3d 22bc 023e
000003e0: debc c03b 3c40 713e 3ca2 083e 6311 be3d
000003f0: 5498 083e 1d99 153e 5797 5c3e 8203 8d3e
0.18242389 0.026562596 0.13999733 0.10392611 -0.02357455 0.0038971156 0.27165288 0.15931189
0.14529283 0.26703912 0.26258227 0.32152787 0.22649999 0.31256723 0.13057691 0.30324408
-0.034247033 0.015623883 0.014972141 -0.3133576 0.098988354 0.10199208 0.1710081 0.24366066
0.14362958 0.067836314 0.028686363 0.13348068 0.1994793 0.23033765 0.008590634 0.2133699
-0.022025144 0.029464705 0.058723424 -0.024675006 0.06395715 0.111642435 -0.005628188 0.13916382
-0.04737759 0.17048192 0.119345784 0.04509786 -0.038133215 0.15325232 0.08857669 0.12304061
-0.028171197 -0.07861518 0.09205109 0.06817532 0.018331366 0.18786116 -0.039649334 -0.07374935
0.11029126 0.2053677 0.014247072 -0.008733841 -0.080027245 -0.5649428 0.08249721 0.24637772
0.051756572 0.28372183 0.02428789 0.284972 0.0056092804 0.057419907 0.22799887 0.21280758
0.059124094 0.0306179 0.11660776 0.044002127 0.26020545 0.010386255 0.0017366931 0.15202613
0.021836169 0.2380168 0.15999529 0.06918483 0.15266281 0.20967716 0.07243416 0.1487631
0.19517742 0.18205415 0.19850686 0.24037427 -0.024273897 0.22018875 0.18960555 0.010224966
0.19681747 0.18430291 0.161278 0.26084265 0.12507015 0.0043395157 0.007375982 -0.44401565
0.094049126 0.17753549 0.034556244 0.17628995 0.0038169078 0.12454157 0.10072577 0.07064891
-0.0076693357 0.013450072 0.20083229 0.015817866 0.09019585 0.2560393 0.16190326 -0.0143859815
0.14867966 0.17052989 0.00501063 0.0060919086 0.10900704 0.20676348 0.00319596 0.044459723
0.19830805 0.21271285 0.27698195 0.05018941 0.020483391 0.20162678 0.110742785 0.28513294
0.26759878 0.07192275 0.12841655 0.08156065 0.2708449 0.07700126 0.3162524 0.0037588836
0.060212698 -0.16982445 0.13259321 0.20465125 0.08469938 0.05885439 0.027933596 0.059274476
-0.017629292 0.013879414 0.010926907 0.2097287 0.20705877 0.1461126 0.045960866 0.03467507
0.23109353 0.27412763 0.13051541 0.07255951 0.011657513 0.17531419 0.1750667 0.021644922
0.084156975 0.25830358 0.12744553 0.23417158 0.1287663 0.13582765 0.09458712 0.09627947
0.3172044 0.1801245 0.20868596 0.005148708 0.06278822 0.103140086 0.257995 0.04587126
0.3160069 0.017317247 0.028190713 0.11267828 0.1975002 -0.010045779 -0.050116923 0.22526035
-0.049265977 0.20710696 -0.022689652 0.02933447 -0.024926843 0.20190871 -0.056521535 0.17626251
0.0010013074 -0.005433374 -0.016407564 0.16547292 0.18510044 0.104382925 0.017284103 0.12526308
-0.19968334 -0.0027634588 0.28087932 0.2272142 0.2512 0.25332543 0.13024534 -0.003458894
0.121642224 0.11423828 0.074806295 -0.0124915335 0.041937247 -0.006068531 0.11002056 0.16584542
0.20536901 0.20190828 0.035494395 -0.018327573 0.15874547 0.05576976 0.05740688 0.035355944
0.22286475 0.20913863 0.23552126 0.2857928 0.044915278 0.13434233 0.11993759 0.06390502
0.03850304 0.25315243 0.08485685 0.23143768 0.22549374 0.19129744 0.09321149 0.1276708
0.0058818897 0.2355966 0.13343138 0.0928066 0.13339359 0.1460919 0.21542107 0.2754174

model.rnn.weight_hh_l0 f4 [160, 40]
00000000: 998f 6abd 2f74 eebd d588 453c f111 733c
00000010: 34f1 31be 8141 243e f515 a63d 550e 10be
00000020: 7db8 8cbd 21e3 913d e2c2 b7bd 49a6 01be
00000030: 3d63 21be c2a6 973d a2d2 f3bd f49b 00be
00000040: 6ab0 333e 5b11 94bd 5253 0b3e b3e7 5abd
00000050: 7097 56bd 4d6a 8d3d c46d 0f3e 6237 d6ba
00000060: 7f6e dcbd 94e9 cd3d cae3 233e 9bdd 8ebd
00000070: 251c b23d 2d17 d0bc 2844 9e3d be51 70bc
00000080: 575c 173d 3095 223e 2368 ea3d 82b1 8bbc
00000090: 4054 f8bd 7b1c 53bd a304 f83d 8e6f 3d3d
000000a0: 0457 62bd bc6c e2bd 92b1 613d 9c2c da3d
000000b0: 3674 f13d d68b f9bd daca 533c fe82 71bd
000000c0: c4c1 16b8 f409 4c3d 4047 1d3d b4c9 2f3c
000000d0: 4d2a 1cbe c65c c1bd efc7 a6bc c24d f9bc
000000e0: 50f8 0cbe d152 1c3d 4ef1 44be 0829 b03d
000000f0: f673 c43c 7080 b43d 48a7 c83d d5a5 9abd
00000100: 2df5 98bd 9592 0bbe 7784 64bd 69be f73d
00000110: f34e 1c3e 1cad 753d ce20 0fbe ebd0 613d
00000120: bb89 b53d fc46 a1bd 791e 4cbd 912d a73d
00000130: ec2a 50bc cdf1 6ebd 9f88 943d 6aa8 a2bd
00000140: cba8 e3bd a6cd 13bc e354 f2bd b268 383e
00000150: 70af 2ebe 8c3a 41bd 93c5 b3bd b7cb 15be
00000160: 334e 3cbe 98fb 6e3e f939 813e 04f3 04be
00000170: cbe7 6cbe 6d01 9abb acca a83a f4c7 85bd
00000180: 57cf a43d 324f 0e3e 4882 ccbc 2101 0dbe
00000190: 1569 29bb c027 403e 0341 563e db25 ccbd
000001a0: c469 54be f076 01be 685a 1d3e 5ad3 93bc
000001b0: 35e5 0d3d 2887 3ebe afae e83c f482 523e
000001c0: 4e28 34be d10c f1bd 8c86 82be db36 6b3d
000001d0: 00c2 913e 12d8 ad3e 06cb 08be 1c11 4cbe
000001e0: 3c1f 3abe bcd6 d23d 18e3 ed3d 9ade 91bd
000001f0: 5747 5bbe 44e3 0a3b 28cd 513c 10cc 993d
00000200: 2705 5bbd ac44 ad3d 1165 413e 9377 c63d
00000210: 8598 a33c 250a 46bb affd 6f3d a75a 53be
00000220: e0ae 05bc ce11 0a3e cd04 9d3b c2cd f7bd
00000230: 173b 11be 2711 bbbd ac82 a53d 1b5d fd3d
00000240: e8d7 8bbd e545 cf3d 51d5 423e f2ed 403d
00000250: 66f1 463e 9576 cabd f82e bc3d 9b75 a13d
00000260: a87e 5dbe cc45 e53d ca43 36be ac91 eb3c
00000270: d66e ebbd 9c05 a9bd 36d9 ddbc 6ba4 8b3d
00000280: 1580 fabd 7aa0 27be 8cac 34bd b1ce e73d
00000290: 975f ad3c 7d2f a8bd 86aa 513d 6cdf 4bbd
000002a0: 5741 aa3c 1ae3 3a3e 39b9 8cbc 9324 88bc
000002b0: 1bb5 023e 58eb 28be ac52 2d3c 96f0 a6bd
000002c0: 0f69 743d 4cc2 29be ddb5 933d 0349 03be
000002d0: 93ab 1ebd fdfa 083d 5890 6fba fad5 b1bd
000002e0: 8a71 2dbe 0253 e83c 6cd9 66bd 7dfe 3fbd
000002f0: 1f58 e83d 9783 94bd 4048 dabd dacd 3f3e
00000300: 2b47 fb3c b0d9 313c 6013 6abd ba17 d2bd
00000310: e7b1 ecbc c05b abbc a880 11be 897a 68bd
00000320: 4450 8cbd d470 0eba f999 493d 9e6e c43d
00000330: db88 76bd 7bce 36bd 9622 50be 039b 033d
00000340: ab78 61bd bb39 d93c 75b2 6d3d 4450 1e3d
00000350: efc1 4c3d e844 ecbc b0da d6bd 510a 60be
00000360: e12f 24bd dad2 cc3d 1c91 ccbd 7a30 fabc
00000370: b3ee c83d 3e1a 4c3e 1ec9 a1bd d737 10bc
00000380: a1ad cfbd 5908 3abe cd2c b339 2f82 1e3e
00000390: 3d3e f8bc 259c 1e3e c931 10be 546b a93d
000003a0: 1d46 3dbe 2871 953d 3c61 96bd c79b 29be
000003b0: 7f64 8ebc 1b09 d3bc 8393 ccbd 53bc 03be
000003c0: f690 423d 5ad4 c5bd 1a3c 833d 3110 80bc
000003d0: 6290 733c af8e 223b cfb9 88bd fa8d 25bd
000003e0: 6923 2fbe 02a5 a2bd 7a60 6fbd efb3 03be
000003f0: f995 443d 94df 4fbe b1cf f43a d412 1abe
-0.05726585 -0.11643254 0.012056549 0.0148358205 -0.17377168 0.16040613 0.08109657 -0.14067967
-0.06871126 0.071233995 -0.08972718 -0.12661089 -0.15760513 0.074048534 -0.119054094 -0.12559491
0.17547765 -0.07229873 0.13606003 -0.05344362 -0.052390516 0.06905041 0.14006716 -0.001634341
-0.10763263 0.10054317 0.16004863 -0.06975862 0.086967744 -0.025401676 0.077278435 -0.014667926
0.036953297 0.15877223 0.11445644 -0.017052416 -0.121254444 -0.051540833 0.121102594 0.046248965
-0.055258766 -0.11055896 0.055100985 0.1065304 0.117897436 -0.12184875 0.012926782 -0.058962815
-3.5943245e-05 0.04981418 0.038398027 0.010729242 -0.15250511 -0.09441523 -0.020359008 -0.030432586
-0.13766599 0.038164917 -0.19232675 0.08601576 0.023981076 0.0881356 0.09797531 -0.07551161
-0.074686386 -0.13630135 -0.05579039 0.12096865 0.15264492 0.059979543 -0.13977358 0.05513088
0.088641606 -0.07874867 -0.04983375 0.08162988 -0.012705546 -0.058336068 0.07252621 -0.07942279
-0.11116179 -0.009021198 -0.11832597 0.18008688 -0.17059112 -0.047174975 -0.08777919 -0.14628492
-0.18389206 0.23338163 0.25239542 -0.12983328 -0.23135297 -0.004699877 0.0012877784 -0.06532279
0.080473594 0.13897398 -0.024964467 -0.13769962 -0.0025849987 0.18765163 0.20923238 -0.09968158
-0.20743471 -0.12643027 0.15366518 -0.018045116 0.034642417 -0.18606246 0.028403608 0.20557767
-0.175935 -0.11770023 -0.25493276 0.05742536 0.28468323 0.3395391 -0.13358697 -0.19928402
-0.18175977 0.102948636 0.1161558 -0.07122536 -0.21413933 0.002119259 0.012805261 0.07509625
-0.05347171 0.08460364 0.1888621 0.09690776 0.019970188 -0.003021845 0.05859154 -0.2064005
-0.008159369 0.13483354 0.004791832 -0.12099792 -0.14182697 -0.09134131 0.08081564 0.12371274
-0.0682829 0.10120753 0.19026686 0.047101922 0.19428024 -0.09885899 0.09188646 0.078837596
-0.21630347 0.11194953 -0.17799297 0.028755985 -0.1149575 -0.08253023 -0.027081113 0.068184696
-0.12231461 -0.1636981 -0.044109866 0.1131872 0.021163745 -0.08212183 0.051188014 -0.04977362
0.02078311 0.18250695 -0.017178165 -0.016619002 0.12764399 -0.16496027 0.010578793 -0.08151357
0.059670504 -0.16578025 0.07212422 -0.1282082 -0.038737845 0.033442486 -0.00091386354 -0.08683391
-0.16937843 0.028359894 -0.056359693 -0.04687356 0.11344933 -0.07251661 -0.10658312 0.1873087
0.030673584 0.010855123 -0.057147384 -0.10258432 -0.028893424 -0.020917773 -0.14209235 -0.056757484
-0.06851247 -0.0005433683 0.049219105 0.09591411 -0.06018911 -0.04463051 -0.20325693 0.032130253
-0.05504672 0.026516786 0.058031518 0.038650766 0.049989637 -0.02884145 -0.1049093 -0.21878935
-0.040084723 0.10001154 -0.09988615 -0.030540694 0.09811153 0.19931886 -0.07899688 -0.008802376
-0.10140539 -0.18167247 0.0003417492 0.15479349 -0.030303115 0.15489252 -0.14081492 0.08272424
-0.18483777 0.072969735 -0.07342765 -0.1656333 -0.017381905 -0.025761178 -0.09989073 -0.12864809
0.047501527 -0.096596435 0.06407948 -0.01563272 0.0148659665 0.0024804284 -0.06676065 -0.040418603
-0.17103352 -0.07941629 -0.058441617 -0.12861608 0.047994588 -0.20300132 0.001867762 -0.15046245

model.rnn.bias_ih_l0 f4 [160]
00000000: 628c 073e e785 df3d e54a 24be 5cfd 4a3d
00000010: 4191 28bd 3619 943e df68 453d 0655 b63d
00000020: 7b5a c83d bded debc be6d c03d 44ed 973e
00000030: 2e70 103e 1ae3 413e 9500 83bc f104 563e
00000040: af9b e5bd 833b 1a3c 155b bfbd 0d1b 783e
00000050: a241 cabc 2f17 be3d f607 eabd 28e8 ebbd
00000060: 9c20 713e b892 b33d 6228 373e 8068 10be
00000070: 8183 613e 7ec7 733e cc13 433e 8109 b9ba
00000080: f726 343e 0f9c ab3d 06ed 6d3d 5980 95bd
00000090: e6de 0a3e a649 f03d 96a6 4fbd 1946 30bc
000000a0: 2d79 a13d 2c1d 003e d51d 763d 7d11 acbd
000000b0: e420 3d3e 73e9 173e 1dcf 8a3d 4cc7 093e
000000c0: 076a cc3c a920 d63d 8223 be3d abc1 f03d
000000d0: 53eb 17bd 2c70 093e 2ea8 80bd ff0b 12bd
000000e0: bcf7 8ebd 1136 6cbd 2897 11be 8f2e 4c3e
000000f0: 1027 e5bc 905f 08be 0465 843e 2ee3 0e3e
00000100: 5774 2b3e b0c1 353e 3780 ad3c 3cab 2f3e
00000110: 8126 0a3e f89f 993d c770 bebd bd8a a3bd
00000120: 39c6 b3bd f9de d83d f87c 0b3e 9966 bebd
00000130: 977e febb abf1 3ebe b450 183d dc84 a93b
00000140: 8d1f 94bd 3cf3 ddbd 98f9 4fbd 1224 c63d
00000150: f14f 573d 71db 273e 027c 01be 8bf0 42be
00000160: 3cb7 24bd c4c9 aebd f370 3b3e 00aa 25ba
00000170: c557 75bc 91c4 963d 702a e83d 61e7 6ebb
00000180: 707e 143d 7b1d a0bd f7f0 ac3d 27d5 143d
00000190: e1ff a8bd 3a85 013e a3db f1bc b021 273e
000001a0: de8d f63d 1833 28bc f6ac e3bd 8991 26be
000001b0: b4b7 35bd b874 f73d b610 96bd 75af 87bd
000001c0: cb8d a2bd fadf 0b3c 2792 23be e944 043d
000001d0: 1ce6 c0bd 75be d53b f98a 9e3d 0421 3f3d
000001e0: 6c66 083e a3ae c43b bee5 5fbd c644 c1bd
000001f0: f372 1a3e 41e4 473e 6845 5d3e 9042 0dbd
00000200: 9d38 243e 15ec 113c 4947 e53d 3a7a 5d3d
00000210: aa50 0e3e 3da9 f83d ecc2 b63d b8df 0e3d
00000220: 1399 96bc f523 bebd 8925 023e 88e2 773d
00000230: 4668 0b3e 5647 973d 403c 9d3d 9c5b 7ebd
00000240: f56c 983c 5132 933e 5caf d2bd f235 163d
00000250: a0a6 483e d175 dd3c 0f7d b23c d40a ddbd
00000260: ecc1 a43e e88f 823c 0f8a 813e 7011 b8bc
00000270: 2b97 03bd 170e 83bd 80d1 853d 738f 0e3d
0.13237146 0.10914212 -0.16044195 0.04955803 -0.04115415 0.28925484 0.048195716 0.08902936
0.09782883 -0.027212972 0.09395932 0.29673207 0.14105293 0.18934289 -0.015991488 0.20900322
-0.11211335 0.009413603 -0.093435444 0.24229069 -0.0246895 0.09281766 -0.114273 -0.1151889
0.23547596 0.08768219 0.17886499 -0.14102364 0.22022821 0.23806569 0.1905052 -0.0014117212
0.17592989 0.08379375 0.05808737 -0.07299871 0.13561592 0.11732797 -0.050695978 -0.0107589
0.078844406 0.12511128 0.060087044 -0.08401773 0.18469578 0.14835148 0.06777785 0.13454932
0.024952902 0.10455448 0.09284116 0.11755689 -0.037089657 0.13421696 -0.06282078 -0.03565597
-0.06980845 -0.05766875 -0.14217818 0.19939636 -0.027972728 -0.13317704 0.2585832 0.1395385
0.16743599 0.17749667 0.021179302 0.17155164 0.1349125 0.07501215 -0.09298854 -0.079854466
-0.08778042 0.10589404 0.1362189 -0.09296913 -0.0077665555 -0.18646877 0.03718634 0.005173309
-0.0723258 -0.10837409 -0.05077514 0.096748486 0.052566472 0.16392304 -0.12644961 -0.19037072
-0.04021381 -0.085345775 0.18304805 -0.00063195825 -0.014974539 0.07361711 0.11336219 -0.003645383
0.036253393 -0.07818123 0.08444398 0.03633609 -0.0825193 0.12648478 -0.029523676 0.16321445
0.12038778 -0.010266088 -0.11116974 -0.16266455 -0.044364646 0.12082809 -0.07327406 -0.06625263
-0.07937201 0.008537287 -0.15973721 0.03229228 -0.0941889 0.0065229484 0.07741351 0.046662346
0.13320321 0.0060022636 -0.05466246 -0.094369456 0.15082912 0.19520666 0.21608508 -0.034487307
0.16037221 0.008906384 0.11195237 0.054071642 0.13897958 0.12141655 0.08923897 0.034881324
-0.018383538 -0.09284202 0.12709631 0.06051877 0.13613996 0.07386653 0.076775074 -0.062099084
0.018606642 0.28749326 -0.102873534 0.03667254 0.19594812 0.027033718 0.021788148 -0.10793081
0.321792 0.01593776 0.25300643 -0.022469252 -0.032126587 -0.06399172 0.065340996 0.034804773

model.rnn.bias_hh_l0 f4 [160]
00000000: 1acd 0e3e 4500 c03d 7103 813c e287 863e
00000010: 7d00 1dbc 2c8d 733e 1301 9f3e 726d cf3b
00000020: 9b78 a83e 6bc6 08bd 6e00 6d3e 1993 cd3d
00000030: 0349 0c3e 3739 813e 806c be3d 10b8 ae3e
00000040: ca2c 093d 9285 2cbd 606d 7dbd b5bf 2e3e
00000050: 39d8 163d efcb cfbd 16a8 03be e2f4 b1bd
00000060: a694 7b3c 1d35 c33d e23f 063e 3e6a f1bc
00000070: 41a2 203e 2acd b33d 3133 c43d d697 7ebd
00000080: 7181 953e 7ce2 113d 7f25 cf3d 967e 0fbd
00000090: ddca b4bc 1323 a23d 5e41 da3a 915f c23d
000000a0: ec63 a9bd ce12 85bc 9df8 8a3d 534c 9e3d
000000b0: c9f7 283e 4336 d7bd e0d2 023e f2ef 3f3e
000000c0: 4b33 2e3e 0ded 96bd 8c0c 373e df1e 0abc
000000d0: 1cf2 cbbc 2c25 443e 1f10 86bb 5c31 313c
000000e0: 42ee e7bd 9412 4f3d b606 10bd e163 c43b
000000f0: f4fa f03d 26b7 48bc 646f 883d 984c 953d
00000100: cbfb a4bd ccb2 c83c 1411 cb3d 52ae de3d
00000110: b3dd d63d 9e66 a93d 41a8 abbc 6092 5dbd
00000120: 7fac 493d 729d 25be 878f 1dbd 8452 14be
00000130: 10f3 26bc c243 4bbe 22db 013e d079 283e
00000140: c572 7c3b defc 9c3d a16f 003e 1b3a bd3d
00000150: d41c adbc 2145 c13c 1b9f 4cbe 61b3 7ebd
00000160: 3fe2 7fbe 5957 cd3b 6d31 123d 49bf 94bd
00000170: 4a8c bc3b 45ed 24be 28c8 1cbd 409b f6bd
00000180: 3272 74bd ca94 94bd 374c 8a3c f14e 943d
00000190: d613 a53c b22c b2bc 8848 543d 84a7 e03d
000001a0: eb4c c3bd 88d7 5dbe 535e a63b a947 843d
000001b0: 9dec 203d 5c8f f93d 6e45 89bd c8b1 723d
000001c0: 568c 9a3d a42c 00bd 0060 98bd 3a56 4dbd
000001d0: edcf e1bd f43b fd3c 90a8 a63d 5c9f 83bd
000001e0: 1e44 443e 7d99 7f3e 3e36 973d ba03 9d3d
000001f0: cf1a eabc 421b 843e 9148 6d3e 3048 9fbc
00000200: c998 513d 5b01 a1bd a8ff 383e 880d 153e
00000210: 2500 53bd bc7a 63bd 1164 a83d 252a 703e
00000220: 3f65 babc dfed fdbd cc35 173d 4578 9cbc
00000230: f7de 2b3c 6ddf 513e f899 25bd afeb 593d
00000240: 7714 433d d7ef 013e 2911 c8bd ff23 88bd
00000250: 8285 ba3d 0e1a 5fbd 6438 023e 2337 03bd
00000260: 0977 603e 346f 213e c57a b63d d2f1 263e
00000270: 8e26 253e 7a03 563e 67d9 823d f839 b9bc
0.13945428 0.093750514 0.015748711 0.26275545 -0.009582636 0.23784322 0.31055507 0.0063301856
0.32904515 -0.03339235 0.23144695 0.10037822 0.13699727 0.25238964 0.092980385 0.34124804
0.03348998 -0.04211957 -0.061871886 0.17065318 0.0368273 -0.10146319 -0.12857088 -0.08689286
0.015355265 0.09531615 0.13110307 -0.029469606 0.15686895 0.08779366 0.095800765 -0.06215652
0.29200318 0.035616383 0.10114574 -0.03503283 -0.022069389 0.07916846 0.0016651561 0.09490884
-0.08271012 -0.016244318 0.067857005 0.077294014 0.16500773 -0.105083965 0.12775755 0.18743876
0.17011754 -0.073694326 0.1787588 -0.008430212 -0.02489572 0.19154805 -0.0040912773 0.010814991
-0.11324741 0.050554827 -0.03516265 0.005993352 0.117666155 -0.012250697 0.06661871 0.0729
-0.08055838 0.02449932 0.09915367 0.10873093 0.104915045 0.08271526 -0.020954253 -0.054094672
0.04923677 -0.16173342 -0.038466956 -0.14484602 -0.010189787 -0.19850066 0.12681249 0.16452718
0.0038520556 0.07665418 0.12542583 0.09239598 -0.02113191 0.023592534 -0.19982569 -0.062182788
-0.2498865 0.006266516 0.035691667 -0.07263047 0.0057540284 -0.16106136 -0.03827682 -0.1204133
-0.059679218 -0.07254942 0.016882045 0.072416194 0.02015106 -0.021749828 0.051826984 0.10969451
-0.09536155 -0.2166425 0.0050771623 0.064589806 0.039288152 0.12185547 -0.06702696 0.059251577
0.07546298 -0.031292573 -0.074401855 -0.05013106 -0.11025987 0.030912377 0.081376195 -0.0642688
0.1916661 0.24960895 0.07383393 0.076667264 -0.028577236 0.25802046 0.23172213 -0.019443601
0.051171098 -0.07861587 0.18066275 0.14555943 -0.05151381 -0.05553697 0.08222211 0.23453577
-0.022753356 -0.12398886 0.03691654 -0.019100318 0.010490171 0.20495386 -0.04043004 0.05320328
0.04762694 0.12689148 -0.09768898 -0.06647491 0.09107496 -0.054468207 0.12716824 -0.032035004
0.21920408 0.15765077 0.08910135 0.16303185 0.16127989 0.20899764 0.063891225 -0.02261065

model.rnn.weight_ih_l1 f4 [160, 40]
00000000: 4527 f8bb 3610 933b d013 b8bd 962d e33d
00000010: 4232 05bc 19c5 5e3e 00ff 5cbe 8a6c 6bbe
00000020: 68d2 65be c70f a83d 43aa 053e 8d7a 46bd
00000030: 6708 40be 4b99 acbc 6f15 953d 91fb 9dbd
00000040: 7697 dfbd 4018 47bb 6637 7dbc 03a1 16be
00000050: ba11 023d a466 a63d 769d fc3c 9c0a 4cbd
00000060: 79ce bdbc 3d8d f5bd 887d 09bd 2f64 0c3e
00000070: 6779 2fbd 4adb a6bc 50fa ef3c bf6f a33d
00000080: eefc 26be 6d3f 8bbd cc89 ee3c 9fc0 e23d
00000090: f693 563d d79f 90bd 18e0 55bd 042a b33d
000000a0: 01fd 29be e880 6fbe 13cd d93d 2c44 a63e
000000b0: 998a 00be d743 8f3b 9d83 ddbe 1d7a 3bbc
000000c0: f042 d7be 0e06 e83d 29ea e13d ab37 6fbc
000000d0: bb4d 9abe 6553 59be 36a3 423e 2897 e4be
000000e0: 7f36 32be ef94 9cbd df7c 41be 85b1 86be
000000f0: 98b0 3bbe af18 51bb 1408 2abe 19cd 933d
00000100: 7ba6 98bd 58c9 15bc 9da2 983c 4907 fbbd
00000110: c8bf 323e 7f06 963d d41e 8ebe 43a4 ff3d
00000120: 8d5b febd a528 5a3e 481e b3be 0762 11bd
00000130: 5177 873d af91 cdbe 3c94 83be 96c0 b33c
00000140: bc09 3abd 4927 afbc 4b84 873d e8be 0c3e
00000150: 818e dbbd 859c 93bd cd4f 1abe e875 73be
00000160: a9a3 0bbe 0a74 5abd 0a49 aabd e6c6 32be
00000170: 6217 0cbd 299a eabc a797 66bc 3636 35bc
00000180: 8157 b3bd d59a 863e bf5f abbc b8c0 f2bd
00000190: 7dbc 8e3d 4f2f 253d 31bc 983d ddb5 7dbc
000001a0: bace b23c d4eb 24be 4168 183e ef0d 17bc
000001b0: 6d67 e43d 19b9 943d 7e32 8a3c 9ef8 a7bd
000001c0: b5db 823b a7c6 ff3d 9aff 8a3d 1cb3 70bd
000001d0: 4bc8 a53e bc5f d2be e3f7 343d 23f0 32be
000001e0: 1dc3 7ebd fa8f bb3c a8d2 15be 3c06 9bbd
000001f0: a929 533d 90fd 1d3e 7122 fa3d 098c d73d
00000200: d59a 86bc db2c 883c 14a0 e53d 8827 20be
00000210: 15d3 eabd 5611 70bd c246 5abd f48b d1bd
00000220: 12de 1c3c a3f6 afbd afe0 e93d 79de 1abe
00000230: d031 f7bc 7d64 613d cd4d 71bd c816 213e
00000240: 5db7 8f3d f49b dabc 00d5 113d 612d 033e
00000250: a7af f13d fdba d1bd 940d 863d 73c1 a43d
00000260: b6e2 4abd be33 103e bb88 f8bd 0c2f dcbd
00000270: d070 a93d e056 73bd 114c 263d 1a76 eebd
00000280: 3f3b 20be dda0 09be b8d8 dfbd cf85 a1bd
00000290: 11b6 9f3d c394 0d3e 3dd9 873c c159 20bc
000002a0: cae1 cb3d e688 16be c50a be3d 80bd 053e
000002b0: 893f 7fbd c893 1abe d7bd c23b cfb6 113d
000002c0: c812 6ebc 7505 173e 59a8 003e 29cb 923d
000002d0: 11cd a93b 9d9a 0abe 8c7a d83d ede4 35bc
000002e0: ca71 053e 5a28 ce3d e09a 063e d6fd c13d
000002f0: 98e2 f7bd 7df6 20be adca 863d a2c1 55bd
00000300: 6d70 b43d 5043 3abe 596e b4bc ede7 eb3c
00000310: 8a31 fbbd 8e3b 6bbd da4d 343d b77b 263d
00000320: 9714 b6be 170b 81be 0c11 8e3e 3bbc 9f3e
00000330: 4516 70be 1729 0d3d e34c adbe 92bc 2cbc
00000340: 2aea b4be 6ff3 4d3c 4edf 083d 5d6c 36be
00000350: f5f0 10be b71f 1abe 9f73 7c3e 2836 acbe
00000360: 8e7b 8dbe a533 a93d c798 78bd d0f3 3fbd
00000370: 639a 34be 7b80 173e 1fa7 b93c c7db e53d
00000380: 99c7 aabd 3257 71be 7c34 813e d814 16bd
00000390: 2788 933e 2e51 843d c808 a9bd c343 82bc
000003a0: ddf6 f0bd 4d19 453e 1755 1fbe 34fd 7abe
000003b0: 6fb0 7c3e 9d29 9dbe 8a59 b2be 6b3f d9bd
000003c0: fd63 20bd 6a0b b2bd bc6e e33d a503 103e
000003d0: d890 4abd 35e7 bb3d 56e7 97bd bd31 b83d
000003e0: 9985 acbd 1deb 553e 36a5 ff3d 4dc5 5ebd
000003f0: bc4b 35be 4a08 13bd ba45 6cbd 83e6 e7bd
-0.0075730407 0.0044880165 -0.08988154 0.11092679 -0.008129658 0.21754874 -0.2158165 -0.22990623
-0.22443545 0.08206134 0.13053231 -0.048456717 -0.18753205 -0.02106919 0.07279479 -0.07713998
-0.10917561 -0.0030379444 -0.015455103 -0.14709859 0.031755187 0.08125046 0.030836802 -0.049814805
-0.023169743 -0.1198983 -0.03356698 0.13710092 -0.042840388 -0.020368237 0.029294163 0.07980298
-0.16307423 -0.06799207 0.029118441 0.11071896 0.0523872 -0.07061737 -0.052215666 0.08748248
-0.1660042 -0.23389018 0.10634818 0.32473886 -0.12552871 0.004372101 -0.43264475 -0.011442688
-0.42043257 0.1132928 0.11030991 -0.014600675 -0.3013743 -0.21223219 0.19007573 -0.44646573
-0.17403601 -0.07645594 -0.18895291 -0.26307312 -0.18329084 -0.0031905582 -0.16604644 0.07216854
-0.07453629 -0.009142242 0.018632228 -0.12257249 0.17455971 0.07325458 -0.27757895 0.12482502
-0.12419806 0.21304567 -0.3498404 -0.035493877 0.06614555 -0.4015021 -0.2569903 0.021942418
-0.04541944 -0.021381037 0.0661703 0.137447 -0.1072054 -0.07207588 -0.15069504 -0.23775446
-0.1363665 -0.05333332 -0.08314712 -0.17458686 -0.034201987 -0.028637962 -0.014074243 -0.011060288
-0.087569244 0.26290002 -0.020919679 -0.118531644 0.06969545 0.04032832 0.0745777 -0.015485254
0.02182709 -0.16105586 0.1488352 -0.009219631 0.111525394 0.07261867 0.01686978 -0.08201717
0.0039934763 0.12489062 0.067870334 -0.058764562 0.32379374 -0.41088665 0.044181716 -0.17474417
-0.062197793 0.022895802 -0.1463114 -0.075695485 0.051553402 0.15428758 0.122136004 0.105247565
-0.016431252 0.016622951 0.11212173 -0.1564008 -0.11466042 -0.058610283 -0.053290136 -0.10231772
0.00957443 -0.08591964 0.11419808 -0.15123929 -0.03017512 0.055027474 -0.058912087 0.15731347
0.07017396 -0.026685692 0.035603523 0.1281028 0.11801081 -0.10240743 0.065455586 0.0804471
-0.049532615 0.14082238 -0.12135454 -0.10751161 0.082734704 -0.059409022 0.040599886 -0.1164362
-0.156476 -0.1344027 -0.10930008 -0.0788685 0.07798398 0.1382628 0.01658308 -0.009787024
0.09955175 -0.1470066 0.09279398 0.1306057 -0.06231645 -0.15095437 0.005943041 0.03557473
-0.014530845 0.14748175 0.1256422 0.07167656 0.0051819165 -0.13535543 0.10570249 -0.011101943
0.13031688 0.1006629 0.13145018 0.094722435 -0.12103766 -0.15719028 0.06581626 -0.052186616
0.08810506 -0.1818974 -0.022025274 0.028797114 -0.12265308 -0.057429843 0.044019558 0.040645327
-0.35562584 -0.25203773 0.2774738 0.31198296 -0.23445995 0.034463014 -0.33847722 -0.010543006
-0.35334903 0.012570246 0.033416085 -0.17814775 -0.14154418 -0.15051161 0.24653481 -0.33635068
-0.27633327 0.082618035 -0.060692575 -0.046863377 -0.17637019 0.14795105 0.022662697 0.1122356
-0.083388515 -0.23568419 0.25235355 -0.036640972 0.28814813 0.06460796 -0.08253628 -0.015901452
-0.117658354 0.19247933 -0.15559803 -0.24510652 0.24676679 -0.3069581 -0.34833938 -0.10607799
-0.039157856 -0.08693583 0.11105105 0.1406389 -0.04945454 0.091749586 -0.07417171 0.08993862
-0.08423919 0.2089047 0.12482683 -0.05438738 -0.17704672 -0.035896577 -0.057683684 -0.113232635

model.rnn.weight_hh_l1 f4 [160, 40]
00000000: cf62 0a3d 6ae8 2d3d c443 a83d a631 14be
00000010: 857c ba3c fc9c e8bc 5ae2 763d 15b3 f93c
00000020: 13a2 aa3d c81f ecbd 4502 163d b36e 163d
00000030: 1fdb fd3d bcf2 143e dcc4 04be d113 043e
00000040: 19be 8a3d 9323 483d 08a1 313e de4a 3fbd
00000050: 3939 de3d 2beb d2bc 2fad c83d 7cc3 a5bd
00000060: 53a1 a2bd bf66 a43d 88e6 01be 1b94 993d
00000070: 80ee 563d 40e2 103e 4cd9 56bd 4709 003e
00000080: 59b8 f43d 9812 803d aab5 b63d 7624 0c3e
00000090: f430 cbbb eb43 aabc 1547 5fbc 1060 bcbd
000000a0: 6a92 e73d 22e8 333d 3533 41bd 07fb 693c
000000b0: b6be bb3d 20b0 01be f69f 823d 0e1b bb3c
000000c0: b28d cb3d 182e 05be 25d5 87bd ae8a e53d
000000d0: 2ca7 0bbe ef13 f93d 9ada fa3d beb7 f1bc
000000e0: 3334 b8bd b1cd ba3d 9f38 d2bc 30bd 2ebd
000000f0: 394f 973d 49eb aab9 a2a8 893d 613f 04bd
00000100: 7709 4bbd a260 61bd 011c ff3d 4989 bebd
00000110: 4b30 f53d 06a2 c9bd 16c0 f43d 8b36 c93d
00000120: c398 28bd 07db 70bd 666f 383d 1c34 ebbd
00000130: c6f4 00be 8402 02be 33ab 093e 7972 373e
00000140: 3f73 8cbc 7bef c4bd 01bb 713e b49c 2ebe
00000150: 0015 26bc 028d 0ebe 34dc b4bc 2ea7 873d
00000160: f9cf a4bc d95b 5dbd 5f4f 08be a7b8 bc3d
00000170: 01d4 09be 1e04 96bb 7f9f 02bd dbd6 2fbe
00000180: 59b5 f3bd 1891 e9bd 9886 1a3e 4e9c 67bc
00000190: b19d 113e 9b40 f83c f4ae f4bd 62e7 34bc
000001a0: 06de f13d 23cf aabd a3bc f2bd a56a f1bd
000001b0: df11 2cbd 0b29 013d 5409 57bd fd3e 0d3e
000001c0: 98a4 1abe 5dcf 023d e5d8 7c3c d82b 89bd
000001d0: e52b de3d 7f81 24be 273d d83d 55d0 31bc
000001e0: 019e b2bd b232 b33d 7ae6 3ebe 5973 243d
000001f0: 36b7 11be 3449 063e 3bb9 cfbd 0dc6 50bd
00000200: d577 e83c 27bd 923d c3c4 44bc 459d 6f3d
00000210: 2e0f a8bb cde8 253e b511 14be aa4f b2bd
00000220: 54c3 1d3e e150 983d f6ff e0bd 52f2 b4bd
00000230: ae77 1cbe e3c2 91bd 37b1 2c3e 3264 2dbe
00000240: 4cc2 8abd 8130 2f3e 72a9 ff3d 97ce 0b3e
00000250: 93f8 d3bd b564 033e aec4 9b3c 3811 983d
00000260: 8b56 dcbd 441f 203d fe30 be3d 7550 023e
00000270: e017 80bd 32d6 37bd d6cc 26be 3a76 a23b
00000280: e0e7 773d 7be8 0ebe 61f8 ebbb 039d edbd
00000290: c6b9 8cbc c980 153d c0ee 9d3d 65f4 2b3c
000002a0: 2c6a 213e 205b 22be cac5 ce3c 3c3e afbd
000002b0: 87cf 9cbd 96ad 793d 4dcb 4f3e 5d99 19be
000002c0: f990 043e 5775 653d 5e66 263e 8eef ce3d
000002d0: 7872 51be 513c 01be d6db 4ebe e05e 68bd
000002e0: 707b f0bc 81ae 01be 2667 093e d465 383e
000002f0: fdcc 973c f15b 0c3d 6329 063e 0766 233c
00000300: ff2f 663d 3930 013e 7e15 b6bc c63c 1f3e
00000310: 23bb 723b 18f0 acbd 5897 adbd 9c1b d33d
00000320: 81e2 9cbd 4ff1 b43b e813 78bc 1088 4a3c
00000330: 8b1b 9b3d ec73 79bd 6bdd 5ebe ab9f dcbd
00000340: 96b0 f7bc fca8 8abd 9ac1 f5bc 081a 94bd
00000350: 044f 703d 5704 023e d0b8 13bd 670f 313e
00000360: 503b 1a3e a4c8 5f3e 82d8 6c3e 1d6f c7bd
00000370: 6303 30bd f74f 3d3e 8418 d73d 82d5 2d3e
00000380: 8ce1 4e3e c762 c6bd 4d96 43bd 5845 dabd
00000390: 4537 bebd a4c6 053d a886 7a3d 387a 61bc
000003a0: 0801 c5bc 8958 80bd 939a 0d3e f72e 063d
000003b0: e521 96bc 14c5 22be f6f7 febc f651 31bd
000003c0: 0dc1 59be d763 073d ab32 2b3e 63fc f23c
000003d0: 9bf0 bfbd 5acf 2dbe 20d2 173d 5bb5 103e
000003e0: 25d6 3bbe a070 983d d9b7 e53d 4adf 58bc
000003f0: 0ceb 84bd eb6e 513e ff49 203e 67be 4c3e
0.033785637 0.042457975 0.0821605 -0.14472064 0.022764454 -0.028395168 0.06027446 0.0304809
0.083316945 -0.11529499 0.03662326 0.036726665 0.1239531 0.14545721 -0.12965721 0.12898184
0.067745395 0.04886205 0.17346585 -0.04670226 0.10850758 -0.025746902 0.09798657 -0.08093926
-0.079409264 0.0802741 -0.12685597 0.07498952 0.052473545 0.14148808 -0.052453324 0.12503539
0.11949224 0.062535465 0.089213684 0.13685784 -0.006200904 -0.020784339 -0.013627787 -0.0919801
0.11307223 0.04392255 -0.047167975 0.014281041 0.091672346 -0.12664843 0.063781664 0.02284005
0.099391356 -0.13005865 -0.06632451 0.11208092 -0.1363799 0.12162005 0.12248726 -0.02950656
-0.08994331 0.09121264 -0.025661765 -0.042660892 0.073881574 -0.00032600228 0.06721617 -0.032287005
-0.049569573 -0.055023797 0.12456513 -0.09303529 0.11972102 -0.09845357 0.119507 0.09824856
-0.04116131 -0.05880263 0.045028113 -0.114845484 -0.12593374 -0.12696272 0.13444214 0.17914762
-0.017144797 -0.0961599 0.23606493 -0.17051965 -0.010136843 -0.13920978 -0.022077657 0.06623684
-0.0201187 -0.05404267 -0.13311528 0.09214907 -0.1345978 -0.0045781275 -0.03189039 -0.17171805
-0.11899824 -0.114046276 0.15090406 -0.014136387 0.14220311 0.030304244 -0.11947432 -0.011041494
0.11809926 -0.083402894 -0.11852386 -0.11787919 -0.04200923 0.031533282 -0.05249913 0.1379356
-0.1510185 0.03193604 0.015432571 -0.06697816 0.10848216 -0.16065024 0.10558539 -0.010852893
-0.08721543 0.08749904 -0.18642607 0.040149067 -0.14230046 0.13113862 -0.10142752 -0.050970126
0.028377453 0.07164984 -0.012009802 0.058499593 -0.0051287627 0.16202088 -0.1445988 -0.08706601
0.15406543 0.074373014 -0.10986321 -0.088352814 -0.15280029 -0.0711725 0.16864477 -0.16932753
-0.067753404 0.17108347 0.12483491 0.13653027 -0.10350146 0.12831385 0.019014683 0.07425159
-0.10758694 0.039092317 0.09286688 0.12726004 -0.06254554 -0.044882007 -0.16289076 0.0049579414
0.060523868 -0.13955872 -0.00720124 -0.11602213 -0.017178427 0.036499772 0.077115536 0.01049528
0.15763158 -0.15855074 0.025240798 -0.08556792 -0.0765677 0.06095656 0.20292397 -0.1499991
0.12945928 0.056020107 0.16249987 0.10104285 -0.20453823 -0.12620665 -0.20201048 -0.056731105
-0.029355735 -0.12664224 0.13418254 0.18007594 0.018530363 0.03426737 0.13101725 0.009973056
0.056198116 0.12616052 -0.022227045 0.15550527 0.0037037812 -0.08444232 -0.08476132 0.103080004
-0.0766039 0.0055219303 -0.015141465 0.012361541 0.07573613 -0.060901567 -0.21764152 -0.10772642
-0.03023557 -0.067705125 -0.029999543 -0.072315276 0.058669105 0.12696968 -0.036064923 0.17291032
0.15061688 0.21853882 0.23129466 -0.0973799 -0.04297198 0.18487535 0.10502723 0.16975978
0.20203227 -0.09686809 -0.04775076 -0.106577575 -0.092878856 0.03266014 0.061163574 -0.013762049
-0.024048343 -0.06266887 0.13828497 0.032759633 -0.018326709 -0.15895492 -0.031124096 -0.043291055
-0.2126505 0.0330542 0.16718547 0.029661363 -0.09372064 -0.1697363 0.037065625 0.14131682
-0.18343408 0.074433565 0.11216707 -0.01323683 -0.06490144 0.20452468 0.15653227 0.19994508

model.rnn.bias_ih_l1 f4 [160]
00000000: a47e 673d 2420 993d 3654 343d 87f9 493e
00000010: ac9f ec3d 56dc ee3d f611 d4b9 2f2d 1e3e
00000020: 7071 123c 6c37 f9bd 7f94 063e 9020 303e
00000030: 99d2 eabd f98a 8b3d 2e64 f0bd dab6 413c
00000040: fee0 0a3d b792 ab3c 9301 f53d b037 ab3d
00000050: fc45 7d3d c23b 0e3e 73a5 863d a6bd 113d
00000060: da7c 7a3d cc7a e23c e02c a33d 5176 773a
00000070: 6f8f 8a3e 97e1 6f3e b0bf af3b 3361 f23c
00000080: 7187 903e 7a7e 00be a4b3 013e a35f 283d
00000090: 961c 1d3e af4a 5e3e 1426 d93d 301b 213e
000000a0: e7c3 123e 6c06 bdbd d201 113e c4b2 6c3d
000000b0: 70b7 bbbc 6456 473d 7a1a 2e3b 96d5 063e
000000c0: 3d8c 24be bdd1 c7bd 03fd b7bd 5c2d 1abd
000000d0: ffeb 6b3d acd2 8abd 30a3 f6bd 7bcc e23d
000000e0: 24f5 b13d e233 8fbd b40b 9e3d 49da 86bd
000000f0: 7550 743d e595 eabd 759a d8bd 114c 243e
00000100: cc9f d9bc 3c96 4abd 13d3 d8bd 658e 06be
00000110: e339 49bd 7bed 863c e4e4 08be ec41 a1bd
00000120: 1b69 fb3b 7456 bbbd acc5 383e 8138 833d
00000130: ceef b83d 1856 253c cebe bbbd 2b34 223e
00000140: 832f 4dbe 2106 9abd 7336 473d f6ec 15be
00000150: 68ad b13c 0efd b8bb 2f34 143e 35b0 663d
00000160: 8160 bd3d 110c 22bd 6852 0f3e 0d6a 333d
00000170: 5330 80bd 0743 153e 3c2a f2bd e0f9 0d3e
00000180: 6173 263e 2d88 6e3b 0596 b43d 4c5f 22be
00000190: f2d5 e73d 3ec7 2d3e 00c7 ffbd 11f0 a43d
000001a0: a713 fcbc 7aa7 7bbd 549c 1c3b e59a 01be
000001b0: 8298 5e3c 7f34 e7bd a522 733e 1cdf 263d
000001c0: a6be a1bd 3c00 233d e094 e83d b03f 41be
000001d0: 3472 6fbd abb9 e43d f66e bc3c ee53 bd3d
000001e0: 809d bf3d 9c50 653e f2c0 09be 283a 31bb
000001f0: 6fc8 1fbe a18c d13d 37a1 84bd 83a0 b4bc
00000200: 0429 053d e2c5 dabc 20c5 b9bd ec5c adbd
00000210: f2ab 2dbd e846 65bd 0699 603d ca09 b2bd
00000220: 6805 0f3d 5817 083e 1f55 923d 67bb ce3b
00000230: 0144 953d 37c5 d23c b397 653c 4e90 3e3d
00000240: 775f 123e 7e33 103c 2206 273e ab1f f3bc
00000250: a344 1f3e 8712 073e 48d7 3b3e fd1a f83b
00000260: 4e74 503e ec68 3dbd d443 263d 091d 38bc
00000270: 5e6d 413e 1c75 fc3d c3a6 523c 4700 743c
0.05651726 0.074768335 0.044025622 0.19724093 0.115538925 0.116631195 -0.00040449173 0.15446924
0.008938178 -0.12168774 0.13142584 0.17199922 -0.114659496 0.06813616 -0.11737858 0.01182338
0.033905976 0.020943983 0.11963191 0.08360231 0.06183432 0.13889983 0.06574526 0.035581253
0.061154224 0.027646445 0.079675436 0.0009439933 0.27062556 0.234259 0.005363427 0.029587364
0.28228334 -0.12548247 0.12666184 0.04110683 0.15342936 0.21708177 0.10602966 0.15733027
0.14332543 -0.092297405 0.1416085 0.05778767 -0.022914618 0.048666373 0.0026566074 0.13167414
-0.16069122 -0.09756801 -0.08983805 -0.037640914 0.05759811 -0.06778464 -0.12042844 0.11074158
0.08689335 -0.06992318 0.07717076 -0.06584603 0.059647042 -0.11454371 -0.10576335 0.16044642
-0.026565455 -0.04945968 -0.10587134 -0.13140257 -0.04912747 0.016470661 -0.13368565 -0.07873902
0.0076724417 -0.09147349 0.18044156 0.06407262 0.09030114 0.010091327 -0.091672525 0.15840213
-0.20037656 -0.075207 0.04863591 -0.14641175 0.021689132 -0.005645401 0.14473031 0.056320388
0.09246922 -0.03956229 0.13996279 0.04380231 -0.06259217 0.1457635 -0.11824462 0.13864851
0.16254951 0.0036397085 0.088176765 -0.15856665 0.11320104 0.16970536 -0.12489128 0.080536015
-0.03077109 -0.061439015 0.002389689 -0.12656744 0.013586165 -0.1128931 0.23743685 0.040740117
-0.078976914 0.039795145 0.11356521 -0.18871951 -0.058458522 0.11168226 0.023002129 0.09244524
0.093562126 0.22394031 -0.13452509 -0.002704272 -0.15603803 0.10231901 -0.06476062 -0.022049194
0.03250982 -0.026705686 -0.09070802 -0.08464989 -0.042400308 -0.055975825 0.054833435 -0.08693273
0.034917265 0.13290155 0.07145142 0.006308961 0.07288361 0.025728805 0.014013219 0.04652434
0.1429423 0.008801339 0.16310933 -0.029678186 0.15553527 0.13190661 0.18343842 0.0075715766
0.20356867 -0.04624264 0.04059203 -0.011237391 0.18889377 0.12327024 0.012857142 0.014892644

model.rnn.bias_hh_l1 f4 [160]
00000000: 5461 203e 0cb0 563e 3c01 cf3d 1b82 90bd
00000010: f33e e73d e95f b83d 4b69 a63c cc18 71bc
00000020: 0fe2 f73d bab7 00bd 8a91 50bd 5f5b fbbb
00000030: 3b4a 80bd 21c1 17be ecc7 873c 9a97 76bc
00000040: 05e1 353e 4c6d 3e3e f8f6 0e3e 5ffb fa3d
00000050: 363d 27bc b322 47bd 3c67 e43c 3362 2d3e
00000060: df05 003d 6863 313d 0629 2b3d f268 0e3e
00000070: 133a ed3d 59f2 183e 1a54 8d3e a4e5 103e
00000080: 52af 863c 2151 47bd 514d 86bd f1af b6bb
00000090: a841 cf3d b8ba 873d 359e 083e f2b8 053e
000000a0: 7581 b7bd 1112 9a3d ebb4 d9bd 34ad 91bc
000000b0: 884e de3d e680 153e 06b0 5cbd a8a4 bd3d
000000c0: 55a7 d8bb 6977 42ba 89db 83bd cd9e 223d
000000d0: 6b0e 91bd 39ef d23d 5796 c13d cc5a 2cbe
000000e0: c2a2 5fbd f4cf c2bc 79ae 6a3d d46a 0f3d
000000f0: bd70 29be b821 41bd d685 6a3d 8cbe d7bc
00000100: 2b2d babd 4b6e 6e3b 3a35 233e dd29 1abe
00000110: 2167 09bd 2829 13bc 8a80 783b 1ed0 843d
00000120: d319 82bd eb64 cf3c 88de 4c3d 85bc d4bb
00000130: 394f b6bc 349c cd3d 06c5 4c3d 1e70 74bd
00000140: 9b28 173c 9aba 933d 023a 2d3c 001a 86bc
00000150: 17a6 03be 1b72 03be 2769 10be c6fa 91bd
00000160: 201f c03d 9654 8dbc 30f1 193e 6695 0cbe
00000170: e5a1 363e 053a 083e 5f2b d3bc 2a6b e3bd
00000180: 88ae 6a3d 5a26 61bd bb04 943d 1fc9 b8bd
00000190: 3c69 d4bd ac17 e8ba 16da a6bd 99fe b53d
000001a0: 36c4 bc3c b001 a4bd e21b fdbd 2b66 6abd
000001b0: 0051 55be 41ec 003d 1cd0 5e3d 4fce 153e
000001c0: 7202 603e 5b02 da3d 754a 183e 52fc 42be
000001d0: d301 36be 8a95 afbd aa6e 303d 7637 e43d
000001e0: 727f 6f3e b828 a63d fcf9 f0bc ac60 2f3e
000001f0: 83d2 fd3d f0b9 703e 4383 073e e7dc 6a3d
00000200: 30ea 103e cef9 113e 3c74 f23d 008e 31bd
00000210: 1f80 6e3c 10c0 6ebd 5593 023e 96fb 85bd
00000220: b9b6 123e 1b95 793e 309e fd3d 45d1 073d
00000230: 06b3 23bd 0675 a9bd 83e8 503e 3740 a7bb
00000240: 9421 ed3d 702c d93b 3c57 333e cd11 6ebd
00000250: c4c0 683d 47aa 833e 1ec7 193e 5f82 ea3d
00000260: 9771 503e 311b ab3c 3df8 9dbd 76fb cf3d
00000270: 3312 213e 01e8 293e 8974 403e 1016 7d3d
0.15662128 0.20965594 0.10107657 -0.07056066 0.112913035 0.090026684 0.02031388 -0.014715385
0.12103664 -0.031425215 -0.050920047 -0.0076708044 -0.06264158 -0.14819767 0.016574822 -0.015050793
0.1776162 0.18596381 0.13961399 0.122549765 -0.010207465 -0.048617076 0.027881257 0.16931991
0.0312556 0.04330769 0.04178717 0.13907221 0.115833424 0.14936198 0.27603227 0.14150101
0.016441021 -0.048661355 -0.06557716 -0.005575173 0.10119945 0.06627411 0.13341601 0.13058832
-0.08960239 0.07522977 -0.106302105 -0.017782785 0.108548224 0.14599952 -0.053878807 0.09259921
-0.0066117444 -0.0007418306 -0.064383574 0.039702225 -0.07082828 0.10299534 0.09452503 -0.16831511
-0.054598577 -0.0237808 0.057295296 0.03501399 -0.16546912 -0.047151297 0.057256542 -0.026335977
-0.09090646 0.0036381658 0.15938273 -0.15055032 -0.033545617 -0.00898198 0.0037918412 0.06485008
-0.06352582 0.025316676 0.05001691 -0.0064922 -0.022254573 0.10039559 0.049992584 -0.059677236
0.00922599 0.07213326 0.010572912 -0.01636982 -0.12856327 -0.12836497 -0.14102612 -0.07127909
0.093809366 -0.017252248 0.15033412 -0.13728866 0.17835195 0.13303383 -0.025777517 -0.11104424
0.057295352 -0.054968216 0.07227465 -0.09022736 -0.10371634 -0.001770725 -0.08147065 0.08886451
0.02304278 -0.08008134 -0.12358834 -0.05722634 -0.2083168 0.03147531 0.054397687 0.14629482
0.21875933 0.106449805 0.14872153 -0.19041565 -0.17774133 -0.08573444 0.043074287 0.11143391
0.2338846 0.08113235 -0.029416077 0.17126721 0.123936675 0.2350843 0.13233666 0.057339575
0.14151835 0.14255449 0.11838576 -0.043348312 0.014556914 -0.058288634 0.12751515 -0.06542127
0.14327516 0.24373285 0.123836875 0.03315856 -0.039965652 -0.082742736 0.20401196 -0.0051040906
0.1157867 0.006627612 0.17513746 -0.058122445 0.05682446 0.2571585 0.15017363 0.114506476
0.20355831 0.02088699 -0.07713363 0.10155384 0.15729599 0.16592409 0.18794455 0.06178862
