generate_forecasts/output/Final_2026_Forecasts/Bakery and cereal products (excluding baby food)/models/DeepAR/W0/gluon_ts/prediction-net-state.pt (torch, 97628 bytes, 11 tensors)

model.param_proj.proj.0.weight f4 [1, 40]
000000 57 9f c0 3c fd d1 49 3e f2 b6 fc 3d fc cb 6d bd
       0.02351348 0.1970901 0.123395815 -0.058055863
000010 a5 bd 31 3d 56 2d 1d be 70 df 98 bd 1a 82 57 3d
       0.04339375 -0.15349326 -0.07464492 0.05261431
000020 b3 43 5b be d8 42 b0 be 5e a7 9f 3b cd 1b b8 bc
       -0.21412544 -0.34425998 0.0048722466 -0.022474194
000030 74 f8 17 be f6 33 90 bd 58 28 81 3d 7d 0d 73 3e
       -0.14840871 -0.07041161 0.06306523 0.23735614
000040 b6 03 0b 3e 25 0b 4b 3b 8a cd 8e 3d b9 25 99 be
       0.13575634 0.0030981984 0.06972797 -0.29911593
000050 c8 23 0f bd 68 f7 e5 3b 4b 90 4a bd d3 f1 1a 3e
       -0.034946233 0.0070180185 -0.049454015 0.15131311
000060 90 80 6d 3e ee 00 cd bd 2d 5d 3e be f8 37 3e 3e
       0.23193574 -0.10009943 -0.18590231 0.18576038
000070 f9 14 31 be ca 63 79 bd d6 ca 33 3e 02 cf 2b 3e
       -0.17293157 -0.060886182 0.17557845 0.16778186
000080 16 67 5e 3e b4 f4 e9 bc e4 66 f7 bd b7 3b 12 be
       0.21719012 -0.028559066 -0.12080172 -0.14280592
000090 b2 7e 2b bd 24 16 7a bd 56 3e 1b 3d 0a d7 bf 3d
       -0.041868873 -0.06105627 0.037901245 0.09367187

model.param_proj.proj.1.weight f4 [1, 40]
000000 68 de 23 be ad 56 11 3e dd cd ea 3d 03 0c 00 be
       -0.1600281 0.1419322 0.114650466 -0.12504582
000010 c3 c6 eb bc a0 36 26 be 18 df 25 3d 37 53 59 3d
       -0.0287813 -0.16231775 0.040495962 0.053057875
000020 54 7a 23 be 9a f0 25 3d 7d 8b 2a 3e 88 b6 97 3c
       -0.15964633 0.04051266 0.16654773 0.018519655
000030 ae e8 63 3d c5 7b e6 3d 21 04 f4 bd bd 36 d3 3d
       0.055641823 0.11254076 -0.1191485 0.10313175
000040 24 7e 29 3e 10 b7 b6 3c 9f 16 b6 bd eb 6b 19 be
       0.16552025 0.022304088 -0.088910334 -0.14982574
000050 7e b1 b6 3d 9e b1 da 3d e1 02 9e 3c 34 06 52 3d
       0.08920573 0.10678409 0.019288482 0.051275447
000060 77 e2 fc 3d a2 14 64 3d d3 f0 94 bd bf c9 f9 3b
       0.12347882 0.05568374 -0.07272496 0.007622927
000070 1b f9 ba bd 4d da c3 bc 94 1d 6e 3d 9a c4 ef 3d
       -0.09129544 -0.023907805 0.058133677 0.11707421
000080 3e e5 c1 3c 6d 1e df bc 64 3f a2 3b 4d ba eb 3a
       0.023668882 -0.027236188 0.0049514044 0.0017984599
000090 d8 5a 02 be ac f6 d5 3a 55 9c 96 3d ea 8f e1 bc
       -0.12729967 0.0016324124 0.07354037 -0.027534444

model.param_proj.proj.2.weight f4 [1, 40]
000000 1b 6a 57 3e cb 1e 19 be 08 bf e3 3b 25 89 c0 3d
       0.2103657 -0.14953153 0.006950263 0.09401158
000010 65 b4 6f 3e 74 59 82 3e e6 80 f1 3d d1 8b 3a be
       0.23408659 0.25458872 0.117921636 -0.18217398
000020 96 33 e8 3d ff dd 91 3e 4b 9a 2e bd 32 f6 0f 3e
       0.11337964 0.28489682 -0.042627614 0.1405876
000030 40 22 13 3e 54 3f 7b bd 8c a5 01 3d 4e 36 37 bd
       0.14368534 -0.06133969 0.03165202 -0.044729523
000040 2d 00 7d bd 87 fe 29 be 2d 2e 28 be f9 c7 f9 bc
       -0.061767746 -0.16601 -0.16423865 -0.030490862
000050 2b b1 02 3e 35 15 3a bd 49 c6 43 3e 35 9e 3f be
       0.12762897 -0.04543038 0.19118609 -0.18712695
000060 c0 71 89 be bf a3 41 3e e9 de 6a be 7f 09 06 be
       -0.26844597 0.1891012 -0.22936596 -0.1308956
000070 5e 02 04 3e bf c4 7d 3e 2b 71 5d be 86 a0 30 be
       0.12891528 0.24782084 -0.21625201 -0.17248735
000080 aa ef 02 be 99 b3 89 be cb 6d 87 3b d6 8f 18 3e
       -0.12786737 -0.26894835 0.0041329614 0.14898619
000090 30 0d 9a 3e 09 ea e3 3d 75 ca 81 be 6e 3d 62 be
       0.30088186 0.11128623 -0.25349775 -0.22093746

model.rnn.weight_ih_l0 f4 [160, 21]
000000 44 72 00 3e 1d 93 b4 bc c3 81 c9 3d a1 8a 86 3d
       0.12543589 -0.022042805 0.09839203 0.0656941
000010 f1 f5 8b bd 6f 42 6f bd 43 70 49 3e e7 88 f9 3d
       -0.06834019 -0.058412965 0.1967173 0.12184315
000020 e5 c6 f4 3d 61 54 6c 3e c4 6e f9 3d 4d 2a 38 3e
       0.119519986 0.23079063 0.1217933 0.17984886
000030 95 e5 b9 3d 2f c9 6f 3e 19 4e 6c 3d 6e 8a 70 3e
       0.090769924 0.23416589 0.057691667 0.23490307
000040 88 9a 07 bd 47 a6 c4 3b 6d dc a6 3c 21 94 f4 bd
       -0.033106357 0.006001267 0.02036878 -0.11942316
000050 c1 60 14 3d 4d c7 c6 3d 7e c7 24 3e b3 53 6b 3e
       0.036225084 0.09705982 0.16091725 0.22981147
000060 fd 40 03 3e eb 7d 54 3d a3 06 88 3c 7d 97 01 3e
       0.1281776 0.051877897 0.016604727 0.12655444
000070 f3 b1 4b 3e 68 bc 66 3e 15 db e3 37 77 e7 5a 3e
       0.19892101 0.22532809 2.7162527e-05 0.2137736
000080 51 a3 99 bc 5b b0 0a 3d c6 e8 62 3d b8 b6 ef bc
       -0.018754633 0.033859592 0.05539777 -0.029261932
000090 38 fa 71 3d a7 10 d6 3d 45 e8 0b bb f8 38 0a 3e
       0.059076518 0.10452395 -0.002134816 0.13498294
0000a0 0a c2 af be d9 fc 2a 3e e5 0d 36 3e ad c7 9b 3d
       -0.34327728 0.16698016 0.17778738 0.076064445
0000b0 6e c9 db bc 5a 91 20 3e 2f 71 b3 3d b8 ba e6 3d
       -0.026829448 0.15680447 0.087618224 0.112660825
0000c0 f9 b9 32 bd d8 9a a9 bd cd a1 c0 3d 7a 72 b0 3d
       -0.04363439 -0.08281487 0.09405861 0.08615585
0000d0 9f 05 ae bb 0e 7a 16 3e c1 e1 aa bd e8 c9 d6 bd
       -0.0053107287 0.14694998 -0.083438404 -0.10487729
0000e0 9e f4 8f 3d ae c7 1e 3e 8c bc c0 3d fa fb 59 bb
       0.07029079 0.1550586 0.094109625 -0.0033261762
0000f0 02 f7 c6 3c 9c cf 62 be 8c 3b ec 3d 78 53 a3 3e
       0.024287704 -0.22149509 0.11534795 0.3189962
000100 ea f0 fe 3d af c8 b4 3e d5 d5 b7 3d c0 80 b2 3e
       0.124482945 0.3530936 0.08976332 0.34863853
000110 04 f8 8a 3d 04 ac f0 3d 2a 11 8d 3e 9d 84 84 3e
       0.067855865 0.117515594 0.27552158 0.25882426
000120 c9 c3 d7 3d 0f 3a ad 3d bb 22 2f 3e 69 83 ca 3d
       0.1053539 0.084583394 0.17103092 0.09888346
000130 32 6c 99 3e c1 cb 40 3d 7b 88 11 3d e3 44 5e 3e
       0.2996536 0.047069315 0.03553055 0.21705966
000140 d6 6e 0a 3c c3 8a 93 3e ff 3b 55 bd 2a b5 f9 3d
       0.008449277 0.28816804 -0.05205917 0.121927574
000150 b0 f2 86 3e 20 14 a6 3e 03 b0 3f 3e 66 00 85 3e
       0.2635703 0.3243723 0.18719487 0.25976866
000160 6e 10 9b 3e 87 6d 91 3e fb ea 97 3e cf e2 a8 3e
       0.30285972 0.28403875 0.29671463 0.3298554
000170 1e 73 76 3d f7 7a 98 3e 73 02 85 3e 7b 5c 95 3d
       0.060168378 0.29781315 0.2597843 0.0729303
000180 b6 89 81 3e 2a c2 7f 3e c2 cd 6f 3e e7 57 ad 3e
       0.25300378 0.24976411 0.23418334 0.33856127
000190 86 b0 86 3e 03 61 d7 3a 07 9c f4 3d 83 6c ec 3b
       0.26306552 0.001643211 0.11943822 0.007215084
0001a0 3b 49 3d 3e 80 c1 5b 3e 7f 7b 95 3d 9c 27 5d 3e
       0.18484966 0.21460533 0.07298946 0.21597141
0001b0 90 ca 3c 3d bc 11 2d 3e f2 9a 14 3e 84 87 e9 3d
       0.046091616 0.16901296 0.14512232 0.11402801
0001c0 4d 47 c1 3c 6a 7e 2f 3d 55 d4 6c 3e 1c 89 69 3d
       0.02359357 0.042845167 0.23127873 0.057015523
0001d0 85 89 07 3e 1f 33 99 3e 63 3d 43 3e 2b 37 32 3c
       0.13236053 0.29921815 0.19066386 0.010877411
0001e0 5d 59 2f 3e ba 6c 59 3e f8 e8 f8 3a 29 3b 13 3d
       0.17123933 0.21232882 0.0018990329 0.03594509
0001f0 0b 88 4d bd 35 6c 74 3e ac 8e c1 3d 16 8e 01 3e
       -0.05017857 0.23869403 0.094510406 0.12651858
000200 f7 47 8b 3e ff 0a 92 3e 28 a7 b6 3e 28 83 0b 3e
       0.27203342 0.28524014 0.35674405 0.13624251
000210 1e 4f e1 3d 18 1b 75 3e d1 e7 07 3e aa 6a 9a 3e
       0.110014185 0.23936117 0.13272025 0.30159503
000220 ee 36 91 3e 75 62 b1 3d fd 70 11 3e f0 53 ef 3d
       0.2836222 0.08661357 0.14203258 0.11685932
000230 31 a7 9f 3e 30 d9 f7 3d 31 64 bb 3e ab 6a ba 3a
       0.31182244 0.12101972 0.36599877 0.0014222463
000240 9f ee cb 3d 4b f2 32 bd 31 bf 48 3e 02 a6 5e 3e
       0.09957623 -0.0436881 0.19604184 0.21743014
000250 f4 12 ca 3d ab 03 9b 3d 57 c8 54 3d bf 97 bb 3d
       0.09866896 0.07569059 0.05194887 0.09159803
000260 f0 fa 95 3c 3a a4 52 3d 14 91 c0 3c 2d 03 5e 3e
       0.018308133 0.05142615 0.023506679 0.21680899
000270 d7 6c 5c 3e 90 8f 3a 3e 75 f9 ad 3d 1e 92 9d 3d
       0.21525894 0.18218827 0.08494846 0.07693885
000280 18 c6 82 3e c3 20 95 3e 2b d2 11 3e 84 a5 d6 3d
       0.2554176 0.29126558 0.14240329 0.10480788
000290 e0 03 92 3b ef ef 47 3e 34 bf b7 3d e8 9d 2d 3d
       0.0044560283 0.19525121 0.08972016 0.04238692
0002a0 f1 49 e9 3d 5d 3a 96 3e a5 d9 2d 3e 2c d9 91 3e
       0.11391056 0.29341403 0.16977556 0.28486001
0002b0 ee 14 3e 3e e3 ae 48 3e c5 54 20 3e 84 2c 15 3e
       0.18562672 0.19597964 0.15657337 0.14567763
0002c0 0e 1e ba 3e 86 62 67 3e cf 53 88 3e 48 32 85 3d
       0.36351055 0.22596177 0.2662644 0.06503731
0002d0 83 4e 00 3e 81 93 17 3e 4a 91 98 3e 77 5f a9 3d
       0.1252995 0.14802362 0.29798347 0.082701616
0002e0 09 d6 ba 3e 16 68 da 3b 9f 92 85 3d 3a cc 1e 3e
       0.3649142 0.00666524 0.065221064 0.15507594
0002f0 03 5c 79 3e c4 d2 12 bd ca 78 c8 bd 4b 3c 25 3e
       0.24351506 -0.035845533 -0.09788664 0.16136281
000300 08 42 fe bd be 19 01 3e b6 4d db bd 53 98 68 bd
       -0.12414938 0.12607476 -0.107081816 -0.056785893
000310 ad 55 f4 bd a6 82 de 3d e8 e2 16 be 07 8a 87 3d
       -0.11930404 0.10864763 -0.14734995 0.066181235
000320 83 45 e5 bd 32 3a e8 bd 06 1a 87 bd 54 15 b4 3d
       -0.11194899 -0.11339225 -0.065967605 0.087931305
000330 4e 89 be 3d ba 47 00 3d f1 fa d9 3b 8e d2 96 3d
       0.093035325 0.031318404 0.006652229 0.07364379
000340 65 5f 52 3e 49 a8 5d bd 28 a2 99 3e 2c 58 81 3e
       0.20544203 -0.054115567 0.30006528 0.25262582
000350 99 ff 8f 3e c9 31 94 3e 71 a2 31 3e ee 22 32 3d
       0.28124693 0.28944233 0.17347123 0.043490343
000360 dc ab 2d 3e ef 48 14 3e ca 67 d3 3d 2d e7 99 3c
       0.1696009 0.14480947 0.103225306 0.018786991
000370 33 f8 cc 3d 81 06 58 3d c5 f5 2c 3e 96 98 42 3e
       0.10008278 0.052740578 0.16890629 0.1900352
000380 dd f3 64 3e bd f0 5c 3e 02 e0 43 3d 64 6d e7 bb
       0.22358651 0.2157621 0.047821052 -0.007062601
000390 1b 28 25 3e 51 01 b9 3d a7 a3 a3 3d b6 45 a2 3d
       0.1612858 0.09033454 0.079901986 0.079234526
0003a0 b7 48 89 3e 6f 96 85 3e 35 c6 99 3e 27 66 b8 3e
       0.2681329 0.26091334 0.30034032 0.36015436
0003b0 c1 35 fb 3d 1a 57 5a 3e 72 cb 3c 3e 9a 3f 02 3e
       0.12266112 0.21322289 0.18436983 0.12719575
0003c0 f2 79 d7 3d c3 dd af 3e 7a c5 34 3e 78 11 a6 3e
       0.10521306 0.34348878 0.17653456 0.32435203
0003d0 47 ae 93 3e 43 ad 7e 3e 0c f4 15 3e 4b bf 29 3e
       0.288439 0.24870782 0.14643878 0.16576879
0003e0 53 43 12 3b d2 77 88 3e f8 f3 3c 3e 1e ef 1e 3e
       0.002231796 0.26653916 0.18452442 0.15520903
0003f0 7a 21 f2 3d a9 50 05 3e 3e fb 4d 3e ce ca 85 3e
       0.118227914 0.1301905 0.20115373 0.2613129

model.rnn.weight_hh_l0 f4 [160, 40]
000000 50 a9 c1 bd 8a db 13 be 14 25 47 3d 12 0f b3 3d
       -0.09456122 -0.14439216 0.048619345 0.08743109
000010 a1 57 50 be f9 dc 3a 3e 80 38 89 3d 4a 63 2c be
       -0.20345928 0.18248357 0.0670023 -0.16834751
000020 c7 f6 10 be ba ba 71 3d 02 fb 8a bd 88 ed 14 be
       -0.14156638 0.059015967 -0.06786157 -0.14543736
000030 51 15 33 be 32 4b 31 3d be 26 9f bd 61 9b 5e be
       -0.174886 0.043284602 -0.07771061 -0.2173896
000040 4f 1a 09 3e cc 1e a7 bd ae 95 f8 3d e3 6f a0 bd
       0.13388942 -0.08160171 0.12137924 -0.07833841
000050 5c 74 8b bd f3 86 e3 3d a8 f6 0f 3e 39 88 1f 3c
       -0.06809303 0.11109724 0.14058936 0.009737068
000060 63 b4 3b be a4 71 8a 3d 0b 04 3d 3e 12 0b cc bd
       -0.18330531 0.067599565 0.18458574 -0.09963049
000070 a6 71 e0 3d 3e 44 09 3e f9 6b 4a 3d 1d da f5 3c
       0.10959177 0.13404939 0.049419377 0.030011231
000080 c8 97 24 3e 8a 0f 56 3e 63 8c 40 3d 94 22 05 be
       0.16073525 0.20904365 0.047008883 -0.13001472
000090 1e 61 ac bd f6 d3 9f bd d5 e3 99 3d e7 e0 36 3d
       -0.08416961 -0.078041 0.07514159 0.044648077
0000a0 53 1e 13 bd 48 6d cc bd 84 73 66 3d f2 8c c1 3d
       -0.03591759 -0.09981781 0.056262508 0.09450711
0000b0 28 c7 08 3e 5a 87 04 be bf f9 4d 3d c9 ad 4c bd
       0.13357222 -0.12942258 0.050287005 -0.049970422
0000c0 2b 7b ac 3c a3 91 4b 3d bf a9 c9 3c 20 3e c5 3c
       0.021054825 0.049699437 0.024617074 0.024077475
0000d0 bb 97 05 be 28 90 b9 bd 90 03 06 bd 39 3c da bc
       -0.13046162 -0.09060699 -0.03271824 -0.026640045
0000e0 e8 fa 1e be 83 51 49 bb 8c 86 39 be 07 3b d0 3d
       -0.155254 -0.003071875 -0.18117732 0.101675086
0000f0 f8 0d e5 3c 22 65 ac 3d 05 a4 b5 3d c2 d6 a2 bd
       0.027960762 0.08417727 0.08869175 -0.07951118
000100 cc a1 87 bd 98 36 03 be df 3c 6e bd 45 12 a6 3d
       -0.06622657 -0.12813795 -0.05816352 0.081089534
000110 d0 24 12 3e 09 27 b7 3d 3c a4 ff bd ca 15 80 3d
       0.14271855 0.08942992 -0.12482497 0.06254156
000120 14 74 fd 3d 92 e3 60 bd 2a a9 63 bc 18 4a 6e 3d
       0.12375656 -0.054904528 -0.013895312 0.05817613
000130 60 6b a6 bc de 19 9a 3d 4b 4b b0 3d 10 84 91 bd
       -0.020314872 0.07524465 0.08608111 -0.07105267
000140 7f 00 07 3d e9 e5 de 3d 03 ca 67 bd 59 51 78 3d
       0.032959457 0.10883696 -0.056589138 0.060624454
000150 e4 2c bd bc ca 12 fe bd e7 33 b0 3d e8 28 16 bd
       -0.023092695 -0.124059275 0.086036496 -0.036660105
000160 00 11 97 bd d3 7c 04 3e c6 35 1f 3e 74 1f fe bc
       -0.07376289 0.12938242 0.15547857 -0.031020857
000170 cc cd ca bd 1a 47 3c 3b 53 81 51 bd cb 5b 25 3d
       -0.09902534 0.0028728903 -0.051148724 0.040370744
000180 cb 6b dd 3d a5 1c 6b 3e f5 52 69 3d 30 28 14 3b
       0.108115755 0.22960146 0.05696388 0.0022606961
000190 50 55 4c 3d 80 69 c2 3d 03 02 09 be f4 e8 08 be
       0.049886048 0.09492779 -0.13379674 -0.13370115
0001a0 2a a7 5b be 26 f4 6c bd e7 31 9e 3d 9a f0 9b 3d
       -0.21450487 -0.057850026 0.07724362 0.076142505
0001b0 aa e0 49 bd 0b bc 95 3d 0f 11 1a be 8b 43 25 3e
       -0.049286522 0.07311257 -0.1504557 0.16139047
0001c0 b7 9b 42 3d cc 06 f4 3d c3 cf 96 bd 71 41 c4 bb
       0.047511782 0.11915359 -0.07363846 -0.0059892465
0001d0 74 08 1c 3e f1 ff de bd 7a 2b 32 bb de 08 9b bd
       0.152376 -0.10888661 -0.0027186559 -0.07570051
0001e0 80 19 3d be e9 77 cf 3d 53 b6 0d 3e b6 64 85 bd
       -0.18466759 0.10130293 0.13839082 -0.0651335
0001f0 d4 c8 5e be 80 e6 19 3b 2e 78 b6 3b ba 54 97 3d
       -0.21756297 0.0023483336 0.0055685258 0.07389207
000200 12 23 42 bd 98 a8 b4 3d 7d 6d 41 3e 2f 4f c1 3d
       -0.047396727 0.08821219 0.18889423 0.09438931
000210 81 a8 b8 3c c8 16 86 3b ed 54 81 3d 77 8e 58 be
       0.022541286 0.004092071 0.063150264 -0.21148096
000220 7d d5 87 bc 21 cc 29 3e 6f 80 bb 39 35 3b fc bd
       -0.016581291 0.16581775 0.0003576311 -0.1231598
000230 a5 e3 18 be b7 48 c0 bd dd e1 8d 3c c4 87 03 3e
       -0.1493059 -0.09388869 0.017319614 0.12844759
000240 7e f2 92 bd a8 a6 cf 3d ab b5 4a 3e 41 c4 d6 3a
       -0.07175158 0.10139209 0.19795863 0.0016385393
000250 df b4 48 3e a8 82 cc bd dd ba b0 3d d1 1e ad 3d
       0.19600247 -0.09985858 0.08629391 0.084531434
000260 36 2b 77 be d6 1d fa 3d cd 62 3b be 68 eb 89 3b
       -0.24137577 0.12212722 -0.18299408 0.004208971
000270 77 79 d3 bd 19 15 c5 bd 7d 95 f1 bc 93 1e 90 3d
       -0.10325902 -0.09623165 -0.029490227 0.070370816
000280 26 bf 5c be ec 48 65 be 83 9f dc bc 71 6e 71 3e
       -0.21557292 -0.22391099 -0.02693153 0.23577286
000290 cb 09 26 bd 79 0b 2a bd 34 d2 84 bd 21 ca c9 bd
       -0.040536683 -0.041514847 -0.064854056 -0.09853006
0002a0 1b 1b 1d be 19 0f 47 3e b6 e7 27 3d eb 01 92 bd
       -0.15342371 0.19439353 0.04099246 -0.07129272
0002b0 87 a6 75 3d 82 e0 4b be 11 0a 73 3d 82 f9 91 be
       0.059973266 -0.19909862 0.059335772 -0.28510672
0002c0 62 50 ae 3d da b3 32 be 3e 6f 76 3c b4 3e 3d be
       0.085114256 -0.1745142 0.015041171 -0.1848095
0002d0 89 ef 7d bd 92 34 90 3d 0d bc 9e bd a1 a9 8f bd
       -0.061996017 0.07041277 -0.077507116 -0.07014776
0002e0 34 a3 3c be d1 90 a4 bc 6f 69 01 bd 6e cf 72 bd
       -0.18421632 -0.020088585 -0.03159469 -0.05927985
0002f0 b1 0f 28 3e af 73 8b bd 40 f7 f4 bd cd 67 4d 3e
       0.16412236 -0.06809174 -0.11961222 0.20059128
000300 91 cc a7 bd 2f 0b 40 bc d3 68 5d be d8 5d cb bd
       -0.08193315 -0.011721416 -0.21622019 -0.09930009
000310 63 a2 00 bd 4d c7 20 be 36 5f 6c be 9c 0a e5 bd
       -0.031404864 -0.15701027 -0.23083195 -0.11183664
000320 f0 e6 81 bd 32 a0 92 3b 51 8a 68 3d b0 09 bb 3d
       -0.06342876 0.004474663 0.056772534 0.09132707
000330 48 5f 86 bd 14 37 47 bd e9 61 5e be de c9 14 3d
       -0.06561142 -0.04863651 -0.21717037 0.036325328
000340 d6 a2 82 bb 3a 3b ea 3c 80 8e 52 3d 0a 40 31 3d
       -0.0039866967 0.028592695 0.05140543 0.043273963
000350 70 66 6a 3d 73 b1 b8 bc 8c ec dc bd 95 18 4b be
       0.0572266 -0.022545552 -0.10787305 -0.19833596
000360 27 09 4b bd 5d 38 07 3e 5d 26 ce bd b7 8c fc bc
       -0.049569275 0.13205095 -0.10065911 -0.030828817
000370 f7 09 cb 3d b7 eb 49 3e ac e1 58 bd 53 0d 0d bc
       0.0991401 0.19718824 -0.052949592 -0.008609134
000380 26 37 ca bd ba 8b 35 be 29 9e 28 3a 9c 6e 1f 3e
       -0.098738 -0.17729083 0.0006432259 0.15569538
000390 4b 9c 0d bd ee 79 08 3e 05 90 11 be 8b 99 a8 3d
       -0.03457288 0.13327762 -0.14215095 0.08232411
0003a0 02 df 46 be de 77 a3 3d 6c 6c 93 bd e0 1e 2d be
       -0.19421008 0.07981847 -0.07198414 -0.16906309
0003b0 e9 57 4c bc f7 57 32 bd f9 10 c1 bd f0 47 01 be
       -0.012472131 -0.04354092 -0.094270654 -0.12625098
0003c0 83 30 20 3d 1c 3f c7 bd 53 d4 dd 3d 37 0b 8f b9
       0.039108764 -0.09728834 0.10831513 -0.0002728344
0003d0 c9 94 4a 3b 90 1d d3 3b e6 ea 9f bd ad e6 41 bd
       0.0030911437 0.006442733 -0.07808475 -0.04733913
0003e0 ef 74 37 be 89 f4 87 bd cc 0a 61 bd 20 a7 08 be
       -0.179157 -0.06638438 -0.054941937 -0.13345003
0003f0 25 e3 2d 3d 3e 53 4b be ce 51 fc 3c a4 92 1d be
       0.04245295 -0.19855973 0.030800726 -0.1538797

model.rnn.bias_ih_l0 f4 [160]
000000 68 df 03 3e 39 63 d4 3d bd 72 b0 bd 8b 25 de 3d
       0.12878191 0.10370488 -0.086156346 0.108470045
000010 54 df 9b 3d c1 76 a6 3e dc df c2 3d 85 c5 f0 3d
       0.07610956 0.32512477 0.09515354 0.11756424
000020 29 94 0f 3e 18 4f cd bd ba 7e d7 3d d5 84 a9 3e
       0.14021362 -0.100248516 0.10522218 0.33109155
000030 44 3c f3 3d 5b 71 88 3e b1 f2 c5 bc ac cc 1e 3e
       0.11876729 0.26648983 -0.024163576 0.15507764
000040 a6 15 0a be d2 51 4b be 8f 7d b7 bd 17 21 95 3e
       -0.1348482 -0.1985543 -0.08959495 0.29126808
000050 b9 fa 62 3d 37 e2 c3 3d ec a6 fc bd a6 d4 e5 bd
       0.05541489 0.095646314 -0.12336525 -0.112222
000060 1b 92 7c 3e 83 cd 1b 3e 2e 76 3a 3e aa b0 ef bd
       0.2466511 0.15215115 0.18209144 -0.11703618
000070 ec 3f 79 3e 81 13 92 3e bb fd 92 3d b2 99 f1 3d
       0.2434079 0.28530505 0.071773015 0.11796893
000080 0c 92 99 3e 06 6b ed 3d aa 76 72 3d de a4 f8 3d
       0.29994237 0.11592679 0.059195198 0.12140821
000090 2c 04 fd 3d 68 c7 bd 3d 8e 8d 6a 3c e9 c1 08 3d
       0.12354311 0.09266549 0.014315976 0.033388052
0000a0 20 90 9c 3d 35 02 d7 3d 9a 52 80 3d 7b 05 b9 bd
       0.07644677 0.10498468 0.06265755 -0.090342484
0000b0 17 f3 7b 3e d1 b1 15 3e 05 b4 90 3d e1 7a 12 3e
       0.2460445 0.14618613 0.07065586 0.14304687
0000c0 db ae 26 3d 59 1d 04 3e d5 64 a2 3d 93 b0 01 3e
       0.0406941 0.1290182 0.079293884 0.12665014
0000d0 c6 8f 36 bd 98 5e 0a 3e 14 88 91 bd 6e 0d d4 bd
       -0.044570707 0.13512647 -0.07106033 -0.10354124
0000e0 93 46 2f bd 18 31 91 bd 6e 27 1a be 48 da 48 3e
       -0.042791914 -0.07089442 -0.15054104 0.19614518
0000f0 23 03 d1 3b 64 48 16 be de 87 6c 3e da 58 0a 3e
       0.0063785478 -0.14676052 0.23098704 0.13510457
000100 f6 bf 29 3e 38 56 37 3e 8b 22 94 3c b8 84 d3 3d
       0.16577134 0.17903984 0.018082878 0.103280485
000110 0c e7 09 3e 21 5f 85 3c 10 7f 06 be 5b d3 11 bd
       0.13467044 0.016280713 -0.13134408 -0.035601955
000120 1d de d4 bd 50 8a 02 3e 73 07 06 3e 58 e9 e7 bc
       -0.10393927 0.12748075 0.13088779 -0.02830951
000130 0b 4d c9 bb 3c 2d 67 be be 0f b2 3d 1d 7f 82 3c
       -0.0061432174 -0.2257585 0.08694409 0.015929753
000140 73 95 96 bd 58 09 01 be 6f 30 2a bd ed 83 02 3e
       -0.07352724 -0.1260122 -0.041550096 0.12745638
000150 f4 e2 e0 bb 56 2e 40 3e 20 24 14 be d9 dc 4d be
       -0.0068629924 0.18767676 -0.14466906 -0.20103778
000160 43 74 82 bd 0e 65 b4 bd 8c 52 16 3e b0 0b ff 3c
       -0.063698314 -0.08808337 0.14679927 0.031133503
000170 68 c0 93 3c ab 0d 27 3d ce df 1d 3d 32 c0 df 3c
       0.018036082 0.04078452 0.038543515 0.027313326
000180 83 2a 1c 3d b2 67 bb bd ef d9 a7 3d d0 6f 66 bc
       0.03812648 -0.09150638 0.081958644 -0.014064744
000190 06 0d fc bd 70 1c 23 3e 48 d9 bc bc 5b 8e 4b 3e
       -0.123071715 0.15928817 -0.023052827 0.19878523
0001a0 42 43 0a 3e 91 a8 34 bd e9 b3 b1 bd 66 64 25 be
       0.1350222 -0.04410607 -0.08676893 -0.1615158
0001b0 4a 9b 03 bd 59 37 ad 3d 1e da 0e bd d9 1c 80 3d
       -0.032130517 0.08457822 -0.03487598 0.06255502
0001c0 bc d8 a6 3b 44 c9 0c 3c 3a 47 53 be 50 31 9c bd
       0.0050917547 0.008592907 -0.2063264 -0.07626593
0001d0 d4 52 81 bd 19 60 da 3c b4 59 38 3d ba 89 13 3d
       -0.06314626 0.026657151 0.045007423 0.03602002
0001e0 fa 99 c3 3d 76 b4 c1 bc 8b ba 4c 3c 7c f7 d8 3c
       0.09550853 -0.02364562 0.012495647 0.026485197
0001f0 05 bd 9a 3e a3 de 4d 3e 0b 49 86 3e 7f 55 09 bc
       0.30222335 0.2010446 0.26227602 -0.0083822
000200 c2 4a 1e 3e 3c c0 35 3c 42 d8 e1 3d 0d c6 f7 3d
       0.15458205 0.0110931955 0.11027576 0.12098322
000210 e8 46 d7 3d a3 e7 20 3e 65 8a ab 3d 06 e3 0f 3e
       0.10511571 0.15713362 0.08376006 0.14051446
000220 32 59 e1 3d dc 9b 57 be 5f fd f4 3d 01 a5 dc 3c
       0.11003341 -0.2105555 0.11962389 0.026934149
000230 37 e8 1f 3e cf dc 80 3d f8 b8 96 3d 70 3b 62 bd
       0.15615927 0.06292116 0.07359499 -0.055232465
000240 e0 05 6f 3c 5b 80 a3 3e 08 68 ab bd dc 96 1c bc
       0.014588803 0.31933865 -0.08369452 -0.009557452
000250 96 8a 0a 3e d5 1f da 3d 5c f5 d0 bd 3f 5c e4 bd
       0.13529429 0.10650603 -0.102030486 -0.11150407
000260 a5 bb dc 3e 97 57 80 3d 07 a6 17 3e 17 2b 5f 3b
       0.4311191 0.062667064 0.14809428 0.0034052783
000270 cc b9 0e bd 40 9c f4 bd cb 2e e8 3d 7b 81 32 3d
       -0.03484516 -0.11943865 0.1133705 0.043580513

model.rnn.bias_hh_l0 f4 [160]
000000 df 1f 0b 3e ce dd b4 3d 8a 62 b8 3d 42 af a4 3e
       0.13586377 0.088313684 0.0900317 0.3216496
000010 e4 85 dc 3d 5f 24 8c 3e 70 09 b7 3e 4c d3 0e 3d
       0.10767725 0.273715 0.35749388 0.034869477
000020 22 29 be 3e c7 f6 d9 bd 92 85 78 3e 7c 00 0a 3e
       0.37140757 -0.10642772 0.24269703 0.13476747
000030 15 ee ea 3d 7f b8 a8 3e 35 af ad 3d ab 18 93 3e
       0.11471192 0.3295326 0.08480684 0.28729758
000040 35 30 30 3c 52 0b 80 be c1 b2 6d bd c4 ea 60 3e
       0.010753681 -0.25008637 -0.0580318 0.21964556
000050 00 77 ef 3d a5 00 ca bd 92 f7 0c be 5a e1 ab bd
       0.11692619 -0.09863404 -0.13766316 -0.08392592
000060 34 62 d9 3c 24 9e 23 3e 32 8e 09 3e 52 a2 b3 bb
       0.026536085 0.15978295 0.1343315 -0.0054819966
000070 9c 5f 38 3e 34 47 0a 3e 81 db bb bc 9a 69 6a 3d
       0.18005222 0.13503724 -0.022931816 0.057229616
000080 2c fe d4 3e 71 c0 8a 3d 7c 67 d1 3d a5 31 23 3e
       0.41600168 0.067749865 0.10224816 0.15936907
000090 10 db 0b bd b7 41 5f 3d 63 8a 88 3d a3 64 0e 3e
       -0.03414446 0.05450603 0.0666702 0.13905577
0000a0 8d 47 ae bd 9d fa 14 bd 31 3c 90 3d 82 53 91 3d
       -0.08509741 -0.036371816 0.070427306 0.07096006
0000b0 d7 ca 67 3e ed 9e db bd da c5 05 3e 75 a2 48 3e
       0.22635971 -0.10723672 0.13063756 0.19593222
0000c0 c0 4c 3e 3e 2a 9d 49 bd a2 2a 29 3e f9 2e 33 3a
       0.18583965 -0.04922215 0.1652017 0.00068353076
0000d0 97 9e 04 bd 9c 12 45 3e 89 09 4a bc bb c8 69 bd
       -0.032377806 0.1924538 -0.012331375 -0.057076197
0000e0 6e 99 b0 bd 4c e6 18 3d c7 47 32 bd af 49 35 3b
       -0.086230144 0.037329003 -0.043525483 0.0027662327
0000f0 de a6 1b 3e 70 a4 d3 bc 8a d7 1f 3d ec 37 8c 3d
       0.15200374 -0.025835246 0.039023913 0.06846604
000100 f1 63 a8 bd 8f 87 d5 3c 5b b8 c4 3d be b9 25 3d
       -0.08222187 0.026065616 0.096054755 0.04046034
000110 14 60 d6 3d 27 79 c4 3c 06 ee 72 bd b1 46 21 bc
       0.10467544 0.023983551 -0.059309028 -0.009843514
000120 88 7a 07 3d a0 82 0f be 9c 4e 33 bd 21 33 a4 bd
       0.03307584 -0.14014673 -0.04377614 -0.080175646
000130 32 5a 0c bc 46 7f 73 be 8b ca 34 3e b8 7c 33 3e
       -0.008566426 -0.2377902 0.17655389 0.17528045
000140 cd 64 2d 3b 8e b2 71 3d 7b e1 09 3e 0e 1e fc 3d
       0.0026457787 0.059008174 0.1346492 0.1231042
000150 de fb a4 bd 95 f1 41 3d 1f 47 5f be 56 33 95 bd
       -0.08055852 0.04734953 -0.21804474 -0.07285182
000160 91 f1 8b be e1 8d 66 3b 3d 99 10 ba 6f 5f 27 bd
       -0.27332738 0.0035179781 -0.00055159983 -0.040862497
000170 46 c7 1e 3d cc 8a 46 be 6e 9e e7 bd 90 2e b7 bd
       0.03876426 -0.19388884 -0.11309515 -0.08944428
000180 09 c6 6c bd fe de af bd 23 e0 6b 3c a7 55 b4 3c
       -0.05780605 -0.08587454 0.0143967 0.022013498
000190 b4 29 a7 bc 45 38 35 3c 8f c9 6e 3d 95 c1 14 3e
       -0.020405628 0.011060779 0.05829769 0.1452697
0001a0 8d 54 a5 bd 19 3d 80 be 09 79 f1 3c f3 a1 86 3d
       -0.080727674 -0.25046614 0.02947666 0.06573858
0001b0 8f 00 53 3d 04 52 af 3d e1 86 ea bc ea 85 40 3e
       0.051514205 0.08560565 -0.028628768 0.18801084
0001c0 a6 c3 23 3e a9 e4 ff bc da cb f7 bd 2f 7a 22 be
       0.15992603 -0.031236963 -0.120994285 -0.15866922
0001d0 a6 3c a2 bd 2a 16 51 3d ca 94 48 3d e5 6a 99 bd
       -0.07921724 0.051046528 0.04897002 -0.07491092
0001e0 fe aa 1d 3e 53 3d 61 3e 35 60 10 3e 5b 41 4a 3e
       0.1539726 0.2199605 0.140992 0.19751494
0001f0 a7 8c fb 3d 08 18 87 3e 8f 4a 8e 3e 5b 43 da 3b
       0.12282687 0.26385522 0.2779126 0.0066608614
000200 98 e5 39 3d 9b 86 9c bd 47 47 37 3e b4 90 59 3e
       0.045384973 -0.076428615 0.17898284 0.21246606
000210 8d d8 ae bd 8b 5a a2 bc 91 2b 9d 3d a8 29 ae 3e
       -0.085373975 -0.019818565 0.07674325 0.34016156
000220 46 66 d8 3d b2 80 77 be d3 33 f1 3c 2c cc 57 bd
       0.10566382 -0.24170187 0.029443657 -0.052684948
000230 0d f0 f9 3c 4b aa 46 3e c6 9d 32 bd 84 0b 76 3d
       0.030509973 0.19400899 -0.043607496 0.060069576
000240 95 9f 32 3d 73 92 22 3e c0 c9 a0 bd 0b d2 e6 bd
       0.04360922 0.15876178 -0.07850981 -0.11270531
000250 95 39 f9 3c ad da cc 3c 51 9d 5b 3b f0 d9 11 bd
       0.030422965 0.025006616 0.0033510516 -0.035608232
000260 f9 36 a8 3e 51 48 51 3e bc 89 81 bc 54 71 41 3e
       0.3285444 0.20437743 -0.015812747 0.18890887
000270 c3 5d 22 3e 17 3c 1d 3e ac 36 e5 3d e7 ac 62 bc
       0.1585608 0.15354954 0.111920685 -0.013835168

model.rnn.weight_ih_l1 f4 [160, 40]
000000 c7 6a 9a bd e4 fd 6d bd cb 8b 10 bc d9 cf 43 3e
       -0.075398974 -0.058103457 -0.008822392 0.19122256
000010 04 af 92 bd fe cf 8c 3e 08 23 8c be 7a a6 92 be
       -0.07162288 0.27502435 -0.27370477 -0.28642637
000020 f2 4f a0 be b5 03 bb 3d 58 3b 42 3e 5f 8b e1 bd
       -0.31310993 0.091315664 0.1896795 -0.11012911
000030 f3 89 76 be 52 b8 b2 bd 98 ab cf 3d f3 80 28 be
       -0.24076061 -0.087265626 0.10140151 -0.1645544
000040 f2 7a dc bd a5 93 54 bd 15 2f 38 bd 2a d4 48 be
       -0.107656375 -0.051898617 -0.044966776 -0.19612184
000050 6e 58 11 ba 62 65 0e 3e a0 a5 44 bd 44 7a d2 bc
       -0.0005544488 0.13905862 -0.048009515 -0.025693066
000060 9e df 29 bd 97 c7 30 be 74 e5 38 3a fc fc 1e 3e
       -0.041473024 -0.17263637 0.0007053234 0.15526193
000070 a9 0e 0b 3c b1 93 0d 3c b5 a1 45 3d 3c de 04 3e
       0.008487382 0.008641169 0.04824992 0.129754
000080 4a c1 32 be 60 77 83 bd 5f d1 94 bc 08 d4 be 3b
       -0.17456546 -0.06419253 -0.018166242 0.005823616
000090 9c 55 6d 3d 5c 14 95 bd 31 d4 04 be 97 f5 40 3d
       0.05794297 -0.07279274 -0.1297157 0.047109213
0000a0 8e 10 40 be f0 44 7e be cf e6 fc 3d ab 42 bf 3e
       -0.18756315 -0.24830985 0.12348711 0.3735555
0000b0 5a 9d 2a be 63 02 92 3c 0b ed f9 be 86 08 fa bc
       -0.16661587 0.017823404 -0.48813662 -0.030521642
0000c0 ac f2 e3 be 5e 1e 03 3e b4 56 01 3e 64 4e 05 bd
       -0.4452108 0.12804553 0.12630731 -0.032545462
0000d0 18 c1 a0 be 6c 46 68 be a4 ca 48 3e fb fd f1 be
       -0.3139732 -0.22683114 0.19608551 -0.47264084
0000e0 60 7c 2c be 0c 10 e5 bc db 64 52 be 1f bb 8d be
       -0.1684432 -0.027961753 -0.20546286 -0.27681825
0000f0 a6 3b 45 be 15 d6 0a 3c b5 bc 35 be 78 8d a2 3d
       -0.19261035 0.008473893 -0.17747767 0.07937139
000100 6d 6d a0 bd 9e 0d b5 bc c7 96 ff 3c f5 27 f2 bd
       -0.07833371 -0.02210122 0.031199826 -0.118240274
000110 c4 59 3e 3e c5 b3 ef 3c d7 84 8c be 17 51 10 3e
       0.1858893 0.029260525 -0.274451 0.14093433
000120 e3 73 28 be 13 24 8a 3e a5 1a d1 be b0 66 98 bd
       -0.16450457 0.26980647 -0.4084064 -0.07441461
000130 fc 00 96 3d 5d ec 89 be 46 6b 98 be f5 95 a0 3b
       0.073244065 -0.26938143 -0.29769343 0.004900689
000140 61 1f 5c bc 94 a3 16 3c 06 f7 cd 3d e1 2e a8 3d
       -0.013435216 0.0091942735 0.100568816 0.082120664
000150 1f c2 4b bd 2c 21 91 bd 56 e4 b7 bd db a1 27 be
       -0.049745675 -0.07086405 -0.089790985 -0.16370337
000160 fe 7d eb bd dd a5 87 bd 3c fc ef bd 33 31 12 be
       -0.114986405 -0.06623433 -0.11718032 -0.1427658
000170 db 47 35 bc 1e 28 d8 3c ad 3b 24 3d 71 94 44 3d
       -0.011064495 0.026386317 0.040095974 0.047993127
000180 2d 1a 6f 3c 4a 48 c7 3e 88 a8 56 bd 41 b5 95 bd
       0.014593643 0.3892234 -0.052406818 -0.07309962
000190 cd d3 04 3e f9 ec 5e bd 25 69 7c bd 4f d6 a8 bd
       0.1297142 -0.054425213 -0.06162371 -0.08244001
0001a0 37 fe 8f 3d 3b 90 f7 bd dc 6a 95 3d ca 4e 0c 3e
       0.070309095 -0.12088057 0.072957724 0.1370193
0001b0 de 08 a7 3d 75 7e d4 3d f2 7e 21 be c6 9f 15 be
       0.08155988 0.10375682 -0.15771082 -0.1461173
0001c0 74 89 ed 3c e8 9f 63 3e 97 a0 c0 3d d6 08 4d bd
       0.028996207 0.22228968 0.0940563 -0.050057255
0001d0 c6 73 f2 3d 16 17 b6 be 02 a6 b1 3d a2 37 0e be
       0.11838488 -0.35564488 0.086742416 -0.1388841
0001e0 3f 1e 87 bd cb e4 9c 3c c2 27 e5 bd 78 3b 99 bd
       -0.06597566 0.019152066 -0.11189224 -0.07482046
0001f0 86 5f 90 3d 11 95 31 3e 6e a0 16 3e 3f 80 e1 3d
       0.0704947 0.1734202 0.14709637 0.11010789
000200 78 ff c7 bc 08 d3 50 bc 69 9b dd 3d da cc 2b be
       -0.02441381 -0.012745626 0.10820658 -0.16777363
000210 5b 2c d2 bd e9 e9 c1 bd cc ab 9a bd 47 49 d7 bd
       -0.102623664 -0.09468443 -0.07552299 -0.105120234
000220 62 22 2b 3d 1b 77 31 be cf 6e e7 3d 71 4e 0d be
       0.041780837 -0.17330591 0.11300432 -0.13799454
000230 6d 62 e0 bc 3a d7 41 3d bb f4 04 be a4 78 0c 3e
       -0.027390683 0.047324397 -0.12983982 0.13717896
000240 97 60 ac 3d 3d d1 46 bc 07 61 c1 3c bf dc 25 3e
       0.084168606 -0.012134847 0.023605837 0.16197489
000250 e1 e6 f5 3d 7f b6 1b bd b2 04 56 3e 0d d4 9f 3d
       0.12006927 -0.03801584 0.20900229 0.07804117
000260 25 39 f5 bc b6 41 85 3d b2 7c ee bd 0d aa 14 be
       -0.029934475 0.06506674 -0.116448775 -0.14517994
000270 da 4c 52 3d a9 72 ac 3d 02 3c 1a 3d db c8 de bd
       0.051342823 0.08420307 0.037654884 -0.10878154
000280 d7 7f 20 be 6c 39 10 be 2f 04 19 be 74 58 85 bd
       -0.15673767 -0.14084405 -0.14943002 -0.06511012
000290 29 89 ba 3d 8f fa 25 3e 75 5d be 3c 8b 6c f1 bb
       0.091081925 0.16208862 0.023237923 -0.0073676757
0002a0 e4 a8 c9 3d d0 07 33 be fd 8f bc 3d 23 78 cc 3d
       0.098466665 -0.17483449 0.09207151 0.09983852
0002b0 1f 36 81 bd 44 d7 48 be a4 ba 1a bc ca d5 68 3d
       -0.06309151 -0.19613367 -0.009443913 0.05684451
0002c0 63 ac 42 3d 19 17 e1 bd ff 87 d5 3d c5 da 98 3d
       0.047527682 -0.10990734 0.1042633 0.07463602
0002d0 6d b3 dd bb aa 80 ff bd b6 a3 83 3c ee 4a 23 bc
       -0.006765774 -0.124757126 0.016069274 -0.009966595
0002e0 7d fe 0e 3e fc cc df 3d 69 c5 fc 3d 38 ff 05 3e
       0.13964267 0.109277695 0.123423405 0.1308564
0002f0 52 fb eb bd cb 38 16 be bc 35 57 3e e1 7a 2d bd
       -0.11522545 -0.14670102 0.21016592 -0.042353515
000300 50 4e 7f 3d e7 23 94 be 90 58 56 bd 02 75 2e 3d
       0.062330544 -0.2893364 -0.052330554 0.042592056
000310 30 19 24 be a3 25 b3 3d 69 06 02 3d 92 94 43 3d
       -0.16025233 0.08747413 0.031744394 0.04774911
000320 25 b0 c0 be 51 7e 88 be 65 15 97 3e 64 d5 ba 3e
       -0.37634388 -0.26658872 0.2950851 0.3649093
000330 ff 7c 8c be 30 07 48 3d 03 04 cb be 66 0a fa bc
       -0.27439114 0.04883498 -0.39651498 -0.030522536
000340 40 a3 c0 be fe c5 d5 3c 4c 3d 46 3d 84 fc 48 be
       -0.3762455 0.026095387 0.0483983 -0.19627577
000350 5c 5d 1b be a6 f6 29 be dc 86 82 3e c5 3d bc be
       -0.15172333 -0.16597995 0.25493515 -0.36765876
000360 c1 f6 8f be 42 92 0d 3e 78 75 9d bd 28 8c 7f bd
       -0.28117946 0.13825324 -0.07688421 -0.062389523
000370 5c f8 3f be d1 d8 23 3e 8c a0 3b 3c 07 86 f8 3d
       -0.18747085 0.16000678 0.011451852 0.12134939
000380 1b 14 b2 bd 6f 30 80 be 1b d4 88 3e c7 41 09 bd
       -0.08695241 -0.25036952 0.26724324 -0.033509996
000390 a4 01 9a 3e 3b 67 94 3c 3e c2 aa bd 19 19 3f 3b
       0.30079377 0.01811563 -0.0833783 0.0029159246
0003a0 24 e8 20 be 11 a8 8b 3e bf 6d 6f be 49 57 94 be
       -0.15713555 0.27276662 -0.23381709 -0.28972843
0003b0 b4 83 83 3e df de 63 be 60 78 c7 be 4a fe ff bd
       0.2568642 -0.22252987 -0.38959026 -0.12499674
0003c0 d0 50 82 bd ae 5a eb bd 25 55 f5 3d 8d e3 60 3e
       -0.0636307 -0.11491905 0.11979131 0.21961804
0003d0 9c 25 b0 bd 20 57 d3 3d 0d 39 24 be 1f ac 8c 3d
       -0.086009234 0.10319352 -0.16037388 0.06868767
0003e0 d4 dd be bd 97 1f 60 3e f9 8d 15 3e be 3b b3 bd
       -0.09319654 0.2188705 0.1460494 -0.08751629
0003f0 32 d2 54 be 4c 08 e7 bc ff 34 52 3b 97 5a 0a be
       -0.20783308 -0.028202198 0.0032075045 -0.1351112

model.rnn.weight_hh_l1 f4 [160, 40]
000000 bc 1b 15 3c 75 ea 8f 3d fc 9f f1 3d 8b 0c 27 be
       0.009100851 0.07027141 0.11798093 -0.16313379
000010 9f ca b3 bb 44 88 67 bd 40 be 28 3d 09 67 5e 3d
       -0.005486801 -0.056526437 0.04119706 0.05429748
000020 ad 2e 92 3d 2c 9f 1b be 88 7b 78 3d 74 84 71 3c
       0.07137809 -0.15197438 0.060664684 0.014741052
000030 41 44 b8 3d f7 2d 2a 3e 59 11 04 be 5d d5 1b 3e
       0.089973934 0.16619097 -0.12897243 0.1521811
000040 96 73 b5 3d 05 59 99 3d 50 57 40 3e 85 9c 8d bd
       0.08859937 0.07487682 0.18783307 -0.06914619
000050 16 66 bf 3d 79 ed 99 bb e7 da a4 3d 8f 77 5c bd
       0.09345643 -0.0046974984 0.08049565 -0.053824957
000060 0e 60 48 bd d5 ee 88 3d 10 f3 ed bd b6 12 a8 3d
       -0.04891973 0.066861786 -0.11618626 0.08206694
000070 29 85 dc 3c 58 5d f1 3d 40 eb ee bc 4c bd 1c 3e
       0.026918964 0.11785382 -0.02916491 0.15306586
000080 00 b1 19 3e a2 3f e1 3d 9c 2d c5 3d 8d 12 e6 3d
       0.15008926 0.10998465 0.0962784 0.11234007
000090 57 18 23 bd 44 1b 23 bd 82 dc 88 3c f1 e3 91 bd
       -0.039818134 -0.039820924 0.016706709 -0.071235545
0000a0 52 33 d3 3d 5f 56 5b 3d e8 ed 35 bd 3d 8e 1b 3c
       0.10312523 0.053549167 -0.04441634 0.0094943615
0000b0 6f 18 af 3d 04 7c 0d be 80 aa 58 3d 29 16 55 3d
       0.08549582 -0.1381684 0.052896976 0.052023087
0000c0 1d 8c c2 3d 2b c1 09 be 86 b4 7f bd df 2c ab 3d
       0.09499381 -0.13452594 -0.06242802 0.08358168
0000d0 a1 d0 14 be 2f 30 06 3e dd 3e f7 3d 52 65 d7 bc
       -0.1453271 0.13104318 0.12072537 -0.02629343
0000e0 cb b6 b1 bd 69 b1 ef 3d b3 4b 2e bb 91 03 3a bd
       -0.08677443 0.1170376 -0.0026595413 -0.045413557
0000f0 3a 89 90 3d c8 c3 52 3b 50 6d 72 3d 9b 31 3b 3b
       0.07057424 0.0032160152 0.05918628 0.0028563503
000100 fd 10 16 bd 8d 06 67 bd 63 6d 03 3e e8 91 bc bd
       -0.036637295 -0.05640273 0.12834696 -0.09207517
000110 ec 86 e2 3d f8 3e f3 bd 18 fe 18 3e 7a 80 dd 3d
       0.110608906 -0.11877245 0.14940679 0.108155206
000120 8a 51 21 bc 10 02 3e bd ac 22 3e 3d 36 ab 07 be
       -0.009846101 -0.046388686 0.046419784 -0.13248906
000130 21 04 1d be a1 bc 09 be 0a 82 20 3e 1a 12 43 3e
       -0.15333606 -0.13450862 0.15674606 0.19049874
000140 60 c4 f5 ba 17 7e dc bd c6 5a 3c 3e a2 1e 2e be
       -0.0018750541 -0.10766237 0.18394002 -0.17003873
000150 6a 92 3a ba 99 fe ff bd 02 09 59 bc 29 47 5b 3d
       -0.00071171543 -0.124997325 -0.013246777 0.05353466
000160 1d be 33 3e 48 0a d5 3c 36 f2 33 be 54 4c d6 3d
       0.17552991 0.026005879 -0.17572865 0.10463777
000170 c0 4f b8 bd 67 77 81 3a d5 9c 28 3c 5a b9 43 be
       -0.08999586 0.0009877504 0.010291298 -0.19113675
000180 78 55 e5 bd f3 b2 05 be c6 32 1c 3e d1 71 d3 3d
       -0.111979425 -0.13056545 0.15253744 0.10324443
000190 ea c8 06 3e 0b 29 d3 bc 7a 7b e0 bd 98 3b e7 bc
       0.1316258 -0.025776407 -0.10961051 -0.028226659
0001a0 8f 0b d4 3d 1e b6 99 bd 39 80 fc bd 18 8d 07 be
       0.10353767 -0.07505439 -0.12329144 -0.13237417
0001b0 a8 e0 e3 bc ad 34 3b 3d 13 6e 86 bd 1e d8 fc 3d
       -0.027817085 0.045704532 -0.06563964 0.123459086
0001c0 69 ae 2d be 53 f9 81 bd 20 58 b4 3d e2 92 59 bd
       -0.16961063 -0.06346383 0.08805871 -0.053118594
0001d0 a4 86 fb 3d 80 86 12 be 3a de b9 3d d7 a4 96 bc
       0.1228154 -0.1430912 0.090755895 -0.018389149
0001e0 a6 f0 be bd 7a bd c3 3d 73 ec 64 be 9d 0f 14 3d
       -0.09323244 0.09557624 -0.22355823 0.036147702
0001f0 ec 4e 29 be 21 17 fd 3d 53 79 e2 bd 47 86 42 bd
       -0.16534013 0.12357927 -0.11058297 -0.047491338
000200 d8 61 9d 3d b4 2d 1a bd e2 cd f4 bc 1a d3 5b 3d
       0.07684678 -0.037641242 -0.029883329 0.05366812
000210 a3 60 6c bd f3 a7 2d 3e af b9 db bd d5 a5 ab bd
       -0.057709347 0.16958599 -0.10728776 -0.08381239
000220 a1 92 12 3e ea fb a3 3d a3 a6 c8 bd fa 41 81 bd
       0.14313747 0.08007033 -0.097974084 -0.06311412
000230 ff fc 46 be ea 4f 8f bd ab 60 28 3e 11 0c 29 be
       -0.19432448 -0.06997664 0.16443126 -0.16508509
000240 67 d8 71 bd b7 56 1a 3e 21 a2 08 3e 05 42 19 3e
       -0.059044268 0.15072142 0.13343097 0.1496659
000250 16 bc e3 bd 64 33 ff 3d 5e f4 b9 3c d4 a1 a7 3d
       -0.11119859 0.12460974 0.022699531 0.08185163
000260 04 65 cf bd 1e f5 ba 3d a1 a0 ac 3d 8e f8 f5 3d
       -0.10126689 0.09128784 0.08429075 0.12010299
000270 36 cf 95 bd b9 06 4c bd e8 c3 1e be f5 61 6f 3c
       -0.07314913 -0.0498111 -0.1550442 0.014610757
000280 3d e6 63 3d f5 b4 09 be 5a f0 19 bd 69 11 ec bd
       0.055639494 -0.13447936 -0.037582733 -0.11526758
000290 eb a0 7a bd a2 fa 00 3d 7b 02 98 3d 95 8e 54 3c
       -0.06118862 0.031489022 0.07422348 0.012973447
0002a0 c1 b4 11 3e 67 1e a0 be 36 2c 89 3d 90 54 b9 bd
       0.14229108 -0.31273195 0.06697886 -0.09049332
0002b0 98 b6 06 be b2 71 5d 3d 6f 58 56 3e 3c 60 0a be
       -0.13155591 0.054063506 0.20932172 -0.13513273
0002c0 5d 26 fe 3d 99 fb 7d 3d f5 fe 3b 3e e0 38 93 3d
       0.12409661 0.06200752 0.18358977 0.071885824
0002d0 3c 2e 62 be e8 0b c5 bd 37 1e 53 be 1c 0d 4b bd
       -0.2208795 -0.096214116 -0.20616995 -0.04957305
0002e0 08 db b8 bc 08 95 17 be c0 47 0f 3e 79 06 68 3e
       -0.02256538 -0.14802945 0.13992214 0.22658719
0002f0 86 5b 54 3c 64 a9 ee 3c 59 ba 0f 3e d3 e7 8c 3c
       0.012961274 0.029133506 0.1403593 0.017200386
000300 7b f6 81 3d a7 d4 33 3e 81 f4 4f bd d1 99 19 3e
       0.063458405 0.17561589 -0.050770286 0.15000083
000310 56 f9 d9 ba 7e 4f b5 bd ae df a1 bd f0 74 dc 3d
       -0.0016630094 -0.088530526 -0.07903992 0.107644916
000320 0b 3f ab bd c8 d5 3e 3c 7b 00 43 bc 27 fd 1b 3c
       -0.08361634 0.011647649 -0.01190197 0.009520805
000330 1f 42 94 3d eb 6f 8c bd 0d 4e 64 be a6 a0 a8 bd
       0.07239174 -0.06857284 -0.22295399 -0.08233766
000340 64 75 12 bd c1 10 95 bd 39 58 d8 bc 4d 60 c7 bd
       -0.035756484 -0.07278586 -0.026409255 -0.09735165
000350 68 b0 7a 3d 4d f1 08 3e e7 f9 22 bd fe 60 33 3e
       0.06120339 0.13373299 -0.039789107 0.17517468
000360 25 56 1b 3e 59 01 76 3e a5 13 7e 3e 53 0d cb bd
       0.1516958 0.24023952 0.24812181 -0.09914651
000370 4a 86 3b bd 3d 87 40 3e a5 9f d2 3d f5 d8 50 3e
       -0.045782365 0.1880159 0.10284356 0.20395263
000380 d4 4d 57 3e 2d b0 bd bd 8d 33 39 bd bd c4 d7 bd
       0.21025783 -0.092621185 -0.04521518 -0.10535572
000390 d9 61 ca bd 7a ef 9d 3c 09 7c b3 3d 2c ed e2 bb
       -0.09881944 0.01927923 0.08763892 -0.0069252457
0003a0 12 2e cc 3a 3d 35 a5 bd 69 83 0b 3e 11 d0 aa 3c
       0.0015577695 -0.08066795 0.13624348 0.020851167
0003b0 8e ef 0a bd f5 ee 28 be b8 f7 83 bc 00 cd 15 bd
       -0.033919863 -0.16497405 -0.016109332 -0.036572456
0003c0 5b 7b 4f be 15 2a 87 3c c4 cc 19 3e 8f b2 23 3d
       -0.202619 0.016499558 0.15019518 0.03996521
0003d0 48 cc 17 bc 9d 8b 1d be 47 55 5c 3d 5f 2d ec 3d
       -0.009265013 -0.1538529 0.053792264 0.11532091
0003e0 30 3a 2f be 4f e9 ca 3d 3c d8 b8 3d eb 6f 1b 3c
       -0.1711204 0.09907781 0.090256184 0.009487133
0003f0 d9 15 b4 bb b6 35 4d 3e ca 59 17 3e ae e1 43 3e
       -0.0054957685 0.2004002 0.14780346 0.19129059

model.rnn.bias_ih_l1 f4 [160]
000000 2a be dc 3d 44 e0 b5 3d 3f cf 5d 3c e3 42 55 3e
       0.107784584 0.08880666 0.013538181 0.20826297
000010 71 70 00 3e 68 aa 09 3e 9c f5 5a 3c e1 0a 23 3e
       0.12542893 0.13443911 0.013364222 0.15922119
000020 a9 cb 7d 3c 32 7f db bd 86 b8 1b 3e 2d bc 43 3e
       0.015490451 -0.1071762 0.15207109 0.19114752
000030 14 e3 cc bd 1b 57 af 3d 5e 6d fd bd a0 14 26 3c
       -0.10004249 0.08561536 -0.12374376 0.010136753
000040 a4 72 b9 3c 62 5f 0a 3d 55 b4 53 3d f9 10 bb 3d
       0.022637673 0.03378237 0.05168565 0.09134097
000050 05 02 93 3d bc 18 01 3e e1 75 dd 3c 63 70 42 3d
       0.071781196 0.12607092 0.027033748 0.04747046
000060 c2 72 a6 3d 6b 1e 76 bc bc c4 bd 3d 11 8c 8b 3c
       0.08127357 -0.015021901 0.0926604 0.017034562
000070 3e b5 9c 3e 99 2a 7a 3e c8 bb fb 3c cf 83 3c 3d
       0.30607027 0.24430312 0.03072919 0.04602414
000080 00 07 88 3e 64 8f 04 be 8f e6 90 3d 5e 98 50 3d
       0.2656784 -0.12945324 0.070752256 0.05092656
000090 45 7c 31 3e 9c 81 7d 3e 0f 22 f3 3d 2b 83 31 3e
       0.17332561 0.24756473 0.118717305 0.17335193
0000a0 85 63 1f 3e e3 52 c1 bd ca cd 1b 3e 08 7a 74 3d
       0.15565307 -0.094396375 0.15215221 0.05968669
0000b0 d5 5f a8 bb 56 b0 6f 3d 12 23 3f bc 8a 4a fd 3d
       -0.005138377 0.058517776 -0.011666076 0.12367733
0000c0 49 c4 22 be 11 a7 a6 bd 8c ec 94 bd 67 57 19 bd
       -0.1589519 -0.08137334 -0.0727168 -0.03743687
0000d0 7a c0 8d 3d f6 ec 76 bd 7f 9b f6 bd 19 f0 f0 3d
       0.069214776 -0.060284577 -0.12041377 0.11764545
0000e0 e2 c4 b8 3d cd 8e 76 bd 81 c0 73 3d bb 93 7a bd
       0.090219274 -0.06019478 0.059509758 -0.061176043
0000f0 27 2e 74 3d d1 eb e2 bd ff 2f fa bd 3f 4e 1a 3e
       0.059614327 -0.11080135 -0.12216186 0.15068911
000100 3e 50 d7 bc 79 d6 0e bd 26 99 d0 bd 0a 4a 08 be
       -0.02628338 -0.034872506 -0.10185461 -0.13309494
000110 2a 88 12 bd 3f a1 a5 3c a3 82 09 be 13 61 9c bd
       -0.035774387 0.02021849 -0.1342874 -0.07635703
000120 26 48 d1 3c dc 76 9b bd bd cb 48 3e f1 89 89 3d
       0.025547098 -0.0759103 0.1960897 0.06715763
000130 d1 ef c5 3d 22 7b 8e 3c 55 41 ca bd f4 65 23 3e
       0.09664882 0.017392699 -0.09875742 0.15956861
000140 51 1f 58 be 2e 6f 8f bd a8 92 66 3d 8f 4c 23 be
       -0.21105696 -0.07003628 0.056292206 -0.15947174
000150 3e 91 86 bb c5 ea 56 bc 64 0c 16 3e d4 0d 54 3d
       -0.0041066697 -0.013117497 0.14653164 0.051771
000160 7c 6d a2 3d 6d 90 38 bd 10 00 1d 3e 5d 74 3f 3d
       0.07931039 -0.04505961 0.15332055 0.046741832
000170 c7 e9 63 bd 5d 13 37 3e 63 78 f0 bd 18 ab 11 3e
       -0.05564287 0.1787848 -0.11741712 0.14225423
000180 be 49 2c 3e 11 84 b4 3b 9e 43 ac 3d ef 45 27 be
       0.16825005 0.0055089076 0.084113345 -0.16335271
000190 fd 26 d8 3d 89 23 33 3e 60 3c 0e bd ae 1f a6 3d
       0.105543114 0.17494024 -0.034725547 0.08111511
0001a0 ea a4 ba bc 58 d2 6a bd 81 00 09 bc 98 a3 fa bd
       -0.022783715 -0.057329506 -0.008361937 -0.12238234
0001b0 30 68 df 3b f8 1d ac bd 8a 89 79 3e 45 56 45 3d
       0.00681784 -0.084041536 0.24368873 0.048177976
0001c0 72 11 c2 bd ee 89 f3 3c ab b3 a1 3d 5e 98 43 be
       -0.09475984 0.029728856 0.07895597 -0.19101092
0001d0 97 d4 82 bd fc ea cb 3d 8f d5 d7 3c 38 60 cc 3d
       -0.063882045 0.09956929 0.02634695 0.0997929
0001e0 a0 21 de 3d 84 2a 5a 3e 97 ec 1c be 43 26 87 bb
       0.10846257 0.21305281 -0.15324627 -0.004124434
0001f0 28 0d 18 be 0e 7e e2 3d c8 6b 90 bd 22 cd 88 bb
       -0.14848769 0.11059199 -0.07051808 -0.0041748444
000200 a0 64 25 3d 4e 16 4b bd 3b 6b bf bd 7b 9c 8d bd
       0.040379167 -0.04958182 -0.093466245 -0.06914612
000210 db 3e 1f bd cb 1c 5a bd 0d 59 5c 3d cf 57 c1 bd
       -0.038878303 -0.053250115 0.053795863 -0.09440576
000220 d1 1e 0f 3d 98 54 18 3e 6f 40 9c 3d 53 a0 c0 3c
       0.0349415 0.1487602 0.07629477 0.023513949
000230 77 7d a1 3d 44 92 cb 3b ad b0 82 bb 11 48 64 3d
       0.07885259 0.0062125046 -0.0039883466 0.05573279
000240 f3 4a 1e 3e f9 62 42 3c 20 dd 33 3e b2 77 5d bc
       0.15458278 0.011864417 0.17564821 -0.013517307
000250 41 99 30 3e 9c 78 1b 3e 14 87 4e 3e c5 49 ca 3c
       0.17245962 0.15182728 0.20168716 0.02469338
000260 8c 65 5c 3e 5e 59 61 bd 77 c7 fa 3c 80 7f 03 3a
       0.21523112 -0.055016868 0.03061269 0.00050162524
000270 ea c3 59 3e ab 4f fd 3d d8 07 fa 3c 2a 58 c8 3c
       0.21266142 0.12368711 0.030521318 0.024456102

model.rnn.bias_hh_l1 f4 [160]
000000 7c e0 54 3e 23 0f 65 3e d2 90 90 3d 6c de 73 bd
       0.20788759 0.22369055 0.07058872 -0.05953829
000010 2a 80 fb 3d e6 d8 dc 3d 8c 97 0b 3d 87 00 23 bc
       0.12280305 0.107835576 0.034080073 -0.009948856
000020 a5 a6 02 3e 23 8f 8a bc 5f 01 f8 bc f4 4e 3c 3c
       0.12758882 -0.016913956 -0.030274091 0.011493433
000030 fa b4 44 bd f6 da 05 be e9 46 27 3c e1 1c 89 bc
       -0.048024155 -0.13071808 0.010209777 -0.016737403
000040 36 57 2a 3e 91 8e 4b 3e bf c5 92 3d 42 6a 05 3e
       0.16634831 0.19878604 0.07166623 0.13028815
000050 2c 5c 88 b9 67 af 7b bd b8 64 31 bc e9 8b 39 3e
       -0.00026008615 -0.061446574 -0.010827236 0.18119778
000060 e4 6f 52 3d 30 a7 27 3a b2 59 60 3d 87 e2 1e 3e
       0.05137624 0.00063954573 0.05477304 0.15516101
000070 ef e9 1a 3e 12 3c 23 3e 38 4f 9a 3e 55 b9 21 3e
       0.15128301 0.15940884 0.30138564 0.15793355
000080 74 0e d1 b8 28 95 57 bd 58 ce f8 bd 6e 2c 8b 3b
       -9.968589e-05 -0.05263248 -0.12148732 0.00424724
000090 e5 01 f8 3d fa 2f c6 3d bc 9b 15 3e 5c 21 16 3e
       0.12109736 0.096771196 0.14610189 0.14661163
0000a0 c3 41 9e bd 1d c4 95 3d 91 1a c4 bd 4d 1e 82 bc
       -0.07727387 0.07312796 -0.0957538 -0.01588359
0000b0 2c 5a 01 3e 47 97 1f 3e 72 aa 8b bd 50 44 ad 3d
       0.12632054 0.15585051 -0.06819619 0.08460295
0000c0 cc ca 9f bb 59 2e 7d 3c b6 96 41 bd 04 6e 23 3d
       -0.00487647 0.015452945 -0.04726287 0.03989984
0000d0 65 87 72 bd 1e 4b e2 3d c8 9d c1 3d 7d 48 25 be
       -0.059211154 0.11049484 0.094539225 -0.16140933
0000e0 1b 03 52 bd 66 49 66 bc 15 59 22 3d 28 89 22 3d
       -0.051272493 -0.0140555855 0.039635736 0.039681584
0000f0 2e 79 29 be f4 cd 31 bd 2e 4e 27 3d 8b cf 13 bd
       -0.16550133 -0.043409303 0.040846042 -0.0360866
000100 01 99 b9 bd 73 4d 95 3c ef 50 27 3e 59 e5 1b be
       -0.09062386 0.018225407 0.16339467 -0.15224208
000110 fe 6a a5 bc be 7b ab bb c8 ce 50 3b 72 af 89 3d
       -0.02019262 -0.005233257 0.0031861532 0.06722917
000120 bb ef 3a bd 88 71 27 3d a1 7a 86 3d 44 0c 5f bb
       -0.04563878 0.040879756 0.06566358 -0.003403441
000130 c5 49 82 bc 47 8c dc 3d c3 ba 2f 3d aa 9f 6f bd
       -0.015904317 0.10768943 0.04290272 -0.058501877
000140 54 ba be ba 39 51 9e 3d 58 55 95 3c 27 18 f1 bc
       -0.001455138 0.07730336 0.018229172 -0.029430462
000150 11 0f 1e be a4 18 0b be 34 8e 0e be 49 4b 9b bd
       -0.15435435 -0.13583618 -0.13921434 -0.07582719
000160 20 2c a5 3d 67 5d ba bc cf 9e 27 3e 9b 91 09 be
       0.08065057 -0.022749616 0.16369174 -0.1343445
000170 cd bf 3d 3e 7d 0a 2a 3e 37 64 cc bc 46 08 dc bd
       0.18530197 0.16605563 -0.02495013 -0.107437655
000180 6e 04 81 3d db 7c 59 bd 6e b2 8b 3d 6b 96 c2 bd
       0.06299673 -0.053097587 0.06821142 -0.09501346
000190 2d 18 e4 bd 93 18 63 3b 02 70 0e 3c 21 2e b7 3d
       -0.11137424 0.0034652099 0.008693697 0.08944345
0001a0 d2 31 fe 3c 21 97 9b bd 48 90 09 be 09 44 59 bd
       0.031029616 -0.07597185 -0.13433945 -0.0530434
0001b0 dd 3e 5c be 74 16 77 3d a7 6d 78 3d c4 6b 1d 3e
       -0.21508355 0.060324147 0.060651448 0.1537314
0001c0 3b d7 4f 3e c0 64 c5 3d c9 b3 e9 3d 00 55 45 be
       0.20296948 0.09638357 0.114112444 -0.19270706
0001d0 56 8f 3b be 27 62 c8 bd a3 21 3e 3d 87 43 f3 3d
       -0.18316397 -0.09784346 0.046418797 0.11878114
0001e0 65 c1 7e 3e 32 dc 8f 3d 12 2c 45 bd 27 ec 2d 3e
       0.24878462 0.07024421 -0.04813773 0.16984616
0001f0 93 a4 06 3e 7d 32 79 3e ce 9d 01 3e 90 09 9a 3d
       0.13148718 0.24335666 0.12657854 0.07521355
000200 32 f9 18 3e 12 19 f5 3d da cd ec 3d 2c 1a e4 bc
       0.1493881 0.119676724 0.115627006 -0.027844511
000210 ac 19 94 3c f5 95 63 bd 49 83 01 3e 8f 49 95 bd
       0.018078648 -0.055562932 0.12647738 -0.07289421
000220 23 bd 12 3e 8a e8 84 3e cb c4 03 3e e0 49 4e 3d
       0.14329962 0.25958663 0.1286804 0.05036342
000230 2d 40 0b bd 54 6d d1 bd 62 79 3e 3e 46 87 86 3b
       -0.03399675 -0.10225931 0.18600991 0.0041054813
000240 4b 7c 02 3e b3 c5 1e 3c 3a 2e 40 3e 91 df 2b bd
       0.12742727 0.00969069 0.18767634 -0.041961256
000250 f9 09 97 3d d7 dc 8d 3e 1c 77 2c 3e ff c8 06 3e
       0.07374949 0.2770755 0.16842312 0.13162611
000260 d5 62 5c 3e 82 72 46 3c 12 68 b2 bd 66 03 e8 3d
       0.21522076 0.012112262 -0.08711256 0.11328773
000270 d0 68 39 3e b0 54 2a 3e 6d 8a 52 3e e0 20 92 3d
       0.18106389 0.16633868 0.20560618 0.07135177
