generate_forecasts/output/Local_Forecasts/Food purchased from restaurants/2025/models/DeepAR/W0/gluon_ts/prediction-net-state.pt (torch, 97628 bytes, 11 tensors)

model.param_proj.proj.0.weight f4 [1, 40]
0.028310882 0.19654733 0.15255347 -0.09470222 -0.020760627 -0.14486401 -0.09447144 0.079489894
-0.02592604 -0.07103347 -0.082083225 -0.046529215 -0.103234395 0.024839597 0.075946875 0.2061488
0.117886744 -0.006766822 0.10620595 -0.21281955 -0.06283422 -0.04404498 -0.07151392 0.15169585
0.2153074 -0.11012601 -0.1419203 0.10730714 -0.16874373 -0.0816835 0.18450476 0.1504971
0.20934576 -0.07843993 0.02183483 -0.13911305 -0.027803963 -0.065612204 0.027588807 0.107059754
00000000: 39ec e73c b443 493e fa36 1c3e 3df3 c1bd
00000010: 3112 aabc 3b57 14be 3e7a c1bd 99cb a23d
00000020: d962 d4bc ff79 91bd 401b a8bd 6b95 3ebd
00000030: 8e6c d3bd 697c cb3c 098a 9b3d ac18 533e
00000040: 9b6e f13d 38bc ddbb 8182 d93d 5eed 59be
00000050: 3aaf 80bd 8268 34bd e475 92bd 2856 1b3e
00000060: 8b79 5c3e bf89 e1bd 8e53 11be d9c3 db3d
00000070: 28cb 2cbe ae49 a7bd d1ee 3c3e e91b 1a3e
00000080: bc5e 563e 1da5 a0bd f5de b23c a773 0ebe
00000090: 23c5 e3bc b15f 86bd ec01 e23c 2542 db3d

model.param_proj.proj.1.weight f4 [1, 40]
-0.16097513 0.14181858 0.1273035 -0.13488945 -0.015897585 -0.16236696 0.035279028 0.055729575
-0.13137636 0.019108031 0.10254733 0.014563441 0.060586363 0.11204543 -0.1144334 0.10999379
0.15560032 0.023202125 -0.083095126 -0.09693145 0.108952254 0.08481914 0.014122175 0.05134271
0.1227483 0.03800079 -0.067901306 0.0029415318 -0.09245864 -0.026084384 0.05878124 0.11671038
0.023554357 -0.025289677 0.006065909 -0.0005809589 -0.12687577 -0.0011298042 0.073762454 -0.023332559
00000000: aad6 24be e438 113e d95b 023e 7620 0abe
00000010: a73b 82bc 8643 26be be80 103d b244 643d
00000020: 8687 06be 7288 9c3c 5604 d23d 809b 6e3c
00000030: 6829 783d 1378 e53d 0f5c eabd 6d44 e13d
00000040: b155 1f3e 6212 be3c c72d aabd ff83 c6bd
00000050: 5c22 df3d a8b5 ad3d b260 673c bc4c 523d
00000060: 7663 fb3d b7a6 1b3d d70f 8bbd b7c6 403b
00000070: f55a bdbd ebae d5bc 99c4 703d da05 ef3d
00000080: 11f5 c03c 4c2c cfbc 88c4 c63b 7e4b 18ba
00000090: b9eb 01be f015 94ba c510 973d ec23 bfbc

model.param_proj.proj.2.weight f4 [1, 40]
0.17172275 -0.11103411 0.021622121 0.08658661 0.08283106 0.21438825 0.0873778 -0.120926835
-0.0648132 0.110746674 0.047923952 0.094345525 0.07060308 -0.09511246 -0.055779774 -0.010536637
-0.034065966 -0.12133806 -0.13669127 -0.11159552 0.11979069 0.005015577 0.14297546 -0.13559635
-0.22962457 0.13900998 -0.1920656 -0.06719254 0.08912626 0.18004318 -0.16305164 -0.13436583
-0.076686315 -0.12866916 -0.06558506 0.10618961 0.2591291 0.07396777 -0.21053392 -0.1861564
00000000: 17d8 2f3e da65 e3bd e020 b13c 5254 b13d
00000010: 55a3 a93d 9888 5b3e 22f3 b23d 7da8 f7bd
00000020: c8bc 84bd 27cf e23d e84b 443d 3a38 c13d
00000030: 5998 903d 52ca c2bd 5579 64bd dca1 2cbc
00000040: c188 0bbd 1780 f8bd ccf8 0bbe 318c e4bd
00000050: d254 f53d b659 a43b 2968 123e c5d9 0abe
00000060: b422 6bbe a258 0e3e d8ac 44be 3e9c 89bd
00000070: d487 b63d 3d5d 383e 02f7 26be 3297 09be
00000080: b70d 9dbd d9c1 03be 7651 86bd f079 d93d
00000090: 92ac 843e 6a7c 973d 3496 57be c99f 3ebe

model.rnn.weight_ih_l0 f4 [160, 21]
0.11519391 -0.0132109495 0.11399472 0.07904301 -0.05782507 -0.048777457 0.19671308 0.043053772
0.024187133 0.13862206 0.11855566 0.18269682 0.089023985 0.19733095 0.017648742 0.19158289
-0.07967316 0.10281904 -0.03172858 -0.053836875 0.0005917917 0.043100502 0.11500619 0.18723164
0.08486317 0.0062285503 -0.035090394 0.068253085 0.12931189 0.15818991 -0.0654754 0.14053676
-0.09367288 -0.040939413 -0.010302667 -0.09431822 -0.0063547064 0.04493548 -0.04015083 0.0771898
-0.08352314 0.097318575 0.124181636 0.046457857 -0.03543477 0.15952061 0.10056927 0.14049572
-0.0101061165 -0.05038814 0.12349959 0.103286885 0.0035170026 0.16967544 -0.06206463 -0.10785481
0.07293197 0.17012545 0.11852882 -0.060648613 0.017986733 -0.15230827 0.11110462 0.14831796
-0.045762353 0.18483189 -0.07597805 0.18415543 -0.095637515 -0.044287186 0.12253576 0.10652937
-0.047549933 -0.073751196 0.012552026 -0.05887242 0.15100709 -0.10033073 -0.11080542 0.015411744
0.13769232 0.11088621 0.10413795 -0.05074531 0.11011984 0.17100963 0.03218979 0.10147802
0.13946287 0.11782375 0.12903307 0.16577195 -0.102497384 0.1353706 0.09800756 -0.088495836
0.09303707 0.106938854 0.09385773 0.19992478 0.062129334 0.03132466 -0.050748765 -0.016791703
0.027866242 0.10383771 -0.037810992 0.10484432 -0.06701656 0.05425159 0.031021265 0.0012547971
-0.077251874 -0.056408975 0.1310229 -0.048669137 0.026263328 0.19298454 0.09152452 -0.08569381
0.07664068 0.07279407 0.03594604 -0.07856614 -0.025280192 0.1304817 -0.053299997 -0.02036939
0.12506567 0.13236654 0.19302681 -0.034988757 -0.06404218 0.08977662 -0.010321088 0.15896004
0.14034262 -0.05903709 -0.0010657157 -0.032797404 0.16538021 -0.023759075 0.2032539 0.027281325
-0.058645964 -0.113484286 -0.014487578 0.12657218 0.005922203 -0.021321492 -0.05396529 -0.023842787
-0.100887 -0.06916793 -0.0768959 0.11898049 0.11350503 0.059217423 -0.03919477 -0.04788671
0.14244239 0.18286245 0.036943734 -0.01995154 0.07905251 0.090844035 -0.021673651 -0.072901875
-0.025683766 0.15371305 0.025260856 0.13232197 0.026911922 0.035640206 -0.0039087054 -3.5920268e-05
0.21891685 0.07973423 0.11738967 -0.08440871 -0.024630342 0.0044908347 0.15732825 -0.056310475
0.1966264 0.11258987 -0.085635945 0.033154782 0.082446374 -0.031863634 -0.06494093 0.2131781
-0.061779093 0.19451636 -0.035362616 0.013238322 -0.05891243 0.1672588 -0.089034036 0.1321219
-0.034482837 -0.042649776 -0.01759136 0.14267994 0.15652925 0.065823734 0.11240097 0.08092891
-0.1574401 -0.04517313 0.19412561 0.14066355 0.16472048 0.16752735 0.045297332 -0.08625655
0.041228805 0.038021196 -0.0010750006 -0.08786784 -0.025133105 -0.07309013 0.044003613 0.08792695
0.12588465 0.12128212 -0.07992098 -0.11832114 0.057844378 -0.043280263 -0.029798407 -0.07741179
0.110134535 0.09704716 0.12544021 0.17807384 -0.059415653 0.033124756 0.023660816 -0.031900477
-0.056164548 0.17198436 0.004269055 0.15238115 0.12840006 0.09195349 -0.0078123566 0.0053947307
0.041865177 0.12519689 0.016316831 -0.021285364 0.04496025 0.06376422 0.1364178 0.19711994
00000000: c9ea eb3d bd72 58bc 1076 e93d 4de1 a13d
00000010: fbd9 6cbd dfca 47bd 276f 493e 2759 303d
00000020: 1824 c63c f1f2 0d3e 4fcd f23d e014 3b3e
00000030: 3552 b63d 2011 4a3e 1894 903c 4e2e 443e
00000040: af2b a3bd ca92 d23d d4f5 01bd 0e84 5cbd
00000050: 7822 1b3a 278a 303d 5e88 eb3d a7b9 3f3e
00000060: becc ad3d de18 cc3b f2ba 0fbd 46c8 8b3d
00000070: 566a 043e 89fc 213e f717 86bd dee8 0f3e
00000080: 91d7 bfbd 16b0 27bd 84cc 28bc e929 c1bd
00000090: 243b d0bb 440e 383d 3275 24bd b015 9e3d
000000a0: 2e0e abbd f64e c73d f152 fe3d 984a 3e3d
000000b0: 0d24 11bd 5f59 233e 43f7 cd3d 1cde 0f3e
000000c0: 2094 25bc cb63 4ebd 5aed fc3d 1388 d33d
000000d0: 837d 663b 66bf 2d3e 7b37 7ebd fce2 dcbd
000000e0: 5b5d 953d 5e35 2e3e 3dbf f23d ae6a 78bd
000000f0: ea58 933c b3f6 1bbe d28a e33d aae0 173e
00000100: 4e71 3bbd 9244 3d3e 619a 9bbd 3e93 3c3e
00000110: 9add c3bd 7b66 35bd 07f4 fa3d 122c da3d
00000120: b8c3 42bd de0a 97bd 03a7 4d3c 3524 71bd
00000130: 9aa1 1a3e 337a cdbd f4ed e2bd 8a81 7c3c
00000140: 37ff 0c3e 4f18 e33d 4746 d53d 50da 4fbd
00000150: 8386 e13d 261d 2f3e 71d9 033d b5d3 cf3d
00000160: 5bcf 0e3e 944d f13d 3f21 043e 1fc0 293e
00000170: 26ea d1bd 979e 0a3e 30b8 c83d 4e3d b5bd
00000180: 388a be3d c202 db3d 7b38 c03d 15b9 4c3e
00000190: 547b 7e3d 494e 003d f0dd 4fbd c18e 89bc
000001a0: bf47 e43c dea8 d43d b3df 1abd 9eb8 d63d
000001b0: fa3f 89bd ea36 5e3d 4f20 fe3c 0178 a43a
000001c0: 3b36 9ebd 190d 67bd de2a 063e 4a59 47bd
000001d0: 3126 d73c bd9d 453e 3571 bb3d 3c80 afbd
000001e0: caf5 9c3d 0f15 953d 283c 133d 49e7 a0bd
000001f0: 6818 cfbc ff9c 053e 1951 5abd b5dd a6bc
00000200: 3711 003e 188b 073e d2a8 453e 5f50 0fbd
00000210: 8c28 83bd cedc b73d c819 29bc 6cc6 223e
00000220: fab5 0f3e e0d0 71bd 7caf 8bba 9256 06bd
00000230: 6e59 293e 64a2 c2bc ca21 503e 167d df3c
00000240: c036 70bd 736a e8bd 4e5d 6dbc 239c 013e
00000250: 0a0f c23b 69aa aebc b50a 5dbd f351 c3bc
00000260: d89d cebd eaa7 8dbd 997b 9dbd 0bac f33d
00000270: 5375 e83d f88d 723d b28a 20bd db24 44bd
00000280: 6bdc 113e 4b40 3b3e 5052 173d 6971 a3bc
00000290: 48e6 a13d 700c ba3d f18c b1bc 944d 95bd
000002a0: c366 d2bc f466 1d3e dbef ce3c 697f 073e
000002b0: 6476 dc3c 77fb 113d 9914 80bb 18a9 16b8
000002c0: bd2b 603e b34b a33d ff69 f03d 79de acbd
000002d0: 92c5 c9bc da27 933b a81a 213e d0a5 66bd
000002e0: 6e58 493e 8595 e63d e661 afbd 4fcd 073d
000002f0: a5d9 a83d 7183 02bd c0ff 84bd 5c4b 5a3e
00000300: 130c 7dbd 4c2f 473e 64d8 10bd 8ce5 583c
00000310: 294e 71bd e445 2b3e 7a57 b6bd f74a 073e
00000320: e03d 0dbd 88b1 2ebd c11b 90bc b11a 123e
00000330: 3449 203e 98ce 863d 7b32 e63d 0ebe a53d
00000340: fa37 21be 7607 39bd ddc8 463e 1b0a 103e
00000350: 7cac 283e 4a8c 2b3e b289 393d 46a7 b0bd
00000360: 89df 283d 1dbc 1b3d 09e7 8cba 0ef4 b3bd
00000370: f1e3 cdbc 47b0 95bd 223d 343d 0b13 b43d
00000380: e8e7 003e c362 f83d 9cad a3bd 5b52 f2bd
00000390: 3aee 6c3d a546 31bd ca1b f4bc 138a 9ebd
000003a0: 378e e13d a9c0 c63d 6673 003e fd58 363e
000003b0: d45d 73bd d3ad 073d 54d4 c13c 13aa 02bd
000003c0: cc0c 66bd ab1c 303e 6ee3 8b3b ce09 1c3e
000003d0: 4e7b 033e 1d52 bc3d ccfe ffbb 48c6 b03b
000003e0: d27a 2b3d 9d33 003e e0aa 853c a55e aebc
000003f0: 3d28 383d d196 823d 1cb1 0b3e cfd9 493e

model.rnn.weight_hh_l0 f4 [160, 40]
-0.08757037 -0.13832787 0.085274644 0.058372606 -0.19897547 0.17813769 0.05040617 -0.16554908
-0.1246926 0.04792796 -0.0690813 -0.15161143 -0.1766543 0.06205446 -0.09454267 -0.19111976
0.13833153 -0.038716592 0.101677634 -0.07786421 -0.07185784 0.08670456 0.04421324 0.01319277
-0.125717 0.078292385 0.19119565 -0.08345505 0.10937851 0.029633714 0.05660602 0.01471598
-0.057600465 0.13746746 0.029492551 -0.110106945 -0.1127049 -0.1278325 0.0858164 0.036209844
-0.036560062 -0.097483724 0.06383776 0.09198091 0.13398184 -0.13169646 0.046732835 -0.04844792
0.020533912 0.045792125 0.023075845 0.023377096 -0.12957072 -0.08577283 -0.027483206 -0.02043062
-0.15583572 0.04739693 -0.18103705 0.103372544 0.028173972 0.0762847 0.03617535 -0.08013542
-0.06571212 -0.12598562 -0.062069 0.10287893 0.14134833 0.07914283 -0.13349898 0.053980265
0.1043575 -0.068144485 -0.01880955 0.0640675 -0.017160133 -0.04812486 0.08689438 -0.06957649
0.03181382 0.11114878 -0.022059847 0.06610733 -0.0308845 -0.12362742 0.055455938 -0.040116034
-0.07809846 0.11296106 0.16114625 -0.03796648 -0.104994096 -0.014492709 -0.09982917 0.0352844
0.093247086 -0.0127781555 0.1190661 -0.0017913905 0.052814826 0.1345024 -0.021906678 -0.12005616
-0.12274436 -0.060571626 0.07420033 0.036523614 -0.047743745 0.05139763 0.007968573 0.17723688
-0.0009471809 0.11902636 -0.094942704 -0.009315123 0.14284122 0.02187082 -0.0028163174 -0.046300128
-0.1720607 0.114479475 0.12571225 -0.08578448 -0.20501584 -0.009961268 0.03204979 0.085586175
-0.033671163 0.07713026 0.17583998 0.1086584 0.036458258 0.01587409 0.049480777 -0.1958481
-0.016594166 0.15825373 0.008034007 -0.10847845 -0.1397685 -0.10293456 0.0156751 0.118418954
-0.06260989 0.11417362 0.18491888 -0.0052171396 0.18322758 -0.08429652 0.10471658 0.07472838
-0.21774526 0.10922435 -0.16305506 0.020048952 -0.110718325 -0.030727997 -0.015618896 0.07726618
-0.18761559 -0.20628572 -0.03458173 0.17122497 -0.015585679 -0.054750405 -0.02208428 -0.084085174
-0.08294092 0.18097743 0.024181508 -0.05492527 0.07683838 -0.18465732 0.04577475 -0.18616898
0.08906323 -0.15941949 0.024635684 -0.1676563 -0.051362302 0.05364417 -0.055422388 -0.07719534
-0.17624082 -0.0030393263 -0.040020436 -0.060334455 0.14884426 -0.066526525 -0.104690425 0.18755588
-0.08301534 -0.043694988 -0.14779888 -0.07467655 -0.03586129 -0.09185514 -0.2001391 -0.10061834
-0.04179809 0.016067794 0.04466702 0.062193226 -0.040280983 -0.05677361 -0.15997489 0.046741698
0.08135723 0.02152178 0.037567608 0.055781744 0.074163884 -0.013873116 -0.115440354 -0.105309345
-0.03560569 0.119783714 -0.09403707 -0.015773056 0.10654284 0.18257189 -0.05199301 -0.014774928
-0.09261139 -0.16606365 -0.005611113 0.15749021 -0.04459763 0.14075848 -0.1232984 0.074720696
-0.14724858 0.065845944 -0.014015106 -0.15432423 -0.017089175 -0.00019473147 -0.0708344 -0.12314575
0.046833985 -0.09091688 0.083134085 -0.014575275 0.01684819 -0.005734688 -0.058928482 -0.03600883
-0.16505916 -0.0744691 -0.06784407 -0.12303306 0.057435207 -0.17844039 0.00978397 -0.13789341
00000000: 1858 b3bd d2a5 0dbe 79a4 ae3d 1d18 6f3d
00000010: 3ac0 4bbe ba69 363e b376 4e3d b385 29be
00000020: d55e ffbd 1c50 443d 7f7a 8dbd 0740 1bbe
00000030: dde4 34be d12c 7e3d 969f c1bd e6b4 43be
00000040: c8a6 0d3e 4a95 1ebd 5d3c d03d 4577 9fbd
00000050: 342a 93bd 2992 b13d f118 353d 7d26 583c
00000060: f5bb 00be c257 a03d cbc8 433e 7bea aabd
00000070: d701 e03d 67c2 f23c b7db 673d 4b1b 713c
00000080: 77ee 6bbd 45c4 0c3e 5d9a f13c c07f e1bd
00000090: d4d1 e6bd 86e6 02be 82c0 af3d c650 143d
000000a0: 01c0 15bd 8ca5 c7bd 5fbd 823d 7d60 bc3d
000000b0: 8932 093e 70db 06be ee6a 3f3d 5371 46bd
000000c0: bc36 a83c 8690 3b3d 8e09 bd3c 5381 bf3c
000000d0: 30ae 04be aaa9 afbd 7624 e1bc 1e5e a7bc
000000e0: 6693 1fbe 4923 423d c761 39be fcb4 d33d
000000f0: 1acd e63c 273b 9c3d 9b2c 143d 0a1e a4bd
00000100: 1394 86bd 6002 01be 103c 7ebd 30b2 d23d
00000110: 9ebd 103e a315 a23d f5b3 08be 691a 5d3d
00000120: 63b9 d53d 568f 8bbd 7c16 9abc d235 833d
00000130: 6893 8cbc 931e 45bd aef5 b13d 1e7e 8ebd
00000140: 354f 023d f9a1 e33d dab6 b4bc 4863 873d
00000150: 7e01 fdbc 5f30 fdbd c425 633d b650 24bd
00000160: 16f2 9fbd 2158 e73d 8603 253e bd82 1bbd
00000170: 2507 d7bd d472 6dbc 3c73 ccbd 6086 103d
00000180: 54f8 be3d 785b 51bc edd8 f33d 17cd eaba
00000190: 5c54 583d ffba 093e a275 b3bc 01e0 f5bd
000001a0: 6561 fbbd f419 78bd 58f6 973d c999 153d
000001b0: f28e 43bd 5286 523d 9e8e 023c 967d 353e
000001c0: 3c4c 78ba 18c4 f33d 5271 c2bd 759e 18bc
000001d0: f844 123e 6f2a b33c f791 38bb 34a5 3dbd
000001e0: ae30 30be 3774 ea3d b6ba 003e c6af afbd
000001f0: acef 51be 9634 23bc a446 033d ce47 af3d
00000200: c6ea 09bd 78f6 9d3d 650f 343e 4c88 de3d
00000210: 4155 153d 610a 823c 5bac 4a3d 688c 48be
00000220: 7df0 87bc 440d 223e 11a1 033c f329 debd
00000230: 791f 0fbe 5bcf d2bd 1169 803c a385 f23d
00000240: 9d39 80bd dcd3 e93d 605b 3d3e 8af4 aabb
00000250: 03a0 3b3e a7a3 acbd a575 d63d 310b 993d
00000260: 9df8 5ebe 04b1 df3d e8f7 26be b33d a43c
00000270: 4ac0 e2bd 48b9 fbbc 66e6 7fbc bb3d 9e3d
00000280: 4d1e 40be 903c 53be 92a5 0dbd 9955 2f3e
00000290: 135b 7fbc f641 60bd 18ea b4bc d934 acbd
000002a0: eedc a9bd 2652 393e 4c18 c63c 52f9 60bd
000002b0: 715d 9d3d cf16 3dbe 4e7e 3b3d 15a3 3ebe
000002c0: c866 b63d dd3e 23be c6d0 c93c 18ae 2bbe
000002d0: 4761 52bd fdb9 5b3d 9602 63bd 9718 9ebd
000002e0: 7978 34be 6f2f 47bb 78ec 23bd 4321 77bd
000002f0: a16a 183e 0f3f 88bd ef67 d6bd a60e 403e
00000300: f203 aabd 84f9 32bd 9758 17be 05f0 98bd
00000310: 4ae3 12bd 8c1e bcbd 44f1 4cbe fd10 cebd
00000320: 7934 2bbd 9ba0 833c c4f4 363d 53be 7e3d
00000330: acfd 24bd 728b 68bd 75d0 23be 3974 3f3d
00000340: 9f9e a63d 724e b03c 7ee0 193d 667b 643d
00000350: 3ce3 973d 114c 63bc fe6b ecbd 6dac d7bd
00000360: 46d7 11bd 2a51 f53d 8296 c0bd 7f36 81bc
00000370: 2233 da3d 20f4 3a3e 9ff6 54bd 8a12 72bc
00000380: 0aab bdbd 970c 2abe 6ddd b7bb 1d45 213e
00000390: 01ac 36bd fe22 103e df83 fcbd 2a07 993d
000003a0: 55c8 16be 3dda 863d 9d9f 65bc 2c07 1ebe
000003b0: 99fe 8bbc d530 4cb9 a011 91bd d733 fcbd
000003c0: fed4 3f3d a132 babd 3442 aa3d 22cd 6ebc
000003d0: 3705 8a3c 0dea bbbb fe5e 71bd ff7d 13bd
000003e0: 4505 29be 4183 98bd d5f1 8abd c2f8 fbbd
000003f0: 2e41 6b3d 14b9 36be f24c 203c ee33 0dbe

model.rnn.bias_ih_l0 f4 [160]
0.08951666 0.049552582 -0.061634127 -0.074364364 -0.09726713 0.20493674 -0.06144659 0.0073983357
-0.0121144205 -0.06554076 -0.006891434 0.18879664 0.03850016 0.11777056 -0.019742435 0.033585127
0.025859155 -0.10020893 -0.07232851 0.1864293 -0.051554635 0.08591433 -0.091163576 -0.11088194
0.19499154 -0.0028234422 0.13884228 -0.07270703 0.15286614 0.1549838 0.1400733 0.00042206768
-0.010198321 0.09051593 -0.054369535 -0.08195677 0.11955645 0.037311908 -0.09301595 -0.0009810454
0.08044113 0.10536084 0.07976641 -0.099236935 0.20820768 0.14061607 0.093951754 0.12960604
0.008649565 0.13847986 0.06755033 0.095915794 -0.07004855 0.109041296 -0.059138272 -0.082536094
-0.06986281 -0.045414176 -0.12866817 0.1825065 -0.010517664 -0.10454226 0.15737404 0.14841613
0.18342113 0.15287334 0.03347098 0.15766726 0.13638507 0.0007566711 -0.10152898 -0.040295016
-0.11105881 0.12145682 0.12857695 -0.06354444 -0.0031658823 -0.141032 0.033223175 -0.01624394
-0.050312486 -0.08304008 -0.0073086484 0.041506607 0.0733065 0.12614232 -0.08984355 -0.15915148
0.020850245 -0.018876208 0.120531835 0.031907253 0.030233433 0.104531534 0.10941797 0.08836531
0.023399636 -0.029879136 0.055865005 0.043789674 -0.077727415 0.048083477 -1.5881913e-05 0.109279364
0.11633834 0.039950285 -0.11739742 -0.15337718 -0.074288845 0.07720528 -0.07540283 -0.004685096
-0.057428557 -0.008887693 -0.16050489 0.0026347064 -0.053547166 -0.012772316 0.09357943 0.04183579
0.10154499 -0.050509863 0.03304523 -0.101893626 0.14286546 0.12391691 0.10049513 -0.07382932
0.063432686 -0.010797226 0.038746286 -0.02508583 0.08376229 0.11051373 0.079698935 0.008067017
0.07642411 -0.11531126 0.14515936 -0.0077774543 0.15651052 0.044204544 0.031072859 -0.047817964
0.025664577 0.19936693 -0.09562751 0.030971337 0.12048237 0.008631988 -0.06646272 -0.11321423
0.16693866 0.0036904921 0.16742104 -0.051399782 -0.04751802 -0.13782963 0.03385734 0.060759038
00000000: 8354 b73d a6f7 4a3d 1174 7cbd 584c 98bd
00000010: fd33 c7bd f0da 513e 6baf 7bbd bd6d f23b
00000020: 907b 46bc 3c3a 86bd 8ad1 e1bb e853 413e
00000030: 58b2 1d3d b131 f13d e3ba a1bc 8f90 093d
00000040: 94d6 d33c 573a cdbd f820 94bd 53e7 3e3e
00000050: f42a 53bd daf3 af3d f8b3 babd 1216 e3bd
00000060: ddab 473e 8009 39bb ac2c 0e3e 6ce7 94bd
00000070: f188 1c3e 13b4 1e3e 606f 0f3e f748 dd39
00000080: dc16 27bc 6a60 b93d 97b2 5ebd f3d8 a7bd
00000090: 03da f43d 5fd4 183d 257f bebd 6c96 80ba
000000a0: 52be a43d 6dc7 d73d 925c a33d bc3c cbbd
000000b0: 6534 553e a9fd 0f3e c769 c03d 72b7 043e
000000c0: e8b6 0d3c aacd 0d3e d457 8a3d 806f c43d
000000d0: 9d75 8fbd 0b51 df3d f93a 72bd af08 a9bd
000000e0: 3c14 8fbd 3704 3abd 97c1 03be fce2 3a3e
000000f0: 4852 2cbc 411a d6bd a926 213e 66fa 173e
00000100: c0d2 3b3e d48a 1c3e de18 093d 8773 213e
00000110: 87a8 0b3e 575b 463a 6dee cfbd 630c 25bd
00000120: cd72 e3bd 5abe f83d ada9 033e 9623 82bd
00000130: b17a 4fbb b16a 10be 0615 083d 0312 85bc
00000140: 7714 4ebd eb10 aabd 637d efbb d502 2a3d
00000150: b821 963d 742b 013e e5ff b7bd 9bf8 22be
00000160: 22ce aa3c 47a2 9abc 65d9 f63d 2eb1 023d
00000170: 1bac f73c a114 d63d 8716 e03d dff8 b43d
00000180: 98b0 bf3c 17c5 f4bc b4d2 643d cd5c 333d
00000190: 8d2f 9fbd 2ef3 443d 263a 85b7 dccd df3d
000001a0: cc42 ee3d e9a2 233d 0f6e f0bd e80e 1dbe
000001b0: c024 98bd cd1d 9e3d cd6c 9abd 6f85 99bb
000001c0: 353a 6bbd b09d 11bc 655b 24be 0aab 2c3b
000001d0: 4654 5bbd fa42 51bc 92a6 bf3d 015c 2b3d
000001e0: d2f6 cf3d 6ee3 4ebd 6f5a 073d 9bad d0bd
000001f0: 534b 123e 26c8 fd3d 64d0 cd3d d433 97bd
00000200: ffe8 813d d9e6 30bc 6db4 1e3d cc80 cdbc
00000210: 908b ab3d 0655 e23d 3239 a33d 862b 043c
00000220: 3e84 9c3d 4f28 ecbd a8a4 143e 04da febb
00000230: 4b44 203e d30f 353d 828c fe3c c5dc 43bd
00000240: 853e d23c d826 4c3e 5bd8 c3bd 9ab7 fd3c
00000250: 76bf f63d 2f6d 0d3c 9b1d 88bd dddc e7bd
00000260: f8f1 2a3e 2fdc 713b 6c70 2b3e 9488 52bd
00000270: 41a2 42bd 3623 0dbe ffad 0a3d 78de 783d

model.rnn.bias_hh_l0 f4 [160]
0.09659972 0.03416041 0.11456065 0.13884346 -0.065694235 0.15352346 0.20092203 -0.07530343
0.21911052 -0.07172036 0.13060336 -0.0075732945 0.034444395 0.18081938 0.08923021 0.16585355
0.17146541 -0.15174252 -0.040764887 0.114788 0.009964105 -0.108367644 -0.10546153 -0.08258568
-0.02513104 0.0048113912 0.091078736 0.038847603 0.08950508 0.004706579 0.045367595 -0.060323287
0.10588636 0.04233832 -0.011308852 -0.043990437 -0.038133036 -0.0008499867 -0.040651303 0.10468698
-0.08112167 -0.035998955 0.08753639 0.062078543 0.18851899 -0.112825036 0.15393376 0.18249723
0.15382104 -0.039771993 0.15347253 -0.030080883 -0.057854112 0.16637444 -0.0004081832 -0.03605587
-0.11330201 0.062810004 -0.021652425 -0.01090632 0.13512477 0.01638517 -0.034593374 0.081777066
-0.064574756 -0.00013474633 0.11144669 0.09484645 0.10638635 0.0084600765 -0.029493507 -0.014534963
0.025966216 -0.14617224 -0.046119463 -0.11542123 -0.005589139 -0.15306428 0.122851804 0.14311047
0.025866924 0.10199393 0.16889223 0.037153967 -0.0003931117 -0.014189716 -0.16322064 -0.030962216
-0.18883523 0.07273649 -0.026826963 -0.040093295 0.050962135 -0.13014862 -0.04222643 -0.028409181
-0.072532974 -0.024247335 -0.011697147 0.07987003 0.02494466 -0.1001547 0.08133462 0.055757467
-0.099411525 -0.16643462 -0.001149861 0.07387681 0.009366954 0.078232735 -0.06915568 0.12082617
0.0974074 -0.04871758 -0.07516889 -0.07978871 -0.069618225 0.011617169 0.09754215 -0.06909547
0.16000906 0.19309935 0.16154335 0.0691445 -0.036543142 0.18673275 0.116132736 -0.058785334
-0.045771345 -0.09832005 0.10745838 0.06640319 -0.106733076 -0.06644003 0.07268196 0.20772253
0.07205413 -0.1464589 0.054979153 -0.08739721 0.03086033 0.17529471 -0.08613358 0.067484915
0.054685 0.03875414 -0.090442926 -0.07217684 0.015604688 -0.072870694 0.03892169 -0.037318066
0.06434519 0.14540415 0.0035131944 0.13410512 0.1458913 0.13516991 0.03240749 0.0033432627
00000000: 13d6 c53d c9eb 0b3d c69e ea3d fb2c 0e3e
00000010: b38a 86bd 4135 1d3e 81be 4d3e af38 9abd
00000020: 825e 603e 20e2 92bd e3bc 053e 6629 f8bb
00000030: 9115 0d3d b728 393e 54be b63d 83d5 293e
00000040: a194 2f3e 6462 1bbe 15f9 26bd f915 eb3d
00000050: 7c40 233c dbef ddbd 37fc d7bd ae22 a9bd
00000060: 9cdf cdbc e0a8 9d3b 7d87 ba3d aa1e 1f3d
00000070: 704e b73d a539 9a3b 5fd3 393d 8d15 77bd
00000080: f3da d83d f26a 2d3d c348 39bc 512f 34bd
00000090: 6331 1cbd a4d1 5eba fb81 26bd 2166 d63d
000000a0: 1e23 a6bd a473 13bd 4746 b33d 1246 7e3d
000000b0: 1f0b 413e d010 e7bd d0a0 1d3e 8ee0 3a3e
000000c0: 4383 1d3e f5e7 22bd e727 1d3e 2f6c f6bc
000000d0: 6ff8 6cbd 105e 2a3e 6c01 d6b9 52af 13bd
000000e0: e20a e8bd 88a2 803d 6d60 b1bc 6cb0 32bc
000000f0: 265e 0a3e 313a 863c c8b1 0dbd bc7a a73d
00000100: c53f 84bd b14a 0db9 2a3e e43d db3e c23d
00000110: 16e1 d93d 229c 0a3c 5e9c f1bc 0e24 6ebc
00000120: 1ab7 d43c 2dae 15be c3e7 3cbd f761 ecbd
00000130: 1925 b7bb e2bc 1cbe ba99 fb3d 8d8b 123e
00000140: dfe6 d33c 32e2 d03d 16f2 2c3e c22e 183d
00000150: 8f1a ceb9 fc7b 68bc 5023 27be 79a4 fdbc
00000160: 065e 41be def6 943d 38c4 dbbc de38 24bd
00000170: acbd 503d ae45 05be 9ff5 2cbd 5fba e8bc
00000180: 2b8c 94bd 59a2 c6bc 64a5 3fbc e692 a33d
00000190: be58 cc3c e81d cdbd c492 a63d f161 643d
000001a0: 4598 cbbd d66d 2abe efb6 96ba ba4c 973d
000001b0: da77 193c 7c38 a03d 7ea1 8dbd b673 f73d
000001c0: 887d c73d 168c 47bd 26f2 99bd 4368 a3bd
000001d0: 0094 8ebd f055 3e3c 2ec4 c73d ed81 8dbd
000001e0: 6ad9 233e d6bb 453e 9f6b 253e a29b 8d3d
000001f0: 43ae 15bd df36 3f3e 00d7 ed3d e4c8 70bd
00000200: bc7a 3bbd 065c c9bd 2413 dc3d 65fe 873d
00000210: df96 dabd b611 88bd 48da 943d 37b5 543e
00000220: 1e91 933d 52f9 15be d231 613d 4ffd b2bd
00000230: cece fc3c 7580 333e cd66 b0bd 8835 8a3d
00000240: 61fd 5f3d a9bc 1e3d 243a b9bd 73d1 93bd
00000250: ceaa 7f3c 3b3d 95bd 5a6c 1f3d d4da 18bd
00000260: 69c7 833d d3e4 143e 9f3d 663b da52 093e
00000270: 8764 153e fb69 0a3e b7bd 043d a41a 5b3b

model.rnn.weight_ih_l1 f4 [160, 40]
0.041529015 0.036867987 -0.08536634 0.052657053 0.02174567 0.18834434 -0.14838506 -0.19214118
-0.16128345 0.013637894 0.07886536 -0.00031325908 -0.14727074 0.017869106 0.022589084 -0.004743826
-0.09427412 -0.052556477 -0.0038183166 -0.12034396 0.084929936 0.036281366 0.002959958 -0.08830725
0.008311368 -0.08638371 -0.057610475 0.15921842 -0.08921363 0.030078487 0.08995265 0.054784037
-0.07624642 -0.111124896 0.09537943 0.11380337 0.01223712 -0.003844484 -0.014079619 0.090424106
-0.032998513 -0.14945944 0.04379569 0.15279078 -0.029785737 -0.04914584 -0.21954834 0.05574263
-0.21894601 0.06078929 0.021633262 0.06559854 -0.1969187 -0.15721165 0.12133448 -0.22894616
-0.08202503 -0.053962253 -0.1520688 -0.1805781 -0.1318639 -0.08788565 -0.1357944 0.032999873
-0.025134265 0.061546482 -0.02176577 -0.11022952 0.10181053 0.0744584 -0.17842688 0.0771351
0.009906955 0.14016205 -0.13665067 0.04531076 0.027502485 -0.11500338 -0.14096153 0.04905466
0.03101854 -0.005310459 0.03367353 0.07479565 -0.078326575 -0.08795828 -0.1190931 -0.14929762
-0.07461671 -0.15363318 -0.14833473 -0.16145524 -0.0053077186 -0.033387102 -0.048876688 0.0709102
0.015823884 0.040332384 0.029367242 -0.07637675 0.13582908 0.02068507 -0.0793371 -0.078610174
0.065389544 -0.14630945 0.11587652 0.032718807 0.11034956 0.11283664 0.11393916 -0.13745874
0.057012934 0.13686068 0.08268348 -0.083125405 0.12921092 -0.14763807 0.12541214 -0.10283033
-0.044026475 0.024603372 -0.10902501 -0.09565199 0.0581789 0.14667898 0.1472461 0.11744518
0.008200281 -0.030112434 0.09053137 -0.13805184 -0.100361496 -0.0531048 -0.07820232 -0.07510069
-0.005623917 -0.14404014 0.11839077 -0.14991032 -0.0070225946 0.047946844 -0.09650704 0.14757285
0.07584256 -0.022967475 0.03247942 0.12992269 0.09940099 -0.04628962 0.06786437 0.08786617
-0.011103835 0.15597329 -0.10236841 -0.14235495 0.07449805 -0.15395036 0.0514883 -0.12109575
-0.1312551 -0.1318936 -0.1517411 -0.10495523 0.09276813 0.12166812 0.050208602 0.006246299
0.14394383 -0.17607807 0.06443245 0.14435236 -0.04933357 -0.12781593 -0.024882803 0.087944575
0.0045062182 0.06480171 0.11378741 0.08358185 0.02888472 -0.15042174 0.13245681 -0.028352128
0.12560306 0.11578976 0.11805097 0.115693 -0.14880477 -0.12636806 0.088709496 -0.04381529
0.11337635 -0.18725327 -0.0065874336 0.058977913 -0.14417815 0.0057119136 0.050176308 0.036735855
-0.21214257 -0.15601474 0.21128942 0.12435889 -0.12925348 -0.028604107 -0.10639714 0.06583901
-0.13918145 -0.050682165 -0.0657687 -0.08530026 -0.021775154 -0.086986005 0.16841781 -0.10675523
-0.1760281 0.1191441 -0.022200514 0.048167415 -0.11831813 0.053671055 0.068879135 0.06850913
-0.026897391 -0.15673688 0.20719329 -0.024575124 0.20642978 0.07213257 0.029507633 -0.06979527
0.02113326 0.110765725 0.063312136 -0.15652053 0.20539872 0.018353194 -0.22116567 -0.07573183
0.017945899 -0.029182767 0.058844626 0.020202009 0.00054790615 0.041170474 0.07862713 0.12685794
-0.014799059 0.17364308 0.08486612 -0.0028546809 -0.11616504 -0.0056457575 -0.13600498 -0.039103944
00000000: 541a 2a3d e302 173d 8cd4 aebd ecae 573d
00000010: fa23 b23c 57dd 403e 41f2 17be a8c0 44be
00000020: 7d27 25be 7971 5f3c 2984 a13d ec3c a4b9
00000030: 24ce 16be 3b62 923c be0c b93c 1972 9bbb
00000040: ca12 c1bd 7645 57bd b93c 7abb e576 f6bd
00000050: bfef ad3d c59b 143d dbfb 413b 6eda b4bd
00000060: 672c 083c f1e9 b0bd f6f8 6bbd 270a 233e
00000070: a3b5 b6bd 2967 f63c 1839 b83d 3a65 603d
00000080: 1527 9cbd 7395 e3bd 4a56 c33d be11 e93d
00000090: 347e 483c bdf3 7bbb 34ae 66bc 4630 b93d
000000a0: 7329 07bd e50b 19be 1c63 333d 3075 1c3e
000000b0: 3801 f4bc 264d 49bd 48d1 60be 6252 643d
000000c0: 6233 60be 31fe 783d 3d38 b13c 8758 863d
000000d0: 0ea5 49be 17fc 20be 367e f83d dd70 6abe
000000e0: bdfc a7bd 8607 5dbd ecb7 1bbe 77e9 38be
000000f0: 5507 07be 64fd b3bd b00d 0bbe e02a 073d
00000100: 60e6 cdbc 2a18 7c3d 214e b2bc 04c0 e1bd
00000110: 0a82 d03d a57d 983d 89b5 36be 02f9 9d3d
00000120: c850 223c a486 0f3e 27ee 0bbe c797 393d
00000130: e44c e13c e486 ebbd 3858 10be 8aed 483d
00000140: 981a fe3c 5c03 aebb 41ed 093d 762e 993d
00000150: af69 a0bd 7923 b4bd 15e7 f3bd 7ae1 18be
00000160: a5d0 98bd 0452 1dbe 0fe5 17be 8654 25be
00000170: 5fec adbb eac0 08bd ec32 48bd 5e39 913d
00000180: 17a1 813c 9233 253d 9293 f03c 6a6b 9cbd
00000190: c716 0b3e bc73 a93c 7d7b a2bd 5ffe a0bd
000001a0: f4ea 853d 25d2 15be ab50 ed3d 2804 063d
000001b0: f3fe e13d e516 e73d ef58 e93d fcc1 0cbe
000001c0: 6586 693d 3525 0c3e f555 a93d a73d aabd
000001d0: de4f 043e 6f2e 17be 0a6c 003e b598 d2bd
000001e0: 1b55 34bd 038d c93c 8148 dfbd 31e5 c3bd
000001f0: 004d 6e3d 0433 163e aec7 163e 1987 f03d
00000200: 795a 063c 5aae f6bc 8368 b93d 765d 0dbe
00000210: 548a cdbd 6b84 59bd 8a28 a0bd 64ce 99bd
00000220: d648 b8bb 427f 13be dc76 f23d 1782 19be
00000230: cb1d e6bb e963 443d 7ca5 c5bd 561d 173e
00000240: 5853 9b3d 4926 bcbc 2409 053d 740a 053e
00000250: bf92 cb3d 2f9a 3dbd 7afc 8a3d 2ef3 b33d
00000260: dcec 35bc 76b7 1f3e 87a6 d1bd 7fc5 11be
00000270: 6f92 983d 2aa5 1dbe 65e5 523d 0c01 f8bd
00000280: bd67 06be 1e0f 07be 0562 1bbe c5f2 d6bd
00000290: 38fd bd3d 232d f93d 89a7 4d3d c1ad cc3b
000002a0: 0366 133e cf4d 34be 29f5 833d 1bd1 133e
000002b0: ff11 4abd 2ee2 02be 05d7 cbbc 491c b43d
000002c0: e6a8 933b c2b6 843d 6009 e93d f62c ab3d
000002d0: a69f ec3c 2808 1abe c2a2 073e b942 e8bc
000002e0: 179e 003e 2f23 ed3d b5c4 f13d 74f0 ec3d
000002f0: 4760 18be a166 01be 53ad b53d a977 33bd
00000300: dc31 e83d 52bf 3fbe 66db d7bb d392 713d
00000310: 70a3 13be 012b bb3b ac85 4d3d 5678 163d
00000320: e73b 59be 54c2 1fbe 415c 583e e0af fe3d
00000330: 065b 04be 2953 eabc bee6 d9bd 9ad6 863d
00000340: 9585 0ebe 1a98 4fbd bdb1 86bd e7b1 aebd
00000350: cf61 b2bc b825 b2bd b875 2c3e 7ca2 dabd
00000360: b640 34be d201 f43d dadd b5bc 324b 453d
00000370: c750 f2bd 2ed6 5b3d 8110 8d3d 844e 8c3d
00000380: eb57 dcbc a27f 20be 7a2a 543e c551 c9bc
00000390: 5462 533e 3eba 933d feb9 f13c d3f0 8ebd
000003a0: a91f ad3c 24d9 e23d cba9 813d eb46 20be
000003b0: 0b54 523e 7059 963c 4179 62be 4a19 9bbd
000003c0: 4703 933c b310 efbc 1007 713d af7e a53c
000003d0: 5ca1 0f3a 5fa2 283d 4307 a13d 0ce7 013e
000003e0: c177 72bc 7ecf 313e 4ace ad3d 9915 3bbb
000003f0: f0e7 edbd 0c00 b9bb e444 0bbe 752b 20bd

model.rnn.weight_hh_l1 f4 [160, 40]
0.022654561 0.056573074 0.13803144 -0.15161389 0.027136615 -0.042537145 0.06488909 0.04900005
0.06456154 -0.09038948 0.065397665 0.030184919 0.14055717 0.15269952 -0.16605689 0.14961842
0.08684339 0.062095862 0.15387227 -0.074599266 0.13032734 -0.0072503746 0.094706744 -0.06426715
-0.06333643 0.100039035 -0.13741603 0.075995125 0.04131453 0.12868899 -0.040249582 0.13947558
0.13720304 0.06380282 0.0863345 0.12916511 -0.021975908 -0.025074039 0.0008305012 -0.09597417
0.11723315 0.040140595 -0.04308335 0.01742847 0.09521136 -0.12269654 0.073398784 0.02218705
0.09742546 -0.12680271 -0.065262854 0.12742172 -0.12183618 0.11590922 0.115884714 -0.030308839
-0.091796905 0.08290508 -0.058871664 -0.04220247 0.076561056 -0.0012195774 0.072656855 -0.043141846
-0.05366175 -0.046622027 0.1196501 -0.09357599 0.12311568 -0.0918695 0.10584412 0.09522056
-0.051780634 -0.070139535 0.03940515 -0.105893485 -0.115587935 -0.12349379 0.126225 0.16790093
0.0007162352 -0.11237592 0.15162058 -0.13896702 0.020137733 -0.12586696 0.0036110224 0.049952853
-0.056805655 -0.0929379 -0.105886534 0.114496574 -0.12047341 -0.058931492 -0.023875622 -0.16206478
-0.13154048 -0.12777288 0.12550837 -0.07049546 0.118561365 0.06772769 -0.10169626 -0.024621062
0.10820892 -0.06917645 -0.1460399 -0.07343382 -0.024697104 0.046226885 -0.06600574 0.1267993
-0.16283451 0.026916392 -0.01757926 -0.049812738 0.118358985 -0.13969438 0.093865 -0.03133455
-0.08223172 0.08448025 -0.08623183 0.04715661 -0.13263933 0.13447614 -0.0842586 -0.057267126
0.0109159 0.10775492 0.0391373 0.07144622 0.020696571 0.1581788 -0.18010925 -0.076035894
0.16083598 0.06868995 -0.13481869 -0.1343543 -0.12870204 -0.035734676 0.18274212 -0.17374228
-0.06957088 0.19699624 0.10499255 0.12563942 -0.09858431 0.1362704 0.012165026 0.07140903
-0.110849515 0.01958602 0.082163066 0.13544296 -0.060058966 -0.034485154 -0.16722424 -0.010633193
0.06716036 -0.14528182 0.022831146 -0.109787814 -0.016404796 0.04263374 0.09225704 -0.0018823908
0.13243021 -0.13536182 0.043225173 -0.0712315 -0.05097147 0.055733614 0.16793181 -0.14531595
0.1301285 0.04895616 0.15534943 0.08111111 -0.18972714 -0.10879549 -0.18997781 -0.06330228
-0.034247503 -0.100234665 0.11807908 0.17795372 0.025415756 0.04487527 0.123122364 0.005257065
0.050235882 0.09585431 -0.03350439 0.16415797 0.011775533 -0.075222954 -0.09169443 0.08837192
-0.06677548 -0.004489598 -0.011495643 0.018695641 0.0837215 -0.05014968 -0.2033935 -0.13565361
-0.03253293 -0.0642822 -0.030242678 -0.039087407 0.084713 0.117338985 -0.043283314 0.17029649
0.14604236 0.19406313 0.16335021 -0.09457385 -0.042683486 0.18248996 0.11781326 0.13699964
0.1903828 -0.08433463 -0.05347827 -0.10718659 -0.08413727 0.054287735 0.01989574 -0.022169463
-0.056117784 -0.09773435 0.13009962 0.050275333 0.010725872 -0.15274708 -0.05267942 -0.06061185
-0.1484014 -0.03933214 0.12021881 0.08333825 0.024550436 -0.097132355 0.09290206 -0.013955366
-0.132551 0.0728546 0.05998283 0.10553164 0.0046056923 0.17250757 0.1640348 0.15790349
00000000: 0f96 b93c 2bb9 673d 1d58 0d3e ac40 1bbe
00000010: 9b4d de3c 6e3b 2ebd 92e4 843d 47b4 483d
00000020: d738 843d 1f1e b9bd 36ef 853d 5d46 f73c
00000030: 38ee 0f3e 435d 1c3e d10a 2abe 9235 193e
00000040: f2da b13d 3b58 7e3d b190 1d3e 80c7 98bd
00000050: 8874 053e 8d94 edbb 9cf5 c13d 7f9e 83bd
00000060: 88b6 81bd 44e1 cc3d cab6 0cbe 55a3 9b3d
00000070: 6d39 293d 0cc7 033e bfdc 24bd b0d2 0e3e
00000080: f47e 0c3e 0eab 823d 24d0 b03d dc43 043e
00000090: d206 b4bc 1268 cdbc feb5 593a 1b8e c4bd
000000a0: ef17 f03d 776a 243d 2b78 30bd 27c6 8e3c
000000b0: 2cfe c23d 5348 fbbd 1a52 963d 9ec1 b53c
000000c0: 0087 c73d 92d8 01be 88a8 85bd d77a 023e
000000d0: 3f85 f9bd d061 ed3d f754 ed3d 3e4a f8bc
000000e0: 0400 bcbd 23ca a93d 6a23 71bd 7fdc 2cbd
000000f0: 0bcc 9c3d 3ada 9fba 1ecd 943d 81b5 30bd
00000100: 6ccc 5bbd bdf6 3ebd 1d0b f53d c5a4 bfbd
00000110: 1324 fc3d 1426 bcbd cdc4 d83d ff02 c33d
00000120: ee17 54bd 51a5 8fbd 4b67 213d afde d8bd
00000130: 5eb9 ecbd 50ea fcbd 2041 013e 39ee 2b3e
00000140: bbc1 3b3a 5925 e6bd 6d42 1b3e 5f4d 0ebe
00000150: e3f7 a43c 45e3 00be e7a6 6c3b 5d9b 4c3d
00000160: 0cad 68bd 3a56 bebd 0adb d8bd 2e7d ea3d
00000170: c3ba f6bd 2662 71bd cf96 c3bc 4ff4 25be
00000180: 8cb2 06be e5d6 02be 4485 003e ec5f 90bd
00000190: 4dd0 f23d d1b4 8a3d 2146 d0bd 1cb2 c9bc
000001a0: a39c dd3d 62ac 8dbd 7c8b 15be 7864 96bd
000001b0: 9551 cabc 6758 3d3d 042e 87bd add7 013e
000001c0: 17be 26be c47f dc3c 6102 90bc 7108 4cbd
000001d0: 3266 f23d 0b0c 0fbe 4b3c c03d a858 00bd
000001e0: 1b69 a8bd fb03 ad3d 509a b0bd 4a27 413d
000001f0: 9bd2 07be 1db4 093e c68f acbd ef90 6abd
00000200: 9ad8 323c 9dae dc3d 6f4e 203d 6552 923d
00000210: db8b a93c a0f9 213e 8f6e 38be b5b8 9bbd
00000220: 30b2 243e 51ad 8c3d e90d 0abe 2c94 09be
00000230: 78ca 03be 865e 12bd c020 3b3e 7fe9 31be
00000240: 2d7b 8ebd 62b9 493e 5606 d73d 9fa7 003e
00000250: 92e6 c9bd 788a 0b3e d14f 473c e63e 923d
00000260: 1205 e3bd dc72 a03c 1c45 a83d 8fb1 0a3e
00000270: 6400 76bd 4e40 0dbd d53c 2bbe d836 2ebc
00000280: 5f8b 893d c2c4 14be 6208 bb3c 6fd8 e0bd
00000290: 5a63 86bc b7a0 2e3d 42f1 bc3d 8eba f6ba
000002a0: c99b 073e 4a9c 0abe e10c 313d d2e1 91bd
000002b0: 76c7 50bd ee48 643d 51f6 2b3e b4cd 14be
000002c0: 6840 053e 4186 483d ec13 1f3e 951d a63d
000002d0: d547 42be 2bd0 debd 8b89 42be a0a4 81bd
000002e0: 1c47 0cbd d547 cdbd 72d3 f13d 8039 363e
000002f0: b434 d03c 22cf 373d 9427 fc3d 7543 ac3b
00000300: 24c4 4d3d 444f c43d e63b 09bd 0719 283e
00000310: 2aee 403c 7e0e 9abd 4aca bbbd 56fc b43d
00000320: 95c1 88bd 7a1d 93bb 3958 3cbc 9a27 993c
00000330: 2e76 ab3d c069 4dbd 6346 50be c8e8 0abe
00000340: 4041 05bd 63a6 83bd 7ebf f7bc 1e1a 20bd
00000350: 027e ad3d 6c4f f03d d849 31bd 3462 2e3e
00000360: 218c 153e 7cb8 463e 4745 273e efaf c1bd
00000370: e1d4 2ebd a6de 3a3e 1448 f13d a249 0c3e
00000380: b5f3 423e a2b7 acbd 080c 5bbd a584 dbbd
00000390: 2950 acbd d15c 5e3d 64fc a23c bc9c b5bc
000003a0: c3db 65bd f228 c8bd d638 053e 82ed 4d3d
000003b0: 91bb 2f3c bb69 1cbe 60c6 57bd 2244 78bd
000003c0: 89f6 17be bd1a 21bd 4835 f63d 3fad aa3d
000003d0: ff1d c93c 54ed c6bd 6f43 be3d 0ca5 64bc
000003e0: 73bb 07be cb34 953d 8eb0 753d f920 d83d
000003f0: 59eb 963b d3a5 303e bdf8 273e 74b1 213e

model.rnn.bias_ih_l1 f4 [160]
-0.009521145 0.010978594 0.0174956 0.17315848 0.08117551 0.04507697 -0.016974201 0.0726547
-0.020945247 -0.12217404 0.07967454 0.13740823 -0.11811349 0.07816968 -0.12516096 0.019174447
0.01558176 -0.055573635 0.07770465 0.0406104 0.082301594 0.103781015 0.003386721 -0.061856035
-0.02147879 0.0131657915 0.056383476 -0.012103177 0.20270175 0.15945259 -0.083599985 -0.04526389
0.18329723 -0.15449356 0.13654059 0.011495851 0.09365284 0.16230787 0.030363059 0.12636158
0.14452896 -0.087757856 0.15766512 0.043856602 -0.027562862 0.06364534 -0.015204491 0.13826028
-0.15722756 -0.09395297 -0.079024315 -0.05166249 0.066395365 -0.07616255 -0.10980421 0.13433169
0.09499744 -0.07065835 0.06773653 -0.04648383 0.07851428 -0.09954664 -0.111649565 0.1676335
-0.018602554 -0.042940475 -0.11239473 -0.12871991 -0.048694964 0.011361934 -0.12681368 -0.080856286
0.009148429 -0.09824423 0.17307001 0.06047386 0.09638745 0.0048343944 -0.089795105 0.15187266
-0.17989424 -0.094683506 0.03416984 -0.12133956 0.048997007 0.015934473 0.13121778 0.02206434
0.12307408 -0.046687562 0.115639456 0.053959526 -0.06921317 0.12362042 -0.1200965 0.12481186
0.13926764 -0.032084066 0.09692798 -0.12394064 0.084202856 0.1390247 -0.062942915 0.05152574
-0.05561053 -0.058663163 0.003799634 -0.14419323 0.032186348 -0.08401954 0.20420709 0.016680868
-0.10913417 0.038522176 0.106173344 -0.17665762 -0.032291967 0.12603335 -0.0028466918 0.09196103
0.059521083 0.19021146 -0.15235841 -0.013187719 -0.14578092 0.048730746 -0.057098955 -0.087452434
0.0028041988 -0.026268372 -0.16193613 -0.08293356 -0.047537446 -0.08700798 0.053225484 -0.10784046
0.033931408 0.073538005 0.066600405 -0.038658563 0.09125685 -0.014067719 -0.015351313 -0.032505363
0.08370366 -0.0031592103 0.16018352 -0.041462976 0.09534284 0.06241108 0.12223067 -0.068769425
0.1183113 -0.057363667 0.045219332 -0.03366048 0.13506125 0.10268808 -0.04711186 0.016395519
00000000: 94fe 1bbc 90df 333c ef52 8f3c 7550 313e
00000010: 593f a63d a1a2 383d 7b0d 8bbc fdcb 943d
00000020: 5e95 abbc 6236 fabd 682c a33d beb4 0c3e
00000030: 7ce5 f1bd 6d17 a03d 322a 00be bb13 9d3c
00000040: a34a 7f3c 2ea1 63bd 9e23 9f3d 1757 263d
00000050: bd8d a83d 248b d43d c0f3 5d3b c15c 7dbd
00000060: 4af4 afbc 55b5 573c 5cf2 663d 674c 46bc
00000070: 0c91 4f3e 8a47 233e 7836 abbd a166 39bd
00000080: 45b2 3b3e 8f33 1ebe 4cd1 0b3e 1859 3c3c
00000090: 0fcd bf3d 0934 263e f3bb f83c ee64 013e
000000a0: 66ff 133e 64ba b3bd f772 213e fba2 333d
000000b0: 83cb e1bc 7d58 823d 421c 79bc 1a94 0d3e
000000c0: 4300 21be 6a6a c0bd 80d7 a1bd 0c9c 53bd
000000d0: 4bfa 873d 1cfb 9bbd 08e1 e0bd 3f8e 093e
000000e0: 058e c23d 53b5 90bd 73b9 8a3d d465 3ebd
000000f0: 18cc a03d 1cdf cbbd 87a8 e4bd 1ea8 2b3e
00000100: 6264 98bc 5ae2 2fbd 352f e6bd 27cf 03be
00000110: 5f74 47bd 6827 3a3c 72db 01be fb97 a5bd
00000120: 4be3 153c 4534 c9bd 4439 313e 70b3 773d
00000130: c966 c53d d769 9e3b 7fe6 b7bd 8284 1b3e
00000140: 3236 38be 6de9 c1bd adf5 0b3d e080 f8bd
00000150: 16b1 483d 0389 823c f45d 063e 46c0 b43c
00000160: 430e fc3d 753b 3fbd 61d4 ec3d aa04 5d3d
00000170: a2bf 8dbd b42c fd3d 27f5 f5bd 5c9d ff3d
00000180: 2d9c 0e3e 956a 03bd 2d82 c63d 97d4 fdbd
00000190: 8c72 ac3d 7e5c 0e3e 37e8 80bd a80c 533d
000001a0: dec7 63bd c948 70bd 4803 793b 64a7 13be
000001b0: d5d5 033d 7012 acbd aa1b 513e 51a6 883c
000001c0: bc81 dfbd 6ec9 1d3d 6971 d93d bce5 34be
000001d0: 9544 04bd e30e 013e 908f 3abb 1156 bc3d
000001e0: 61cc 733d cbc6 423e d803 1cbe 4d11 58bc
000001f0: 9847 15be e499 473d 98e0 69bd 431a b3bd
00000200: a6c6 373b c530 d7bc 96d2 25be 12d9 a9bd
00000210: a0b6 42bd 3d31 b2bd f702 5a3d 76db dcbd
00000220: a9fb 0a3d 189b 963d cb65 883d 7158 1ebd
00000230: dfe4 ba3d 4a7c 66bc 1384 7bbc 5824 05bd
00000240: d36c ab3d c10a 4fbb 2607 243e 15d5 29bd
00000250: 1b43 c33d c3a2 7f3d 1354 fa3d fcd6 8cbd
00000260: 324d f23d 2af6 6abd e837 393d 92df 09bd
00000270: 7f4d 0a3e 214e d23d 5ef8 40bd e54f 863c

model.rnn.bias_hh_l1 f4 [160]
0.09058357 0.14586815 0.0745468 -0.09464436 0.07854957 0.018472038 0.003745447 -0.09653653
0.09115452 -0.03191117 -0.10267338 -0.042269353 -0.06609534 -0.13816427 0.008792369 -0.007699736
0.15929258 0.10945336 0.09768732 0.07955796 0.010259707 -0.083738126 -0.034478575 0.07188787
-0.05137809 0.02882727 0.018494917 0.12602785 0.047908567 0.07455421 0.18707548 0.06665102
-0.08257368 -0.077672474 -0.055702373 -0.035187475 0.04142258 0.0114939 0.05775014 0.09961953
-0.0884003 0.079770796 -0.09024711 -0.031714056 0.10390221 0.16097942 -0.071742766 0.099184036
-0.0031455678 0.002873806 -0.053569414 0.02568376 -0.062031183 0.09461757 0.10514946 -0.14472775
-0.046494666 -0.024514612 0.04786053 0.05437737 -0.14660306 -0.03215308 0.051375818 -0.019155636
-0.08294461 0.010157556 0.1528614 -0.14786811 -0.03311297 -0.014091176 0.010666728 0.06273348
-0.062055714 0.018546287 0.04264169 -0.010092763 -0.01616965 0.095142476 0.05187384 -0.06621116
0.029708816 0.05265729 -0.0038930587 0.008702767 -0.10125791 -0.10678533 -0.1545438 -0.10553574
0.12441422 -0.02437761 0.12601075 -0.12713316 0.17173187 0.110891156 -0.02762925 -0.12488169
0.03401335 -0.0906928 0.08102576 -0.05560078 -0.1327149 -0.032452427 -0.019521816 0.05985426
-0.001796511 -0.07730551 -0.1221786 -0.07485156 -0.18971717 0.06035016 0.021166554 0.12223595
0.18860544 0.10517736 0.14132972 -0.17835377 -0.15157507 -0.07138549 0.017225577 0.1109498
0.1998436 0.04740301 -0.047249284 0.16078347 0.13419493 0.18149607 0.13999952 -0.008063284
0.11181407 0.14299247 0.047159538 -0.041630868 0.009419789 -0.089320734 0.12590736 -0.08632887
0.14228925 0.18437141 0.11898608 -0.011808851 -0.02159265 -0.122540325 0.17464873 -0.08413444
0.056547817 -0.00533295 0.17221163 -0.06990765 -0.0033683479 0.18766491 0.08896563 0.038166855
0.11830095 0.009766392 -0.07250697 0.079133175 0.10346315 0.14534281 0.1279763 0.063291736
00000000: e183 b93d 765e 153e feab 983d e7d4 c1bd
00000010: 99de a03d ac52 973c 2c76 753b f2b4 c5bd
00000020: 39af ba3d 49b5 02bd 6c46 d2bd a122 2dbd
00000030: fe5c 87bd ef7a 0dbe de0d 103c 114e fcbb
00000040: 981d 233e 1529 e03d 4a10 c83d 49ef a23d
00000050: 5518 283c e57e abbd 6839 0dbd f339 933d
00000060: d571 52bd 2b27 ec3c a782 973c 720d 013e
00000070: c63b 443d e1af 983d b790 3f3e 5480 883d
00000080: 641c a9bd bf12 9fbd 2c28 64bd be20 10bd
00000090: b9aa 293d e950 3c3c 698b 6c3d 5305 cc3d
000000a0: 370b b5bd df5e a33d 7ad3 b8bd 99e6 01bd
000000b0: afca d43d cad7 243e dfed 92bd 0021 cb3d
000000c0: df25 4ebb 7756 3c3b 9a6b 5bbd c066 d23c
000000d0: 6914 7ebd dbc6 c13d 9a58 d73d 8333 14be
000000e0: 3171 3ebd ded2 c8bc 6709 443d ceba 5e3d
000000f0: 1d1f 16be f3b2 03bd 736f 523d 48ec 9cbc
00000100: ddde a9bd e16b 263c b387 1c3e bd6a 17be
00000110: 77a1 07bd adde 66bc 80c3 2e3c 697a 803d
00000120: 222e 7ebd 62ee 973c 0da9 2e3d 1e5c 25bc
00000130: 3776 84bc 0fda c23d aa79 543d b799 87bd
00000140: e75f f33c 2caf 573d b022 7fbb 0d96 0e3c
00000150: 4f60 cfbd 44b2 dabd bb40 1ebe 1f23 d8bd
00000160: e2cc fe3d 8eb3 c7bc f608 013e 322f 02be
00000170: 7bda 2f3e e71a e33d bd56 e2bc f9c1 ffbd
00000180: 9551 0b3d 26bd b9bd d5f0 a53d a5bd 63bd
00000190: 6ae6 07be d6ec 04bd 37ec 9fbc be29 753d
000001a0: e878 ebba 5a52 9ebd c638 fabd c64b 99bd
000001b0: 3845 42be bb31 773d 7b65 ad3c d756 fa3d
000001c0: c921 413e 3a67 d73d bdb8 103e 5fa2 36be
000001d0: 7f36 1bbe 8e32 92bd a71c 8d3c a639 e33d
000001e0: cda3 4c3e a929 423d 7788 41bd 6ca4 243e
000001f0: 656a 093e 1bda 393e 095c 0f3e dd1b 04bc
00000200: c6fe e43d 9e6c 123e 5c2a 413d 2185 2abd
00000210: 7555 1a3c caed b6bd dced 003e 31cd b0bd
00000220: 46b4 113e dccb 3c3e f9ae f33d e979 41bc
00000230: 12e3 b0bc 6cf6 fabd 1ed7 323e ad4e acbd
00000240: af9e 673d 07c0 aebb 3f58 303e be2b 8fbd
00000250: 80bf 5cbb 3b2b 403e 9d33 b63d d954 1c3d
00000260: c547 f23d 3803 203c 897e 94bd 9310 a23d
00000270: 7de4 d33d bfd4 143e 380c 033e 199f 813d
